checkpoints/sketch_prediction_2/cross_attention_model.pth (torch, 56104 bytes, 13 tensors)

cross_attn.in_proj_weight f4 [96, 32]
000000 0b 17 dd bd f2 14 25 bd 3c ab 3f be 64 22 8e 3d
       -0.10795411 -0.040303178 -0.18717664 0.06940153
000010 b3 57 09 be 5a 30 5c 3e f3 1b f9 3d c8 40 82 be
       -0.13412361 0.2150282 0.12163534 -0.2544005
000020 a9 f3 d1 3d c1 ed b9 bd 2c 73 0b 3e a7 33 db 3d
       0.102515526 -0.09078551 0.13618153 0.10703211
000030 95 24 a6 3d 9d ad 2b be 73 44 5d bd 70 ba 4e 3e
       0.08112446 -0.16765447 -0.054020356 0.20188308
000040 86 31 31 3d 62 a8 24 bc cc d8 99 3d 3a ca 2c 3e
       0.04326012 -0.010049911 0.07512054 0.16874018
000050 02 1b c2 bd 45 fc 27 3e c8 c3 39 3e ae cb 49 3e
       -0.094778076 0.16404827 0.18141091 0.19706604
000060 61 48 58 3d 58 16 8b bc dc ec 78 3e a7 cf ad bd
       0.0528034 -0.016978428 0.24309105 -0.08486872
000070 9a a9 74 3c 05 ef 88 3d fd 77 45 3e 04 04 8c 3e
       0.014933014 0.06686214 0.19284053 0.27346814
000080 3e 96 16 3e 60 78 55 bd 60 4d 46 3e 54 4d 13 3e
       0.1470575 -0.05211675 0.19365454 0.14384967
000090 70 7f 49 bc 5f 6a ab bc a1 b9 03 bd 82 97 e7 bd
       -0.01229845 -0.020924745 -0.03215945 -0.11308195
0000a0 9a 0b 8d 3e 8e 8a 25 3c 62 c7 e7 3d 53 16 53 be
       0.27547914 0.010103835 0.11317326 -0.20613985
0000b0 db 84 3f bd 66 04 15 be 69 8a f3 bd d1 5e 77 be
       -0.04675756 -0.14552459 -0.11891634 -0.24157263
0000c0 92 7c 38 be 43 85 92 3d d9 d9 39 3e 63 b7 d3 3d
       -0.1801627 0.07154324 0.18149509 0.103377126
0000d0 da 24 15 bd ed 40 c2 bd 0d 2f 7b be 45 3d 25 be
       -0.036412098 -0.0948504 -0.24529667 -0.16136654
0000e0 38 f5 38 3e 13 04 b1 bd e0 7d 8b be bc ef 63 bd
       0.18062294 -0.08643355 -0.27244473 -0.05564855
0000f0 6a 2c 26 bc 7d 60 13 3d 6f 5d 61 bd 3d e1 ac bb
       -0.010142425 0.03598069 -0.055020746 -0.005275874
000100 9b 32 fd bc 20 03 73 be ce 6d 11 3e 3e e4 b4 3c
       -0.03090792 -0.23731661 0.14202043 0.02208149
000110 4c a6 b3 3d ef 4b 69 be 4a 46 ed 3d fc c0 23 3e
       0.08771953 -0.22782873 0.11585672 0.15991586
000120 f5 4c 9c 3c 9a e5 62 bd d8 80 b0 3c a5 f5 1a 3e
       0.019079665 -0.055394746 0.021545812 0.15132768
000130 66 fc b0 3c 79 33 4b 3e bd d1 46 3e be 3d 4c be
       0.021604728 0.19843854 0.19415946 -0.19945428
000140 97 ba ef bd c2 94 5c be b7 e7 fb 3d 79 b1 5a be
       -0.11705511 -0.21541122 0.123000555 -0.21356763
000150 dc e2 0f 3d 50 9c bf bd 99 d7 0b 3e d2 00 70 bd
       0.03512846 -0.09355986 0.13656463 -0.058594532
000160 d2 48 ea bc 5a 31 2b bd 3c e1 2e bb b5 15 95 3e
       -0.028599177 -0.041795112 -0.0026684543 0.29118124
000170 67 4b a5 bc 0e d3 4a 3d a3 d2 70 3c 28 fb 5b be
       -0.020177556 0.049517684 0.014698657 -0.21482527
000180 da 1a 18 3d c7 d5 6b bd cf 9a 52 bd 94 16 0f be
       0.037134983 -0.05757692 -0.05141717 -0.13973457
000190 bb 57 0a bd 6b a0 21 be 3d af 08 be 7c 5d 8a bd
       -0.033775073 -0.15783851 -0.13348098 -0.06756112
0001a0 72 44 8c 3d 27 ed 61 bd 77 c9 cd bc 6f 13 f9 3d
       0.068489924 -0.055157807 -0.02512048 0.1216191
0001b0 d0 b0 85 bd 4c c7 88 3d eb 80 72 3d 41 d4 8d be
       -0.06527865 0.06678638 0.059204977 -0.27701
0001c0 6a e6 3b be b8 be 68 be 1b 98 8c 3e 75 78 1d 3e
       -0.18349615 -0.22729003 0.27459797 0.15377982
0001d0 7e b3 56 3e 3c b8 0b 3e 10 f2 09 bd 85 4f 4c 3d
       0.20966908 0.13644499 -0.033678114 0.049880523
0001e0 79 aa 16 3e b8 f0 86 3d 1f e8 ba be 53 da 2e 3a
       0.14713468 0.06588882 -0.3650522 0.0006670106
0001f0 6a f5 73 3e 8e 69 49 3e a9 fe b8 3d 1e 72 2b be
       0.23824087 0.19669172 0.090329476 -0.16742751
000200 d2 2b a6 3d ce 6e 89 3c 75 a9 96 3d f9 ff 0d 3d
       0.08113827 0.016776469 0.0735654 0.034667943
000210 76 3f a7 bb 68 76 be bd 3b fe 6e bd c7 04 cc 3a
       -0.0051040007 -0.09299928 -0.05834792 0.0015565389
000220 3c 26 c2 bd 43 ec 6e 3e ab 4f 3b bd c1 6c 80 bd
       -0.09479949 0.23332314 -0.045730274 -0.06270743
000230 d8 7a 88 3c ae 8b 3f 3e ee 32 c1 bd 6f 44 32 bd
       0.016660139 0.18705627 -0.09433542 -0.043522295
000240 9c d2 fb bd d3 5b c1 bd 38 37 87 3c 69 d1 02 3e
       -0.1229603 -0.09441342 0.016505823 0.12775196
000250 15 c9 95 3d e2 fa 9d 3d de 54 48 be 57 16 38 3d
       0.07313744 0.07713868 -0.19563624 0.04494318
000260 20 02 7a bd ec a0 61 3d cb 64 dd bd a0 84 05 3e
       -0.061037183 0.055085108 -0.1081024 0.13038874
000270 e6 c5 5c 3e fd fb 1e bd 50 ef 18 be ed 8f 9a be
       0.21559867 -0.038814534 -0.1493504 -0.30187932
000280 8c 88 52 3d 40 6a 2b bd 66 fe 32 be 46 d1 8e 3d
       0.051399752 -0.041849375 -0.17479858 0.069735095
000290 60 ad f1 3d 44 72 75 bd 43 21 f7 bc 3c 28 56 3d
       0.11800647 -0.059923425 -0.030167228 0.052284464
0002a0 b7 ff ef bd 4e a8 d3 bd c2 3c 36 be 18 5f 8e bd
       -0.117186956 -0.10334836 -0.17796615 -0.069517314
0002b0 f2 e0 16 3e 6e 25 fa 3d 63 e2 c4 3d a0 5e 4d 3e
       0.14734247 0.122141704 0.09613492 0.20055628
0002c0 89 42 17 3e 14 61 80 3e 00 19 f7 bb ae aa 8a 3d
       0.14771475 0.25074065 -0.007540822 0.06770836
0002d0 e0 2c 2c 3c 1b d7 06 bd 0c fc ae bd 9d de 85 3e
       0.010508746 -0.032919984 -0.08544168 0.26146403
0002e0 f3 aa 8d 3c 59 91 65 bb 41 a2 34 3e d5 04 82 bd
       0.017293429 -0.003502926 0.1764002 -0.06348578
0002f0 4d 97 37 3d 94 79 4e be 2f a4 08 3e 9f c1 fc bd
       0.044822026 -0.20163566 0.13343881 -0.12341618
000300 4c 34 1b 3e bd 80 81 3e d8 ae 3f bc b0 91 05 bd
       0.15156668 0.25293532 -0.011699401 -0.03260964
000310 93 ff 1b bd be 15 82 3e 48 b6 ba 3d 13 50 8f be
       -0.03808553 0.25407213 0.09116799 -0.2799078
000320 44 b5 0b bd 79 07 49 be 67 70 a8 3d 51 d9 4b be
       -0.034108415 -0.19631757 0.08224564 -0.19907118
000330 83 e3 a3 3d 77 3b ad bb d8 f5 2f be 23 61 6c 3e
       0.08002379 -0.00528663 -0.17183626 0.2308393
000340 bf 6e 8f 3d 57 3b 81 3e eb 91 c9 bc 25 38 49 3e
       0.07003545 0.25240585 -0.024605712 0.19650324
000350 f4 1c f0 bd 26 c8 05 3e d1 7d 3b 3e 17 95 a9 bd
       -0.11724272 0.13064632 0.18309714 -0.0828039
000360 64 8a fa bc 13 b5 ab bd ca d7 59 3e 6a e9 cf 3d
       -0.030583568 -0.083841465 0.21273723 0.10151942
000370 de b5 bf bd e3 26 43 bd 39 d2 61 3d b1 fa df bb
       -0.0936086 -0.047644507 0.055132125 -0.0068353047
000380 39 ca 40 3d d9 16 8a be a3 db 07 be b1 41 b8 3d
       0.047067855 -0.26970556 -0.13267379 0.08996905
000390 db f5 c3 bd d0 c0 58 be 2c 55 a9 bb 61 ee 21 3e
       -0.095683776 -0.21167302 -0.005167624 0.1581359
0003a0 ed 89 2f bd 37 44 5c 3e 2b 6e 5d bd d2 43 da bc
       -0.042856146 0.21510397 -0.054060142 -0.026643667
0003b0 9a 2f 62 3e 53 41 41 3d 87 fc 3c 3e 0e 90 6b be
       0.22088471 0.04718144 0.18455707 -0.23004171
0003c0 5c 00 9e bd 5a 83 07 bb f2 a1 25 ba df 19 36 be
       -0.07714912 -0.0020677657 -0.0006318382 -0.17783307
0003d0 46 93 10 be 60 0e 16 bd 26 09 93 3c 2d 99 e1 bd
       -0.1411868 -0.036634803 0.017948698 -0.11015544
0003e0 5d b4 08 3e 81 b7 fd 3d 0b 8a d2 bb c9 1f 7b 3e
       0.13350053 0.12388516 -0.0064251474 0.24523844
0003f0 b0 71 ac bd 36 ac d3 3d 3f 88 9e 3d 2e 92 28 be
       -0.08420122 0.10335581 0.07740831 -0.16462013

cross_attn.in_proj_bias f4 [96]
000000 61 50 0b bc df 64 39 bd f1 20 8d ba 92 9c 89 bc
       -0.008503051 -0.045262214 -0.0010767264 -0.016798291
000010 64 55 36 3d 80 df 02 3d fc 15 49 3c f9 08 1e bd
       0.04451503 0.031951427 0.012273308 -0.038582776
000020 c2 97 29 3d c9 9c 31 bc 3a 81 90 3c 7f 4c c5 bc
       0.041404493 -0.010840603 0.017639745 -0.024084328
000030 a4 81 e9 3b 5b 68 6a 3d 7a d5 4d bd 34 be 5f bd
       0.00712605 0.057228427 -0.050252415 -0.05462475
000040 11 c2 d8 bd 35 68 bb 3d 74 bd 0e be f8 61 8d bd
       -0.1058389 0.09150735 -0.13939458 -0.06903452
000050 07 84 be 3d 3c ea 8a bd 50 06 02 3e 13 39 12 be
       0.09302526 -0.06782958 0.1269772 -0.14279585
000060 e3 ae 2a bd 31 4c 17 3d c0 4b 20 be 47 89 ae bd
       -0.04167069 0.036937896 -0.15653896 -0.08522277
000070 e6 49 07 be 6a 9d 0f be c5 02 d4 3c 51 e5 15 be
       -0.13211784 -0.14024892 0.025880227 -0.14638259
000080 89 fe cc 39 52 3b a8 3a 28 8c bf 3a c5 c2 87 3a
       0.00039099556 0.0012835062 0.0014613913 0.0010357728
000090 02 ee f4 ba 85 a0 69 ba 14 4d e8 b9 9e c4 d8 36
       -0.0018686655 -0.0008912164 -0.00044307916 6.460191e-06
0000a0 c1 84 bd 3a 96 f0 fa ba 51 7e 0b 3b 41 b8 80 ba
       0.0014459119 -0.0019145187 0.0021285007 -0.0009820537
0000b0 f3 18 dc ba 91 69 45 bb 66 8f d1 3a e8 a8 82 3a
       -0.0016792103 -0.0030122737 0.0015988171 0.0009968551
0000c0 28 98 e8 3a 7e 4c fb ba 57 fd 34 3a f5 8e 5e 3b
       0.0017745541 -0.0019172577 0.00069042057 0.003395972
0000d0 e0 4b 9d 39 c5 42 fd 3a 5b 58 08 bb da 0c 10 3b
       0.00030001905 0.0019322267 -0.0020804617 0.0021980316
0000e0 61 35 e4 b8 12 ce 41 b9 28 a9 5d 3b 0b 95 30 3b
       -0.0001088183 -0.00018482681 0.0033822749 0.0026944305
0000f0 8c e6 d9 3a 3c 74 55 3b f8 d9 62 38 87 eb 00 3b
       0.0016624494 0.0032570502 5.4085598e-05 0.0019671635
000100 52 92 83 bc d5 11 97 3c 37 2d 21 3d 18 c6 0a 3c
       -0.016060982 0.01844112 0.03934976 0.008470081
000110 7f d8 aa ba 9c 4c 7a ba cc 7c 21 3d ab 7e dd bc
       -0.0013034492 -0.0009548159 0.039425656 -0.027037939
000120 44 35 af bd d6 48 1e 3d 0f f7 b7 bd 51 59 9e 3c
       -0.085550815 0.03864368 -0.089826696 0.019329699
000130 b6 43 30 3d 1d 2e c8 bb af ea 40 bc 76 7e 09 bd
       0.043033324 -0.0061090128 -0.011774703 -0.03356787
000140 19 49 62 bc 59 a4 64 3c f8 a5 46 bc 17 af 33 bd
       -0.013811373 0.013955199 -0.012124531 -0.04386815
000150 c1 d1 9a 3c 84 a3 57 3c 6a d1 40 3c 17 ce 46 bc
       0.018898847 0.013161544 0.011768678 -0.012134097
000160 55 80 fd 3c e4 a9 67 bd b1 3b 36 bd 44 85 fd 3c
       0.030944983 -0.056558505 -0.04449052 0.030947335
000170 fb 21 a7 bb 0c 97 31 3c ca a3 8c 3c ef 2e 2e 3d
       -0.0051004863 0.010839235 0.017167944 0.042525228

cross_attn.out_proj.weight f4 [32, 32]
000000 7e 3a aa 3d 8b ef 75 3d d8 8c 1a 3e be 00 72 3d
       0.08311938 0.0600429 0.1509279 0.05908274
000010 88 78 3a bc d2 9d 93 3d 32 5f 4a 3e d5 95 b8 3d
       -0.011381276 0.07207836 0.19762877 0.09012953
000020 30 0b 8d 3d d8 11 f3 bd dd 7a d8 3d f7 d0 9c bd
       0.068868995 -0.11868638 0.10570309 -0.076570444
000030 61 41 1e 3e f2 0e 33 be 7b e6 7e bd c9 2f dc 3d
       0.15454628 -0.1748617 -0.062231522 0.10751302
000040 4a 09 6b 3d c9 83 16 bd ca 50 f5 bd cb a3 1b 3d
       0.057381906 -0.036746774 -0.119783 0.037998002
000050 2a bd 21 be 79 68 22 bd 49 f6 2c 3d 18 e7 c6 3d
       -0.15794817 -0.039650414 0.042227063 0.097120464
000060 9d 3c 89 be 51 64 5c bd ad 70 62 3d 9e 00 84 be
       -0.26804057 -0.053806607 0.055283237 -0.2578172
000070 65 8a 06 3e a6 cb 11 3e 24 53 a0 3d 02 86 1d 3e
       0.13138731 0.14237842 0.07828358 0.15383151
000080 ed bb 22 be 68 89 39 3d 43 d6 10 3e 46 08 0f 3e
       -0.15892 0.045297056 0.14144234 0.13968
000090 86 10 b7 bc 04 40 a4 bd c6 46 47 3d 48 aa f0 3b
       -0.022346746 -0.080200225 0.04865148 0.007344518
0000a0 29 d8 f5 bd 8d 69 06 be 63 55 df 3a 60 cb 88 bc
       -0.1200412 -0.13126202 0.0017038997 -0.01669854
0000b0 ca 1f 03 3d ed f0 39 bd 5b 93 50 bd f6 6a b8 3b
       0.03201274 -0.04539578 -0.05092178 0.005627985
0000c0 d4 48 28 3e d6 db 0b 3e 2b d6 49 bd af 28 68 bd
       0.16434032 0.1365808 -0.049276512 -0.056679424
0000d0 50 a7 c3 3d 75 47 c6 3d 84 8c e6 3d f1 56 cc bd
       0.09553397 0.09681598 0.1125727 -0.0997752
0000e0 8c f8 90 3d cf 6c 0a be b5 bf e7 bd 85 42 a9 bd
       0.070786566 -0.1351807 -0.11315862 -0.08264641
0000f0 cf 1f d3 3d a7 b1 c5 3c bd d4 f3 bd 24 a7 2c 3e
       0.103088014 0.024132563 -0.11905811 0.16860634
000100 d5 15 24 3d 97 49 e9 bd 74 12 4f 3d 69 e1 7c 3e
       0.040059883 -0.11390989 0.050554708 0.24695362
000110 00 07 78 bd ad 6c 0e 3e 19 42 db 3d b0 27 4a bd
       -0.06055355 0.13908644 0.107059665 -0.049354255
000120 df 00 48 bd 5c 52 15 3e 31 db d8 bc e0 fa c9 bd
       -0.048828956 0.14582199 -0.026471706 -0.09862304
000130 73 ee a8 3d 20 90 1e bd f3 a0 02 be 49 2f 68 bd
       0.082486056 -0.038711667 -0.1275671 -0.05668572
000140 f4 2c 1e 3e 47 af 72 3c 30 9c 47 3d 77 04 c2 3b
       0.15446836 0.014812297 0.048732936 0.0059209424
000150 da 49 08 be ab 6d 59 3e 20 c2 04 bd 7c a7 11 3b
       -0.13309422 0.21233241 -0.032411695 0.0022225073
000160 c4 ce 9d 3c ab 09 0b be 11 dd a0 bd 47 24 3d bd
       0.019263633 -0.13577907 -0.07854665 -0.046177175
000170 b7 1e e6 3d 16 82 ec 3d 30 7e 10 3d f7 ad 2a bd
       0.11236327 0.115482494 0.03527659 -0.041669812
000180 19 d1 ac 3d 36 8d f4 bd 19 41 43 bd 7e 79 06 be
       0.0843832 -0.11940996 -0.047669504 -0.13132283
000190 3a 86 a0 3d 68 3c de bd ea 5b b2 bd c6 1b 29 bd
       0.07838102 -0.10851365 -0.087089375 -0.041286252
0001a0 1c ed 3c bc 1e 80 0f 3e 23 b6 bf 3d 33 fd 71 bd
       -0.011531141 0.14013717 0.09360912 -0.05907936
0001b0 48 5f 03 be 24 54 18 3e dd 61 40 3d c9 09 bc 3b
       -0.12829316 0.14875847 0.04696833 0.005738471
0001c0 95 f6 32 bc 1c 89 f3 3d 03 3f ad 3d 3e d1 75 bd
       -0.010923048 0.11891386 0.08459284 -0.060014002
0001d0 ae 70 97 bd 1d 61 43 be 40 93 c4 3c 32 07 12 bd
       -0.07394539 -0.19080015 0.023995996 -0.035651393
0001e0 fc a4 4a 3d 87 ce 4a bd 01 7a 4a be dd 8a a2 3b
       0.049473748 -0.049513366 -0.19773103 0.0049604014
0001f0 e1 6e d7 3d e7 c2 fc 3c 40 7a c9 3d 4a 6f 4a 3d
       0.10519195 0.030854655 0.098377705 0.04942254
000200 da 57 c6 3c 45 17 3c 3e 40 44 ce 3d 47 98 17 3d
       0.024211813 0.18368252 0.100716114 0.037010457
000210 fd 61 8f bd 56 63 29 be 55 0b 3b 3e 60 ef 2c bd
       -0.07001112 -0.165418 0.18266042 -0.042220473
000220 9e 91 14 3d fe e8 88 bc 71 3a 0b be f9 f9 63 3d
       0.036271684 -0.016712662 -0.13596512 0.055658314
000230 46 80 44 3d 46 a6 1a 3d 72 a6 1b 3d a2 6a 53 ba
       0.047973894 0.037756227 0.03800053 -0.0008064901
000240 1b 5e 86 be 54 13 11 3d 16 ff 9b bd b3 18 9f bb
       -0.26243672 0.035418823 -0.07617013 -0.0048552393
000250 8e a8 03 3d 6d 9a eb bd a1 0c 13 bd 26 09 96 bb
       0.03214317 -0.11504064 -0.035900716 -0.0045787273
000260 2a 74 bc bd 32 b2 95 3d 11 74 a3 3d d0 a0 01 be
       -0.09201844 0.07309379 0.07981122 -0.12659001
000270 1b 24 77 3b 0d 14 cf 3d 09 e5 b3 bd 25 5c 02 be
       0.003771073 0.10111246 -0.08783919 -0.12730463
000280 82 8e 46 bb 9b a4 98 3d d3 0d 0e be 9d e9 da bd
       -0.0030297344 0.07453271 -0.13872461 -0.106890894
000290 28 ca 6e 3d fc 27 06 be 4d 11 6a be 8f 50 cd bd
       0.05829826 -0.1310119 -0.22858162 -0.10025131
0002a0 cf 24 b4 3d 2d 0f 9e 3c 83 32 94 3d 28 5d c1 3c
       0.08796083 0.019294346 0.07236197 0.02360399
0002b0 c3 d1 8d bc b0 eb 2d bd ba d6 0b bd d0 52 3f 3e
       -0.017311936 -0.042461097 -0.034140326 0.18683934
0002c0 05 58 4f 3e 17 a3 55 3c d9 0d 13 be 78 01 4a bd
       0.2024842 0.013039372 -0.14360751 -0.049317807
0002d0 e3 66 31 bb 8d 2c bf bd db 05 3c bd 32 5f ca bb
       -0.0027069382 -0.09334669 -0.04590402 -0.006175899
0002e0 c3 88 55 3e 0a f0 30 3e 04 e3 06 3c ff 47 9c 3d
       0.20852952 0.17279068 0.008232836 0.0763092
0002f0 78 85 b2 bd cc b1 03 be aa 82 5a 3e f8 a4 ee bd
       -0.087168634 -0.12860793 0.21338907 -0.11652559
000300 f3 9e 9c bd d3 47 e0 3d 4a 59 ea bd ad d9 5d bd
       -0.07647505 0.109511994 -0.11442812 -0.05416267
000310 2a d2 08 3e ee 48 bc bd 71 8a 3d bd 7f 93 4f bd
       0.13361421 -0.09193598 -0.046274606 -0.050677773
000320 b9 85 b0 bd 08 d0 1b be 6b 55 32 3e 7f de 9b bd
       -0.086192556 -0.15216076 0.17415397 -0.07610797
000330 ae 3c 46 be 8e 22 3c 3e 6a 89 6a 3d 27 ec 2e bd
       -0.19359085 0.18372557 0.057259955 -0.04270568
000340 06 06 99 3e 0d bd 30 3b 02 72 a6 bd f7 34 54 3d
       0.29887408 0.0026968152 -0.08127214 0.051808324
000350 30 32 29 3e ae 4e 62 3e 64 07 d1 bd 9e e1 b8 bd
       0.16523051 0.22100326 -0.10206488 -0.09027408
000360 55 14 f5 bd 5a 3f d8 bd fc b8 ac bd 78 9e 09 be
       -0.11966769 -0.10558958 -0.084337205 -0.13439357
000370 62 ae d4 3d 48 a0 ce 3d f7 f3 0c bd bf 0c 1e bd
       0.103848234 0.10089165 -0.03441235 -0.038586374
000380 65 31 87 3c 77 29 d9 bc 1e 51 33 bb 07 a0 5f be
       0.016503045 -0.02650903 -0.0027361582 -0.2183839
000390 eb d4 26 bd f8 fe 68 3d 8f c3 e6 bd 7b 3e 30 bd
       -0.0407304 0.056883782 -0.112677686 -0.043028336
0003a0 14 ee 21 3d da 11 eb bd 9a 58 06 3e 2a e9 05 bd
       0.03953369 -0.11478014 0.13119736 -0.032693066
0003b0 b4 6d ed bd eb 4d 6d bd 8f 28 05 3c 7a 0f c8 bd
       -0.1159319 -0.057935636 0.008127346 -0.09768577
0003c0 df 87 e3 bd 5f 01 8c 3d 19 a7 b2 bd 17 b2 cc 3c
       -0.111099 0.06836199 -0.087232776 0.024987264
0003d0 16 e5 c8 3c e6 aa eb 3d f0 65 28 3d ab 2c f0 bc
       0.0245233 0.11507206 0.04111284 -0.029318174
0003e0 a4 9b 75 3d cf f5 a4 3b ef 04 55 bd 64 f7 32 3d
       0.059962884 0.0050341855 -0.05200666 0.04369296
0003f0 93 c2 21 3d 13 6d 11 be b9 cf 92 bc da a5 32 be
       0.0394922 -0.14201765 -0.017921316 -0.1744608

cross_attn.out_proj.bias f4 [32]
000000 34 a6 45 bd d7 b6 31 3d de a3 d6 3b 56 77 34 bc
       -0.048254207 0.04338726 0.006550296 -0.01101478
000010 d8 3a e4 bd 85 22 bc 3d 16 2a 46 3d e4 d1 12 bd
       -0.11144036 0.091862716 0.04837998 -0.0358447
000020 50 a9 a6 bd f6 37 a4 3d 3e 5a d0 bc f2 ff 32 bd
       -0.081377625 0.08018486 -0.025433656 -0.04370112
000030 c1 5d 3a bb 4f 41 ff bd ea cf 9e bd 63 87 93 3d
       -0.002843723 -0.124636285 -0.077545 0.07203557
000040 7a 37 4f 3d 02 13 1b 3e 31 8f 2f 3c e3 6a 0c bd
       0.050590016 0.1514397 0.010715292 -0.034281623
000050 0f 15 fd bd 72 cd 5c 3d 5f 43 f7 bc 78 79 ae 3d
       -0.12357532 0.053906865 -0.030183492 0.08519262
000060 f2 d6 0e be 8b 14 bf 3c 9c 5e 03 3e 1e ce c5 bc
       -0.13949183 0.023325225 0.1282906 -0.024146136
000070 2c 8d fd bc 78 83 0e be c8 78 1d 3d cf 64 46 3d
       -0.030951105 -0.13917339 0.038445264 0.048435982

ff.0.weight f4 [128, 32]
000000 d7 47 bd 3d 85 9e c2 3c ba 7f d6 3d 6c 3a f2 3d
       0.09242218 0.023757229 0.10473581 0.11827549
000010 d2 c7 65 be 17 a2 e7 3d 36 f3 2a bc b0 de a0 bc
       -0.22439507 0.11310213 -0.010433963 -0.019637436
000020 87 35 0d 3e 24 f8 1a bc 5f 61 aa bd 36 fb 94 3d
       0.1378995 -0.009458575 -0.08319353 0.07274477
000030 1d 0f dc bd d0 98 40 3d 02 db 2c 3d 70 a4 4a 3e
       -0.1074507 0.047020733 0.04220105 0.1978929
000040 b5 71 d3 3e 6e 05 0c 3e c0 96 af bd 09 b9 91 bd
       0.4129769 0.13673946 -0.08573675 -0.07115371
000050 a6 bc 6a 3d a4 78 5c 3e 87 0a 17 3e c9 a6 13 3e
       0.057308815 0.21530396 0.1475011 0.14419092
000060 20 07 4d bc 87 45 18 bc e2 49 4d 3e 11 f8 ae bd
       -0.012513906 -0.00929392 0.20047715 -0.08543409
000070 01 12 1d be 7a fa 3e 3d c9 10 2f 3e af 6b e0 3d
       -0.15338899 0.04662559 0.17096247 0.10958039
000080 64 1c ad bd 51 89 95 bd 8e 0f 27 be 1c 85 51 3e
       -0.08452681 -0.07301582 -0.16314527 0.20460933
000090 56 8d c0 3d 42 91 8f 3c e1 a0 91 3d cb 50 f3 bc
       0.09401958 0.017525319 0.07110763 -0.029701611
0000a0 52 1d 00 bd ea 6a f4 bb 08 6b af bd aa 0c 50 3d
       -0.031277962 -0.007459034 -0.085653365 0.050793327
0000b0 9e 64 15 be 5c 77 14 bd 0c 30 60 3d be 86 7a 3d
       -0.14589164 -0.036246642 0.05473332 0.061163656
0000c0 12 b3 fe bd 7d 1a 80 be f9 16 24 bd 98 3c ee bd
       -0.12436499 -0.2502021 -0.04006097 -0.11632651
0000d0 86 ff 91 3d 5d 78 2f 3e c3 ad 09 3e 52 a2 31 be
       0.07128815 0.17135759 0.13445191 -0.17347077
0000e0 3b a3 67 3d 28 a5 b1 bc 96 75 12 b9 ac c9 6d ba
       0.056552153 -0.021685198 -0.00013967449 -0.0009070884
0000f0 67 ca 55 3e c2 59 1f 3e 2b 02 42 bd 7d 8c 07 be
       0.20877992 0.15561584 -0.04736535 -0.13237186
000100 b8 6b 3f bd f7 a1 17 be a8 99 3e be c1 7a 1e 3e
       -0.046733588 -0.14807878 -0.18613303 0.15476514
000110 bb 92 78 bd 2b 60 46 3e 72 11 08 3e 75 51 0b be
       -0.060686808 0.19372623 0.13287905 -0.13605292
000120 29 8f 44 be 1a 59 17 3e 8c 5d b0 3d 8f 67 b0 3d
       -0.19195236 0.14780083 0.08611593 0.08613502
000130 54 35 a6 be be af 0d be dc b4 cc bd 4f 21 66 3d
       -0.3246256 -0.13836572 -0.09995434 0.05618411
000140 84 b1 71 bc d3 9b 2f bd f7 df 32 bd b9 f1 95 bc
       -0.014751796 -0.042873215 -0.04367062 -0.018303739
000150 cc 2e 9d bd e5 84 ee bc 82 92 ed 3d 9b 1c 72 bc
       -0.076749414 -0.029116103 0.1160021 -0.014777328
000160 32 13 25 be a9 c6 77 3d 4b 59 0d be 42 81 e9 3d
       -0.16120604 0.06049219 -0.13803594 0.11401607
000170 9d aa df 3d ed bc 23 bd d2 90 08 bc 79 71 98 bd
       0.10921214 -0.039975096 -0.008335309 -0.07443518
000180 aa 78 b9 bd a0 43 82 3c 98 a1 af 3e de 3a 97 bd
       -0.09056218 0.015901387 0.34302974 -0.07384275
000190 56 3f 3b be ce 85 a8 3d e9 5d 32 be 0f 24 5b be
       -0.1828588 0.08228646 -0.17418636 -0.21400474
0001a0 4e 91 0a bd 7d f3 65 3b 91 de 15 3e dd b1 55 bc
       -0.03382998 0.0035087757 0.14635684 -0.013042894
0001b0 29 14 8b bc 05 a6 8e bd fb 49 11 be d3 3d e6 bd
       -0.016977387 -0.069652595 -0.14188378 -0.11242261
0001c0 3d 9b 82 3d 7e df 4b bd c0 64 8b 3d 0f 4b 93 3d
       0.063772656 -0.049773686 0.06806326 0.07192051
0001d0 f7 13 d8 3d 91 6e a5 bd 06 c5 03 be 02 25 87 3d
       0.10550683 -0.080777295 -0.12868127 0.065988556
0001e0 f2 13 00 3e 17 18 f3 bd ac f7 62 bd b4 f3 58 bc
       0.12507609 -0.11869829 -0.05541198 -0.013241697
0001f0 40 22 75 3d 3b bd 1a be 16 db 17 bc d6 47 cb 3d
       0.059847116 -0.15111248 -0.009268543 0.09925811
000200 3e 13 a9 3d bd 97 20 3e f6 b6 5c be 6c 4c 30 be
       0.08255623 0.15682884 -0.21554169 -0.17216653
000210 32 8b 32 bd 4c c2 ad 3b b9 2c 62 3e 91 21 d9 3d
       -0.04358978 0.005302703 0.22087373 0.106021054
000220 eb 6d 01 be b9 12 63 bd b2 b4 dd 3d cf f4 d4 be
       -0.12639587 -0.055437777 0.108254805 -0.41593024
000230 4f f6 62 be 05 1b c0 bd 2a cd 31 bd e8 39 0c be
       -0.22164272 -0.093801536 -0.04340855 -0.13693964
000240 f9 63 bc 3d 7a aa b4 3d 09 58 aa 3d 52 b1 45 bd
       0.09198756 0.08821578 0.083175726 -0.04826481
000250 d5 9f 1e 3e 08 41 ca 3d b5 1d 17 3e 2b 65 07 be
       0.15490659 0.09875685 0.14757426 -0.13222186
000260 3e 78 2c be e2 9d 18 3e de 45 88 3e ec 46 59 3d
       -0.16842744 0.14903978 0.26615804 0.053046152
000270 9e cc 9a bd d6 ba 92 be dc c8 e9 bd 72 9e 6a 3e
       -0.07558559 -0.2865817 -0.11415264 0.22912005
000280 1d 28 fb bd 54 67 a0 be 27 cb 96 bd 65 72 d2 3d
       -0.122635104 -0.31328833 -0.07362967 0.10275725
000290 a9 26 8c 3d a8 bd 2a 3e 1f 46 ca bd 9d c4 5b 3e
       0.06843311 0.1667391 -0.09876656 0.21461721
0002a0 e4 7d fe 3d c1 5a 98 3d 89 15 5c 3d ef 11 db bd
       0.124263555 0.07439185 0.053731475 -0.1069678
0002b0 d5 da a5 bd 52 69 3a 3d 7d 50 de bd b9 8e b5 3d
       -0.080983795 0.045510598 -0.10855196 0.08865113
0002c0 de 13 f2 bd 82 02 c2 bc 39 6a a5 bd 4d 9b 28 3d
       -0.118201956 -0.023682836 -0.08076901 0.04116373
0002d0 46 e7 6b bd 70 bb c9 3d 57 c3 b3 bd 6c 8b cb bd
       -0.057593606 0.09850204 -0.087774925 -0.09938702
0002e0 8a aa 7d 3d 04 1c 4d be 5f 55 de bc db ef f7 3d
       0.061930217 -0.20030218 -0.027140317 0.12106296
0002f0 83 0a de bc 3e 76 38 3e f1 cc 10 3e ef e5 aa 3b
       -0.027104622 0.18013856 0.14140679 0.0052153985
000300 5c 67 58 bc 7f 02 37 be 78 e5 f9 3d 76 42 f4 bd
       -0.013208237 -0.17872046 0.12201971 -0.11926739
000310 b2 88 3b bd 11 00 0d be 87 15 2b bd 07 5f cc 3b
       -0.04578466 -0.13769557 -0.041768577 0.006236914
000320 59 b5 87 bd 69 79 04 be eb cb 46 bd 18 29 26 bc
       -0.06626386 -0.1293694 -0.048534315 -0.010141633
000330 2b ce 14 bd 1e dc 26 3d 63 24 a3 3c a8 30 55 3b
       -0.03632943 0.040737264 0.019914811 0.0032530222
000340 47 28 e4 bc 0b 97 96 bc 5d e5 6e 3d c5 07 65 bc
       -0.027851237 -0.01838257 0.058324207 -0.013978903
000350 0e 71 0c be 90 47 94 bd 22 69 a1 3d b8 58 24 3d
       -0.13715002 -0.07240212 0.078813806 0.04012367
000360 6a 05 2e bc 53 81 05 bc 97 5a b5 3c 31 39 26 3d
       -0.010621408 -0.008148509 0.022137923 0.040581886
000370 e4 83 4f 3e a3 af 26 be 1c 87 14 3b 3e fa 79 3d
       0.20265156 -0.16277938 0.002266354 0.061029665
000380 61 bf ad 3d 32 ac 8c bd 4c f4 dd 3e b1 ec 29 3c
       0.08483768 -0.06868781 0.43350446 0.010371373
000390 1a 0a 1d 3e 3b de 93 bb ea d3 03 be 10 97 0c be
       0.15335885 -0.004512576 -0.12873808 -0.13729501
0003a0 cd 53 d6 bd bd ff 03 3e 58 ec de bb a2 4a 62 bc
       -0.104652025 0.12890525 -0.0068030767 -0.013811739
0003b0 82 86 3a 3e e4 72 4b 3c 80 c3 83 3d ba 02 ee 3d
       0.18215373 0.012417529 0.06433773 0.11621614
0003c0 b3 50 15 bc ff 3a 42 3d bf 8e 65 3d f1 b9 9e bd
       -0.0091134785 0.047419544 0.056044336 -0.07750309
0003d0 01 66 83 bd b8 1b 59 be b4 f9 90 3d 02 f5 10 3d
       -0.0641594 -0.2120198 0.07078877 0.035389908
0003e0 95 f4 67 3e 8f cc 2f bd 00 ec 51 3c 0c 80 80 3d
       0.22651894 -0.04291969 0.012812614 0.06274423
0003f0 e2 ee 3e be 85 c2 54 bd d5 e4 8f 3d 9c 1f e5 bd
       -0.18645814 -0.05194332 0.07026068 -0.1118767

ff.0.bias f4 [128]
000000 a6 5a 08 bd 19 79 6c bc ff 91 b3 bd 86 aa 27 be
       -0.033289574 -0.014433169 -0.08768081 -0.16373643
000010 c7 82 0b bd f3 a7 b2 bd d8 33 85 be 1b 41 e9 bd
       -0.034060266 -0.0872344 -0.26016116 -0.11389371
000020 66 0a e7 bd 7f 13 24 3d e7 bf 10 be 27 57 91 bd
       -0.1128128 0.040057655 -0.14135705 -0.07096701
000030 97 d4 47 3e 35 b4 81 bd 1d bf 5e be 7f 27 71 3d
       0.1951469 -0.063332 -0.21752591 0.058875557
000040 de e5 27 3e 97 3b a4 3d 07 5e a8 bd ea 70 1c bd
       0.16396281 0.08019178 -0.08221059 -0.03819362
000050 5a 0b 4f bc 5a 51 59 be 22 00 24 bd e5 91 2e be
       -0.012636984 -0.2122244 -0.04003919 -0.17047842
000060 ba fa f4 bd 56 23 2c bd 23 20 2f be ca 79 d0 3d
       -0.11961885 -0.042025886 -0.17102103 0.101794794
000070 5f 2b 78 bd 76 4b 96 bc 75 e1 27 3e d8 34 68 3e
       -0.060588237 -0.01834653 0.16394599 0.22676408
000080 ba aa 52 3e 41 ed 3b be 6d b8 21 be 9b f4 d1 bd
       0.2057294 -0.18352224 -0.15793009 -0.10251733
000090 10 a5 95 be 55 fc 1a 3d cf 89 0d be 60 78 90 bd
       -0.29227495 0.0378383 -0.13822101 -0.0705421
0000a0 ec 6f 5e be 3f c5 ac bd ad bc 0a be 59 b1 34 be
       -0.21722382 -0.08436059 -0.13548537 -0.17645778
0000b0 74 3a ed bd 92 41 33 bd e3 42 7c 3d af 82 81 be
       -0.11583415 -0.043763705 0.061587226 -0.25295016
0000c0 d2 a4 f0 3d 37 c6 5f be fc 07 33 3e 5d 57 e9 3b
       0.11750187 -0.21852957 0.17483515 0.00712101
0000d0 29 4b 3b bd 51 9a 49 bb 60 34 26 bd 43 11 01 bd
       -0.045725975 -0.0030762146 -0.040577292 -0.031510603
0000e0 18 23 2e be 08 28 8a bd 57 74 40 be fc ba a3 3d
       -0.17005575 -0.067459166 -0.1879438 0.07994649
0000f0 4d 44 05 be cc 68 ee bc f1 b2 12 3e 1b e5 17 be
       -0.13014336 -0.029102705 0.14326073 -0.1483349
000100 0b c5 06 be 25 fb 53 3d c0 63 c3 bd 28 7d 86 3d
       -0.13161103 0.051753182 -0.0954051 0.065668404
000110 6c 92 ce 3d fc 17 e0 3c db 31 d3 3b d7 87 ea bd
       0.100865215 0.027355187 0.006445152 -0.11451691
000120 39 43 00 be a6 21 26 3d 9e 2c b9 bd 25 6c 50 3e
       -0.12525643 0.040559433 -0.09041713 0.20353754
000130 a2 66 4e 3d 19 e0 2a be 12 da 9d 3d 43 23 cd bd
       0.050390847 -0.16687049 0.07707609 -0.10016491
000140 96 4d 98 bd 5a 6c 58 bd b5 d6 e2 3b 02 d3 a0 3d
       -0.07436673 -0.052837707 0.0069225677 0.078527465
000150 c6 31 03 3e e7 e3 6d bd 92 6d 8f bd 3d 41 3f bd
       0.12811956 -0.058078673 -0.07003321 -0.046693075
000160 74 99 63 3d 7d 58 82 bd 27 94 ae 3d 5f b3 a9 bd
       0.055566266 -0.06364534 0.085243516 -0.082861654
000170 3f e9 c7 3b 63 41 0f 3e f6 53 89 bd 9f 1a 26 bc
       0.006100803 0.13989787 -0.067054674 -0.010138183
000180 0c 43 e0 bc e3 c2 2f be 96 e3 83 3d bc 04 70 be
       -0.02737572 -0.17164187 0.06439893 -0.23439306
000190 e3 c3 c9 bd dc bf be 3c 78 9a 04 be 50 74 0b 3e
       -0.098518156 0.023284845 -0.1294955 0.13618588
0001a0 ed 8f 1b be fe cb d2 bd 94 93 44 be 29 69 b5 bd
       -0.15191622 -0.10292815 -0.19196922 -0.08857948
0001b0 68 fd 97 bc f3 3a 96 3d 60 c6 f4 3d 5d cc e3 bd
       -0.01855345 0.073354624 0.119518995 -0.111229636
0001c0 b0 12 a3 be 10 28 22 be 01 56 6b bd 65 06 2a be
       -0.31850195 -0.15835595 -0.057455067 -0.16604002
0001d0 3f 00 ce bd 27 19 2d bd f9 04 0d bb eb 8e 7c 3b
       -0.10058641 -0.042260315 -0.0021517857 0.0038537334
0001e0 41 0f d6 bd b2 c4 d9 bd 65 8d e4 bd 95 cb 8b bd
       -0.10452128 -0.1063322 -0.11159781 -0.068259396
0001f0 10 66 e8 bc 97 73 2c bd 08 2e 1f be 04 a9 da 3d
       -0.02836898 -0.042102423 -0.15544903 0.106767684

ff.2.weight f4 [32, 128]
000000 9d c6 8d bd 94 ec 54 bc 0d b7 e7 bc d8 33 2c 3d
       -0.06922648 -0.012995858 -0.028285528 0.04204163
000010 5a 23 0e 3e aa 47 cb 3c ba 8c 2f bd 5d 56 c6 bd
       0.13880673 0.024814446 -0.042858817 -0.09684441
000020 02 ed 05 bd b8 f9 92 3d 58 d8 b0 bd 16 3a 8a bc
       -0.03269673 0.07176536 -0.08635014 -0.0168734
000030 20 93 67 3d b1 45 aa bd 1d 34 19 3c 9f e8 4e 3d
       0.056536794 -0.08314074 0.009350804 0.050514814
000040 b1 83 6a 3d 22 c5 f5 bd d8 f5 04 bd cc 3c a7 bc
       0.057254497 -0.12000491 -0.032461017 -0.020414732
000050 86 69 d2 3d ef 7f 64 be 34 f7 2b bd 83 46 20 be
       0.10274033 -0.22314428 -0.0419838 -0.15651898
000060 49 b3 b0 bd 0f 61 b9 3d a1 2f 9d bc cc d3 0f bd
       -0.08627946 0.090517156 -0.01918775 -0.035114095
000070 0f a1 46 bd f6 d1 bc bd 47 da 80 3d 6b 0d 86 bd
       -0.04849344 -0.09219734 0.06291633 -0.06545528
000080 b7 6c cb 3d 0a 2e 01 be 5a 74 d8 bc 44 f4 13 be
       0.09932845 -0.12615219 -0.026422668 -0.14448649
000090 17 12 ca 3b da 8d f9 bc be 0c 1d 3e 11 1c bc bd
       0.0061667073 -0.030463148 0.15336892 -0.09185041
0000a0 80 e4 ed 3b ed bf 3f 3c 24 b8 56 be 93 41 dd bd
       0.0072599053 0.0117034735 -0.20968682 -0.10803523
0000b0 bf d0 bd 3d 6c 7f a6 bd fb 12 af 3c 8e 0d 59 3d
       0.09268331 -0.081297725 0.021371355 0.052991442
0000c0 c5 2a 5b 3b 21 07 45 bc ca aa a7 3d 14 fe f9 3d
       0.003344224 -0.012025625 0.08186872 0.12206665
0000d0 68 3f bc bd 18 05 92 3d 4f 4d 61 bd 79 a7 81 3d
       -0.09191781 0.07129878 -0.055005368 0.06330771
0000e0 00 49 e0 bd 95 4a 88 bd 18 0b 2d 3b 1a 30 c1 3d
       -0.10951424 -0.066548504 0.0026404317 0.09433003
0000f0 c9 dc 35 3d 49 09 f9 3d e3 bf 9e 3c 66 7d 23 3d
       0.04440001 0.12159974 0.019378608 0.03991451
000100 1c e6 80 be 4c 05 01 be 0f 4c 3e bd 8a 88 c9 bc
       -0.2517556 -0.12599677 -0.046459254 -0.02460124
000110 bd a8 0b bd 60 2a a5 bd 17 c7 c8 bc 50 79 e0 bc
       -0.03409647 -0.08064723 -0.024508996 -0.027401596
000120 90 47 21 be c0 9f 8e 3d 3d 14 49 3d 97 97 18 3c
       -0.15749955 0.06964064 0.049091566 0.009313486
000130 29 75 00 bb 09 ee 88 bb 99 a7 4a 3d a1 47 4c bd
       -0.0019601083 -0.0041787666 0.04947624 -0.049873
000140 c8 cc 0c 3d 4b 99 80 bd 46 68 0c bd 50 e5 57 3d
       0.034374982 -0.06279238 -0.03427913 0.052708924
000150 4a fc 8f 3b 96 eb 0a be 60 89 28 be bb 89 48 3d
       0.004394089 -0.13566431 -0.16458654 0.048959475
000160 38 a5 2b 3e d4 6a 08 3d 7c 03 90 3d e8 f1 ba 3c
       0.16762245 0.033305004 0.070319146 0.022820428
000170 28 fb 9f 3d 5d 66 d2 3d 77 04 2b 3e f2 94 b8 bc
       0.07811576 0.102734305 0.16700922 -0.02253196
000180 51 0d 83 3d 7e db f1 3c 64 11 1b be f0 99 c4 3d
       0.06399024 0.029523607 -0.15143353 0.09599674
000190 5a a0 2a bd 7b b6 3a 3c 5b ca 2a 3d 6d d3 5c bd
       -0.04165683 0.011396046 0.041696887 -0.05391257
0001a0 8b 5b e5 3d eb 01 90 3d 24 58 6f 3d 9b 78 39 3d
       0.11199101 0.07031616 0.058433667 0.045281034
0001b0 d3 fc 14 be ca c0 62 3d 14 aa 08 3e 2a 9d 00 bd
       -0.1454957 0.05535964 0.1334613 -0.031399883
0001c0 a2 e9 3b 3d 70 45 93 bd 94 6f 50 3d 2e ef ab bc
       0.045877106 -0.071909785 0.05088766 -0.020988073
0001d0 15 86 dc 3d ea b5 05 bd 4f 18 09 be 9d 85 fd 3d
       0.107677616 -0.03264419 -0.13388179 0.12379
0001e0 67 c1 9d 3d 67 03 02 be a9 19 c7 3d 5d a9 dc 3d
       0.07702904 -0.1269661 0.09721691 0.10774491
0001f0 b1 3f 0c 3c 8f 48 b1 bc a4 da 94 3d e2 e9 46 3c
       0.008560107 -0.021641044 0.07268265 0.012140723
000200 c5 86 b9 3b c7 be 0c bd 1e 3a 82 bd f2 03 68 bc
       0.0056618177 -0.034361627 -0.06358741 -0.014161097
000210 60 24 30 3e 18 f0 b9 bc 56 aa cf bd 17 9b 11 3e
       0.17201376 -0.022697493 -0.10139911 0.14219318
000220 60 9e ab bc fb 5d 47 bd 11 2f 89 bd 79 87 19 3d
       -0.020949543 -0.04867361 -0.0669843 0.037482712
000230 0a 2b 99 3d 8d b7 a1 bd 1a 74 46 3d e4 00 ff 3c
       0.07478912 -0.07896338 0.048450567 0.031128354
000240 6b 6a d1 3d 75 9b 1a bc 9f f3 82 3d 09 99 4a 3d
       0.10225376 -0.009436478 0.06394123 0.049462352
000250 53 b3 ca 3c 4b 84 9e bd 6d 08 62 bd e7 f4 73 be
       0.024743712 -0.07740077 -0.055183817 -0.23823892
000260 0a a7 e4 bd e2 7f cf bd 86 51 ad 3d 0d d9 53 3b
       -0.11164673 -0.101318136 0.08462815 0.0032325417
000270 bc ca 9c bd 10 bf 0e 3d a2 da 03 3d b2 ee 2d bb
       -0.07655856 0.03485018 0.032190926 -0.0026539979
000280 24 2d 4e 3d a1 aa 2b bd a1 47 0b 3e d4 43 87 3d
       0.05033602 -0.04191077 0.13601543 0.06604734
000290 f3 68 0d bc c3 58 06 3e 2d 4b 42 bd c6 75 d7 bd
       -0.008630979 0.13119797 -0.047434974 -0.105205104
0002a0 31 95 2d 3a a7 27 e7 3c b4 1e 1a be ec da 08 be
       0.00066216575 0.02821715 -0.15050775 -0.13364762
0002b0 18 71 bc 3d ba e4 0b 3d 96 3d c5 3d 49 2b 68 bd
       0.092012584 0.034153678 0.09630887 -0.056681905
0002c0 e6 48 18 be a8 c7 df 3c 93 e7 99 3d e9 53 e1 bd
       -0.14871559 0.027316883 0.075148724 -0.11002333
0002d0 c1 4f 43 be b4 95 42 bc d7 b1 e4 bc ed 62 28 3d
       -0.19073392 -0.011876512 -0.027916832 0.041109968
0002e0 2d 36 92 bb ac d7 2a 3d 32 ad 08 3e ef fc 8f bd
       -0.0044620247 0.041709587 0.13347319 -0.07030665
0002f0 ac 80 54 bc f0 b2 ec 3d d1 08 77 bd 02 7d 97 bd
       -0.012970131 0.11557567 -0.060311142 -0.0739689
000300 05 b1 d2 bd 92 b1 07 bc de 51 0c bc a9 31 86 bc
       -0.1028767 -0.008282082 -0.0085644405 -0.016381102
000310 92 28 26 3d d4 48 af bd 77 6b f4 bd 6a af a5 3d
       0.040566035 -0.08558813 -0.1193456 0.08090098
000320 d4 17 48 be 22 35 fc bd 90 70 19 be b4 30 34 bb
       -0.1954034 -0.12314822 -0.14984345 -0.002749485
000330 03 0b 8e 3b c3 6e d6 3c e2 8b 0f bd b0 89 51 bd
       0.004334809 0.026175862 -0.035045512 -0.0511567
000340 36 35 0e bd 15 b8 90 bd d6 01 13 be 10 e2 13 3e
       -0.034718715 -0.07066361 -0.14356169 0.14441705
000350 0b 52 bf 3d f6 d5 3b bd e1 31 09 be bc ad 90 3d
       0.0934182 -0.045858346 -0.13397934 0.07064387
000360 2f ff 9c 3d 32 0f ed bc 1a f5 4d 3d a3 83 f2 bc
       0.0766586 -0.02893791 0.050282575 -0.029603785
000370 ee 9b a4 3d 92 19 2a 3d e1 5e d9 bd 16 64 2e 3d
       0.08037554 0.041528292 -0.106138 0.04257592
000380 f2 33 f3 bc f4 c2 be 3d c1 75 02 be 05 dc 61 bd
       -0.029687855 0.09314528 -0.12740232 -0.055141468
000390 03 89 d2 bc ae c0 04 bc 76 a8 b3 bd 65 5c 9f bd
       -0.025700098 -0.008102579 -0.08772366 -0.07781295
0003a0 ad c2 11 bd 77 7d 40 3d 20 ce 7e bd c3 54 63 3d
       -0.035586048 0.046994653 -0.062208295 0.055500757
0003b0 94 7f f2 bd fa aa aa bb b5 91 9d 3d ca 22 32 bd
       -0.1184074 -0.0052083703 0.07693807 -0.04349021
0003c0 e2 48 c9 3b c8 cb 6d 3c fc 74 06 bc 2d ac 21 3d
       0.0061427215 0.014513917 -0.008206602 0.03947084
0003d0 ef d4 67 bd 90 2f 82 bd 65 0d b6 3d f9 b4 6d 3d
       -0.056599554 -0.06356728 0.088892736 0.058033917
0003e0 8a 4e 49 bd c6 3f 0e be 35 d2 a1 3d 22 38 05 3c
       -0.049147166 -0.13891515 0.07901422 0.008131059
0003f0 99 6c c4 bd 01 e7 47 bc 17 54 6a 3d 7f 32 ad 3d
       -0.09591026 -0.012201072 0.0572091 0.08456897

ff.2.bias f4 [32]
000000 03 d7 9f 3d b2 a0 76 3c 3f 20 69 bd 1b 92 8b 3d
       0.07804682 0.015052961 -0.056915518 0.06814977
000010 79 88 96 bd 30 a8 40 3d aa e5 67 bc e2 36 23 3d
       -0.07350249 0.047035396 -0.014153877 0.039847262
000020 04 2e 82 3d d8 ce 75 bc 90 5c d1 bc be 32 3a be
       0.06356433 -0.015002929 -0.025556833 -0.18183419
000030 37 8d 12 3c af e5 ee bc c9 44 c4 3c d3 f2 8f 3c
       0.008944801 -0.029162256 0.02395858 0.017571842
000040 83 88 a3 3c f2 f6 de 3c fa 97 30 bd c8 de c2 3c
       0.019962555 0.027217362 -0.043113686 0.023787871
000050 ad 5e f7 bc ed be 89 3d 0f e0 d8 3c 07 09 68 bd
       -0.030196512 0.06725869 0.026474027 -0.056649234
000060 57 96 3b bd 0d d8 b9 3c b3 00 b9 3d b8 57 8e 3a
       -0.045797672 0.022686029 0.090333365 0.0010859882
000070 c9 80 e5 3c 65 1b 1d 3b 56 b3 01 3d 84 0f 85 bd
       0.028015511 0.0023972627 0.03166517 -0.064971

norm1.weight f4 [32]
000000 8f 97 64 3f a4 b6 8c 3f bc 52 9c 3f 23 5c 88 3f
       0.8929376 1.0993237 1.2212749 1.0653118
000010 fb 79 77 3f d4 8c 88 3f ab c0 80 3f aa 5c 9d 3f
       0.966705 1.0667977 1.0058798 1.2293904
000020 4c 84 59 3f 08 96 86 3f 2f e6 7b 3f dd e7 63 3f
       0.84967494 1.0514536 0.9839811 0.8902567
000030 7d 49 8a 3f e0 f5 4d 3f 83 92 83 3f b6 4d 7a 3f
       1.0803677 0.804533 1.0279087 0.9777483
000040 e6 c8 83 3f b7 b7 6c 3f b2 74 7a 3f 14 f3 52 3f
       1.0295684 0.92467827 0.9783431 0.8240216
000050 46 91 51 3f 7c 0e 6d 3f cf 6b 6d 3f 01 2b 87 3f
       0.81862295 0.92600226 0.9274263 1.0559999
000060 ad 3b 76 3f 47 f4 77 3f 56 fc 88 3f 44 f0 81 3f
       0.9618481 0.9685711 1.0702007 1.0151448
000070 b8 9f 77 3f 31 a6 67 3f 2f 47 63 3f b3 fe 72 3f
       0.96728086 0.9048796 0.8878049 0.9491989

norm1.bias f4 [32]
000000 7a 74 0b bc 49 2a b0 3c 64 51 1f bd 55 0c 66 3c
       -0.008511657 0.021504538 -0.03889598 0.014041026
000010 8c 12 a9 bc b7 d7 42 3d b8 8a 80 3d cd 96 b2 3c
       -0.020638727 0.047569003 0.062764585 0.021800423
000020 98 e0 10 bd 05 62 13 bd e2 9f 88 3c 31 00 d9 bd
       -0.03537044 -0.03598215 0.0166778 -0.1059574
000030 bc e7 1a bd d5 a4 f5 bd 4c 3b e7 3c 7b f8 cd 3b
       -0.037818655 -0.1199433 0.028226517 0.0062857247
000040 6c 83 c0 3c 9c 47 63 3d 9a d9 8f bd 35 a6 2c bd
       0.023500167 0.055488214 -0.07023926 -0.042150695
000050 ee e3 92 3c bc 1b 82 3d 4e 50 49 3d 7b 51 07 bd
       0.017930951 0.06352946 0.04914885 -0.03303669
000060 76 53 02 bd 65 47 2e 3d 52 b9 8d 3d 64 3c a8 bb
       -0.031817876 0.042548556 0.06920113 -0.0051341522
000070 13 6a 23 3d 1a 9e c7 bd 3d e3 79 bd 20 e3 de 3d
       0.039896082 -0.09746952 -0.061007727 0.108831644

norm2.weight f4 [32]
000000 f1 d0 76 3f 4e 55 a1 3f 1f 3f a2 3f c4 40 96 3f
       0.9641257 1.2604158 1.2675513 1.1738515
000010 e6 3d 82 3f d0 ac 93 3f f9 19 54 3f 68 40 9f 3f
       1.017514 1.1537113 0.8285213 1.244153
000020 29 4d 96 3f 6c d3 5f 3f f5 27 9e 3f 7e fd 7d 3e
       1.1742297 0.8743198 1.2355944 0.24803731
000030 b4 9e 73 3f 5d 59 8b 3f e3 fc 6f 3f 1b 59 8c 3f
       0.95164037 1.0886647 0.9374525 1.0964693
000040 ca f8 90 3f c5 83 87 3f 3f 78 8b 3f d6 82 83 3f
       1.1325924 1.0587088 1.0896071 1.0274303
000050 17 a3 8d 3f 57 b0 87 3f ca fa 90 3f 6a 9c 90 3f
       1.1065396 1.060069 1.1326535 1.1297734
000060 f8 80 7a 3f 3a 44 8f 3f f9 c6 4a 3f a6 38 a3 3f
       0.9785304 1.1192696 0.7920986 1.2751663
000070 b8 89 6c 3f 19 e1 7e 3f e2 71 8e 3f 2a 68 8a 3f
       0.9239764 0.9956222 1.1128504 1.0813038

norm2.bias f4 [32]
000000 ba 49 73 bd b9 72 39 bd 67 68 1e bd 6a 63 21 3d
       -0.059396483 -0.045275424 -0.038673785 0.03940145
000010 d1 25 14 3d a9 f0 06 3d 62 37 d4 bd 83 02 1c 3d
       0.036168877 0.032944355 -0.10362126 0.038088333
000020 53 20 38 bd 90 95 9f 3d ac 0d 1f 3d 90 1a cc 3e
       -0.0449527 0.07792199 0.038831398 0.39864016
000030 0b 31 45 3d 80 bc 06 bd 47 2f 43 bd 5e 11 4e 3d
       0.048142474 -0.03289461 -0.04765251 0.05030953
000040 b6 e1 10 3d c3 ef fd 3c 8f 80 0d bd 3e c7 e7 bc
       0.035371505 0.030998116 -0.03454643 -0.028293248
000050 3e 30 10 bd 35 48 00 3d a3 40 28 bd cd be 04 bd
       -0.035202257 0.031318862 -0.041077267 -0.032408524
000060 fa e5 fb bb 44 8e 23 bd 4a f2 3d bd d0 ca 16 3d
       -0.0076873275 -0.039930597 -0.046373643 0.03681451
000070 5f 16 1f bd 30 40 4b 3d a8 88 06 bd 89 3c 02 3d
       -0.038839694 0.04962176 -0.03284517 0.031796012

classifier.weight f4 [1, 32]
000000 d1 41 4d 3d 71 62 b2 3e 67 bf da 3e 5c 95 b0 be
       0.050111596 0.3484073 0.42724153 -0.34488952
000010 dc df 1b be d6 d6 93 be 6e 76 58 3c c4 79 a6 be
       -0.15222114 -0.28874844 0.01321183 -0.32514775
000020 b6 ca 75 3e e1 dc 74 bc 57 ea bc be b9 f9 fb 3a
       0.2400311 -0.01494524 -0.36897537 0.0019224203
000030 49 36 43 bd 9e bc 6b 3e 50 8e 38 3d 51 cd 25 be
       -0.047659192 0.2302117 0.045057595 -0.16191603
000040 b9 60 87 be 0c d6 19 be ad 13 5f 3e f6 e5 1b 3e
       -0.2644098 -0.15023059 0.2178485 0.15224442
000050 24 b0 81 3e 0c b9 24 be 74 d7 80 3e 2c 95 64 3e
       0.25329697 -0.16086215 0.25164378 0.2232253
000060 0f 7f e7 3c a4 54 92 3e ee 95 89 bc b0 9c dc be
       0.028258828 0.285802 -0.016795125 -0.43088293
000070 b5 36 99 3c 44 d3 71 bd 00 b9 83 3e c6 af 7c be
       0.018702844 -0.05903937 0.2572708 -0.24676427
