checkpoints/sketch_prediction_2/cross_attention_model.pth (torch, 56104 bytes, 13 tensors)

cross_attn.in_proj_weight f4 [96, 32]
0	0xbd360910	-0.044442236
1	0x3e2af6db	0.1669573
2	0xbda47fce	-0.08032189
3	0xbc793603	-0.015210631
4	0x3e2e55a3	0.17024855
5	0x3da00b00	0.07814598
6	0xbe2c1348	-0.1680423
7	0x3dba099f	0.09083866
8	0x3d689cb9	0.056790087
9	0xbe4e5497	-0.20149456
10	0x3d5f5b45	0.0545304
11	0xbe31a9b8	-0.17349899
12	0x3d8e6f37	0.06954806
13	0xbc99976a	-0.018748958
14	0xbe2181e0	-0.157722
15	0xbd86fa54	-0.06590715
16	0x3db02e19	0.086025424
17	0x3e25e7d9	0.16201724
18	0x3dbc14d0	0.09183657
19	0xbd9daac6	-0.07698588
20	0xbe72855a	-0.23683682
21	0xbcf9a88b	-0.030475875
22	0x3e586969	0.21133961
23	0x3e913fba	0.28368932
24	0xbd9d2eb7	-0.07674926
25	0x3e7bbf1c	0.24584621
26	0xbd17ac42	-0.037029512
27	0x3e6a3017	0.22869907
28	0x3dad219d	0.08453677
29	0x3d99b4c1	0.07505179
30	0x3d76fce7	0.06029978
31	0xbde4bce7	-0.11168843
32	0xbc87b99a	-0.016567994
33	0xbf161b97	-0.5863585
34	0x3e91ee7b	0.2850226
35	0x3c7c032a	0.015381614
36	0xbe7c0d71	-0.24614502
37	0x3c6cbafc	0.014448877
38	0x3dda27a7	0.10652094
39	0x3b52c677	0.0032161751
40	0xbeeec820	-0.46637058
41	0x3d70f4f0	0.05882734
42	0xbbd3f965	-0.006468939
43	0xbcd9122b	-0.026497921
44	0x3e0a1622	0.13485005
45	0x3e19dcf4	0.15025693
46	0xbec24ca0	-0.37949085
47	0xbd2565e3	-0.04038037
48	0x3e84eabd	0.2596034
49	0x3e819b74	0.25313914
50	0xbefa16bf	-0.4884548
51	0x3e28f075	0.16497977
52	0xbddab5f4	-0.10679236
53	0x3e2e383e	0.17013642
54	0x3e27f1e9	0.16400875
55	0xbe05bc4a	-0.13060108
56	0x3d9d72fc	0.07687947
57	0x3d9f7d40	0.077875614
58	0xbcc2d8ae	-0.023784962
59	0xbe1923da	-0.14955083
60	0x3e0ff6bb	0.14058964
61	0xbdbb9df7	-0.09160989
62	0xbd0397dd	-0.03212725
63	0x3da9a728	0.08283836
64	0xbe288442	-0.16456702
65	0x3e04f98a	0.12985817
66	0xbdf75432	-0.12076606
67	0x3c37fdef	0.011229976
68	0xbd0aa7fb	-0.033851605
69	0x3de00357	0.10938137
70	0xbe190319	-0.14942588
71	0xbbfa7335	-0.0076431283
72	0x3e07985f	0.13241719
73	0x3e645650	0.2229855
74	0x3df6cd40	0.12050867
75	0xbe9e92c9	-0.30971363
76	0xbea595bf	-0.3234081
77	0xbd85c129	-0.06530983
78	0x3df0dcd3	0.11760869
79	0xbe5e566c	-0.21712655
80	0xbd1e693d	-0.03867458
81	0x3e816fbf	0.25280568
82	0x3e382ede	0.17986628
83	0x3e2d0768	0.16897357
84	0x3cbf78fc	0.02337312
85	0x3ddd8747	0.10816818
86	0x3e8eb86b	0.27875075
87	0x3db50f81	0.08840848
88	0xbddab727	-0.10679465
89	0xbdc7dde4	-0.09759119
90	0xbd9e6303	-0.07733729
91	0x3e750b71	0.23930146
92	0x3da831d4	0.08212629
93	0xbd3e6740	-0.046485186
94	0xbe3644e4	-0.17799717
95	0x3e2f6adc	0.17130607
96	0x3d1423c7	0.036166932
97	0x3e5d1220	0.21588945
98	0xbe572e5e	-0.21013781
99	0x3e037c2e	0.1284034
100	0xbe81b2d0	-0.25331736
101	0x3d35de6f	0.044401582
102	0xbd829468	-0.063759625
103	0xbe62cf25	-0.22149332
104	0x3deb6bc1	0.11495162
105	0xbd75ef80	-0.060042858
106	0x3d8c7721	0.068586595
107	0x3dadaf3a	0.084806874
108	0xbecdf7ae	-0.40228027
109	0xbc07d751	-0.0082910815
110	0xbde9653b	-0.11396261
111	0xbe30d141	-0.17267324
112	0x3d460431	0.04834384
113	0x3e322b80	0.17399406
114	0xbd9001ab	-0.07031568
115	0x3eb1895a	0.34675103
116	0xbd4140e0	-0.04718101
117	0x3e645de7	0.22301446
118	0x3d654f10	0.055983603
119	0xbd1b5a0b	-0.03792767
120	0x3d1cc977	0.03827807
121	0xbd1c4585	-0.038152236
122	0xbdd6babd	-0.10484836
123	0x3e12e225	0.1434408
124	0xbde7f7a2	-0.11326529
125	0x3da38a5e	0.07985376
126	0xbd8797ce	-0.06620751
127	0x3e01a8a1	0.12661983
128	0xbd51210b	-0.051056903
129	0xbd026e43	-0.031843435
130	0x3dd4c254	0.10388628
131	0xbb2f440e	-0.0026743445
132	0xbdc5c245	-0.096561946
133	0x3e2675c1	0.16255857
134	0xbd430829	-0.047615204
135	0xbc5e2156	-0.013557753
136	0x3df42dd5	0.11922804
137	0xbdfd8681	-0.1237917
138	0xbd03f228	-0.03221336
139	0xbd49a21a	-0.049226858
140	0xbc5610c1	-0.013065518
141	0x3db2bf13	0.08727851
142	0xbd9fa5f7	-0.07795327
143	0xbe3e130e	-0.18561956
144	0x3e2e0a6d	0.16996165
145	0x3d268e7b	0.040663224
146	0xbdd997be	-0.10624646
147	0xbe85806b	-0.26074538
148	0x3ba9a5a2	0.0051772157
149	0x3ced9a89	0.029004352
150	0x3beb8142	0.0071870396
151	0x3d8313eb	0.064002834
152	0xbc2e4011	-0.010635392
153	0xbdc9ad13	-0.098474644
154	0x3dd1af3d	0.10238502
155	0xbd9fe14d	-0.078066446
156	0xbd13d389	-0.036090408
157	0xbe3e8b8e	-0.18607923
158	0x3dde9130	0.10867536
159	0x3e768823	0.2407537
160	0xbe35ea26	-0.17765102
161	0xbe8a61df	-0.27027795
162	0xbd2444c4	-0.040104643
163	0x3e41492e	0.18875572
164	0xbd16ab47	-0.036784437
165	0x3d0a1695	0.033712942
166	0x3da786b6	0.08179991
167	0x3dfce16f	0.123476855
168	0xbea48148	-0.32129884
169	0x3dddfa76	0.10838787
170	0x3d95f24a	0.073216036
171	0xbd9ca375	-0.076483645
172	0xbc51d37c	-0.012806769
173	0xbdd9ea24	-0.10640362
174	0xbd7f317a	-0.062303044
175	0xbd7aa81b	-0.061195474
176	0xbd749806	-0.059715293
177	0x3d5faf76	0.054610692
178	0xbe8fa0ec	-0.2805246
179	0x3e3bbfa8	0.1833483
180	0xbd67240d	-0.056430865
181	0xbe151555	-0.14558919
182	0xbd163ec4	-0.03668095
183	0xbd1c1390	-0.038104594
184	0xbdf0960f	-0.117473714
185	0x3dc0ce40	0.09414339
186	0xbe7f79dd	-0.24948831
187	0xbe0c128f	-0.13678955
188	0x3b4de6a9	0.0031418002
189	0xbbb3254f	-0.005467094
190	0x3e3201bb	0.17383473
191	0xbcbf584d	-0.023357535
192	0xbcca67be	-0.024707671
193	0xbe03237f	-0.1280651
194	0xbe328e35	-0.1743706
195	0xbe249d47	-0.16075622
196	0xbdd9f9cc	-0.10643348
197	0x3e0850d2	0.1331208
198	0xbd0731da	-0.033006527
199	0xbe14f315	-0.14545853
200	0x3d7c8352	0.061648674
201	0x3e51ca1e	0.20487258
202	0xbc395408	-0.0113115385
203	0xbdcb0fbd	-0.09915111
204	0x3e4c9b26	0.1998106
205	0x3e818c89	0.25302532
206	0xbb9f9e0a	-0.0048711346
207	0x3e6a06d2	0.22854164
208	0xba931051	-0.0011220073
209	0xbe663931	-0.22482754
210	0xbd4a2951	-0.04935581
211	0xbea82de6	-0.32847518
212	0xbe3ee35d	-0.1864142
213	0xbe11e18f	-0.142462
214	0x3e80a84a	0.25128394
215	0xbd0661e6	-0.032808207
216	0x3e51d675	0.20491965
217	0xbc40829d	-0.011749891
218	0xbd44d19d	-0.048051465
219	0xbde2e1d5	-0.1107823
220	0xbdaadadb	-0.083425246
221	0x3dea1127	0.11429053
222	0xbd878b84	-0.06618407
223	0x3dc8f5a2	0.09812476
224	0x3c5f28e1	0.013620586
225	0x3c5b75b6	0.013394764
226	0xbe2edd77	-0.1707667
227	0xbe316018	-0.17321813
228	0xbdf50aca	-0.119649485
229	0x3d84d5b4	0.06486073
230	0x3da36013	0.07977309
231	0xbdb334c1	-0.087502964
232	0x3de4688b	0.111527525
233	0xbc5780f7	-0.013153306
234	0xbdec4634	-0.11536828
235	0xbe502e2d	-0.20330115
236	0xbdbd63d9	-0.0924756
237	0xbe00ce44	-0.12578684
238	0xbdd17f65	-0.10229377
239	0xbe8821b8	-0.26588225
240	0x3d9e4736	0.07728426
241	0xbd8c8f86	-0.068633124
242	0xbe301f5c	-0.17199463
243	0x3d89019e	0.066897616
244	0x3d096c33	0.033550452
245	0x3dbe5927	0.09294348
246	0xbd459a88	-0.048243076
247	0x3de3c839	0.11122174
248	0xbd56b211	-0.05241591
249	0xbd4c327b	-0.04985283
250	0x3dc37071	0.09542931
251	0xbaafe73c	-0.0013420354
252	0x3d9a45b2	0.075328246
253	0x3e3504eb	0.17677657
254	0xbdbea8e8	-0.0930956
255	0xbd980cfc	-0.074243516

cross_attn.in_proj_bias f4 [96]
0	0x3d862c4b	0.06551417
1	0xbe89dc41	-0.26925853
2	0x3c42a193	0.011879343
3	0xbe3a315e	-0.18182895
4	0x3b1a3c00	0.0023534298
5	0xbe14a426	-0.14515743
6	0x3dd59da9	0.10430462
7	0xbe4fa283	-0.20276837
8	0xbd6bf64d	-0.057607938
9	0xbc08c8ee	-0.008348687
10	0x3a374f90	0.0006992752
11	0xbae2b124	-0.0017295224
12	0xbbe0de6f	-0.0068624537
13	0x3c6f53f3	0.014607417
14	0x3e2f0861	0.1709304
15	0x3da4b168	0.0804165
16	0x3da59f6f	0.0808705
17	0xbc21e285	-0.009880667
18	0xbca82b1b	-0.020528367
19	0xba97b1fc	-0.0011573429
20	0xbc155a21	-0.009115727
21	0x3d709aaa	0.05874125
22	0xbc10bac3	-0.00883359
23	0xbbeb79fa	-0.0071861716
24	0xbe3c00b5	-0.18359645
25	0xbe74744f	-0.23872493
26	0x3d692fe6	0.056930445
27	0x3e178a7b	0.1479892
28	0xbd0a12ea	-0.033709444
29	0x3e70c2dd	0.23511834
30	0x3d468034	0.048462108
31	0x3dcb7292	0.09933962
32	0xbc07a2ed	-0.008278591
33	0xbbfa81f9	-0.0076448885
34	0x3b94ab61	0.0045370315
35	0xbafe2073	-0.0019388333
36	0xbb244e4b	-0.002507108
37	0xba655fbb	-0.00087499217
38	0x377f8973	1.5231187e-05
39	0xbadd466e	-0.0016881952
40	0xbb283cbc	-0.0025670966
41	0xba034f3d	-0.0005009061
42	0xba06504e	-0.00051236607
43	0xbae3cbde	-0.0017379483
44	0x3a55a4a8	0.0008149841
45	0x3ab9127f	0.0014119892
46	0x3b823ae1	0.003974304
47	0x3b82fff5	0.0039977976
48	0xbac305c7	-0.0014879041
49	0xba145f73	-0.0005659975
50	0x3a3bc4fd	0.00071628374
51	0xba81d523	-0.0009905439
52	0xba782d92	-0.000946724
53	0x3a7135f6	0.0009201461
54	0x3a9f98e3	0.0012176301
55	0x3a4c941e	0.00078040536
56	0xbb5181a8	-0.003196815
57	0x3ab6e0db	0.001395251
58	0xbb49c6ee	-0.0030788737
59	0x3ad67cb5	0.001636407
60	0xbb522c91	-0.003207002
61	0x3a5e7374	0.0008485832
62	0x3adf5be3	0.0017040934
63	0xba829db0	-0.0009965207
64	0x3c36247f	0.0111171
65	0xbb069636	-0.002053631
66	0xbc12236d	-0.008919579
67	0xbc4a294d	-0.012338948
68	0xbceb7ab9	-0.028745042
69	0x3becfeec	0.0072325375
70	0xbd7434a2	-0.059620507
71	0xbc2e510c	-0.01063944
72	0xbd430450	-0.047611535
73	0xbcb88388	-0.022523656
74	0xbd2e1c8c	-0.042507693
75	0x3cdb7cd0	0.026792914
76	0xbc08870b	-0.008332978
77	0x3d2503de	0.04028689
78	0xbbecec5b	-0.007230324
79	0x3d37431a	0.044741727
80	0x3cd46dd0	0.025931269
81	0xbd1293ea	-0.035785593
82	0x3bc694c5	0.006060215
83	0x3b66ae82	0.003519923
84	0xbcb0ab91	-0.021566184
85	0xbc1dddbe	-0.009635387
86	0x3c1c30e9	0.009533145
87	0xbc22dac7	-0.009939856
88	0xbc3499c6	-0.011022991
89	0x39b55854	0.0003458882
90	0x3d5df171	0.054185335
91	0x3c5aae0d	0.013347161
92	0x3c898ca1	0.01679069
93	0x3c11cb7f	0.008898615
94	0x3bf8e676	0.0075958325
95	0xbb3bc705	-0.002865256

cross_attn.out_proj.weight f4 [32, 32]
0	0xbd07c084	-0.03314258
1	0x3e42758d	0.18990155
2	0x3e0c3058	0.13690317
3	0x3e58dc06	0.21177682
4	0xbdcae1d3	-0.09906354
5	0x3e5e0cc9	0.21684565
6	0xbe812d9a	-0.25230104
7	0x3de0b225	0.109714784
8	0xbd0c4046	-0.034240983
9	0x3e90224d	0.2815117
10	0x3e699dd9	0.2281412
11	0x3bf199fe	0.0073730936
12	0xbe135397	-0.14387356
13	0x3dd30268	0.10303193
14	0x3cd34fab	0.025794825
15	0xbd5866c8	-0.052832395
16	0x3dcc53a5	0.099768914
17	0xbde629bc	-0.11238429
18	0x3e1db46f	0.15400861
19	0x3e3dce94	0.18535835
20	0x3b56d848	0.0032782722
21	0xbcae5717	-0.021281762
22	0xbdd1897f	-0.102313034
23	0xbe303c0e	-0.17210409
24	0xbdb3356c	-0.08750424
25	0xbc1c7d42	-0.009551348
26	0xbe0bb9a1	-0.1364503
27	0xbdab0ba1	-0.083518274
28	0x3e13895c	0.14407867
29	0xbdc35978	-0.09538549
30	0xbd26f419	-0.040760133
31	0xbe745223	-0.23859458
32	0xbd3dbe89	-0.046324287
33	0x3ed9a5ca	0.425093
34	0xbe3202c5	-0.17383869
35	0xbc366e73	-0.011134732
36	0xbf12727e	-0.5720595
37	0x3d902fa5	0.070403375
38	0xbed72a75	-0.4202458
39	0x3e1e89ed	0.15482302
40	0xbd398f0b	-0.045302432
41	0x3e23e4eb	0.16005294
42	0x3e947c56	0.2900111
43	0x3e40b553	0.1881917
44	0xbcb85044	-0.022499211
45	0x38b71921	8.7308006e-05
46	0x3e25754c	0.16158026
47	0xbe1a162c	-0.1504752
48	0xbd9c609d	-0.07635615
49	0xbe6da7cb	-0.23208539
50	0xbdb26c86	-0.087121055
51	0xbe52fb3c	-0.20603651
52	0xbdc2e4da	-0.09516306
53	0xbd8911de	-0.06692861
54	0x3e23c05d	0.1599135
55	0xbd05c356	-0.03265699
56	0xbca10379	-0.019654976
57	0x3d910096	0.0708019
58	0xbeca737a	-0.39541227
59	0xbe4f3d60	-0.20238256
60	0xbdfd3aca	-0.12364729
61	0x3e367c7d	0.17820926
62	0xbdeb226b	-0.11481174
63	0xbd5933ca	-0.053027906
64	0x3e5ced5b	0.21574919
65	0x3e1505da	0.14553013
66	0x3a261fc1	0.0006337129
67	0xbd70f044	-0.058822885
68	0xbe5ad0c5	-0.21368702
69	0x3d8f02bd	0.06982944
70	0xbda38ee1	-0.07986236
71	0x3d0bfb5f	0.034175273
72	0x3ca3b45b	0.019983461
73	0xbeb4725c	-0.352435
74	0xbeb3e10f	-0.35132644
75	0xbe11f42b	-0.14253299
76	0x3e2e7aa1	0.17038967
77	0x3e0acffa	0.135559
78	0xbe5054ea	-0.20344892
79	0x3edb2ad1	0.42806104
80	0xbe42a71b	-0.19009058
81	0x3c652045	0.013984744
82	0x3ecb27f2	0.39678913
83	0xbedcc28e	-0.43117183
84	0x3ea1181c	0.31463706
85	0x3e06f591	0.13179614
86	0x3d8870b8	0.066621244
87	0xbe5e96e2	-0.21737245
88	0x3d1842a7	0.03717294
89	0xbd3d1421	-0.046161775
90	0x3d9ee702	0.07758905
91	0x3d821194	0.06351009
92	0xbca7a137	-0.020462615
93	0xbc8d22e0	-0.017228544
94	0xbd2aedaf	-0.04173058
95	0xbcfa889a	-0.030582715
96	0x3c87b986	0.016567957
97	0xbe12e499	-0.14345016
98	0x3db5ec2c	0.08882937
99	0xbe669c09	-0.2252046
100	0x3e12ca2b	0.14334933
101	0xbe30e59e	-0.17275092
102	0xbc312cc5	-0.010813897
103	0xbccf9320	-0.02533871
104	0xbe9e7eff	-0.30956265
105	0x3ee10d26	0.43955344
106	0x3d6d2943	0.05790068
107	0xbde6a0e5	-0.11261157
108	0xbf1f1bf8	-0.6215205
109	0x3ef8952f	0.48551318
110	0x3c50742d	0.012723011
111	0xbe00604c	-0.12536734
112	0x3e2135a9	0.15743126
113	0xbdeb618f	-0.11493217
114	0x3cc34634	0.023837186
115	0x3da96cfd	0.08272741
116	0x3e5deb2c	0.21671742
117	0xbe1c9d15	-0.15294297
118	0x3e0fea00	0.14054108
119	0xbe04e7d7	-0.12979065
120	0x3dbf541f	0.09342217
121	0xbd688a13	-0.056772303
122	0x3e260c73	0.16215687
123	0xbdf151da	-0.1178319
124	0x3d77e888	0.060524493
125	0xba2c9c34	-0.00065845554
126	0x3d3f2aef	0.046671804
127	0xbd859849	-0.06523187
128	0x3dbd0d66	0.09231071
129	0xbe438b68	-0.19096148
130	0x3e145d58	0.14488733
131	0xbc815ed3	-0.015792286
132	0x3e5c75b4	0.21529275
133	0xbd5af66c	-0.053457662
134	0x3e50e5a4	0.20400101
135	0x3e123a2d	0.14280005
136	0xbd281bb8	-0.04104206
137	0x3d3d788d	0.046257544
138	0xbd65bce0	-0.05608833
139	0x3cab03d5	0.02087585
140	0x3e8cddf1	0.27513078
141	0xbe1f1330	-0.15534663
142	0xbda4dea6	-0.08050279
143	0xbe38f342	-0.18061545
144	0xbd95d32a	-0.07315667
145	0x3e7d8cc4	0.24760729
146	0xbe058f45	-0.13042934
147	0xbe56e89b	-0.2098717
148	0x3e1fbdfd	0.15599819
149	0xbc7a55e1	-0.015279264
150	0xbcddfe97	-0.027098937
151	0xbe27753c	-0.16353315
152	0x3c3e5de2	0.011619063
153	0x3d84a8c6	0.064775035
154	0x3e274de4	0.16338307
155	0xbe1391de	-0.14411113
156	0x3e0da057	0.13830696
157	0xbe445ee0	-0.19176817
158	0xbcad5f7e	-0.021163698
159	0xbcbc26c5	-0.022967706
160	0xbd9eaa95	-0.0774738
161	0x3ea24ed1	0.31700757
162	0xbe3d251a	-0.18471184
163	0x3f0e1cfc	0.55512977
164	0x3e044bad	0.12919493
165	0x3d1638d3	0.036675286
166	0x3d8c2ae9	0.06844122
167	0x3e24823a	0.16065302
168	0x3e1a25ee	0.15053532
169	0x3e31de6d	0.17370005
170	0x3e4649d2	0.19364098
171	0x3d2eb12a	0.042649426
172	0xbe4f9b08	-0.20273983
173	0xbe5b414e	-0.2141163
174	0xbd1ad961	-0.037804965
175	0xbd972acf	-0.07381212
176	0x3ea62e8f	0.32457396
177	0xbd704377	-0.05865809
178	0x3e138e82	0.14409831
179	0xbd23ed92	-0.040021487
180	0x3e623bdc	0.22093147
181	0xbeb4c159	-0.35303763
182	0x3e399c07	0.18125926
183	0xbc8a0fc0	-0.016853213
184	0xbe245577	-0.16048227
185	0x3de51e43	0.111874126
186	0xbc0af07f	-0.00848019
187	0x3d9b4fbb	0.07583567
188	0x3e742db8	0.23845565
189	0x3d6b28b0	0.05741185
190	0xbe87be7f	-0.26512524
191	0xbd266222	-0.04062093
192	0xbd720d8b	-0.059094947
193	0xbec4c02b	-0.38427863
194	0x3e5ec127	0.2175337
195	0xbebfdb0b	-0.37471804
196	0x3e9839dc	0.29731643
197	0xbec270df	-0.3797674
198	0x3ea60708	0.3242724
199	0xbe50bbb2	-0.203841
200	0x3d1d4aef	0.03840154
201	0x3eaec342	0.34133345
202	0x3d9d9cec	0.07695946
203	0xbc26d38f	-0.010182275
204	0xbe9e8d40	-0.3096714
205	0xbd10c801	-0.03534699
206	0xbc93fde4	-0.0180654
207	0xbdc32257	-0.09528034
208	0x3c5752ca	0.013142297
209	0x3e1f129b	0.15534441
210	0xbda5fd91	-0.081050046
211	0x3e34a2d0	0.17640233
212	0xbc5418fb	-0.012945409
213	0x3d9e3ee0	0.07726836
214	0x3cb2f053	0.021843111
215	0xbdad5166	-0.08462791
216	0xbd66c46c	-0.056339666
217	0xbcd6c2da	-0.02621596
218	0xbe59ccbd	-0.21269508
219	0xbd906c77	-0.07051938
220	0xbe984974	-0.2974354
221	0x3bf5961b	0.0074947006
222	0x3e234726	0.1594511
223	0xbb47c3d5	-0.0030481715
224	0xbda46fc5	-0.08029131
225	0xbe274190	-0.16333604
226	0xbdc7ef02	-0.09762384
227	0xbe97eba7	-0.29671976
228	0xbe505790	-0.20345902
229	0xbe1d82d1	-0.15381934
230	0xbde4cd16	-0.111719295
231	0xbe56ff29	-0.20995773
232	0xbe913b45	-0.28365532
233	0xbc035dd1	-0.008017973
234	0xbe96faf4	-0.29488337
235	0x3c854904	0.016270168
236	0xbcd82e90	-0.02638939
237	0x3eac0d87	0.3360407
238	0xbd5c6c24	-0.05381407
239	0x3eaf7d5a	0.34275323
240	0xbe704813	-0.23464994
241	0xbe627f11	-0.22118784
242	0x3bc6e42f	0.006069682
243	0xbe16c167	-0.14722215
244	0x3d9540c9	0.072877474
245	0xbc82a45d	-0.015947515
246	0xbd3347f1	-0.04376978
247	0x3d3863d5	0.045017082
248	0x3d880dc0	0.066432476
249	0x3e2c3867	0.16818391
250	0xbda9d6fe	-0.0829296
251	0xbe783258	-0.24237955
252	0xbec3e2b2	-0.38258892
253	0xbe50b30f	-0.20380805
254	0x3ebb5b60	0.3659315
255	0x3e17fbef	0.14842199

cross_attn.out_proj.bias f4 [32]
0	0xbc694547	-0.014237708
1	0x3c9fd806	0.019512188
2	0x3e1e07ee	0.15432712
3	0xbd4a1572	-0.049336858
4	0x3de04311	0.10950292
5	0xbe09c682	-0.13454631
6	0xbe861398	-0.26186824
7	0x3e020df3	0.12700634
8	0x3dfa3ef8	0.122190416
9	0xbe86b733	-0.26311645
10	0x3da98349	0.08276994
11	0x3e4bb351	0.19892623
12	0xbe5bcf7c	-0.21465868
13	0xbda04c37	-0.07827037
14	0x3d10cfbb	0.035354357
15	0x3e741725	0.23836954
16	0xbcd57623	-0.026057309
17	0xbd3a4d98	-0.045484155
18	0x3d627d6b	0.05529539
19	0xbdd641dc	-0.104617804
20	0x3e3badec	0.18328065
21	0xbd1406f8	-0.03613946
22	0xbd1f8ada	-0.03895078
23	0xbda8f689	-0.08250148
24	0xbeafc94a	-0.3433326
25	0xbd6e6969	-0.058205996
26	0xbdffc096	-0.12487905
27	0x3dc4cd51	0.096094735
28	0xbdff4f5f	-0.12466311
29	0x3cd495ff	0.02595043
30	0xbd80e194	-0.062930256
31	0x3d8b3248	0.067967

ff.0.weight f4 [128, 32]
0	0x3b2d65cf	0.0026458388
1	0xbcded776	-0.02720235
2	0xbe066382	-0.13123897
3	0x3eae74e5	0.34073558
4	0xbd65e8f8	-0.05613038
5	0xbddcf239	-0.10788388
6	0x3e8036ac	0.2504171
7	0x3e6e7604	0.23287207
8	0xbe1ce23e	-0.1532068
9	0x3de989d5	0.114032425
10	0x3dec78c6	0.11546473
11	0xbdf3ee4d	-0.11910687
12	0xbe5cd8ea	-0.21567121
13	0xbddfa7f4	-0.109207064
14	0x3dfee5b3	0.124461554
15	0xbedc6f3a	-0.4305361
16	0x3cc5167b	0.024058571
17	0x3e041e26	0.12902126
18	0xbe14d990	-0.14536119
19	0xbe8ceeb4	-0.27525866
20	0xbe385a7d	-0.18003269
21	0x3e749ba9	0.23887505
22	0x3da57110	0.080782056
23	0x3dd24815	0.10267655
24	0x3e654ed1	0.22393347
25	0x3d7b24d5	0.061314423
26	0xbe6ed4d3	-0.23323373
27	0x3e148b17	0.14506184
28	0xbdee6f22	-0.11642291
29	0xbe3df682	-0.18551067
30	0xbc8435b9	-0.016138898
31	0x3dff1000	0.12454224
32	0x3d403a6f	0.046930727
33	0xbe5e53fe	-0.21711728
34	0xbe6a4827	-0.22879086
35	0xbe06847a	-0.13136473
36	0xbe25dab2	-0.16196707
37	0x3e255015	0.1614383
38	0x3eb1336b	0.3460954
39	0xbda4f70c	-0.08054933
40	0xbd8915f3	-0.066936396
41	0x3db0e665	0.08637694
42	0x3d02513c	0.031815752
43	0x3d5f7930	0.054558933
44	0x3ebaba7a	0.36470395
45	0x3caec768	0.021335319
46	0xbe5dadd2	-0.21648338
47	0xbdd7f10e	-0.105440244
48	0x3dd37e18	0.10326785
49	0x3de063fa	0.10956569
50	0xbe45d44b	-0.19319265
51	0x3ca05231	0.019570442
52	0xbe3b004d	-0.18261833
53	0xbd6df201	-0.05809212
54	0x3d946514	0.072458416
55	0x3d7b9f8f	0.061431464
56	0x3e6c2775	0.23061927
57	0x3dc366ca	0.0954109
58	0x3e0d07d8	0.13772523
59	0xbe7dbac6	-0.2477828
60	0x3de61124	0.11233738
61	0xbcba74a1	-0.022760691
62	0xbda130ea	-0.07870658
63	0x3ceaad5a	0.028647114
64	0x3e875eeb	0.26439604
65	0x3eb20060	0.3476591
66	0x3ad90d71	0.0016559792
67	0x3ef8f6c1	0.48625758
68	0xbef7d1ea	-0.4840234
69	0x3ddc0fbe	0.1074519
70	0x3e31ef09	0.17376341
71	0x3e378e62	0.17925408
72	0x3e50d2b9	0.20392884
73	0x3da5af76	0.08090107
74	0xbdb50c40	-0.08840227
75	0xbe012985	-0.12613495
76	0xbe4cbae7	-0.19993173
77	0xbd875c8d	-0.066094495
78	0x3e4c3099	0.19940414
79	0xbed7f4b9	-0.42178896
80	0xbcbe1748	-0.02320446
81	0xbe47e27d	-0.19519992
82	0xbe198eb0	-0.14995837
83	0x3dee4f0a	0.11636169
84	0xbea357ab	-0.31902823
85	0xbdb4e3b4	-0.088324934
86	0x3e41fe5d	0.18944688
87	0x3dcdbc52	0.10045685
88	0xbe86aad5	-0.2630221
89	0x3e84649c	0.2585801
90	0x3d04cee8	0.032423884
91	0xbd3dbf27	-0.046324875
92	0x3e322d77	0.17400156
93	0xbd920f45	-0.07131819
94	0xbebc576c	-0.36785448
95	0x3d917c96	0.07103841
96	0xbb4d183f	-0.003129497
97	0xbebd2ede	-0.3694982
98	0xbe684f04	-0.22686392
99	0x3e81f0a9	0.25378922
100	0xbe41a07e	-0.18908879
101	0x3c1c3f4e	0.009536577
102	0x3e79f27c	0.24408907
103	0x3e25680e	0.16152975
104	0xbe3434fe	-0.1759834
105	0x3e92f601	0.2870331
106	0x3dc4495e	0.09584306
107	0xbda5f08c	-0.08102521
108	0xbc7a499a	-0.015276337
109	0xbca763f1	-0.020433398
110	0x3d60b015	0.054855425
111	0xbed13532	-0.40860897
112	0xbdf75c1d	-0.12078116
113	0x3c380878	0.011232488
114	0xbe03428a	-0.12818351
115	0xbef91906	-0.48651904
116	0xbe50a33a	-0.20374766
117	0x3d85a0dd	0.06524823
118	0xbe5a5829	-0.21322693
119	0x3e17a3b8	0.14808547
120	0x3c440c28	0.011965789
121	0xbdef00ad	-0.11670051
122	0xbd9f59d0	-0.07780802
123	0x3e63d711	0.2225001
124	0x3e4668da	0.19375935
125	0xbdee47a0	-0.11634755
126	0x3de58922	0.11207797
127	0xbc59ad1e	-0.013285903
128	0xbead43f2	-0.338409
129	0xbf1429e8	-0.57876444
130	0x3e51de66	0.20494995
131	0x3db2bdbf	0.087275974
132	0x3e133bd7	0.14378296
133	0x3d98cc34	0.07460824
134	0xbb2477a0	-0.0025095716
135	0x3db6d7ab	0.08927854
136	0x3deb9e65	0.11504821
137	0x3d1a52b1	0.037676517
138	0xbe0cf766	-0.1376625
139	0x3e86e3e1	0.26345733
140	0xbd17ab1a	-0.03702841
141	0xbd97823e	-0.073978886
142	0x3e86079c	0.2617768
143	0x3ba416d5	0.0050076046
144	0xbe13b9ac	-0.14426297
145	0xbe8ffdbf	-0.2812328
146	0x3d99edb0	0.075160384
147	0xbec31449	-0.38101414
148	0x3ea9889c	0.33112037
149	0xbeb57035	-0.3543717
150	0xbd0ddbca	-0.034633435
151	0xbd128135	-0.035767753
152	0xbe0c33a1	-0.1369157
153	0xbe28e78e	-0.16494581
154	0xbd95d69c	-0.07316324
155	0x3e2b9ed1	0.16759802
156	0x3e4b16ce	0.19832918
157	0x3e96a506	0.29422778
158	0x3e561f97	0.20910488
159	0x3d74407c	0.05963181
160	0xbda47625	-0.08030347
161	0xbccd1fdb	-0.025039604
162	0xbdf070ed	-0.11740289
163	0xbcca4b93	-0.02469424
164	0x3e5c59c9	0.21518625
165	0xbe0b67eb	-0.1361386
166	0xbda67c77	-0.081292085
167	0xbdddb037	-0.10824626
168	0x3d80c039	0.062866636
169	0x3cdc8520	0.026918948
170	0x3dfcb308	0.12338835
171	0xbcc71a71	-0.0243046
172	0xbcfef4d7	-0.031122608
173	0x3cc8b531	0.024500461
174	0x3d42570e	0.047446303
175	0x3d894e2a	0.06704362
176	0xbe2188cc	-0.1577484
177	0xbe05bc93	-0.13060217
178	0x3e7dcf9b	0.24786226
179	0x3c058d90	0.008151427
180	0xbe136537	-0.14394079
181	0xbd994e7f	-0.07485675
182	0x3cbe73d7	0.023248596
183	0xbd28ec69	-0.041241083
184	0x3bbd5998	0.0057785027
185	0x3d28faf3	0.04125495
186	0x3de0458f	0.10950767
187	0x3e05f10b	0.13080232
188	0xbd99aa3c	-0.07503173
189	0x3e0463a7	0.1292864
190	0xbe820ed7	-0.25401947
191	0x3d5df27b	0.054186326
192	0xbeb4c58b	-0.35306963
193	0xbe7cfdc4	-0.24706179
194	0xbdaa18f2	-0.08305539
195	0x3dc98b3e	0.098410115
196	0x3af57bc3	0.00187289
197	0x3e259380	0.16169548
198	0x3d317458	0.043323845
199	0xbe8a6fe2	-0.27038485
200	0xbde67829	-0.112533875
201	0x3de07ee5	0.10961703
202	0x3c4c41ce	0.012466861
203	0x3e41d7a0	0.1892991
204	0x3d9c3f34	0.076292425
205	0xbe427f5c	-0.18993896
206	0x3e1c81ce	0.15283892
207	0xbd68d71b	-0.056845766
208	0xbe362010	-0.17785668
209	0x3cb1f092	0.021721158
210	0xbe4b4d57	-0.19853722
211	0x3d94c68f	0.072644345
212	0x3e33ec8d	0.17570706
213	0x3c9b819c	0.018982701
214	0xbd142204	-0.036165252
215	0xbd59daf3	-0.053187322
216	0x3d3c3ccc	0.045956418
217	0x3e3c919e	0.18414924
218	0x3ca6d0d9	0.020363258
219	0x3d84f0c6	0.064912364
220	0x3c763038	0.015026145
221	0x3de6e1e5	0.11273555
222	0x3c8a5559	0.0168864
223	0x3c928cbc	0.017889373
224	0x3e88e1c7	0.26734754
225	0x3d1090e3	0.035294425
226	0x3e2656bc	0.16244024
227	0x3ec4068a	0.3828624
228	0xbe932512	-0.2873922
229	0x3beee8db	0.007290942
230	0xbd64f31a	-0.055895902
231	0x3d436756	0.04770597
232	0x3e95a44f	0.2922692
233	0xbdc43559	-0.09580488
234	0x3e2060c7	0.15661918
235	0xbc54c664	-0.012986753
236	0xbe1eddfa	-0.15514365
237	0x3d8e0baa	0.069358185
238	0xbd103592	-0.03520734
239	0xbd9ef2d8	-0.077611625
240	0xbe1f5c90	-0.15562654
241	0x3d3b2d27	0.045697358
242	0xbe4bf0dc	-0.199161
243	0xbdb9fbab	-0.09081205
244	0xbe854173	-0.26026496
245	0x3e441c32	0.1915138
246	0x3d17e7d9	0.03708634
247	0xbd6691e2	-0.05629147
248	0x3dff72cd	0.124730684
249	0xbd633465	-0.05546989
250	0xbd2658dc	-0.040612087
251	0xbe3e9cc3	-0.18614487
252	0x3e28df8f	0.16491531
253	0xbd78a10f	-0.060700472
254	0x3d2f48f9	0.0427942
255	0xbe90955c	-0.28238952

ff.0.bias f4 [128]
0	0x3d2795f7	0.040914502
1	0xbe0f01b1	-0.13965489
2	0xbc10519e	-0.008808522
3	0xbe009e3b	-0.1256036
4	0xbe0aac2e	-0.13542244
5	0xbe97e4a6	-0.29666632
6	0xbe6ecd87	-0.2332059
7	0x3dfb337d	0.1226568
8	0x3d8d5951	0.069018014
9	0xbdaf3351	-0.0855471
10	0xbda04720	-0.07826066
11	0xbe822285	-0.2541696
12	0xbe10c01a	-0.14135781
13	0x3e1d51da	0.15363255
14	0x3e5fefa1	0.21868755
15	0x3c44ee48	0.012019701
16	0xbda03112	-0.078218594
17	0xbd745b6e	-0.059657507
18	0xbccee514	-0.025255717
19	0xbd68293c	-0.05667995
20	0xbe8744db	-0.2641972
21	0xbe317bc4	-0.17332369
22	0xbcf4d63c	-0.029887311
23	0xbd6b0cf7	-0.05738541
24	0x3d9eda99	0.07756538
25	0xbdea9e08	-0.11455923
26	0xbdf00a99	-0.11720771
27	0xbe414393	-0.18873434
28	0x3e002842	0.12515357
29	0xbd627357	-0.055285778
30	0xbe19220b	-0.14954393
31	0xbeb5855c	-0.35453308
32	0xbd7c82ac	-0.061648056
33	0xbe1251a0	-0.1428895
34	0xbe3f424d	-0.18677635
35	0xbe8d0dc0	-0.27549553
36	0xbe9ece05	-0.31016555
37	0xbdff16b2	-0.12455501
38	0x3d871fd1	0.065978654
39	0xbe5acf1e	-0.21368071
40	0xbe4b1c17	-0.19834934
41	0xbdfce20f	-0.12347805
42	0xbe5cb9f1	-0.21555306
43	0x3db0a894	0.08625904
44	0xbeb2d07d	-0.3492469
45	0x3db45a6a	0.088063076
46	0xbe07392b	-0.13205402
47	0xbd2bdc5e	-0.041958205
48	0xbe57e9d6	-0.21085295
49	0x3d94ab8d	0.07259283
50	0xbe8f2ac4	-0.27962315
51	0xbe07c1e3	-0.13257556
52	0xbd134737	-0.035956588
53	0xbc8bd38c	-0.017068647
54	0xbdad6863	-0.08467176
55	0xbe1b5ac4	-0.15171343
56	0xbbafe3a8	-0.005367715
57	0xbe5d84e0	-0.21632719
58	0x3dda5ca7	0.10662203
59	0x3bca4a0e	0.006173379
60	0xbe13526a	-0.14386907
61	0x3b9bc311	0.0047534783
62	0xbd15bd02	-0.036557205
63	0xbe45f0ed	-0.19330187
64	0xbe34eb2d	-0.17667837
65	0x3d3d9baf	0.04629105
66	0xbe47cd1f	-0.19511841
67	0x3e146c58	0.14494455
68	0x3cebacfa	0.028769005
69	0xbe26e9d3	-0.16300134
70	0x3d00a298	0.03140506
71	0xbec23350	-0.37929773
72	0xbd35b599	-0.04436264
73	0x3e0852ca	0.13312832
74	0x3c9e802c	0.019348226
75	0xbe38d305	-0.18049248
76	0xbd895e2c	-0.06707415
77	0xbda03195	-0.07821957
78	0xbd2001fa	-0.039064385
79	0xbe0f5dc8	-0.14000618
80	0x3e1deadf	0.15421627
81	0xbd03a688	-0.03214124
82	0x3e33f985	0.17575653
83	0xbd36abbc	-0.044597372
84	0xbe0f9c56	-0.14024481
85	0x3e274ac3	0.16337113
86	0xbeb1bff9	-0.34716776
87	0xbd6a1817	-0.05715188
88	0x3d0fe138	0.035126895
89	0xbe3e09a2	-0.18558362
90	0xbc00f4d1	-0.007870869
91	0xbe6d2e7d	-0.23162265
92	0xbe2c17fe	-0.16806027
93	0x3dea064a	0.11426981
94	0xbe350857	-0.17678963
95	0x3dde96c0	0.10868597
96	0xbe409ee3	-0.1881061
97	0xbd9fd0a2	-0.078034654
98	0xbe0ee648	-0.13955033
99	0xbcb1c5d0	-0.02170077
100	0xbe0d2225	-0.13782556
101	0x3e63b593	0.22237234
102	0xbe2e395c	-0.17014068
103	0x3e47f2bf	0.19526194
104	0x3d2393aa	0.039935745
105	0xbdd9a43d	-0.10627029
106	0xbe98dc88	-0.29855752
107	0xbe1706f6	-0.14748749
108	0x3e26a0c1	0.1627226
109	0xbda412ef	-0.08011424
110	0x3ca8d09f	0.02060729
111	0xbe17aac8	-0.14811242
112	0x3e00d628	0.12581694
113	0xbcfe8950	-0.031071335
114	0xbaf32e82	-0.0018553289
115	0xbca86e4d	-0.020560408
116	0xbcb6959b	-0.022288134
117	0x3dd29242	0.10281803
118	0xbd9ccae2	-0.07655884
119	0x3bef70e4	0.007307159
120	0xbe3968e2	-0.18106416
121	0xbe092fb9	-0.13397111
122	0xbd110a13	-0.03541
123	0xbd21e8c1	-0.039528612
124	0xbe93f7c0	-0.28899956
125	0xbe23ecae	-0.16008255
126	0xbd8c5778	-0.06852621
127	0xbe6e752f	-0.2328689

ff.2.weight f4 [32, 128]
0	0x3d30dc8b	0.043179076
1	0xbdeb7949	-0.11497743
2	0xbb918055	-0.004440347
3	0xbd20b67f	-0.03923654
4	0x3e6d11f7	0.23151384
5	0xbd86f6c9	-0.06590039
6	0xbd534f43	-0.05158926
7	0x3d4cfd06	0.05004599
8	0x3d5770ac	0.052597687
9	0xbe4e5740	-0.2015047
10	0x3d6036bb	0.054739695
11	0xbde8e32d	-0.11371455
12	0x3e1711e3	0.14752917
13	0x3e37a96f	0.17935728
14	0x3d64a139	0.055817816
15	0x3cdec456	0.02719323
16	0x3d7e74b2	0.062123008
17	0xbdae1fab	-0.08502134
18	0x3de0ad74	0.109705836
19	0x3d388f0b	0.04505829
20	0x3eab686d	0.33478108
21	0xbde36615	-0.11103455
22	0xbe54a97a	-0.20767775
23	0x3c93fe6b	0.018065652
24	0xbd2c3492	-0.042042322
25	0x3dc763ac	0.09735808
26	0x3ab8cecd	0.0014099717
27	0xbe2d2100	-0.1690712
28	0xbda6d1c0	-0.081454754
29	0x3ecbd841	0.39813426
30	0xbe0301f8	-0.1279372
31	0xbe799651	-0.24373747
32	0xbe46c79d	-0.19412084
33	0xbdd3f63a	-0.10349698
34	0xbd9489fd	-0.07252882
35	0x3e02ba5c	0.12766403
36	0xbd56cbf8	-0.052440614
37	0xba3dc236	-0.00072387175
38	0x3e1bb199	0.15204467
39	0x3e61b2b0	0.2204082
40	0xbe2a48d5	-0.16629346
41	0xbcd3a7fd	-0.025836939
42	0xbd833471	-0.06406487
43	0x3e2a4a09	0.16629805
44	0xbc74b074	-0.014934648
45	0xbde71dce	-0.11284982
46	0xbc562fea	-0.013072947
47	0x3a9775d8	0.0011555506
48	0xbdd1a18f	-0.10235893
49	0xbad49e86	-0.001622156
50	0x3e5591b7	0.20856367
51	0x3e174000	0.14770508
52	0x3a78fd64	0.00094982074
53	0x3d56744d	0.052357007
54	0xbe26a650	-0.1627438
55	0xbe5a6545	-0.21327694
56	0xbd804a3f	-0.06264161
57	0x3d509bdc	0.05092989
58	0xbd407462	-0.04698599
59	0xbd9810a3	-0.07425048
60	0x3d313322	0.043261655
61	0xbdbe01c0	-0.092776775
62	0x3d589b56	0.052882515
63	0xbd60b04d	-0.054855634
64	0x3e66f537	0.2255448
65	0xbd6d0419	-0.057865236
66	0x3d9fb31b	0.077978335
67	0xba562ea8	-0.00081704045
68	0xbe3572c4	-0.17719561
69	0xbe6b5f21	-0.22985508
70	0x3dd3e863	0.103470586
71	0x3d8ff9eb	0.0703009
72	0xbcc33b29	-0.02383192
73	0xbbf77fe2	-0.0075530866
74	0xbd957aa0	-0.072987795
75	0xbeb903b0	-0.36135626
76	0xbe3bb8f2	-0.1833227
77	0xbd005e69	-0.031340037
78	0x3d852f44	0.06503156
79	0xbd0b5251	-0.03401405
80	0xbdae4466	-0.0850914
81	0xbda6be37	-0.08141749
82	0x3d97cb58	0.074118316
83	0x3eb4dd88	0.35325265
84	0xbe3d92a6	-0.18512973
85	0xbca42d08	-0.020041004
86	0x3d8b7397	0.068091564
87	0x3e13303c	0.14373869
88	0x3db9d58c	0.09073934
89	0x3e3ec8a5	0.18631227
90	0xbdf0be99	-0.117551036
91	0xbd25fed4	-0.040526226
92	0xbdfafee6	-0.12255649
93	0x3e3af3ae	0.18257019
94	0x3ddb1059	0.106964774
95	0xbd564045	-0.052307386
96	0xbc941c20	-0.018079817
97	0x3e2bb784	0.16769224
98	0x3c22c6c6	0.009935087
99	0x3c50183c	0.01270109
100	0xbcff3595	-0.03115348
101	0x3e2a357b	0.16621964
102	0xbc9059a6	-0.017620873
103	0x3e172c8a	0.14763084
104	0x3cca39d0	0.02468577
105	0x3d3de0f6	0.046357118
106	0x3e3cee87	0.18450366
107	0xbde85403	-0.11344149
108	0xbdd9eb3c	-0.106405705
109	0x3bae1228	0.005312223
110	0x3d3d813e	0.046265833
111	0x3e140daa	0.14458337
112	0x3d863034	0.06552163
113	0x3dcb922e	0.09939991
114	0xbe538134	-0.20654756
115	0xbe69ed3c	-0.22844404
116	0xbd71d2bc	-0.059038863
117	0xbe6387e8	-0.22219813
118	0xbd3615a9	-0.04445425
119	0xbe15f119	-0.14642753
120	0x3e0a1c6d	0.13487406
121	0x3ce06a99	0.02739458
122	0xbd84bfbf	-0.06481885
123	0xbcedcb44	-0.029027589
124	0xbce79b72	-0.028272364
125	0xbd916c14	-0.071006924
126	0x3e09ba0d	0.13449879
127	0xbc4c0905	-0.012453322
128	0x3e426c0d	0.1898653
129	0xbea8184d	-0.3283104
130	0x3ed5e0ec	0.41773164
131	0x3dacfb78	0.08446401
132	0x3bfbd9b5	0.007685865
133	0xbc537ee2	-0.012908669
134	0xbe1b66ba	-0.15175906
135	0x3eb780f4	0.3584057
136	0x3ea45dac	0.32102716
137	0xbd9062bd	-0.07050083
138	0xbd7934e8	-0.06084147
139	0x3e93b7d9	0.28851202
140	0x39a059cc	0.00030584482
141	0x3e66ea3b	0.2255029
142	0x3ecf413f	0.40479466
143	0x3ed7fcb7	0.42184994
144	0x3df0ae66	0.11752014
145	0x3e2a46ca	0.16628566
146	0xbec34b8b	-0.38143572
147	0x3d4ba409	0.049716983
148	0xbe8a2776	-0.2698323
149	0xbdafa52b	-0.08576425
150	0xbd15e94b	-0.03659944
151	0x3e4f8a71	0.20267655
152	0xbd52f17a	-0.05149982
153	0xbdb3adf3	-0.087734126
154	0xbdf0d12a	-0.11758645
155	0x3e8401dd	0.25782672
156	0xbea1f0e5	-0.316291
157	0x3e4d2804	0.20034796
158	0xbdef9d95	-0.11699978
159	0xbe2e690c	-0.1703226
160	0xbdd2e51b	-0.10297605
161	0x3e9991ba	0.29993993
162	0x3ea63541	0.32462505
163	0xbe1738b9	-0.14767732
164	0x3dad9f11	0.08477605
165	0x3c6b2559	0.014352166
166	0xbd48ca18	-0.049020857
167	0xbe040c3e	-0.12895295
168	0x3c97b87f	0.018520592
169	0x3dc1dde1	0.09466148
170	0xbd302490	-0.04300362
171	0x3e815fc7	0.25268385
172	0xbe405f90	-0.18786454
173	0x3f0014a5	0.500315
174	0x3bfa7e53	0.0076444536
175	0xbd714493	-0.058903288
176	0xbe15de09	-0.14635481
177	0xbe2d100a	-0.1690065
178	0x3d0f969e	0.03505575
179	0x3cb27b24	0.021787234
180	0xbd63c6e3	-0.055609595
181	0xbd8875fd	-0.066631295
182	0xbd3b10f7	-0.045670476
183	0xbe7232a5	-0.23652132
184	0x3d96dfa5	0.073668756
185	0x3dd7e2b7	0.10541289
186	0x3ee89521	0.45426276
187	0xbf0bdb7a	-0.5463177
188	0x3e4f153d	0.20222946
189	0x3e9f63d1	0.3113084
190	0x3de865ab	0.113475166
191	0xbe246a4f	-0.16056179
192	0xbe6c882e	-0.23098823
193	0x3ee2c7ab	0.4429296
194	0xbe9b1f14	-0.30297148
195	0x3edaedaf	0.42759463
196	0xbeb3cb91	-0.35116246
197	0xbe073a91	-0.13205935
198	0xbe8e51d0	-0.27796793
199	0x3f32df5a	0.6987206
200	0xbe2cb8fd	-0.16867442
201	0x3e9f7eaa	0.31151325
202	0x3efeb4f7	0.4974744
203	0xbe1c2a23	-0.15250449
204	0xbe29d6d1	-0.16585852
205	0x3edab769	0.42718056
206	0x3cfe55cc	0.03104677
207	0xbe607868	-0.21920931
208	0x3e05e030	0.13073802
209	0xbde1a726	-0.11018209
210	0x3ec86f50	0.39147425
211	0x3d5aa663	0.053381335
212	0x3f0089a7	0.5021004
213	0xbd1f0cfc	-0.038830742
214	0x3df3a250	0.11896193
215	0x3e587cbe	0.21141335
216	0x3e303711	0.17208506
217	0x3eaacb07	0.33358023
218	0xbd345b8e	-0.044032626
219	0xbdf3888a	-0.11891277
220	0xbeacfe47	-0.33787748
221	0xbec61932	-0.38691097
222	0xbd8409f4	-0.06447211
223	0x3f011564	0.50423265
224	0xbd361e6a	-0.0444626
225	0x3e2d238c	0.16908091
226	0x3ca9c470	0.020723552
227	0x3de928c9	0.11384732
228	0xbe88f36e	-0.26748222
229	0xbd6fc532	-0.05853767
230	0xbe3cdf7d	-0.18444629
231	0x3e00908f	0.12555145
232	0x3f122e87	0.57102245
233	0x3dd83bc3	0.10558274
234	0x3e8f00dc	0.27930343
235	0xbd856476	-0.06513302
236	0x3ee0d0a7	0.4390919
237	0xbe3ddf9c	-0.18542331
238	0x3eade6d6	0.33965176
239	0x3e91c8e5	0.28473583
240	0x3eb85ecd	0.36009827
241	0x3e9d9241	0.30775645
242	0x3eb591bd	0.35462752
243	0xbcf26f51	-0.029594095
244	0x3e9ded5f	0.30845162
245	0x3ed9ae5d	0.4251584
246	0x3dc8527f	0.0978136
247	0xbe9ca2e9	-0.3059304
248	0x3e89c20d	0.26905861
249	0x3e323deb	0.17406432
250	0x3ec0fa54	0.37690985
251	0xbe314955	-0.1731313
252	0x3de80594	0.11329189
253	0xbe9a60db	-0.3015202
254	0xbd72b715	-0.059256632
255	0xbca968ce	-0.020679858

ff.2.bias f4 [32]
0	0xbcd97907	-0.026546968
1	0x3ed1e8dc	0.4099797
2	0xbe3d1bce	-0.18467638
3	0xbe82e4c6	-0.25565165
4	0x3e8935af	0.2679877
5	0xbe1c7dfe	-0.15282437
6	0xbe4cf781	-0.2001629
7	0x3e822434	0.25418246
8	0x3f1e01b6	0.6172136
9	0xbf221468	-0.6331239
10	0x3ee49f14	0.44652617
11	0xbc69b233	-0.014263677
12	0xbd200053	-0.03906281
13	0x3cde228e	0.027116086
14	0x3d41189f	0.04714262
15	0x3eb1be80	0.34715652
16	0xbe647c52	-0.2231305
17	0x3bc5e6d3	0.0060394793
18	0x3e0d7fd5	0.13818295
19	0xbe10bcb3	-0.14134483
20	0xbcaaec1d	-0.02086454
21	0x3c9c46b4	0.019076683
22	0x3e712b3f	0.23551653
23	0xbba83ef4	-0.0051344577
24	0xbe9e8860	-0.3096342
25	0x3e8a61cc	0.27027738
26	0xbdad6ec1	-0.0846839
27	0x3db19822	0.08671595
28	0xbe4ae6f8	-0.1981467
29	0xbdcb81dc	-0.09936878
30	0x3e6826d3	0.2267106
31	0xbdb985cb	-0.09058722

norm1.weight f4 [32]
0	0x3f24c164	0.6435759
1	0x3f9432ed	1.1578041
2	0x3f59f89a	0.8514496
3	0x3f8c86c3	1.0978626
4	0x3f7615d1	0.9612704
5	0x3f850e25	1.0394942
6	0x3fa2e9e5	1.2727629
7	0x3f773bdc	0.96575713
8	0x3f96d153	1.1782631
9	0x3fabfc45	1.3436362
10	0x3f42d433	0.7610504
11	0x3f47ce87	0.7804951
12	0x3f5f3efc	0.8720548
13	0x3f81dc9b	1.0145448
14	0x3f8e9bc5	1.1141287
15	0x3f9df405	1.2340094
16	0x3f6e7740	0.9315071
17	0x3f7b696b	0.9820773
18	0x3f9e3ca0	1.2362251
19	0x3f8063bf	1.003044
20	0x3f684ffb	0.9074704
21	0x3f7ad9b0	0.97988415
22	0x3f5c7929	0.86122376
23	0x3f84e387	1.0381936
24	0x3f9e1302	1.2349551
25	0x3f7444d8	0.9541755
26	0x3f881e1e	1.0634191
27	0x3f91a6f8	1.137908
28	0x3f43d495	0.7649625
29	0x3f2b7b33	0.6698486
30	0x3f5a9928	0.8538995
31	0x3f7ffe52	0.99997437

norm1.bias f4 [32]
0	0x3e034687	0.12819873
1	0x3e140f1a	0.14458886
2	0x3dfa0db9	0.12209649
3	0x3d2e103a	0.042495944
4	0xba3806d7	-0.0007020062
5	0xbd4a71c4	-0.0494249
6	0xbe35508e	-0.1770651
7	0x3d1aed83	0.037824165
8	0x3e80dd76	0.2516896
9	0xbeb1fad7	-0.34761688
10	0xbcfbdbbd	-0.030744428
11	0x3cd82083	0.02638269
12	0xbe283f72	-0.16430452
13	0x3daf9017	0.08572405
14	0x3cfb9148	0.030708924
15	0x3dd2135b	0.10257598
16	0xbd81ec3e	-0.06343888
17	0x3d01b0e6	0.031662844
18	0x3ce6d87d	0.028179402
19	0xbbd8c391	-0.00661511
20	0x3dbba44a	0.09162195
21	0x3d89ed8c	0.067347616
22	0x3ddc8827	0.107681565
23	0xbc211a89	-0.009832987
24	0xbeaf3920	-0.3422327
25	0x3d1f9419	0.038959596
26	0xbdb01083	-0.08596899
27	0x3d877d8a	0.066157416
28	0xbd2a3a34	-0.041559413
29	0xbc821ae2	-0.01588196
30	0xbd5a1588	-0.05324319
31	0xbddfa0e1	-0.10919357

norm2.weight f4 [32]
0	0x3f184a8c	0.5948875
1	0x3e6b5f64	0.22985607
2	0x3f4cfc4a	0.8007246
3	0x3dc5e824	0.09663418
4	0x3f7713c1	0.9651452
5	0x3f7c9e4e	0.98679054
6	0x3e98126b	0.29701552
7	0x3f5fae97	0.8737578
8	0x3e9c31ae	0.30506653
9	0x3e721fcc	0.23644942
10	0x3dea4a7c	0.11439988
11	0x3f80b46a	1.0055058
12	0x3f5c89c2	0.861477
13	0x3f4ac6d1	0.7920962
14	0x3fbd4464	1.4786496
15	0x3f791ad1	0.97306544
16	0x3f5356ef	0.82554525
17	0x3fb0fc8e	1.3827074
18	0x3fa8c420	1.3184853
19	0x3e9193a9	0.28432968
20	0x3f81d173	1.0142044
21	0x3fa92678	1.3214865
22	0x3eb9c58a	0.36283523
23	0x3f956209	1.1670543
24	0x3f5891a6	0.8459724
25	0x3f2de809	0.6793218
26	0x3f285a01	0.65762335
27	0x3f8519f6	1.0398548
28	0x3f0e1dbe	0.5551413
29	0x3f57ae7a	0.84250605
30	0x3f45f833	0.77331847
31	0x3f843db7	1.0331334

norm2.bias f4 [32]
0	0x3c0a57dc	0.008443799
1	0xbed4062a	-0.41410953
2	0x3d090f42	0.033461817
3	0xbdda0632	-0.10645713
4	0x3e1cd425	0.15315302
5	0xbdb5a35f	-0.08869051
6	0x3d05b84e	0.03264647
7	0xbb63f157	-0.00347813
8	0xbf009d39	-0.502399
9	0x3f0c4d2f	0.5480527
10	0xbe30903a	-0.17242518
11	0x3e1ba836	0.15200886
12	0xbd35b415	-0.044361193
13	0xbd111c20	-0.035427213
14	0x3e0c2d8e	0.13689253
15	0x3dc6d56b	0.09708675
16	0x3997b8aa	0.0002893855
17	0xbe0f04f2	-0.1396673
18	0x3e02e3ec	0.12782258
19	0xbe7a013b	-0.24414532
20	0x3dff0cd6	0.1245362
21	0xbe11ca97	-0.14237438
22	0xbeb59535	-0.35465398
23	0xbdfae61c	-0.12250921
24	0xbc5c556b	-0.0134481
25	0xbedc3e81	-0.43016437
26	0x3d9ba17f	0.07599162
27	0x3e21b757	0.15792595
28	0xbda3e076	-0.08001797
29	0x3e54abda	0.20768681
30	0x3e3627bd	0.17788596
31	0x3e31a579	0.17348279

classifier.weight f4 [1, 32]
0	0xbcec0435	-0.0288106
1	0x3cadf013	0.02123264
2	0xbd87869c	-0.066174716
3	0x3b8a63d6	0.004223327
4	0xbdf9ec38	-0.12203258
5	0x3e0622ef	0.13099264
6	0x3c9eafa4	0.019370861
7	0xbdb9c147	-0.09070068
8	0x3d007c36	0.031368457
9	0xbcc8165c	-0.024424724
10	0xbb93064c	-0.0044868346
11	0xbe07f2b3	-0.13276176
12	0x3da295b6	0.07938711
13	0x3ca49191	0.020088943
14	0xbf1e91ae	-0.6194104
15	0xbdfb7663	-0.1227844
16	0x3d4e9935	0.05043908
17	0x3eccf781	0.4003258
18	0xbedb3e50	-0.42820978
19	0x3cfd17b7	0.030895097
20	0xbe204f87	-0.15655337
21	0x3edcbffa	0.43115216
22	0x3c5af089	0.013363012
23	0x3e9eff4a	0.31054145
24	0x3dc3ad82	0.09554578
25	0x3d3542a7	0.044253018
26	0x3b085be8	0.0020806734
27	0xbdc1fcb0	-0.094720244
28	0xbba20d48	-0.004945431
29	0xbd87a246	-0.06622748
30	0xbd987125	-0.074434556
31	0xbe4b3326	-0.1984373
