checkpoints/sketch_prediction_2/graph_embedding_model.pth (torch, 91904 bytes, 22 tensors)

local_head.gconv.convs.<stroke___temp_previous___stroke>.nn.0.weight f4 [32, 12]
0	0x3c65d5e0	0.014028043
1	0xbd162830	-0.03665942
2	0x3df48aac	0.11940512
3	0xbe677805	-0.22604378
4	0x3dc8452c	0.097788185
5	0xbe717988	-0.23581517
6	0x3d824fa8	0.063628495
7	0x3d86ca0c	0.06581506
8	0x3e8de544	0.27713978
9	0xbe6a4bdf	-0.22880505
10	0x3c9a2410	0.018816024
11	0x3e807f74	0.2509724
12	0xbdd38ce6	-0.103296086
13	0x3e760bf4	0.24027997
14	0xbdbb3c9c	-0.0914242
15	0x3e8c767e	0.27434152
16	0x3e4be554	0.199117
17	0xbe04fe28	-0.12987578
18	0x3ca5d070	0.020240992
19	0x3dc7d5b4	0.097575575
20	0xbdb6a45e	-0.08918069
21	0xbc8895f0	-0.016673058
22	0x3e2dcfc8	0.16973794
23	0x3da00770	0.078139186
24	0x3d46d550	0.048543274
25	0x3e3a6e18	0.1820606
26	0x3e57e700	0.21084213
27	0x3e565b18	0.20933187
28	0x3e93733e	0.2879886
29	0xbe86bbd8	-0.26315188
30	0x3c133480	0.008984685
31	0xbe07d907	-0.13266383
32	0x3c9bcd90	0.019018918
33	0x3e918be6	0.28427047
34	0xbe840920	-0.25788212
35	0x3db24a8c	0.08705625
36	0x3e486c86	0.19572648
37	0x3e020dca	0.12700573
38	0xbdee915a	-0.11648817
39	0x3cc01700	0.023448467
40	0xbe05d52a	-0.13069597
41	0x3e713590	0.23555589
42	0x3e145232	0.1448448
43	0x3bb92cc0	0.0056510866
44	0xbc3511a0	-0.011051565
45	0xbca5dc10	-0.020246536
46	0xbe413dcc	-0.1887123
47	0xbe65da3e	-0.22446534
48	0xbc3a64e0	-0.01137659
49	0xbd9d6d6e	-0.07686888
50	0x3d1d08b0	0.038338363
51	0x3d2dff70	0.042479932
52	0x3db8dfc4	0.09027055
53	0x3e89af36	0.26891488
54	0x3e3050d0	0.17218328
55	0x3e6afe10	0.2294848
56	0xbe8bc9ba	-0.27302343
57	0xbe5cef4c	-0.2157566
58	0xbd1c07b8	-0.0380933
59	0xbe198805	-0.14993294
60	0x3e535ace	0.20640108
61	0x3d726988	0.059182674
62	0xbe334e2e	-0.17510292
63	0x3e8d6a4a	0.27620155
64	0x3e8f1ee2	0.2795325
65	0xbdc22d7a	-0.0948133
66	0xbe3381fc	-0.17530054
67	0xbcf88d00	-0.030340672
68	0xbe9113e5	-0.2833549
69	0x3d891cdc	0.066949576
70	0xbe0cf158	-0.1376394
71	0xbdbbf30e	-0.091772184
72	0xbde09fb0	-0.10967958
73	0x3c7015e0	0.014653653
74	0xbcba5d70	-0.022749633
75	0xbdc86e86	-0.09786706
76	0x3d65e6a8	0.056128174
77	0x3e717f30	0.23583674
78	0x3e0fb2e8	0.14033091
79	0x3e72bc6c	0.2370469
80	0x3e094ee6	0.13409004
81	0x3d604978	0.054757565
82	0xbd925240	-0.07144594
83	0x3e821714	0.25408232
84	0x3e89ab2c	0.26888406
85	0x3c5f44a0	0.013627201
86	0xbe743089	-0.2384664
87	0x3b873380	0.0041260123
88	0xbe83830f	-0.25685927
89	0x3c51ba40	0.012800753
90	0x3e843382	0.25820547
91	0x3e11a088	0.14221394
92	0x3e46925a	0.19391766
93	0x3dea8100	0.11450386
94	0xba19a600	-0.0005861223
95	0xbd61cad4	-0.055125073
96	0x3dae7200	0.085178375
97	0x3e603140	0.21893787
98	0xbe397e5b	-0.18114607
99	0xbe502da2	-0.20329908
100	0x3e07a788	0.13247502
101	0x3ca4ee70	0.020133227
102	0xbdb25340	-0.08707285
103	0x3e3bee7a	0.1835269
104	0x3e31d70c	0.1736719
105	0xbe51e26a	-0.20496526
106	0x3bb0e880	0.00539881
107	0x3dfc3ef0	0.12316692
108	0x3d9b3520	0.07578492
109	0x3e37fc64	0.17967373
110	0x3e78874c	0.24270362
111	0xbe1ead54	-0.15495807
112	0x3daab8a4	0.08335999
113	0x3bb63540	0.005560547
114	0xbe10ac88	-0.14128315
115	0x3dbab898	0.0911724
116	0xbdfa37a4	-0.12217644
117	0xbd6995cc	-0.057027623
118	0xbe128a1e	-0.143105
119	0x3e111220	0.1416707
120	0x3e82756c	0.2548021
121	0xbe82202e	-0.25415176
122	0xba8ee300	-0.0010901392
123	0x3e61402c	0.21997136
124	0x3bb40980	0.0054942966
125	0x3d59f4e0	0.053212047
126	0x3e814c36	0.25253457
127	0xbe440f44	-0.19146448
128	0xbe36c46c	-0.17848366
129	0x3ddbb4b4	0.10727826
130	0xbdae7684	-0.08518699
131	0x3e21ee72	0.15813616
132	0x3d74ff00	0.0598135
133	0xbe0fe2a1	-0.14051296
134	0xbd88046e	-0.0664147
135	0x3e904b7a	0.28182584
136	0x3d6baf58	0.057540268
137	0x3e5732ec	0.21015519
138	0x3dc75694	0.0973331
139	0xbd08acc0	-0.033367872
140	0xbe5b41fa	-0.21411887
141	0xbdf8ec9a	-0.12154503
142	0xbe2565b2	-0.16152075
143	0x3cfbad80	0.03072238
144	0xbe83ab2e	-0.25716537
145	0x3cfb8680	0.030703783
146	0xbe8a1cb8	-0.26975036
147	0xbe6db4cc	-0.232135
148	0x3e16e202	0.14734653
149	0x3ca468b0	0.02006945
150	0xbe801894	-0.25018752
151	0xbe7cf431	-0.24702527
152	0xbe85ecf7	-0.26157352
153	0x3e487ad8	0.19578111
154	0x3dde65a8	0.10859233
155	0x3e74a3b0	0.23890567
156	0xbe3080d0	-0.17236638
157	0xbe12e0b6	-0.14343533
158	0x3e198eac	0.14995831
159	0xbe6f7ca5	-0.23387392
160	0xbe8a7049	-0.27038792
161	0x3e89e966	0.2693588
162	0xbd549434	-0.05189915
163	0xbcc3dad0	-0.023908049
164	0x3e703ed4	0.23461467
165	0xbe855a6b	-0.26045546
166	0xbe88893f	-0.2666721
167	0xbd8a4b3a	-0.067526296
168	0x3d8aef04	0.0678387
169	0x3e43aad0	0.19108129
170	0x3e185f0e	0.1488001
171	0x3d18a0b8	0.03726265
172	0x3d6c3a98	0.057673067
173	0xbdce7006	-0.100799605
174	0xbd280d08	-0.041028053
175	0x3e56ed0e	0.20988867
176	0x3e7082e4	0.23487431
177	0x3d164c90	0.03669411
178	0x3e4b907a	0.19879332
179	0x3db0b310	0.086279035
180	0x3e6521d0	0.2237618
181	0xbe33b4c6	-0.17549428
182	0x3e832ec8	0.2562163
183	0xbb64e980	-0.0034929216
184	0xbd1494b0	-0.036274612
185	0x3d5b3d98	0.053525537
186	0xbdb82a22	-0.08992411
187	0xbe484214	-0.19556457
188	0x3dcfd86c	0.10148701
189	0xbe807527	-0.2508938
190	0x3cf870a0	0.030327141
191	0x3dfda028	0.12384063
192	0xbe82a3f7	-0.2551572
193	0x3da614a8	0.081094086
194	0x3e14b7ea	0.14523283
195	0x3e56f276	0.20990929
196	0xbd271ab0	-0.040796936
197	0xbd8f91fa	-0.07010265
198	0x3e78fb34	0.24314576
199	0xbe6f44b2	-0.23366049
200	0xbcc63c50	-0.024198681
201	0xbe5161c9	-0.20447458
202	0xbdc28ac2	-0.09499122
203	0x3c3eb5e0	0.011640042
204	0xbdf02ae6	-0.11726932
205	0x3dbf5b54	0.09343591
206	0x3e850c1c	0.259858
207	0x3e503726	0.20333537
208	0xbe18c824	-0.14920098
209	0xbdff0d5e	-0.124537215
210	0xbdd20eda	-0.10256739
211	0x3d689588	0.05678323
212	0x3e2f5cf2	0.171253
213	0xbdc19f8a	-0.09454258
214	0xbe859ad2	-0.2609468
215	0x3dd374b0	0.10324991
216	0xbdd278ba	-0.10276933
217	0x3e11f8ac	0.14255017
218	0xbe82032e	-0.2539305
219	0xbe3ddd73	-0.18541507
220	0xba74d800	-0.0009340048
221	0xbe5c17ba	-0.21493426
222	0x3d64c148	0.05584839
223	0xbd8144c2	-0.06311943
224	0xbdb37f04	-0.08764461
225	0xbe23397e	-0.159399
226	0xbdf522d6	-0.11969535
227	0xbe491e92	-0.19640568
228	0x3e582468	0.21107638
229	0xbe842a70	-0.25813627
230	0x3e63e8fc	0.22256845
231	0xbe20a322	-0.1568723
232	0xbda7557a	-0.081706
233	0xbe6d7c21	-0.23191883
234	0x3daf6114	0.08563438
235	0xbd137a38	-0.03600523
236	0xbdae88b8	-0.08522171
237	0xbe8e5cec	-0.2780527
238	0x3ca50f90	0.020149022
239	0x3b5b8a80	0.00334993
240	0x3e7372bc	0.23774236
241	0xbda94ef8	-0.08267015
242	0xbd205d38	-0.0391514
243	0xbd65974c	-0.05605249
244	0xbdac95f2	-0.08427037
245	0x3dbfea70	0.09370887
246	0x3d263f10	0.040587485
247	0xbdead4c2	-0.114663616
248	0xbe28ef96	-0.16497645
249	0xbe03489b	-0.12820666
250	0xbe27fbc1	-0.1640463
251	0x3e7ef640	0.24898624
252	0x3e0bcc24	0.13652092
253	0x3de6e098	0.112733066
254	0xbe4c9a6c	-0.19980782
255	0x3e53cd26	0.20683727

local_head.gconv.convs.<stroke___temp_previous___stroke>.nn.0.bias f4 [32]
0	0xbcd973c0	-0.026544452
1	0x3e69d634	0.22835618
2	0xbc078880	-0.00827229
3	0x3e8d620e	0.27613872
4	0x3daafc90	0.08348954
5	0x3d3995f8	0.045309037
6	0x3e6d9f78	0.23205364
7	0xbe132a3e	-0.14371583
8	0xbe08e2ec	-0.13367814
9	0xbd84ca2a	-0.06483872
10	0xbe032340	-0.12806416
11	0x3d15ee10	0.036603987
12	0x3d5a8f28	0.05335918
13	0x3e173e16	0.14769778
14	0xbe52e040	-0.20593357
15	0xbe83e161	-0.25757888
16	0xbe8b366e	-0.27189964
17	0x3def6c44	0.11690572
18	0x3d592b80	0.05302
19	0x3e3d47a6	0.18484363
20	0xbc367d40	-0.01113826
21	0xbd53359c	-0.051564798
22	0x3db26148	0.08709961
23	0x3d74d540	0.059773684
24	0x3e8026ce	0.25029606
25	0x3e8e4b82	0.27791983
26	0xbc9a0850	-0.018802792
27	0xbc4f97a0	-0.012670428
28	0xbc8050b0	-0.015663475
29	0x3e6b1b4c	0.22959632
30	0x3e684698	0.2268318
31	0xbe4a8fb7	-0.19781385

local_head.gconv.convs.<stroke___intersects___stroke>.nn.0.weight f4 [32, 12]
0	0xbdb872fc	-0.090063065
1	0xbc8a1372	-0.016854975
2	0xbe3f5a76	-0.18686852
3	0xbe158af5	-0.14603789
4	0xbe8505bf	-0.25980946
5	0xbe803aaf	-0.25044772
6	0x3e8340ed	0.25635472
7	0x3e3662f0	0.17811179
8	0xbd9d8b25	-0.07692555
9	0xbe2b3186	-0.1671811
10	0x3e125dbb	0.14293568
11	0xbe914bb1	-0.2837806
12	0xbe0abe9d	-0.13549276
13	0xbd7847d4	-0.060615376
14	0xbd9a089e	-0.07521175
15	0x3cf8c7ac	0.030368648
16	0x3dbe41af	0.09289872
17	0xbe465bc5	-0.19370945
18	0x3dd77e39	0.10522122
19	0x3d82357a	0.06357856
20	0x3dbe76ed	0.09300027
21	0xbe0abca6	-0.13548526
22	0x3d987edd	0.07446072
23	0xbe8176f3	-0.25286064
24	0x3e53293e	0.20621201
25	0x3e93236e	0.28737968
26	0xbe26b9d0	-0.1628182
27	0xbe11ee85	-0.14251144
28	0xbda4aef3	-0.080411814
29	0xbd16af27	-0.036788132
30	0xbdc3dd14	-0.09563652
31	0x3a96783b	0.0011479923
32	0x3df23f13	0.11828437
33	0x3dc8793b	0.09788748
34	0x3e65f32a	0.22456041
35	0xbe314c00	-0.17314148
36	0x3da652f1	0.081212886
37	0x3d91f4f5	0.071268
38	0xbe41b7f1	-0.18917824
39	0xbe499b7f	-0.19688223
40	0xbc5425fa	-0.012948507
41	0x3d084d5c	0.0332769
42	0x3d1fb67d	0.038992394
43	0xbc1fb666	-0.009748077
44	0x3e11d668	0.14241946
45	0x3e75c101	0.23999406
46	0xbe929122	-0.28626353
47	0x3e4a514f	0.1975758
48	0xbda40cdd	-0.08010266
49	0x3ddc2d88	0.10750872
50	0xbe1f4550	-0.15553784
51	0x3e55648f	0.20839141
52	0xbddc8ac3	-0.10768654
53	0x3dbccc9b	0.09218713
54	0xbd52e473	-0.051487397
55	0xbe12e6a3	-0.14345793
56	0xbdf291ea	-0.11844237
57	0x3c845372	0.016153071
58	0xbd74d4d7	-0.059773292
59	0xbc690333	-0.014221954
60	0x3e69fc43	0.22850136
61	0x3cb7cb19	0.022435712
62	0x3e939d09	0.28830746
63	0x3e64da02	0.22348788
64	0xbdee47bd	-0.11634777
65	0x3e0375e5	0.12837942
66	0x3e92b21e	0.28651518
67	0xbe2379b4	-0.15964395
68	0xbe6f66f3	-0.23379116
69	0xbe5c15d4	-0.21492702
70	0x3dd49bfb	0.103813134
71	0xbe1326a8	-0.14370215
72	0x3e17dffb	0.14831536
73	0x3e7f38e3	0.24924044
74	0xbe65c44b	-0.22438161
75	0xbd3aff98	-0.04565391
76	0xbc96d401	-0.018411638
77	0xbd6e2bf2	-0.05814738
78	0x3e76fcfb	0.24119942
79	0x3e719022	0.23590139
80	0xbe6d1a37	-0.23154531
81	0xbe4652b5	-0.19367488
82	0x3e57c132	0.21069792
83	0xbd2186a9	-0.039435063
84	0x3cabb2fa	0.020959366
85	0x3e1c713d	0.15277572
86	0x3df8eab0	0.12154138
87	0xbe7be9bc	-0.24600881
88	0x3ca84f1e	0.020545539
89	0xbe363954	-0.17795306
90	0xbe0c75f3	-0.13716869
91	0xbd7cc206	-0.061708473
92	0xbc084dfe	-0.008319376
93	0xbdd27ec0	-0.10278082
94	0xbd3b2235	-0.04568692
95	0xbbb78872	-0.0056009823
96	0xbe6a8ffd	-0.2290649
97	0xbd2c5877	-0.042076554
98	0x3e6bb1c2	0.23017028
99	0xbe229598	-0.15877378
100	0x3e0d0011	0.13769557
101	0x3e33bd93	0.17552786
102	0x3e56fb79	0.20994367
103	0xbe3bd70f	-0.18343757
104	0xbd34266f	-0.043981966
105	0xbdd064aa	-0.1017545
106	0xbd6117b8	-0.05495426
107	0xbe876521	-0.26444343
108	0x3cfdfaaf	0.031003324
109	0xbd21926c	-0.03944628
110	0x3cdc6ee5	0.026908347
111	0x3e0e71a1	0.13910533
112	0x3dd998af	0.10624825
113	0xbdd9f2ce	-0.106420144
114	0x3e727378	0.2367686
115	0x3b1663f4	0.002294776
116	0xbe83adaa	-0.25718433
117	0xbd5d64f3	-0.05405135
118	0xbe869a53	-0.26289615
119	0xbe828811	-0.25494435
120	0x3ca39e80	0.01997304
121	0xbcaa8a18	-0.020817801
122	0x3e8293b3	0.2550331
123	0xbd3fbc2b	-0.04681031
124	0x3dde5f1b	0.10857984
125	0xbe216ee1	-0.15764953
126	0x3bedace3	0.0072532757
127	0xbdf5a8eb	-0.11995109
128	0xbd8cad7f	-0.06869029
129	0xbcba8845	-0.022770057
130	0xbd977224	-0.073948175
131	0x3d3f7a3b	0.046747427
132	0xbe8376fa	-0.2567671
133	0x3e0f3a3a	0.13987055
134	0x3e4d078b	0.20022409
135	0xbdb4d0dc	-0.08828899
136	0x3e868041	0.26269725
137	0x3daeacc2	0.08529045
138	0xbe1e0a07	-0.15433513
139	0x3da7e65c	0.081982344
140	0x3e64b1e1	0.2233348
141	0x3d1852c2	0.0371883
142	0x3e46825b	0.19385664
143	0x3d4be65f	0.049780246
144	0x3e6a1aef	0.22861837
145	0xbe25a87b	-0.16177551
146	0xbc1a63b6	-0.009423187
147	0xbe06b874	-0.13156301
148	0x3d023fb6	0.03179904
149	0x3de46e3f	0.1115384
150	0x3c7557f5	0.014974584
151	0xbe606a18	-0.21915472
152	0x3e173a05	0.14768226
153	0xbe8addaa	-0.2712224
154	0x3e8cf3b5	0.27529684
155	0x3d4c1db7	0.049833026
156	0x3e08bf9f	0.13354348
157	0x3e3f9560	0.18709326
158	0x3d31b384	0.04338409
159	0xbe31058c	-0.17287272
160	0xbdb26d10	-0.08712208
161	0x3dfd593a	0.12370534
162	0xbe7fc077	-0.24975763
163	0xbe0f8bde	-0.14018199
164	0xbe84e1c6	-0.259535
165	0x3e2702a3	0.163096
166	0xbe249a15	-0.16074403
167	0xbde9e20b	-0.114200674
168	0xbe051493	-0.1299613
169	0xbe7a2411	-0.2442782
170	0x3e0ad5e7	0.1355816
171	0x3e60ef9b	0.21966402
172	0x3dba84f3	0.09107389
173	0x3db95dd8	0.090511024
174	0x3de4e337	0.1117615
175	0x3c5759f5	0.013144006
176	0xbe7bd61e	-0.24593398
177	0xbe6d8373	-0.23194675
178	0xbe2e9fb4	-0.1705311
179	0x3e6e806e	0.2329118
180	0x3e14e11c	0.14538997
181	0xbd3db68a	-0.04631666
182	0xbe404ac6	-0.18778524
183	0xbdb606f9	-0.08888049
184	0xbd62de2b	-0.055387657
185	0xbe0c1162	-0.13678506
186	0xba90820a	-0.0011025083
187	0x3d7ea6cd	0.062170792
188	0xbd400f18	-0.046889395
189	0x3e4ac704	0.19802481
190	0xbe3fad59	-0.1871847
191	0x3e84bbc1	0.25924495
192	0x3e6df25f	0.23236988
193	0xbe021c8f	-0.12706207
194	0x3d36425c	0.04449688
195	0x3ceb89bd	0.028752202
196	0x3e1dab80	0.15397453
197	0x3c9a63eb	0.018846473
198	0x3e52d6a9	0.20589699
199	0x3e2724f0	0.16322684
200	0x3db27899	0.087144084
201	0x3e319244	0.17340952
202	0xbe62aed9	-0.22137012
203	0xbdf6e3a2	-0.12055136
204	0xbe08bda4	-0.13353592
205	0xbddd7010	-0.1081239
206	0xbcfb4397	-0.030671878
207	0x3dbd8687	0.09254175
208	0x3e6f23b7	0.23353468
209	0x3e8ef04f	0.27917716
210	0x3b5248bf	0.0032086817
211	0x3e193a80	0.14963722
212	0x3de78532	0.11304702
213	0x3e520da9	0.20513023
214	0xbe8325b8	-0.25614715
215	0x3d40f75e	0.047110908
216	0xbd843f6f	-0.064574115
217	0xbd2e4159	-0.04254279
218	0xbc5b2b9d	-0.013377097
219	0xbe8a2ff0	-0.26989698
220	0xbc8feec8	-0.017569914
221	0x3e4340f4	0.19067746
222	0x3e6d3841	0.2316599
223	0xbe643563	-0.2228599
224	0xbd595db1	-0.053067867
225	0x3d9c8fc5	0.07644609
226	0x3e15b190	0.14618516
227	0xbd6f6548	-0.0584462
228	0x3e84bf0a	0.25927
229	0xbde60602	-0.11231615
230	0x3d8ce953	0.068804406
231	0xbe2fc131	-0.1716354
232	0x3dfdb274	0.12387553
233	0xbe435278	-0.19074428
234	0x3db3e396	0.08783643
235	0x3e5951cd	0.21222611
236	0x3d4ffb57	0.050776806
237	0xbe83f2b5	-0.25771108
238	0xbe7ca708	-0.24673092
239	0x3db7a57c	0.089671105
240	0x3d9ff579	0.07810492
241	0xbe6e022c	-0.23243016
242	0x3e824451	0.25442746
243	0xbb04004c	-0.0020141779
244	0xbe4e9d5b	-0.20177214
245	0xbd7a8105	-0.0611582
246	0xbe27abd0	-0.16374135
247	0x3e2da689	0.1695806
248	0x3da3a763	0.07990911
249	0x3b95e708	0.00457466
250	0xbdd3e4a9	-0.10346348
251	0x3e1d14b3	0.15339927
252	0xbe396e29	-0.18108429
253	0x3e849ddb	0.25901684
254	0x3c8401dc	0.016114168
255	0xbca7020f	-0.020386724

local_head.gconv.convs.<stroke___intersects___stroke>.nn.0.bias f4 [32]
0	0xbe0e1ebe	-0.13878915
1	0xbe12dc17	-0.1434177
2	0xbe4f6eef	-0.20257162
3	0x3e8e71de	0.2782125
4	0xbe2e3d55	-0.17015584
5	0xbd9d7b6e	-0.07689558
6	0xbce7d371	-0.028299065
7	0x3dfb3319	0.122656055
8	0xbe0edb5f	-0.13950871
9	0x3e90dddf	0.28294274
10	0x3c80d363	0.015725797
11	0x3e91d007	0.28479025
12	0x3e50bd54	0.20384723
13	0xbd46f068	-0.048569113
14	0x3e5955b9	0.21224107
15	0xbe870d17	-0.26377174
16	0xbe37efd9	-0.17962588
17	0xbab02f19	-0.001344177
18	0xbe53f9c4	-0.20700747
19	0xbd90c907	-0.07069593
20	0x3e13a382	0.14417842
21	0x3e342da1	0.17595531
22	0xbe318b17	-0.17338215
23	0x3e15f755	0.14645131
24	0x3e5eef2f	0.21770929
25	0x3dcf2987	0.101153426
26	0xbe5ec437	-0.21754538
27	0xbde78915	-0.11305443
28	0x3d088311	0.03332812
29	0x3cffee6b	0.031241616
30	0xbe293662	-0.16524652
31	0x3e8f99ec	0.2804712

layers.0.mlp_edge_conv.gconv.convs.<stroke___temp_previous___stroke>.nn.0.weight f4 [32, 64]
0	0x3da67436	0.08127634
1	0xbb9bb3a0	-0.0047516376
2	0xbddc6ed2	-0.10763325
3	0xbdd3aea8	-0.103360474
4	0xbd92ced0	-0.071683526
5	0x3dbb40ba	0.09143205
6	0x3bb3a640	0.005482465
7	0xbcc71ce0	-0.02430576
8	0xbcda7d90	-0.026671201
9	0x3de2301e	0.11044334
10	0x3d208748	0.039191514
11	0xbdf53e60	-0.11974788
12	0x3d8f2dfe	0.06991194
13	0xbd8a41e0	-0.06750846
14	0xbcbb6780	-0.022876501
15	0xbde907c0	-0.11378431
16	0xbbcb2520	-0.006199494
17	0x3d453b98	0.048152536
18	0x3dd1e4bc	0.10248706
19	0x3dc8bffa	0.098022416
20	0x3df81784	0.1211386
21	0x3bc17480	0.0059037805
22	0x3d476ccc	0.04868774
23	0x3dd067ee	0.10176073
24	0x3d3a2220	0.0454427
25	0x3d04a7bc	0.032386526
26	0xbd9390f8	-0.07205385
27	0x3da26ad2	0.079305306
28	0x3de64fb0	0.11245668
29	0xbc244de0	-0.0100283325
30	0xbddf62c6	-0.109075114
31	0xbd8e94ec	-0.06961998
32	0xbd349760	-0.044089675
33	0xbc38b890	-0.011274472
34	0xbd8da058	-0.06915349
35	0x3d7559f8	0.059900254
36	0x3df5bcbc	0.11998889
37	0xbd3e0700	-0.046393394
38	0x3c2232e0	0.009899825
39	0xbd4706dc	-0.048590526
40	0xbdc1a904	-0.09456065
41	0xbddd9564	-0.108195096
42	0x3d4dcbbc	0.050243124
43	0x3dfe1b36	0.12407534
44	0xbdad288c	-0.08454999
45	0x3d85834c	0.065191835
46	0xbd8e862c	-0.06959185
47	0x3cb478e8	0.022030309
48	0xbc4d38d0	-0.012525752
49	0x3d886f22	0.06661822
50	0xbdc243dc	-0.094855994
51	0xbccf1538	-0.025278673
52	0x3d99221e	0.074772105
53	0xbd8805a4	-0.06641701
54	0x3ca69008	0.020332351
55	0xbdc7caee	-0.09755503
56	0xbd1b4390	-0.03790623
57	0xbde89688	-0.113568366
58	0xbd8dd646	-0.06925635
59	0xbd97f3f2	-0.07419576
60	0x3ddc0fca	0.10745199
61	0xbd9c59ee	-0.0763434
62	0xbd0339ec	-0.03203766
63	0x3dfce7da	0.1234891
64	0x3dcfd87a	0.101487115
65	0x3d7fadac	0.062421486
66	0x3b7486c0	0.0037311763
67	0xbddf0c6c	-0.10891041
68	0x3dadfc28	0.084953606
69	0x3db2d2ea	0.08731635
70	0xbdcf3718	-0.1011793
71	0x3cc44ad0	0.023961455
72	0x3de93c24	0.11388424
73	0x3d584a4c	0.05280523
74	0x3d4ec398	0.0504795
75	0x3db5fa5c	0.08885643
76	0xbdd3fe3c	-0.10351226
77	0x3dd67fd0	0.10473597
78	0x3cb56840	0.022144437
79	0xbde96d58	-0.11397809
80	0xbd5c08cc	-0.053719327
81	0x3da5ea30	0.08101308
82	0xbd9b35fc	-0.07578656
83	0x3d8a1ce8	0.06743795
84	0x3cc0ddf0	0.023543328
85	0xbdd25fa6	-0.1027215
86	0x3d33ec3c	0.043926463
87	0xbda0a6ea	-0.07844336
88	0xbd911412	-0.07083906
89	0x3d8f236c	0.06989178
90	0xbd36e700	-0.044653893
91	0xbda6f88e	-0.08152877
92	0xbd6c0650	-0.057623208
93	0x3ce44948	0.027866974
94	0x3d0045d4	0.031316593
95	0x3dc2b9dc	0.09508106
96	0x3d819bc8	0.06328541
97	0x3d2dfd9c	0.04247819
98	0x3c220280	0.009888291
99	0xbd7c1e5c	-0.06155239
100	0x3db5c3ba	0.088752225
101	0x3d292c98	0.041302294
102	0xbbbcdf40	-0.005763918
103	0x3dba7eac	0.09106192
104	0xbd554e20	-0.05207646
105	0x3cccfcd8	0.025022909
106	0xbd83a84c	-0.064285845
107	0x3d91de6c	0.07122502
108	0xbde186dc	-0.110120505
109	0x3d9bc2cc	0.07605514
110	0xbdfcb30e	-0.123388395
111	0x3dd485f8	0.10377115
112	0xbd110108	-0.035401374
113	0x3cff2838	0.031147107
114	0x3d74bf0c	0.05975251
115	0xbd7109ac	-0.058847114
116	0xbd360cd8	-0.044445843
117	0xbd8e9ce6	-0.0696352
118	0x3dc872a8	0.09787494
119	0xbd555394	-0.05208166
120	0xbd55622c	-0.052095577
121	0x3d0f7230	0.035021007
122	0xbae8cc80	-0.0017761141
123	0xbc463570	-0.012097701
124	0xbd8419f8	-0.06450266
125	0x3d524028	0.051330715
126	0x3db2657e	0.08710764
127	0x3d270200	0.04077339
128	0xbdb1c4b8	-0.08680099
129	0xbcdf53f8	-0.02726172
130	0x3d7eb158	0.062180847
131	0x3ddc10be	0.10745381
132	0x3d957e1a	0.072994426
133	0x3de5a58a	0.11213215
134	0xbccc5260	-0.024941623
135	0xbde3982a	-0.11113007
136	0xbd980886	-0.07423501
137	0xbc16a590	-0.009194747
138	0xbdc7329c	-0.0972645
139	0xbd8e7d7e	-0.069575295
140	0x3bd5e0a0	0.0065270215
141	0xbd5c4698	-0.05377826
142	0xbd270088	-0.04077199
143	0x37dee000	2.656877e-05
144	0xbd9548fe	-0.07289313
145	0xbd9dc902	-0.07704355
146	0x3a9be480	0.001189366
147	0xbdafbe56	-0.085812256
148	0x3d014540	0.031560183
149	0xbdba967a	-0.091107324
150	0xbd1c6dbc	-0.03819059
151	0xbcf56630	-0.029955953
152	0xbb68b0c0	-0.0035505742
153	0x3dc38bc4	0.095481426
154	0xbd8922c0	-0.06696081
155	0xbcdb6870	-0.026783198
156	0x3d711428	0.058857113
157	0x3d44ee08	0.048078567
158	0x3b2a9680	0.0026029646
159	0x3da89e96	0.08233373
160	0xbda12d96	-0.07870023
161	0xbc958920	-0.018253863
162	0x3dce5626	0.10075025
163	0x3cc217b8	0.02369295
164	0xbdd9e1b8	-0.106387556
165	0x3d92c09e	0.07165645
166	0xb8d10800	-9.967387e-05
167	0x3de69c8c	0.11260328
168	0xbd3b0e9c	-0.04566823
169	0x3ddabb8e	0.106803045
170	0xbdafc06a	-0.08581622
171	0x3cc56ce8	0.024099782
172	0x3c14ced0	0.009082511
173	0x3df950be	0.121736035
174	0xbb1558c0	-0.0022788495
175	0x3c88aa70	0.016682833
176	0x3d3962f4	0.045260385
177	0xbd8bc092	-0.06823839
178	0x3da6124e	0.0810896
179	0xbdcc67c2	-0.09980728
180	0x3db83b34	0.08995667
181	0x3c8cf1c0	0.01720512
182	0x3d2e0a84	0.042490497
183	0x3dc6961e	0.09696601
184	0x3df14990	0.11781609
185	0x3dad3da6	0.08459024
186	0xbcc77fd8	-0.024352953
187	0x3d1dcfe8	0.038528353
188	0xbd42504c	-0.04743986
189	0x3d6b3944	0.05742766
190	0x3ccd1d70	0.025038451
191	0xbdbecb0a	-0.093160704
192	0xbd248474	-0.04016538
193	0xbd357b4c	-0.04430704
194	0xbcba10f8	-0.02271317
195	0x3d0f6758	0.035010666
196	0x3d0f9c18	0.035060972
197	0x3d8f0b78	0.06984609
198	0xbc84ac88	-0.01619555
199	0xbc8b7700	-0.017024517
200	0xbdf9ed98	-0.122035205
201	0xbdfaa17c	-0.12237832
202	0xbcd976b8	-0.026545867
203	0x3df74fb8	0.12075752
204	0xbb963ae0	-0.004584655
205	0x3bbceca0	0.0057655126
206	0xbc8d20d8	-0.017227575
207	0x3df62172	0.12018098
208	0xbcfb6ae8	-0.030690625
209	0xbc7ccf00	-0.015430212
210	0x3dbdf402	0.092750564
211	0xbd1f01d8	-0.038820118
212	0x3cc232b0	0.02370581
213	0xbd91abe6	-0.07112865
214	0xbcad16d0	-0.021129042
215	0xbd46f110	-0.04856974
216	0xbd7199f0	-0.058984697
217	0x3d8d4286	0.06897454
218	0x3d12644c	0.03574018
219	0x3da6e7f6	0.08149712
220	0xbd4fbaa4	-0.050715104
221	0xbdd91c2a	-0.10601075
222	0xbc9893c8	-0.018625155
223	0xbd1e62b0	-0.038668334
224	0x3df2a4b2	0.118478194
225	0xbd842f4e	-0.06454335
226	0x3c97f148	0.018547669
227	0xbdf0083e	-0.11720322
228	0x3d88e5d0	0.06684458
229	0x3d901354	0.070349365
230	0xbdff97f6	-0.12480156
231	0x3cb52a10	0.022114784
232	0xbd1bb25c	-0.038011894
233	0xbd95fd14	-0.073236614
234	0xbd1fa19c	-0.038972482
235	0x3c8a0560	0.016848266
236	0xbd8a34aa	-0.06748326
237	0xbdabe4fa	-0.08393283
238	0xbd47d610	-0.04878813
239	0x3dbf9bfe	0.09355925
240	0xbd7fc4f8	-0.062443703
241	0xbd0ccde4	-0.03437604
242	0x3d91e74e	0.07124196
243	0x3c1221d0	0.008919194
244	0x3d72a2a8	0.059237152
245	0x3dd3f7aa	0.103499725
246	0x3d9e76ae	0.0773748
247	0xbb076a40	-0.0020662695
248	0xbde2c5a8	-0.11072856
249	0x3bc212e0	0.00592266
250	0xbd0fb304	-0.035082832
251	0xbca939c0	-0.02065742
252	0x3ceacc78	0.028661951
253	0xbd6fffa4	-0.058593407
254	0xbda1047e	-0.07862185
255	0x3da2370e	0.07920657

layers.0.mlp_edge_conv.gconv.convs.<stroke___temp_previous___stroke>.nn.0.bias f4 [32]
0	0xbdbd8486	-0.092537925
1	0xbda50eb0	-0.08059442
2	0xbdbf2980	-0.09334087
3	0xbd38eb34	-0.045146182
4	0x3ca1efc8	0.019767657
5	0x3d3b4694	0.045721605
6	0x3d2f4a68	0.04279557
7	0xbddba978	-0.10725683
8	0xbd1c9574	-0.038228467
9	0xbc02d920	-0.007986337
10	0x3d9b16f0	0.07572734
11	0x3dac453e	0.084116444
12	0x3df4dd18	0.11956233
13	0x3da38dae	0.07986008
14	0xbdee0a60	-0.116230726
15	0xbc43f210	-0.011959568
16	0x3b99ef20	0.0046976954
17	0x3d7273d8	0.05919251
18	0xbb9fd500	-0.0048776865
19	0x3dfbe74a	0.12299974
20	0x3d96d92e	0.073656425
21	0xbd9574ea	-0.0729769
22	0x3daf6b1e	0.08565353
23	0x3ca1c388	0.019746557
24	0xbdc954d2	-0.09830631
25	0xbdc66116	-0.096864864
26	0x3d5d43b8	0.05401966
27	0x3da33b32	0.07970275
28	0x3d99b254	0.075047165
29	0x3d80912c	0.06277689
30	0x3d9c9896	0.07646291
31	0xbda65576	-0.08121769

layers.0.mlp_edge_conv.gconv.convs.<stroke___intersects___stroke>.nn.0.weight f4 [32, 64]
0	0x3dc8b1b8	0.09799522
1	0x3da203f3	0.079109095
2	0xbdfa1d21	-0.12212587
3	0x3b99fad5	0.004699091
4	0x3dcd9517	0.10038202
5	0xbc955f2c	-0.018233858
6	0x3d82ef6d	0.06393323
7	0xbdd25e9f	-0.10271954
8	0xbde5d7bb	-0.11222788
9	0xbdaa9e1a	-0.08330937
10	0x3ce727ae	0.028217163
11	0xbdf8c2e2	-0.12146546
12	0x3cd6e776	0.026233416
13	0x3d6680fb	0.05627535
14	0x3ba9f153	0.005186239
15	0x3d632c2e	0.055462055
16	0xbd6437c8	-0.05571726
17	0xbcdd1e21	-0.026991906
18	0xbddf2918	-0.1089651
19	0x3db460f8	0.08807558
20	0x3ac3d09a	0.0014939487
21	0xbdacc27b	-0.08435532
22	0xbd7d01fb	-0.061769467
23	0x3dce4bcd	0.100730516
24	0xbdc1353e	-0.09433983
25	0x3d3258ab	0.04354159
26	0xbda9a80e	-0.08284007
27	0xbd040002	-0.03222657
28	0xbd970a31	-0.07374991
29	0xbdf1f22e	-0.1181377
30	0x3c0421f1	0.008064733
31	0x3d98589d	0.07438777
32	0xbd22db96	-0.039760195
33	0x3d4a443a	0.049381472
34	0x3c8beac4	0.017079718
35	0xbdd5f8c6	-0.104478404
36	0x3cb15a20	0.02164942
37	0x3d63acea	0.055584826
38	0xbb231c20	-0.002488859
39	0x3ddbcb6a	0.107321575
40	0x3dfbbd6d	0.122919895
41	0x3c8500f8	0.016235813
42	0x3e01729f	0.1264138
43	0x3df5c3cc	0.12000236
44	0x3ca0bc85	0.019621143
45	0xbe007ea3	-0.12548308
46	0xbd8e11b1	-0.06936968
47	0x3b24133c	0.0025035879
48	0xbd7545c1	-0.059880976
49	0x3d9fbfe3	0.07800271
50	0x3caa1512	0.020762
51	0xbd826b7a	-0.06368156
52	0x3d1b07ef	0.037849363
53	0xbd086e5d	-0.033308376
54	0xbe00a903	-0.12564473
55	0xbd926dc7	-0.071498446
56	0x3c41c8bc	0.011827644
57	0xbdda7995	-0.10667721
58	0xbd13957d	-0.036031235
59	0x3d971eeb	0.07378944
60	0x3d313263	0.043260943
61	0x3ced651e	0.02897888
62	0xbdac1f38	-0.08404392
63	0xbdd2c000	-0.10290527
64	0xbdc4e0b1	-0.09613169
65	0x3dd59420	0.10428643
66	0x3c6216ff	0.013799428
67	0xbe054415	-0.13014252
68	0xbbc2b3d6	-0.0059418483
69	0x3cd407ea	0.02588268
70	0xbbde7bb5	-0.0067896494
71	0xbdfca102	-0.12335397
72	0x3d91cf1a	0.071195796
73	0xbdd6d30a	-0.10489471
74	0xbd4ba583	-0.04971839
75	0xbc8aade1	-0.016928615
76	0xbc833d67	-0.01602049
77	0xbc78c867	-0.015184498
78	0x3defefbf	0.1171565
79	0xbc57cdce	-0.013171626
80	0xbd94c663	-0.07264402
81	0x3dc812e3	0.09769227
82	0x3de72923	0.11287143
83	0x3dab66b2	0.08369197
84	0xbd78ba7d	-0.060724724
85	0x3dc3ff87	0.09570222
86	0x3d408b9f	0.047008153
87	0xbda47113	-0.0802938
88	0xbd86c725	-0.065809526
89	0x3b33560b	0.0027364518
90	0x3d814930	0.063127875
91	0xbd859500	-0.0652256
92	0x3c8d8c3b	0.017278781
93	0xbce042ff	-0.027375696
94	0x3dc7b005	0.0975037
95	0x3da70677	0.0815553
96	0x3cc3ec08	0.02391626
97	0xbd8a64bf	-0.06757497
98	0xbc4f0e4c	-0.012637686
99	0xbce584b4	-0.02801738
100	0x3de6cc9c	0.11269495
101	0x3df9bfc1	0.12194777
102	0x3cb3fdba	0.021971572
103	0x3d23651f	0.03989136
104	0xbd28afed	-0.0411834
105	0x3dcbd87e	0.09953402
106	0xbc058c13	-0.008151072
107	0xbdb694f2	-0.08915128
108	0x3d973daa	0.07384808
109	0xbd38acb8	-0.045086592
110	0xbddb83a1	-0.107184656
111	0x3dfe58fa	0.12419315
112	0x3d04e387	0.03244355
113	0x3da35ee7	0.079770856
114	0x3c8014f5	0.015634993
115	0xbd6dc037	-0.05804464
116	0xbc08ba37	-0.008345178
117	0x3debe2b2	0.11517848
118	0x3d647890	0.05577904
119	0x3d9edc0b	0.077568136
120	0x3d9959f7	0.074878626
121	0x3d868db8	0.065699995
122	0xbdc9296c	-0.09822354
123	0x3d1dbdca	0.038511075
124	0x3d718598	0.058965296
125	0x3de052fa	0.109533265
126	0x3db86585	0.09003738
127	0x3ded192c	0.11577067
128	0xbd76ab0a	-0.06022171
129	0x3c3ff524	0.011716161
130	0x3dbbf370	0.091772914
131	0x3df0bed3	0.11755147
132	0x3d7f9d0d	0.062405635
133	0xba945ce9	-0.0011319193
134	0xbc8a4c76	-0.016882163
135	0x3d9ca224	0.07648113
136	0x3db7cc27	0.08974486
137	0xbdd78e69	-0.105252095
138	0x3d816372	0.06317796
139	0x3dbb16f3	0.091352366
140	0xbdd05c2c	-0.101738304
141	0x3e04cb81	0.12968256
142	0xbd3da09b	-0.046295743
143	0xbd038cb4	-0.032116607
144	0x3daa4bd3	0.083152436
145	0xbded5e55	-0.11590258
146	0xbcccd743	-0.025004989
147	0xbd87a075	-0.066224016
148	0xbdea438a	-0.11438663
149	0x3d6bae53	0.057539295
150	0xbae70fb5	-0.0017628582
151	0xbdcc6ad2	-0.09981312
152	0x3b4b833f	0.003105357
153	0xbd5a119d	-0.053239454
154	0xbd37aa88	-0.044840366
155	0x3d292fed	0.04130547
156	0xbd7bc815	-0.06147011
157	0x3c257a7d	0.010100004
158	0x3d8d28f5	0.068925776
159	0x3cfe5dd9	0.03105061
160	0x3cff82de	0.031190332
161	0x3dc5c9ed	0.09657655
162	0x3dd7f374	0.10544482
163	0x3e02863e	0.12746522
164	0x3dbb4d50	0.091456056
165	0x3d9c1fb8	0.07623237
166	0xbcf79746	-0.0302235
167	0x3de6c7db	0.11268588
168	0xbca190a7	-0.019722296
169	0x3de147a7	0.10999995
170	0x3d926a75	0.07149211
171	0x3d80f4f7	0.06296723
172	0x3c44d2e4	0.012013171
173	0x3d06e346	0.03293159
174	0xbddb1557	-0.106974296
175	0x3d53b5ac	0.051686928
176	0xbdb72570	-0.089426875
177	0x3c66fdf8	0.014098637
178	0xbd6d06e1	-0.05786789
179	0x3d2e8948	0.04261139
180	0xbd5bfd48	-0.053708345
181	0xbb99b214	-0.004690418
182	0xbda35aeb	-0.079763256
183	0xbd244649	-0.04010609
184	0xbdadeb93	-0.08492198
185	0x3dbec602	0.09315111
186	0x3da0f315	0.07858864
187	0x3d9b57c2	0.07585098
188	0x3de01a8e	0.10942565
189	0xbda9d0c0	-0.08291769
190	0xbd441bad	-0.047877956
191	0x3cac13bd	0.021005506
192	0xbdf54e98	-0.11977881
193	0xbcaf020e	-0.021363284
194	0xbdc4b184	-0.09604171
195	0xbcf8a5ef	-0.03035256
196	0x3dad2b4e	0.08455525
197	0x3dcf115f	0.10110735
198	0x3cc31b70	0.023816794
199	0x3d0d08cf	0.03443223
200	0xbdde8da8	-0.108668625
201	0xbdd9a994	-0.106280476
202	0xbd10db55	-0.03536542
203	0x3dd6bfc9	0.10485799
204	0x3ddb2e8b	0.10702237
205	0xbd9ac8e7	-0.0755785
206	0xbd3a5822	-0.045494206
207	0xbb58757f	-0.0033029018
208	0xbcbc2e95	-0.02297143
209	0xbbfeee7e	-0.0077798953
210	0xbc162ef1	-0.009166465
211	0x3e065db2	0.1312168
212	0xbdbb69b8	-0.091510236
213	0x3d923f0a	0.0714093
214	0xbd619706	-0.055075668
215	0x3df4a8aa	0.119462326
216	0xbd1ca2c2	-0.038241155
217	0x3d3687c9	0.04456309
218	0x3d966f3b	0.07345434
219	0x3d9308cc	0.07179412
220	0x3dfb4783	0.12269499
221	0xbd6ef7a5	-0.05834164
222	0xbdb2ffb7	-0.0874018
223	0x3e04673e	0.12930009
224	0xbdcec6fa	-0.100965455
225	0xbd157ac6	-0.03649404
226	0x3d8abb8a	0.067740515
227	0xbd0704ee	-0.032963686
228	0x3db2dba6	0.08733301
229	0xbc84036b	-0.016114911
230	0x3d830252	0.06396927
231	0x3dc5bd5b	0.09655257
232	0x3dd07297	0.10178106
233	0xbcd7ebaf	-0.0263575
234	0x3ddcff31	0.107908614
235	0x3dbb81f6	0.091556475
236	0xbc2602d5	-0.010132511
237	0x3dff9136	0.12478869
238	0xbbf48376	-0.0074619604
239	0xbdaa4d1f	-0.08315491
240	0x3d9661f0	0.07342899
241	0x3d8cdc19	0.06877918
242	0x3d49feb6	0.049315177
243	0xbce59d7f	-0.028029202
244	0x3d9997b1	0.07499636
245	0xbde08980	-0.10963726
246	0xbe117f64	-0.14208752
247	0xbd167cb8	-0.036740035
248	0x3d8c5074	0.06851283
249	0x3cbb40c3	0.02285803
250	0xbdca2a99	-0.09871406
251	0x3df0a641	0.117504604
252	0xbd9574be	-0.072976574
253	0x3d93b9cb	0.072131716
254	0xbd1eaaf0	-0.038737237
255	0xbce6201e	-0.028091487

layers.0.mlp_edge_conv.gconv.convs.<stroke___intersects___stroke>.nn.0.bias f4 [32]
0	0xbdb9f8fd	-0.09080694
1	0xbd0f4092	-0.03497369
2	0xbd3fc265	-0.04681625
3	0xbdc5efce	-0.0966488
4	0x3bd833bb	0.0065979636
5	0x3c92898b	0.017887851
6	0xbbe59502	-0.0070062885
7	0xbc7fac7b	-0.015605087
8	0x3db59ce8	0.08867818
9	0xbc474464	-0.012162302
10	0x3d877b50	0.06615317
11	0x3daf716e	0.08566557
12	0x3d9c487e	0.07631014
13	0x3c1d34fe	0.009595154
14	0x3d555a85	0.05208828
15	0x3d75582e	0.059898548
16	0x3d4c21c9	0.049836908
17	0x3b281ced	0.0025652007
18	0x3dd1a940	0.1023736
19	0x3df56ef3	0.119840525
20	0x3dcbb0d6	0.09945838
21	0xbc1ed5a2	-0.009694489
22	0xbddc182f	-0.107468
23	0xbdc5180f	-0.096237294
24	0x3d4d2cb3	0.050091457
25	0xbdb64181	-0.08899213
26	0xbdc4fe3e	-0.09618805
27	0xbd9a5a8d	-0.075368024
28	0xbda75259	-0.081700034
29	0xbdb34613	-0.087536
30	0x3de3c4d1	0.11121524
31	0xbda99b6b	-0.08281597

layers.1.mlp_edge_conv.gconv.convs.<stroke___temp_previous___stroke>.nn.0.weight f4 [32, 64]
0	0x3c193140	0.009350121
1	0x3d198224	0.037477627
2	0x3dbdf13a	0.09274526
3	0x3ba18c20	0.0049300343
4	0xbc5d8d80	-0.013522506
5	0x3d021f5c	0.031768188
6	0xbd8335b6	-0.06406729
7	0x3dbe6026	0.092956826
8	0xbd39a430	-0.045322597
9	0x3cce4198	0.025177762
10	0x3dc45962	0.09587361
11	0x3d3c3fa0	0.045959115
12	0x3d7a0088	0.061035663
13	0xba249900	-0.00062789023
14	0xbcaa0c38	-0.02075778
15	0xbc923f78	-0.01785253
16	0x3d188878	0.03723952
17	0x3d6feecc	0.058577344
18	0x3c5875b0	0.013211653
19	0x3a487000	0.0007646084
20	0xbdaa2bbc	-0.08309123
21	0x3d8fb64c	0.07017192
22	0x3dbf793e	0.09349297
23	0x3cc11100	0.023567677
24	0x3de1babe	0.11021946
25	0x3cb24f10	0.021766216
26	0xbbf38d80	-0.0074326396
27	0x3d98f492	0.07468523
28	0xbd63eac4	-0.05564381
29	0x3d9b3fa2	0.07580496
30	0xbd0ea1e8	-0.034822375
31	0x3dcab8ee	0.09898554
32	0xbd3d1f24	-0.046172276
33	0xbda6a51e	-0.08136962
34	0xbc6cc770	-0.0144518465
35	0x3d1b0c80	0.037853718
36	0xbd36a8a0	-0.044594407
37	0x3dd70f38	0.105009496
38	0x3af52f00	0.0018706024
39	0xbdedebc8	-0.11617237
40	0x3d056434	0.032566264
41	0xbd61c998	-0.055123895
42	0xbdf4cdd8	-0.11953324
43	0x3ddab5fc	0.10679242
44	0x3d007e8c	0.031370685
45	0xbc068620	-0.008210689
46	0xbd443678	-0.047903508
47	0x3d900662	0.070324674
48	0x3d820108	0.06347853
49	0x3db6d1a8	0.089267075
50	0x3d8a339c	0.06748125
51	0xbde012e8	-0.10941106
52	0xbd98c758	-0.07459897
53	0x3dafc99c	0.08583376
54	0xbde1ecac	-0.1103147
55	0xbda6fa8a	-0.08153255
56	0xbd8e9d28	-0.06963569
57	0xbcdd0c98	-0.026983544
58	0x3dcffd86	0.10155778
59	0xbdc2eef6	-0.095182344
60	0xbd202c1c	-0.039104566
61	0xbcdc08c8	-0.026859656
62	0x3d67a804	0.056556717
63	0xbc93a5a0	-0.018023312
64	0x3c148380	0.009064555
65	0x3a9a1880	0.0011756569
66	0xbdaed0f4	-0.085359484
67	0x3c28fc10	0.010314003
68	0xbdc7dc96	-0.0975887
69	0xbdcd1664	-0.10014036
70	0x3db26ec2	0.087125316
71	0x3d17a6f8	0.03702447
72	0xbc552cb0	-0.013011143
73	0xbcc35048	-0.023841992
74	0xbde77548	-0.113016665
75	0xbdf9bc20	-0.12194085
76	0xbc2e5710	-0.0106408745
77	0xbd33a068	-0.043854147
78	0xbd8cd378	-0.06876272
79	0x3d32c848	0.043648034
80	0x3dfe9c0e	0.12432109
81	0xbc3dad80	-0.01157701
82	0x3dc390d8	0.09549111
83	0xbde4f9de	-0.11180471
84	0x3dab5012	0.083648816
85	0x3da4c498	0.0804531
86	0x3ca6a968	0.020344451
87	0xbc8ff528	-0.017572954
88	0xbd476310	-0.048678458
89	0xbc110150	-0.008850411
90	0xbbfea0c0	-0.0077706277
91	0x3dd5b332	0.104345694
92	0x3b8f2f20	0.0043696314
93	0xbd95f0ee	-0.07321344
94	0x3dec80f4	0.11548033
95	0xbc7b92b0	-0.015354797
96	0xbdebe85c	-0.115189284
97	0xbd97ca82	-0.07411672
98	0x3cfa5fb0	0.030563205
99	0xbd9b840e	-0.07593547
100	0x3deccaae	0.115620956
101	0xbb3be880	-0.0028672516
102	0xbb63e380	-0.0034773052
103	0x3d82b56e	0.06382261
104	0xbdfac6ce	-0.1224495
105	0xbdab39a6	-0.08360605
106	0xbd29e9ec	-0.04148285
107	0x3df8b160	0.121432066
108	0xbd51a098	-0.051178545
109	0xbd1cb9b0	-0.038263023
110	0x3d987d66	0.07445793
111	0x3dd6952e	0.104776725
112	0x3df147ce	0.11781274
113	0x3db8fbce	0.09032403
114	0xbcb579b0	-0.022152752
115	0xbdbc3670	-0.09190071
116	0xbc66eb60	-0.014094204
117	0x3d4f3bfc	0.050594315
118	0x3d574b6c	0.052562162
119	0xbcef7dd8	-0.029234812
120	0x3df865ca	0.1212879
121	0x3d8f0700	0.06983757
122	0xbda114f8	-0.078653276
123	0x3d4b6108	0.049653083
124	0xbd6a7f4c	-0.057250306
125	0x3c201580	0.009770751
126	0xbc3a8a40	-0.0113855
127	0xbdb50372	-0.08838548
128	0x3dd92dfe	0.106044754
129	0x3c19a860	0.009378523
130	0xbdb145dc	-0.08655903
131	0xbdbd7d40	-0.09252405
132	0x3dba774a	0.09104784
133	0x3d80f36a	0.062964275
134	0x3d5913b0	0.05299729
135	0xbc9d7908	-0.019222751
136	0x3d2e62d8	0.042574733
137	0xbcecff20	-0.028930247
138	0xbd45ec64	-0.048321143
139	0x3c18f7b0	0.009336397
140	0xbd8e7f1c	-0.06957838
141	0xbd13edd4	-0.036115482
142	0x3c2be4f0	0.010491595
143	0x3d402c6c	0.046917364
144	0x3c9e3f30	0.01931724
145	0xbc82c8d8	-0.01596491
146	0xbd0ace48	-0.03388813
147	0xbd7bfd24	-0.06152071
148	0x3db65158	0.08902234
149	0x3de3d28e	0.111241445
150	0x3c608ec0	0.013705909
151	0xbc928fa8	-0.017890766
152	0xbc302040	-0.0107498765
153	0x3cf0f110	0.029411823
154	0xbdb7328a	-0.089451864
155	0xbc846908	-0.016163364
156	0x3df4746e	0.1193627
157	0x3d652530	0.055943668
158	0x3d57c9e0	0.052682757
159	0x3d1aff98	0.03784141
160	0xbd2d95b0	-0.04237908
161	0xbd27f418	-0.04100427
162	0xbdfc900a	-0.12332161
163	0x3dc2b69e	0.09507488
164	0xbddf973c	-0.109175175
165	0xbd493c68	-0.049129874
166	0xbd016e84	-0.031599537
167	0x3c4fb8b0	0.01267831
168	0xbd9d8e00	-0.076931
169	0x3dbb48ca	0.09144743
170	0xbdb2cabe	-0.08730076
171	0xbd586958	-0.05283484
172	0xbd5f08e8	-0.054451853
173	0x3d84fa90	0.064931035
174	0x3d1298c0	0.035790205
175	0xbdb44cc2	-0.08803703
176	0xbdb779be	-0.08958767
177	0x3d4a6938	0.04941675
178	0xbd6c53b0	-0.057696998
179	0xbd2118a4	-0.03933014
180	0x3c806a60	0.015675724
181	0xbdfbcea8	-0.12295276
182	0xbc26e460	-0.010186285
183	0x3dcbeee8	0.09957677
184	0x3caf4c20	0.021398604
185	0xbd906daa	-0.07052167
186	0xbb4fc000	-0.0031700134
187	0x3d67446c	0.056461737
188	0x3d1552e0	0.03645599
189	0xbc54b880	-0.012983441
190	0x3d269be0	0.040675998
191	0x3d4e1304	0.050311103
192	0xbb33fd00	-0.0027464032
193	0x3df72bf0	0.12068927
194	0x3d70c6f4	0.058783486
195	0xbd66c05c	-0.056335792
196	0xbd850584	-0.06495193
197	0x3c16ace0	0.00919649
198	0x3d82e91c	0.06392118
199	0x3d96ef2c	0.07369837
200	0xbbd88f20	-0.0066088587
201	0x3db4dec2	0.0883155
202	0x3de5e820	0.11225915
203	0x3d99ba04	0.07506183
204	0x3d5ce044	0.053924814
205	0x3dda9e4c	0.10674724
206	0xbb2ce980	-0.0026384294
207	0x3dc6f408	0.09714514
208	0xbd76027c	-0.060060963
209	0xbd3e165c	-0.046408042
210	0xbda9160a	-0.08256157
211	0x3dc09164	0.09402731
212	0x3dcd0dae	0.10012375
213	0x3d8a8082	0.06762792
214	0xbdf620b4	-0.120179564
215	0xbd941332	-0.07230224
216	0x3dabe764	0.08393744
217	0xbd9ab190	-0.075533986
218	0x3deea98e	0.11653434
219	0x3bdd8840	0.006760627
220	0xbd7d183c	-0.06179069
221	0x3d83374c	0.064070314
222	0xbdc933c8	-0.098243296
223	0x3b805a60	0.0039170235
224	0x3ddc6f5c	0.107634276
225	0xbdb32054	-0.087464005
226	0xbd8faab2	-0.070149794
227	0xbd717c58	-0.058956474
228	0xbd7227b8	-0.05911991
229	0x3db3b7f8	0.08775324
230	0xbcac36c8	-0.021022215
231	0x3c494770	0.012285098
232	0xbdcf3312	-0.10117163
233	0x3aa4b380	0.0012565702
234	0xbc647660	-0.013944238
235	0x3d854fc8	0.06509358
236	0xbdad3a56	-0.08458392
237	0xbde4232a	-0.111395195
238	0xbd10bd78	-0.03533694
239	0xbd89d220	-0.06729531
240	0xbc032390	-0.008004084
241	0xbdf2d582	-0.1185713
242	0xbd91b376	-0.071143076
243	0x3cd10750	0.025516182
244	0xbd963226	-0.07333784
245	0x3c95bcb8	0.018278465
246	0x3d7f8430	0.062381923
247	0xbcd679e8	-0.026181176
248	0x3dce0cdc	0.100610465
249	0xbdf045c0	-0.11732054
250	0xbcb90de8	-0.022589639
251	0xbc0a6610	-0.008447185
252	0xbdf0caac	-0.117574066
253	0x3da3bad2	0.079946175
254	0xbd00616c	-0.03134291
255	0xbd84efc4	-0.06491044

layers.1.mlp_edge_conv.gconv.convs.<stroke___temp_previous___stroke>.nn.0.bias f4 [32]
0	0x3d70e398	0.0588108
1	0x3c741a10	0.014898792
2	0x3dc2da58	0.09514302
3	0xbdf8bada	-0.12145014
4	0x3dc2769e	0.09495281
5	0x3dd3c4d4	0.10340276
6	0xbd9cc32c	-0.076544136
7	0x3de21ab8	0.110402524
8	0x3cf1fbc0	0.029538989
9	0xbdfd8ae2	-0.123800054
10	0xbce57bd8	-0.028013155
11	0x3c9d8ed0	0.019233137
12	0x3d3dcda4	0.046338692
13	0x3cd1a0d8	0.025589392
14	0xbd81ac6a	-0.063317135
15	0xbd83e53e	-0.06440209
16	0x3dc1eae8	0.09468633
17	0x3da7e836	0.081985876
18	0x3c4f2210	0.0126423985
19	0x3d8e5300	0.06949425
20	0x3dbe3690	0.09287751
21	0x3d35ee14	0.044416502
22	0xbdfe19c2	-0.12407257
23	0x3d71c7a0	0.059028268
24	0xbd335480	-0.043781757
25	0xbdc922b4	-0.09821072
26	0x3d2534a4	0.040333405
27	0xbd1fbb58	-0.038997024
28	0xbb33d8c0	-0.0027442425
29	0xbd92bf26	-0.07165365
30	0xbde07a18	-0.109607875
31	0xbc61f3d0	-0.01379104

layers.1.mlp_edge_conv.gconv.convs.<stroke___intersects___stroke>.nn.0.weight f4 [32, 64]
0	0x3d2b94bb	0.041889887
1	0xbd9767e5	-0.07392863
2	0xbd7c7940	-0.06163907
3	0xbc141658	-0.00903853
4	0x3d7819eb	0.060571592
5	0x3d18cdf1	0.037305776
6	0x3d426323	0.047457825
7	0x3dc908e8	0.09816152
8	0xbd4ae795	-0.04953726
9	0xbdc63c62	-0.09679486
10	0x3de8b8c5	0.11363367
11	0xbc49428b	-0.0122839315
12	0xbda373de	-0.07981084
13	0xbcec4768	-0.028842643
14	0xbdebf734	-0.1152176
15	0x3ca55d05	0.020185957
16	0xbc2d4dab	-0.0105775995
17	0x3db0717c	0.086153954
18	0x3df03ef2	0.11730756
19	0x3dae3304	0.08505824
20	0x3d1a0ec2	0.03761173
21	0xbdb51d77	-0.088435106
22	0xbdfc7227	-0.1232646
23	0xbd8fa003	-0.07012942
24	0xbde637a0	-0.112410784
25	0x3ca31997	0.019909663
26	0xbdd35819	-0.10319538
27	0xbdd3eb71	-0.10347641
28	0x3dc50eb5	0.09621946
29	0xbd8fb11a	-0.07016201
30	0x3d53c05b	0.051697116
31	0xbb881796	-0.0041532023
32	0x3d3d4fc8	0.046218663
33	0x3ce2607c	0.027633898
34	0xbd8263c8	-0.06366688
35	0x3b861429	0.0040917587
36	0x3dc9cc1b	0.09853383
37	0x3d87a0a8	0.066224396
38	0x3d5087be	0.050910704
39	0x3cb4b617	0.022059483
40	0x3d56a6ec	0.052405283
41	0xbcf86c32	-0.030325029
42	0x3daf867a	0.08570571
43	0x3d611472	0.05495114
44	0x3da7827a	0.08179183
45	0xbde2596d	-0.11052213
46	0xbd4cf9d9	-0.05004296
47	0x3c0f88fb	0.008760686
48	0x3d170eb4	0.036879256
49	0xbdc2b384	-0.09506896
50	0x3d2f7a38	0.042841166
51	0x3dd8b1d7	0.10580795
52	0xbce1afa7	-0.027549578
53	0x3d82d329	0.06387932
54	0xbc0347f7	-0.008012763
55	0xbdcc67f4	-0.09980765
56	0xbd98d25e	-0.07461999
57	0x3c79710c	0.015224706
58	0x3df27b8c	0.11839971
59	0x3cd46c89	0.02593066
60	0xbddfb063	-0.10922315
61	0xbd79607f	-0.06088304
62	0x3bbe2a8c	0.005803412
63	0xbda1de03	-0.079036735
64	0x3d4e1f1e	0.050322644
65	0x3ded29c2	0.1158023
66	0x3d8ccf50	0.06875479
67	0x3d86a2a1	0.06573988
68	0xbd88ae7b	-0.066739045
69	0xbcc79728	-0.02436407
70	0x3dd9ccf5	0.106347956
71	0x3d8b09f0	0.06789005
72	0x3cfe25d6	0.031023901
73	0x3d7220b9	0.059113238
74	0x3ba9e333	0.005184555
75	0x3d445e73	0.047941636
76	0x3b9e3670	0.004828267
77	0xbd698ae1	-0.05701721
78	0xbd99065c	-0.07471916
79	0x3d78795b	0.06066261
80	0x3b8a281b	0.0042162067
81	0xbda36cb5	-0.079797186
82	0xbcc88ce0	-0.024481237
83	0x3dc1a6a7	0.094556145
84	0xbce54eb9	-0.02799164
85	0x3ba59bc1	0.0050539677
86	0x3a55798a	0.0008143416
87	0xbe031f69	-0.12804951
88	0xbcc5b9d6	-0.024136465
89	0x3deca090	0.11554062
90	0x3dd635a0	0.10459447
91	0xbd93d878	-0.072190225
92	0x3ca3ec1d	0.020010049
93	0xbdd966f0	-0.10615337
94	0x3cafd4bb	0.021463742
95	0xbdb8ea61	-0.09029079
96	0xbd65af24	-0.05607523
97	0x3d05170f	0.032492694
98	0xbd1b1109	-0.037858043
99	0xba830cf7	-0.0009998371
100	0x3d412ef3	0.047163915
101	0x3c05860e	0.008149637
102	0x3e04dd3c	0.12975019
103	0x3d79969a	0.06093464
104	0x3caf7320	0.0214172
105	0xbd382ecb	-0.0449665
106	0xbdb18788	-0.08668429
107	0xbd763a95	-0.060114462
108	0xbda624fb	-0.08112522
109	0x3dddd06c	0.10830769
110	0xbddc81cf	-0.107669465
111	0xbd57bc4a	-0.0526698
112	0xbdf11f99	-0.11773605
113	0xbd89463b	-0.067028485
114	0x3d8ea7b0	0.069655776
115	0x3df6ffb8	0.12060493
116	0xbdc3f4c9	-0.095681734
117	0xbc808521	-0.01568848
118	0x3db180e1	0.0866716
119	0xbdbda076	-0.09259121
120	0x3d92b8e0	0.07164168
121	0x3d219f8e	0.039458804
122	0xbda146df	-0.07874846
123	0x3de6afff	0.11264037
124	0x3ddac262	0.10681607
125	0xbc8555c4	-0.016276248
126	0xbd82cc6c	-0.06386647
127	0x3d8ceb94	0.068808705
128	0x3d3e99d9	0.04653344
129	0x3dc5052d	0.09620128
130	0x3be56b65	0.007001328
131	0xbd58451d	-0.052800287
132	0x3daf0f1a	0.08547802
133	0xbdea4b0b	-0.114400946
134	0x3d73f26c	0.059557363
135	0xbc6af723	-0.014341149
136	0xbcaac42f	-0.0208455
137	0xbdc3f808	-0.095687926
138	0xbc060796	-0.00818052
139	0x3df2d35c	0.1185672
140	0x3c9b4604	0.018954284
141	0x3d8afaff	0.06786155
142	0x3d60b02d	0.054855514
143	0xbd858556	-0.065195724
144	0x3c1835a6	0.0092901345
145	0xbcb15aa8	-0.021649674
146	0x3d9e7cae	0.077386245
147	0xbc9627f1	-0.018329592
148	0xbd9860d5	-0.07440344
149	0x3d01e9eb	0.031717222
150	0xbdb14efa	-0.08657642
151	0xbda5feb8	-0.08105224
152	0x3cc51ac5	0.024060616
153	0x3d77e1fb	0.060518246
154	0x3dc7c0d3	0.09753575
155	0x3deb9685	0.11503319
156	0xbd3c35d4	-0.045949772
157	0xbd9b165e	-0.075726256
158	0xbc1c2e77	-0.009532562
159	0xbc5d3d1b	-0.013503338
160	0xbd747a0d	-0.05968671
161	0xbd0fd501	-0.035115246
162	0x3e0577a7	0.13033925
163	0xbb70895b	-0.0036702964
164	0xbc79d334	-0.015248109
165	0x3dd6424d	0.104618646
166	0x3df99bfc	0.12187955
167	0x3c50d223	0.012745413
168	0x3c4a0f50	0.012332752
169	0xbd12ebb0	-0.0358693
170	0xbdaf9c4d	-0.08574734
171	0x3c65bc69	0.014021971
172	0x3da18b30	0.07887876
173	0x3ad582cc	0.0016289591
174	0x3deb00b8	0.114747465
175	0x3da77c0f	0.08177959
176	0x3db63ff0	0.08898914
177	0xbcb86196	-0.02250747
178	0xbdb9bdc5	-0.09069399
179	0xbd72be58	-0.059263557
180	0x3db87a5e	0.09007715
181	0xbdeafa65	-0.1147354
182	0xbdced64f	-0.1009947
183	0xbdc2c10e	-0.095094785
184	0xbda8866e	-0.082287654
185	0xbdfb5fd5	-0.12274138
186	0x3d998b7b	0.07497307
187	0x3c112930	0.0088599175
188	0x3de5337f	0.11191463
189	0x3deda36a	0.116034344
190	0xbca1a748	-0.019733086
191	0xbc16a6f2	-0.009195076
192	0xbd8bb62a	-0.068218544
193	0x3df03e57	0.117306404
194	0x3da30cd2	0.0796143
195	0x3cec9ac2	0.028882388
196	0xb99eb98a	-0.00030274346
197	0x3c6daa1e	0.014505891
198	0x3dcb280d	0.099197485
199	0x3db3e703	0.08784296
200	0x3dab4859	0.083634086
201	0xbca1f6cf	-0.019771008
202	0x3e08f974	0.13376409
203	0x3ce5384d	0.027980948
204	0x3d242713	0.040076327
205	0xbc4686b2	-0.012117075
206	0xbaff3d8c	-0.0019473298
207	0xbd45df66	-0.048308752
208	0x3e0600df	0.1308627
209	0xbdb783cd	-0.08960686
210	0xbb2ca234	-0.0026341798
211	0xbccc7206	-0.024956714
212	0xbd271a8e	-0.04079681
213	0x3db284eb	0.08716758
214	0x3c9bfbf7	0.019041045
215	0x3db6e02d	0.08929477
216	0x3da6fedf	0.081540816
217	0x3d2117a3	0.039329182
218	0x3dec746e	0.11545645
219	0x3dd2b05a	0.10287543
220	0xbddc7cb0	-0.1076597
221	0xbdeb5b69	-0.114920445
222	0xbd93d2e1	-0.07217956
223	0x3deaf4e4	0.114724904
224	0x3de92734	0.113844305
225	0x3cd0ce7d	0.025489086
226	0xbd9e4636	-0.077282354
227	0x3d295a3e	0.041345827
228	0x3db6e9e0	0.08931327
229	0xbc542dea	-0.0129504
230	0xbdca2e15	-0.09872071
231	0x3d55be43	0.0521834
232	0x3d43367b	0.04765938
233	0xbdb1d1b6	-0.08682577
234	0xbdbfc58c	-0.09363851
235	0xbc4ecb58	-0.012621723
236	0x3d04aef1	0.0323934
237	0xbda06abd	-0.07832859
238	0x3c718811	0.014741913
239	0xbd61b7a2	-0.055106767
240	0xbcfe9371	-0.031076165
241	0xbd9180e7	-0.07104664
242	0xbddbb130	-0.10727155
243	0x3cc346f5	0.023837546
244	0x3b204aba	0.0024458603
245	0x3d73158e	0.059346728
246	0x3c45d6f0	0.012075171
247	0xbdca867d	-0.09888933
248	0xbba128cd	-0.004918194
249	0xbd55d449	-0.052204404
250	0xbdb65e74	-0.08904734
251	0x3d1025ed	0.03519242
252	0x3a95aeae	0.0011419856
253	0x3de1eb4e	0.11031209
254	0x3d4e89e7	0.050424483
255	0xbdae8025	-0.085205354

layers.1.mlp_edge_conv.gconv.convs.<stroke___intersects___stroke>.nn.0.bias f4 [32]
0	0x3cfcd114	0.030861415
1	0x3d9e6044	0.07733205
2	0x3d180fde	0.037124507
3	0xbd316ad2	-0.043314762
4	0x3dd61df3	0.10454931
5	0x3dd574cd	0.104226686
6	0x3c08f15a	0.008358324
7	0x3d2fef17	0.042952623
8	0x3d1acd8d	0.037793685
9	0x3da6adab	0.08138593
10	0xbdb6c1c4	-0.089236766
11	0xbcf08760	-0.029361427
12	0xbd5973e9	-0.053089056
13	0xbcb1ab84	-0.02168823
14	0x3cf62f1d	0.030051762
15	0x3de7839c	0.11304399
16	0xbc2643fa	-0.010148043
17	0x3d3289d6	0.04358848
18	0x3d8296f2	0.06376447
19	0x3c167941	0.009184183
20	0x3dbe4408	0.0929032
21	0xbc026b95	-0.00796022
22	0xbc954264	-0.018220134
23	0x3db8b1fe	0.09018324
24	0xbde80924	-0.113298684
25	0x3d80605d	0.0626838
26	0x3bdc3e99	0.0067213294
27	0x3d00b665	0.031423945
28	0x3b5f5cae	0.003408234
29	0x3d7a7520	0.061146855
30	0xbc14e2e6	-0.0090873
31	0x3d6c5d28	0.05770603
