checkpoints/sketch_prediction_2/plane_embed_model.pth (torch, 14136 bytes, 8 tensors)

self_attention.in_proj_weight f4 [48, 16]
00000000: 3aed fdbd 3364 903e 69a0 bcbd d002 88be
00000010: 8cc2 0d3e a5e9 0fbe 307e fc3d 98c5 bebe
00000020: 8def 9ebe 8cd6 5e3d ff22 68be 731a fabd
00000030: 3e93 ac3c 8395 91bc 9250 903e 44fb 823e
00000040: 06a3 973e e9b6 783e 871f 893e 6220 38be
00000050: d9fa 0fbd c75a 7dbe 930b 233e 3aa3 a03e
00000060: ae2d fabc 8264 813e 525a fabd 030b bf3e
00000070: 4de8 a83d da79 06be 9615 963e 55da 2dbe
00000080: 4199 2dbe 3e11 873d 001b 0b3e 24c7 85be
00000090: f8e1 843d 7a52 adbe b99f 9fbe c15b a03d
000000a0: 2984 e9bd 9bfe c6bd dafc 94bd bf6f 853e
000000b0: 77e3 b6bd 02dc 85be 23a9 6ebc 899f 8dbe
000000c0: b892 11be a621 533e 8d64 6f3d 82f5 75be
000000d0: 3ba5 873e 30c8 69be f78d 42be 5557 c1be
000000e0: 1035 f43d 6261 8abd ebd0 20be 64c0 983e
000000f0: 2295 c83d 6862 4dbe c273 a93e 8edd 68be
00000100: adf9 323e 070a 193e 3639 84be 803c e53d
00000110: 4f91 5d3e 7e2d febb 27c0 a03e e46f a83e
00000120: fa95 373d 16f0 123e 42fd a73e 85bf a7be
00000130: 393c bd3d f0ee 0a3e 14fc 04be 16a7 3f3e
00000140: f034 463e 3158 aa3e c892 d43d 75be d8be
00000150: 5a3a c7bd b411 9cbe c162 12be d3cf 3dbe
00000160: 5a51 473e 0161 1b3e 696f 833e 65f9 b23e
00000170: 8584 483e 909c 763e 6446 7e3e 20b7 b73e
00000180: 07f4 febd 7136 64be 7525 783d 5253 f6bc
00000190: a9f2 b03e e861 2b3e 1bfe a8bd fe5f 7d3e
000001a0: 30a5 b3bc 943b cd3d f754 f63d 789c 933e
000001b0: 05b2 5d3e efc9 4fbe 4e33 c03e 2ff8 5cbe
000001c0: 9d5d 12bd 1457 89be b1c0 9e3e 9ecc 05be
000001d0: 794d 943d d7e1 2e3e 87d8 5e3d fb98 4fbd
000001e0: 0b35 6e3e 5b06 63bd 24f9 aebe 7137 ccbd
000001f0: 96e4 503d ddce 30bc 2242 c2bd 9acc adbe
00000200: 991d 43be 6a3b 7dbd fad3 3bbe cb62 b33e
00000210: 9e93 27be cc3b 82be 69b5 623e db4a a93e
00000220: ae70 b93e 85e5 b5bd 819b eabd 258c 55be
00000230: efdd 33be 9478 63bd fbb3 93be 9069 b3bd
00000240: cab2 183e d5d9 283e af72 94be a0b5 5fbe
00000250: 9140 313e 668c 923e 2f4f 72bd 90fa 8bbe
00000260: cab1 2cbe 0956 4d3e 1b59 9d3e 9c3f 02be
00000270: 63f8 a03e 9fb7 923e b074 4f3e d502 7e3e
00000280: 3ee8 ac3e 2bf9 1fbc f73c 863d 1c0f 33be
00000290: 2f32 e33d 93fd 243d 1ec5 8cbe 48c1 d5be
000002a0: 9eb1 68be aad0 143d e279 963e 542d a03e
000002b0: 393f 4b3e a28b 65bc 42a2 74be eac1 183e
000002c0: e8aa 14be 4897 4b3e 1649 d03e f025 85be
000002d0: e9d6 883d c09e 3bb9 df91 09be 1db1 01bd
000002e0: 43d5 5abd 975c 9ebd 032b 71be 0c85 15be
000002f0: 9a03 a8be 36b5 9dbd a6eb 243e 0ef0 75bb
00000300: ca33 27be c501 223d 321f 783e a987 323e
00000310: 8c5f cbbd b415 283e 5b97 44be 26c6 8b3e
00000320: 7376 5c3e 2b69 a93e 6278 333e f807 883e
00000330: 38a6 bcbe 7084 b03c d995 3d3e 1678 2cbe
00000340: b06d a0be c0f4 65be 8edf 73be e43f 653d
00000350: 4da3 38be bf36 2abe 44b1 103e 16f7 3bbd
00000360: 0de3 72bd 6063 883e 6385 823e e96a 78be
00000370: 2394 813e 1e3a 643e f358 acbc cc61 263e
00000380: 8fa5 c7be 2b9f bc3d c414 b0bd 9654 073e
00000390: c89a 433e 9471 3ebe 8843 af3d 3714 9bbe
000003a0: 1462 173e d8ee 583e 4d72 e4bc 08e0 4c3e
000003b0: b48d 7ebe b7ab 5bbd fe52 2c3e 7e17 b63d
000003c0: f9ad 27bd fe7e debd fc75 28be 92b6 ebbd
000003d0: b053 45be c0fa b6bd cbb3 c83d 325d debb
000003e0: 8dbe 7e3e 61a4 7abe e78a 783e c5a3 a5be
000003f0: 6095 0b3e fc5b 91be 64a1 afbe a771 0c3e
-0.12398763 0.28201446 -0.09210283 -0.26564646 0.13843745 -0.14053972 0.12328756 -0.37260127
-0.31042138 0.054403827 -0.226696 -0.12212076 0.021066304 -0.017771488 0.2818647 0.25582325
0.29616565 0.24288525 0.26781866 -0.17981103 -0.035151336 -0.2474166 0.15922384 0.31374532
-0.03053936 0.25271994 -0.122242585 0.3731309 0.08247433 -0.1313242 0.29313344 -0.16977818
-0.16952993 0.065950856 0.13584518 -0.26128495 0.064884126 -0.33851987 -0.31176546 0.07830001
-0.11402161 -0.09716531 -0.0727479 0.26061818 -0.08930104 -0.26144415 -0.0145666925 -0.27660778
-0.14216125 0.20618305 0.058445502 -0.24019435 0.26493248 -0.22830272 -0.18999468 -0.37761942
0.11924183 -0.067568555 -0.15704696 0.29834282 0.0979407 -0.2005707 0.3309613 -0.22740766
0.17478056 0.14945231 -0.25824898 0.1119318 0.21637462 -0.007756888 0.313966 0.32897866
0.044820763 0.14349398 0.32810408 -0.32763305 0.09240002 0.1356771 -0.12986785 0.18716082
0.19356132 0.3327041 0.10379559 -0.42332807 -0.097279266 -0.30482256 -0.14295484 -0.1853631
0.19464627 0.15173723 0.25670937 0.34955898 0.19581802 0.24083161 0.2483154 0.358819
-0.12448888 -0.22286393 0.060582597 -0.030069027 0.34560135 0.16736567 -0.08251592 0.2474365
-0.021929353 0.10021129 0.120279245 0.28830314 0.2164994 -0.20291875 0.37539142 -0.2157905
-0.035733808 -0.26824248 0.31006387 -0.13066337 0.07241339 0.17078339 0.054405715 -0.050683003
0.23262422 -0.055425983 -0.34174454 -0.09971512 0.050999247 -0.010791508 -0.0948527 -0.3394516
-0.1905426 -0.06182424 -0.18342581 0.3503631 -0.16364905 -0.25436246 0.22139515 0.33064923
0.3621878 -0.08881668 -0.11455441 -0.20854242 -0.1756513 -0.055534914 -0.28848252 -0.08760369
0.14911953 0.16489346 -0.28993747 -0.21846628 0.17309786 0.2862274 -0.059157547 -0.27339602
-0.16864696 0.20052351 0.30732045 -0.12719578 0.31439504 0.28655717 0.20259356 0.24805768
0.33770937 -0.009763996 0.06554597 -0.17486233 0.11093556 0.04028089 -0.27494138 -0.41749024
-0.22724006 0.03633181 0.29389864 0.31284583 0.19848336 -0.014010342 -0.23890021 0.14917722
-0.1451832 0.19881928 0.4068076 -0.26005507 0.06681616 -0.00017892849 -0.13434552 -0.03166305
-0.05342604 -0.07732504 -0.23551564 -0.14601535 -0.32815248 -0.07700579 0.16105518 -0.0037527117
-0.1632835 0.03955247 0.2423065 0.17434563 -0.099303335 0.16414529 -0.19198363 0.27299613
0.2152956 0.3308805 0.17526391 0.2656858 -0.36845565 0.021547526 0.18514194 -0.16842684
-0.31333685 -0.22456646 -0.23815748 0.055969134 -0.18031044 -0.16622446 0.14130121 -0.045889936
-0.059298564 0.26638317 0.2549239 -0.24259533 0.25308332 0.22287795 -0.021038508 0.16248244
-0.389935 0.092100464 -0.08597711 0.1321586 0.19102013 -0.18598014 0.085578024 -0.3028886
0.14783508 0.21184862 -0.027886534 0.20007336 -0.24858743 -0.053630557 0.16828534 0.088911995
-0.040937398 -0.108640656 -0.16451257 -0.11509432 -0.19270205 -0.089345455 0.09799918 -0.006786012
0.24877377 -0.24476768 0.24271737 -0.3235151 0.13631201 -0.2839049 -0.3430282 0.1371523

self_attention.in_proj_bias f4 [48]
00000000: 2a13 63bc 6fef b63d c2fb bc3d cd6f a23c
00000010: 5726 d5bd 2639 5a3c b2e6 e13d 6711 af3d
00000020: b5c0 06bd 2224 eabd fa4c c7bc ebe3 f43d
00000030: 035f e73d 82b8 e2bd 1357 20be 5aaa babd
00000040: 15ca 0239 0cd1 0b3b 68c8 d8ba a9a1 42ba
00000050: 9398 8439 eb13 39ba 3731 0239 5953 b9b8
00000060: 487f 123b 4183 533b b58e 15bb 8ea4 94bb
00000070: bd91 c8ba 62a6 873b 0353 5bba 7cc2 233b
00000080: a492 0dbd b4dd cd3c be4f 81bc af12 0c3d
00000090: fae9 663c 36bd bd3c 9d67 d7bc 0480 2e3d
000000a0: 6dac cc3c 200b ccbc 5932 11bd 0fae 3dbc
000000b0: ae93 463c 1066 d5bc 9bbf c9bc 1728 c2bb
-0.01385955 0.08932387 0.092277065 0.019828701 -0.10407703 0.013319289 0.1103033 0.08548241
-0.032898623 -0.11432673 -0.024328697 0.119575344 0.11297419 -0.11070348 -0.15658216 -0.09114523
0.00012473048 0.0021334318 -0.0016539218 -0.0007424602 0.0002529068 -0.0007060158 0.000124161 -8.837012e-05
0.0022353698 0.0032274278 -0.0022820656 -0.004536218 -0.0015302222 0.0041397074 -0.0008366557 0.0024987748
-0.034563676 0.02513013 -0.015785094 0.034197506 0.01409387 0.023161512 -0.026294524 0.042602554
0.024984563 -0.024907649 -0.035448406 -0.011577143 0.0121201705 -0.026049644 -0.024627497 -0.0059251892

self_attention.out_proj.weight f4 [16, 16]
00000000: 7762 03be 27d7 133e 523f b3bd 7a8c c3bd
00000010: 48d7 fcbd 7bee 183e 46b5 84bd dd3d 7f3e
00000020: 154a 063e 7a3e f0bd e4d9 cfbd a7a8 543e
00000030: 726d 0ebd 300d 4bbe 0c8e 31be ecba 7dbe
00000040: 35a8 08be 4142 2dbe 020d b43c 4599 413e
00000050: 288c babc be8f abbd 88a9 f83c 70b4 333e
00000060: 7102 13bd 3536 6a3e 2801 dbbd 29b6 82be
00000070: 1c29 1e3e 10dd 083e f7b1 52be 99ba 5d3e
00000080: c32c 433d f9f5 14be b8ac 25be a065 eebd
00000090: 421c 71be 2150 8d3d d199 10bc 8d59 083e
000000a0: c13c 61be 229a a93e 237d 19be 4465 6dbd
000000b0: c4f6 e9bd 4990 b7bd 4170 9d3d 473e 32bd
000000c0: 4533 433e eed8 59bd 27df 1fbc c9b2 a13d
000000d0: eea4 513e 0b58 b5bc f2ae 23be bdeb d33d
000000e0: da11 1dbe 107f dbbd 64ba 54be c226 9bbc
000000f0: 650c 7fbe 5330 503d ad8b 3ebe 2824 313e
00000100: 4997 693e e6e0 4bbe 7e0e 38bd 5e2c d23d
00000110: 135e 44be a929 1c3e aa3d 0d3e fc55 2cba
00000120: a6be 54bd 902b d5bd a85c 7d3e 9c3a 01be
00000130: 5e99 013e 6efa 8ebc 4e0b 883e da53 31be
00000140: 18f9 54be 0580 81be f689 7abd 6da1 cc3d
00000150: 9157 18be 0c0c 4e3e ac3a 3bbe 71ae 203e
00000160: bbde 433e bd09 d5bd 32c3 17be 0a78 b03c
00000170: 4fa5 28be d3b5 70be 84b6 363e 64ec c6bd
00000180: ba42 4fbe 05b3 41be 38c3 0abe 4aa1 2fbe
00000190: db57 423d bdca 063c eab8 0dbe 1655 48be
000001a0: 9c20 97bd e3b8 993d f4ce c1bd bef1 533e
000001b0: b9ce 39be 3dc2 29be 63dd d6bd 5487 05be
000001c0: 7880 2b3e c54a 62be f279 213e 3291 29be
000001d0: 57c8 4a3d 8479 ecbd 841c e43d 1f02 bd3d
000001e0: dfb7 3f3e f7a7 f43d 2049 e33d 20d8 1b3e
000001f0: f92b 603d ba7b 36bd c455 433e dd26 2b3e
00000200: 6ae5 db3d c411 35be 6bda 6e3e ab1c 83be
00000210: f32d 3dbe afa9 5abe 27f6 af3d 92c2 b53c
00000220: 36b7 023d 644e 3b3d b303 5bbd 423a 413e
00000230: 31f0 27bd 422c 6c3e 901e 963d e30e f7bd
00000240: 1c6a 40be 4be6 2abd 4616 1c3d 2c97 c53c
00000250: 460c 8dbd c444 c83b e7d5 89ba 835d 8cbd
00000260: 4857 2ebe 2429 483e 192d 1dbe bd9b 5bbe
00000270: 0186 473e 9b0b 6a3e 9246 f03d 16b3 7f3c
00000280: ef01 083e 4589 543e 0868 783d 6450 723d
00000290: 0dcd 8bbd b8ba 79bd 46e0 56be d8d3 923d
000002a0: 6b06 073e 5ad9 903e f15c 21be 6a3e 643e
000002b0: f8db e9bd 1681 18bd 3cc4 2bbe 5281 0f3e
000002c0: b1c1 8ebe dbf3 41be 1178 5abe 72d2 f93d
000002d0: 80b1 3f3d 845b 733d 3e76 b0bc 36ab 2b3e
000002e0: 38c3 1ebd 4141 9fbe f53b 28be f095 80be
000002f0: 1e98 a83d ae4c 02be 21fd 323d a151 dabd
00000300: 9d12 f6bd 87bb 05be 88dd 48be 8f9f 25be
00000310: 9ce9 2ebe 23cd 58be 4ec2 17bd 24c7 b53d
00000320: a359 53be 31e5 313d 1736 1cbe 985c 55bd
00000330: 644e 6b3b 87de e9bd b916 0dbe a1d9 4c3d
00000340: fb4d 2f3e beee 893e bec3 b23d 1a19 74bd
00000350: ef89 ccbd 6c6e 8d3e 560e 173e 52c8 a3bd
00000360: 3cea 3c3e ef1b 27be c250 5abd ccf9 e9bd
00000370: 0ffc 203e cabb 53be cc4a 4cbe 7e6d dd3d
00000380: bef1 173e abd4 a83d 4df0 813d b3ad c2bd
00000390: a7f0 ec3d 3fac 21be 1c17 8eb9 1b5e b83d
000003a0: baeb 23be 81dd 03be 46cf 273e 8351 953d
000003b0: f758 0bbe c175 373e f032 74be 2244 93bd
000003c0: 4dea 28be 04a8 e0bc 2a30 5dbd e52f 1dbe
000003d0: ce2e ca3d e974 50be 94f6 243b 1312 75bc
000003e0: 1317 263e 6843 2b3d 2a12 243d 5617 f03d
000003f0: 6d9f cabc f1dd a0bc 62d9 f83d ff60 78bd
-0.1283053 0.14437543 -0.08752312 -0.09548278 -0.12345749 0.14934723 -0.06479888 0.24925943
0.13114198 -0.117306665 -0.10148981 0.20767461 -0.034772344 -0.1982925 -0.17339343 -0.24778336
-0.13345416 -0.16919805 0.021978859 0.18906124 -0.02277191 -0.08377026 0.030354276 0.175493
-0.035891 0.22872241 -0.1069358 -0.25529602 0.1544537 0.13365579 -0.205757 0.21653213
0.04765011 -0.14546956 -0.16179168 -0.11640477 -0.23545936 0.06900049 -0.008825735 0.13315411
-0.21995832 0.33125407 -0.14989142 -0.057957903 -0.1142402 -0.08963067 0.07687426 -0.043516424
0.19062527 -0.053185396 -0.0097577935 0.07895429 0.20473072 -0.022136709 -0.15984705 0.10347698
-0.15338841 -0.107175946 -0.20774227 -0.01893938 -0.24907072 0.050827336 -0.1860797 0.17298949
0.22811617 -0.1991001 -0.044935696 0.102623686 -0.19176511 0.15250267 0.13793054 -0.0006574092
-0.05193963 -0.104086995 0.24742377 -0.12620014 0.12656161 -0.017453399 0.26571125 -0.17317143
-0.20798147 -0.25292984 -0.061166726 0.09991727 -0.14877154 0.20121783 -0.182841 0.15691544
0.19127934 -0.10402248 -0.14820555 0.021541614 -0.1646931 -0.2350686 0.17843062 -0.09713057
-0.20240298 -0.18915947 -0.13551033 -0.1715137 0.047447067 0.0082270475 -0.1384007 -0.19563708
-0.073792666 0.075059675 -0.09463301 0.20697686 -0.18145265 -0.16578002 -0.10491445 -0.13039905
0.16748226 -0.22098835 0.15769175 -0.16559294 0.049507465 -0.11546615 0.111382514 0.0922892
0.18722485 0.11946099 0.11097932 0.15219164 0.054729436 -0.04455159 0.19075686 0.16714044
0.10737117 -0.17682558 0.23325507 -0.2560781 -0.1847456 -0.21353792 0.08591872 0.022187505
0.031913005 0.045729056 -0.053470325 0.1886988 -0.04100055 0.23063758 0.07330048 -0.12063386
-0.18790478 -0.04172353 0.03810718 0.024119936 -0.068871066 0.006111713 -0.0010516018 -0.068537734
-0.17025483 0.19546944 -0.15349235 -0.21446128 0.19484712 0.2285599 0.1173221 0.015606662
0.13281988 0.20755489 0.060646087 0.059158698 -0.0682622 -0.060969085 -0.20983991 0.07169312
0.13186042 0.28290826 -0.1575811 0.22289434 -0.11418909 -0.03723248 -0.16774076 0.14014176
-0.2788215 -0.1894068 -0.21334864 0.121983424 0.046800137 0.059413448 -0.021540757 0.1676453
-0.038760394 -0.31104472 -0.16429122 -0.25114393 0.08232139 -0.12724563 0.043698434 -0.10660101
-0.12015269 -0.13059817 -0.19615757 -0.16174148 -0.17081302 -0.21172003 -0.037050538 0.08875874
-0.20639662 0.043431465 -0.15255009 -0.052090257 0.0035904879 -0.11419397 -0.137782 0.050012235
0.17119591 0.26939958 0.08728741 -0.05959425 -0.09987246 0.27623308 0.14751562 -0.079971924
0.18448728 -0.1631925 -0.053299673 -0.11424598 0.15721153 -0.20677105 -0.19950408 0.108118996
0.14838311 0.08243688 0.06344662 -0.09505787 0.11569338 -0.15788363 -0.00027101568 0.09002324
-0.16007891 -0.12877466 0.16387662 0.07290938 -0.13608156 0.17916013 -0.23847556 -0.0719073
-0.16495629 -0.027423866 -0.05400101 -0.15350302 0.098722085 -0.20357098 0.0025171386 -0.0149579225
0.1621974 0.04181233 0.040056385 0.11723201 -0.024734223 -0.01963708 0.121508375 -0.060639378

self_attention.out_proj.bias f4 [16]
00000000: 3d54 3f3d 05dc c5bc 99b0 17bd cb49 183d
00000010: 9081 bd3b 07df 383d 8762 0e3a b89e cb39
00000020: 7ee4 11bd fc2d 833c 6e6f dbba ab81 033d
00000030: 3494 a33b dc9f 693c 93fb 89bc a588 18bc
0.046711195 -0.024152765 -0.03703365 0.03717975 0.0057832673 0.04513457 0.0005431552 0.00038837432
-0.035618298 0.016013138 -0.0016741583 0.032106083 0.0049920324 0.014259305 -0.016843593 -0.009309922

fc.weight f4 [32, 16]
00000000: d30d 073e c229 6d3d 6fd2 60be cd87 213e
00000010: 0c52 323e 0aca 133e 8c4f 87bd fd88 243e
00000020: 64f6 a5ba 05bd ab3d 4eea 48bd 75d4 a4bc
00000030: d748 e83c 18e2 253d 7286 a23d 8d1c 1ebe
00000040: b051 233e b2d1 5dbe ddd3 403d c9b0 333e
00000050: c6c1 7cbc 88be 623e feb6 debd 31ee 663d
00000060: f106 32be c3c6 1fbe 94f9 643e d5c9 c43d
00000070: 1c55 863e c5e1 84bb 4f91 0b3d d36b 0dbd
00000080: 7b8d 1c3e 53f3 8f3d 7ed3 203e be62 2f3c
00000090: 3814 99bc 7dba 443e 4a7d 2b3e 83b5 2cbe
000000a0: e9c6 80be 5df1 b23b ffbc b83c f410 663e
000000b0: da78 41bb 3dff ebbd b6e7 183e 9d94 3fbe
000000c0: 481f 80be b420 65be 32ec 1b3e f3a3 803e
000000d0: 2668 183e 0484 36bd 1239 a8bd e619 07be
000000e0: b844 3d3e b609 393e 7b39 df3a d590 1b3d
000000f0: 8502 ab3d d3a3 a03c 8eeb 3a3e 90e0 e5bd
00000100: 5a3b 163e ac18 393c 077f 2abe c741 1d3e
00000110: f0fb b4bb c1b0 c83d 5661 5abe b807 ecbd
00000120: bbaa a33d a980 49bd 7cd5 b93d 6f91 0a3e
00000130: 1196 56be b78d 3e3e 324f 673e 6946 37be
00000140: 91e4 a43d 5a21 103e 3322 3f3c ed8a e03d
00000150: d24c fb3d c423 253d 720c 043e 4a2b 4d3d
00000160: 3c32 cb3d 06de 523e cf57 acbd 2227 373e
00000170: 38bf 6cbe ba61 ecbd d34b 74be 6909 e83d
00000180: c8bb e83d 5732 c83d 87ed d53d e2fa 68bc
00000190: d50a 3d3e f632 86be 8fef 1fbe da24 fc3c
000001a0: 839a 12be 7e56 6fbe 1552 0dbe 4bbd d6bd
000001b0: f5fd 51be 2059 dd3d 827c 9cbd 510b 38be
000001c0: 4fd8 3bbd 0dae 2bbd 0df7 8a3e bc2c 9e3d
000001d0: 3f5e 633e f16f db3d 26fe a53d 6814 913e
000001e0: 1825 963e 340e 743e 68c1 8f3e 88e7 89be
000001f0: 2883 f33d 399f 1fbe bc47 12be b3cb 33be
00000200: 58f6 83be 1363 853d 11c4 793e 5c46 47be
00000210: 04e9 5ebe 2a0a 063c 489f 3b3e c8bc 273e
00000220: 3360 6c3e 016a 40be 4c70 e9bc 4ac0 90be
00000230: 1640 e1bd 62a2 c9bd 3a92 6a3e 2409 bc3d
00000240: a560 10be 4dcb 22be bea3 8cbd 75c0 3f3e
00000250: d943 37be 85cc abbc ef01 20be 61f2 07be
00000260: 019a 59be f5bc 993c f382 77bb 1467 83ba
00000270: c30a 72be af86 543e f5df 10be 2136 103e
00000280: 4582 243e 7b0b 43be b482 d53c 7451 39bd
00000290: 8535 0d3e 8133 55be 171e b43c 9877 f9bd
000002a0: d3e6 c6bc c86e 41be 504c c9bb ed65 63be
000002b0: 35b4 3a3e 4a26 1bbe 5fda 113e 13a9 a43c
000002c0: 2d32 6fbc 85a3 febd 4280 80be a8e0 5c3d
000002d0: 375d 393e 4b1e dd3d 7ab7 013d ed01 c7bd
000002e0: 3d2e 62bd 2ff6 3abc e21a a4bd c6c6 bc3c
000002f0: b9cd ab3d cbee 1d3c ce29 6d3d a2e2 c43d
00000300: ef6c 583e 4080 253e 3aeb 54be 84cd 5c3e
00000310: 31d7 d6bd 68f3 f93c 4c26 cebd aa53 edbd
00000320: c3b3 39be 1b2c 57be f031 4fbe 3edc 40bc
00000330: f14f 473e d3e1 e03d 3cda 3ebe f15c 3dbd
00000340: 6cac f13d dd1b 813e 2f1c fa3d a33c 2e3d
00000350: a9e2 69bd 8b76 e3bd 665b 16bd 485f 9d3c
00000360: 9ddb a83d 6095 9cbd f972 7dbe 93ad 893e
00000370: 18db 37be 9642 90bd ac78 2c3e 2e1e dfbb
00000380: 9b87 bdbc ecd8 ecbd 97ad a5bd 4489 44bc
00000390: 3b01 c6bc 1cb8 f1bd 1427 40bc c81c 3a3e
000003a0: e4ff fd3c 2722 cbbb ebc5 473e 383f 8ebe
000003b0: f289 073e c132 74be fbac 743d 3150 b13d
000003c0: 07d6 143e b829 703e 3c5f 243e fac4 49be
000003d0: cfce 443e 87fb aa3d 6ce2 c0bc c03c 213c
000003e0: 7135 663e f410 eeba ca2f ad3d 47bf 24be
000003f0: 3790 5ebe 04dd e4bc bbc3 413e 1fda 36be
0.13188867 0.05790115 -0.21955274 0.1577446 0.17414111 0.1443254 -0.06606969 0.16067882
-0.0012661931 0.08385662 -0.049051575 -0.020120839 0.028355045 0.040498823 0.079358 -0.15440579
0.1594913 -0.21662024 0.04707705 0.17547907 -0.015427059 0.22142994 -0.10874747 0.0563795
-0.1738546 -0.15603165 0.22360831 0.09608809 0.26236808 -0.004055234 0.034074124 -0.034526657
0.15288346 0.07028832 0.15705678 0.010704694 -0.018686399 0.19211765 0.16747013 -0.16866116
-0.25151756 0.0054609017 0.022551058 0.22467405 -0.0029521496 -0.11523292 0.1493214 -0.18709035
-0.25023866 -0.22375757 0.1522682 0.25125083 0.1488348 -0.044559494 -0.0821401 -0.13193473
0.18483245 0.1807011 0.001703068 0.03797992 0.0835009 0.019609367 0.1825392 -0.112244725
0.14671078 0.011297386 -0.1665002 0.15357123 -0.0055231974 0.09799338 -0.21326193 -0.1152491
0.07991549 -0.049194966 0.09073922 0.13532041 -0.20955683 0.18608747 0.22588804 -0.17897953
0.08051408 0.14075223 0.011665869 0.10963998 0.12270512 0.040317312 0.12895373 0.05009011
0.09921691 0.20592508 -0.08415186 0.17886022 -0.23119819 -0.11542077 -0.2385705 0.1132992
0.113639414 0.097752266 0.10445695 -0.014219971 0.18461163 -0.26210755 -0.15618728 0.030779291
-0.14316754 -0.23372838 -0.13800843 -0.104853235 -0.20507033 0.10808015 -0.076409355 -0.17973067
-0.045860585 -0.041914035 0.2714161 0.07723376 0.22203921 0.107147105 0.081051156 0.2833588
0.29325175 0.23833543 0.28077245 -0.26934457 0.118902504 -0.15588082 -0.14285177 -0.17558174
-0.25773883 0.065130375 0.243912 -0.19460434 -0.21768576 0.008181134 0.1832248 0.16380608
0.23083572 -0.18790437 -0.02849593 -0.28271705 -0.109985515 -0.09845425 0.22907344 0.09181431
-0.14099367 -0.15897866 -0.06867169 0.1872576 -0.17896976 -0.020971546 -0.15625738 -0.13276054
-0.21250154 0.01876686 -0.003776726 -0.0010025227 -0.23636918 0.20754503 -0.14147933 0.14083149
0.16065319 -0.19047348 0.0260633 -0.045243695 0.13789947 -0.20820428 0.021987004 -0.12181014
-0.024279987 -0.18889916 -0.0061431304 -0.2220685 0.18232806 -0.15151325 0.14243458 0.020100152
-0.014599365 -0.124335326 -0.25097853 0.053925186 0.18101965 0.107967936 0.031669118 -0.09717164
-0.055219878 -0.011411234 -0.0801294 0.023044001 0.08388848 0.009639452 0.057901196 0.09613539
0.21135305 0.16162205 -0.20792857 0.21562773 -0.10490263 0.030511573 -0.10065898 -0.11588223
-0.1813498 -0.21012919 -0.20233893 -0.01177126 0.19464089 0.109805726 -0.18637937 -0.046231214
0.11800465 0.2521657 0.12212407 0.042538296 -0.057100926 -0.11106595 -0.036708258 0.019210473
0.08245013 -0.076456785 -0.2475089 0.2689024 -0.17954671 -0.0704395 0.16842908 -0.0068090176
-0.02313595 -0.11564812 -0.0808975 -0.011995617 -0.024170509 -0.11802694 -0.011728067 0.18175042
0.031005807 -0.0061991396 0.19509093 -0.27782607 0.13236216 -0.23847486 0.05973528 0.086578734
0.1453477 0.23453414 0.16051954 -0.19704047 0.19219516 0.08348756 -0.023545466 0.009841144
0.22481324 -0.0018163011 0.08456381 -0.16088592 -0.21734701 -0.02793742 0.18922321 -0.17856644

fc.bias f4 [32]
00000000: 50dc 033e 9038 16be 2e7c c63d 7edb 6bbe
00000010: f7a9 853e 2fb8 30be da6c e33c bf6f 1dbe
00000020: de88 6d3d 390e 59be f442 b73d 6bad 273e
00000030: 918d 5dbb 2fc3 8bbd dbb7 073e da17 4cbd
00000040: 76ad 50bd d9e2 89bd cf52 813e 8edb 52be
00000050: 86dc 10be 0b27 ca3d 0b04 19bc af28 923d
00000060: 515e 02be a8ed c6bd 730c ca3d 3589 c83d
00000070: 0928 5cbd 58d5 66bd 6d77 a73d 91ab 72bb
0.12877011 -0.14670014 0.09691654 -0.23032948 0.26106235 -0.1725776 0.027761865 -0.15374659
0.057991855 -0.21196832 0.08948317 0.16374747 -0.0033806304 -0.06824338 0.13253729 -0.049827434
-0.050946675 -0.06732721 0.2525849 -0.20591566 -0.14146623 0.09870728 -0.009339343 0.07136666
-0.12731291 -0.09713298 0.09865656 0.09791795 -0.053749118 -0.056355804 0.081770755 -0.003702853

fc_output.weight f4 [32, 32]
00000000: 6752 b1bd 8b7e e93d 9346 afbd a0e2 fc3d
00000010: 772f 01bd 511e 05be ee2c e63c 9992 1fbe
00000020: 21e7 29bd 6f1b aebd 86ed 233b 83f6 f73d
00000030: 60f6 a33d 4b91 cdbd 0f40 a03a 51b5 f33d
00000040: a860 703d e824 c3bd 3e33 1bbd abfa 06be
00000050: e9dc aabc d210 103e 3867 c0bd 94ce 5ebc
00000060: 633f 0dbe 689a 1b3e 6a4b a8bd 7921 a7bd
00000070: f689 193e ddb7 b1bd 8dd9 243d 5c46 c63c
00000080: 4c66 533d e566 163e d269 483e 5eb5 37be
00000090: d2e5 10be 6df8 4d3e bff6 08be db4d 4a3e
000000a0: d9c4 dabd c048 c23d ac45 513d 514b 8dbc
000000b0: d344 b1bd 6871 a0bd 8f24 633c 1f11 363e
000000c0: 05f9 59bd 2426 c1bd 799e 293d 2a75 f5bd
000000d0: 577f 113e a2f0 53bb b820 2bbd 8160 343d
000000e0: 9c1c 50bc 7fe7 9d3d 6c65 173e 7fff 89bd
000000f0: 2f40 fc3d 8e80 183e 460b babb ac83 03be
00000100: 3b74 1c3e d57a 3d3d ec8b 98bd 58e4 3d3c
00000110: 6734 22bd 1ec3 1e3e 3f73 943d 707c ac3d
00000120: 6d17 353e 66f1 173e ffb4 b83d 8f5a 3bbe
00000130: f170 eb3c be3c 21be 49b3 4f3d 993e 1bbe
00000140: 48bb 75bd 29f2 7bbd 7538 25be 3a76 13bd
00000150: 4e7d 0a3e 8a12 c5bd aa5c 44be 08eb 2ebd
00000160: af6d 163e f01a 04be 06da c5bc 5b33 c5bc
00000170: 8ae1 babd d1a0 d1bd d613 17bd fc02 d5bd
00000180: 5d47 afba 2dbe d4bc e94a 39bd 1890 9c3b
00000190: 7c60 c63d 2f46 8ebc 8ae3 a1bd 99dd 1a3d
000001a0: 4728 0dbe fac0 c33d c9a3 823d 436c 5a3b
000001b0: 0583 ce3b ad45 0e3e e25b 6fbd 181c 90bd
000001c0: 6b78 33be 3d73 ed3d 0aef 843c 7ca5 f4bd
000001d0: e67b 07be 9e0f a93d 7a5c 803c 9cec ce3c
000001e0: 4ec7 0abe e421 dbbc 8d28 18be 230c 0c3d
000001f0: 8cb2 b53d 0dc6 01be 3cdd 5abd 80a4 703d
00000200: 08d6 07be 206e 0d3e ec03 0a3e 7b9d 883d
00000210: 910b 60bc d814 9d3d 26d7 07be 267f 04bd
00000220: 91d4 d7bc c9ef 88bd e24a 07bd 25fa b13d
00000230: 78c8 943d 3985 ed3a 11f1 cbbd 4862 cebb
00000240: 1819 243e 287f 12bb f353 da3d 14b8 babd
00000250: bd88 2ebd 20e1 a637 7cde fa3d 0769 94bd
00000260: 0911 113e eb84 f8bd 98fa bebd afc0 1cbd
00000270: 5c7a 123e 4f35 ef3b c304 bc3c e709 2d3c
00000280: 4f94 11be ee87 8ebd 02d3 fe3d 815b 16bd
00000290: 2b12 24be 2bb2 c83d b2a4 95bb f63e 05be
000002a0: d6eb 453d 72e7 1d3e e648 2ebe c314 51be
000002b0: 34fa 24be b5ba a0bd f70e 5d3e 6bd3 fe3c
000002c0: 967a 85bb 5235 95bd 1551 5f3d 1e9e 0d3e
000002d0: eed0 0cbe d71d 3b3e c3b3 2ebd bbee 9f3d
000002e0: 2d71 0f3e f237 e93d 55eb 1a3e e790 d4bb
000002f0: c440 dfbd 01af 013e 9822 23be b149 2c3e
00000300: d690 06be f694 cdbd b498 0a3a 2283 b63d
00000310: 2e00 4bbd 86b7 58bd eff5 e8bd 4e4a f0bd
00000320: ecdd 1cbe 2410 0c3e 385b 103e f2cc 203d
00000330: 50a7 ffbd 5a65 92bd 9909 8bbc 3ffd fa3d
00000340: b7ce b93d 8abf f73d 9b08 523d f26e babd
00000350: c812 9f3d 9d94 97bd f755 b0bd 5228 2abd
00000360: c5a4 1cbe c227 0bbe 3fc2 d53c c44a 2c3d
00000370: c258 01be ac6d d43d 70eb 773d 5123 9d3b
00000380: e0dd 1bbd 2e20 a73d 4788 08be a2c3 18be
00000390: 92d7 75bd bd67 a43d bce3 c5bd ea71 9abd
000003a0: 2ac5 bc3d 8c8f b3bd 5189 023e 3e63 5abb
000003b0: 2154 22bd 9146 dfbd 5a2b 733d 294a 82bd
000003c0: f755 623d 3bdf 213e b99e d43d 345e d63c
000003d0: 4456 833d d32a ae3d f925 08bd 7b4b 5e3d
000003e0: 767f 083d 88fc 85bb 2f8d 11be 7195 d1bd
000003f0: 1145 4c3e e0d1 a93d 8070 0a3e 6d60 12be
-0.08658295 0.11401089 -0.08558383 0.12347913 -0.031539407 -0.12999846 0.028097596 -0.15583266
-0.041480187 -0.08501326 0.0025013401 0.12107565 0.08005977 -0.10037478 0.0012226122 0.11899818
0.05868593 -0.09528524 -0.037890665 -0.1318156 -0.020857291 0.14068916 -0.093946874 -0.013599057
-0.13793711 0.1519562 -0.08217509 -0.08160681 0.14994034 -0.08677647 0.040246535 0.024203472
0.05161123 0.14687689 0.19571617 -0.1794028 -0.1415017 0.20114298 -0.13375376 0.19756262
-0.10682077 0.09486532 0.051091835 -0.017247828 -0.08655705 -0.078341305 0.013863697 0.17779969
-0.053216 -0.09431103 0.041410897 -0.11985238 0.14208733 -0.0032339473 -0.04177925 0.044037346
-0.0127021335 0.0771017 0.14784783 -0.06738185 0.123169295 0.1489279 -0.0056776134 -0.12843198
0.15278713 0.04625972 -0.07448563 0.011590086 -0.039600756 0.15504119 0.07248544 0.08422172
0.17684717 0.1483818 0.09018897 -0.18296264 0.028740378 -0.15745828 0.05070809 -0.15160598
-0.05999306 -0.06151024 -0.16134818 -0.03600142 0.13524362 -0.09622677 -0.19175974 -0.042704612
0.14690278 -0.12900901 -0.024151813 -0.02407234 -0.091250494 -0.102357514 -0.03688415 -0.1040096
-0.0013372708 -0.02596959 -0.045237456 0.0047779195 0.09686372 -0.01736745 -0.07904728 0.03780899
-0.13784896 0.09558292 0.06378896 0.003332869 0.00630224 0.13893767 -0.058437236 -0.070366085
-0.17526405 0.115942456 0.016227264 -0.11945626 -0.13230857 0.08254932 0.015669096 0.025259309
-0.13552591 -0.026749559 -0.14859219 0.034191262 0.08871946 -0.12673207 -0.05343364 0.05875063
-0.1326524 0.1381154 0.13478059 0.06670662 -0.013674633 0.07669991 -0.13265666 -0.03234782
-0.026346477 -0.066863604 -0.0330304 0.086902894 0.07264799 0.0018121368 -0.09958089 -0.006298337
0.16025198 -0.0022353623 0.10660543 -0.09117141 -0.042610873 1.9893574e-05 0.12249467 -0.07246595
0.14166655 -0.12134727 -0.09325141 -0.038269695 0.14304489 0.007300056 0.02295149 0.010561443
-0.14216731 -0.0695952 0.1244259 -0.03670836 -0.16022556 0.09799608 -0.0045667524 -0.13012299
0.048320614 0.1542032 -0.17019996 -0.20418076 -0.1611107 -0.078481115 0.2158774 0.031106671
-0.0040734513 -0.07285561 0.054520685 0.13829848 -0.13751575 0.18273102 -0.042651903 0.07809206
0.14008017 0.11387624 0.15128835 -0.0064870003 -0.10901025 0.12664415 -0.15931165 0.16824986
-0.13141188 -0.10038178 0.0005287037 0.0891173 -0.04956072 -0.052909397 -0.11375033 -0.117329225
-0.15319031 0.13678032 0.14097297 0.03925795 -0.12483084 -0.071482375 -0.01697235 0.12255334
0.09072631 0.1209708 0.051277738 -0.091031924 0.07767254 -0.074013926 -0.086101465 -0.04154236
-0.1529723 -0.13589385 0.0260936 0.04206349 -0.12631515 0.10372481 0.060527265 0.00479547
-0.038053393 0.08160435 -0.13333236 -0.14918378 -0.060020037 0.08027599 -0.096625775 -0.07541259
0.092172936 -0.08767614 0.12747695 -0.0033323313 -0.039631013 -0.10902131 0.059367515 -0.06361801
0.055257764 0.15807812 0.103818364 0.026167966 0.06412938 0.08504262 -0.03323934 0.054271203
0.03332468 -0.004088942 -0.14214014 -0.10233582 0.19948222 0.082919836 0.13519478 -0.14294596

fc_output.bias f4 [32]
00000000: 612b 9ebc fdc2 59bd 5a7d 263d c817 df3d
00000010: 3b8c 193d 3749 68bc 01f2 993d a511 2a3e
00000020: 7427 233e 4874 f4bd 781a 25bc 5ef6 263e
00000030: 185e e73c 0485 cabd a263 cebd d9c4 cfbd
00000040: b863 efbd 0897 11be d59b 25bb df12 8bbd
00000050: 887f d6bc 8f23 ed3d 98a4 7a3d 730e 7f3d
00000060: 2a9e f6bd 3929 f13d 1b32 883c 9cbd 3fbe
00000070: 7988 d53d 670b 1cbe 5ffb 9abd 6919 d1bc
-0.019307794 -0.05316447 0.04064689 0.10893208 0.03748725 -0.014177612 0.07516862 0.16608293
0.15933019 -0.119362414 -0.010077111 0.16304919 0.02824311 -0.09888652 -0.10077597 -0.101449676
-0.11688942 -0.1421777 -0.0025269885 -0.06790709 -0.026183859 0.11579048 0.061192125 0.06226964
-0.12041886 0.11775441 0.016625455 -0.18724674 0.10426421 -0.15238725 -0.075674765 -0.025524812
