checkpoints/sketch_prediction_2/SBGCN_model.pth (torch, 58936 bytes, 18 tensors)

embed_f_in.f.0.weight f4 [32, 4]
00000000: c99a 7b3e d9c2 b63d 0b8b 073f a690 8e3e
00000010: eaf5 98bd bfb7 92be a9f8 d43e 9d02 a73e
00000020: 87ce 483e 2482 f53e 8122 06be 2781 5f3e
00000030: 7ff4 e83b 543c d6be dafe 3abe 7ba3 c03d
00000040: 7bcd 96be 6aa3 9dbe 01bc 9a3e 6692 57be
00000050: 2179 d6be 6b59 843e c8d4 5bbe e08a ae3d
00000060: 41b9 fa3e 5f02 fa3e 34b5 a7be 0de7 383e
00000070: d6fa debc 18e5 a73d 0645 98be b1e7 a6be
00000080: 310b b03d f205 33be bc59 c3be abc4 84be
00000090: e6af 773e 10ef e8be 5df0 713d a3e2 e9be
000000a0: 7939 6ebe 002d f63d 3f2b a1be c3df 47be
000000b0: aaaf 8fbe 94b1 81be 2524 eb3d 4196 483e
000000c0: ccca a73e cda6 d2be 7054 d1be 0bad 31be
000000d0: 6e09 b3be e8ff 923e 76ae 4dbc 0bc7 f23b
000000e0: 7081 dcbe effd 0abe 84d3 bcbe f964 8cbe
000000f0: 7819 a13e ccad 84bd f248 9dbe e48c 37bd
00000100: d7a5 fb3c c9ba 623d e1d1 f5be c2a3 443e
00000110: 570b ac3e 05e5 6e3e c504 3dbe c609 4fbe
00000120: 0b38 b9be e9d2 adbe 6b04 8e3e 9c6f 7fbe
00000130: 6d00 1cbd 54f5 f6bd 7dfa d33e 4b06 43be
00000140: 2ab6 86be fc15 53be e2d5 19be 31e2 893e
00000150: 1a7b 463e fe80 ae3e 1352 c53e d01e ae3e
00000160: c6d1 f13e 6c57 8bbd cca5 11be b3de aabd
00000170: 54b9 6a3d 28df 193e cecf 90bd cf6f 7ebe
00000180: 893e a13e 54e7 9c3e 1530 33be e6b8 813e
00000190: 3f21 943d b4a2 2ebe 886b 843e f695 b03d
000001a0: 9e56 d2be 2d51 393e fd25 65be 5e3c 253e
000001b0: 00c9 bf3e 6178 c33c 4213 8b3e c44f 133d
000001c0: c0f4 c5be 521f b8be 792f 713e 31d3 60be
000001d0: 9019 e0be 49b4 803e d5c4 e1be 0068 153e
000001e0: b39e f13e 5252 fb3e 1113 3abe 2c43 31bd
000001f0: 03ce 933e 5ab6 e5be 76e6 89bd fe96 3c3e
0.24570765 0.08923883 0.5294654 0.27844733 -0.074687794 -0.28655812 0.41595963 0.3261918
0.19610034 0.47950852 -0.130991 0.21826611 0.0071092243 -0.41842902 -0.1826128 0.094061814
-0.29453644 -0.30788738 0.3022156 -0.2105194 -0.4188929 0.2584947 -0.21467888 0.08522582
0.48969463 0.48829934 -0.32755435 0.18056889 -0.027219217 0.08197993 -0.2974016 -0.32598642
0.085958846 -0.17482737 -0.381544 -0.25931296 0.24188194 -0.4549489 0.05906712 -0.45680723
-0.23264112 0.12020302 -0.31478307 -0.19518952 -0.2806371 -0.25330794 0.114815034 0.19588567
0.3277191 -0.41142884 -0.40884733 -0.17351167 -0.34968132 0.28710866 -0.012553802 0.0074089817
-0.43067503 -0.1357343 -0.36880124 -0.27420786 0.31464744 -0.064784616 -0.30719715 -0.0448121
0.030718727 0.055353913 -0.48011687 0.19203094 0.33602402 0.23329552 -0.1845885 -0.20218572
-0.3617557 -0.33949974 0.27737746 -0.2494492 -0.038086344 -0.120585114 0.41402045 -0.1904537
-0.26310855 -0.20613855 -0.15022996 0.26930383 0.19382897 0.34082788 0.3853918 0.34007883
0.47230357 -0.06803784 -0.14223403 -0.08343258 0.05730565 0.15026534 -0.070708856 -0.24847339
0.31493023 0.3064524 -0.1749881 0.2533638 0.07232904 -0.17054254 0.2586329 0.08622353
-0.4108171 0.18097372 -0.22377773 0.1613631 0.37458038 0.023861112 0.2716313 0.035964742
-0.38663292 -0.35961396 0.23553266 -0.21955563 -0.43769503 0.25137547 -0.44095483 0.14590454
0.4719139 0.49086243 -0.18171336 -0.04327695 0.28868112 -0.44865686 -0.0673341 0.18416974

embed_f_in.f.0.bias f4 [32]
00000000: be78 13be 2428 e53e 55bc 9c3e fb96 ca3e
00000010: 8c9a a23e 1f8b b7be 8f29 f2be 3558 3e3e
00000020: 0718 c6be 6d80 0a3c 97b0 3a3e ab16 a23a
00000030: 324e 8f3d 7e7d 103e d7d4 8e3e 46ae 27be
00000040: 7deb aabd 5914 403e bf2e 1e3e c7c1 cd3e
00000050: c959 9abe 0193 fa3e 8d98 eebe 64fc 013e
00000060: e4ed 633e b9f7 f0be b6e3 6ebe f14e 66be
00000070: 4d31 aabe a3c1 3a3e b04e 2ebb 161f c13e
-0.14401528 0.44757187 0.30612436 0.39568314 0.31758535 -0.35848328 -0.47297332 0.18588336
-0.38690206 0.008453471 0.18231426 0.0012366375 0.069973364 0.14110371 0.2789676 -0.16375074
-0.08345697 0.18757762 0.1544752 0.40186903 -0.30146626 0.4894028 -0.46600762 0.12693936
0.22258717 -0.47063997 -0.23329052 -0.22491051 -0.3324074 0.18237929 -0.0026597194 0.3771903

embed_e_in.f.0.weight f4 [32, 6]
00000000: a086 ea3d d510 aa3e 9ee3 c2be dbc8 97be
00000010: fd1f 833e 79cb d4be 9299 a03e 3098 023e
00000020: b509 69be d28f 923c 976e 513e fc3f 75be
00000030: d9df 0dbe 1ee2 b53e ec18 333e be5c 9c3d
00000040: 6b91 843e 67a1 91be 8903 293e 7f25 023e
00000050: 9ebf 473e 56cb 2d3e b1cd cc3d 8d92 b23e
00000060: 0b90 b5be f6dd 05be 66c3 823e c536 7a3e
00000070: dd50 8ebe 0eff 0a3e 6921 78be 52ce 99be
00000080: cd3e cabe f028 a4bd e025 f6bd 4414 823e
00000090: 22bc 2bbd 97d5 933d 7caf 90be a887 ca3e
000000a0: 3ff1 ab3d 0231 a13d 4249 133e 43b2 57be
000000b0: 08b1 bebe 1ebc 143e 4c71 a3be 3f18 fe3d
000000c0: 8fb9 23be bd99 f03d dd2a c43e af93 a03e
000000d0: f6df cebe d120 b6be 5b40 aebd ea98 963e
000000e0: 2c99 243e 1dbb e6bc d6a8 68bd f519 60be
000000f0: e3f5 d039 7297 a9bb d3c8 ac3e 3be3 b8bd
00000100: 64a1 113e d649 8e3e f4be acbe d866 763e
00000110: 24f6 c13d 9c07 193e 9b1a 703c 487b 053e
00000120: 0523 f03d 1172 aebe fb40 3b3d 7711 0abe
00000130: b470 b93d 943b f3bd 01c7 cabe d487 06be
00000140: 4e4d 1e3e 0e1a 89be b034 96be 7489 7bbb
00000150: 92e0 9cbe 517e dbbe e079 9a3c e9b8 cabe
00000160: ffe8 7c3d 1d28 a1bd 0ce6 f9bd fa7f b1be
00000170: f966 9c3e 722a 8bbe a9f3 adbe b657 b7bc
00000180: d47b 88be e37b af3e 0a46 c53e e849 b73e
00000190: 9d10 40be 7fa3 88be ab26 3b3e b67d cb3c
000001a0: e07f 8ebe 1539 4d3e b152 31be f776 0b3c
000001b0: 3470 ac3e 10fe dd3d cdb6 77be 09a7 9ebe
000001c0: 691b bcbe 4766 df3d 3844 2fbe d93b ba3e
000001d0: 460d 693e 1b49 d3bc 7482 2c3e e7ce 793e
000001e0: 745f b6be e56b a63d 15bf 043e 82b5 1ebd
000001f0: b6ed 813e 4ce0 643c 5862 813e 85e9 3ebe
00000200: ba8e 353d 328a ad3e 062a 873e 92cb 82be
00000210: 5d10 aebd b2fe 5ebe 401f ea3d 3c03 c5be
00000220: 5947 47be 4c04 01be fcf0 a3be c424 c6bd
00000230: 99d2 94be 9bf3 8ebe 3f7e cfbe 29fa 57be
00000240: 6099 203e 0989 873e 0524 653e df2f a2be
00000250: 8a43 6db9 34e6 26be 45cd a33d 7b27 033e
00000260: e7b5 1f3e ce84 93be 6054 ae3e 53e0 0ebe
00000270: cdca a73e b357 86be a3ad 21be 6f8e 7e3e
00000280: 3e1d c4be ea1c c53e 881d 963e 2549 81be
00000290: 50f5 7ebe 69a6 023d d179 a7be cdf6 453d
000002a0: c865 afbd 588f 17be 884a 823e d6ec 8f3e
000002b0: d043 d2be d100 7a3e 3ac5 1bbe 84d8 c1be
000002c0: 34bf 00be bcc3 0fbe be0a 213d cd79 8a3e
000002d0: a7bc cb3e 3482 bcbe 64ad 313e da91 303c
000002e0: f773 973e 61fc 9cbc ef1f b13d 2ac2 c23e
000002f0: 7e15 47be aa40 f6bd 2e7d 53be ccd3 a9be
0.11451459 0.33215967 -0.38064283 -0.29645428 0.25610343 -0.41561487 0.31367165 0.12753367
-0.22757609 0.017890844 0.20452343 -0.2395019 -0.13854922 0.35524076 0.17489976 0.07634877
0.25892195 -0.28443453 0.16505255 0.12709616 0.1950669 0.16972098 0.1000017 0.34877434
-0.3546146 -0.13072953 0.25539702 0.24434955 -0.2779607 0.13573858 -0.24231495 -0.30040222
-0.39501038 -0.08015621 -0.12018943 0.25406086 -0.041927464 0.072184734 -0.28258884 0.39556623
0.083956234 0.078706756 0.14383414 -0.21064095 -0.3724444 0.14524886 -0.31922376 0.12406968
-0.15988754 0.11748073 0.38313952 0.31362674 -0.40405244 -0.35571912 -0.085083686 0.2941354
0.16074055 -0.028165394 -0.05680164 -0.21884902 0.0003985605 -0.0051755244 0.33746967 -0.09027716
0.14221722 0.27790707 -0.33739436 0.2406267 0.09470776 0.14944309 0.014654781 0.1303531
0.117254294 -0.340714 0.045716267 -0.13483225 0.090546995 -0.11876598 -0.39604953 -0.13137752
0.15459177 -0.2677769 -0.29337072 -0.003838149 -0.30640084 -0.4286981 0.018856943 -0.395942
0.06174564 -0.07868979 -0.12202081 -0.3466795 0.30547312 -0.2718082 -0.3397496 -0.022380691
-0.26656973 0.34274206 0.38529998 0.35798573 -0.18756337 -0.26687238 0.1827647 0.024840217
-0.27831936 0.20041306 -0.173167 0.00851225 0.33679354 0.10839474 -0.24190827 -0.30986813
-0.36739662 0.1090818 -0.17115867 0.36373785 0.2275897 -0.025791695 0.16846639 0.24395333
-0.356197 0.08126048 0.12963517 -0.038747318 0.25376672 0.013969492 0.25270343 -0.18643768
0.044325568 0.33894497 0.2639925 -0.25545937 -0.08499215 -0.21776846 0.11431742 -0.3847903
-0.1946081 -0.12599295 -0.32019794 -0.09674981 -0.29066923 -0.2792023 -0.40526006 -0.21091522
0.15683508 0.26471737 0.22377022 -0.31677148 -0.00022627242 -0.16298753 0.079981364 0.1280803
0.15596734 -0.2881226 0.34048748 -0.1395276 0.32771912 -0.26238784 -0.15788893 0.24859022
-0.3830356 0.38498622 0.29319406 -0.25251117 -0.24898267 0.031896982 -0.32710126 0.04833107
-0.08564335 -0.14800775 0.25447488 0.2811038 -0.41067362 0.24414374 -0.15211955 -0.378605
-0.12572938 -0.1403951 0.039316885 0.27046052 0.39792368 -0.36818087 0.173513 0.010776961
0.29580662 -0.019163312 0.08648669 0.3803876 -0.19441792 -0.120240524 -0.20653221 -0.331694

embed_e_in.f.0.bias f4 [32]
00000000: 9a05 b13d 22f7 d43e a3ee 8e3e a8eb b83e
00000010: 7304 b13e ce2e 2fbe 5aea ecbc f24e c93d
00000020: a639 28be 0d11 4abe 47af 13ba 31b0 d53e
00000030: f540 d63e 1633 b7be f77e 363e f52b 7a3e
00000040: af28 b23e 2bae 493e 37f6 17be 066f 033e
00000050: 0fea ae3e 5c47 753e f6e7 803e 48b6 d6bd
00000060: 65f7 bebe 1d6a 7abe 53ab 533e 0d9a 563e
00000070: 0d7f c43d 0572 90be ecbf 983e 2306 1fbe
0.086436465 0.41594797 0.2791644 0.3611729 0.34573707 -0.17107698 -0.028920341 0.09829511
-0.16428241 -0.19733067 -0.00056337233 0.41735986 0.41846433 -0.35781163 0.1782187 0.24430831
0.34796664 0.19695346 -0.14840017 0.12835321 0.34162948 0.23953003 0.25176972 -0.10483986
-0.37298122 -0.24454542 0.20670824 0.20957203 0.095945455 -0.2821199 0.29833925 -0.15529685

embed_v_in.f.0.weight f4 [32, 3]
00000000: fa3b adbe ed5c 8ebe 853b 07bf af0e bcbe
00000010: 3e86 403e 5ee2 b1be db2c 0fbf b43f 8abe
00000020: 3150 c23d 9bab c43d 7cfe 053f 7994 4d3d
00000030: e207 123e 0d51 1abe 69ae 243d afe8 acbe
00000040: 962e 4e3e 8288 973e 5b0d e63e e101 163e
00000050: 4d0b 07bf 9975 4ebd c99e 883d 5502 cebe
00000060: 531c 2e3e f1ce 093f b34a 0cbd 94ce b13e
00000070: 6d64 013f 6fb1 a33d c839 b73e 18c5 073f
00000080: 2020 663d 93bd e1bd 5710 1dbd 0ec6 8c3e
00000090: d76b b1be 8e88 c7bc f1c4 86be 0abb 05be
000000a0: c421 ef3e 200f 06bf b970 723e 58d8 b3be
000000b0: 36b9 c43d 01d2 05bf 3959 003f 1e57 0d3f
000000c0: e4fc 0abe 06c7 b3be 61aa 1dbd 7a3f 203c
000000d0: ff4d 07bf 7031 1bbe 3aa9 aabe 9ddd 79be
000000e0: 98ce a63d 8f86 5a3e 883a 8dbe 043e d3bd
000000f0: b96a f2bb d84b 55be e85b 6c3e ed4a 053f
00000100: 290d 343e 5aa5 963d 7935 a03e 9785 983e
00000110: 53a3 06bf e2e7 1abd 40bd 033f 03d9 e43e
00000120: b57a ad3e 886d 30be 440b 0d3d e1bc 883e
00000130: 2de3 19bc 3f3e febc ddd0 f13e 4ad5 d23e
00000140: 10b6 66bd c01c f8be 62e2 2f3e dba6 48bc
00000150: b88c cabe 37eb ccbe 1501 fe3e 6ae4 463d
00000160: 8913 8fbe 30ce 9e3e b503 10bf dde6 2fbd
00000170: a383 ce3e f28b 9dbe 6a85 97bc 7bd9 95be
-0.3383482 -0.27805272 -0.52825195 -0.36729953 0.1880121 -0.34743017 -0.5592782 -0.27001727
0.094879515 0.09603044 0.5234144 0.050190423 0.1426082 -0.15069981 0.040205393 -0.33771273
0.20134959 0.29596335 0.44932064 0.14649154 -0.5275162 -0.05040512 0.06670911 -0.40236154
0.17002992 0.5383139 -0.034250926 0.3472792 0.5054386 0.07992827 0.3578627 0.53035116
0.05618298 -0.110224865 -0.03834566 0.27494854 -0.34652588 -0.024357107 -0.2632213 -0.13059631
0.4670545 -0.5236683 0.23675813 -0.35125995 0.09605639 -0.52273566 0.5013614 0.55211055
-0.13573033 -0.3511278 -0.038492564 0.009780759 -0.5285339 -0.15155578 -0.33332235 -0.24400945
0.081448734 0.21340393 -0.27583718 -0.10314563 -0.0073979762 -0.20829713 0.23081934 0.5206745
0.17583145 0.07355757 0.31290796 0.2978942 -0.52592963 -0.037818797 0.5146065 0.44696817
0.3388268 -0.17229283 0.03443457 0.26706603 -0.009392542 -0.03103554 0.47229663 0.41178352
-0.056325972 -0.48459435 0.17176202 -0.012246813 -0.39560485 -0.40023205 0.496102 0.048557676
-0.27944592 0.31016684 -0.56255656 -0.042944778 0.40334806 -0.30770832 -0.018496234 -0.29267487

embed_v_in.f.0.bias f4 [32]
00000000: 73e4 a1be 77e0 80bd 62ce 9abe 3f7b 313e
00000010: ce08 3f3c 4d87 0bbf a630 06bf 2103 f13d
00000020: a344 603e 8492 c8be a55b 5fbd fa2d c43e
00000030: 2f37 6bbe 2e69 92bd 3011 883e b5e4 cf3e
00000040: 6938 103e 6e72 bcbd c565 d5be 7e44 fbbe
00000050: bb70 d93e 4cbd 653e e872 c7be c5ec 0ebf
00000060: e20d b33e 414f 783e 72a9 eb3e 0d0b 2f3e
00000070: 797e 613e 9066 57be abfb 05bf be74 a23e
-0.31619605 -0.06292813 -0.30235583 0.17332171 0.011659814 -0.5450333 -0.5241798 0.11768175
0.21901183 -0.39174283 -0.05453076 0.38316327 -0.2297027 -0.07148968 0.26575613 0.40604177
0.14084019 -0.09201513 -0.41679206 -0.49075693 0.4246882 0.22435492 -0.38954854 -0.5583003
0.3497153 0.24248983 0.46027714 0.1709406 0.22020902 -0.21035218 -0.5233714 0.31729692

F2E.mlp.f.0.weight f4 [32, 64]
00000000: 4372 753c c4a6 8ebd 4452 afbd 9568 0bbd
00000010: e5be 22bd d0c3 37bd 12da 66bd 2a82 9d3d
00000020: e5ab 89bd f38f 5b3d 6ee1 9c3c ba07 33bc
00000030: b25c 703d d0a2 cd3d 8c5c d1bc 3fa1 2c3c
00000040: 62f7 c33d b9bf 85bd 0b1b 073d 9a2d ba3d
00000050: 9ce2 1cbd a814 8cbd eb13 c0bc 596b 72bd
00000060: c7a6 80bd a17f 493d 8dac 6dbc 17b5 a6bd
00000070: 65c7 a7bd d45f c4bc 810c 97bd 888a 743d
00000080: 1734 38bd d320 afbd 6d80 8fbc 5265 be3c
00000090: 661f e13d 67d3 debd 7e18 04bc c531 02be
000000a0: f208 d2bd e452 87bc 68b7 8e3d 5b35 ae3d
000000b0: bfe7 26bd e1f9 4a3d 8090 f9bd bc78 5dbd
000000c0: 412d eb3d 7930 efbd 7a7e 873d 9bf4 a7bd
000000d0: 7472 bb3c be07 11be 7890 d8bd b452 ccbd
000000e0: 3118 d2bd 3074 94bd 995d 21bc 74b6 f2bd
000000f0: 6a3e 92bd 842f a83c f8ff abbc 5b92 aebd
00000100: f731 b7bc 7ae4 9dbd 7ff3 b9bd 934e a9bd
00000110: d73b 37bd b453 cbbc a8e6 b53d 84d3 9a3d
00000120: 4b0f 5cbc 2c61 3abd 5362 a43d 447c c13a
00000130: 872c 46bd 52bf 8dbd 8038 a53d 9999 ae3d
00000140: 2c7b d8bc 9b1f 5fbd 34b5 77bd 6647 adbd
00000150: 2c1d 6d3d d082 d83d 6cac 62bd 69ca d6bd
00000160: 1374 d73b c97e 0cbe d568 bebc d873 0f3d
00000170: 52ab 5d3d a6ee 3bbd 05d5 883d 4767 ce3c
00000180: 1197 cbbd 7b2e e6bd 522c df3c 9859 b13d
00000190: 7735 ccbd 4f4b 423d 5dc3 eb3c 846d 9b3d
000001a0: fed1 b13d bc25 c5bd 918a a83b b8d8 703d
000001b0: f4dd 463d aa35 d1bd 5d81 e53d 11dd a23c
000001c0: 71d0 ee3b 1a7d f13d 580c a5bd 790e 00bd
000001d0: 4763 a23c cf0d 483d 989a 763d eb5b c83d
000001e0: b256 5a3c 264b 51bd 63ce 993d 9827 d63d
000001f0: a7d1 c33d 134b 19bd b5ac 883d ab0e ac3d
00000200: ab0f 0c3d 2bf0 25bd d8f0 d1bc 3574 fa3d
00000210: 6293 1d3d 7db2 3dbd 759a 00be 06fd bebd
00000220: bf8d 19bd 6057 e6bd f65f b73d bc6c bd3d
00000230: d771 99bd d6ca 3cbd 6d24 b33c e926 933d
00000240: a8a9 81bd 1a61 f0b9 4b76 b5bd be3b eb3d
00000250: c337 313d ce04 fa3c 912e 9f3d 9ca8 ee3d
00000260: 933d 9ebd df7e f9bd 31d8 ec3d 77af de3d
00000270: 208d dc3d 85a4 013e cd5d 28bd 8447 0bbe
00000280: 06c4 09be 2b79 2a3c 4796 f13c d124 f93b
00000290: af6a 863d 6b41 1ebd 48ed 8cbc abe6 ba3d
000002a0: 7e8b 9c3d 57d9 0d3d a04c 913d aad4 36bc
000002b0: 8648 0d3d 6a58 adbd 6ffa 103e ef69 bb3c
000002c0: 8da6 9a3d a9ea 1b3d b0e4 b0bc 770a 003d
000002d0: a5d5 9abd 8ef2 35bd 9df9 d63d 156a a13d
000002e0: 6c36 f6bd 5db0 c8bd 34e7 c13c 0f9d 88bc
000002f0: f8dd 983d ff56 6bbd 6b82 a1bd d3ff e9bd
00000300: e50b 473d c4e8 51bd 56a6 05be ec14 25bd
00000310: 8359 08be e8a5 293d d7ea 043b 13cd 783c
00000320: 4d16 a3bd aef0 b83d ee3b 0fbd 04e9 dabc
00000330: 3321 c1bd d1f9 e8bd d229 603d f0c5 9b3c
00000340: 0d96 0ebd ad3c c23d 3823 c6bb 3e00 303d
00000350: 8996 1e3d b5f3 8bbd df51 853d e986 ec3c
00000360: ce87 09be 7b42 acbd abec 2abd b33e 63bd
00000370: 591d 50bd 2e06 59bc d02c 8c3d 2784 e4bd
00000380: f2a9 913c 6d2c 3c3d 456c 013c 872f cf3d
00000390: 4b52 09bd 44a0 d7bd 5b52 1a3d 84d3 38bd
000003a0: 06a5 a0bd 8220 2ebd 3587 bd3d 2175 353d
000003b0: f881 58bb 04fa 4d3c 0bc6 01be 568f a83d
000003c0: 4cd6 9abc 5dc9 98bd 9343 3fbd 0fa3 6f3c
000003d0: 9501 4e3d dacc 753d 8890 91bd f2d1 d5bd
000003e0: 964f b8bd b3ac a23d e228 d3bc 73c4 6dbd
000003f0: 3de2 23bd 2a5f 743d 6443 9abd 7a9b edbd
0.014980855 -0.06965402 -0.08560613 -0.034035284 -0.039732832 -0.044864476 -0.05636031 0.076908424
-0.067222394 0.053604078 0.019150462 -0.010927135 0.05868215 0.1004082 -0.025556825 0.010536491
0.09568669 -0.06530709 0.032984775 0.09090729 -0.03830205 -0.06839877 -0.023446998 -0.059184406
-0.0628181 0.049193982 -0.014506471 -0.08140009 -0.08192328 -0.023971476 -0.07375432 0.059702426
-0.04497155 -0.085511826 -0.017517293 0.023241673 0.10992317 -0.108801655 -0.00806248 -0.12714298
-0.102556124 -0.016519018 0.06968576 0.085062705 -0.040748354 0.04955471 -0.12185764 -0.05407022
0.11483241 -0.11679167 0.0661592 -0.08200952 0.022881724 -0.1416311 -0.1057443 -0.09976712
-0.102585204 -0.072487235 -0.009848976 -0.118512064 -0.07140811 0.02053047 -0.020996079 -0.08524009
-0.022362692 -0.07709594 -0.09079646 -0.0826694 -0.044734802 -0.024820186 0.08881885 0.07559875
-0.0134313805 -0.045502827 0.08026566 0.0014761765 -0.04838231 -0.06921257 0.08067417 0.0852539
-0.02642592 -0.0544735 -0.060475543 -0.08460884 0.05788915 0.105718255 -0.055340216 -0.104878254
0.0065751164 -0.1372024 -0.023243347 0.035022587 0.054118462 -0.04588189 0.06681255 0.02519573
-0.09940923 -0.11239334 0.027242813 0.08659667 -0.09971135 0.0474351 0.02877968 0.07589248
0.08682631 -0.09626338 0.0051434715 0.05880043 0.048551515 -0.10215314 0.11206315 0.019880803
0.0072880317 0.11791439 -0.08058995 -0.031263802 0.01982273 0.048841294 0.060206026 0.09783157
0.013326334 -0.051097058 0.07510068 0.10456771 0.095614724 -0.037425112 0.06673566 0.08401235
0.03419463 -0.040512245 -0.025627539 0.12229196 0.038470633 -0.046312798 -0.1255892 -0.09325604
-0.037488695 -0.11247134 0.0895385 0.09249255 -0.07492416 -0.046091877 0.021867955 0.07185156
-0.063311875 -0.00045848713 -0.08860453 0.11486004 0.04326607 0.03051987 0.07772554 0.116532534
-0.07726588 -0.12182402 0.11564673 0.10873311 0.10769105 0.12660415 -0.04110508 -0.136015
-0.13453683 0.010404865 0.029490603 0.007603266 0.06563317 -0.038636606 -0.017202988 0.09126028
0.076437935 0.0346311 0.07094693 -0.0111591015 0.034492992 -0.08464129 0.14158033 0.022877662
0.07551298 0.038065586 -0.021593422 0.03125998 -0.07560281 -0.04442077 0.10496829 0.07881562
-0.12022099 -0.097992636 0.023669817 -0.016676454 0.07464212 -0.057456013 -0.078862034 -0.11425748
0.048595328 -0.051247373 -0.13051733 -0.040303156 -0.13315396 0.041417986 0.0020281577 0.015185612
-0.07963238 0.09030281 -0.034969263 -0.026722439 -0.094301604 -0.11375774 0.054727383 0.019015282
-0.03481107 0.09484229 -0.006046679 0.04296898 0.03871778 -0.06833593 0.06509756 0.028872924
-0.13430712 -0.08411118 -0.04172961 -0.055479717 -0.050809238 -0.013246102 0.06844485 -0.111580186
0.017781232 0.045940805 0.007899349 0.10116487 -0.033525746 -0.10528615 0.037676197 -0.045123592
-0.07843976 -0.04251147 0.09254304 0.044301156 -0.0033036452 0.012571815 -0.12673204 0.08230464
-0.018901013 -0.07460282 -0.046695303 0.014626279 0.050294477 0.060009815 -0.07107645 -0.104404345
-0.08999555 0.07943096 -0.02577633 -0.058048677 -0.04001068 0.059661068 -0.07532385 -0.116019204

F2E.mlp.f.0.bias f4 [32]
00000000: f76b babd f37c bfbc c865 edbb 89db 903c
00000010: 2f11 7abc d024 d53d c689 363d fba8 71bd
00000020: 2374 abbd 6a3c 833d 4d4e a93c aee6 bfbd
00000030: 5a47 213d 40a6 603d c49d e9bc 0ec9 9abd
00000040: b27e 95bd 18d2 78bd f8f4 9cbd 3868 9abd
00000050: 8111 d3bd 7eda 3fbd 3c26 3b3d f0f4 d1bd
00000060: a883 023d 548a 8fbd 40f1 633d 3129 a3bc
00000070: e4e6 bebd b087 073e 62f8 1abd bb8d 373c
-0.09102624 -0.02337501 -0.0072447993 0.017682808 -0.015262886 0.10407412 0.044564985 -0.058999043
-0.08371761 0.064080074 0.02066722 -0.093701705 0.039374687 0.05484605 -0.028517611 -0.075578794
-0.07299556 -0.060747236 -0.076639116 -0.075394094 -0.10306073 -0.04683923 0.04569076 -0.10251796
0.03186384 -0.07008806 0.055649996 -0.019917103 -0.09321383 0.13235354 -0.037834533 0.011203225

E2V.mlp.f.0.weight f4 [32, 64]
00000000: a48a 5bbd bde7 9e3d dd23 38bd 2dab 65bd
00000010: aa37 bb3d ee8b a03b 55f2 adbd 5be6 7b3d
00000020: 0681 a7bd e389 b9bd f3a7 0abe 8ac6 05be
00000030: 53fc d73d 2e34 6bbd cbe4 f13d 0868 e33d
00000040: b3fe b03d 0a0c 883d 6b79 8bbd 350b 153d
00000050: 6c32 fbbc 13f0 953d 916a febd e620 e83d
00000060: 4263 2e3d 7bde b9bd 444b 07be 3ae5 393d
00000070: 15b4 8c3d a85f 04be e4d2 f43d a158 b3bd
00000080: 9428 a93d e9af 7abd 4c35 a6bd c7ac 13bd
00000090: 779e 1a3d 8fe3 373d e8be fabd 9530 473d
000000a0: 5305 85bc 68c0 af3c 50fc d13d 3ed5 8ebc
000000b0: f472 103e fab0 7a3d e502 f0bd 18c6 9abd
000000c0: 47de 173d 1739 593d f654 bd3d d641 41bd
000000d0: c1a5 d1bd a6bb b2bc 19a4 dabd 05d4 acbd
000000e0: 40dd 2d39 72d8 943d ba5f b13d 3e92 47bd
000000f0: 047b b43c 7076 e6b9 57a2 d3bc d174 37bd
00000100: e815 e6bd 1727 b33c ed91 c5bd ae5c b13d
00000110: 3ccd 383d 71c1 a2bc 7020 48bd 8743 bbbd
00000120: 603a 9ebd 2dbb e53d 34fa d03d 6f21 723d
00000130: ee41 85bb 8560 ab3d f722 633d ec05 d33d
00000140: fade e53d 7993 bcbd af4c b03d 357c e8bd
00000150: b932 bc3b ca69 acbd 4a70 b0bd 73e6 403d
00000160: 770a 273d d9be f7bd dabe 283d 56f0 06be
00000170: 77c3 8dbd 2dc7 3d3d 3ad7 27bd 32b2 49bd
00000180: fff2 263d 9f5e e93d 3d9d bcbd dbb7 f9bc
00000190: e9a7 dd3c 572a db3d 3525 23bc 2fa6 ffbc
000001a0: 329f 72bb f242 c33c a9bb 80bd 98c8 d0bb
000001b0: c807 cc3c 5575 c63c ca2f c83d 74c0 aa3d
000001c0: cf45 bd3c 2f69 8bbc d535 89bd 601a 8e3d
000001d0: 6250 bfbd 6114 943d 1b31 82bc 7297 99bd
000001e0: 2de3 87bc 4b53 52bd 378b 08bd a828 ddbd
000001f0: 7df4 df3d 61d1 5cbd bd29 84bd 33ea 023e
00000200: ab7b 3fbc 354e d23d ec00 f7bc 7456 1dbd
00000210: 3308 11bc 05d2 8a3d b0c4 25bc 1b79 1dbd
00000220: 70d0 a63d c376 d53b c07d 23bd 3415 f93d
00000230: 1c80 363d baa9 f9bd 4adc 343d 51cd 5cbc
00000240: f700 e1bd 6ebe e23d a203 0e3c 8895 1e3c
00000250: aaa8 e63d 61f8 a2bc 3286 243c 0d5c f5bc
00000260: 14e9 b5bb 5bb1 e73d c35c ef3d 1f73 8cbd
00000270: 7f24 dabd 3da8 cfbd 3edd bbbd e0a3 933d
00000280: fc3c 023e 3260 db3d 78a8 a33d 6409 803d
00000290: f724 ae3d 06e2 c9bd 50c1 63bc 683c 8a39
000002a0: 2681 a5bd 65a3 65bd 2969 a63d 4795 5cbd
000002b0: 9a94 04bd 430a 17bc 4788 c83c d6c1 eabd
000002c0: 9192 d1bd 6533 c4bd 36d4 873c 0532 3abd
000002d0: a78e 733d 7668 093c a3a8 913c 1f9c 96bd
000002e0: a22d 02bd 1ca4 e73c 49d4 9dbd 6c53 e63d
000002f0: cef1 0dbc 0b76 fbbc 69c0 fc3d 71c5 a03c
00000300: 18eb d23d 75d5 b03c 6f1f 413c 15eb d03c
00000310: 602f aebd d299 41bd 2f58 9bbd cd8a 88bd
00000320: 861e 913b 7611 90bb 61b0 b03d 5c46 9bbd
00000330: eee3 c63b 7271 273c 07a6 77bd e3ba 623d
00000340: 6845 49bd d35f 36bd 68b1 9dbd 367f c73d
00000350: ed5b 41bc 4b20 90bd d7f2 8abc 9075 8f3d
00000360: 7025 cabd 6cf4 ab3d 05fb ac3d 6818 a23d
00000370: 983d b0bd 298a 813c 585f de3d 6371 633d
00000380: 1c4a 2a3d 9203 a03d 49ba e2bd cbf8 753b
00000390: df70 a33d 1a85 bc3d 66ce 55bd 2083 fcbd
000003a0: 7072 1d3c 6ee5 57bc aa89 0f3c d3e8 91bd
000003b0: 653e c93d 0faa ab3d cfdc 8fbd 0544 bbbd
000003c0: f6be ef3c 7bab 1d3d c531 a23c 78e7 d6bd
000003d0: afb8 a6bd 4635 cc3d d0de 7ebd 1cee 9cbd
000003e0: 14c1 093d 0fdc ebbb c79e c83d d037 66bd
000003f0: 1542 bbbd 40c9 c5bd d2e4 903c d1d9 1ebd
-0.053599015 0.07759044 -0.044956077 -0.05607145 0.091414765 0.0048994934 -0.08493487 0.06149898
-0.08178906 -0.09059503 -0.1354063 -0.13064018 0.10546174 -0.05742281 0.11811217 0.11103827
0.0864233 0.06642921 -0.06810268 0.03638764 -0.030663691 0.07321181 -0.1242267 0.113344
0.04257513 -0.09075638 -0.13212305 0.045384623 0.068702854 -0.12927115 0.11954287 -0.08757139
0.08259693 -0.061202917 -0.08115634 -0.036053445 0.03774878 0.04489475 -0.12243444 0.048630316
-0.01623789 0.021454051 0.10253203 -0.017435666 0.14106351 0.061203934 -0.11719302 -0.07557315
0.037077215 0.05303296 0.09244721 -0.047181927 -0.10236693 -0.021817993 -0.106758304 -0.08438877
0.00016580988 0.07267846 0.086608365 -0.04872345 0.022031315 -0.0004395726 -0.025834246 -0.04478914
-0.11234647 0.021869225 -0.09646974 0.08660255 0.0451176 -0.01986763 -0.04885906 -0.09143739
-0.07725978 0.112173416 0.102039725 0.059113916 -0.0040666973 0.08368019 0.055453267 0.10303864
0.1122417 -0.09207816 0.08608376 -0.113518156 0.0057433513 -0.08418615 -0.086151674 0.047094774
0.040781464 -0.12096948 0.041197635 -0.13177618 -0.069220476 0.046332527 -0.04097674 -0.049242206
0.040759083 0.11395001 -0.09209678 -0.030483177 0.027057605 0.10701435 -0.009957601 -0.031207172
-0.0037021157 0.023835633 -0.06285793 -0.006371569 0.024906054 0.02422587 0.0977474 0.08337489
0.023104576 -0.017017929 -0.06699721 0.069386244 -0.09341504 0.072304495 -0.015892556 -0.07499589
-0.016587818 -0.051348966 -0.03333589 -0.1079877 0.10935304 -0.053910617 -0.064532734 0.12784652
-0.0116872 0.10268823 -0.030151807 -0.038412526 -0.0088520525 0.06778339 -0.010117695 -0.038445573
0.08145225 0.0065144016 -0.039914846 0.12162247 0.04455577 -0.12190576 0.044155397 -0.013476686
-0.10986512 0.11071478 0.008667858 0.009679206 0.11262639 -0.019893827 0.01004176 -0.02995112
-0.0055514667 0.11313125 0.11687615 -0.06857895 -0.10651492 -0.10139511 -0.09173058 0.07208991
0.12718576 0.10711707 0.07991117 0.06251791 0.08503144 -0.09857564 -0.01390107 0.00026366417
-0.08081274 -0.05606403 0.081255265 -0.0538533 -0.03236828 -0.009218755 0.024479045 -0.114627525
-0.102330334 -0.09580115 0.016580682 -0.04545786 0.059462216 0.008386722 0.017780608 -0.073539965
-0.0317818 0.028276496 -0.07706506 0.1124638 -0.008663608 -0.030695936 0.12341387 0.019625397
0.10298747 0.02158616 0.0117872795 0.02550272 -0.0850513 -0.047265835 -0.07585179 -0.06667099
0.0044286875 -0.0043966128 0.086273916 -0.07581779 0.006069652 0.010219919 -0.06046107 0.05535401
-0.049138457 -0.04452498 -0.07699853 0.097410604 -0.011801702 -0.070374094 -0.016961498 0.07004845
-0.09870422 0.08396229 0.08446316 0.079148114 -0.08605498 0.01581295 0.10858029 0.055528056
0.041574582 0.07813181 -0.11070687 0.0037532325 0.07980513 0.092050746 -0.05219879 -0.123296976
0.009609804 -0.013177259 0.008760849 -0.07124486 0.09826354 0.083820455 -0.07024538 -0.09143833
0.029265862 0.038493615 0.019799123 -0.10493368 -0.08140694 0.099710986 -0.06222421 -0.07662603
0.0336314 -0.007197864 0.097959094 -0.05620557 -0.091434635 -0.09657526 0.017687235 -0.038781945

E2V.mlp.f.0.bias f4 [32]
00000000: d76b 5cbc e389 c7bd c841 5e3d c928 c6bd
00000010: ff48 963d f737 f7bc 4fb2 9bbd 70e0 9bbb
00000020: a634 603d ea90 e63c 1835 c1bc c67e e23c
00000030: 7a82 05be efae eabd c6da eb3d 50f1 55bd
00000040: fdcc 8bbd 8627 e23d f358 793d 93e9 ae3d
00000050: aa32 b9bd 2ac7 6e3d 9bd1 77bd 6a6b 19bd
00000060: 90e7 e63c 620b 14bd 481b a8bd dcee 513d
00000070: 0f08 5f3d 1a9d 713d a751 d7bd 7192 643d
-0.013453445 -0.09743097 0.054261953 -0.09675748 0.07338142 -0.030178053 -0.07602369 -0.0047569796
0.05473771 0.028145272 -0.023584887 0.02764834 -0.13038054 -0.11459147 0.11516337 -0.052232087
-0.06826208 0.11042695 0.060875844 0.085406445 -0.090428665 0.058295406 -0.06050263 -0.037455954
0.02818659 -0.036143668 -0.082083285 0.051253185 0.054451045 0.058987714 -0.10513621 0.05580372

ffLayers.0.mlp.f.0.weight f4 [32, 64]
00000000: 77eb 8d3c fba1 a83d a3aa 1c3d c995 073d
00000010: c3f4 d6bc 75d5 c7bd cc29 303d b15e cebd
00000020: 3335 eabd 49a2 06bc ae14 03be 87cb 37bc
00000030: 7dff 91bc 3696 5b3d 0f17 ac3d 9401 e5bd
00000040: 06f0 62bd 52a9 c4bd 8cc1 40bd 6924 dabc
00000050: d7c5 9fbd 903b d8bd abb0 003e 82b5 80bd
00000060: 614d a53d b513 b43d 999d 7c3d ea58 d7bd
00000070: 25bf 003e 2351 45bd e16a 87bc 592c 03be
00000080: c5e1 e0bd 0e62 0bbe 3a92 94bd 6306 213d
00000090: dc9b f5bd a37e 9ebd bc43 ab3c ca47 01bd
000000a0: c6c0 b03c 720b 253c b387 a53c 1ed2 23bd
000000b0: fe4c 163d 2807 7d3d d1c4 ecbd bfac 73bd
000000c0: a685 063d ff5f 92bd 7062 1fbe 4101 5b3d
000000d0: f9c9 203d 5471 373a 6239 6bbd ca02 14bd
000000e0: 8ab5 e53d 3712 50bd e600 073d 54ab c83d
000000f0: 7560 7b3b 4b19 fabc f759 aabc b40f 04bc
00000100: e4b7 db3b d423 f9bd cbcc b23d bacf 563d
00000110: e886 26bd f4c1 f3bd c7e8 a1bc b3f5 5a3c
00000120: 12a2 593d 8344 ba3d 7cd7 b4bd b85d baba
00000130: ea98 b83d c8d4 02be 7a08 8abd 8af4 abbd
00000140: 401b 923d de20 aebb 8963 ccbd fd1d bf3d
00000150: 2545 76bc 45b7 be3d f8ba c33d 4ff4 d53c
00000160: 350f febd 50ab 41bd d512 883d eda6 d33b
00000170: 0f62 9f3c 8453 e3bc 4c03 913d 0453 68bc
00000180: 5f10 06bd 2639 fc3d 4db7 27bd 8f46 d63c
00000190: dc41 d53d 00f8 a13d ae6c 5cbd e83b 0e3d
000001a0: 321f 8c3d 51c1 6e3d 4624 92bd bf70 96bc
000001b0: 0257 d5bd 79b5 c93d 748f 333c 80e6 4c3d
000001c0: 604d c53d 56b8 db3d feaf 473d 747c cdbd
000001d0: 6a10 383d 8713 253c 17dd 01bb 4c96 b03d
000001e0: b0f6 6abb d1ce 6a3d c611 943d 9131 efbd
000001f0: 89bc d73d efe4 85bd f3a1 2cbd 6f21 e43c
00000200: 6554 ef3d a906 b1bd 29f4 afbd 7b90 923d
00000210: 24c9 6b3c 1e88 22ba 02a2 8a3d cbff 8b3d
00000220: e95e 113e faa9 a43b 1dbd aebd 4eeb 0abe
00000230: e113 3fbb f78c d73d 288c a8bd a5a9 3bbc
00000240: 0a39 a9bd 4f89 c4bd 5c2b 343c 2db2 bebd
00000250: 2b9b 3a3c cfb8 c2bc 78b5 48bd d28c 5a3d
00000260: 7b85 d73c 93a2 4d3c 4241 893c dd73 27bd
00000270: 8727 1abd 3e70 05be 8d3b 4f3c f251 d0bd
00000280: 3d5f 903c b1a2 e33d d795 ef3c 9f12 d4bc
00000290: 04c4 02be 1658 dd3c c306 d1bc 5d81 9fbc
000002a0: a496 523c 5639 d73c e67b e93d 5f3b 063d
000002b0: 3a67 043e daf1 00be 48f4 07bd eeb6 87bd
000002c0: 9b7d 03be f924 10bd b925 893d e9b8 98bd
000002d0: 2eb6 4c3d 1e8b 40bd ec4a 1fbe 68fd 073e
000002e0: 8d4e f9bc cbaf 28bd cae4 4fbd 8038 70bd
000002f0: 50c7 8a3b c55c d5bd e2e4 a53c 841e 323c
00000300: cd37 6d3c 68de 62bd d0b8 47bc ba5f 273d
00000310: 8c0f 5f3c a84d ab3d e6a6 c43d a816 7d3d
00000320: e95c 90bd acb3 82bd 8ee5 90bd d790 f9bc
00000330: 1466 4bbd 1cc6 373d 4908 273c 7660 5fbd
00000340: 9b60 f7bd d159 1b3d bce7 8f3d f1cf 7a3d
00000350: 77b6 d6bc 4df6 a7bd f294 febb ca55 ebbb
00000360: 660d d23d 09c0 0dbd 46ba 30bd 822d 62bd
00000370: e31c 3dbd c454 4d3d 2ae7 9b3d b5e9 b63d
00000380: 9774 a23d c07d b2bc 9e6a 65bd 4853 a73d
00000390: d97e 223c ff9b 963d 7fca e1bd 0e82 7cbd
000003a0: 451a 38bd ec4f 8e3c d36b 553d a285 d639
000003b0: 1257 b9bd 117a 07bb 574a e53d df54 fc3d
000003c0: c2ef b3bd c875 ca3d 02a4 ecbd 2f50 d23d
000003d0: c57e 50bd f09a df3c e91c 933d 289d 9e3d
000003e0: 4b5d 32bd 5583 b93d 457f 063c 02bc e1bd
000003f0: 7fd8 ce3d 8092 fdbc dd4b e93d f8b3 88bc
0.017324192 0.0823402 0.03824867 0.03310183 -0.026239758 -0.097575106 0.04300861 -0.10076655
-0.11435928 -0.008217403 -0.12800857 -0.011217958 -0.017822022 0.05361005 0.084028356 -0.11181942
-0.055404685 -0.09602608 -0.04705958 -0.02662869 -0.07801407 -0.10558236 0.12567393 -0.0628462
0.080713995 0.08792821 0.061673734 -0.10515006 0.12572916 -0.04817308 -0.016530456 -0.12809886
-0.10980562 -0.13611624 -0.07254453 0.03931273 -0.119926184 -0.07738998 0.020906322 -0.031562604
0.021576297 0.01007353 0.020206308 -0.039995305 0.03669452 0.061774403 -0.11560977 -0.059490915
0.0328423 -0.07147216 -0.15564895 0.053467993 0.039255116 0.0006997783 -0.05742777 -0.036135472
0.112162665 -0.05079862 0.03295984 0.09798303 0.0038357053 -0.030529639 -0.020794852 -0.008060385
0.006705271 -0.12165037 0.087304674 0.052444197 -0.040656 -0.11902228 -0.019764317 0.013364243
0.053133078 0.09095099 -0.08830163 -0.0014218604 0.09013541 -0.12776482 -0.06739898 -0.083962515
0.07134104 -0.0053139767 -0.09979922 0.09331892 -0.015031134 0.093123 0.09557146 0.026117472
-0.12405244 -0.047282517 0.06644217 0.006459108 0.019455938 -0.027749784 0.07080707 -0.014179949
-0.032730456 0.12315588 -0.040946294 0.026156692 0.10412952 0.0790863 -0.053814583 0.0347251
0.068418875 0.05828983 -0.07135825 -0.018364308 -0.10416986 0.09849066 0.010959495 0.05002451
0.09633899 0.10728519 0.048751824 -0.10033503 0.04493753 0.010075456 -0.0019815618 0.08622417
-0.0035852604 0.05732614 0.072299525 -0.11679376 0.10534007 -0.06537806 -0.042146634 0.027847974
0.11686019 -0.086438484 -0.08591492 0.07156464 0.014391217 -0.00062000926 0.06769182 0.06835898
0.14196362 0.0050251456 -0.08532164 -0.13566324 -0.0029156136 0.10524934 -0.08229858 -0.011454021
-0.082628325 -0.09596502 0.010996666 -0.09311328 0.011389534 -0.023769764 -0.049001187 0.053356953
0.026308766 0.012550968 0.01675475 -0.04088198 -0.037635352 -0.13031098 0.012648475 -0.1017188
0.017623538 0.11115015 0.029246254 -0.025887785 -0.12770087 0.027019542 -0.02551592 -0.019470865
0.012853298 0.026272457 0.11400585 0.032771464 0.12930003 -0.12592259 -0.03319195 -0.06626688
-0.12840883 -0.03519151 0.06696648 -0.07457144 0.049978428 -0.047007672 -0.15555924 0.1328026
-0.030432964 -0.041183274 -0.0507553 -0.058647633 0.0042351857 -0.10418085 0.020250741 0.010871533
0.014478636 -0.055387884 -0.012190059 0.040862776 0.0136145465 0.08364421 0.09602146 0.061789185
-0.07048971 -0.06381926 -0.07075034 -0.030464573 -0.049657896 0.044866666 0.010194846 -0.05453535
-0.12078973 0.037927452 0.07026622 0.061233465 -0.026210053 -0.08201275 -0.0077692205 -0.0071818577
0.10256462 -0.034606967 -0.043146394 -0.05521918 -0.046170127 0.050129667 0.076124504 0.08931295
0.07932394 -0.021788478 -0.05600988 0.081701815 0.009917938 0.07353973 -0.11024951 -0.061647467
-0.044946928 0.017372094 0.052104782 0.00040916825 -0.090498105 -0.0020672122 0.1119582 0.123208754
-0.087859645 0.09885746 -0.115547195 0.102692 -0.050902147 0.02729556 0.071832485 0.07744819
-0.043546002 0.09058253 0.008209054 -0.11022188 0.10099887 -0.030953646 0.11391423 -0.016687378

ffLayers.0.mlp.f.0.bias f4 [32]
00000000: 2358 1bbc b86a f9bd e4b0 0d3d a649 95bc
00000010: c039 babd 8bce 1fbd a59a dc3d a08f 22bc
00000020: aa06 c13d 7a44 063d c198 f7bc a433 d8bd
00000030: d26f 433c d686 ae3d c3ef 05be ab4c 37bd
00000040: 085a a13d 1049 dd3c 08b5 dfbd c4f5 a23b
00000050: 78ab 56bd 3224 b6bc 0a37 5fbc fba5 7a3d
00000060: 8634 e13d efdb 973d 3c11 e5ba c967 abbc
00000070: 0da4 b4bd 4b21 ad3d 8840 7cbd 99cf 613b
-0.009481463 -0.12178558 0.034592524 -0.018223595 -0.09093046 -0.039015334 0.107716836 -0.009921938
0.09425099 0.032780148 -0.030224206 -0.10556725 0.0119285155 0.08521812 -0.13079743 -0.04475085
0.078785 0.027012378 -0.10923201 0.004973145 -0.05240962 -0.022234056 -0.013623962 0.061193448
0.10996346 0.07414996 -0.001747645 -0.020923512 -0.08820353 0.08453616 -0.06158498 0.0034456013

F2F.mlp.f.0.weight f4 [32, 64]
00000000: 204e 2cbc e260 f1bd 32a4 98bd 3038 ccbd
00000010: 0e95 9fbd 2a96 ad3d c86b 79bd ec86 453d
00000020: a271 b13d 26e0 a73d 0464 423d 4629 9ebd
00000030: a878 c93d d8b9 97bd e8d7 fdbd 2e99 ac3d
00000040: 60c7 b13c 945d 3bbd 4080 733d d4cb 153d
00000050: f2e7 b03d 5450 d63d d6d1 f5bd 8061 b03c
00000060: 78b2 483d 38e1 ac3d 2005 06bd 886a d4bc
00000070: c8ab 983c a047 70bd 2e79 8d3d 34b4 a93d
00000080: e0de c33d c402 95bd a2ec 8abd 10f2 44bc
00000090: fe5b 85bd 66a1 c23d 8091 c0bd 76ae ed3d
000000a0: e42d d73d 6640 8dbd 7e5a a53d 20c1 c83c
000000b0: 288d 933c b86d 3b3d 12c4 a93d 9812 963d
000000c0: a606 ca3d 90d3 263c 1cfc 453d 68d2 51bd
000000d0: aa1e ef3d 387e e13c 2eb7 903d 88f0 d6bc
000000e0: e416 23bd 0e52 bcbd 1853 dabd 1c8e 253d
000000f0: c0ba d13d e0cf 8abb fc0f f33d 0034 d53b
00000100: a48d 72bd 387e 003d 245b b4bd 8061 93bc
00000110: 8263 b73d 28e0 2c3d b8af 1ebd 0476 2c3d
00000120: 5215 eebd 324b 80bd ee87 e53d 68be 243d
00000130: f0f6 263c 14aa f6bd 7ec3 90bd 6e97 cbbd
00000140: 0054 9839 6894 2c3d ce29 debd 3c2e 66bd
00000150: 3665 89bd c600 f33d 1a28 823d 38b8 90bd
00000160: ec80 283d 78a8 fd3c d03f 993c 04db 443d
00000170: 8e46 cc3d 78fb 6a3d 2846 d8bd 6090 983d
00000180: 102b a33c 9ee8 e8bd 3464 07bd 188d 813c
00000190: 40b3 1ebb 709f 30bd 0045 603d 06b8 9dbd
000001a0: d0f8 13bc 80dc d13a 9c25 4b3d f869 01bd
000001b0: 4078 ca3c c0b3 53bb b050 e53d bc27 f7bd
000001c0: cad9 bdbd c4f2 ffbd f0a1 d53c 7ae6 fabd
000001d0: 40f1 38bd 7c64 e2bd 2cbb a4bd 0e9f e9bd
000001e0: d43c 5e3d 2c91 033d f876 ca3c 7455 7f3d
000001f0: 14cf cabd a098 683c 645f 253d b401 2fbd
00000200: 0cda a1bd d01c 3abc b8ee ff3d 0810 fbbd
00000210: 5459 eebd c06c a43b 4046 853b 0020 2c3a
00000220: 2c7d 75bd 6ae5 ccbd 0087 203a 10ec 153c
00000230: d4e1 cb3d 4422 76bd b4de 403d 60b2 873b
00000240: 7ad6 f33d 7a91 a03d 523b d8bd 7408 69bd
00000250: a4db 8f3d 309c 90bd b42b 1c3d f863 e7bc
00000260: 507d fe3c 867b e8bd 40d7 8d3c 8813 d23d
00000270: e4e1 b1bd 629d efbd 00b2 b6b9 98ca 4e3d
00000280: f4b1 bc3d 1e9f ba3d a487 c9bd 66aa ae3d
00000290: 7ad6 9a3d ec17 57bd 6aba c5bd 00e6 64bb
000002a0: 08df 1e3d d0dd f43d a0e0 3f3c e299 b0bd
000002b0: 04fa 8c3d 80d1 5c3d dc0c c3bd ac4f 8e3d
000002c0: eec8 bfbd 8ed4 c13d 6ca3 b9bd 345f fc3d
000002d0: c250 d8bd 2836 7d3d c0f3 763b 3ea7 f83d
000002e0: de66 e23d 3cb7 90bd 80bf feba e4b4 c43d
000002f0: 9418 143d a47c e53d 107c 09bd c077 453b
00000300: c08a 2ebd b05c 283d a449 ad3d 2c5b ccbd
00000310: a096 28bc 96a0 f33d 4c87 063d d053 eb3d
00000320: fcbf 453d 7091 713c 12e3 dd3d ca2b d33d
00000330: 3898 f43c 2874 f9bc a0ec 333d fc78 c7bd
00000340: 2cd3 c43d 58ea f23d 4c85 823d 688c 8abc
00000350: 94f3 ac3d 1861 c73c 4011 3c3b 8851 2ebd
00000360: e0db f5bb 48d4 8abc 1c14 17bd 700d e2bd
00000370: c0f3 99bb 4053 18bd 284d 443d e6ef b43d
00000380: c0d3 90bb c4db 83bd 602e 9abb bc6e 143d
00000390: 08c9 64bd a477 583d fad3 9dbd 7ce7 c93d
000003a0: 0e88 e03d 4a8f ba3d 56fb d13d c066 97bc
000003b0: 18f3 d73c d82f fa3c a060 5d3d 80e7 bf3d
000003c0: 40d6 c33d 8c65 703d 80bf 9bbc 7078 853c
000003d0: 36ad fbbd b871 a9bc 7c17 64bd 0ad2 bb3d
000003e0: e8e5 893c c021 c4bc d813 423d d058 343c
000003f0: f2fc 973d 8033 97bd 4822 c23d d243 b4bd
-0.010516673 -0.11786057 -0.07453193 -0.099716544 -0.07792102 0.08475907 -0.060893804 0.048224375
0.08664252 0.0819705 0.047458664 -0.07722716 0.098374665 -0.07408494 -0.123946965 0.08427654
0.021701515 -0.04574354 0.05944848 0.03657134 0.0863799 0.1046454 -0.12002914 0.021530867
0.048998326 0.084413946 -0.03271973 -0.025929704 0.0186366 -0.058662057 0.06907879 0.08286324
0.095639944 -0.07275918 -0.067834154 -0.012020603 -0.06511687 0.095034406 -0.09402752 0.116055414
0.105068 -0.06897049 0.08073901 0.024506152 0.018011644 0.045758933 0.082893506 0.07327765
0.09864549 0.010182276 0.048336133 -0.05122605 0.116757706 0.027526006 0.07066189 -0.026237741
-0.039816752 -0.09195338 -0.1066038 0.04041873 0.10240698 -0.0042362064 0.11868283 0.006506443
-0.05921711 0.03137037 -0.08806446 -0.017990828 0.089545265 0.04220596 -0.038741797 0.042104736
-0.1162516 -0.06264342 0.11207567 0.040220648 0.01019071 -0.120441586 -0.07068537 -0.09940992
0.00029054284 0.04213372 -0.10847817 -0.056196436 -0.067087576 0.11865382 0.06355305 -0.07066387
0.041138574 0.030964121 0.018707186 0.048060432 0.09974395 0.057368726 -0.10560256 0.07449412
0.019917995 -0.11372493 -0.033054546 0.015814349 -0.0024215728 -0.0431208 0.054753304 -0.07701115
-0.0090314895 0.0016011149 0.049596414 -0.0315952 0.024715543 -0.0032303184 0.111970305 -0.120681256
-0.092700556 -0.12497476 0.026078194 -0.12250991 -0.04515195 -0.11054322 -0.08043513 -0.114072904
0.05425723 0.03212087 0.024714932 0.062337354 -0.09902778 0.014196545 0.040374175 -0.042726234
-0.07902917 -0.0113594085 0.12496704 -0.12258917 -0.11638132 0.005017847 0.0040672123 0.00065660477
-0.059933826 -0.10004695 0.0006123632 0.00915052 0.09955183 -0.060091272 0.047087386 0.004141137
0.119061425 0.078402475 -0.105581895 -0.056892827 0.07024315 -0.070610404 0.038127616 -0.028245911
0.031065613 -0.11351685 0.017314553 0.102576315 -0.08685663 -0.1169994 -0.00034846365 0.050486177
0.09213629 0.091123804 -0.098403245 0.08528595 0.075604394 -0.052513048 -0.09654696 -0.003492713
0.038786918 0.1195637 0.01171127 -0.08623101 0.06883624 0.053910732 -0.09523937 0.0694879
-0.09364496 0.0946437 -0.090643734 0.12322846 -0.10562278 0.061819226 0.0037681907 0.12141274
0.110547766 -0.07066199 -0.0019435734 0.09604815 0.036156252 0.11205414 -0.03356558 0.003013119
-0.04261279 0.04110402 0.084613115 -0.09978327 -0.010289818 0.11895864 0.032843873 0.11490595
0.048278794 0.014744148 0.10834326 0.103110865 0.02985774 -0.030450895 0.043926835 -0.09739873
0.0961059 0.11861104 0.063730806 -0.016912654 0.08444896 0.02433829 0.0028696805 -0.042558223
-0.007503018 -0.016946927 -0.036884412 -0.11037719 -0.0046982467 -0.03718877 0.047925144 0.088348195
-0.004419774 -0.06438401 -0.0047052354 0.036238417 -0.05585578 0.052848473 -0.07706447 0.09858605
0.1096345 0.091093615 0.10253017 -0.018481612 0.026361033 0.030540392 0.054047227 0.09370327
0.09562349 0.058690593 -0.019012213 0.01629278 -0.12288897 -0.020684108 -0.05568646 0.09170921
0.01683326 -0.023941875 0.047382206 0.011007503 0.07421292 -0.0738287 0.09479195 -0.08801998

F2F.mlp.f.0.bias f4 [32]
00000000: fa58 febd 20d4 d3bc 889f 9a3d 60a6 ff3c
00000010: 000b 08ba 1424 7e3d 207b e6bd 4a67 8bbd
00000020: 7e9c e93d e21f e43d fe49 853d 80ff e5bd
00000030: 7a75 d9bd 4858 e73c 5005 66bc c0c4 213b
00000040: 2003 183d a009 57bd 802a 073c 7ec1 a73d
00000050: be58 f73d 50fc 983d 3063 84bd 80b1 453b
00000060: 3280 84bd d0f7 923c 8830 df3c b056 593c
00000070: b08e 183d 3c06 eabd 964d 9a3d c2b4 febd
-0.12419315 -0.025857985 0.075499594 0.031207263 -0.00051896274 0.062046126 -0.11253953 -0.0680681
0.11406802 0.11138894 0.065082535 -0.112303734 -0.1061811 0.028240338 -0.014039353 0.0024683923
0.037112355 -0.052499413 0.008249879 0.081912026 0.12077473 0.0747 -0.06464231 0.0030165613
-0.06469764 0.017940432 0.027244821 0.013265297 0.037245452 -0.1142697 0.075343296 -0.124368206

E2F.mlp.f.0.weight f4 [32, 64]
00000000: dbe3 31ba d44b 103d 4fad bb3d ec28 403c
00000010: 98e8 8cbd 1ea2 febd ad06 df3c 5a57 f9bd
00000020: acdd 523d 6192 89bd df95 82bd 21aa 3bbd
00000030: 53d5 b0bd dd74 b9bc 2d78 a53d 41e6 94bd
00000040: 0d1a 243d 6e52 f33c 539b 5e3d 8698 2fbd
00000050: 804d a6bd cca4 8dbd 2ec7 e8bd ac5c 523d
00000060: f079 01bd 71df b33d ebd3 793d a45b d33a
00000070: 2ecd c4bd 969a ddbd b630 d53d b63e ea3d
00000080: 35e9 bf3d 8e30 3e3d a663 63bc 7ef7 e0bc
00000090: 32cc f53d 187d 0f3e 4653 d6bc fb19 303d
000000a0: f5f1 963d 0756 1dbd 2ac6 643d c7b0 c53d
000000b0: 6fa5 dabd 79e7 a1bd 4916 80bd 7da5 163d
000000c0: 8f94 cc3c 4358 b03d 09db ed3d 6fcf a4bc
000000d0: 75d1 67bd 0ff3 ff3c d19a afbd ae0b d73d
000000e0: e6c9 6f3b db9b b13d 50cf 243c e2db ac3d
000000f0: 40ef 693d b6d1 343d b65f cdbd a6b2 98bc
00000100: 5ded 863d c45c 05bc dd2a e0bc ae42 08be
00000110: 17d4 a83d 8938 aebd 383e a33d 0ad9 113d
00000120: ee9c 923c 8711 753d 9ebe c63d fbfd e3bd
00000130: 0c60 5e3c 8af5 eebb e304 223d b0ea a2ba
00000140: 797c 07bb 3157 bbbd e73e a8bd 90e3 f03c
00000150: 637a c5bd f18f 9cbd d0eb 95ba c963 a83d
00000160: 0ca9 b63c 3f71 d0bd add2 973d 412c bbbc
00000170: f821 cc3d b704 a5bc 6b2c c03c 26ea bfbd
00000180: e97b 093e edc1 bb3d 046e 2fbc 6483 073e
00000190: 1653 cd3d 26ed 053d 565e ae3d 11b6 8f3d
000001a0: a35a 3bbd 868e 20bc f472 b43c ff7b 0b3e
000001b0: d7f2 8a3c 5729 a8bc 944a 903c 389f 0f3e
000001c0: 4e31 3c3d ef83 c9bd 9e59 903d 2c78 1abc
000001d0: 0e0d 833d bcb3 a4bd fa0b 44b9 35c6 a13d
000001e0: b4bc fdbc 8668 673c c317 41bd d569 2a3d
000001f0: 3d9b 723d 74b9 8c39 5cd9 b7bd b26a d53c
00000200: f2d8 d43a ff30 15bd 4aab a0bc 84ef fa3d
00000210: b995 41bc 987a 863c 185c 9abd 4dc0 1d3d
00000220: 8447 58bd 2caf 0e3d a2d6 11bc 56d4 973d
00000230: 46de 903c 06eb fdbd 5eaa f43d ebd9 2a3e
00000240: 98f4 98bc 946e e83d 1aea 8fbc af7c a33d
00000250: aa57 ba3d 264a 01bd 9b0c 223e bec4 793c
00000260: 3b95 163d b2b5 d0bc c21d e73b 5d5c 103d
00000270: bab5 903d be78 ecbd cccd f03d 0044 723a
00000280: 4beb 733d a381 443d ae50 98bd 4139 26bc
00000290: c735 e1bd 9cfd 513d 6e81 d23c c406 d33d
000002a0: daf8 1dbd 5bee cfbd b104 123c 140f c1bd
000002b0: 8a07 b0bd b39f adbd b269 963d 6d33 f93d
000002c0: d30a a63d 275a 203d 791e e4bc c2fd 313a
000002d0: 34c5 34bd 0874 ecbd cabd d3bd b7c1 ec3d
000002e0: 7a57 8ebd 2bdb f93c f493 ed3c 3712 0c3c
000002f0: 25cc 8dbd aa96 dd3d d05a f4bd 90b6 80bb
00000300: 5119 05be 169e f5bb 9bec b63d 56f2 0dbb
00000310: 8d56 1fbe 1fc8 da3d 8438 083e e937 a53d
00000320: 1949 803b 6d18 9fbd 5c6c 04bd a151 353c
00000330: 0032 92bd 8738 bc3d 5c2d 8cbd 807e 36bd
00000340: c0cd 35bd 3f9b 213d b17a e93b be01 3d3d
00000350: c6d4 043e 6f4c 483d b18b 3abe b443 b0bd
00000360: fd5c 833c 7d59 87bd 59ad 513c d34c 1ebe
00000370: 3c87 1abd c29a b9b9 d8e8 5e3d a671 723d
00000380: 8301 2dbd 3b26 a6bc 0966 5d3d 7748 b4bd
00000390: c312 333d e608 26bd 3f27 133d ed3b e7bd
000003a0: 27be 033d 7686 413d 97a2 063d 0da6 c9bd
000003b0: cab5 01bd 7074 d53d 8541 debc e569 003d
000003c0: 426c 65bd 8518 c33d 9e47 f93c d4ed 0b3e
000003d0: 2cd5 78bd 6ba9 a93d 82d0 b6bb 8143 25bd
000003e0: 442d c53c aba9 00be 37a5 90bd 435f 74bc
000003f0: 9f11 023d 3dcf 043e 69f5 ca3d 62af 7f3d
-0.0006785967 0.035228565 0.09163915 0.011728507 -0.06880301 -0.12433265 0.027224863 -0.12174864
0.051480934 -0.06717373 -0.06376242 -0.045816544 -0.08634438 -0.022638733 0.08079562 -0.0727048
0.040063906 0.029702391 0.054347347 -0.042870067 -0.08120251 -0.06916198 -0.113661155 0.05135791
-0.03161043 0.087828524 0.060993116 0.0016125333 -0.096094474 -0.108205006 0.104096815 0.114377424
0.093706526 0.046433024 -0.0138787385 -0.027461763 0.12001838 0.14012563 -0.026162755 0.042993527
0.073703684 -0.03841212 0.055853046 0.09652858 -0.10676085 -0.07905478 -0.062542506 0.036778916
0.024973182 0.086105846 0.11614043 -0.020118443 -0.05659624 0.031243829 -0.08574451 0.105002746
0.0036588847 0.08672305 0.010059193 0.08440377 0.057112932 0.04414531 -0.10028021 -0.018639874
0.06588242 -0.008139793 -0.027364189 -0.13306686 0.08243578 -0.08506877 0.07970852 0.035607375
0.017897096 0.05983117 0.09704326 -0.11132427 0.013572704 -0.007292454 0.03955544 -0.0012429561
-0.0020673557 -0.0914749 -0.08215123 0.029405385 -0.09642484 -0.07644642 -0.0011438075 0.082221575
0.022297405 -0.1017785 0.0741323 -0.02284825 0.099674165 -0.02014385 0.02345868 -0.09370832
0.13426174 0.09167848 -0.010707382 0.13233715 0.10025613 0.032696865 0.08514087 0.07017148
-0.045740735 -0.009799605 0.02202747 0.1362152 0.016961498 -0.020527525 0.017613687 0.14025581
0.045945458 -0.098396175 0.07048343 -0.009428065 0.06398974 -0.08042094 -0.00018696478 0.07899133
-0.03097377 0.014124041 -0.0471418 0.041604836 0.059230078 0.00026841054 -0.08977005 0.026051853
0.0016238971 -0.03642368 -0.019612927 0.12252715 -0.011815482 0.01641588 -0.07537097 0.03851347
-0.052802578 0.034835026 -0.00890127 0.07413547 0.017684113 -0.12398343 0.119465575 0.16684692
-0.018671319 0.11349216 -0.017567683 0.07982766 0.09098752 -0.031564854 0.15825121 0.015244661
0.03676341 -0.025477264 0.007053108 0.035244334 0.070659116 -0.11546467 0.11758003 0.00092417
0.059550565 0.047975194 -0.074372634 -0.010145486 -0.10996585 0.05126725 0.025696483 0.10304025
-0.0385674 -0.101528846 0.008912251 -0.09426704 -0.08595188 -0.08477726 0.073443785 0.12168012
0.08107533 0.039148476 -0.027846562 0.0006789827 -0.04413338 -0.11545569 -0.10338934 0.11560386
-0.069502786 0.030500015 0.029001214 0.008549265 -0.06923703 0.108197525 -0.119313836 -0.003928013
-0.12997939 -0.007495652 0.08931848 -0.0021659336 -0.1556036 0.10682701 0.13302809 0.08067305
0.003914964 -0.07768331 -0.032329902 0.011066825 -0.07138443 0.09190469 -0.06844589 -0.044554234
-0.04438567 0.039454695 0.0071252217 0.04614424 0.12971792 0.048901018 -0.1821735 -0.08606663
0.016035551 -0.066088654 0.012797677 -0.15458994 -0.037726626 -0.00035401253 0.054421276 0.059190415
-0.04223777 -0.020281902 0.054052386 -0.08802884 0.043719064 -0.04053583 0.0359261 -0.11290727
0.032163765 0.047247373 0.0328699 -0.09846125 -0.03166751 0.10422599 -0.027130852 0.03135099
-0.056011446 0.09526161 0.030429658 0.13664943 -0.06075017 0.08284267 -0.0055790553 -0.04034758
0.024069436 -0.12564723 -0.07062762 -0.01491529 0.031755086 0.1296968 0.099100895 0.062423117

E2F.mlp.f.0.bias f4 [32]
00000000: 40d2 86bd 4e94 94bd 9f89 3c3a 98f5 0fbd
00000010: e806 0d3b 53b4 6b3d 61f6 143d 3e56 e5bb
00000020: 4162 4a3a 12c2 0bbd 152c 173d e04e e5bc
00000030: e995 b4bd 5114 02bd ec2e 4b3d 1403 bdbd
00000040: 548d 3f3d 40d6 0cbd ba5b 903d 20be c9bb
00000050: b253 31bd d627 b23d 7008 2e3d 8123 9ebd
00000060: 078c dfbd 3edb ddbc b99b 95bd 2638 b73d
00000070: 9091 bd3d d3af bfbd baab da3d d7ba 93bd
-0.06583071 -0.072548494 0.0007192138 -0.035146326 0.002151901 0.057545017 0.036367778 -0.0069988063
0.00077203294 -0.034120627 0.036907274 -0.027991712 -0.088176556 -0.031757656 0.049605295 -0.09229103
0.04676564 -0.034384012 0.070487455 -0.006156698 -0.04329271 0.08699004 0.042488515 -0.077216156
-0.1091538 -0.027082082 -0.07305092 0.08946256 0.092562795 -0.09359708 0.106772855 -0.07213371
