checkpoints/sketch_prediction_2/stroke_embed_model.pth (torch, 5160 bytes, 4 tensors)

fc1.weight f4 [32, 6]
0	0xbec0a256	-0.37623852
1	0xbda94023	-0.08264186
2	0xbecbe65b	-0.39824185
3	0xbe006eb2	-0.12542227
4	0x3e1ef1ea	0.1552197
5	0x3ec224de	0.37918752
6	0xbe422c71	-0.18962266
7	0xbd6bf001	-0.057601932
8	0x3e4dd201	0.20099641
9	0xbe0ca06e	-0.13733074
10	0xbdb8017c	-0.08984658
11	0xbd314111	-0.043274943
12	0x3eac635b	0.33669552
13	0xbe885d36	-0.26633614
14	0xbe65a637	-0.22426687
15	0x3e15151c	0.14558834
16	0xbe721b09	-0.23643126
17	0x3e1ccb65	0.15311964
18	0x3e842a56	0.2581355
19	0x3e6e68ed	0.23282214
20	0xbec52f45	-0.38512626
21	0xbdf6c25e	-0.12048791
22	0x3e3410f7	0.17584597
23	0x3de7cee7	0.1131876
24	0xbc24a44d	-0.010048938
25	0xbeb55b6e	-0.35421318
26	0x3e963ab1	0.29341653
27	0xbdad806b	-0.084717594
28	0x3e6a7ec1	0.22899915
29	0xbd9506de	-0.072767004
30	0xbe495035	-0.19659503
31	0x3ec39c98	0.3820541
32	0x3ed560ec	0.41675508
33	0xbe6c605c	-0.23083633
34	0x3eb0fe06	0.34568805
35	0xbeb6bf25	-0.35692707
36	0xbd652d58	-0.055951446
37	0x3eb5df3f	0.35521886
38	0xbd1091af	-0.035295185
39	0xbe14afc2	-0.14520171
40	0xbd2dcdb0	-0.042432487
41	0xbde83d41	-0.11339808
42	0x3d2e46f5	0.04254814
43	0xbebeab57	-0.37240097
44	0x3d8d8d4a	0.069117144
45	0xbe791789	-0.24325384
46	0xbda97ff4	-0.08276358
47	0xbd7777d7	-0.060417023
48	0x3e80b30f	0.2513661
49	0xbe9b1f05	-0.30297104
50	0x3e41611f	0.18884705
51	0x3ed175e7	0.40910265
52	0x3e8fad39	0.28061846
53	0xbd9f9b6e	-0.07793318
54	0xbdedceda	-0.116117194
55	0x3ed29f9e	0.41137403
56	0xbeba8a07	-0.36433432
57	0x3d41084c	0.047127053
58	0xbe95a257	-0.29225418
59	0x3e97df6b	0.29662642
60	0xbebf93b4	-0.37417376
61	0x3ea954cf	0.33072516
62	0xbb994d9a	-0.0046784403
63	0x3e13533a	0.14387217
64	0xbdd333e6	-0.10312633
65	0xbec2b357	-0.3802745
66	0xbe93934f	-0.28823325
67	0x3eb1f78f	0.34759185
68	0x3ecc3840	0.39886665
69	0xbe1dd01a	-0.15411416
70	0x3ec016c4	0.3751737
71	0x3a412ffe	0.0007369517
72	0xbdb2ce9c	-0.08730814
73	0xbe7abb6b	-0.24485557
74	0xbd8572a7	-0.06516009
75	0x3e600b8d	0.21879406
76	0xbe075462	-0.13215783
77	0x3e652b18	0.2237972
78	0xbecfce6c	-0.40587175
79	0x3e2504dd	0.16115136
80	0xbebff5d1	-0.3749223
81	0x3ebda845	0.37042442
82	0xbda33c4a	-0.079704836
83	0x3e317bdf	0.1733241
84	0xbea9f472	-0.3319431
85	0x3ea015e2	0.31266695
86	0xbd5b2160	-0.053498626
87	0x3dfc2829	0.123123474
88	0x3e518c9b	0.20463793
89	0x3dce409a	0.100709155
90	0xbeaf458a	-0.34232742
91	0x3a2b5a74	0.0006536611
92	0x3ec7ee15	0.3904883
93	0x3e2290dd	0.15875573
94	0xbbfa6165	-0.007641005
95	0xbdb62a99	-0.088948436
96	0x3dc951f6	0.09830086
97	0x3e80f99a	0.2519043
98	0xbe92434c	-0.28566968
99	0x3e638e17	0.22222172
100	0xbe7c6b36	-0.24650273
101	0xbe200736	-0.15627751
102	0x3e544b82	0.20731929
103	0x3eb4813e	0.35254854
104	0x3e124502	0.14284137
105	0x3e0f90d6	0.14020094
106	0x3d457a21	0.048212174
107	0xbea56ffa	-0.32311994
108	0x3e8e1137	0.2774751
109	0x3e23bcbf	0.1598997
110	0x3df6c2b9	0.12048859
111	0x3eb1f192	0.34754616
112	0xbe8d9ab4	-0.27657092
113	0x3d6a2144	0.05716063
114	0xbdc674b4	-0.09690228
115	0x3dccb555	0.09995524
116	0xbe72da44	-0.23716074
117	0xbe378967	-0.17923509
118	0xbd79c07d	-0.060974587
119	0x3eb3a542	0.3508702
120	0xbe8cc65e	-0.27495092
121	0x3e36cc9e	0.17851493
122	0xbd5a035a	-0.053225853
123	0xbe556850	-0.20840573
124	0xbe3e4b75	-0.18583472
125	0x3da458e1	0.08024765
126	0x3eb736fc	0.35784137
127	0xbe4f454d	-0.2024128
128	0x3d96ee68	0.07369691
129	0xbd39ef38	-0.045394152
130	0xbe1ea780	-0.15493584
131	0xbebfb7d6	-0.37444943
132	0xbe641b76	-0.222761
133	0x3e0895f4	0.13338453
134	0xbeb456b2	-0.35222393
135	0x3c74cbb8	0.014941148
136	0xbe7cc20c	-0.24683398
137	0x3d94b9c4	0.072619945
138	0x3c57c197	0.013168714
139	0xbe921366	-0.28530425
140	0x3e49cc61	0.1970687
141	0xbc14649d	-0.009057191
142	0x3d4fc60a	0.050725974
143	0xbe30a57e	-0.1725063
144	0xbe2f97a4	-0.1714769
145	0x3c670cc5	0.014102166
146	0x3e4fa6b5	0.20278437
147	0xbe9a34b6	-0.3011834
148	0xbe5be533	-0.21474151
149	0xbeaf9060	-0.34289837
150	0xbebf3b1a	-0.37349778
151	0x3dcbe86c	0.0995644
152	0x3dab3615	0.08359925
153	0xbea2d151	-0.3180032
154	0xbda69532	-0.081339255
155	0x3e57bb4e	0.21067545
156	0x3d9a2b87	0.075278334
157	0x3e0f4090	0.13989472
158	0x3ec8da10	0.39228868
159	0xbe7c0181	-0.24609949
160	0xbe8a3eaf	-0.2700095
161	0xbe765088	-0.24054158
162	0xbecbc718	-0.39800334
163	0x3eccf455	0.4003016
164	0x3e7cd9d1	0.24692465
165	0x3e295888	0.16537678
166	0xbde77387	-0.11301332
167	0xbe4e2898	-0.20132673
168	0x3e9f003c	0.31054866
169	0x3e9b0b41	0.30282024
170	0x3e48b72f	0.19601129
171	0x3e805909	0.25067928
172	0xbe99c3cd	-0.30032197
173	0x3dddfde9	0.10839445
174	0xbc86292b	-0.016377052
175	0x3d90d96a	0.070727184
176	0xbe3ae26b	-0.18250434
177	0xbd31cfe2	-0.043411143
178	0xbe4334f3	-0.19063167
179	0xbe9a303c	-0.30114925
180	0xbeb1cbe5	-0.34725872
181	0x3d5bf2eb	0.05369846
182	0xbe8242cb	-0.25441584
183	0xbeb117e7	-0.3458855
184	0xbdbb7032	-0.09152259
185	0x3e8178c1	0.2528744
186	0xbe97120a	-0.2950595
187	0x3cb0f448	0.021600857
188	0x3ebd0d1b	0.3692406
189	0xbcb79d1d	-0.022413785
190	0x3ecd503a	0.4010027
191	0x3de03a96	0.109486744

fc1.bias f4 [32]
0	0xbd259638	-0.040426463
1	0xbeb930d9	-0.3617008
2	0xbd9f912d	-0.07791362
3	0xbd54ea28	-0.05198112
4	0xbd728a70	-0.059214056
5	0xbd9ee897	-0.07759207
6	0x3e1f5b1d	0.155621
7	0x3e8ab537	0.2709138
8	0x3df091af	0.11746537
9	0x3cf766a1	0.030200304
10	0x3a692f84	0.0008895325
11	0xbe441807	-0.1914979
12	0x3d5c2ea9	0.053755436
13	0x3e9c1e6b	0.30491957
14	0xbe505890	-0.20346284
15	0x3ecc2bad	0.39877072
16	0x3cca3b8b	0.024686595
17	0x3e3c433a	0.1838502
18	0x3e018477	0.12648188
19	0xbec1c20c	-0.3784336
20	0x3eb3b0e8	0.35095906
21	0xbe4d25f5	-0.2003401
22	0xbc4de488	-0.012566693
23	0x3cefe321	0.029283108
24	0xbe7f33c7	-0.24922095
25	0xbcda69d5	-0.026661793
26	0x3de09fc8	0.10967976
27	0x3e2f969e	0.171473
28	0xbd868a44	-0.06569341
29	0x3eb1829a	0.34669954
30	0xbe38edf1	-0.18059517
31	0xbe8198ca	-0.2531188

fc2.weight f4 [16, 32]
0	0x3dc7823f	0.09741639
1	0xbccc32bd	-0.024926538
2	0x3e2369e6	0.15958366
3	0xbdbfded8	-0.09368676
4	0x3e150374	0.14552099
5	0xbd832187	-0.06402879
6	0xbe1074f6	-0.14107117
7	0xbdbecd5c	-0.09316513
8	0xbe1dda60	-0.15415335
9	0xbdf55367	-0.11978798
10	0xbe123ea6	-0.14281711
11	0xbe2384fd	-0.159687
12	0xbdd2e324	-0.1029723
13	0xbd3273c3	-0.04356743
14	0xbe012512	-0.12611797
15	0x3ce8d769	0.028423028
16	0x3c700770	0.014650211
17	0x3e2a8f31	0.16656186
18	0xbd8b9720	-0.06815934
19	0x3e172426	0.14759883
20	0xbddaa789	-0.10676486
21	0x3e24ec74	0.16105825
22	0xbe352dc3	-0.17693238
23	0xbd50ad82	-0.05094672
24	0x3da85e7c	0.082211465
25	0x3d375fd0	0.04476911
26	0xbd948cda	-0.07253428
27	0x3def842b	0.11695131
28	0xbdac278e	-0.08405982
29	0xbe00f440	-0.12593174
30	0xbe26c283	-0.16285138
31	0x3d5dee0e	0.054182105
32	0x3e2ecb4e	0.17069742
33	0x3d9232c0	0.07138586
34	0x3deb4dbc	0.11489436
35	0xbe0fa2fd	-0.14027019
36	0x3d802ce2	0.06258561
37	0x3dd951cf	0.10611307
38	0x3e24fe05	0.16112526
39	0xbda7324f	-0.081638925
40	0x3bf699bd	0.0075256513
41	0x3e0e75fb	0.13912193
42	0x3de8daf5	0.11369888
43	0x3e383e9d	0.17992635
44	0x3d81da3f	0.06340455
45	0x3e0ccfe7	0.13751183
46	0x3dbe9ff9	0.09307856
47	0x3dcd7e94	0.100339085
48	0x3ca0e076	0.019638281
49	0x3e1b9717	0.15194355
50	0x3a88e10b	0.0010443045
51	0xbe0f1427	-0.13972531
52	0xbdaea69d	-0.08527873
53	0xbdb2019c	-0.08691713
54	0x3d175847	0.036949422
55	0xbe160f60	-0.14654303
56	0x3da4dce8	0.08049947
57	0x3cac6ea9	0.02104886
58	0x3da0a33b	0.07843634
59	0xbc16f50f	-0.0092137
60	0x3d69978f	0.057029303
61	0x3e23fe68	0.16015017
62	0x3d445344	0.04793097
63	0x3b82e9d7	0.003995161
64	0x3de5683d	0.112015225
65	0x3de46b14	0.11153236
66	0xbe1269e6	-0.1429821
67	0xbcb0ad4d	-0.021567011
68	0x3db79f61	0.08965946
69	0xbc67a1d6	-0.014137706
70	0xbe3d0547	-0.18459044
71	0x3dd0b24f	0.1019026
72	0xbd1fa0ff	-0.038971897
73	0xbe0b651e	-0.13612792
74	0xbda20b43	-0.07912304
75	0x3d0731f7	0.033006635
76	0x3e0a2ce0	0.13493681
77	0x3dde31b9	0.108493276
78	0x3dcb3767	0.099226765
79	0x3cbd52ed	0.023110831
80	0x3d04010d	0.032227565
81	0x3cf29be8	0.029615358
82	0x3cc11da6	0.023573708
83	0x3e0d12cb	0.137767
84	0xbe1877f0	-0.14889503
85	0x3c82516f	0.015907971
86	0xbd5e9044	-0.0543368
87	0x3cc09b4f	0.023511557
88	0x3dc5491c	0.09633085
89	0x3e1e2765	0.15444715
90	0x3dd342ec	0.10315499
91	0xbd979658	-0.07401723
92	0xbdfe414f	-0.124148004
93	0xbe15b5c8	-0.14620125
94	0xbe0f77c9	-0.14010538
95	0xbdc76646	-0.09736304
96	0x3deaa5d8	0.114574134
97	0x3d79f36b	0.061023157
98	0xbd2b79d9	-0.04186425
99	0xbe2f0835	-0.17092974
100	0x3c465320	0.0121047795
101	0xbe1eeab1	-0.15519215
102	0xbd76598a	-0.060143985
103	0x3d98fb7d	0.074698426
104	0x3c96c2d0	0.01840344
105	0x3de612a7	0.112340264
106	0xbe100fd9	-0.14068545
107	0x3c49402d	0.012283367
108	0x3de332bf	0.110936634
109	0x3db923b9	0.09040017
110	0xbdf58040	-0.11987352
111	0xbe12f809	-0.1435243
112	0x3d2cdaaf	0.04220074
113	0xbda98446	-0.08277182
114	0x3e1155db	0.14192908
115	0x3e23841d	0.15968366
116	0xbc6a0db2	-0.014285492
117	0xbe33c5c6	-0.17555913
118	0x3da36466	0.07978134
119	0x3dc1b97e	0.09459208
120	0xbd962730	-0.07331693
121	0x3e19d0e2	0.15021089
122	0xbdf931d1	-0.12167705
123	0x3dc0470a	0.093885496
124	0xbd6770f7	-0.056504216
125	0xbdd027b2	-0.10163821
126	0xbe17680c	-0.14785784
127	0xbe29041f	-0.16505478
128	0xbc528c56	-0.0128508415
129	0xbdc641d4	-0.096805245
130	0x3ddce441	0.107857235
131	0x3d44b8b3	0.048027705
132	0x3d852a4f	0.0650221
133	0xbdcb4f29	-0.09927208
134	0x3e348731	0.17629696
135	0xbdece2d9	-0.11566705
136	0x3e1e991a	0.15488091
137	0xbe1cc476	-0.15309319
138	0xbd39347b	-0.045216065
139	0xbcfe7562	-0.031061832
140	0x3d2de9d3	0.04245932
141	0x3c5ec18b	0.013595949
142	0x3d780bae	0.060558014
143	0x3d1ec7db	0.038764816
144	0x3e37c838	0.17947471
145	0xbe252db2	-0.16130713
146	0xbe17fab3	-0.14841728
147	0xbdfb7ad6	-0.122792885
148	0xbe1f5ee0	-0.15563536
149	0xbdf5e9f8	-0.120075166
150	0xbe13eb6e	-0.14445278
151	0x3de5fadc	0.11229488
152	0x3d61ae07	0.055097606
153	0xbd6c4cab	-0.057690304
154	0xbdb212fb	-0.086950265
155	0x3db15c9d	0.08660243
156	0xbca6232b	-0.020280441
157	0x3c528275	0.012848486
158	0xbe00e2a0	-0.1258645
159	0xbdc5011b	-0.096193515
160	0x3e15cc7c	0.14628786
161	0xbe0a5165	-0.13507612
162	0xbc81fd72	-0.015867922
163	0xbd883bdb	-0.066520415
164	0xbcd7f9ce	-0.026364233
165	0x3db2ddbb	0.08733698
166	0x3ac28221	0.0014839807
167	0xbd0366eb	-0.032080572
168	0xbd65b83a	-0.056083895
169	0xbe2dd588	-0.16975987
170	0x3e214a6c	0.15751046
171	0xbe3e22be	-0.1856794
172	0x3e19bcca	0.15013424
173	0x3cc4fa8e	0.024045255
174	0x3d466227	0.04843345
175	0xbde92c3f	-0.113853924
176	0xbd329367	-0.043597605
177	0x3caba1d9	0.020951198
178	0xbe0abe7a	-0.13549224
179	0xbe26a7a2	-0.16274884
180	0x3e10329b	0.14081804
181	0xbcace62b	-0.021105846
182	0x3e2872db	0.16450064
183	0xbcde2409	-0.027116792
184	0x3b350f8e	0.002762768
185	0xbe245e3d	-0.16051574
186	0x3cf55451	0.029947432
187	0x3dffc886	0.12489419
188	0xbbbccdef	-0.005761854
189	0xbb98f95b	-0.0046683974
190	0x3d5b3ed0	0.0535267
191	0x3e198990	0.14993882
192	0xbdff02e9	-0.12451727
193	0xbe017963	-0.12643962
194	0xbd61ec05	-0.055156726
195	0xbd92e2c1	-0.07172156
196	0xbe0c91a4	-0.13727432
197	0x3dcf964f	0.10136091
198	0xbd189b8f	-0.037257727
199	0xbe141291	-0.14460208
200	0xbcb90006	-0.022583019
201	0x3dd49152	0.1037928
202	0xbd287720	-0.04112923
203	0xbe1d18ae	-0.15341446
204	0x3e3223e2	0.173965
205	0x3b7bf22d	0.0038443909
206	0x3dd71448	0.10501915
207	0x3d818c22	0.06325556
208	0x3d525902	0.051354416
209	0x3d6ab675	0.05730291
210	0xbcd1df79	-0.025619255
211	0xbd25170a	-0.040305175
212	0xbd84f475	-0.06491939
213	0xbd756b14	-0.05991657
214	0xbe106bef	-0.14103673
215	0xbe1abba6	-0.15110645
216	0xbd45d8eb	-0.048302572
217	0xbdbbd9f5	-0.091724314
218	0x3e24599c	0.16049808
219	0x3d98d00c	0.07461557
220	0x3de3da60	0.11125636
221	0x3d80f399	0.062964626
222	0x3e27470c	0.16335696
223	0xbd984505	-0.074350394
224	0x3dc6bb95	0.09703747
225	0x3d6a605c	0.0572208
226	0xbd92015c	-0.071291655
227	0xbc5d6e5e	-0.013515083
228	0xbd15c26d	-0.036562372
229	0xbc07e063	-0.008293244
230	0xbe0644e1	-0.13112213
231	0xbd3e2182	-0.046418674
232	0xbe380aa0	-0.17972803
233	0xbdc747ce	-0.097304925
234	0xbda1dbf5	-0.079032816
235	0x3dbaba00	0.09117508
236	0xbe2c52e0	-0.1682849
237	0xbdba19c4	-0.09086946
238	0x3e040a84	0.12894636
239	0xbd9b1271	-0.07571877
240	0xbddf52fb	-0.10904499
241	0x3d6e4d89	0.058179412
242	0xbd944822	-0.07240321
243	0xbdae201b	-0.085022174
244	0xbd95eb58	-0.07320279
245	0xbd8cc362	-0.06873204
246	0x3d910f21	0.07082964
247	0xbcddcc41	-0.027074935
248	0xbe38f6d3	-0.18062906
249	0x3dbebf06	0.093137786
250	0xbba623dc	-0.0050701927
251	0xbc4257b8	-0.011861734
252	0x3ddc70e0	0.10763717
253	0xbd0f6a74	-0.03501363
254	0x3ddc789f	0.10765194
255	0x3cdf1007	0.027229322

fc2.bias f4 [16]
0	0x3d3ac4b2	0.04559774
1	0xbd1fcc27	-0.039013054
2	0x3bf87323	0.0075820847
3	0xbda0cf50	-0.07852042
4	0x3db07617	0.08616274
5	0x3ce31f30	0.027724832
6	0xbc35d5a2	-0.011098297
7	0xbd954b9d	-0.07289813
8	0xbb4d5e48	-0.0031336714
9	0xbd20868d	-0.039190818
10	0xbe24c0b1	-0.16089131
11	0xbda4aa72	-0.08040322
12	0xbe1cae1b	-0.15300791
13	0xbd8d5297	-0.069005184
14	0x3e3c0520	0.1836133
15	0x3daa7678	0.08323377
