checkpoints/sketch_prediction_2/stroke_embed_model.pth (torch, 5160 bytes, 4 tensors)

fc1.weight f4 [32, 6]
-0.06951736 0.035293374 0.19787495 -0.047980886 0.08709395 0.17862901 0.41472793 0.25247535
0.18292324 0.02903008 -0.16826518 0.28301156 0.47486222 0.23301199 -0.078705676 -0.38450056
-0.124824375 -0.18750188 -0.13808726 -0.25587463 -0.29353452 -0.13120393 0.17892851 0.15208669
-0.37019175 0.21972539 -0.049873885 0.3365512 0.14983633 0.3434286 0.35696205 -0.077527285
-0.24899983 0.27276742 -0.08742983 0.26887238 -0.12338631 0.17137448 0.06007952 -0.4039879
-0.016467443 0.10388153 0.15513515 0.0575929 -0.2946295 0.0042764745 -0.210073 0.22507435
-0.09500014 0.32969874 0.07443671 0.26223522 -0.008812206 -0.044059828 0.17459269 -0.14290652
-0.24703513 -0.33427984 0.12657 0.33224016 0.18426077 0.41364488 0.28272417 0.19926885
-0.37332043 0.19590849 -0.08196622 0.21064147 -0.20692813 0.16446799 0.29814267 -0.40138304
0.16418469 -0.4756684 0.03289734 0.28786197 0.37868544 -0.3003332 0.27795792 -0.39476106
0.09997675 0.46089947 -0.19799414 -0.1442163 0.12277513 0.17502175 -0.38768518 0.035493262
0.31953102 0.14017373 -0.33763582 -0.15896195 -0.27205032 0.33560497 0.2339024 -0.1788656
-0.19948487 -0.36099544 0.06667406 -0.35547918 -0.34363037 -0.34076643 -0.2009672 0.20684455
0.3259352 0.07211244 -0.15592642 0.08414048 0.32931453 0.4892457 0.116531804 0.24043298
-0.43498695 0.036275968 -0.15534909 0.0761034 0.24736243 0.21194282 0.17702651 0.31326988
-0.11654626 -0.047963288 0.07093666 -0.08949727 0.3467967 0.3608104 0.31131044 -0.1881693
-0.20396663 -0.35663015 -0.026423063 0.013356441 -0.32947218 0.21010894 -0.450863 0.023575906
0.05998011 0.3131813 -0.18311875 0.24671537 -0.1962136 0.21685083 -0.47171468 -0.15990034
-0.1367909 0.22306804 0.31947634 -0.18812557 0.24935389 -0.1931753 0.22515826 -0.15864985
-0.21610947 -0.2948749 0.12709808 0.3722871 0.40956524 -0.002747068 0.37196857 -0.1726407
-0.13926628 0.18400414 0.2993661 -0.43861562 0.080060214 -0.06827068 -0.039774623 -0.39768168
-0.09452257 0.09533314 0.2641327 -0.4155006 0.0041352566 -0.05032845 -0.16433023 -0.33039168
0.28863087 0.34348154 0.2841112 0.3788606 0.3502295 -0.43519562 -0.077955835 0.29826838
0.14047001 0.20646343 0.037992503 -0.2040897 0.13714477 0.2649604 0.43271524 -0.34596547
00000000: 1e5f 8ebd c98f 103d bb9f 4a3e 9b87 44bd
00000010: 505e b23d 86ea 363e 3857 d43e 7344 813e
00000020: 3b50 3b3e 7ed0 ed3c b54d 2cbe e4e6 903e
00000030: 2421 f33e b29a 6e3e 7130 a1bd 42dd c4be
00000040: eca3 ffbd 7e00 40be bf66 0dbe 0002 83be
00000050: 284a 96be 535a 06be 0939 373e 9dbc 1b3e
00000060: c689 bdbe b1ff 603e 8f48 4cbd 7050 ac3e
00000070: b26e 193e e0d5 af3e bbc3 b63e a0c6 9ebd
00000080: d0f9 7ebe 2ca8 8b3e 690e b3bd a4a9 893e
00000090: f6b1 fcbd cb7c 2f3e f115 763d 81d7 cebe
000000a0: bbe6 86bc d7bf d43d c0db 1e3e 88e6 6b3d
000000b0: aed9 96be ab21 8c3b 601d 57be e479 663e
000000c0: 6f8f c2bd 46ce a83e 4672 983d b243 863e
000000d0: 1261 10bc 1478 34bd 6dc8 323e 1656 12be
000000e0: c7f6 7cbe ba26 abbe 919b 013e 621b aa3e
000000f0: dbae 3c3e 43c9 d33e 39c1 903e 220d 4c3e
00000100: db23 bfbe 3c9c 483e e8dd a7bd 66b2 573e
00000110: f8e4 53be 4c6a 283e 28a6 983e 1482 cdbe
00000120: 0820 283e cf8a f3be 5cbf 063d a562 933e
00000130: 0fe3 c13e 46c5 99be 8050 8e3e 1f1e cabe
00000140: 9cc0 cc3d 04fb eb3e fabe 4abe 70ad 13be
00000150: 8771 fb3d e738 333e ac7e c6be 6261 113d
00000160: 9299 a33e b489 0f3e 9ade acbe ecc6 22be
00000170: 2e4a 8bbe 6ad4 ab3e 1c84 6f3e 8b28 37be
00000180: c345 4cbe 65d4 b8be 698c 883d 5e01 b6be
00000190: 52f0 afbe f078 aebe 58ca 4dbe 0fcf 533e
000001a0: fbe0 a63e b0af 933d 2dab 1fbe d851 ac3d
000001b0: ea9b a83e 6a7e fa3e 3aa8 ee3d 1034 763e
000001c0: 9cb6 debe 1c96 143d d513 1fbe 19dc 9b3d
000001d0: 944c 7d3e 8a07 593e 7046 353e e964 a03e
000001e0: ceaf eebd 2775 44bd 3d47 913d 584a b7bd
000001f0: 568f b13e 24bc b83e 1564 9f3e 74af 40be
00000200: a1dc 50be 3a98 b6be 2e75 d8bc f9d4 5a3c
00000210: 94b0 a8be cc26 573e 84d7 e6be 4222 c13c
00000220: b4ad 753d 4d59 a03e 7b83 3bbe f4a2 7c3e
00000230: 38ec 48be 250e 5e3e 9684 f1be eabc 23be
00000240: ea12 0cbe f36b 643e 6792 a33e fda3 40be
00000250: a056 7f3e bfcf 45be e38f 663e 1b75 22be
00000260: cd4b 5dbe d8f9 96be 0026 023e 6a9c be3e
00000270: 89b2 d13e 2708 34bb aa72 be3e b9c8 30be
00000280: d29b 0ebe 956b 3c3e 8346 993e 3a92 e0be
00000290: 9cf6 a33d 80d1 8bbd b7ea 22bd ef9c cbbe
000002a0: 0d95 c1bd 053e c33d 673c 873e 7fbc d4be
000002b0: 0c81 873b 3425 4ebd 2f46 28be 1929 a9be
000002c0: 6dc7 933e d0dc af3e 0677 913e 04fa c13e
000002d0: 4851 b33e f6d1 debe 4fa7 9fbd a2b6 983e
000002e0: 5fd7 0f3e 266b 533e 079e 1b3d e4fc 50be
000002f0: ae6f 0c3e e4a8 873e da8c dd3e 6322 b1be

fc1.bias f4 [32]
-0.11186823 -0.039216865 -0.18826465 0.259599 0.1427014 -0.3638902 -0.19501142 -0.3906811
0.06131506 0.15665421 -0.32690215 -0.30195475 0.31619143 0.3950803 -0.36870104 -0.02254579
-0.21358913 -0.36479086 0.12523298 0.010904138 -0.3584244 -0.35192195 0.35189044 -0.19430134
-0.24420178 0.21656023 0.3348898 -0.27290767 0.052207515 0.008890406 0.076635286 -0.3048861
00000000: 2c1b e5bd dda1 20bd 73c8 40be 29ea 843e
00000010: 5120 123e d14f babe 13b1 47be 5a07 c8be
00000020: 8025 7b3d f669 203e b85f a7be d099 9abe
00000030: d8e3 a13e f747 ca3e 62c6 bcbe f3b1 b8bc
00000040: 1cb7 5abe dec5 babe 133d 003e 45a7 323c
00000050: 6783 b7be 1d2f b4be fc2a b43e eef6 46be
00000060: 0810 7abe f7c1 5d3e ad76 ab3e 8eba 8bbe
00000070: 8cd7 553d 11a9 113c f6f2 9c3d 081a 9cbe

fc2.weight f4 [16, 32]
-0.16097912 0.0738579 -0.38840973 0.031899087 0.11312692 0.012953621 -0.008511235 0.030894067
0.106162965 0.098858975 0.06053351 0.054995548 -0.019889247 0.11198054 -0.19922915 0.2917489
0.08364545 0.15022999 -0.06310861 0.19777067 0.21611379 -0.12411338 0.17584664 -0.063134484
0.009251563 0.03172503 -0.14212298 0.06186481 -0.23678778 0.26248845 0.060844123 0.08437915
-0.13868043 -0.065009154 -0.17483085 0.16062807 0.1466447 -0.10632553 0.04998046 0.08646414
-0.15367588 -0.022318507 -0.09804795 0.07221798 0.19526836 0.016222311 0.029269826 0.22061631
0.11235543 -0.04540324 0.14664799 0.045974642 0.10267102 -0.108379394 0.018369352 0.12423839
-0.0018734065 0.07672821 0.07884685 -0.004961564 0.0077570574 0.12277352 0.0046260245 -0.08792121
-0.17134495 0.050576475 -0.036446214 -0.092339434 -0.08628498 -0.13285074 0.005363663 0.17797977
-0.10077661 -0.0027533167 -0.112669595 0.063041426 -0.094157286 0.12882656 -0.13430122 0.18009013
0.019933905 0.050554827 -0.09926637 0.03900762 0.010137961 -0.06698128 0.1615428 0.00042620988
-0.11612715 0.102847084 0.08085072 -0.10888995 -0.13373485 -0.00531925 0.07041717 -0.17512822
0.09457706 -0.17163609 -0.31777573 0.15655568 -0.012788831 -0.07199613 0.04456058 -0.017136648
0.09025444 -0.002559884 -0.1018563 0.040858544 -0.027179567 0.15234421 -0.041406903 -0.034438927
0.13829693 -0.11734896 0.112970784 -0.019331863 0.02341876 0.033991314 0.20091596 -0.1799531
-0.2430104 0.14274564 0.017179303 -0.04883112 -0.016982296 -0.02592919 -0.088335 0.14525029
-0.0002532305 0.1921007 0.39389813 -0.18169506 -0.06481561 -0.011778078 0.17569037 0.27188405
-0.08054667 -0.026569707 0.051645573 0.024366176 -0.16572714 -0.14268988 0.0055988636 -0.057947755
0.046775598 0.17308708 0.19775632 0.000925372 0.093107685 0.22627334 -0.1773409 0.18670835
0.0016814834 -0.006912425 -0.00088416727 0.020290248 0.19378473 -0.2442517 0.00972475 -0.15768743
0.10441139 -0.15744199 -0.0377413 0.1792204 0.04344466 -0.056456737 0.10909608 -0.12737451
-0.14502761 0.094903186 0.02722483 -0.08825776 0.05098121 0.025860872 0.07600066 -0.0056265756
-0.09214055 -0.17131527 -0.088177316 0.0009474108 0.010798004 0.044617176 0.1007345 -0.02484034
0.07468362 -0.02310741 -0.0642897 0.14112708 0.0119743785 0.13853593 -0.060020912 0.0054395134
-0.00980217 -0.039310217 0.2105565 -0.13316268 -0.21121639 0.12985258 0.17040195 0.16146955
-0.020198904 -0.20714277 0.06601167 0.11329154 -0.21551712 0.14784889 -0.08154122 -0.20399988
0.04960181 -0.13630566 0.11164047 0.085050605 0.08941433 -0.021448845 -0.16245247 0.05907158
0.0755361 0.09627583 0.05326033 -0.13342898 0.079746924 -0.16772133 -0.10585636 -0.10984292
0.2006956 -0.11791688 -0.2704027 -0.0248011 0.055202905 -0.051145222 -0.05024593 -0.15255749
-0.042909794 -0.023991453 -0.059616078 -0.007882625 0.111208014 0.0816346 -0.12315066 0.19376205
0.117124714 -0.10806583 0.055191565 0.12772553 -0.08453603 -0.056554865 -0.077191755 0.09270451
-0.20181711 -0.00984465 -0.010476222 -0.037504975 0.094006084 -0.018991573 -0.05168991 0.16139704
00000000: b6d7 24be d042 973d a4dd c6be 9ea8 023d
00000010: 16af e73d 6d3b 543c b572 0bbc 8e15 fd3c
00000020: f86b d93d 9376 ca3d fcf1 773d 0343 613d
00000030: c6ee a2bc 0e56 e53d ba02 4cbe 1d60 953e
00000040: 4e4e ab3d e4d5 193e 163f 81bd 6584 4a3e
00000050: ef4c 5d3e 282f febd 2411 343e a74c 81bd
00000060: de93 173c 1bf2 013d b088 11be f465 7d3d
00000070: 7f78 72be e364 863e b037 793d face ac3d
00000080: 3e02 0ebe 8523 85bd dc06 33be af7b 243e
00000090: 072a 163e 33c1 d9bd 50b8 4c3d 1c14 b13d
000000a0: 365d 1dbe 4dd5 b6bc 5dcd c8bd 05e7 933d
000000b0: 6ef4 473e a7e4 843c 46c7 ef3c 3ee9 613e
000000c0: 9b1a e63d bff8 39bd e42a 163e e84f 3c3d
000000d0: 2f45 d23d 04f6 ddbd 537b 963c b270 fe3d
000000e0: 178d f5ba ae23 9d3d 757a a13d 9e94 a2bb
000000f0: ea2e fe3b af70 fb3d e895 973b 0910 b4bd
00000100: 0d75 2fbe 4729 4f3d a048 15bd 751c bdbd
00000110: 2eb6 b0bd 060a 08be abc1 af3b 5440 363e
00000120: f863 cebd fd70 34bb 51bf e6bd dd1b 813d
00000130: 89d5 c0bd 1ceb 033e 4286 09be 8c69 383e
00000140: 6e4c a33c 9412 4f3d 2b4c cbbd 74c6 1f3d
00000150: b119 263c 7b2d 89bd 7a6b 253e ec74 df39
00000160: 12d4 edbd 7ea1 d23d 1095 a53d b201 dfbd
00000170: caf1 08be 1a4d aebb e136 903d d054 33be
00000180: 9eb1 c13d 5fc1 2fbe 80b3 a2be 2250 203e
00000190: 3f88 51bc b572 93bd 2885 363d 2862 8cbc
000001a0: 52d7 b83d bac3 27bb 099a d0bd 4a5b 273d
000001b0: afa7 debc 1f00 1c3e 499a 29bd d50f 0dbd
000001c0: b69d 0d3e a754 f0bd 3a5d e73d db5d 9ebc
000001d0: b3d8 bf3c 7a3a 0b3d eabc 4d3e a045 38be
000001e0: b8d7 78be ea2b 123e 9cbb 8c3c 2403 48bd
000001f0: 751e 8bbc 7469 d4bc fbe8 b4bd 7ebc 143e
00000200: 06c4 84b9 0cb6 443e 04ad c93e 450e 3abe
00000210: 0cbe 84bd d7f8 40bc 2de8 333e 6334 8b3e
00000220: a7f5 a4bd b7a8 d9bc 4f8a 533d 939b c73c
00000230: 60b4 29be 4c1d 12be ac76 b73b a05a 6dbd
00000240: c597 3f3d bd3d 313e a280 4a3e aa94 723a
00000250: 3eaf be3d 33b4 673e da98 35be 7930 3f3e
00000260: 3865 dc3a a081 e2bb 76c7 67ba bc37 a63c
00000270: 816f 463e 1e1d 7abe 8f54 1f3c d078 21be
00000280: a4d5 d53d 7938 21be 9f96 1abd 8d85 373e
00000290: 07f3 313d 2e3f 67bd c46d df3d 776e 02be
000002a0: 1e82 14be 9a5c c23d 9b06 df3c 7cc0 b4bd
000002b0: acd1 503d 2eda d33c 3ca6 9b3d 235f b8bb
000002c0: 2fb4 bcbd 456d 2fbe 4f96 b4bd aa5b 783a
000002d0: 1dea 303c 80c0 363d e44d ce3d f87d cbbc
000002e0: baf3 983d c04b bdbc 51aa 83bd 9e83 103e
000002f0: 2f30 443c 5ddc 0d3e 7dd8 75bd f23d b23b
00000300: 4899 20bc c003 21bd 209c 573e cc5b 08be
00000310: 1c49 58be 13f8 043e d97d 2e3e 4658 253e
00000320: 2c78 a5bc 3c1d 54be 2031 873d 6505 e83d
00000330: 85b0 5cbe b365 173e 15ff a6bd 58e5 50be
00000340: 442b 4b3d b693 0bbe c2a3 e43d 032f ae3d
00000350: dc1e b73d 7db5 afbc f159 26be 0bf5 713d
00000360: acb2 9a3d 432c c53d 8127 5a3d 9ba1 08be
00000370: 5b52 a33d 24bf 2bbe 38cb d8bd 53f5 e0bd
00000380: 2683 4d3e 687e f1bd 3972 8abe ad2b cbbc
00000390: 711c 623d a77d 51bd adce 4dbd 0838 1cbe
000003a0: 2ec2 2fbd b989 c4bc fd2f 74bd 2026 01bc
000003b0: 07c1 e33d 0b30 a73d 6a36 fcbd 8f69 463e
000003c0: 15df ef3d 9e51 ddbd 8d10 623d 7bca 023e
000003d0: 3a21 adbd 13a6 67bd b616 9ebd dddb bd3d
000003e0: 25a9 4ebe 744b 21bc 76a4 2bbc d19e 19bd
000003f0: 4386 c03d 3794 9bbc cdb8 53bd 4445 253e

fc2.bias f4 [16]
0.011075398 -0.078390606 0.024939995 0.02347771 -0.11137123 -0.026840426 -0.06276963 -0.095539756
-0.020038988 -0.0062181763 0.039420314 -0.03994523 -0.1013017 0.12323682 0.0094876345 -0.104595505
00000000: 9675 353c 418b a0bd f64e cc3c 5454 c03c
00000010: 9916 e4bd 74e0 dbbc 5d8d 80bd 59aa c3bd
00000020: ce28 a4bc d8c1 cbbb 3277 213d 9c9d 23bd
00000030: 4477 cfbd 9663 fc3d 0672 1b3c 2b36 d6bd
