checkpoints/sketch_prediction_2/stroke_embed_model.pth (torch, 5160 bytes, 4 tensors)

fc1.weight f4 [32, 6]
000000 94 dd fa 3b 71 10 8f 3e ad 98 4c 3e 51 5a c5 be
       0.0076558087 0.2794223 0.19980116 -0.38545468
000010 03 c0 47 be fe 56 20 be 1d 52 d1 3d b6 1e e1 be
       -0.1950684 -0.15658185 0.1022074 -0.43968743
000020 8f 87 d1 bd a1 e4 73 3e 2c bf c2 3e af f2 c9 bc
       -0.10230934 0.23817684 0.38036478 -0.024651853
000030 4b bb a1 3e 0a 2e 7e 3c 0e 92 89 3e 73 9c a9 be
       0.31588206 0.015513906 0.26869243 -0.33127174
000040 2e d2 93 3d b1 66 b3 be f8 f8 94 3d b4 67 f4 bd
       0.07217823 -0.35039285 0.072740495 -0.11933842
000050 e2 4f 20 3d b1 64 b3 bd fb 76 9b bd 30 2b ae be
       0.039138682 -0.0875944 -0.07591053 -0.34017324
000060 fe c2 50 be db 70 4a be b5 6e 18 3d 24 2e c3 3e
       -0.20386884 -0.19769613 0.037214953 0.3812114
000070 4f 23 b9 3d fd af d4 bb 18 40 c4 3d b7 c0 46 3e
       0.09039938 -0.006490706 0.095825374 0.19409452
000080 6c 98 1f 3e 07 28 f3 3d 76 49 5d be cf 4e a8 be
       0.15585488 0.11872869 -0.21610054 -0.32872626
000090 0f d0 cd 3e 47 32 51 bc bc e6 ba 3e 29 d9 75 be
       0.401978 -0.012768335 0.3650416 -0.24008621
0000a0 b2 47 a8 be d7 a8 c1 be 15 13 68 be ce 37 14 bd
       -0.328672 -0.37824127 -0.22663529 -0.036186032
0000b0 b4 1e 1e 3e 4d bf 84 3e 1e 6b ba 3e 6b 7b e7 3d
       0.154414 0.259272 0.3640985 0.11302837
0000c0 0f 9a c4 3e 4d 7d 99 3d 8e b0 d2 3d 28 e5 54 be
       0.38398787 0.07494602 0.102875814 -0.20790541
0000d0 87 89 0a be 4f 0e 75 be 56 d9 53 3b 2a 50 a2 3e
       -0.13529025 -0.2393124 0.0032325587 0.31701785
0000e0 4a 5b a3 bd f8 da c9 bd 9a 35 95 3e 18 d3 aa be
       -0.079763964 -0.09856218 0.29142457 -0.33364177
0000f0 d2 c1 72 be 8c e2 b9 3e 06 98 59 bd 7e cb a1 3e
       -0.23706749 0.36305654 -0.053123496 0.31600565
000100 dc 4a 96 3e cd 40 3d be 5a 93 ec bb d0 0f 99 3e
       0.29353988 -0.18481751 -0.007219714 0.29894876
000110 0a 88 62 be 76 78 df bd f5 c2 a0 3c 95 e1 7f 3e
       -0.22122207 -0.10911648 0.019624213 0.24988396
000120 e4 89 2a 3e 24 55 63 bd f2 83 7f bd 89 ff 46 3e
       0.16654164 -0.05550112 -0.062381692 0.19433416
000130 b4 45 65 3e 1c c9 5c 3e c5 e3 df bc fa b0 19 bd
       0.22389871 0.21561092 -0.027330289 -0.037522294
000140 45 a0 8a 3e d4 ce a5 be 7e b0 0e 3c d4 84 77 be
       0.270754 -0.3238436 0.008709071 -0.24171764
000150 fa 45 fd bd 37 f6 86 bd 80 1f 09 be 32 9b 03 3e
       -0.123668626 -0.065899305 -0.13390923 0.12852171
000160 17 41 97 3e 83 51 b0 bd 3b 29 4f 3e dd 67 65 bd
       0.29541847 -0.08609297 0.20230572 -0.056007255
000170 58 2c ad 3c f6 1a f6 3c 6f 6a a4 3d f7 e8 32 be
       0.021139309 0.030042153 0.08028113 -0.17471682
000180 49 be 67 be 08 c5 53 3e fa 0b ac be b1 a2 d2 3e
       -0.22631182 0.2068063 -0.33602887 0.4113975
000190 e3 f6 a4 bd 0a 90 56 be 44 72 a9 bd 0d cd 2d be
       -0.080549024 -0.20953384 -0.082737476 -0.16972752
0001a0 64 b9 9b 3e ea 47 af be 87 6c 2e 3e a9 8b 9e 3e
       0.3041488 -0.34234554 0.17033587 0.30965927
0001b0 7a 8f e4 be 9e 86 a7 3d 57 3b fe 3d d2 95 4e be
       -0.44640714 0.08179973 0.12413662 -0.2017434
0001c0 48 f4 a8 3e c2 c2 cb 3e fb a8 11 be bd 7d a0 3e
       0.32998872 0.39797026 -0.14224617 0.3134593
0001d0 b0 c9 02 3e c7 48 eb bd d2 97 70 be 99 9a e7 bd
       0.1277225 -0.114884906 -0.23495415 -0.11308784
0001e0 a5 c6 89 3d 8d 8d ed bd ac 02 1e be 86 3e 77 3d
       0.067273416 -0.11599264 -0.15430707 0.06036236
0001f0 3a 48 92 3d ba 56 a7 3e 98 f2 8b 3e be 46 87 be
       0.071426824 0.32683355 0.27333522 -0.2642116
000200 ac 86 48 bc 37 8c c4 be 05 4f 99 3e 73 0b c2 be
       -0.0122391395 -0.38388225 0.299431 -0.3789936
000210 de 58 07 be 5c 05 ea be 7b fd be bd 7a 60 85 3e
       -0.13217494 -0.45707214 -0.09325691 0.26050168
000220 4d 7f b3 3e 16 53 95 3e b1 a2 94 be 4e 64 b3 3e
       0.3505806 0.29164952 -0.29030374 0.35037464
000230 34 c5 af be 00 79 8a 3e 86 33 c3 3c 88 e6 a7 bd
       -0.34330142 0.2704544 0.02382828 -0.08198267
000240 e9 a7 34 bd 9f e5 aa 3e de ec 9d 3e 22 57 3f 3e
       -0.044105444 0.33378312 0.30844778 0.18685582
000250 05 4d fb be 43 c4 50 3e 25 c5 a9 3e dd 8e 9a 3e
       -0.490822 0.20387368 0.33158222 0.3018712
000260 6c 89 d0 bd 36 33 4b be 72 a7 98 be 77 b7 86 bc
       -0.10182461 -0.19843754 -0.2981525 -0.016444905
000270 04 a8 86 3e 4e b4 ee bd c6 a1 05 be 0e 56 2a 3e
       0.2630006 -0.11655484 -0.13049993 0.1663439
000280 91 a5 83 3d 09 3b db be 35 ae fe bd 07 dc d6 be
       0.06428064 -0.42818478 -0.12435571 -0.41964743
000290 43 56 c3 3e b5 64 28 be 5f ff 99 3d ac 16 5d be
       0.3815175 -0.16444667 0.07519411 -0.2159068
0002a0 1d 13 35 be bd 1f c7 be b2 74 29 3d be 5b 23 3d
       -0.17683072 -0.38891402 0.041371055 0.039882414
0002b0 8a e0 a9 3c 68 1f c7 3e d7 19 b3 be ab 45 9f 3d
       0.020736951 0.3889115 -0.34980652 0.0777696
0002c0 94 83 1f bd e7 ec ee 3d e0 92 4f 3e fd 2e 18 be
       -0.038943842 0.11666279 0.20270872 -0.14861675
0002d0 62 89 b2 be 54 51 b7 be 4e 8e ac 3d ca 09 a1 3e
       -0.3487044 -0.35804236 0.0842558 0.3145278
0002e0 d1 85 c2 3d d0 36 a9 3e 96 0f 87 be 71 73 87 bd
       0.0949818 0.3304963 -0.2637908 -0.066138156
0002f0 a9 27 cc be 21 a5 9a be 34 1c bd be 5a 6b 41 3e
       -0.39874008 -0.30204108 -0.3693558 0.18888608

fc1.bias f4 [32]
000000 88 ac 4d 3e 8a 6e d7 be 0e 21 60 3e 11 f9 75 be
       0.20085347 -0.42076522 0.2188761 -0.24020793
000010 3d 90 09 be 22 d3 ba 3e 64 72 45 3e 11 cd a3 3e
       -0.13433929 0.36489207 0.19281918 0.3199239
000020 8d 6e e1 3d e9 0d af 3e 9d 83 a6 3e a2 52 86 3e
       0.11007414 0.341903 0.32522288 0.2623492
000030 ec a2 4b be 84 4d a2 3e 4e 1b 61 bd b1 9c 86 3e
       -0.19886369 0.31699765 -0.05495768 0.2629142
000040 b1 2d 9a be db b2 b8 be 08 20 8a 3e f6 0b 9e be
       -0.30112985 -0.36073956 0.26977563 -0.308685
000050 64 3f 5a be d4 71 f5 3d 55 53 57 3e f6 23 a0 be
       -0.21313244 0.119846016 0.21027882 -0.31277436
000060 96 96 6c 3d 25 9e a1 bd 5d d0 11 be 90 d2 4a 3d
       0.057760797 -0.07891492 -0.1423964 0.049517214
000070 b0 58 a9 3e c1 05 ea 3c 31 ac a5 bd 53 3c c6 be
       0.33075476 0.028567197 -0.080894835 -0.387179

fc2.weight f4 [16, 32]
000000 f9 2e b1 3d c2 82 ea bd 7a 42 89 3e 77 c3 8d bd
       0.086515374 -0.11450721 0.2680853 -0.069220476
000010 0e ae 80 3d de 2e 61 3e 9a ff 18 3e a6 f3 41 be
       0.06283198 0.21990535 0.14941254 -0.18940601
000020 57 e6 29 3e 16 ed 08 be 8e e2 62 bd bf c5 8c 3d
       0.16591774 -0.13371691 -0.05539184 0.068736546
000030 16 c5 cf bd dd 8c 0d 3e 49 be d9 3c 19 3c 25 bc
       -0.10145013 0.13823266 0.026579993 -0.010085129
000040 30 cc 33 be 54 1d 2f be b7 2f d0 bd b4 e1 56 3c
       -0.1755836 -0.17101032 -0.10165351 0.013115335
000050 2f 99 18 3e 7d 47 12 3e 7a d6 bf bd 8e 1c 4e bd
       0.14902185 0.14285083 -0.0936708 -0.0503202
000060 9f 41 38 3e f9 90 02 3e ae 18 5b 3e ec 55 45 be
       0.17993782 0.12750615 0.21396133 -0.19271058
000070 68 29 5e be a3 c7 85 bd 16 f9 f8 bd d8 1c a0 3d
       -0.21695483 -0.06532218 -0.12156884 0.078180015
000080 45 8b 17 bc 06 6f ec 3d d2 6c c6 3d 4e 83 85 bc
       -0.009249513 0.115446135 0.096887246 -0.016297963
000090 53 85 8c bd ff b2 15 3e 01 f5 04 3e 12 84 37 bd
       -0.06861367 0.14619063 0.12984087 -0.044803686
0000a0 58 ba 08 be 3a c7 9e bd 73 b7 c4 bd b0 62 43 3e
       -0.13352334 -0.07752843 -0.09605303 0.19080615
0000b0 72 25 9a 3d 16 30 2e be 44 d1 31 bd 8f 4d 1b be
       0.075266734 -0.17010531 -0.043412462 -0.15166305
0000c0 56 99 2a 3e f0 ba 65 3d af 02 2f 3e 47 a2 8b bd
       0.16660056 0.05608648 0.17090867 -0.06818061
0000d0 70 53 1f be 57 d4 f3 bc f3 22 92 3d a3 87 c4 bd
       -0.15559173 -0.029764337 0.07135572 -0.09596183
0000e0 2d f0 88 3d 64 5b 4a be 13 3c b0 bd 28 bf f0 3d
       0.06686435 -0.19761425 -0.08605208 0.1175521
0000f0 97 58 21 3c 8f 48 11 be 7b 51 a9 3d 8c f7 19 3e
       0.009847782 -0.14187835 0.08267494 0.15035838
000100 69 03 23 bb a0 2d 8c bd f1 b1 98 bd a8 62 6e bd
       -0.0024873859 -0.0684464 -0.07455815 -0.058199555
000110 7b 69 8e 3d 81 43 7e 3d b0 12 96 3d 8a 9f fd 3d
       0.069537126 0.062076095 0.07327783 0.12383945
000120 10 84 bc 3c 5c 16 c0 3d 2e 19 ac 3d 5f 42 97 3b
       0.023012191 0.09379265 0.0840324 0.0046160663
000130 48 df 05 be d8 99 12 be 79 71 b7 bd 81 a5 d3 3d
       -0.13073456 -0.14316499 -0.0895719 0.10334302
000140 c8 c5 0d be 0c 38 02 3d 02 ac e2 3d 61 26 9a bc
       -0.13844979 0.03179173 0.11067964 -0.018817129
000150 51 27 0a be ad ae ea bd d5 04 58 3e 8a 39 92 3d
       -0.1349156 -0.11459098 0.21095593 0.07139881
000160 7c 05 0f 3a ee 50 bd 3d 7f 19 d3 3d 1f 8f 6c 3d
       0.00054558343 0.09243952 0.10307597 0.05775368
000170 45 d1 9c bd 52 73 c0 3d b7 90 ff 3d 0e 2b 64 3e
       -0.076571025 0.093969956 0.12478774 0.22282049
000180 20 fe d4 bd 1c a6 21 3d 96 76 88 bd a1 56 d5 bd
       -0.10400033 0.039465055 -0.066632435 -0.10416914
000190 4a 69 3d be 98 72 76 3e 76 ae 32 3d 29 bd 10 3e
       -0.18497196 0.24067152 0.04362341 0.14134659
0001a0 e7 53 ee bd 8e 2c af bd af 61 af 3d ea 6d e9 3d
       -0.11637097 -0.0855342 0.085635535 0.113979176
0001b0 a3 4b 18 3d fc a2 a3 bd c2 db f7 bd f2 b1 49 bb
       0.037181508 -0.07990071 -0.12102462 -0.003077623
0001c0 cd 7e 02 3e c4 0f e4 bd 51 61 d5 bd ed bf f9 bc
       0.12743683 -0.111358196 -0.10418952 -0.030487025
0001d0 19 97 9c bc e2 21 14 3e 12 82 03 be b9 02 12 be
       -0.019115018 0.1446605 -0.12842587 -0.14258851
0001e0 60 bf f7 bd 20 cc d9 bc bb c8 f7 bd a1 88 1e be
       -0.12097049 -0.026586592 -0.12098833 -0.15481807
0001f0 d1 aa 2d 3b 8a 9a 4d 3c 8d 7f 02 be 3b 1f de 3d
       0.002649952 0.012549052 -0.1274397 0.108458005
000200 3c e6 99 3d 7c 15 0b 3e f6 7c 49 be 48 5e 8f bc
       0.07514617 0.13582414 -0.19676575 -0.017501011
000210 c5 2c fe bd b6 cd 6d be ad 9d 79 be c6 b1 d5 3d
       -0.12410883 -0.23223004 -0.24376555 0.10434298
000220 79 b5 1d bc 08 12 9d bb 86 2b 77 3c 8f 13 5d bd
       -0.009625786 -0.0047934093 0.01508606 -0.05397373
000230 1a be f4 3d 40 d6 41 3d ce 26 84 3d 3c 48 07 3c
       0.119503215 0.047323465 0.06452714 0.008256968
000240 7b a0 10 3e e4 19 1d 3d 09 09 57 3e 80 b7 ea bd
       0.14123718 0.03835477 0.2099954 -0.11460781
000250 94 13 12 3c cb 9a 16 be fa a7 aa 3d a9 c3 b9 3d
       0.008915801 -0.14707486 0.0833282 0.09070522
000260 ff b8 c8 bd f0 ec 14 3d df 7d 9c 3d 6a f4 4d 3e
       -0.0980091 0.036358774 0.076411955 0.20112768
000270 ff a7 0e 3c 16 00 b5 bd 9b e7 2a bd c8 e4 24 3e
       0.008707046 -0.08837907 -0.041724782 0.16102898
000280 80 5f 04 bd d4 27 37 3e 10 77 7e 3d 51 64 b0 3d
       -0.03231764 0.17886287 0.062125266 0.08612884
000290 9d c6 4a 3e e3 40 01 3e 50 1b 0d 3e da ae 4c bd
       0.19802327 0.12622409 0.1377995 -0.04997144
0002a0 1c 39 96 bd 71 be d1 bd 90 9b ab bd 6e a2 9d 3d
       -0.073351115 -0.10241402 -0.083792806 0.07696997
0002b0 c4 55 d9 bd 05 40 d7 3d 47 63 93 3d 9f a3 28 3d
       -0.106120616 0.10510258 0.0719667 0.041171666
0002c0 2b 83 e0 3d 9d c5 62 be 3c e8 f5 bd 2f 7c b9 bd
       0.10962518 -0.22145696 -0.12007186 -0.09056889
0002d0 18 38 e1 bd 2d bd 0b 3e b4 d5 bc bc ef 97 17 be
       -0.10997027 0.13646384 -0.02305112 -0.14804052
0002e0 38 a9 20 bd d6 06 88 3d ad d4 80 3d 0f b7 75 3d
       -0.03922388 0.06641929 0.06290565 0.05998903
0002f0 58 c4 d3 bc 52 83 4f 3d 87 4f ae bc ba d2 15 be
       -0.02585046 0.050662346 -0.021278156 -0.14631167
000300 0e 2d 0d 3e b7 50 06 3d 8e 9c 23 bc 99 ba 82 3d
       0.13786718 0.03279182 -0.009986056 0.06383247
000310 77 43 c3 bd b7 ed 24 3c 53 f6 37 bd a3 6c 10 be
       -0.09534352 0.010066441 -0.044912647 -0.14103942
000320 12 ae 32 bd 4e ab 6f 3d 9e a2 c2 3d 81 dc c8 3b
       -0.043623038 0.05851298 0.09503673 0.0061298017
000330 4d a1 07 3e cc f0 08 be f4 98 d6 3c 80 62 42 3d
       0.13245125 -0.13373107 0.02619598 0.04745722
000340 38 4f 81 bd 57 6f e7 bd 57 13 11 be 0a 0b 38 3e
       -0.06313938 -0.11300533 -0.14167534 0.17972961
000350 1d 4c ed bc c0 bd bd bd 41 12 ce bd 8e bd 94 3d
       -0.028966958 -0.092647076 -0.100620754 0.07262717
000360 d6 c6 39 bc fb ec 5d 3e 8d 72 e9 bd 3d dd 5f be
       -0.01133891 0.21672432 -0.11398802 -0.2186174
000370 8e 73 3c be 34 8d d0 bd ba bb 57 be f6 68 1e bd
       -0.18403456 -0.10183182 -0.21067706 -0.038674317
000380 47 02 d7 3b d3 b4 15 3e f2 84 0f be 89 34 79 3d
       0.006561551 0.1461976 -0.14015558 0.060841117
000390 05 e7 75 bd c2 47 f7 bc a0 54 08 3e d4 44 62 bc
       -0.06003477 -0.030185584 0.13313532 -0.013810355
0003a0 20 d2 e0 3c 02 b7 d9 3d 23 c7 12 3e 67 71 8c bd
       0.027443945 0.10630609 0.14333777 -0.06857567
0003b0 df 75 1b be e5 d5 2a bd 3b 18 d8 3d 5a 59 45 bd
       -0.15181683 -0.041707892 0.105514966 -0.048180915
0003c0 52 fe 5a 3d 65 d3 08 bc a4 b8 c7 3d 60 bf da bd
       0.053465195 -0.008351182 0.09752014 -0.10681033
0003d0 53 47 52 3d e9 d3 3b be 44 d0 c7 3d a0 0e 32 3e
       0.05133755 -0.18342556 0.097565204 0.17388391
0003e0 7b f5 91 3c f2 81 4a be ce cf 73 3d 8a be a1 bd
       0.01781725 -0.19776133 0.05952435 -0.078976706
0003f0 26 45 b5 3d 95 a0 3a 3e 18 e4 05 bd 3f c4 1a bd
       0.0885108 0.1822532 -0.03268823 -0.03778481

fc2.bias f4 [16]
000000 62 a5 24 be f5 e2 13 3d 94 d9 3c 3d b9 c2 a0 3d
       -0.16078714 0.036105115 0.046105936 0.078496404
000010 9e 07 0d 3e 99 fa 17 be 8b 66 ee bd f5 f7 08 be
       0.13772437 -0.14841689 -0.11640652 -0.13375838
000020 c3 cc e9 3c 3c fd 35 be 40 a2 8d 3d 0f 61 8e 3d
       0.02854002 -0.17772382 0.06915712 0.06952106
000030 e7 b2 eb 3c bc d6 c1 bd b5 94 52 bd c7 f9 94 bb
       0.02877183 -0.094647855 -0.05141135 -0.0045463773
