checkpoints/sketch_prediction/BrepStrokeCloudAttention_finding.pth (torch, 56366 bytes, 13 tensors)

cross_attn.in_proj_weight f4 [96, 32]
0	0x3f2da973	0.67836684
1	0xbf0917d6	-0.53551996
2	0xbf937281	-1.1519319
3	0xbef8d032	-0.4859634
4	0xbe26bfe2	-0.16284135
5	0x3e3665dc	0.17812294
6	0x3e2445ed	0.160423
7	0xbe147c1f	-0.14500473
8	0x3e1a41d0	0.15064168
9	0xbf19ddbe	-0.60103977
10	0x3ebdd178	0.37073874
11	0xbf4ec323	-0.80766505
12	0xbeac6463	-0.3367034
13	0xbe25009f	-0.16113518
14	0xbfa66972	-1.3000929
15	0x3f887dd5	1.0663401
16	0x3e7c50f3	0.24640255
17	0xbdd48d96	-0.10378568
18	0x3efb4c46	0.4908163
19	0xbed40262	-0.41408068
20	0x3e4f3b7d	0.20237537
21	0xbf222fb4	-0.6335404
22	0x3e00af2b	0.12566821
23	0xbf4707e9	-0.77746445
24	0x3e2a471c	0.16628689
25	0x3f106291	0.564004
26	0xbe787217	-0.24262272
27	0x3f1e3c55	0.6181081
28	0x3df7c474	0.12098017
29	0x3db935e3	0.09043481
30	0x3e18e210	0.14929986
31	0x3f04c0c2	0.51856625
32	0xbf14f9f1	-0.5819388
33	0x3e27dcc8	0.16392815
34	0x3e86e122	0.26343638
35	0x3f01e07f	0.5073318
36	0x3e6eaa8b	0.23307244
37	0xbe8fbb77	-0.28072712
38	0xbdfa8c20	-0.12233758
39	0x3ded96c4	0.11601022
40	0xbe374c75	-0.1790026
41	0x3eb4a52c	0.35282266
42	0x3ea60cee	0.3243174
43	0x3f304216	0.6885084
44	0xbec5fe7a	-0.38670713
45	0xbf31e580	-0.69490814
46	0x3e4907c5	0.1963187
47	0xbef69bff	-0.4816589
48	0xbe0ac895	-0.13553078
49	0x3e0b1b23	0.1358457
50	0xbec27bfa	-0.37985212
51	0x3dca88e0	0.09889388
52	0x3d07d757	0.03316435
53	0x3ec74bb2	0.38924938
54	0xbea370d9	-0.31922033
55	0x3ee09dab	0.4387029
56	0xbe285c5d	-0.16441484
57	0xbe679040	-0.22613621
58	0x3c346a98	0.011011742
59	0xbeecf5b3	-0.46281204
60	0x3d955356	0.07291286
61	0xbcffc530	-0.031221956
62	0x3d91a07f	0.0711069
63	0xbc091ed8	-0.00836917
64	0x3d36b3ae	0.04460495
65	0x3e514769	0.20437397
66	0xbe905be0	-0.28195095
67	0xbdf8a231	-0.121403106
68	0xbf14ce68	-0.5812745
69	0x3e3111bd	0.17291923
70	0xbc7aa310	-0.015297666
71	0xbeb11b58	-0.34591174
72	0xbe7736f5	-0.24142058
73	0x3e809a65	0.25117794
74	0xbf0c6e4c	-0.548558
75	0xbeb90f5f	-0.3614454
76	0x3ed3d8e4	0.41376412
77	0x3ef3f79b	0.47649845
78	0x3ea4145f	0.32046792
79	0xbd70960f	-0.058736857
80	0xbb8dcc49	-0.004327331
81	0x3da26ef5	0.079313196
82	0xbdeb4022	-0.11486842
83	0x3e9f5927	0.31122705
84	0x3f21958d	0.6311882
85	0x3e87a1ed	0.26490727
86	0x3e394133	0.18091278
87	0x3ddbb249	0.107273646
88	0xbef95cf5	-0.48703733
89	0xbe109a08	-0.14121258
90	0xbc35b394	-0.011090178
91	0x3f474a41	0.7784768
92	0x3e0fd498	0.14045942
93	0xbe8dd36f	-0.27700374
94	0x3dbd8b62	0.09255101
95	0xbe98aa20	-0.29817295
96	0x3d3316f3	0.043723058
97	0xbd99ccd3	-0.0750977
98	0xbed12c78	-0.4085424
99	0xbe23922f	-0.15973733
100	0xbe2ceb6f	-0.16886686
101	0x3e98457b	0.2974051
102	0x3ea0cda8	0.31406903
103	0xbdbd23b0	-0.092353225
104	0x3def5f82	0.116881385
105	0x3eea0ef2	0.45714527
106	0xbe43f050	-0.1913464
107	0xbf75ab83	-0.9596483
108	0x3f0e869f	0.55674165
109	0x3e317548	0.17329895
110	0x3bbe5d7a	0.005809483
111	0xbe86be09	-0.2631686
112	0x3f19f813	0.60144156
113	0xbe3aba08	-0.18235028
114	0x3dd051b3	0.10171833
115	0x3dbbca7a	0.09169479
116	0x3f349702	0.7054292
117	0x3e839478	0.2569921
118	0xbd0d6caf	-0.034527477
119	0xbe3e6d7e	-0.18596455
120	0xbeb71419	-0.3575752
121	0x3eaeddb9	0.34153536
122	0xbcebf7d1	-0.028804692
123	0x3f27c1f1	0.65530306
124	0x3ec78526	0.38968772
125	0xbead9c0d	-0.3390812
126	0x3ea91eaf	0.33031222
127	0x3e28ed39	0.16496743
128	0xbd263912	-0.04058177
129	0x3ea9a4a9	0.33133438
130	0x3f17e0b2	0.5932723
131	0x3e437529	0.19087662
132	0xbc97208b	-0.018448135
133	0xbe2552fe	-0.1614494
134	0xbe8c13e8	-0.27358937
135	0xbe170abe	-0.14750192
136	0x3cefa6d3	0.029254353
137	0xbd3af723	-0.045645844
138	0x3f0b1252	0.5432483
139	0x3f181cad	0.59418756
140	0xbe670039	-0.22558679
141	0xbee71767	-0.45135042
142	0x3ea08a6b	0.31355605
143	0xbe9dc494	-0.3081404
144	0xbe621070	-0.22076583
145	0x3eb0967f	0.3448982
146	0xbf239563	-0.6389982
147	0x3d257ef7	0.040404286
148	0xbed5d7ca	-0.41766196
149	0x3e47c2cb	0.19507901
150	0xbef678e7	-0.48139116
151	0x3eeddd6a	0.46457988
152	0xbe0ded4c	-0.13860053
153	0xbf08a66f	-0.5337896
154	0x3df2bed0	0.11852801
155	0xbe9af814	-0.30267394
156	0xbd153420	-0.036426663
157	0x3dd57519	0.10422725
158	0x3f101b45	0.5629161
159	0xbeb545e7	-0.35404894
160	0x3e820e07	0.25401327
161	0xbec5aa7c	-0.38606632
162	0xbda86d04	-0.08223918
163	0xbdf54567	-0.11976128
164	0x3de5612c	0.11200175
165	0xbce2cfe0	-0.027687013
166	0xbeae71b9	-0.34071139
167	0x3ebe5273	0.3717228
168	0xbe66affe	-0.22528073
169	0xbea61c2f	-0.32443377
170	0x3e4d10a6	0.20025882
171	0x3d6e3a49	0.058161054
172	0xbe5dd47d	-0.21663089
173	0xbe93734c	-0.28798902
174	0xbee50d54	-0.4473673
175	0x3e5a768f	0.21334289
176	0x3e36dbb6	0.1785725
177	0xbe3bba86	-0.18332872
178	0x3baa61d0	0.0051996484
179	0x3e4e1dbe	0.20128533
180	0x3e2282db	0.1587023
181	0x3d79eea1	0.06101859
182	0x3d6e5670	0.058187902
183	0xbeaec3e3	-0.34133825
184	0x3edaaeec	0.4271158
185	0x3ea6c195	0.32569566
186	0xbee8750d	-0.45401803
187	0xbe87114d	-0.26380387
188	0xbe95ad80	-0.29233932
189	0x3eb431b9	0.35194185
190	0x3ebae4ca	0.36502677
191	0x3f35b0b5	0.7097276
192	0xbdbea3d5	-0.09308592
193	0x3dcd4eb2	0.100247756
194	0xbe0caba4	-0.1373735
195	0x3e1ba916	0.1520122
196	0x3f454740	0.77061844
197	0xbeb574de	-0.35440725
198	0xbe61ad8d	-0.2203886
199	0x3dade33f	0.084906094
200	0xbe946f87	-0.2899134
201	0x3df0ecc1	0.11763907
202	0x3e76bf5c	0.24096435
203	0x3f0fefce	0.5622529
204	0xbcc4e391	-0.024034293
205	0xbef855c6	-0.4850294
206	0x3c3cbf7c	0.011520263
207	0xbed6190b	-0.4181598
208	0x3c6da38d	0.014504326
209	0x3e0267c3	0.12734894
210	0xbda3219e	-0.07965396
211	0xbd299a18	-0.04140672
212	0xbd378ff6	-0.044815026
213	0x3e1f5343	0.15559106
214	0xbe6e8062	-0.23291162
215	0xbed0d37f	-0.4078636
216	0xbee461cc	-0.44605863
217	0xbea199ef	-0.31562755
218	0x3b977631	0.004622244
219	0xbe4f119d	-0.20221563
220	0x3c5a3f85	0.013320808
221	0x3f189b6b	0.5961215
222	0x3f502a80	0.8131485
223	0x3e8c7593	0.27433452
224	0x3e83e452	0.25760132
225	0xbe1d11fb	-0.1533889
226	0xbf88af95	-1.0678583
227	0xbd80e1a7	-0.0629304
228	0xbf45baf4	-0.7723839
229	0x3dd8523b	0.10562559
230	0xbdbe41b4	-0.092898756
231	0xbec9ad05	-0.39389816
232	0x3be7ecff	0.0070778127
233	0xbf4aace7	-0.7917008
234	0xbedeca59	-0.43513754
235	0x3eab1002	0.3341065
236	0xbf007069	-0.50171524
237	0xbe38d9c2	-0.18051818
238	0xbe9967dd	-0.29962054
239	0x3ece902e	0.40344375
240	0xbeeeec57	-0.46664688
241	0xbecb5b31	-0.3971801
242	0xbd03c259	-0.032167766
243	0x3ede5bca	0.43429404
244	0x3ea0b8b4	0.31390917
245	0xbf912d9a	-1.1342041
246	0x3f5ad45e	0.85480297
247	0xbe909601	-0.28239444
248	0x3e1cfc71	0.15330674
249	0x3e945e33	0.28978118
250	0xbe9df7b4	-0.30853045
251	0x3f751d41	0.9574776
252	0xbf4755c1	-0.77865225
253	0xbdfbc426	-0.12293272
254	0xbe8d5077	-0.27600452
255	0xbe4956e8	-0.19662058

cross_attn.in_proj_bias f4 [96]
0	0xbf8ab604	-1.0836797
1	0x3fa5308e	1.2905443
2	0xbf451f51	-0.7700091
3	0xbf69c4d7	-0.9131598
4	0x3fb41253	1.4068092
5	0x3f253aa6	0.64542615
6	0x3f208614	0.62704587
7	0xbf3063e2	-0.6890241
8	0xbf0a1bdb	-0.53948754
9	0x3cd48c50	0.025945812
10	0x3fa6aa1c	1.3020663
11	0xbf443609	-0.7664495
12	0x3f202925	0.6256278
13	0xbf5df0b2	-0.86695397
14	0x3c983a44	0.01858247
15	0xbf8de54c	-1.1085601
16	0x3f69d0a1	0.9133397
17	0xbf133f36	-0.5751833
18	0xbd9920f1	-0.07476986
19	0x3f218d4c	0.63106227
20	0x3ec55ac6	0.38545817
21	0x3f455184	0.7707751
22	0xbf4db107	-0.8034825
23	0x3f81e60b	1.0148329
24	0xbed5c5ff	-0.41752622
25	0x3eaa123d	0.3321704
26	0xbf84e39e	-1.0381963
27	0x3f23c8b4	0.63978124
28	0x3f4abcc2	0.7919427
29	0xbf3df861	-0.7420712
30	0xbf54af01	-0.83079535
31	0xbf5eceaf	-0.87034124
32	0xbd8765dc	-0.06611225
33	0x3dfb7b95	0.12279431
34	0xbd390f2e	-0.045180492
35	0xbc694798	-0.014238261
36	0x3d8557e3	0.06510904
37	0x3c7198a0	0.014745861
38	0xbc820e11	-0.015875848
39	0x3b0f4731	0.0021862502
40	0x3e01a152	0.12659195
41	0xbd000f5e	-0.031264655
42	0xbbb25cbf	-0.005443185
43	0xbdc737a3	-0.09727409
44	0xbd43b396	-0.04777869
45	0xbaa78d9a	-0.001278329
46	0xbcbfe0e1	-0.02342266
47	0x3c148a2d	0.009066147
48	0x3ddb0ad1	0.106954224
49	0xbca985e9	-0.020693736
50	0x3d0cb206	0.034349464
51	0x3e12cd58	0.14336145
52	0xbd39eb05	-0.045390148
53	0x3d82eb59	0.06392545
54	0xbac0f36c	-0.0014720983
55	0xbc36bd5b	-0.011153544
56	0x3c0dcf28	0.008655347
57	0xbe5c5c3e	-0.21519563
58	0xbe2ce2f4	-0.16883451
59	0x3e0feb29	0.1405455
60	0x3d2eaf54	0.042647675
61	0xbd2f76a0	-0.04283774
62	0xbd8015f8	-0.0625419
63	0xbd24acd9	-0.040203903
64	0xbd123611	-0.035696093
65	0x3e13d60c	0.14437121
66	0xbe38843a	-0.1801919
67	0x3e695b2b	0.22788684
68	0x3d7fd0e3	0.06245507
69	0x3d9ac5d3	0.07557263
70	0xbe51aaf7	-0.20475374
71	0x3cd6b628	0.026209906
72	0xbc5f2414	-0.013619442
73	0x3df5c3f9	0.120002694
74	0xbd46d7b5	-0.048545558
75	0x3d63a3e0	0.055576205
76	0xbdcb3c53	-0.09923615
77	0x3d484330	0.0488922
78	0x3ea4470a	0.32085449
79	0xbe2ddbc7	-0.1697837
80	0x3e6214b6	0.22078213
81	0x3e013c80	0.12620735
82	0x3de7d5a0	0.113200426
83	0xbd40b3c1	-0.047046427
84	0xbc6763f0	-0.014122948
85	0xbcb84656	-0.022494476
86	0x3d9dedef	0.07711398
87	0x3d8136c2	0.06309272
88	0x3e14484b	0.14480703
89	0xbe2f2554	-0.17104083
90	0xbea1085a	-0.31451684
91	0x3e0afcaf	0.13572954
92	0xbd24ffa6	-0.040282868
93	0xbd93dbf7	-0.07219689
94	0x3da6b9c0	0.08140898
95	0x3da50231	0.080570586

cross_attn.out_proj.weight f4 [32, 32]
0	0xbc316c27	-0.010829008
1	0x3d0000c9	0.03125075
2	0x3e16bafb	0.14719765
3	0xbe1aec92	-0.15129307
4	0xbca09a89	-0.019604938
5	0xbce50655	-0.02795712
6	0x3d310c06	0.043224357
7	0xbd52b4f2	-0.051442094
8	0x3dd58f9a	0.104277804
9	0xbd1fbee3	-0.039000403
10	0xbc565194	-0.013080973
11	0x3daa249e	0.083077654
12	0xbd8ac1a0	-0.06775212
13	0x3d94abf2	0.072593585
14	0x3cb1c7f4	0.02170179
15	0xbe058b60	-0.13041449
16	0x3cb0848e	0.021547582
17	0x3cf1fe80	0.0295403
18	0xbd8d5996	-0.06901853
19	0x3dfd2b47	0.1236177
20	0x3d57c1f3	0.0526752
21	0xbddbd5e8	-0.10734159
22	0x3cb6e63d	0.022326583
23	0x3e049ab6	0.12949643
24	0xbd8cf25c	-0.06882164
25	0xbe15cb7d	-0.14628406
26	0xbe817e42	-0.2529164
27	0xbdf7bc71	-0.12096489
28	0xbd0e779a	-0.03478203
29	0x3d7db386	0.061938785
30	0xbdaab08b	-0.08334454
31	0x3e8d7c62	0.2763396
32	0x3dc12323	0.0943053
33	0xbe61451b	-0.21999018
34	0xbe2baafc	-0.16764444
35	0x3da2aa97	0.07942694
36	0x3da8c46b	0.08240589
37	0xbe4d2580	-0.20033836
38	0xbdf6c69d	-0.12049601
39	0x3d9b8f06	0.07595639
40	0xbe0b80a6	-0.13623294
41	0xbe93df63	-0.28881368
42	0xbe8966ab	-0.26836142
43	0x3e550ea2	0.20806363
44	0xbdd545f1	-0.10413731
45	0x3e805501	0.25064853
46	0xbe5af985	-0.21384247
47	0xbe899096	-0.26868123
48	0x3dd50415	0.10401169
49	0x3d583726	0.05278697
50	0x3e6b0cb9	0.22954072
51	0x3dc1e0df	0.09466719
52	0xbe1b15d8	-0.15145051
53	0xbe901e62	-0.2814818
54	0xbe436825	-0.19082697
55	0x3d2677e7	0.04064169
56	0xbe9e971c	-0.30974662
57	0xbec53dc8	-0.38523698
58	0xbe740421	-0.238297
59	0x3daf0582	0.085459724
60	0x3e1b67b1	0.15176274
61	0x3da1c0fd	0.07898138
62	0x3e560c9d	0.20903249
63	0x3e023a93	0.12717657
64	0xbdfaa6fc	-0.12238881
65	0xbe183138	-0.14862525
66	0x3de9af10	0.11410344
67	0xbe12fc71	-0.14354111
68	0xbd297ce2	-0.041378863
69	0xbdbee5f4	-0.09321204
70	0xba0495b1	-0.0005057706
71	0xbc9c7646	-0.019099366
72	0x3e3bee8c	0.18352717
73	0xbd5440c3	-0.051819574
74	0xbe7ae175	-0.24500068
75	0x3e6b6e90	0.22991395
76	0xbd8324b8	-0.06403488
77	0xbda05330	-0.07828367
78	0x3e5639fe	0.2092056
79	0x3c672ac3	0.014109316
80	0xbdc4f83e	-0.09617661
81	0x3d9456e7	0.07243138
82	0xbbfbb755	-0.007681767
83	0xbe36e34d	-0.17860146
84	0xbe21d8ad	-0.15805312
85	0xbe3ce869	-0.18448032
86	0xbe15e0e2	-0.14636567
87	0xbda3c52e	-0.079965934
88	0xbe8a008f	-0.2695355
89	0xbe44ba81	-0.1921177
90	0xbde12dd6	-0.10995071
91	0x3e312040	0.17297459
92	0x3e364933	0.17801361
93	0xbd0d963d	-0.034567107
94	0x3d120f61	0.035659198
95	0x3dd23c00	0.1026535
96	0xbcc95c15	-0.024580041
97	0x3e46e9d1	0.19425131
98	0x3e928583	0.28617486
99	0x3d326f2e	0.04356306
100	0xbe0ea651	-0.13930632
101	0x3d652d14	0.055951193
102	0x3e66a59c	0.22524112
103	0x3e206809	0.15664686
104	0xbd0a81ab	-0.033815067
105	0x3bbb5460	0.0057168454
106	0xbd21d5d8	-0.039510578
107	0xbe91ed14	-0.2850119
108	0x3e0c2413	0.13685636
109	0xbe0a2315	-0.13489945
110	0x3dc32239	0.09528012
111	0x3e0a078d	0.13479443
112	0xbe16e316	-0.14735064
113	0xbd95e413	-0.07318892
114	0xbd4b095d	-0.049569476
115	0x3d49f0fa	0.04930208
116	0xbe080f75	-0.13287146
117	0x3df1d0c9	0.11807401
118	0xbd31b728	-0.043387562
119	0xbe7d9c90	-0.24766755
120	0xbc70e87e	-0.014703868
121	0x3f0eb041	0.5573769
122	0x3e610bc4	0.21977144
123	0xbe14a1c6	-0.14514837
124	0x3db5a289	0.08868892
125	0xbdea2a16	-0.114338085
126	0xbe4a36cd	-0.19747467
127	0x3d8b4370	0.06799972
128	0xbe72b4b2	-0.23701742
129	0x3d87cd55	0.06630961
130	0xbd103776	-0.03520914
131	0x3cf5205a	0.029922653
132	0xbd65306d	-0.055954386
133	0xbe2f4654	-0.17116672
134	0xbeda7c79	-0.4267309
135	0xbddca8a1	-0.10774351
136	0xbe60d734	-0.21957093
137	0xbdfe04d6	-0.12403266
138	0x3dd835c7	0.10557132
139	0xbe38e5c6	-0.18056402
140	0x3b74e880	0.0037370026
141	0x3e683589	0.22676672
142	0x3dd851b0	0.10562456
143	0x3df7b0ea	0.120942906
144	0x3dd332eb	0.10312446
145	0x3e149012	0.14508083
146	0x3e100428	0.14064085
147	0x3e89dcee	0.26926368
148	0x3e86524f	0.2623467
149	0xbe95942d	-0.29214612
150	0x3e4e7602	0.20162204
151	0x3e3f85db	0.18703406
152	0xbd684151	-0.056702916
153	0xbe515e70	-0.20446181
154	0xbdf403fe	-0.11914824
155	0x3d80bb91	0.062857755
156	0xbc8b8870	-0.017032832
157	0x3d1decfb	0.03855608
158	0x3e0a1723	0.13485388
159	0xbe432877	-0.19058405
160	0x3db9f1fb	0.09079357
161	0xbe974b29	-0.2954953
162	0x3d0e6366	0.034762762
163	0x398f1289	0.00027288895
164	0x3c635364	0.013874862
165	0xbe8f31c6	-0.27967662
166	0xbe4de975	-0.20108588
167	0xbd88d9f8	-0.06682199
168	0xbea428e5	-0.3206245
169	0xbde3eaca	-0.11128767
170	0xbe27ecb0	-0.16398883
171	0x3e849ad2	0.2589937
172	0xbd38b357	-0.045092907
173	0x3e4ceb6e	0.20011684
174	0xbda23446	-0.079201266
175	0xbe45cc4d	-0.19316216
176	0xbe13550a	-0.14387909
177	0x3de5ae49	0.11214883
178	0x3e6cdd29	0.23131241
179	0x3ebde71c	0.37090385
180	0x3dc75a3d	0.097340085
181	0xbe1020a7	-0.14074956
182	0xbed14ee9	-0.40880516
183	0x3d6e26dc	0.058142528
184	0xbdf17e1c	-0.117916316
185	0xbeb509b9	-0.3535898
186	0xbdf7a735	-0.12092439
187	0xbd9cb0bc	-0.07650897
188	0x3d5e0d88	0.054212123
189	0x3e5ec6c3	0.21755509
190	0x3e4b8ac8	0.1987716
191	0xbdc89dfd	-0.09795759
192	0x3e4087e4	0.18801838
193	0xbd2d7715	-0.042349894
194	0x3e89ba68	0.2690003
195	0x3e2023cf	0.1563866
196	0xbe74ff58	-0.23925531
197	0x3e362dac	0.1779086
198	0x3e4f5b3e	0.2024965
199	0x3d6d9cf1	0.058011
200	0x3e74f264	0.2392059
201	0x3dfdefc0	0.12399244
202	0xbeab425c	-0.33449066
203	0xbd0bc428	-0.034122616
204	0xbce65377	-0.028115971
205	0xbe061a88	-0.13096058
206	0xbe2b1af1	-0.16709496
207	0x3e2ec430	0.17067027
208	0xbe18c3b1	-0.149184
209	0xbd422495	-0.04739817
210	0xbd804454	-0.062630326
211	0x3dbf4672	0.09339608
212	0x3db90d91	0.09035791
213	0x3e4fe176	0.2030085
214	0xbd983b74	-0.07433215
215	0xbe042b6c	-0.12907189
216	0xbdfaf8c7	-0.12254482
217	0x3e3e4dda	0.18584386
218	0x3c5cd426	0.0134783145
219	0xbe0b43c7	-0.13600074
220	0x3dea7e0f	0.11449825
221	0xbd72dcc8	-0.059292585
222	0x3da32472	0.07965936
223	0x3dfa6c17	0.12227648
224	0x3da3953b	0.07987448
225	0xbe0cd042	-0.13751319
226	0xbd692763	-0.056922328
227	0x3eb691eb	0.35658202
228	0xb91d781a	-0.00015017428
229	0xbdd2f04e	-0.10299741
230	0xbe2ec5d4	-0.17067653
231	0x3ddbaab5	0.10725919
232	0xbcbd61a9	-0.023117857
233	0x3d907936	0.07054369
234	0xbcd1075a	-0.0255162
235	0xbe255a5b	-0.16147749
236	0xbe0c4d08	-0.1370126
237	0x3eae74bb	0.34073433
238	0x3e4bda31	0.19907452
239	0xbe34020e	-0.17578909
240	0x3ed0b0f1	0.40759996
241	0xbe4c7745	-0.19967373
242	0x3e62d7c7	0.22152625
243	0x3ec9cc3d	0.39413634
244	0x3deb7481	0.11496831
245	0x3d896edf	0.067106
246	0x3e3072b7	0.1723126
247	0xbd8b94ae	-0.06815468
248	0x3d1f3705	0.03887083
249	0xbe3665c4	-0.17812258
250	0xbea13a7b	-0.3148993
251	0xbea4ae96	-0.32164448
252	0xbe0816b4	-0.1328991
253	0x3e394793	0.1809371
254	0x3de08a7d	0.109639145
255	0xbe6ad68e	-0.22933409

cross_attn.out_proj.bias f4 [32]
0	0xbc05ec1d	-0.00817397
1	0x3d68b235	0.056810576
2	0x3e06eab2	0.13175467
3	0xbe08445b	-0.13307326
4	0xbc4d5c34	-0.01253419
5	0x3ddfbbf0	0.10924518
6	0xbe0c2c03	-0.13688664
7	0xbdfc2f96	-0.12313764
8	0x3ddcc6b3	0.10780086
9	0x3d191a34	0.037378505
10	0xbd16000c	-0.03662114
11	0xbd92d4bb	-0.07169481
12	0xbe0ada4c	-0.13559836
13	0xbd90f2b8	-0.07077545
14	0x3be2ea7e	0.0069249263
15	0x3e0dfa63	0.13865046
16	0xbdb98839	-0.090591855
17	0xbca19218	-0.019722983
18	0x3d9e264a	0.07722147
19	0xbdcfb33a	-0.10141607
20	0xbe17385d	-0.14767595
21	0xbcd050ef	-0.025429217
22	0x3e7d0950	0.24710584
23	0x3e0cf330	0.13764644
24	0x3c815d5f	0.015791593
25	0x3e16543b	0.14680569
26	0x3bb348e1	0.0054713343
27	0x3caac4be	0.020845767
28	0xbd5f42bc	-0.054507002
29	0x3d24f7c7	0.04027536
30	0x3e2bf3a4	0.1679216
31	0xbd7064bb	-0.058689814

ff.0.weight f4 [128, 32]
0	0xbdb04513	-0.08606925
1	0xbe82bb6a	-0.2553361
2	0xbe6c1664	-0.23055416
3	0x3e04b6cd	0.12960358
4	0xbea2fa32	-0.3183151
5	0x3d28c5b0	0.041204154
6	0xbc52bfce	-0.012863113
7	0x3e05eae5	0.13077886
8	0x3e969f46	0.2941839
9	0x3e2da14a	0.16956058
10	0x3d32bafb	0.04363535
11	0xbd972f39	-0.07382054
12	0xbe8bfbc2	-0.27340513
13	0xbe23081c	-0.15921062
14	0xbea4b129	-0.32166412
15	0x3eed15aa	0.4630559
16	0xbd9f8659	-0.07789297
17	0xbd46a53e	-0.04849743
18	0x3e2de4fc	0.16981882
19	0xbe6f7e44	-0.2338801
20	0xbd69abfa	-0.057048775
21	0xbd932903	-0.07185557
22	0x3c5bc378	0.013413303
23	0xbe09b763	-0.13448863
24	0xbe192ad8	-0.1495775
25	0xbd529590	-0.051412165
26	0xbe44660d	-0.19179554
27	0xbe06f7e0	-0.13180494
28	0xbc97c977	-0.018528683
29	0xbdefbc4c	-0.11705837
30	0xbdd0eae3	-0.10201051
31	0xbd8e38a9	-0.06944401
32	0x3d97cf52	0.0741259
33	0x3e482354	0.19544727
34	0x3e69de6e	0.22838756
35	0xbeeef937	-0.4667451
36	0xbd49c3ab	-0.04925887
37	0x3de6a816	0.112625286
38	0xbdc62ae9	-0.09676153
39	0x3c754cc6	0.0149719175
40	0xbe8dfc5b	-0.27731594
41	0x3db956b6	0.09049742
42	0x3dac35f8	0.08408731
43	0x3dac5e6a	0.084164456
44	0x3dc3cb99	0.095603175
45	0x3dbbeb50	0.09175742
46	0xbde1b566	-0.11020927
47	0xbd85362d	-0.06504474
48	0xbe377c85	-0.17918594
49	0x3a2e5d62	0.00066514884
50	0x3e2528d9	0.16128863
51	0x3d3eec1d	0.046611894
52	0x3d9c4c0e	0.07631694
53	0xbe21550d	-0.157551
54	0x3deb167e	0.114788994
55	0x3dd227d1	0.102615006
56	0x3c0ece40	0.008716166
57	0x3cb0e07f	0.021591423
58	0xbac86114	-0.0015287721
59	0xbd78460a	-0.06061367
60	0x3d65d8d8	0.056115
61	0x3e699d1a	0.22813836
62	0xbd463c74	-0.048397496
63	0xbd66a28a	-0.056307353
64	0x3e564dee	0.20928165
65	0x3d50a6cd	0.050940324
66	0xbd1d9c58	-0.03847918
67	0x3d03072b	0.031989258
68	0x3da9fe55	0.08300463
69	0xbdf3e83e	-0.11909531
70	0xbc2e1766	-0.010625696
71	0xbc74856a	-0.0149243865
72	0x3d94c397	0.07263868
73	0xbba33861	-0.004981086
74	0x3c0a8552	0.008454638
75	0xbe95b996	-0.29243153
76	0xbe6bb7ad	-0.23019286
77	0xbcb67936	-0.022274595
78	0xbd88570d	-0.066572286
79	0xbe1d9109	-0.15387358
80	0x3c0fcae7	0.008776403
81	0xbec694ab	-0.387853
82	0x3ec92231	0.39283898
83	0x3e239a4c	0.15976828
84	0x3eedb491	0.46426824
85	0x3d0828db	0.033242088
86	0xbd5a7e05	-0.053342838
87	0xbd4d7ccd	-0.050167847
88	0x3e9a2895	0.30109087
89	0x3d5f42da	0.054507114
90	0xbe921085	-0.28528228
91	0x3e037743	0.12838463
92	0x3de75e09	0.11297233
93	0x3dce2633	0.1006588
94	0x3e067f0f	0.13134407
95	0x3e98a31b	0.2981194
96	0xbe948ed6	-0.29015225
97	0xbe4224b1	-0.18959309
98	0xbcca722c	-0.024712645
99	0x3cf7d68b	0.03025367
100	0xbe4712f1	-0.1944082
101	0x3ea2d557	0.3180339
102	0xbc174c0d	-0.0092344405
103	0xbcf5c2fd	-0.030000204
104	0xbe1c22b2	-0.1524761
105	0x3dc94a30	0.09828603
106	0xbeb14f1e	-0.34630674
107	0x3d7f0f6c	0.062270567
108	0x3dc14a25	0.0943797
109	0xbdd1282e	-0.10212742
110	0xbdda8624	-0.106701165
111	0x3dcd4563	0.10023
112	0x3e49cd44	0.19707209
113	0x3d50ee04	0.05100824
114	0x3d89b936	0.06724779
115	0x3da5d119	0.08096523
116	0xbdf22565	-0.11823539
117	0xbdb609de	-0.08888601
118	0x3e2cf49c	0.16890186
119	0x3ea3b2c5	0.31972328
120	0x3e641245	0.22272594
121	0xbdbc845f	-0.09204935
122	0x3e0371ef	0.12836431
123	0x3ebeb2de	0.3724584
124	0xbdd06be9	-0.10176832
125	0x3e0c8cbe	0.13725564
126	0xbd7fa2bd	-0.06241106
127	0xbdd0f6fa	-0.10203357
128	0x3e9e1cb3	0.3088127
129	0xbcf04af8	-0.029332623
130	0xba35a840	-0.0006929673
131	0x3d28197e	0.041039936
132	0xbe253595	-0.16133721
133	0xbe02c4ec	-0.12770432
134	0xbeaa7946	-0.3329565
135	0xbebd9998	-0.37031245
136	0xbd95b08f	-0.073090665
137	0xbdba868a	-0.091076925
138	0x3d2bd5fa	0.04195211
139	0xbc988e7c	-0.01862263
140	0x3bb99047	0.005662951
141	0xbdd144fd	-0.102182366
142	0xbd8a464c	-0.06751689
143	0x3dc82852	0.097733155
144	0x3e2237ed	0.15841646
145	0x3e118d43	0.14214043
146	0x3e4e58e1	0.20151092
147	0x3e450c5b	0.19242994
148	0x3e2b35e7	0.16719781
149	0xbd8eac49	-0.069664545
150	0x3e5f0b37	0.21781622
151	0x3e60e67d	0.21962924
152	0x3d7ddb39	0.061976645
153	0xbe43c255	-0.191171
154	0xbe3a16f9	-0.18172826
155	0x3ed49ae7	0.4152443
156	0x3df06ba3	0.1173928
157	0xbe8dbc20	-0.2768259
158	0xbd7e2605	-0.062047977
159	0xbe2a6324	-0.16639382
160	0x3e0b2834	0.13589555
161	0x3cb1e6e2	0.021716539
162	0xbdba8e56	-0.0910918
163	0xbe33adcf	-0.17546771
164	0xbe6d0d18	-0.23149526
165	0x3e511449	0.20417894
166	0xbe53cbab	-0.20683162
167	0x3e0989cf	0.13431476
168	0xbe69b0c2	-0.22821334
169	0x3d9aa27a	0.07550521
170	0xbd6747bb	-0.056464892
171	0x3d221d22	0.039578564
172	0xbd1a001d	-0.037597764
173	0x3da27fbb	0.07934519
174	0xbc85a169	-0.016312318
175	0x3dbf4c18	0.093406856
176	0xbe6c582e	-0.23080513
177	0x3e22b5f7	0.15889727
178	0x3d9e8d11	0.0774175
179	0x3e15eb60	0.1464057
180	0x3b5cdcc6	0.0033700927
181	0xbe3b2ad1	-0.18278052
182	0xbe5cb509	-0.21553434
183	0x3d8d8ac7	0.06911235
184	0x3d1f1516	0.03883847
185	0xbc6318f2	-0.013860928
186	0x3e21e6bb	0.15810673
187	0x3d87b1d7	0.06625717
188	0x3e77c028	0.24194396
189	0x3e1aa587	0.15102206
190	0x3eb16764	0.34649193
191	0x3e744f59	0.23858394
192	0x3e8a10c1	0.26965907
193	0x3d1db959	0.03850684
194	0xbd878946	-0.0661798
195	0x3da4c5a3	0.08045509
196	0xbd8866d1	-0.06660236
197	0xbdafed42	-0.08590175
198	0xbe01741e	-0.12641951
199	0xbd49dd8c	-0.04928355
200	0xbcbfc82e	-0.023410883
201	0x3edb232c	0.42800272
202	0xbd857554	-0.06516519
203	0x3d7681eb	0.060182493
204	0xbe1a4cd2	-0.15068367
205	0xbd3c63e2	-0.045993693
206	0xbf120a2c	-0.5704677
207	0x3cf06140	0.029343247
208	0x3d62d31e	0.05537712
209	0xbc87fee4	-0.016601034
210	0x3d0b699b	0.03403626
211	0x3d9a9167	0.075472645
212	0x3e7c06ba	0.24611941
213	0x3e25b535	0.16182406
214	0xbd0f14db	-0.034932
215	0xbbfb7c1f	-0.0076747085
216	0xbcf6f2db	-0.0301451
217	0x3e814c48	0.2525351
218	0xbe8db7ec	-0.27679384
219	0xbd3e7616	-0.046499334
220	0xbcdd50f2	-0.027016137
221	0x3cb7f042	0.022453431
222	0xbd3b94fd	-0.045796383
223	0x3e56e06e	0.2098405
224	0x3e070300	0.13184738
225	0xbe250870	-0.161165
226	0x3eb07a10	0.34468126
227	0x3c77f771	0.015134678
228	0x3d6dc903	0.058053028
229	0x3ee6817d	0.45020667
230	0xbdd8bfd0	-0.1058346
231	0xbd5e7223	-0.054308068
232	0xbc1e0b57	-0.009646258
233	0xbe9a7a46	-0.30171412
234	0xbdf751a5	-0.12076119
235	0xbe18e91f	-0.14932679
236	0xbdd48f2f	-0.103788726
237	0xbdc1258e	-0.09430991
238	0x3d30129a	0.04298649
239	0x3e392d62	0.18083718
240	0x3e7942b0	0.24341846
241	0xbc636bed	-0.013880712
242	0x3e2059ff	0.15659331
243	0x3df3b586	0.11899857
244	0xbdd12140	-0.1021142
245	0xbdd4ec1e	-0.10396598
246	0x3dbecdd5	0.09316603
247	0x3d5d555c	0.054036483
248	0x3d9f484b	0.07777461
249	0xbe68f2b7	-0.22748838
250	0xbe56bcaa	-0.20970407
251	0x3bb0c5c4	0.0053946692
252	0xba657128	-0.00087525183
253	0xbcb24149	-0.021759646
254	0x3ced5524	0.028971262
255	0x3d192d6b	0.03739683

ff.0.bias f4 [128]
0	0x3ddd80c9	0.108155794
1	0x3ca3079e	0.019901093
2	0x3dd8bf59	0.10583372
3	0x3e2d0aca	0.16898647
4	0x3c06af3a	0.008220488
5	0xbe368d08	-0.17827237
6	0x3e007ecd	0.1254837
7	0xbdf16f53	-0.117888115
8	0xbe314572	-0.17311648
9	0xbe172d76	-0.14763436
10	0xbe38a2d5	-0.18030865
11	0xbd627a30	-0.05529231
12	0x3df19c97	0.11797445
13	0xbe382b6f	-0.17985319
14	0xbe0210a4	-0.1270166
15	0xbc27331f	-0.010205059
16	0xbe1e41ad	-0.15454741
17	0xbdc5bfc4	-0.09655717
18	0xbe243bfa	-0.16038504
19	0xbcc86b16	-0.024465125
20	0xbc088866	-0.008333301
21	0xbdae036d	-0.08496747
22	0xbe309b78	-0.17246807
23	0xbcad9205	-0.021187792
24	0x3e28b14d	0.16473885
25	0x3bfdeb18	0.0077489726
26	0x3c059d68	0.008155204
27	0xbdcc08e3	-0.099626325
28	0x3c728469	0.014802077
29	0xbe50fe0d	-0.20409413
30	0xbd163af8	-0.03667733
31	0x3c2caa51	0.0105386535
32	0xbea09491	-0.31363347
33	0xbe16b71c	-0.14718288
34	0x3d15cf84	0.036574855
35	0xbdbad6b4	-0.091229826
36	0x3a52ed4b	0.00080462237
37	0x3cdd6418	0.027025267
38	0x3d36c4e8	0.04462138
39	0x3d9ff80d	0.07810984
40	0x3c42c574	0.011887897
41	0xbd5b9e96	-0.053618036
42	0xbe91399d	-0.28364268
43	0xbe88ee15	-0.26744142
44	0xbe6a29f6	-0.2286757
45	0xbdc16762	-0.09443547
46	0xbce18aa9	-0.027531939
47	0xbe15f797	-0.1464523
48	0x3ba37386	0.0049881367
49	0xbe5a0d13	-0.2129405
50	0xbe1865eb	-0.14882629
51	0xbdb71983	-0.08940413
52	0xbe1d3f0c	-0.15356082
53	0xbde586d3	-0.11207356
54	0xbe4f410d	-0.20239659
55	0xbd05b3b8	-0.032642096
56	0xbdf86145	-0.12127928
57	0xbcb6de1d	-0.022322709
58	0xbe8bc8e9	-0.2730172
59	0xbc69e81c	-0.014276531
60	0xbc114903	-0.008867505
61	0xbda201e1	-0.079105146
62	0x3defa982	0.11702253
63	0xbdafd7d5	-0.085860886
64	0xbdb8f322	-0.09030749
65	0xbe31961d	-0.1734242
66	0xbd767470	-0.060169637
67	0xbd7a5383	-0.0611148
68	0xbe81258d	-0.2522396
69	0xbc42584c	-0.011861872
70	0x3c444f95	0.011981864
71	0x3e34bc92	0.17650059
72	0x3b66ff22	0.0035247286
73	0xbe7e75ea	-0.24849668
74	0xbda10b26	-0.078634545
75	0xbc84d15b	-0.01621311
76	0xbe76ef80	-0.241148
77	0xbe052704	-0.13003165
78	0x3de1b44a	0.110207155
79	0x3da3d47d	0.07999513
80	0x3d277239	0.040880416
81	0xbe1f21a0	-0.1554017
82	0xbe5f06ff	-0.21780013
83	0x3bf807e9	0.0075693023
84	0x3d871164	0.06595114
85	0xbdb444f5	-0.08802215
86	0xbe5653c1	-0.20930387
87	0x3c5390c6	0.012912935
88	0x3d370d61	0.044690493
89	0xbd4ed9d1	-0.050500695
90	0xbe62fcec	-0.22166795
91	0x3c9cf8df	0.01916164
92	0xbdcd57b6	-0.10026495
93	0xbdb0ef80	-0.08639431
94	0xbcc6c732	-0.024264906
95	0xbe414bf6	-0.18876633
96	0xbe387738	-0.18014228
97	0xbd78b53c	-0.060719714
98	0xbcaf9a94	-0.021436013
99	0x3b8c01db	0.004272682
100	0xbd95c66b	-0.07313236
101	0xbd294c61	-0.041332606
102	0xbdaa4c85	-0.08315376
103	0xbdaff31d	-0.08591292
104	0xbc95451f	-0.018221436
105	0xbe073884	-0.13205153
106	0xbe4d091e	-0.20023009
107	0xbddf31b6	-0.108981535
108	0xbd9b7527	-0.075907044
109	0x3d39e986	0.04538872
110	0xbe1c3c7b	-0.15257446
111	0xbe5addfc	-0.21373743
112	0x3cbb9dfb	0.02290248
113	0x3cc1b8a5	0.023647616
114	0xbe529b2d	-0.20567007
115	0xbe1dcd2b	-0.15410297
116	0x3d8bd67b	0.06828018
117	0x3dd71ba6	0.105033204
118	0x3e22eabc	0.15909857
119	0x3d16ba8c	0.036799
120	0xbd02f1a7	-0.03196874
121	0xbe1e91a8	-0.15485251
122	0x3dad67b0	0.084670424
123	0x3dc55cb1	0.0963682
124	0xbe4a75ba	-0.19771472
125	0xbd94242b	-0.07233461
126	0xbd5ab8c2	-0.053398855
127	0xbe5b8a07	-0.21439372

ff.2.weight f4 [32, 128]
0	0xbe3a3e5f	-0.18187855
1	0xbdaa64f4	-0.083200365
2	0x3e70f73f	0.23531817
3	0xbd270f8d	-0.040786315
4	0x3c0ef658	0.008725725
5	0xbddd070a	-0.10792358
6	0x3d5614a7	0.05226579
7	0xbe1df1d4	-0.15424281
8	0x3e924744	0.28569996
9	0xbe80a529	-0.25126007
10	0x3f04b5c9	0.5183988
11	0xbd4dc4d6	-0.050236546
12	0x3e849c85	0.25900665
13	0x3dbedeb0	0.09319818
14	0xbcaa3872	-0.020778868
15	0xbcdb1304	-0.026742466
16	0x3e257378	0.16157329
17	0xbeb4790c	-0.352486
18	0xbd2c0ea9	-0.04200617
19	0x3e832eac	0.25621545
20	0x3d6e6dd2	0.0582102
21	0xbd33ec7e	-0.04392671
22	0xbd619694	-0.055075243
23	0xbd86223d	-0.06549499
24	0x3d06d807	0.032920863
25	0x3e92ce12	0.28672844
26	0xbbbe198d	-0.0058013857
27	0x3e18b9a5	0.14914568
28	0x3d8599ee	0.065235004
29	0xbe84e614	-0.25956786
30	0x3e50cfa8	0.20391715
31	0xbe87c3e7	-0.2651665
32	0xbefeab21	-0.49739936
33	0xbd611edc	-0.05496107
34	0xbd2e206c	-0.04251139
35	0x3dabf681	0.08396626
36	0xbe53cb12	-0.20682934
37	0x3ec47fc2	0.3837872
38	0x3e1dad4a	0.15398136
39	0xbc28326b	-0.010265927
40	0x3e2e6eb5	0.17034419
41	0x3e1a9a52	0.15097931
42	0xbe907d8a	-0.2822078
43	0x3eaeac65	0.34115902
44	0x3dd57e92	0.10424532
45	0xbe47aa03	-0.19498448
46	0x3e8036d2	0.25041825
47	0xbd94fa8e	-0.07274352
48	0x3cdb4880	0.02676797
49	0xbdca8b25	-0.09889821
50	0x3e0b2758	0.13589227
51	0xbe5f41d8	-0.21802461
52	0x3e80f08f	0.25183532
53	0x3e2e8236	0.17041859
54	0xbe4fe72c	-0.20303029
55	0x3e4557fd	0.19271846
56	0x3ba8c388	0.0051502623
57	0xbe112971	-0.14175965
58	0x3e50dfa5	0.20397814
59	0xbe462814	-0.19351226
60	0xbe4bb49d	-0.19893117
61	0x3ec31677	0.38103077
62	0x3cbbdc9e	0.022932347
63	0xbd44f4a7	-0.04808488
64	0x3e7813d8	0.2422632
65	0x3e25520b	0.16144578
66	0xbdb1a268	-0.08673555
67	0x3eaf4bad	0.34237424
68	0x3e97f032	0.29675442
69	0xbe0ec4e1	-0.13942291
70	0xbd4f291f	-0.050576326
71	0xbc9a752c	-0.0188547
72	0x3dd3c5d0	0.10340464
73	0x3e17319d	0.1476502
74	0x3e83d93b	0.2575167
75	0xbe59296e	-0.2120721
76	0x3d973ca1	0.07384611
77	0x3e26bd6e	0.16283199
78	0x3e7f1ef0	0.24914145
79	0xbce4144e	-0.027841713
80	0xbeb0e1c0	-0.34547234
81	0xbf1278a5	-0.5721534
82	0x3e2ad47d	0.1668262
83	0xbdfbcce2	-0.12294938
84	0xbdd0e293	-0.101994656
85	0xbe64cc1b	-0.22343485
86	0x3e294c6c	0.16533059
87	0x3d270574	0.040776685
88	0xbd925f48	-0.0714708
89	0xbe3cbc95	-0.18431313
90	0xbf3dcc38	-0.7413974
91	0x3df56c58	0.119835556
92	0xbe5094e5	-0.20369299
93	0xbe0c3750	-0.13692975
94	0x3e4dbee2	0.20092347
95	0x3cfb4945	0.030674586
96	0x3e2ed241	0.17072393
97	0x3d13fdf1	0.03613085
98	0xbdce5108	-0.10074049
99	0xbe1f9796	-0.15585169
100	0x3e2d13b3	0.16902046
101	0xbe6b1c9a	-0.2296013
102	0x3bb7090d	0.0055857957
103	0xbe528472	-0.20558336
104	0xbe751e58	-0.23937356
105	0x3d63fff1	0.055664007
106	0xbf4b75cb	-0.7947661
107	0xbd810ad9	-0.06300897
108	0xbda785ed	-0.08179841
109	0x3eb473f2	0.3524471
110	0x3e3bcb0e	0.18339178
111	0xbecd1e9b	-0.40062413
112	0xbd9cdcd9	-0.07659311
113	0x3e1da546	0.15395078
114	0x3d40d6cb	0.047079843
115	0x3e375a72	0.17905596
116	0xbe2c0c00	-0.16801453
117	0x3e29be9c	0.16576618
118	0x3dcd8b07	0.10036283
119	0x3ec95ce1	0.39328673
120	0xbe902129	-0.281503
121	0x3e65efe6	0.22454795
122	0x3d5a71c1	0.05333114
123	0xbe0aa3c6	-0.13539037
124	0x3ed9cc46	0.4253866
125	0xbed7a83b	-0.42120537
126	0x3d6936ce	0.05693703
127	0x3e0e1462	0.13874963
128	0x3dd0beec	0.101926655
129	0x3d2be7ca	0.0419691
130	0xbe6ec742	-0.23318198
131	0xbe6e7fe4	-0.23290974
132	0xbda54c2d	-0.0807117
133	0xbcd37a43	-0.025815135
134	0xbe289017	-0.16461216
135	0x3dc6e909	0.09712417
136	0xbe1e9022	-0.1548467
137	0x3e4e53ab	0.20149104
138	0xbeae56ef	-0.340507
139	0x3cb0c628	0.021578863
140	0xbe91713f	-0.28406712
141	0xbe293e32	-0.16527632
142	0xbcf960a7	-0.030441595
143	0xbdbc4075	-0.09191982
144	0xbe7ecbde	-0.24882457
145	0x3e84d334	0.25942385
146	0x3e3d537e	0.18488881
147	0xbe25a0ce	-0.16174623
148	0xbd945057	-0.07241886
149	0x3e1021f5	0.14075454
150	0x3b935acd	0.0044969083
151	0xbd51513d	-0.051102865
152	0x3de5e734	0.11225739
153	0xbe84d1b6	-0.25941247
154	0xbc6eda53	-0.01457842
155	0xbe47b3d5	-0.19502194
156	0xbe522d04	-0.20524985
157	0x3e8e79dc	0.27827346
158	0xbe84c253	-0.25929508
159	0x3ea5ff20	0.32421207
160	0x3ee57d68	0.4482224
161	0xba99c77b	-0.0011732423
162	0xbdc162f7	-0.09442704
163	0xbe12c357	-0.14332329
164	0x3dd98c01	0.10622407
165	0xbeb2d40f	-0.34927413
166	0xbdeffa4f	-0.117176645
167	0xbde33191	-0.110934384
168	0xbe8d5799	-0.27605894
169	0xbe9747da	-0.29547006
170	0x3f10258d	0.563073
171	0xbea93748	-0.3304999
172	0xbea4db77	-0.32198688
173	0x3dc190de	0.09451459
174	0xbec76654	-0.38945258
175	0x3de8929e	0.1135609
176	0xbcb41393	-0.02198199
177	0xbc065ffc	-0.008201595
178	0xbe0cadfa	-0.13738242
179	0x3e7d34c0	0.24727154
180	0xbe3262bd	-0.17420478
181	0xbde592c9	-0.11209638
182	0x3d49af4d	0.049239445
183	0xbe341f9f	-0.17590187
184	0x3c6e258e	0.014535321
185	0xbd6e362e	-0.05815714
186	0xbe849397	-0.25893852
187	0x3e65d092	0.22442845
188	0x3df25322	0.118322626
189	0xbebba107	-0.36646292
190	0x3d99cb15	0.07509438
191	0x3e3e566f	0.1858766
192	0xbe3362bc	-0.17518133
193	0xbebfb6eb	-0.37444243
194	0xbd1615b7	-0.036641803
195	0xbe946813	-0.28985652
196	0xbea58484	-0.32327664
197	0x3d78f292	0.060778208
198	0xbe0ad5ed	-0.13558169
199	0x3e45c22e	0.19312355
200	0xbe24e224	-0.16101891
201	0xbe41d915	-0.18930466
202	0xbe4bead1	-0.19913794
203	0x3dca0dc6	0.09865908
204	0xbad5901a	-0.0016293556
205	0xbe11c410	-0.14234948
206	0xbea5e625	-0.3240215
207	0xbe277fb1	-0.16357304
208	0x3e1b9425	0.15193231
209	0x3ee63de3	0.4496909
210	0xbdf91b67	-0.1216343
211	0x3d1c900c	0.03822331
212	0xbd00b1e7	-0.03141966
213	0x3dcc53f9	0.09976954
214	0xbdd7b985	-0.10533432
215	0x3c7f38d4	0.015577514
216	0xbdd070a8	-0.101777375
217	0xbd83a0a7	-0.064271264
218	0x3f287c7f	0.65814966
219	0x3d5855e6	0.052816294
220	0x3c7c4a91	0.015398637
221	0x3c930375	0.017945984
222	0xbd90c336	-0.070684835
223	0xbb683f0d	-0.0035437972
224	0x3d950a66	0.07277374
225	0xbe193abc	-0.14963812
226	0x3c1d12e5	0.009587024
227	0xbcd5373c	-0.026027314
228	0xbdea1cb2	-0.114312544
229	0x3d189c6d	0.037258554
230	0xbd9e6b75	-0.077353396
231	0x3dd5e441	0.104439266
232	0x3e1b3892	0.15158299
233	0xbe4a7d3b	-0.19774334
234	0x3f37ab70	0.7174597
235	0x3cc53513	0.02407316
236	0x3bcbb6bf	0.0062168534
237	0xbe0f5e29	-0.14000763
238	0xbe054a04	-0.13016516
239	0x3e8bdb57	0.2731578
240	0x3de1a970	0.11018646
241	0x3ca11437	0.01966296
242	0xbd2c5171	-0.042069856
243	0xbdde8c5b	-0.108666144
244	0x3e0a8364	0.13526684
245	0x3c7ca488	0.015420087
246	0xbe151050	-0.14557004
247	0xbea3478e	-0.3189053
248	0x3e793d2d	0.24339743
249	0xbdf66451	-0.120308526
250	0xbdea9fe3	-0.11456277
251	0x3c58773f	0.013212024
252	0xbf108249	-0.564488
253	0x3ec04af2	0.3755718
254	0xbd0af3ff	-0.0339241
255	0xbe4c8910	-0.1997416

ff.2.bias f4 [32]
0	0x3d69611e	0.056977384
1	0xbc7b7580	-0.015347838
2	0xbca00eb1	-0.019538255
3	0xbdcd8698	-0.10035437
4	0x3d2fcd3b	0.042920332
5	0x3e017433	0.12641983
6	0x3a208302	0.00061230373
7	0x3d3912fc	0.04518412
8	0x3d72a05b	0.05923496
9	0xbcdae0c0	-0.026718497
10	0xbe1449f5	-0.14481337
11	0xbd23e144	-0.040009752
12	0x3df3a536	0.11896746
13	0x3d573eda	0.052550174
14	0x3c064fc8	0.008197732
15	0x3da12f6b	0.078703724
16	0xbdd3e2a7	-0.10345965
17	0x3c8e052b	0.017336449
18	0xbd924376	-0.071417734
19	0xbdafc7ed	-0.08583055
20	0xbd83665a	-0.064160064
21	0xbdf1dbf7	-0.11809533
22	0xbc8592cc	-0.01630535
23	0xbe1a5247	-0.15070449
24	0xbcdd9607	-0.027049078
25	0xbccd7e03	-0.025084501
26	0x3dbdc6e1	0.09266449
27	0xbd4a6994	-0.049417093
28	0xbc87a636	-0.016558748
29	0xbe7c2571	-0.24623658
30	0xbe2cf0fe	-0.16888806
31	0x3d6dad82	0.058026798

norm1.weight f4 [32]
0	0x3f7ef843	0.9959757
1	0x3f672182	0.90285504
2	0x3f6a26ea	0.9146563
3	0x3f8af8d5	1.0857188
4	0x3f81090e	1.0080888
5	0x3f81f635	1.0153261
6	0x3f7cc5bc	0.9873922
7	0x3f4faba6	0.8112129
8	0x3f6e4189	0.9306875
9	0x3f8d8c87	1.105851
10	0x3f8cee93	1.1010307
11	0x3f8a701f	1.0815467
12	0x3f99f0b7	1.2026585
13	0x3f8e19a6	1.1101577
14	0x3f917780	1.1364594
15	0x3f8fbbcd	1.1229187
16	0x3f85be63	1.0448726
17	0x3f70394c	0.9383743
18	0x3f89cb58	1.076518
19	0x3f9a5eaa	1.2060139
20	0x3f5fbc0a	0.873963
21	0x3f8a64b8	1.0811987
22	0x3f8b0da2	1.0863535
23	0x3f75b366	0.95976865
24	0x3f8cc335	1.0997072
25	0x3f61f0ad	0.8825787
26	0x3f819a3f	1.0125197
27	0x3f82f7dc	1.0231891
28	0x3f7f8707	0.9981541
29	0x3f6d0a59	0.92593914
30	0x3f844c5c	1.0335803
31	0x3f49f266	0.78885496

norm1.bias f4 [32]
0	0x3caf4d09	0.021399038
1	0xbdc3834d	-0.09546528
2	0xbcd1d5a4	-0.025614567
3	0xbd3af421	-0.045642976
4	0xbd343532	-0.043996044
5	0x3e45181d	0.1924748
6	0x3e5e52fe	0.21711347
7	0xbd88a637	-0.06672328
8	0x3df85cf0	0.121271014
9	0xbc8d54b0	-0.017252296
10	0xbc4c3aec	-0.01246522
11	0xbdae3492	-0.08506121
12	0x3dded007	0.10879522
13	0x3d5161b4	0.051118568
14	0xbd96a3de	-0.07355474
15	0xbd546796	-0.0518566
16	0xbd38baca	-0.04510001
17	0xbdfa66b1	-0.12226618
18	0x3e2f8fc0	0.1714468
19	0x3d1c0959	0.038094852
20	0x3e81c7c7	0.2534773
21	0xbd0014bb	-0.03126977
22	0x3c82a8bb	0.015949598
23	0xbe067ce1	-0.13133575
24	0x3d5263a3	0.051364552
25	0x3d80ed66	0.0629528
26	0xbe11d436	-0.14241108
27	0x3d7ebb3a	0.062190272
28	0x3e0736c0	0.13204479
29	0xbe1990ac	-0.14996594
30	0xbe2aef4a	-0.16692844
31	0x3d913ce0	0.07091689

norm2.weight f4 [32]
0	0x3f8ddecc	1.1083617
1	0x3f90bff0	1.1308575
2	0x3f861c94	1.0477471
3	0x3f4b6e27	0.79464954
4	0x3f813a2c	1.0095878
5	0x3f8a6cbe	1.0814435
6	0x3f62076b	0.8829257
7	0x3f6b82e2	0.91996586
8	0x3f853385	1.0406348
9	0x3f8a9f27	1.082982
10	0x3f819cbb	1.0125955
11	0xb8ee44e8	-0.00011361559
12	0x3f8834eb	1.0641149
13	0x3f84b0da	1.0366471
14	0x3f8798da	1.0593522
15	0x3f62eefd	0.8864592
16	0x3f826c43	1.0189289
17	0x3f44989e	0.76795375
18	0x3f89e8d5	1.077418
19	0x3f84b551	1.0367833
20	0x3f874521	1.0567971
21	0x3f917490	1.1363697
22	0x3f6c7740	0.9236946
23	0x3f3b3cb5	0.73139507
24	0x3f66c865	0.9014953
25	0x3f483afe	0.78215015
26	0x3f8d3762	1.1032526
27	0x3f7dc247	0.9912457
28	0x3f809070	1.0044079
29	0x3f62d11f	0.88600343
30	0x3e7ac7bd	0.24490257
31	0x3f624a83	0.88394946

norm2.bias f4 [32]
0	0x3d8f572c	0.069990486
1	0xbd93c6df	-0.07215666
2	0xbd992967	-0.074786
3	0xbe178727	-0.1479765
4	0xbd8e3567	-0.069437794
5	0xbcbd37da	-0.023097921
6	0xbddc0489	-0.107430525
7	0xbda52f68	-0.08065683
8	0x3d93bb4a	0.07213457
9	0xbd924199	-0.07141418
10	0x3ca2ada8	0.019858196
11	0xb86736c2	-5.512569e-05
12	0xbd6540d3	-0.055970024
13	0xbd2ec911	-0.04267222
14	0xbd985b65	-0.07439307
15	0x3e0d5589	0.1380216
16	0x3d0789b1	0.033090297
17	0xbd479748	-0.048728257
18	0x3d9682ac	0.073491424
19	0x3d531144	0.051530138
20	0x3d9a1b4d	0.075247385
21	0x3d7fffd3	0.062499832
22	0x3e0dead6	0.13859114
23	0xbc17702d	-0.009243053
24	0xbdb99a64	-0.09062651
25	0x3e205515	0.15657456
26	0xbd93c71d	-0.07215712
27	0x3d981e89	0.07427699
28	0xbd45ba75	-0.048273522
29	0xbd822454	-0.06354585
30	0x3eaa103c	0.3321551
31	0x3d4523bf	0.048129793

classifier.weight f4 [1, 32]
0	0xbe8dad90	-0.2767148
1	0x3e86da4c	0.26338422
2	0x3e76ed88	0.24114048
3	0xbcaf8e7b	-0.021430245
4	0x3e26f53a	0.16304484
5	0x3e4932fc	0.19648355
6	0x3d6d9c80	0.05801058
7	0x3da018aa	0.07817204
8	0xbe47a17e	-0.19495198
9	0x3e72b8d7	0.23703323
10	0xbe244f10	-0.16045785
11	0xb833bcc6	-4.2852735e-05
12	0x3e7457e7	0.23861657
13	0x3e49079f	0.19631813
14	0x3e784150	0.24243665
15	0xbd6b0a41	-0.057382826
16	0xbe036568	-0.12831652
17	0xbce8d485	-0.02842165
18	0xbe465cc8	-0.1937133
19	0xbe4c2c65	-0.1993881
20	0xbe6e8ed9	-0.2329668
21	0xbe9f5cef	-0.3112559
22	0xbd7a01a0	-0.061036706
23	0x3c9c07cb	0.019046685
24	0x3d7e560b	0.062093776
25	0xbbcf5e17	-0.006328355
26	0x3e82c060	0.25537395
27	0xbe090de5	-0.13384207
28	0x3e1b9b35	0.15195926
29	0x3c694828	0.014238395
30	0xbde1f035	-0.11032144
31	0xbd0e9582	-0.03481055
