checkpoints/sketch_prediction/BrepStrokeCloudAttention.pth (torch, 815738 bytes, 15 tensors)

attention.in_proj_weight f4 [384, 128]
00000000: 6d86 af3d 00be f23d 47a5 c3bd 3c84 413e
00000010: 590d 243e 8a26 c33d 2cda 96bd 86b6 4abd
00000020: 9b48 b73d 2f48 e83d f8c7 a8bd 98db 2bbe
00000030: 2004 0dbe b113 ab3d 3d87 05bd bbd0 c3bd
00000040: 0d47 ffbd bfe4 8dbd a377 f23c 4174 a83c
00000050: 8cdf f13d 42c6 3bbc 88a7 a8bb 49be a13d
00000060: 2f1b a03d 68b3 ac3d 52f2 b33d 486e 45bd
00000070: 6c5d 84bd 56f2 023d f214 0c3d f54e 6c3b
00000080: d5ff afbd 27e1 1bbe 263a 45bc 34a0 93bd
00000090: 89fc d33d 530c 273d bc5c 203d ecd4 433c
000000a0: a998 e7bd 28af 1e3d 9879 703c 2acb 113d
000000b0: aa83 10bd 0565 953c 2240 343d fb8b 4a3d
000000c0: 3e49 0c3d 80a0 ed3d f374 9d3c 0ced b03d
000000d0: bc61 4a3d d648 5a3d b5eb 643c 7588 d2bd
000000e0: e161 bd3d ff40 cfbd f302 02be a5ea 5ebd
000000f0: 6bbc c63c f650 2cbd b0f7 f3bc c261 5a3d
00000100: 164d a93b 50dd eabd 13e4 c8bd 4b8b 44bd
00000110: b1af d2bd f655 263b 1a8b f2bd 87eb d63d
00000120: 6419 ce3d 5054 dc3d 4457 dd3d 67e9 9a3d
00000130: 331e 313d fd73 b13d 1150 5cbd d4c0 d6bd
00000140: c2a1 cb3d eb39 c43d 695a babd c9fd 57bd
00000150: bb56 ca3d 93a6 fc3d 5126 b83c 8b18 6b3b
00000160: d0a9 cbbd c74f aa3d 1b89 003d 4496 163d
00000170: b035 a3bd 7cbd d6bd 54b0 cabd 6625 c03d
00000180: 9c1d e5bc 753b bbba fda1 e13d 0a64 713d
00000190: 2467 0cbe f653 773c b23f 92bd d2df 9c3d
000001a0: 03e5 093d 54d4 a73d d577 fa3d 628a f33d
000001b0: ce7d 0abd dc6f c0bd 8f2f ad3c b690 0cbe
000001c0: 47b1 e5bd e5e5 8ebd 505f b0bd 02fe 853a
000001d0: 867e 2ebd 7ac1 eabc 3189 cd3c a22e 9e3d
000001e0: 603e e53d 2396 873d 3a00 c8bc d9b4 093c
000001f0: 42ad b7bc 1bef ddbd 959a 86bd cb63 583d
00000200: 168f 75bd 66b7 9dbd d52f c43c 47ac 5f3d
00000210: 10f5 bfbd 562e 20bd db87 983d 45e7 8abc
00000220: cf1c 033d 168e 6abc a02f 15bd 8eff f3bc
00000230: 31f4 ca3d 8dc1 ed3c e2d0 08bd 322b 903b
00000240: 7480 c6bd 5c95 b83d 9d0a 00be 3c47 ad3d
00000250: 076c 01bc 6d95 9dbd f4b1 2fbd bbce b2bd
00000260: b44d 89bd fac4 b4bd f360 4f3d e71c c2bd
00000270: 6e2d aebb b58f 2ebd 84b5 b03d 91c2 e03c
00000280: 22a3 aabc 85ad 33bc 2176 9abd 2f62 18bd
00000290: f3f1 e03d bc11 883d 69a6 78bd a29b f9bc
000002a0: 74ae 923d e79e 8fbd c085 53bc 612f b0bd
000002b0: 8a82 b93d b409 b33b 0a8c abbd abcc 8b3d
000002c0: 95e7 46bd cdcc 643d a9a7 b93d 4cbb 6dbc
000002d0: ba5e b43d f7b4 09bd efc4 53bd badb d3bc
000002e0: 562b 90bd 9922 003d 6334 12be d00a cdbc
000002f0: aed5 b8bd b713 2cbc df2c d2ba 3a2b e83d
00000300: c97b f9bd 2522 703d 1199 9d3d aa67 ebbd
00000310: 344f 903c 04aa f2bd a2ac 11bd 5c81 8b3d
00000320: 150e 403d d8a8 893d 5ef5 bfbd e333 97bd
00000330: 6d50 afbd be36 21bd 8749 3d3d 6c2b bc3d
00000340: 7931 943d ccc6 3d3d 186b 5bbd 76ae 193d
00000350: 7678 ab3d 3da8 4b3d bb54 3cbb 60d9 be3c
00000360: d871 1d3d 479d 7bbd 8617 aebd 0d30 463d
00000370: 6975 a6bd bfe5 333e 0e10 7c3d 11cd 92bd
00000380: 71fc b43c d0d4 c9bd 4f19 6b3d dca0 18bd
00000390: b4bb 29bc 0c4e c03c 6ae3 e6bd ca12 033d
000003a0: 5ebf 2f3d 7fac 32bc d8ad 633d 2942 77bd
000003b0: ba71 14bd e18a 993d f0ae f7bc a899 2c3d
000003c0: 5d01 9b3b 8934 bc3d 96a4 9dbd e798 eb3d
000003d0: d7fe 61bd bc2a 083e 948e d33d af9f 54bd
000003e0: abab 59bd 1a2b 85bd 15e3 113d ba23 b2bd
000003f0: c78e f9bd 36c2 35bd 1d3c e93b 7328 1bbc
0.085705616 0.11852646 -0.095530085 0.188981 0.16020717 0.09528835 -0.07365832 -0.049490474
0.08949395 0.11341893 -0.08241266 -0.16782987 -0.13771105 0.08353365 -0.032599676 -0.095612966
-0.12464724 -0.069283955 0.029598063 0.020563247 0.11810216 -0.011460843 -0.0051469244 0.07897622
0.07817685 0.084326565 0.08786453 -0.048200876 -0.06463131 0.03196939 0.034199663 0.0036057804
-0.08593718 -0.15222608 -0.012037789 -0.07208291 0.10350902 0.040783238 0.03915094 0.01195262
-0.113084145 0.03874126 0.014677428 0.035594143 -0.035281815 0.018236646 0.044006474 0.049449902
0.034249537 0.116028786 0.019220805 0.08638963 0.049409613 0.053292118 0.013972213 -0.10279933
0.092471845 -0.10119819 -0.12696438 -0.054422993 0.024259767 -0.042069398 -0.029781193 0.053315885
0.00516666 -0.11467993 -0.09809127 -0.047984403 -0.10287417 0.0025380827 -0.11842938 0.10494142
0.100634366 0.10758269 0.1080766 0.07564049 0.04324169 0.08664701 -0.053787295 -0.10485998
0.09942962 0.095813595 -0.090992756 -0.052732263 0.09879824 0.12336459 0.022479208 0.0035872783
-0.099444985 0.083159976 0.031380754 0.0367644 -0.079692245 -0.1048536 -0.09896913 0.09382133
-0.02796822 -0.0014284687 0.11017225 0.058933295 -0.1371122 0.015095701 -0.07141055 0.07659878
0.03366567 0.08194795 0.122298874 0.11891629 -0.033811383 -0.093963355 0.021140842 -0.13727078
-0.112154536 -0.06977443 -0.086119294 0.0010222795 -0.04260113 -0.02865671 0.025089832 0.07723738
0.11193538 0.06620433 -0.02441417 0.008404934 -0.022421483 -0.108366214 -0.06572453 0.052829545
-0.05995091 -0.07700996 0.02394859 0.054607656 -0.09372914 -0.03910669 0.074477874 -0.016955981
0.032009896 -0.0143161025 -0.036422372 -0.029784944 0.09909857 0.029022956 -0.03340233 0.0043996805
-0.09692469 0.09012863 -0.12504049 0.084608525 -0.007899291 -0.07694516 -0.04289432 -0.08730837
-0.06704274 -0.08826633 0.050629567 -0.09478169 -0.0053154742 -0.04261752 0.08628371 0.027436526
-0.02082974 -0.010966663 -0.075420626 -0.03720301 0.10983648 0.066440076 -0.060705576 -0.03046972
0.071621805 -0.0701273 -0.012910306 -0.08602787 0.090581015 0.005463803 -0.0837632 0.06826147
-0.048560698 0.055859376 0.09065182 -0.014509987 0.0880713 -0.033619847 -0.051701482 -0.02586161
-0.07039516 0.031282995 -0.14277796 -0.02502957 -0.09025131 -0.010502747 -0.0016035101 0.1133637
-0.12181813 0.058626313 0.07695211 -0.11494382 0.017615892 -0.11848834 -0.035565026 0.06811783
0.04688843 0.067216575 -0.09372972 -0.073829435 -0.08560262 -0.039358847 0.0462127 0.091879696
0.07235999 0.046332166 -0.05356893 0.037519895 0.083725855 0.04972099 -0.0028737027 0.023297012
0.038438648 -0.06142929 -0.085005805 0.04838567 -0.08127863 0.1756811 0.06153875 -0.071680196
0.02209303 -0.09855044 0.057397183 -0.037262782 -0.010359693 0.023474716 -0.112738445 0.03200034
0.04290711 -0.010905384 0.055585712 -0.06036583 -0.03624127 0.07497192 -0.030234784 0.042138726
0.004730387 0.09189708 -0.07697408 0.11503773 -0.055174675 0.13297552 0.10329929 -0.0519101
-0.05314223 -0.065023616 0.035616953 -0.086982206 -0.12185436 -0.044374667 0.0071177618 -0.009470093

attention.in_proj_bias f4 [384]
00000000: 38c7 583d dc63 a5bc 3db6 08bd 95ee 8f3d
00000010: 31e7 46bd 503f 723d c350 1d3c 7c38 5dbd
00000020: a9f2 123d 27b3 153b 9eeb 9ebc 5df3 243d
00000030: c61f 2dbc c42a c2bc a043 c0bb 986f 48bd
00000040: b850 0f3d dd4f c03c b2d0 cb3c bd17 abbd
00000050: 403c 0c3c 730a 713d 4f6e bdbb 69f1 953c
00000060: b3ff a23c a063 853c ab73 86bd 7d2c b6bb
00000070: dd30 1bbd 52f0 69bd dc02 14bd 21b4 fcbc
00000080: d703 7c3d 134a dfbc ec4a 4abd 6cb4 afba
00000090: e189 bf3c 131f 713d 5cd5 103d d2b6 80bd
000000a0: a3f7 92bd a5a3 82bd b68d 31bd 742f 593c
000000b0: b424 bebb 82a4 c73c be22 6dbc 53fb b7bd
000000c0: 0baf 973d 7fda 97ba 2399 373d 68a9 0a3c
000000d0: feaa 10bd fa31 3fbd 8edb f43c ced4 b73c
000000e0: dc7f e7bc ef50 40bd cc6e a6bc e449 1d3c
000000f0: 88cf 823b 7240 313c 2dbb fbbc 312c 49bd
00000100: 7c7f 7a3d fd31 a0bd c00c 0abd 50dd bdbd
00000110: 938f 373d 27ae 51bd 120f 2d3d 0bd3 abbd
00000120: a951 08bd 962a 5dbc b260 5b3d c1cd cb3d
00000130: 23ca c43c 800f 76bc 1b12 b83d b2f0 553c
00000140: 1c2a 5bbb 4afc bc3d 7597 b9bd abe5 e63d
00000150: c74a 9fbd 1382 923d 28e8 b73d 6670 e5bc
00000160: c24d adbd a3d4 acbd b939 133d 2727 503d
00000170: 381b 363d 726e 3dbb 73e1 f83c d8fd c3bc
00000180: 7e15 cfbd e8ef 443c 642e 35bd 5115 3dbd
00000190: be8f 16bd 5a56 093d 38c4 053d 0e6e 453c
000001a0: 0038 f73c 546a 043c f47c 4cbc 0261 903d
000001b0: 3eb4 133d af8f 2a3c a5c7 ebbc 23b4 ea3b
000001c0: ff51 60bd 0bff 453d 6a76 88bc a71b 9a3b
000001d0: 2ddf 3dbc fbce e63c 52b3 bdbb 42f9 a13c
000001e0: 2c54 aebc 84dc 3e3d 524d 47bd c4c1 f13c
000001f0: 2add 523d c512 ee3b c574 033d 2f91 eebc
00000200: e668 c53a b290 3eba 0dbf 57ba 78f4 423a
00000210: b666 53ba b112 8639 c7be 2239 36aa c539
00000220: 2f6c b5ba a0ad 57ba 86f9 3aba 95eb 3a3b
00000230: 6004 af3a a6ed 14b7 a770 d5ba 0601 59bb
00000240: 337a b53a 8238 0d3b 4656 49b9 2b91 7cbb
00000250: dd71 49ba e8f1 8a3b a0e5 6237 5cdc 213b
00000260: 7fe8 6539 f990 303b f4a4 c43b 5991 49bb
00000270: 1fae 6b3b 1f72 903b 1cc3 a73b 1d4f 853b
00000280: a628 9f39 ac6a 43ba 4727 10ba 3cfa 8239
00000290: df6e 9dba 12b2 a837 342c ecb8 435a 49b9
000002a0: 37ff 6a3c c265 cc39 3b3c 61bb 0a82 29bb
000002b0: 8c0a ef3a 46f0 d13a f11b fc3b 43a7 f83b
000002c0: 4cc9 5b3b daa9 5f3b 5656 5aba 5fe9 fdba
000002d0: 2246 a1bb 06c7 89bb ec25 12ba 2b28 e53b
000002e0: 8fd1 95ba 1b56 063a 608c cd3a 9f1a 003a
000002f0: 139b a7ba 0b99 9cb8 764b 8b39 a460 803a
00000300: 44f2 b33a 0e05 60ba 4c48 02b9 eabd 03bb
00000310: 1e4c b33b 0a1e dfb9 3fb5 ca3a 451d 8d3a
00000320: 73c3 813b 7586 12ba ad67 8ebb 882e 82ba
00000330: cf66 9b3b 4573 a5ba d0a9 7ebb 81f1 763a
00000340: e989 e1ba d151 053b fbad 0bbb ee9d dc3a
00000350: c5bd 1eba ab6d e93a d747 953a 3326 8b3a
00000360: f866 01bb d1f3 a1ba b246 aa3a 2bcf ab3a
00000370: 0db3 2a3a c99c 91b9 a1dd 0aba 1805 4eba
00000380: 503c 873b 5e94 2b3a 464b 203b 76c5 31bb
00000390: 0e34 06ba c320 e83a 8753 0b3b ee3c 40bb
000003a0: 83db ccba 432a 203b f2a6 abba a0eb 0cb6
000003b0: 042f 3cbb 6dfe 03bb c9ae 93ba ddf0 1f3b
000003c0: 449a 4b3c 8fd3 02bc 1b96 85ba f6c1 cebb
000003d0: ff44 a73a 0743 67bc e859 7f3b a67a 843b
000003e0: bfe0 bfba 1f6d d8b9 f45f 1aba 19e4 21ba
000003f0: 6b23 ccba e04f 243b 8b68 d8b9 a1af 8e3b
0.052924365 -0.020189218 -0.03337692 0.07027928 -0.048560325 0.05914241 0.009601775 -0.054008946
0.03587595 0.0022842379 -0.01939946 0.04027115 -0.010566657 -0.023702033 -0.0058674365 -0.04893455
0.03498909 0.023475582 0.024879787 -0.08354137 0.008559287 0.058847856 -0.005780972 0.01830359
0.019897318 0.016282856 -0.06565031 -0.0055595026 -0.037888397 -0.057113953 -0.03613554 -0.03084761
0.0615271 -0.027257001 -0.049387857 -0.001340521 0.023381175 0.058867525 0.035359725 -0.0628487
-0.07176139 -0.06378869 -0.043348037 0.013255943 -0.005802715 0.024370436 -0.014473615 -0.08983483
0.07406434 -0.0011585503 0.044823777 0.008463241 -0.03531932 -0.04667852 0.029889848 0.02244034
-0.02825921 -0.046952184 -0.020316504 0.009600136 0.003992025 0.010818588 -0.0307289 -0.04911441
0.061156735 -0.078220345 -0.033703566 -0.09270728 0.044814657 -0.051191475 0.0422507 -0.083898626
-0.033281002 -0.013498923 0.053559013 0.09951354 0.024022168 -0.015018344 0.08987828 0.0130578745
-0.0033441847 0.09227808 -0.09062091 0.112742744 -0.077779345 0.07153716 0.08979827 -0.028007697
-0.08462097 -0.08438995 0.03594372 0.05081859 0.04445955 -0.0028904942 0.03038094 -0.023924753
-0.10111521 0.012020089 -0.044233695 -0.046162907 -0.036758177 0.033529617 0.032657832 0.012050165
0.03017807 0.008081991 -0.012480963 0.07049753 0.036060564 0.010410233 -0.028781721 0.0071625873
-0.054765698 0.04833893 -0.016658027 0.0047030034 -0.011588854 0.028174868 -0.005789199 0.019772176
-0.02128037 0.04659702 -0.048657723 0.02951134 0.05148045 0.007265421 0.032093782 -0.029121963
0.0015061169 -0.0007269486 -0.0008230068 0.00074369414 -0.00080643164 0.00025572398 0.00015520594 0.00037701585
-0.0013841445 -0.0008227471 -0.0007132519 0.0028521765 0.0013352744 -8.876819e-06 -0.0016284183 -0.0033112182
0.0013845622 0.0021548574 -0.00019200993 -0.0038538675 -0.00076845085 0.0042402633 1.35241135e-05 0.0024697995
0.00021925753 0.002694188 0.0060011093 -0.00307568 0.0035961939 0.0044081355 0.0051196944 0.004068269
0.0003035713 -0.0007454555 -0.0005499017 0.0002498197 -0.0012011192 2.0110081e-05 -0.000112615904 -0.00019202479
0.0143430745 0.00038985728 -0.0034368176 -0.0025864863 0.0018237396 0.0016017042 0.0076937606 0.0075882985
0.003353673 0.003412834 -0.0008328905 -0.0019371918 -0.0049216906 -0.0042046336 -0.0005575109 0.006993314
-0.0011430251 0.0005124525 0.0015682094 0.00048867794 -0.0012787305 -7.467166e-05 0.0002656837 0.0009794426
0.0013728817 -0.0008545675 -0.00012424699 -0.0020102211 0.0054717204 -0.00042556255 0.0015465392 0.0010766169
0.003960067 -0.00055894937 -0.004345855 -0.000993208 0.0047424803 -0.0012622854 -0.003885854 0.0009420142
-0.0017207238 0.0020342956 -0.0021313417 0.0016831735 -0.00060554995 0.0017809173 0.0011389208 0.0010616243
-0.0019745212 -0.0012355988 0.001299104 0.0013108006 0.0006511666 -0.0002777337 -0.00052973075 -0.00078590354
0.004127063 0.0006545241 0.002445893 -0.0027125753 -0.0005119451 0.0017709959 0.0021259503 -0.0029333192
-0.0015629384 0.0024439252 -0.0013096018 -2.0998777e-06 -0.0028714547 -0.0020140663 -0.00112673 0.002440504
0.0124269165 -0.00798501 -0.001019183 -0.006309743 0.0012761651 -0.014115102 0.00389635 0.004042941
-0.0014639123 -0.00041280032 -0.0005888932 -0.0006175652 -0.001557452 0.0025072023 -0.0004127662 0.0043544327

attention.out_proj.weight f4 [128, 128]
00000000: 6fdf 8e3d ccf9 2bbd 3bab 83bd eb7c a63d
00000010: af14 663c e664 8e3d b3ce ab3d cae2 a33d
00000020: 96a7 01bd f3b3 c3bc ac35 743d eaa4 8f3d
00000030: 401b 21bb 1bae a6bb 2ec4 e5bc dfbc 60bd
00000040: 668e 8c3d 8073 4d3d e9dd 403d a9b8 72bd
00000050: 6853 893c 8ce1 9abd 053a ad3d c0bd 5e3d
00000060: c840 38bd d2c7 4cbd 9ebc 2dbc f2bf 793d
00000070: 1a3a 62bd dd76 723d 313c 023c 39ba 973c
00000080: 778a 4cbd 4ecb f8bb e275 dd3c 80f1 363d
00000090: c4f5 9abc 2865 563d c4b2 9cbb 5cff 9e3c
000000a0: 52f3 8f3d e278 19bd 8bf6 a7bb d074 86bb
000000b0: 451d 903c 5f66 bfbd 1847 ebbc da40 773a
000000c0: fd0e 63bd 03bc ca3c a96f 0c3a 8b11 4bbd
000000d0: 3a72 3bbd d1e3 09bd 0157 353c b75a 5d3c
000000e0: 7355 353d 8085 a8bb dc9c 9d3d a0c7 79bd
000000f0: 1db0 88bd 4ff1 2d3c 984e aa3b 068c 9e3d
00000100: 82e4 b7bd f88e 833d b2c1 34bd 9790 00bd
00000110: 60a8 b2bc c355 883d 4700 6d3d 47fb d63c
00000120: 06d5 f13c ca6a bf3c 7d9d 35bd 0b57 5b3d
00000130: 4634 a7bd c344 e23c 4dca 16bd b37b a23c
00000140: 5182 9fbc 6fa6 18bd f76b afbc b14d 38bd
00000150: abe8 8f3c dc94 5ebd 2c8a 63bd 7b35 d6bd
00000160: 8f8f c1bb 0f03 393d cb2e 6fbd 1ccb b6bd
00000170: 7583 5cbd 7489 81bd 7ef3 1ebc 9507 163d
00000180: c095 8c3c 2888 8bbd b341 0c3d ffd9 fb3c
00000190: b88f 123d 9090 2ebc fe41 d7bc be73 4f3d
000001a0: b3c5 043d 788a b5bc bfcb 6ebd a541 83bb
000001b0: 8161 9ebc c091 64bd 6c7f ad3d e42c a0bb
000001c0: c84e b03d ead2 153d 8ec4 3fbd 642e 72bb
000001d0: 9de4 a0bc 6b7d 51bd 1687 543d f0a9 18bd
000001e0: 0f19 a63d c179 c9bd da41 8dbd 2f6c 30bd
000001f0: f49c abbd 8bac bbbc dea5 6f3d 5216 81bd
00000200: 231c 583d 0a53 f3bc bff3 cabc 072e a73b
00000210: b155 ba3d c43a f93a 64f9 acbd 8fa1 eabc
00000220: c4bd 5cbd 901a c43d 1e5e 04bc bd57 be3c
00000230: a97c f3bc 0aaa 3bbc 50b4 16bd 1d7f e5bc
00000240: 7191 943c 0bde ff3d 35e1 85bd f5e8 b8bc
00000250: b117 27bd 38b8 e23c 3d1d d63c d815 883d
00000260: 795e 3bbd 8164 44bc 2c6f 8e3d fcfe 393d
00000270: 7968 1fbd 6722 8abc e40a c4bd abc5 0a3d
00000280: e688 14bd b6c8 c43d 90cc 113e 2893 2b3d
00000290: 880c df3a 69e1 45bd 87bf e73a 4d94 c33a
000002a0: 80e0 e03d 227e ca3c e476 123d f477 9ebc
000002b0: 57f8 16bc df12 12bd a15f 3e3d d8c6 7fbd
000002c0: 957b 1f3d b8f8 a63d 1ac6 693d fdfb bbbc
000002d0: 6749 b7bd 4546 593d a5d7 4abd fbd1 b9bb
000002e0: 4bf1 d1bc 08ca 083e a17e 933c 7fe7 5d3b
000002f0: 8af4 5cbd 9666 66bc fac1 99bd 517f a13a
00000300: 00e1 103e 3aa5 1f3c 150b 1f3d 5b44 5dbd
00000310: 9aa3 84bd b291 fe3c def9 4c3c 82b5 b3bc
00000320: 1695 9e3c e0fe 183d e081 5c3d b922 813b
00000330: 6467 de3c 8c93 e2bc 6052 85bb 66c6 96bd
00000340: 2fec 07bd 0f60 f0bc 457c 983d e5b1 ddbc
00000350: 2c2a cfbd 739b 003d ae00 0a3c 4c48 983b
00000360: 6ed5 dc3d 6127 453c 98a9 8d3d 683a 473d
00000370: eef0 91bd 7fd9 10bc 846d 043e 87ce f1bc
00000380: 3391 a0bc 69d0 b63d 0b13 853d e6f2 943c
00000390: 1122 a2bb 32c1 1abd 356e babd 0d22 533c
000003a0: d3ba 9b3d 769a 613d 11b2 8abd db84 29bd
000003b0: 1ca1 1fbd 04a6 a7bd ab02 183d 81e8 bfbc
000003c0: f55e 693d c84a 25bd b48d 003d 0047 153d
000003d0: 509b 82bd e809 30bd c461 24bd c373 933c
000003e0: e689 e93d 1901 863d d739 133d b26e 57bc
000003f0: 7e21 2d3a 6d87 9c3d 6df3 ce3d 9178 123d
0.0697621 -0.04198627 -0.06429144 0.08129295 0.014043017 0.069528386 0.08389034 0.08002241
-0.031653963 -0.023889517 0.059621498 0.07013877 -0.0024582893 -0.005086673 -0.028047647 -0.05486762
0.06863098 0.050158978 0.04708663 -0.059258137 0.016763404 -0.07562551 0.08458332 0.05438018
-0.044983655 -0.04999525 -0.010604052 0.06097407 -0.05523119 0.059195388 0.007948921 0.018521415
-0.049936738 -0.007592595 0.02703375 0.044663906 -0.018916018 0.052342564 -0.0047820527 0.019408874
0.070288315 -0.0374688 -0.0051258258 -0.0041032806 0.017592082 -0.093456976 -0.028720424 0.0009431966
-0.055434216 0.024747854 0.0005357215 -0.049577277 -0.04576323 -0.03366453 0.011068107 0.013510398
0.044270944 -0.0051428676 0.07695934 -0.060981393 -0.06674216 0.0106166145 0.0051973574 0.07741551
-0.08979131 0.064237535 -0.044130035 -0.03138789 -0.021808803 0.06656983 0.057861593 0.026242865
0.029520523 0.02336635 -0.044339646 0.053549808 -0.08164267 0.027620679 -0.036814023 0.019834375
-0.01947132 -0.0372681 -0.021413786 -0.044995967 0.017567 -0.054341182 -0.055551693 -0.10459419
-0.005907006 0.045168933 -0.058394235 -0.08925459 -0.053836305 -0.06325045 -0.009701608 0.036628325
0.01716125 -0.06813079 0.034242343 0.030743597 0.035781592 -0.010654584 -0.026276585 0.05064749
0.032415103 -0.022160754 -0.058299776 -0.004005628 -0.019333603 -0.05580306 0.084715694 -0.004888164
0.08608776 0.036578096 -0.04681831 -0.003695392 -0.019640261 -0.051145 0.05188664 -0.03727144
0.08110248 -0.09837676 -0.06897326 -0.043071922 -0.08379546 -0.022909423 0.058507793 -0.063030854
0.05276121 -0.029702682 -0.02477443 0.0051019224 0.090983756 0.0019014706 -0.08446005 -0.02864149
-0.053891912 0.09575379 -0.00807908 0.023235196 -0.029722529 -0.011454115 -0.036793053 -0.028014714
0.018135758 0.12493523 -0.065370955 -0.02257202 -0.04079408 0.027675733 0.026136989 0.06644791
-0.045744393 -0.011986853 0.06954798 0.045409188 -0.038917992 -0.016862107 -0.0957239 0.033879917
-0.03626337 0.09608595 0.1423819 0.041888386 0.0017017284 -0.04831067 0.0017680981 0.0014921516
0.1098032 0.024718348 0.035757914 -0.019344307 -0.009214482 -0.035662528 0.046477918 -0.06244549
0.038936216 0.08152908 0.05707369 -0.022947306 -0.08949547 0.05304553 -0.04952206 -0.0056707836
-0.025627753 0.13358319 0.018004717 0.0033859906 -0.053944148 -0.014062544 -0.07507701 0.0012321268
0.1414833 0.009743983 0.038828928 -0.054020267 -0.06476517 0.031075332 0.012510745 -0.021937136
0.0193582 0.037352443 0.053834796 0.003940907 0.02714891 -0.027658246 -0.0040686578 -0.0736206
-0.033184227 -0.02934268 0.074455775 -0.027062366 -0.101154655 0.031398248 0.008423014 0.0046472903
0.10782896 0.012033314 0.06917113 0.048639685 -0.07126032 -0.008840918 0.12932402 -0.029517425
-0.019600486 0.0892647 0.06497773 0.01818223 -0.0049479087 -0.0377819 -0.091030516 0.012886536
0.07603993 0.055078946 -0.06772245 -0.041386466 -0.038972005 -0.08185962 0.03711192 -0.023426296
0.056975324 -0.04035452 0.03138514 0.036444664 -0.0637728 -0.042978197 -0.0401323 0.017999535
0.11403255 0.06543178 0.035943832 -0.01314895 0.0006604417 0.07643018 0.101050235 0.035759512

attention.out_proj.bias f4 [128]
00000000: d206 9dbd bbef 993c 58ac 1abc 3dac 1dbd
00000010: f0e6 15bd 9cdb ca3d 9fdc edbc 3d55 da3d
00000020: 97e6 ba3c 8b2d e53d 3e44 af3d efa0 06be
00000030: 6851 793c 97e3 c8bd c09e 82bd 650c 6e3d
00000040: f085 3bbc 67ee 863d 2097 c73d a4c6 753d
00000050: 73c8 b13d e6df 313d e642 8d3d 1874 dfbd
00000060: 80e8 f23d 2abc a3bd e964 023c f066 b83d
00000070: e9eb d83d 180d c03d 8731 813d 1623 84bd
00000080: a4b3 b13d 9328 58bd 0459 a6bd 6c16 9cbd
00000090: ad61 c63c e69f e13d 07ee 35bd bd3f f63c
000000a0: f88e bdbd 7578 263d 56ad c5bc a35d d1bd
000000b0: 6691 bebc 6b35 343d b779 003d fa79 d3bd
000000c0: dbba 923c d607 f13d b90d cc3d ea4f 3d3d
000000d0: a9eb d8bd a052 cd3d d5bd debc 8780 b13d
000000e0: bd07 b9bd f3f4 72bc f19c 9abc 9d18 0d3c
000000f0: a9ed 373d b768 c9bd 8041 b93d 9f50 463b
00000100: e5b6 15bc 0e92 a83d 697e d7bd 7778 8ebd
00000110: 7227 693d 2033 d23d 04d8 c43d b087 9fbd
00000120: 599a d0bd c875 f1bd 6d8f 74bd 6108 c63d
00000130: cacc c83d c913 aa3d 5a90 8ebd c4e5 b83d
00000140: f25b f43c dbfd babd 0bce cfbd 2759 30bb
00000150: 640b a6bd e5b0 81bd adfa dc3d a804 48bc
00000160: 37cd ecbd 96cb 9f3d 5662 f4bd b25c d4bd
00000170: 101c d83d 5b1a 643d 8150 ddbd e66d a6bc
00000180: affe edbd dda4 df3d 8e77 c3bd 1054 e1bd
00000190: 3083 e2bd b21f 563d 6984 f23d 3af4 bfbd
000001a0: 0539 98bd 2377 80bc fed0 adbd 4ce6 8a3c
000001b0: 2a0e dabd ece8 3c3d a403 cc3d 657d c23d
000001c0: 6bc4 a73d a078 de3d b2cc 8fbd 4c1d df3d
000001d0: 9f30 e5bd d4df c33b 604c 78bc e860 9dbb
000001e0: d110 203d 993e e1bd 2d28 4d3d 9853 64bd
000001f0: bcde d23d 5372 cf3d dda8 2cbc 3591 30bd
-0.076673165 0.01879107 -0.009440504 -0.038494337 -0.036597192 0.099051684 -0.029035864 0.10660789
0.022815032 0.11190327 0.08557938 -0.13147329 0.015217163 -0.09809034 -0.063779354 0.05811729
-0.011445507 0.065884404 0.09745622 0.06000389 0.08680811 0.043426417 0.068975255 -0.10910815
0.11860752 -0.07994874 0.007958629 0.09004009 0.10591871 0.093774974 0.06308275 -0.064520046
0.08676842 -0.05277307 -0.08122447 -0.07621464 0.024216497 0.11016826 -0.044416454 0.03005969
-0.09255785 0.04064222 -0.024130505 -0.10222938 -0.02326269 0.043996256 0.031366076 -0.103259996
0.017911365 0.11769073 0.09963555 0.04621879 -0.105918236 0.10025525 -0.027190128 0.08667093
-0.09034679 -0.014828908 -0.018873664 0.008611825 0.044904385 -0.09834426 0.09045696 0.0030260456
-0.009137844 0.08230983 -0.10522158 -0.069565706 0.056922384 0.102636576 0.09611514 -0.07789552
-0.101856895 -0.11790043 -0.059707094 0.09669567 0.098046854 0.08304555 -0.069611266 0.09028199
0.029829 -0.0913045 -0.101467215 -0.0026908608 -0.08107641 -0.06332568 0.1079 -0.012208141
-0.11562579 0.07802503 -0.119328186 -0.10369243 0.105522275 0.055689197 -0.108063705 -0.020316076
-0.11620843 0.10920117 -0.095442876 -0.11002362 -0.11060178 0.05227632 0.118416615 -0.093727544
-0.074327506 -0.015681809 -0.08487128 0.016955517 -0.10647233 0.04612057 0.09961632 0.09496573
0.08191761 0.10862851 -0.070214644 0.1089426 -0.11190914 0.00597761 -0.015154928 -0.004802812
0.039078537 -0.10998268 0.050087143 -0.055743784 0.102963895 0.101292275 -0.010538307 -0.04310723

layer_norm1.weight f4 [128]
00000000: 44b9 813f 803e 503f 6b34 4b3f 0db7 613f
00000010: 0441 833f a2d4 663f b51f 5e3f b952 7e3f
00000020: 1f64 4f3f 2b0d 843f 16d6 823f b4da 813f
00000030: 1523 6a3f dda1 733f 9618 5c3f 032c 633f
00000040: 30ba 513f d8b7 583f aeae 743f 0ad1 613f
00000050: 7883 4d3f 9027 503f 0164 6e3f 38ae 783f
00000060: 4705 813f 0ecd 683f 9d88 563f e301 6f3f
00000070: a440 7f3f 5617 763f 48e6 5c3f 85f2 5d3f
00000080: 838d 793f 3607 693f 7835 633f 48e8 6c3f
00000090: 6ae1 5b3f 06d8 8a3f a689 753f 1ad6 573f
000000a0: 8d03 7d3f d089 6b3f 6165 5b3f 0550 813f
000000b0: 62b7 493f dc10 4a3f 1e40 553f 2c75 8e3f
000000c0: d028 423f be9a 843f a576 673f 49d6 573f
000000d0: 6491 833f 74fd 7b3f b4e6 6d3f 22c7 883f
000000e0: bec9 5c3f a5b4 4a3f 952c 4a3f a836 6b3f
000000f0: 2a43 7a3f 1d9d 803f 44ae 8e3f b928 483f
00000100: 6a58 5e3f f1bc 6a3f 8c5b 783f 5dde 5d3f
00000110: 649e 643f 02ab 633f 22b3 8a3f 6249 623f
00000120: 3710 943f f40b 833f b236 7c3f 55e5 803f
00000130: fe43 803f 2219 6a3f 65dc 7e3f b979 6e3f
00000140: f064 5b3f a984 7f3f 88d0 823f b9ff 4b3f
00000150: b7b1 743f 52f3 773f 48d4 733f 58f7 683f
00000160: 0723 913f bd64 793f b363 833f eece 853f
00000170: 0129 863f e483 523f f0ba 803f 7d25 5d3f
00000180: 5913 893f aa7c 7e3f 0a84 873f ff3c 7c3f
00000190: 4a38 643f 4600 5b3f fd55 803f 80bd 633f
000001a0: f461 733f 14bf 663f 60ab 7f3f 59d1 683f
000001b0: 3408 673f 803f 5a3f d4a1 843f 95cf 833f
000001c0: 6f3f 7f3f c989 8b3f bdf4 5b3f 4fd6 913f
000001d0: e92f 903f 6630 733f d71b 663f edc4 563f
000001e0: f0da 5c3f 9edc 873f fdd8 523f 7564 693f
000001f0: 62d2 7e3f 0f6b 893f daed 513f 82ad 593f
1.0134664 0.8134537 0.7937686 0.8816994 1.0254216 0.901682 0.8676713 0.99344975
0.8101215 1.0316519 1.0221584 1.0144868 0.9145978 0.9516886 0.85975015 0.8873903
0.81924725 0.84655523 0.9557904 0.88209593 0.8027873 0.8131037 0.93121344 0.97140837
1.0079736 0.9093789 0.83802205 0.93362254 0.9970801 0.9612936 0.8628888 0.8669818
0.97481555 0.9102663 0.8875346 0.92541933 0.8589083 1.0847175 0.9591316 0.8431107
0.98833543 0.9200716 0.85701567 1.0102545 0.78795445 0.78931975 0.8330096 1.1129508
0.75843525 1.0359724 0.9041541 0.8431135 1.0278745 0.98433614 0.9293015 1.068577
0.86245334 0.7918189 0.78974277 0.91880274 0.97758734 1.0047947 1.1146932 0.7818714
0.8685366 0.9169455 0.9701469 0.86667424 0.89304185 0.8893281 1.0835917 0.88393223
1.1567448 1.0238023 0.9852096 1.0069987 1.002075 0.914446 0.99555045 0.93154484
0.85700893 0.998118 1.0219889 0.79687077 0.9558367 0.9685565 0.9524579 0.91002417
1.1338814 0.9741934 1.0264801 1.0453775 1.0481263 0.822325 1.0057049 0.8638533
1.070903 0.9940897 1.058717 0.9853057 0.8914839 0.8554729 1.0026242 0.8896103
0.9507134 0.9013531 0.9987087 0.9094444 0.9024689 0.85253143 1.0361886 1.0297724
0.99706167 1.0901424 0.85920316 1.1393527 1.1264621 0.94995725 0.8988623 0.83894235
0.8627157 1.0614202 0.8236235 0.9116891 0.9953977 1.0735797 0.8200356 0.85030377

layer_norm1.bias f4 [128]
00000000: 6365 91bc bd4f 2bbc f33d 63bc 14ed 2cba
00000010: b483 15bc aa73 3bbb 2a79 f83b 320a d13a
00000020: d057 4eb8 c194 663c 30b2 053d 3f1b 0fbc
00000030: 5076 a43b 7040 3c3a 685d 93bc 7f91 53bc
00000040: 6f1b a0bc 6b5e 24bc 25f5 883c d3ba 253c
00000050: df03 f239 d3bd 07bb b0a6 9dbb d245 a7bc
00000060: c6eb 043c 7d98 633b d0ef 5bba d6da b43c
00000070: 98f9 de3a 1681 903c 0348 0abc 4a6f d13b
00000080: 0cbe 11bc b5ca 31bb 5fb2 bbba 256a c63b
00000090: ff94 3f3b 41fc 373c f4f5 bebb 700a 91bc
000000a0: ec26 73bc 9186 9fbc 43c0 07bc 63cc ebbc
000000b0: d4b1 4dbd 9edb be3c 514f f0bb e976 b6bc
000000c0: 50db 54bc c35b 2a3c 6425 f83b 80de d9bc
000000d0: c088 edbc 1ea4 503c 01d2 6cbc 4089 e03c
000000e0: e91d 413c 2a60 a0ba 3edb 653c fe2c 763c
000000f0: e699 1f3d d585 c8bc d377 833c d059 9b3c
00000100: f650 803c e123 a43b c0cc fcbc aee7 e63c
00000110: 7a9b 6fbb ec35 1cbc 373f c53c 3b74 e0ba
00000120: 7a47 a6bc a9e8 eabc 2855 08bd d36c bd3c
00000130: ba90 a93c b06f 6f3c 418b 17bb 3697 1f3d
00000140: 9b08 d73c 83ad 3bbc dd54 86bc 6420 21bd
00000150: 23c8 ce3b 96a7 f0bb 39d8 6f3c e1ff c03c
00000160: 81f0 10bc 3038 5ebc 067e d0bc fe2a c2bc
00000170: 5c48 9e3c 49c2 33bb 40b2 acbb f288 bbbc
00000180: 3803 8bbc 6a25 b03b e1ca bdbc 0ee0 1cbd
00000190: 30f6 1ebc b9c0 babc 8d23 ef3c 1816 5ebb
000001a0: 70ef e1bc 637e 373c 4193 bfbc 98f1 09bd
000001b0: e771 a6bc 710c 5dbc b6ca de3c cb22 063d
000001c0: 1416 bd3a 2853 f23c ce3a d5bc 3e8b a93c
000001d0: c05b 66bc 82f2 b63c 8d56 c93b ff57 6abc
000001e0: c5c0 d03b 0658 80bc 2ae8 143d d1e0 9a3c
000001f0: 8d74 413c 88b9 c03c 0e22 08bd 079b a33c
-0.01774854 -0.010456023 -0.01386975 -0.00065966067 -0.009125639 -0.0028602877 0.0075828033 0.0015948473
-4.919601e-05 0.014073552 0.032640636 -0.008734523 0.0050189868 0.0007181233 -0.017988876 -0.012913107
-0.019544331 -0.010032277 0.016718457 0.010115343 0.0004616072 -0.002071251 -0.0048111305 -0.020419035
0.008112853 0.0034728341 -0.0008389922 0.022077005 0.0017011641 0.017639678 -0.0084400205 0.0063914405
-0.008895408 -0.002712888 -0.0014320127 0.006055134 0.0029233096 0.011229576 -0.0058276597 -0.017705172
-0.014840823 -0.019473346 -0.008285585 -0.028783983 -0.05021842 0.023298081 -0.007333674 -0.022273498
-0.012991741 0.010397854 0.0075728167 -0.026595354 -0.028995872 0.012734441 -0.014454366 0.027409196
0.011786916 -0.001223569 0.014029322 0.015025375 0.03896513 -0.024477879 0.016048348 0.018963724
0.015663605 0.00500916 -0.030859351 0.028186645 -0.0036561177 -0.00953434 0.024077995 -0.0017124483
-0.020297755 -0.028675394 -0.033284336 0.02312318 0.020698894 0.014614031 -0.0023123773 0.038962565
0.02624922 -0.011454943 -0.016397888 -0.03933753 0.0063104792 -0.0073441966 0.014638954 0.023559513
-0.008846403 -0.013563201 -0.025450718 -0.02370214 0.019321613 -0.0027429035 -0.0052702725 -0.022892449
-0.016969308 0.005375554 -0.02316803 -0.038299613 -0.00970225 -0.022796975 0.029191757 -0.003388768
-0.027579993 0.011199567 -0.023385646 -0.033677667 -0.020317985 -0.013491736 0.02719627 0.032748025
0.0014426135 0.029580668 -0.026029017 0.020696279 -0.014059961 0.022332434 0.006144351 -0.0143032065
0.006370636 -0.015666973 0.03635422 0.018906029 0.011807573 0.023525968 -0.033235602 0.019971384

layer_norm2.weight f4 [128]
00000000: a31c 673f 990f 333f 0933 3b3f 1cef 453f
00000010: f369 493f 763e 4e3f 6770 373f d0f0 6e3f
00000020: 2569 453f 2bdc 7a3f 5497 783f ea00 773f
00000030: 0314 693f 7607 723f e4ba 663f 37ac 3f3f
00000040: 4337 3e3f ea5c 4e3f 8b9c 333f 322b 413f
00000050: 881f 4c3f 049b 4f3f 0025 5d3f 0f0f 713f
00000060: 1f4e 6e3f 1fe6 6c3f de13 5c3f ab2f 6a3f
00000070: 1d96 793f 55a5 593f 841a 613f 2982 583f
00000080: 0c17 6e3f 5cbd 3e3f cc4e 5a3f 08f1 503f
00000090: b9ca 563f 90ce 7c3f b1d9 4e3f 3898 483f
000000a0: 340a 6d3f e6a4 583f c067 513f 2c87 663f
000000b0: d925 443f 506c 1e3f cb2a 683f 336a 823f
000000c0: 264e 493f 6ff9 763f 46b9 313f a3e4 323f
000000d0: 6a9d 7a3f ac73 693f d3ef 6e3f 65c6 7e3f
000000e0: cc09 4f3f 97bc 313f 96f3 453f 3509 4f3f
000000f0: fa84 6d3f de9f 753f 795d 793f aecb 423f
00000100: ff0a 423f e72f 603f f28b 593f 0844 293f
00000110: 571d 2f3f 9acc 643f b899 7f3f 1e71 3a3f
00000120: 0922 843f 177b 733f 2e05 613f 9726 703f
00000130: dcca 643f a801 483f 1d26 483f 6dc2 6e3f
00000140: 8e7e 313f 8d6c 773f e69c 653f a9f3 3e3f
00000150: 1c60 763f 98d4 423f 04dd 6c3f 5850 693f
00000160: a12b 813f 6612 683f 4df6 743f d279 763f
00000170: ab2a 6f3f a182 443f c022 673f 414c 4c3f
00000180: eb05 7c3f 30fa 763f 8ab5 7b3f 8383 763f
00000190: 4fd5 673f c175 413f 617b 703f e605 323f
000001a0: bfd7 5c3f c5e5 523f a77a 723f 8c32 443f
000001b0: c403 643f f916 3c3f 3980 753f ab8e 793f
000001c0: 983a 723f a042 7f3f 94c7 3f3f e4b2 813f
000001d0: b818 813f b5ff 4a3f bf64 6b3f 0301 473f
000001e0: 0970 423f 21fe 793f c90a 3d3f 6176 583f
000001f0: a6a1 653f 7958 7b3f 4352 533f 7519 453f
0.9027807 0.69945675 0.7312475 0.77317977 0.7867729 0.8056406 0.7165589 0.933362
0.7711356 0.979922 0.9710591 0.9648577 0.9104616 0.94542634 0.9012892 0.74872154
0.7430307 0.80610526 0.7016074 0.75456536 0.7973561 0.8109591 0.8638458 0.941636
0.93087953 0.92538637 0.85967815 0.91478986 0.9749468 0.850179 0.87931085 0.8457361
0.93003917 0.7450769 0.85276484 0.81617785 0.8390308 0.9875269 0.8080092 0.7835727
0.92593694 0.84626615 0.81798935 0.90050006 0.7662025 0.6188402 0.90690297 1.018866
0.7863487 0.96474355 0.6942333 0.6988012 0.97896445 0.91192126 0.9333469 0.99521476
0.80874324 0.6942839 0.7732481 0.80873424 0.9278103 0.9594706 0.9740825 0.7609204
0.7579803 0.87573093 0.84979165 0.6611943 0.68404144 0.893747 0.9984393 0.72828853
1.0322887 0.95109695 0.8789853 0.93808883 0.8937204 0.7812753 0.78183156 0.9326542
0.6933373 0.9665001 0.89692533 0.74590546 0.962404 0.7610564 0.92524743 0.9113822
1.009144 0.90653074 0.95688325 0.96279633 0.9342448 0.76761824 0.902874 0.79803854
0.9844653 0.96475506 0.9832388 0.9629442 0.9055986 0.75570303 0.9393826 0.6954025
0.862667 0.8238185 0.947184 0.7663963 0.89068246 0.73472553 0.9589878 0.9748332
0.94620657 0.99711037 0.7491391 1.0132718 1.0085669 0.7929643 0.919506 0.7773592
0.759522 0.97653395 0.7384458 0.8455563 0.8969978 0.98181874 0.82547396 0.7699197

layer_norm2.bias f4 [128]
00000000: a331 65bb f0a9 d43a f81f bdbc 1529 1cbc
00000010: c2fc 52be c73e 27bd b5f8 af3c d1ed 27bd
00000020: 56c3 94bd 3ad5 c0bb 87fa 673d 22ea ab3c
00000030: b442 6d3d c64f b13c be68 ee3c b283 19bd
00000040: 267d 473c 16e4 b6bb 8b89 3a3c c1e7 5cbc
00000050: f7ef 76bd a746 14bd 4838 88bd 1a11 14ba
00000060: b285 8cbd 7b27 7a3c 2b99 33bd f7c1 15bc
00000070: 6a53 dcbb cdd3 92bb 3c26 1bbc 8e14 253d
00000080: 4269 32bd d6b4 023d 5bc2 d53c 066d cf3d
00000090: a354 1fbd 4cd9 fcbb eb3f e53c c499 09bb
000000a0: 0a2c cf3c 76e5 d7bb b191 0f3d a575 c5bc
000000b0: 83e9 19bd 64e7 353c 3727 63bd deef 3bbc
000000c0: 1f77 02bc 1649 2ebd eae0 afbd 7d5e 6abd
000000d0: fa07 8bbc d7f0 77bb 8189 533d ae4d 1e3c
000000e0: b3d1 483d 9438 fe3c f4db 303c aa28 883d
000000f0: d7ac 8f3d 7b9f 893b b5ff 793c c810 90bc
00000100: ef05 bf3b 6934 ac3a 1ddf fc3c 00d6 0a3d
00000110: fce0 29be 00fb 0bbd 30ab 703c d25c 873c
00000120: 09be 30bc b63f e93b 47f4 afbc deeb 68ba
00000130: 7d97 7abc 5e5a 28bd 15fb 513e 03f7 083b
00000140: 4c7b e13b 7d19 c2ba 7fbd f43c efa5 88bc
00000150: 2458 633c 09bb c0ba 61b7 0abc 7920 573c
00000160: da99 023c 5c44 2abd 92d3 b53b ea33 3dbc
00000170: c49f 8b3b 1606 6c3a 077f ba3d 4e60 3bbd
00000180: b5ee 4f3b a7e5 e2bc 7cce 30bc a33c 28bd
00000190: 25aa 203d b5b8 03bd 7d85 8dbc 9bc7 31bc
000001a0: 2c80 afbc 74ad 7b3d 6a70 e5bb 7c7c 33be
000001b0: 1ce0 ae3c 9bc2 b4bd 0450 293d e9c7 973c
000001c0: 00c4 eabc f6d2 b63c 05c6 93bc 5db1 cd3b
000001d0: 781a e8ba 0f42 003e b642 813c d571 a03b
000001e0: ee6d ccbc 04f7 d03b 6c70 383b c828 e3bb
000001f0: 7092 90bc bc1e b8bc 3b1c 813c d60a 533d
-0.0034972213 0.0016224962 -0.023086533 -0.009531279 -0.20604232 -0.040831354 0.021480897 -0.040998284
-0.0726382 -0.0058847936 0.056635406 0.020985667 0.05792494 0.021644484 0.02910268 -0.03747911
0.012175834 -0.005581389 0.011385332 -0.013482989 -0.060287442 -0.03620019 -0.0665136 -0.00056483
-0.06861438 0.015268202 -0.043847244 -0.009140483 -0.006723811 -0.004480815 -0.009469565 0.040302806
-0.043557413 0.03191074 0.026093652 0.101282164 -0.038899075 -0.0077163335 0.02798458 -0.0020996192
0.025289554 -0.006588633 0.03505105 -0.024103949 -0.03757621 0.011102531 -0.05545732 -0.011470763
-0.007962971 -0.04255017 -0.08587821 -0.057219017 -0.016971577 -0.003783276 0.051644806 0.009662075
0.04902811 0.031032838 0.010794628 0.06648381 0.070153885 0.0041999198 0.015258719 -0.017586127
0.0058295648 0.0013138178 0.030868107 0.033895493 -0.16589731 -0.03417492 0.014689252 0.016523752
-0.010787495 0.0071181906 -0.021478785 -0.00088852446 -0.015294907 -0.041101806 0.20505936 0.0020899184
0.006881153 -0.0014808621 0.029875515 -0.016680686 0.013875995 -0.0014704178 -0.0084665725 0.013130301
0.007971251 -0.0415691 0.005548903 -0.011548022 0.004260989 0.00090035924 0.0910626 -0.04574614
0.0031727974 -0.027697397 -0.010791417 -0.041073453 0.039224762 -0.032158572 -0.017275566 -0.010850812
-0.021423422 0.061444715 -0.007001926 -0.17527956 0.021347098 -0.088261805 0.041336074 0.018527942
-0.028657913 0.02231739 -0.018038759 0.006277247 -0.0017708084 0.125252 0.01577888 0.0048963823
-0.024954762 0.006377103 0.002814318 -0.0069323517 -0.017647952 -0.022475593 0.015760532 0.051524006

feed_forward.0.weight f4 [512, 128]
00000000: 3760 c23d 17ed b2bb 7359 3abd 7b39 db3d
00000010: 41ef 093d c9b1 dfbc 7adb 62bd 1615 403d
00000020: 16d7 703c d876 0cbd 12de 85bd 789d 5b3d
00000030: c99c 763c e601 f93d a688 aabc d9bd 8cbd
00000040: 4eb3 5e3d ba7c 5d3c 1768 cc3c f5b7 423b
00000050: a2bf 023d d65d 493d e212 7bbd 0af6 93bc
00000060: 47c3 39bd e68a 7bbd a0df 15bc 49a8 08be
00000070: 7405 90bb 445e 92bc a32c 44bc a389 3e3d
00000080: 5fd1 41bd 31a9 78bc b8c5 59bd 1edd 4f3a
00000090: a154 bb3d fb5a bebd 6da7 5e3d fe3c 533d
000000a0: 4854 1e3e ea16 63bd dd65 99bd 1409 d93c
000000b0: a52f 703c 7968 4ebd 6a30 ccbc ba6d 05bb
000000c0: ba7d 033d bf5b 08be 27d1 36bd 52b6 f3bd
000000d0: e30f c1bd e771 503d c2fd 32bd eee8 8f3c
000000e0: 9969 d13d c7e5 7d3d 2e5d bf3d def3 febc
000000f0: 03b4 c53d 94e2 c23d 2dbf 94bd 7967 f93c
00000100: 27b5 893d 3d4b 8abd d9f8 86bd 1a4c 88bd
00000110: 0ecd cdbd 7f81 ebbd dbc1 bfbd e1d2 05bd
00000120: 3d58 04bc cf8c 4e3c 77ad e03d 389c a1bd
00000130: 8022 9dbd 4142 4e3d 2e0a a83d e4ee 093d
00000140: bd8a 9abd d140 cf3d 60df 683d a3da 473d
00000150: 3655 a93c b908 5a3d 8d92 273d 28c7 07bc
00000160: fe19 083d d3a4 943c d0ea 063d 2fce d53d
00000170: 7428 dabc ffc0 013d 63be cd3d f7e7 90bc
00000180: 4a49 2f3d d6f2 28be 3f47 613d ac5e a8bd
00000190: d7aa 86bc 880b a9bc 363a 473d 4ae0 82bc
000001a0: 2330 ec3d c16a a9bd 2b7c d53d 2117 aabd
000001b0: d6c2 ac3c b162 e73c 7291 21bd 02e9 99bd
000001c0: 398c e7bd 690d bebd 1e73 4f3c 1346 b2bd
000001d0: b8e5 29bd 8c8a 063d f57c af3d 0110 7b3c
000001e0: 3e3c e03b 2462 213c f5c0 6abb 7896 053e
000001f0: 3bf5 00be 6bfb edbb 85af 07bd a343 fabd
00000200: d055 423c 0e0b 07bd c5f9 88bd 00b5 94bd
00000210: 15a1 2bbd 6eb2 613c 4d48 69bc 3f23 77bd
00000220: 6333 8cbd 7226 933c af5c d23c 7112 8c3d
00000230: 1e8d 85bb daca 8c3d 8d52 9e3d db4d 3abd
00000240: 48ca a23c d1de 363d ddfe 87bd b357 2dbc
00000250: fda3 3c3d 8065 62bd 348e 74bd 6ba7 a33b
00000260: 9f44 b8bb 7d6c bbbb d63e bbbc ddf6 9dbd
00000270: 90be b6bc 84f3 bf3d d669 113d f7a6 013c
00000280: 3817 02bd 1461 c6bd 22e9 2f3d b9d4 8d3c
00000290: dc09 953d 0ff3 5d3d 3de9 cbbd 8bd8 8c3d
000002a0: ce6a 753d b094 61bd f6d4 56bc 7906 8d3c
000002b0: 6948 96bd b538 36bd 03b8 9ebc 4fbc b2bd
000002c0: df25 f83c f965 8dbd 8aff 813d f95a 6cbd
000002d0: dd18 953d e61a b03b 539f a13d 7d68 04bd
000002e0: 7869 053d 8f95 5b3d a404 7c3d bb83 26bc
000002f0: 8f1c 243c f87f 02bd 54dc 783d 3c5b 15bd
00000300: 472a b53d 8df1 dabc 1808 173d a615 743d
00000310: a3ae b9bd c9bf ccbb 85c3 b93c a1fd 95bb
00000320: bcc1 adbd 6422 edbc 28c0 23bd f851 c5bd
00000330: 5458 d03b cc10 3d3d fd62 273d 9201 693c
00000340: 21b1 c83d e50c 783d 6ad5 fbbb eed6 ba3d
00000350: 1c9a c6bc 43b2 563d 6db0 563c 719e 39bc
00000360: c9f7 23bd cb2e 43bc c03c 4f3d b8d1 373d
00000370: ce9a 043d 4b9d 873d 3ad4 c73d cab2 9ebd
00000380: fccd 283d 2dcf 3c3c b03b 14bd f16f fd3c
00000390: 6f1d 193d 0155 413d 4788 26bd caac 9bbc
000003a0: 6266 683d cf99 bc3d a545 9dbc bb07 cebd
000003b0: acf3 93bc e63c 64bd 45e6 9dbb 51a5 3e3d
000003c0: 4335 633d 799c 413d dfe8 d1bc aea6 62bd
000003d0: 6fb6 023d f350 4eba bc08 fe3c a63d bbbd
000003e0: eca9 40bd 7a21 9b3d f6e4 83bc 33f5 ad3d
000003f0: c505 be3c 4187 203c 46b2 b13d 5e6f b73c
0.09491008 -0.005460392 -0.04549546 0.10704323 0.033675436 -0.027306454 -0.05538509 0.04689511
0.014699718 -0.034293026 -0.06536497 0.05361697 0.015052029 0.12158565 -0.020817112 -0.06872148
0.054370217 0.013518507 0.024951978 0.0029711698 0.031921037 0.049161755 -0.061297305 -0.018061657
-0.045352247 -0.06141176 -0.009147555 -0.13345446 -0.0043951813 -0.017867215 -0.011973533 0.04651798
-0.047318812 -0.015177057 -0.053167075 0.00079293724 0.09147001 -0.09294697 0.05435889 0.05157184
0.15461838 -0.055441774 -0.07490132 0.026493587 0.014659797 -0.0503926 -0.02492543 -0.0020359592
0.032102324 -0.13316248 -0.044633057 -0.11900009 -0.09426858 0.050889876 -0.043699034 0.017567124
0.10225219 0.06198671 0.093439445 -0.031122144 0.09653475 0.095158726 -0.072630264 0.030444847
0.06724005 -0.06752632 -0.06590433 -0.0665514 -0.10048877 -0.11499309 -0.09363147 -0.032671813
-0.008077678 0.012606814 0.10970586 -0.078911245 -0.07672596 0.050356153 0.082050666 0.03367509
-0.075459935 0.101197846 0.056853652 0.048792493 0.020670515 0.053230975 0.040911246 -0.008287229
0.033227913 0.018145 0.03293878 0.10439717 -0.026630618 0.031678196 0.10046079 -0.017688734
0.042794503 -0.16498885 0.054999586 -0.08221182 -0.016438885 -0.020635381 0.0486395 -0.01597609
0.11532619 -0.08272315 0.10424074 -0.08305193 0.021088999 0.028245302 -0.039445348 -0.07515146
-0.11306042 -0.092799015 0.012661723 -0.08704772 -0.041478842 0.032846972 0.085687555 0.01532364
0.006843119 0.009850059 -0.0035820578 0.1304568 -0.12593548 -0.0072626374 -0.033126373 -0.12219932
0.01186128 -0.032969527 -0.06688265 -0.072610855 -0.041901667 0.013775451 -0.014238429 -0.060336348
-0.06845739 0.017962668 0.02567896 0.06839455 -0.0040756604 0.06874628 0.07730589 -0.045484405
0.019871846 0.044646088 -0.06640408 -0.010579991 0.04605483 -0.05527258 -0.059705928 0.004994323
-0.0056234146 -0.00571972 -0.022857111 -0.07713101 -0.022307664 0.09372619 0.035501324 0.007913343
-0.031760424 -0.09686485 0.042946942 0.017313348 0.07277271 0.054186877 -0.09956596 0.0687724
0.05991631 -0.05507344 -0.013112297 0.017215 -0.0733803 -0.044487674 -0.019374853 -0.08727323
0.030291496 -0.06904215 0.06347568 -0.057703946 0.07280133 0.0053743003 0.07891717 -0.03232621
0.032571286 0.053609427 0.061527863 -0.010163243 0.0100165745 -0.03186032 0.060756996 -0.03646396
0.088459544 -0.026726509 0.036872953 0.059590958 -0.090665124 -0.0062484485 0.022676239 -0.004577354
-0.084842175 -0.028947063 -0.039978176 -0.09634775 0.006358186 0.046158597 0.040865887 0.014221566
0.0979941 0.060559172 -0.007685353 0.09123026 -0.024243407 0.052416097 0.013103587 -0.011329279
-0.04003123 -0.011913012 0.050595045 0.044877738 0.032374196 0.06621798 0.09757276 -0.07748945
0.041212067 0.011524004 -0.036189735 0.030937167 0.037381586 0.047200207 -0.040657308 -0.01900329
0.056738265 0.09209024 -0.019198248 -0.10060068 -0.018060528 -0.05572214 -0.00481871 0.046544377
0.055470716 0.047268365 -0.025623737 -0.05533474 0.031912263 -0.0007870339 0.031010024 -0.09142618
-0.04703705 0.075747445 -0.016100388 0.08494034 0.02319611 0.009797872 0.08676581 0.022391971

feed_forward.0.bias f4 [512]
00000000: 2845 7abd aa23 323d 3216 d6bd 79c1 aebd
00000010: 90cf 94bd 113f 8a3d eed4 89bd a2ef ddba
00000020: 56ce 073d 83a7 e53c ef78 11be 9bc4 f6bd
00000030: 3e67 993d 3730 dabc 18aa 9fbd 4121 183d
00000040: b4c2 7fbd 5302 0e3c 46da cebd 128b dcbb
00000050: c348 c1bd af44 9fbc 3a5e 96bc cde3 0c3d
00000060: c096 463d f61a bbbd 3c2a 82bd b8b9 c1bd
00000070: cc4f c5bd a7ef 273c 3562 b8bc 6b07 06bd
00000080: e5f6 b0bd 36af 8cbd d656 05be 7e8b 6fbc
00000090: 7261 133d 1c55 70bd 5fc3 71bc 4a6b 9cbb
000000a0: 0fe6 65bd b8c9 a1bd ba9b 92bd 230e 393d
000000b0: 29ad bdbd 3c8e 9b3c ebff 443d 919e 8f3a
000000c0: 912a 98bc cd1f bc3c b99b adbd 2bc0 afbd
000000d0: 4238 083d 8c61 3b3d 1f71 ddbc 6b1e d8bd
000000e0: a648 6f3d c26d 2dbd 7614 4abd b410 46bd
000000f0: 091a c5bd f14b 9dbd 4edd cebd 750f 653b
00000100: 822e bf3c a08a 80bc 21a8 a2bd 4404 793c
00000110: eba6 90bd b775 e8bc 85d5 02be 93b7 423d
00000120: bd1d c6bd d12e ccbd cc09 5d3d a70a 9ebd
00000130: 6d16 353d 5299 5fbd cbd6 e0bc 780a 353d
00000140: 2592 5bbc f4a6 243d 6112 b6bd 0385 e0bd
00000150: ab4f 593d 8dfe 693d 1126 b63c 93e2 6a3d
00000160: 48bb 8cbd 2f32 8dbc 9f6c b5bd 9906 063d
00000170: 9b87 04bd 9225 873d ce71 65bd 3c7c ffbc
00000180: 744a 153d 2f65 eebc 9fb2 10bc 117c a4bd
00000190: cb58 31bd 8a17 733b 3423 713d 5795 04bd
000001a0: 2253 c1bb bcd6 7ebd 71ea afbc 49b5 97bc
000001b0: f4c8 d8bd f7e3 063d 5700 043c b0e1 9ebd
000001c0: 0c66 693d fdd2 91bd c0ff 043c e1a7 a4bd
000001d0: a2ff f1bd 388a 913c d75f 143b 6d8d c23b
000001e0: 9a03 d2bd 9885 a7bd 3941 57bd 1ca1 683d
000001f0: 24b6 78bd 1493 5a3c 83ff 87bd b5bc c93d
00000200: 7a15 78bd 9fda 3dbc c10e 89bd 8dc8 fb3c
00000210: e62d 1bbd 1b0c 29bd dd6a c43c 5533 efbb
00000220: 0de9 0abb 0b1e 063b 6515 49bd 7391 c6bc
00000230: ba25 a3bd 75ef 12be 2517 17bd 8333 c73c
00000240: f00f 8abd b0e9 88bd 639a c53c d52c 0ebc
00000250: b86f e33c acb5 863c efa5 4ebd c6a9 523d
00000260: cf69 b6bc 0add 0abe 31c9 76bd 16c9 763d
00000270: 8736 803c 2f24 6c3c 377d 93bd 5309 253d
00000280: 5021 64bd 9491 c4bc c0bf 45bc edf6 bc3d
00000290: 3d31 4ebd 9c37 5ebd 4878 abbc a697 babd
000002a0: 0781 46bd 8048 b6bd 3d59 4fbd f329 ec3c
000002b0: 759f aabd b35a 68bd 370c 153d a603 ecbd
000002c0: 0243 613d 793c babd ec73 3fbc d65b 0dbd
000002d0: 8b0e ec3b fd7c b3bd 3714 503d 66c1 14bd
000002e0: b9c7 debc 33f9 31bd 404a 643d 4fc6 c8bd
000002f0: cc25 fa3c 0bcf fbbd ddda 53bd 0381 1ebd
00000300: 01d3 683d fe40 00be d592 2e3c 7524 83bd
00000310: bf95 cd3c a5a6 e7bd f968 bf3c b929 7ebd
00000320: 38d9 633d dbb8 c6bd 215d ccbd 85fd ccbd
00000330: a092 18bd e2d3 07bd c051 85bd e289 bb3c
00000340: 8d73 023d b099 04be 4746 86bd 2463 c3bd
00000350: 4c15 243d 9af9 1e3d bb83 4f3c f7c1 203d
00000360: b541 b4bd 4e8d b2bd a634 abbc d8ec 65bd
00000370: 0774 0cbe 93f2 773d a2ae 333d 341f 85bd
00000380: 5840 ec3c 12b0 073c ada7 84bd 9eab c43d
00000390: 264a a4bd 37fa a0bd d94e cebd ed96 ebbc
000003a0: e080 843c cc8f c7bc 07b4 92bd f6cd c23b
000003b0: dad2 143d 0b91 31bd 67ff 99bd 9e07 5d3b
000003c0: 1950 eb3c daf5 3cba 7e13 9abd fa7a 38bd
000003d0: 3830 bebd e3a8 76bc e468 0ebc 8e3d 80bc
000003e0: 69a8 b9bd 285d 6b3c d625 f9bc df36 d43c
000003f0: 7668 8a3c 12a5 123d 71e8 79bb c11c 8b3c
-0.06110111 0.043491043 -0.10453452 -0.08532996 -0.07266152 0.0675031 -0.06730066 -0.0016932378
0.03315576 0.028033977 -0.14206289 -0.12049218 0.07490395 -0.026634319 -0.07796115 0.03714109
-0.062441543 0.008667546 -0.10100226 -0.0067304457 -0.09437706 -0.01944193 -0.018355478 0.034396935
0.04848361 -0.09136002 -0.06355712 -0.09459251 -0.09634361 0.010250009 -0.022507766 -0.032721918
-0.086408414 -0.06869356 -0.13021407 -0.01462066 0.035981603 -0.058674917 -0.014756053 -0.004773532
-0.056127604 -0.07899803 -0.07158609 0.045179497 -0.09261543 0.018988721 0.048095625 0.0010957291
-0.018574985 0.022964383 -0.08476967 -0.08581575 0.033256777 0.045747325 -0.02703148 -0.10552677
0.058418892 -0.042341 -0.04933592 -0.048355773 -0.096241064 -0.076805 -0.10100804 0.003495184
0.023337606 -0.015691102 -0.07942224 0.015198771 -0.07063087 -0.028376443 -0.12776764 0.04753835
-0.09673641 -0.09969867 0.05396442 -0.077168755 0.04421084 -0.054589577 -0.027446171 0.044199437
-0.013401543 0.04019828 -0.08890224 -0.1096287 0.053054493 0.057127524 0.022234948 0.057344984
-0.068716586 -0.017235843 -0.088586085 0.032721136 -0.032355886 0.06598963 -0.056016736 -0.03118717
0.036447957 -0.029100982 -0.008831649 -0.08031476 -0.04329757 0.0037092888 0.058871463 -0.032368984
-0.005899803 -0.062216505 -0.021474095 -0.01851906 -0.10585204 0.032932248 0.008056722 -0.0775789
0.056982085 -0.07120321 0.008117616 -0.08039833 -0.11816336 0.017766103 0.0022640133 0.0059372694
-0.10254593 -0.08179778 -0.052552436 0.05679427 -0.060720578 0.01334073 -0.06640532 0.09850446
-0.060567357 -0.011587768 -0.06692267 0.030735279 -0.03788557 -0.04127131 0.023976738 -0.0072998204
-0.0021196038 0.0020464684 -0.04909267 -0.024239277 -0.0796618 -0.14349158 -0.036887307 0.024316555
-0.06741321 -0.06685197 0.024121469 -0.008677681 0.027763233 0.01644405 -0.050451215 0.05143144
-0.02226725 -0.13560882 -0.060250465 0.060250364 0.015651 0.014412924 -0.07201617 0.040292095
-0.05569583 -0.023995198 -0.012069643 0.09226785 -0.050339926 -0.054252252 -0.020931378 -0.09110956
-0.048462894 -0.08900547 -0.050622214 0.028828597 -0.08331195 -0.056727123 0.036388602 -0.115241334
0.054995544 -0.090935655 -0.011685353 -0.03451141 0.007203882 -0.08764074 0.05080053 -0.03631725
-0.027194845 -0.043450546 0.055734873 -0.09803449 0.030535601 -0.1229535 -0.051722396 -0.038697254
0.056841854 -0.12524793 0.010655125 -0.06403438 0.025095819 -0.11311082 0.023365485 -0.06205151
0.055627078 -0.09703227 -0.099787004 -0.100092925 -0.037249207 -0.03316105 -0.06509733 0.022892896
0.03184848 -0.12949252 -0.06556373 -0.09540394 0.040059373 0.038812257 0.012665684 0.03924748
-0.08801595 -0.08718358 -0.020899128 -0.056134075 -0.13716136 0.06053407 0.043867715 -0.06500092
0.028839275 0.0082817245 -0.06477294 0.09603046 -0.08021955 -0.07860225 -0.10073633 -0.02875849
0.016174734 -0.02436056 -0.07163244 0.0059449626 0.036333896 -0.043351214 -0.07519417 0.0033726464
0.028724717 -0.00072082656 -0.07523249 -0.045039155 -0.09286541 -0.015054914 -0.008692 -0.015654352
-0.09065325 0.014365472 -0.03041355 0.02590507 0.016895514 0.035801955 -0.003813293 0.016981484
