checkpoints/sketch_prediction/BrepStrokeCloudAttention.pth (torch, 56350 bytes, 13 tensors)

attention.in_proj_weight f4 [96, 32]
000000 cd 32 ad bc 24 60 81 3d 4b e3 9a 3c ed c3 3e be
       -0.021142388 0.063171655 0.01890721 -0.18629427
000010 b3 30 a1 3d 19 ef 70 3e 99 c2 0e be 54 ca 23 3e
       0.07870617 0.23528709 -0.1394142 0.15995151
000020 1a dd 27 3e 74 22 aa 3c 02 1b c7 bd 43 51 1e 3e
       0.16392937 0.020768382 -0.09721948 0.15460686
000030 1a 74 1c 3e d6 5f c2 3d e8 f2 dc bc 8e 3e 4c be
       0.15278664 0.094909355 -0.026971295 -0.19945738
000040 2e e3 47 bd 22 9b 49 3d b5 c8 06 be c0 4a 89 bd
       -0.04880064 0.04922021 -0.13162501 -0.067037106
000050 3c 87 0e be 3d 20 28 3e 4d a7 1e 3e bf 9b 3a be
       -0.13918775 0.16418548 0.15493508 -0.18223475
000060 c5 08 2c 3c 8f 56 49 be f3 fe f8 3d d3 a1 27 be
       0.010500138 -0.19661926 0.12158003 -0.16370325
000070 ed 07 df 3d b1 98 0b 3e 30 58 13 3b 2e 8b 90 bd
       0.108901836 0.13632466 0.0022482984 -0.070577964
000080 9a 1e ee bd 1b ba 1c be 6c 15 9d 3d c5 fc 1e 3d
       -0.116269305 -0.15305369 0.076701015 0.03881528
000090 f9 2a 3b 3e 6c ff 8b 3d c2 93 cd bc 02 b6 f1 bd
       0.18278112 0.06835827 -0.02509487 -0.11802293
0000a0 62 77 97 3d ea b2 92 bd ba 6e 18 be 7d cc b3 3d
       0.07395817 -0.071630314 -0.14885989 0.087792374
0000b0 2d c8 0c 3e 5b 85 b3 bd 07 2a 53 3e 75 87 2c bd
       0.13748236 -0.0876567 0.20621501 -0.04212137
0000c0 a6 16 38 3c 47 f8 56 3e 2a 11 6f 3e 9f 3d 00 3e
       0.011235869 0.20993148 0.23346391 0.12523507
0000d0 ee 1a a2 bd b2 92 75 3e de d9 54 3e 0c 5d f0 bd
       -0.07915293 0.23981741 0.20786235 -0.11736497
0000e0 69 5a f5 3d 7e ef d0 bd c2 6b ff bd 36 42 38 3e
       0.11980135 -0.102019295 -0.12471725 0.17994007
0000f0 6e d9 c0 bd 1b 00 67 3d 8c a3 97 3d c4 ff 4b 3e
       -0.094164714 0.056396585 0.07404241 0.19921786
000100 f2 7b 3a 3e 5d b1 10 3b e8 68 8f bd 91 1d 12 3d
       0.18211344 0.0022078373 -0.07002431 0.035672728
000110 db d2 16 bc 86 65 25 be fc d4 48 3d ef 21 62 3d
       -0.009205545 -0.1615201 0.049031243 0.055208143
000120 f4 1f 36 be bd 3e fa bd dc 3e 35 be a7 ff a5 bd
       -0.17785627 -0.12218998 -0.1769976 -0.081054024
000130 9f bf 27 3d 7a 66 30 3d 23 b7 1f 3e 0f 9a c7 3c
       0.04095423 0.04306648 0.15597205 0.024365453
000140 37 d3 98 3d 4e cd 15 3e 11 c2 19 3e 21 65 38 be
       0.07462161 0.14629099 0.15015437 -0.18007328
000150 67 34 ef bc f2 b6 85 bc 4e 81 30 bd 37 f2 23 3e
       -0.029199792 -0.016322587 -0.043092065 0.16010366
000160 98 2c f2 bc ea f8 1c 3e 6d 92 12 be 0c 62 d2 bd
       -0.02956228 0.15329328 -0.1431367 -0.10272607
000170 fe f0 09 bd e7 0d 3f 3e f3 a5 3c be d7 25 17 be
       -0.033677094 0.18657647 -0.1842268 -0.14760529
000180 54 2f 8b 3e 3f ae ac bc f0 b4 3a 3b 77 4e 1b 3e
       0.27184546 -0.02107918 0.0028489195 0.1516665
000190 e9 3b 0a be a2 89 6f 3e 84 5c 4e 3d f1 dd 43 3e
       -0.13499416 0.23392347 0.0503812 0.19127633
0001a0 9b e3 f2 3d ad f2 db bd e2 99 4e 3e 3b bf 04 3e
       0.118598185 -0.10739646 0.20175889 0.12963574
0001b0 55 42 7e 3d db a7 41 3d f6 c2 30 3e 34 05 a9 bd
       0.062074978 0.04727922 0.17261872 -0.082529455
0001c0 e6 7b a8 3d 87 a6 c0 bd 3b 1b df bd f4 ab 32 be
       0.08226757 -0.094067626 -0.10893866 -0.17448407
0001d0 be 3e b3 3d 05 32 b5 3d 5c 3a 7e 3e b1 45 ff bd
       0.087522015 0.08847431 0.2482695 -0.124644645
0001e0 e5 98 33 3e 7c 92 3b 3c e0 b5 cc bd df 6d 6a 3e
       0.17538793 0.011448499 -0.099956274 0.22893475
0001f0 48 ae 81 3e 56 cd 42 3e c4 d7 43 3e 27 1f 88 3e
       0.2532828 0.19023642 0.19125277 0.26586267
000200 eb 36 e6 bc 66 cc 19 be 86 eb 39 be 69 62 06 3e
       -0.028102359 -0.15019378 -0.18156251 0.13123478
000210 f1 b8 bd 3d 42 d9 fc bd 2f 63 46 bc 59 c9 25 be
       0.092637904 -0.12346126 -0.012108608 -0.1619009
000220 2a 75 bc bc dd 0c ed 3c 2b dd fb 3c 88 f9 82 3c
       -0.023005087 0.028936798 0.03074511 0.015988126
000230 eb 9f 4b 3e 81 5c 58 3e 8d 67 31 3e de 35 56 3e
       0.19885223 0.21129037 0.17324658 0.20918986
000240 f1 31 4b 3d 85 35 09 bd 29 dd 14 3e 26 bc ee bd
       0.049608175 -0.033498306 0.14537491 -0.1165698
000250 5d b0 bb bb 55 73 d7 bc 71 36 45 bd 2a d8 1c be
       -0.0057278113 -0.026300112 -0.048147622 -0.15316835
000260 49 b0 3c be 33 1e 8e bc 2c c2 a6 3d c0 1d 1a be
       -0.18426622 -0.017348384 0.08142504 -0.15050411
000270 d3 14 b4 bd 23 5e e3 bc b1 76 20 be 73 bd 2a be
       -0.087930344 -0.027754849 -0.15670277 -0.16673832
000280 95 35 0e be 61 15 9e 3d 17 cb b9 bd ea c8 0e be
       -0.13887627 0.077189215 -0.090719394 -0.1394383
000290 35 c0 86 bd 0f 45 48 3e b8 9a 13 be 32 59 7e bc
       -0.06579629 0.19557594 -0.1441449 -0.0155241955
0002a0 66 1e 7b 3d 6a 1b 59 bd 62 2e f2 3d a7 64 01 bd
       0.061308287 -0.05300466 0.11825253 -0.03159013
0002b0 9e 30 34 bd 77 9a 0f be 86 a0 f4 3d 88 1d 00 3e
       -0.043991677 -0.14023767 0.1194468 0.12511265
0002c0 e1 de df 3d 86 47 1a be 03 21 85 3e 5f 60 16 3e
       0.10931183 -0.15066347 0.26001748 0.146852
0002d0 69 ee c3 bd 61 2f 6b be 8c 49 41 3e e8 d8 0d 3e
       -0.095669575 -0.22967292 0.18875712 0.13852274
0002e0 24 fb 99 bd 97 f1 82 3d 14 29 38 3d 66 c5 09 be
       -0.075186044 0.06393736 0.04496105 -0.13454208
0002f0 66 87 2f be b3 2f af bd 8a 25 0e 3e e7 da 6e be
       -0.17141494 -0.0855402 0.13881508 -0.23325692
000300 45 c0 b4 bd 99 98 8e bd c0 9c a1 bd a3 39 e2 3d
       -0.08825735 -0.069626994 -0.07891226 0.110461496
000310 67 17 26 3e c3 30 d2 bd 07 10 fb bd c7 97 48 be
       0.16219865 -0.10263207 -0.12258916 -0.19589148
000320 d4 88 18 bd ac 70 09 be 09 e6 28 be db 8e 98 bc
       -0.037239864 -0.13421887 -0.16494001 -0.018622806
000330 bb ee 07 bd 90 07 b8 b9 dc a0 8d be 23 47 26 be
       -0.033186655 -0.0003510085 -0.27661788 -0.16238074
000340 49 4a 0d be 3a e7 90 be 58 eb 40 bd 58 d0 10 be
       -0.13797869 -0.28301412 -0.04709944 -0.14141977
000350 44 02 a9 be fd d0 a9 bd 00 32 ee 3d 2e 60 2d 3e
       -0.3300954 -0.082918145 0.116306305 0.16931221
000360 95 16 0b be bb 46 c8 3d 9d 24 1f 3e 54 0e e3 bd
       -0.13582833 0.09779116 0.1554131 -0.11086717
000370 dd 93 ed bc 7a 68 fd 3b 48 33 40 bc 89 ae 42 be
       -0.02900117 0.007733402 -0.011730976 -0.19011892
000380 51 5e 49 bd fa c1 f8 3d 69 09 28 3d 43 76 02 3e
       -0.049162213 0.12146373 0.0410246 0.12740426
000390 cf a8 cc 3d b0 09 8c 3c 5d f6 64 be ef 04 f6 bd
       0.09993135 0.017094463 -0.22359605 -0.1201266
0003a0 68 19 47 be ed d3 81 3d db 15 de bd 9a 07 9b 3d
       -0.19443285 0.0633925 -0.10844012 0.07569809
0003b0 e6 b9 ba bd 16 96 1a 3d 7d 15 33 3d 03 fb 84 be
       -0.091174886 0.03774079 0.043721665 -0.25972757
0003c0 60 d3 89 bc f3 96 94 be 81 4a 78 be c0 6e 8c bd
       -0.016824424 -0.29021415 -0.24247171 -0.068570614
0003d0 60 4d a0 be 20 21 fd bd 88 77 85 be d2 b2 3d bd
       -0.31309032 -0.12359834 -0.26067758 -0.046313114
0003e0 0f 74 06 be 2c ec 01 be f1 bf 21 be 87 9a 2a be
       -0.1313021 -0.12687749 -0.15795876 -0.1666051
0003f0 1c 02 91 be 11 7f da 3d 26 86 0f bc 21 1f 41 be
       -0.28321922 0.10668767 -0.008760011 -0.18859531

attention.in_proj_bias f4 [96]
000000 5e 78 5b 3d 76 3d 65 3e a1 e3 87 3d 73 f0 79 3e
       0.053581588 0.22386727 0.06635214 0.2440813
000010 7c a9 41 bd db c4 88 bd 2f d0 1a be c6 78 35 be
       -0.047280774 -0.06678172 -0.15118478 -0.17721853
000020 24 73 cc bd 08 9b 01 be f7 b8 8f bb e7 cf d3 3c
       -0.09982899 -0.12656796 -0.004386063 0.025855972
000030 9c 1f 95 bd b5 06 35 3e 67 67 44 3e 7b 2b db 3d
       -0.0728142 0.1767834 0.1918007 0.107016526
000040 e1 c2 20 be ab 8d 66 3d df f8 12 be c7 d5 93 bd
       -0.1569934 0.05628745 -0.1435275 -0.07218509
000050 c2 6c 28 3e 81 78 5d be d0 f1 5f 3e 52 9a 0a bd
       0.16447738 -0.21628 0.21869588 -0.033838578
000060 64 4a 2a 3d 01 f1 3a 3e 18 61 d6 bc 02 89 61 be
       0.04157485 0.18255998 -0.026169345 -0.2202492
000070 f3 00 27 be 83 93 63 3e 68 91 8b 3d 41 3c 42 be
       -0.16308956 0.2222424 0.068148434 -0.18968298
000080 a1 bf 02 3c af 74 fe bb 72 d8 63 3b e8 d5 1c bd
       0.007980258 -0.0077653746 0.0034766463 -0.038289934
000090 5b b3 53 3b 4f c9 66 3b b3 2b 8e 3a 65 be 10 bc
       0.003230295 0.0035215204 0.0010846764 -0.008834456
0000a0 66 6a b7 3c bc d4 99 3b c5 74 f9 3b ca 48 43 bb
       0.022389602 0.0046945494 0.007612797 -0.0029798024
0000b0 c2 db b5 3b 7f 14 28 bc 04 b2 6b bb 9a 9b a1 3b
       0.005549879 -0.010258793 -0.003596426 0.004931879
0000c0 2f c4 2e 3d 01 b3 1f 3a c8 85 f2 3c a3 f7 f4 3c
       0.042667564 0.00060920423 0.029604807 0.029903239
0000d0 57 ef 38 bc 40 f1 78 bc 99 84 40 bd 06 3e 43 3c
       -0.011287532 -0.015194237 -0.047001455 0.011916643
0000e0 0a 11 84 3b 6c 1a 9e bb e5 57 44 bc fd 05 93 bb
       0.0040303515 -0.004824927 -0.011983846 -0.004486798
0000f0 a6 ab 8d bb 95 50 c3 bb b4 1a 0b bb 4e 27 cf 3b
       -0.0043234406 -0.005960534 -0.0021225633 0.006321824
000100 dd 3e c2 3d 33 00 23 3d 4b 12 84 bc 87 10 dd 3d
       0.094846465 0.039795112 -0.016122004 0.10794168
000110 80 f5 4d 3e 67 dc 29 3c 41 29 52 3d 48 41 d5 bd
       0.20113182 0.010367489 0.051308874 -0.10412842
000120 3c 59 c9 3c 3c d6 e3 bd 22 0c cf bc 6f 98 b7 bc
       0.024578683 -0.11124846 -0.02527434 -0.022411553
000130 a6 69 ba bc b0 ff c4 3c d7 f1 f5 bb 4a dc 95 3d
       -0.022755455 0.024047703 -0.007505636 0.073174074
000140 da 9c de 3a bb 2d 8b bb e2 74 11 3b be 8d b2 3d
       0.0016984001 -0.004247395 0.0022194912 0.087184414
000150 71 d2 f2 bd 05 26 19 bd fc 99 c7 ba 55 18 e4 3c
       -0.11856545 -0.037389774 -0.0015228386 0.027843634
000160 60 1c 86 bc d1 92 95 bd 72 bc 9f 3d 98 f3 12 bd
       -0.016370952 -0.07303394 0.07799615 -0.03587684
000170 62 ce 34 bd 7c 05 e8 bd 38 94 2f bd df cc d3 3c
       -0.044142134 -0.11329171 -0.04286596 0.025854526

attention.out_proj.weight f4 [32, 32]
000000 a0 2b 62 be ee 71 0e be eb 3b 6d 3e 49 d9 9c 3d
       -0.22086954 -0.13910648 0.23167388 0.07658631
000010 86 3e ff bd 5b 49 c9 bd 9a 68 35 3b 79 32 4f 3e
       -0.12463097 -0.098284446 0.0027680756 0.20234098
000020 29 09 15 be 9e 72 d4 ba 51 da 30 3e 85 44 a7 3a
       -0.14554276 -0.0016208475 0.17270781 0.0012761509
000030 5f ee e6 bc a9 0c 04 be a4 94 fc bd 80 51 ea 3b
       -0.028189836 -0.12895454 -0.123330384 0.007150829
000040 10 ac 00 bd ff 8a c1 3c f8 34 03 bb 47 2d 31 be
       -0.03141409 0.023625849 -0.0020020586 -0.17302428
000050 a7 9e 9d 3e 2f 5c 39 3e 82 b1 8b 3e d5 d0 c5 bc
       0.30785105 0.18101572 0.27283865 -0.02414743
000060 21 1c 86 3e 78 f3 97 3c 03 ee c8 bd 2c 2c 3a 3d
       0.26193336 0.018548712 -0.09811022 0.04545228
000070 42 98 00 be 92 f4 14 3d 68 57 4c bd ae 68 65 3d
       -0.12558082 0.036366053 -0.049888045 0.056008033
000080 4f a7 12 be 92 57 92 be 6c 8d 08 3c 16 25 3e be
       -0.14321636 -0.28582436 0.008334499 -0.18568835
000090 79 52 d2 bd a1 fd a8 bd 0b 82 76 3d 31 03 e5 3d
       -0.10269637 -0.08251501 0.060182612 0.11182249
0000a0 d4 41 11 be 5f 74 62 3e 62 72 04 3e 7c 93 fc 3d
       -0.14185268 0.22114705 0.12934259 0.12332818
0000b0 58 b5 d5 b8 76 20 c7 bc d6 b7 bc 3d 66 97 0c 3e
       -0.000101904094 -0.02430747 0.092147514 0.13729629
0000c0 53 3f 94 bd 8a b4 85 3e c1 c5 24 3d 81 71 a7 bd
       -0.07238641 0.26114303 0.040227655 -0.08175946
0000d0 99 bd be 3c c2 2d 15 be 1b 9f ca 3d 6e 1c 87 bc
       0.023283767 -0.14568236 0.09893628 -0.016493049
0000e0 4c e1 6b 3e 32 83 04 be d1 ea 0a be fc a0 d2 bd
       0.23035163 -0.12940672 -0.13566138 -0.102846116
0000f0 d2 41 8a 3d 23 a1 29 bc 28 2f 96 bd 31 d1 11 3e
       0.067508355 -0.010353359 -0.07333213 0.14239956
000100 2d 9b 3b bd 83 fc 94 be 95 37 a3 3e ee ef 21 be
       -0.045802284 -0.290989 0.31878343 -0.15814182
000110 9a bc 60 be 51 81 1d bd 01 69 cd bd b8 e7 bc 3c
       -0.21946946 -0.038453404 -0.100297935 0.02305971
000120 4e f0 e4 bd 99 d7 bf 3d 55 52 cb 3d 43 10 94 3e
       -0.11178647 0.09367294 0.09927813 0.28918657
000130 ba ff 9c 3d 33 5a 27 bd c0 ad a3 bd 8c b1 e6 bd
       0.076659635 -0.040857505 -0.079921246 -0.11264333
000140 cf 58 4d bd bc 3b b3 3e 0d 37 3b bd e1 65 64 be
       -0.050133523 0.3500651 -0.045706797 -0.22304489
000150 41 2c a6 3e e7 6a 44 bd 87 b6 48 3e 1e b0 1d be
       0.32455638 -0.047953513 0.19600879 -0.15399215
000160 7c a8 93 3d 69 5c 7a 3d a4 fb 02 3e 79 81 e5 bd
       0.0720987 0.061123285 0.12791306 -0.112063356
000170 d2 78 1d be f5 c6 0d bd b0 63 67 3d 4f 0e 56 bd
       -0.1537812 -0.03461357 0.056491554 -0.05225974
000180 5a ba a9 3d c6 56 08 be 38 99 88 3d 58 8c 24 be
       0.08287497 -0.13314351 0.06669849 -0.16069162
000190 4d 2c e4 bd 5a 2e bf bd f6 05 5a bd 27 0e 54 3e
       -0.11141262 -0.09335013 -0.05322834 0.20708524
0001a0 ec 20 90 bc cf 79 14 3e 5a eb c6 3d 3c e0 06 3c
       -0.017593823 0.14499591 0.097128585 0.008232173
0001b0 ce 3e cc 3d b5 8d 38 be e8 ca 07 3e 36 8b 36 bd
       0.099729165 -0.18022807 0.13260996 -0.044566356
0001c0 b5 e6 30 3e 88 88 53 bd 8c 65 e3 3d d7 6d cc bd
       0.17275508 -0.05164388 0.11103353 -0.09981888
0001d0 13 88 eb 3c d3 b9 07 3e b5 de 36 3e ec a2 04 be
       0.028751409 0.1325448 0.17858393 -0.12952775
0001e0 8f c8 98 3d 0b 48 0d bd 0c 69 ae bd 67 d1 05 3b
       0.074601285 -0.034492534 -0.0851613 0.0020419003
0001f0 5b 05 ce 3d 13 98 f6 3d d3 69 3f 3b 59 94 59 bd
       0.10059615 0.120407246 0.0029207363 -0.05311999
000200 38 d0 1a be 5b 8f 90 bd c5 fc 1e 3e d1 c0 4c be
       -0.15118492 -0.07058593 0.15526111 -0.19995429
000210 4f 22 f7 3c 6f 29 bc bd c6 c9 32 be 94 40 56 3e
       0.030167727 -0.0918759 -0.17459783 0.20923072
000220 63 f0 d0 3d aa 34 c7 bd ce 0e 51 3e 45 32 38 3e
       0.102021 -0.09726842 0.20415804 0.17987926
000230 07 2e f3 bd ce e3 bf 3c 45 d0 aa 3d b2 58 91 bd
       -0.118740134 0.023424055 0.083405055 -0.070969954
000240 eb 70 08 3e de b9 a2 3e 56 52 94 bc d7 34 45 be
       0.13324325 0.3178243 -0.018105667 -0.19258438
000250 d3 65 8a 3e 00 23 54 bd 8c 4f 3c bc 3f ed 5c be
       0.2703081 -0.05179119 -0.011493575 -0.21574877
000260 c1 3b d2 3d 2c 2d 04 be 45 e7 b1 3b 38 ba ec 3d
       0.102653034 -0.12907857 0.005429181 0.11558956
000270 d6 c2 35 bd c7 e7 1c 3d 63 d1 c2 3a 1c 6d 28 3e
       -0.044375263 0.038306978 0.0014863427 0.16447872
000280 c6 fa 97 bd df e7 63 be 50 19 94 3e 99 ac b1 bd
       -0.07420878 -0.2225642 0.28925562 -0.086754985
000290 2c ad 04 be 6e d3 1a 3e 60 ab 59 ba 4e f9 82 bd
       -0.12956685 0.15119717 -0.000830343 -0.06395207
0002a0 a7 18 24 3d 33 d2 21 be 09 41 07 3e cf b5 db 3d
       0.040062573 -0.15802841 0.13208403 0.107280366
0002b0 b2 1c b0 bc e5 0f b0 bc 5f dd 22 3e 39 f0 39 be
       -0.021498058 -0.021491954 0.15904759 -0.18158044
0002c0 be 32 4f 3e c2 2d 06 3e 01 b4 fd 3c ae 4a 74 3b
       0.202342 0.13103393 0.030969622 0.0037275958
0002d0 29 34 71 3e 3d c1 3f 3d 22 be 5e 3e 29 a9 e8 bd
       0.23555054 0.046815146 0.21752217 -0.1136039
0002e0 df 39 0d 3e 5b f2 4a bd 23 c1 52 3e dc d4 f3 bb
       0.13791607 -0.049547534 0.20581488 -0.0074411463
0002f0 62 fb f3 bb e2 cb e9 bd d6 d0 c0 bd 36 b1 2c bd
       -0.0074457387 -0.11415841 -0.09414832 -0.04216119
000300 0f 4a 4d be 89 bb 4a be 2f 0f 37 3e 96 02 66 3d
       -0.20047782 -0.19798101 0.17876886 0.05615481
000310 e6 9c 1a 3d 74 03 fe bc 70 3d dd 3d 49 2d 99 bc
       0.037747286 -0.031007506 0.10802734 -0.018698351
000320 1a 31 13 be b1 08 da bd 4c 48 bb 3d f3 ee 9e 3d
       -0.143742 -0.10646189 0.09144649 0.0776042
000330 f1 ba 0a be a8 bc 8f 3d 7d b2 e9 3d c5 dd b3 3d
       -0.13547875 0.07018405 0.11410997 0.087825336
000340 7d 31 1e 3e c0 3d 1e 3e 93 e5 0e 3d 6d a6 d3 3c
       0.15448566 0.15453243 0.034886908 0.025836194
000350 99 35 8d 3e c5 f7 85 3d b2 91 0c bd f3 9e 46 be
       0.27579954 0.06541399 -0.034318633 -0.19396572
000360 68 f8 38 3e 3b 39 1a 3d 1a e6 a4 3d 7c 49 ce 3d
       0.1806351 0.037652235 0.08051701 0.1007261
000370 af 69 23 3e 30 aa f4 3d b8 bc e5 3d f1 19 91 3d
       0.15958284 0.11946523 0.11217636 0.07085026
000380 3d 3b ca bd 59 0c 1c 3e 9e d7 3e be 3a 78 2b bd
       -0.0987458 0.15239085 -0.18636939 -0.041862704
000390 be da 01 3e 42 33 b5 bd d5 4a aa 3d 93 4b 96 3c
       0.126811 -0.08847667 0.08315054 0.018346583
0003a0 7d 07 e8 3d 05 39 3f be 26 0c f8 bc 8c aa a0 3d
       0.11329553 -0.18674095 -0.03027923 0.07845029
0003b0 e0 fc fc bd 0e 14 bf 3d fe db f9 bd 69 1d fe bd
       -0.123529196 0.09329997 -0.12200163 -0.12407953
0003c0 51 23 dd bb 6f 4f 58 3d 29 57 f9 bd 70 f1 47 3d
       -0.006748595 0.05281013 -0.121748276 0.048814237
0003d0 7f 84 41 bc 11 5f 08 be 01 28 e3 3d 0c bf 6e bd
       -0.011811375 -0.13317515 0.110916145 -0.058287665
0003e0 9f 3d 39 3d 68 e5 8f bd c2 65 ff 3d 63 d8 be bc
       0.045224782 -0.07026178 0.12470581 -0.02329654
0003f0 e6 31 36 be f4 92 96 3d 21 f9 8f bc 9e 8c bc 3d
       -0.17792472 0.07352248 -0.017574849 0.09206508

attention.out_proj.bias f4 [32]
000000 5f 0d d5 3d d0 01 17 3d 99 ad d6 bd 12 b0 77 3d
       0.10402941 0.036866963 -0.1048233 0.060470648
000010 a6 e3 1a 3d 04 51 07 3e bc b4 a9 3d dd aa 87 bd
       0.03781476 0.13214499 0.082864255 -0.066243865
000020 e7 83 ef bd c2 2b b9 bd bf 84 e0 bd a8 17 5a be
       -0.1169508 -0.09041549 -0.10962819 -0.21298087
000030 d3 0b 0f 3e c1 08 9a 3d c9 da 53 3c b3 9d 20 be
       0.13969354 0.07521201 0.01293058 -0.15685157
000040 b4 87 ca 3d b2 54 74 bd 61 1b 04 be 65 f9 9e bd
       0.098891646 -0.059651084 -0.12901069 -0.07762412
000050 75 cc e7 3d be 00 27 3e 53 d2 b8 bd c0 24 d3 bd
       0.11318294 0.16308877 -0.09024491 -0.10309744
000060 1b 4c a4 3d 87 0d f3 bd b5 75 90 bd eb 7f 35 3e
       0.080223285 -0.118678145 -0.07053701 0.17724578
000070 bf 18 67 3e 98 22 0c 3e 58 3c e2 3d c0 8c 51 3e
       0.22568034 0.13685071 0.11046666 0.20463848

layer_norm1.weight f4 [32]
000000 1a ed 83 3f b6 14 7e 3f 94 b1 79 3f 4b 86 7b 3f
       1.0306733 0.9925035 0.9753659 0.9825179
000010 37 a6 83 3f e2 b9 4d 3f 74 57 81 3f 13 19 7e 3f
       1.02851 0.8036176 1.0104814 0.9925701
000020 7b a4 64 3f 0c 1b 7f 3f 02 39 8f 3f 10 4e 5e 3f
       0.8931348 0.99650645 1.1189272 0.86837864
000030 fc e9 73 3f 6d d5 80 3f 32 c6 73 3f 03 27 6c 3f
       0.95278907 1.0065132 0.952243 0.9224703
000040 8e 13 36 3f 20 13 6d 3f 88 34 7f 3f 06 4d 83 3f
       0.7112359 0.9260731 0.9968953 1.0257881
000050 89 80 6f 3f 64 6c 6e 3f b6 4a 82 3f 94 89 9c 3f
       0.93555504 0.9313414 1.017905 1.2229486
000060 48 80 85 3f c0 59 87 3f 4e ee 73 3f e4 ba 85 3f
       1.0429773 1.0574265 0.952855 1.044766
000070 32 64 80 3f 7b 33 80 3f 2e 09 6c 3f 88 6c 74 3f
       1.0030577 1.001571 0.9220151 0.95478106

layer_norm1.bias f4 [32]
000000 b1 a1 dd 3c c3 26 9f ba dc ea 1f bc 5f 02 a1 3c
       0.02705464 -0.0012142289 -0.009760585 0.019654451
000010 b6 69 50 3d 3f 81 e1 3d 2e 46 2a 3d e1 d1 e2 bc
       0.050882064 0.1101098 0.041570835 -0.027687969
000020 84 88 38 bd 21 b6 08 bd ed 9f 71 bd 6b 34 42 3c
       -0.045052066 -0.033376817 -0.058990408 0.011853318
000030 fc 2d 4d 3d 82 a3 0c 3d c2 f3 ca 3c 6a 0e dd bc
       0.050092682 0.03433562 0.024774436 -0.026984412
000040 85 f3 ba 3d e3 b8 a9 3c bd 64 4a bd d4 c3 80 b9
       0.09128479 0.020718044 -0.049412478 -0.00024559966
000050 5d bb 47 3d 1a 62 00 3e 5f 2b f9 bc 65 5e 14 bd
       0.048762668 0.12537423 -0.030416189 -0.036222834
000060 e5 fe 58 3c 57 8f 5b bd d6 e7 88 bd 17 a4 b6 3d
       0.013244365 -0.053603496 -0.06684844 0.089180164
000070 35 f5 9e 3d 7f 51 72 3c f5 6f 08 3c 0b 74 01 3d
       0.07761613 0.014789938 0.008327474 0.031604808

layer_norm2.weight f4 [32]
000000 41 eb 95 3f 25 e7 96 3f 85 a0 88 3f 5a 58 83 3f
       1.1712419 1.178929 1.0673987 1.0261338
000010 10 e6 9d 3f ea 0a 99 3f 8b 48 9b 3f a7 62 95 3f
       1.2335835 1.1956456 1.2131513 1.1670731
000020 26 1b 81 3f d5 42 92 3f 6f 04 a7 3f cc 76 6f 3f
       1.008641 1.1426646 1.3048228 0.93540645
000030 75 24 81 3f 62 75 91 3f 1a 31 3a 3f 2e 8b 81 3f
       1.0089251 1.1363947 0.72731173 1.0120599
000040 a8 76 3d 3f ef 44 12 3f 4b 7e 8e 3f 88 18 6d 3f
       0.7400918 0.57136434 1.1132292 0.92615557
000050 22 fd 86 3f 32 85 73 3f 2c f9 85 3f b0 17 8d 3f
       1.0546 0.95125115 1.0466666 1.1022854
000060 89 76 92 3f ba 96 9d 3f 01 7f 95 3f 68 d3 76 3f
       1.1442424 1.2311623 1.1679384 0.9641633
000070 2e d5 73 3f b9 f3 7b 3f 5a 59 78 3f 35 55 82 3f
       0.9524716 0.98418766 0.9701134 1.0182253

layer_norm2.bias f4 [32]
000000 14 e1 f8 3c 03 ae 04 3d 78 33 25 3d e5 c6 06 3d
       0.030380763 0.032392513 0.040332288 0.032904524
000010 d5 12 0c 3d 64 fe d6 3c 5f 2a f4 3c 04 3a ce bc
       0.034197647 0.02624435 0.02980536 -0.025174148
000020 2c dd c4 bb 02 1b 9d bc 09 f9 ed bc 56 c3 60 3a
       -0.006007811 -0.019177917 -0.029049413 0.0008574029
000030 34 4e 83 3b 9f e2 c8 3c 82 15 24 be f2 14 0d bc
       0.0040071253 0.024522124 -0.1602383 -0.008610951
000040 65 aa 9a 3d 4e 11 40 3e d3 61 93 bc 07 0c 48 bc
       0.075520314 0.18756601 -0.017990982 -0.012209899
000050 a0 a9 88 3c 10 44 9e 3b f9 7c dc bb 02 45 86 bc
       0.016682446 0.004829891 -0.006728765 -0.016390327
000060 a8 45 da 3c c4 5f d1 bc 0c 5f d3 bc 45 21 5c bc
       0.026644543 -0.02555836 -0.025802158 -0.013435666
000070 8c 5d b2 bc 32 ba 1b 3c f7 14 2c bd d7 d2 03 3c
       -0.021773122 0.009504842 -0.04201218 0.008045874

feed_forward.0.weight f4 [128, 32]
000000 43 dc 56 be 8a f0 78 be 60 6c cb be 50 9f 47 bc
       -0.2098246 -0.24310508 -0.3973112 -0.012183979
000010 36 02 53 be 17 b3 aa bc ee 92 88 bd 32 f6 2b be
       -0.20606312 -0.02083735 -0.066686496 -0.16793135
000020 f0 85 66 be d4 d5 ab be 3e ef 16 3e 8a cf 96 bc
       -0.2251203 -0.33561575 0.14739701 -0.01840951
000030 15 d4 b6 3d ca 28 b3 3d 7a d7 97 3e b8 80 c5 3c
       0.0892717 0.08748014 0.29656583 0.02410923
000040 12 b9 80 3e 4e 4e 1b 3e de cb b8 3d 64 6a 04 be
       0.25141197 0.1516659 0.090232596 -0.1293121
000050 9c 28 cf 3d b2 7d 04 3e e8 99 2f 3e 26 17 38 3d
       0.101151675 0.12938574 0.17148554 0.04494395
000060 f8 2e 62 3e 73 1a bb bd 6e 35 48 bd 4a eb 59 3e
       0.2208823 -0.09135904 -0.04887908 0.21281162
000070 5f b9 2f 3d 97 25 02 be 5e 0d 12 3c 3f 6c d6 3d
       0.042901393 -0.12709652 0.00891432 0.10469865
000080 b3 f0 69 be 99 cd 17 be 79 2c af bd 0c c1 bf bd
       -0.22845726 -0.14824523 -0.08553404 -0.09362993
000090 a4 ca 84 bd a9 fe e0 bd 0f 48 5b be 3f aa 8c 3d
       -0.06483963 -0.109860726 -0.21414207 0.06868409
0000a0 85 9b 04 3d 45 f6 4f 3d d4 fa 0f 3e 35 48 77 3d
       0.032374877 0.05077197 0.14060527 0.060371596
0000b0 df 8f 6e bd ff 4d 03 be 94 1f b2 bc 65 bc ea 3d
       -0.058242675 -0.12822722 -0.021743573 0.11461715
0000c0 6e c1 4a 3e 9f b6 91 3e 95 7b 92 3e 43 22 d0 3e
       0.1980035 0.2845964 0.2860991 0.4065114
0000d0 1d 66 41 be f6 a3 2f bd d1 91 60 3e 48 28 46 3b
       -0.1888661 -0.042880975 0.21930625 0.0030236412
0000e0 a0 0e 80 bd d1 2f 89 3d 1a 04 c1 bd e5 6b b1 3d
       -0.062527895 0.066985734 -0.094246104 0.086631574
0000f0 dd 98 84 bd 40 b1 d1 be 84 5b 7f 3d 24 f4 94 be
       -0.06474469 -0.40955544 0.062343135 -0.29092515
000100 ad 61 a6 bd 68 5f 64 bd d8 e5 29 ba 3b 9c 8f bd
       -0.08124099 -0.05575505 -0.0006481088 -0.070122205
000110 14 ad a1 bd 48 c8 08 be 02 db 22 be 74 4d 37 be
       -0.0789434 -0.13357651 -0.15903857 -0.1790064
000120 49 33 0c 3e 60 5c 98 bd b0 59 2d bd 53 6f 0a bd
       0.13691439 -0.07439494 -0.04232186 -0.033797573
000130 59 88 64 bd f5 4c bd bc 17 79 25 3e 7e 2b 80 bd
       -0.055794094 -0.023107985 0.16159473 -0.062582955
000140 03 72 1e 3d 93 ee bd 3c 4f fd 22 b9 f1 d1 b1 bd
       0.03868295 0.02318505 -0.00015543889 -0.08682621
000150 36 04 19 3e c6 ff 6b be 6b 2b 60 3d e1 13 92 be
       0.14943013 -0.23046789 0.054728907 -0.2853079
000160 82 82 02 3e 1e c3 34 be 10 93 58 3d 01 d2 99 39
       0.12745097 -0.17652556 0.052874625 0.000293389
000170 68 20 be 3d 47 db 08 bc ae b9 16 be 4f 3a e1 3d
       0.09283525 -0.008353061 -0.14719269 0.109974496
000180 00 8c 1c ba 11 3b 73 bc 82 89 8e be 1e 87 5b 3e
       -0.00059717894 -0.0148456255 -0.27839285 0.21438262
000190 15 50 f3 bd 58 0a 71 bd 3e fe 6e bd 3a 4a d6 bd
       -0.11880509 -0.058847755 -0.058347933 -0.10463376
0001a0 1e 1e 3e 3d cd 58 4a bd 81 61 91 3d 13 1d 1d bc
       0.04641544 -0.049401093 0.070986755 -0.009589451
0001b0 71 06 6d 3d a6 18 c9 3d 86 f6 48 3e 03 b5 c1 3b
       0.05786747 0.098191544 0.19625291 0.005911471
0001c0 cf 5b 0b be 88 74 f9 3d 12 b9 99 bc 91 09 2d 3e
       -0.13609241 0.1218043 -0.018765006 0.1689818
0001d0 03 02 44 3d 69 a0 b3 bc 66 d3 1b be e1 89 6a be
       0.04785348 -0.021927075 -0.15217361 -0.22904159
0001e0 6c 57 01 3e 02 e9 1e be ad 0d 6b be 0f 76 8e 3e
       0.12631005 -0.15518573 -0.22954436 0.27824447
0001f0 c3 a2 87 3d f0 e7 10 be ca 86 ba 3d 2f 51 8d bc
       0.06622841 -0.14150977 0.0910774 -0.017250625
000200 7b 7c 80 be ae 65 1a be 34 8d b0 be 01 5f 94 3d
       -0.2509497 -0.1507785 -0.3448273 0.07244683
000210 3c 23 71 bd bc e0 34 be 9a 7f 8f 3c 9b 91 c4 bd
       -0.058871493 -0.17663854 0.0175169 -0.095980845
000220 47 d2 ae bd 71 ad 64 bd 95 a9 79 bd c0 1a 10 bd
       -0.08536201 -0.05582947 -0.06095274 -0.03518176
000230 52 d1 31 3e 98 df 05 3d 31 70 d1 3c 2b f0 50 bd
       0.17365006 0.03268394 0.025566192 -0.051010292
000240 06 58 92 3d b8 19 60 3d cc 38 28 3e ae 39 bc bd
       0.071456954 0.054712027 0.16427916 -0.09190689
000250 de 33 05 3e dc 70 63 bd 1c d5 29 3d f9 38 36 bd
       0.13008067 -0.055527553 0.041463003 -0.044487927
000260 86 12 f1 3d 38 9c 48 be f7 36 93 bd 29 14 83 3e
       0.11771111 -0.19590843 -0.07188218 0.25601318
000270 bc 4a 91 bd f0 ab 3c be 93 a3 05 3e 17 b9 e8 bd
       -0.070943326 -0.18424964 0.1305068 -0.11363428
000280 2d c5 54 be e3 8b c3 bd 3e 80 3c be 78 a6 0e be
       -0.20778342 -0.09548166 -0.18408296 -0.1393069
000290 06 25 81 3d e2 5b 52 3e 05 7b b0 3d 4f 74 da 3c
       0.0630589 0.20542863 0.08617214 0.026666788
0002a0 82 68 7a bd af 83 79 bd e0 80 e1 3d 79 3c a0 3e
       -0.061134823 -0.0609166 0.11010909 0.31296137
0002b0 78 d5 7c be 7a 46 02 3d b4 ce b1 bd 23 89 82 3e
       -0.24690807 0.031805493 -0.086820036 0.25495252
0002c0 31 77 2e bd a8 cb 0b 3e 97 75 c5 bd 8c 69 72 3e
       -0.04259414 0.13651907 -0.09641569 0.23673075
0002d0 93 00 8b be 2b 91 c9 bd 08 e3 e6 3d 01 9d 0e 3d
       -0.27148876 -0.09842142 0.112737715 0.0348177
0002e0 5e 42 6f bd 67 31 f3 bc ec 80 35 be 51 23 71 be
       -0.058412902 -0.029686643 -0.17724961 -0.23548628
0002f0 3d a0 d5 be de 07 16 be de f3 80 bd 91 03 8c be
       -0.41723815 -0.14651439 -0.06296514 -0.2734647
000300 7a d6 67 3d 4b 8e 44 3c 80 7a 27 be f6 a9 8a bd
       0.056601025 0.011996816 -0.16355324 -0.06770699
000310 5e b2 3e be ab 19 89 3d d8 2f 16 3d 62 d6 46 be
       -0.18622729 0.06694349 0.03666672 -0.19417718
000320 5a 26 9d bd f2 b9 9d bd 1a 23 0c 3e 3d 23 0e be
       -0.076733306 -0.07701482 0.13685265 -0.1388063
000330 01 fd b6 bd 55 1b 30 3e bb d5 97 3c 15 f3 6e 3d
       -0.089349754 0.17197926 0.018534532 0.05833729
000340 c7 1c ae bd 32 7d 49 3d 90 8a 5a 3b d3 77 12 3e
       -0.085015826 0.04919166 0.003334675 0.14303522
000350 89 7f 41 3d 71 b3 74 bd e5 e8 0a bd 02 9b 1a be
       0.047240768 -0.05974144 -0.03391351 -0.15098193
000360 50 2e 84 3e 75 12 ad bc 1e 8b 07 be 22 e8 c2 bc
       0.25816584 -0.021126965 -0.13236663 -0.02379233
000370 24 68 cb bd 5f 2c af bd 69 80 fc 3d dd ae 9d bd
       -0.099319726 -0.08553385 0.1232918 -0.07699368
000380 40 7b c4 be 1f 93 ab be 13 89 6d be cb 7d 3b be
       -0.38375282 -0.33510682 -0.23196821 -0.18309705
000390 d8 d4 6c be bb 19 82 be 1b f4 50 be 07 a1 fd 3c
       -0.23128068 -0.25410256 -0.20405619 0.030960573
0003a0 a5 da 50 3e 90 05 a2 bd 6e a9 d0 3d 1a fa cc 3e
       0.20395906 -0.07911217 0.10188566 0.40034562
0003b0 14 3b 0a be 72 7e 0c 3b c6 fc ff 3d aa 10 2d 3e
       -0.13499099 0.0021437672 0.124993846 0.16900888
0003c0 67 c4 c6 3d 3e e8 9e 3b 29 7d d7 3e c5 ce c8 3e
       0.097054295 0.004849463 0.42087677 0.39220253
0003d0 c3 a7 68 3d 46 24 49 3b 3f 9b 32 3e c5 19 33 3e
       0.056800615 0.0030691787 0.17442034 0.17490299
0003e0 89 52 8e bd 47 a0 17 3e a4 16 95 3d c2 f8 df 3d
       -0.06949336 0.14807235 0.07279709 0.10936119
0003f0 ad 77 e5 3d 22 cb d7 be 39 48 dc 3d c6 4a 12 bd
       0.11204467 -0.42147166 0.10755963 -0.03571584

feed_forward.0.bias f4 [128]
000000 11 89 b0 bd 84 b2 14 3c 32 f4 9a bd 82 9c 72 bd
       -0.08619893 0.009075765 -0.07566108 -0.05923129
000010 1e f6 bd 3d fb 24 9e bd 29 a8 83 be f6 24 8a be
       0.09275459 -0.07721897 -0.25714234 -0.26981324
000020 d2 7b 35 be 62 79 c4 3c b0 d9 5f be a0 df 4a 3d
       -0.17723015 0.023983661 -0.21860385 0.04952967
000030 02 01 c8 bd 26 4d 5c be 6e f6 29 be 83 6c 01 3e
       -0.09765817 -0.21513805 -0.16597912 0.1263905
000040 73 c2 ca bc d4 9c 05 bc c9 0e a1 3d 34 dc 96 bd
       -0.024750924 -0.0081550665 0.07864148 -0.07366219
000050 df 56 f4 bc 53 d6 69 3d 39 5e 59 bd 12 4b 0a be
       -0.02982658 0.05708916 -0.053068373 -0.135052
000060 f3 42 88 be 61 1e a1 bd 95 8e 11 be 10 e2 f6 3c
       -0.26613578 -0.078671224 -0.14214547 0.030137092
000070 10 54 09 be 8a 8d 50 ba 74 cf c0 3c e5 16 8b bd
       -0.13410974 -0.0007955661 0.023536421 -0.06791476
000080 6c 1f 3e 3d b8 c9 50 3d b7 ed 1b 3d e0 0c 31 bd
       0.046416685 0.050973624 0.0380685 -0.04322517
000090 fe 00 95 bc 06 d7 b4 bd 60 1b d7 3d 0b 92 96 be
       -0.01818895 -0.08830075 0.10503268 -0.29408297
0000a0 4e 8b 9d bd c7 1e 47 be 08 de f0 bd 1e 3b fa bd
       -0.07692586 -0.19445334 -0.11761099 -0.12218307
0000b0 e1 f4 00 be 1d f6 7f be f8 50 43 bd 3f ca 89 3d
       -0.12593414 -0.24996229 -0.04768464 0.067280285
0000c0 2d d8 59 3d 02 60 8e be 71 01 4b 3e ff 7f 76 be
       0.053184677 -0.27807623 0.19824769 -0.24072264
0000d0 47 df e1 3c 38 28 90 bd e0 b3 1e be 2d 1e 05 be
       0.027572287 -0.07038921 -0.15498304 -0.12999792
0000e0 e6 35 43 bc 37 84 44 bc 52 d5 aa bc ec 49 3b be
       -0.011914706 -0.011994413 -0.020853672 -0.18289918
0000f0 b3 c0 5a bd d9 cb 0b 3e e5 cd 42 bc 84 bd 27 be
       -0.05340643 0.1365198 -0.011889909 -0.16380888
000100 b4 db 8c be 20 a6 af 3c 7e 82 80 be 47 75 db bc
       -0.2751137 0.02144152 -0.25099558 -0.02678932
000110 3a 04 a2 bd 4f f7 82 bd ed 83 d2 3b b9 ca af be
       -0.079109624 -0.063948266 0.006424418 -0.34334353
000120 9f 1a b3 be 5d 46 b3 bd 6f 26 10 be 4a 42 7b 3b
       -0.34981248 -0.08753655 -0.14077161 0.0038339072
000130 1c 7f 47 3e d8 3f 74 bd 4e e6 04 be 26 ae 6c be
       0.19482082 -0.0596312 -0.1297848 -0.23113307
000140 3a d9 50 3e f8 1d 1b 3e 5a 2b 23 3c 55 ed 76 bd
       0.20395365 0.15148151 0.009959066 -0.06028493
000150 aa 77 c5 3c 06 a2 ba bc 59 83 a7 bd 76 ac 23 be
       0.024104912 -0.022782337 -0.081793495 -0.15983757
000160 94 7b c2 3d 35 13 7b bd 79 df 8d be ab 49 58 be
       0.09496227 -0.061297614 -0.2770956 -0.21121852
000170 4c 38 85 bd 9f 37 59 3c 1e 48 66 3d a6 ca 61 be
       -0.065048784 0.01325789 0.05622112 -0.2204996
000180 36 58 69 be 55 58 a2 bd 01 d4 28 be 92 d4 42 be
       -0.22787556 -0.07927004 -0.16487123 -0.19026402
000190 2f e8 37 be 62 09 9f bd 96 37 8a be 04 c5 0c be
       -0.17959665 -0.077654615 -0.26995534 -0.1374703
0001a0 fc de 2f be a8 34 24 be 03 be 85 3d b2 d6 29 bd
       -0.17174906 -0.16035712 0.065303825 -0.041464515
0001b0 9d d8 cc 3d 2c e5 a7 bd d0 c6 69 3d d7 c2 76 be
       0.10002253 -0.08198008 0.057074368 -0.24097763
0001c0 84 3c 16 3d ee d4 1f 3d a9 5d fd 3d f0 93 e7 3c
       0.036678806 0.039021425 0.1237138 0.028268784
0001d0 39 eb 8d be e1 81 b5 bc c3 9e 2b bd 31 b8 52 bd
       -0.27718523 -0.022156658 -0.041899454 -0.05144519
0001e0 49 d8 e4 bd 9b 1f 10 be 7a 23 cd bd f4 2b fc bd
       -0.111740656 -0.14074557 -0.10016532 -0.12313071
0001f0 b9 5a 09 3e 7f 4c 5f be 23 35 4f bd bc 58 b6 bd
       0.13413514 -0.21806525 -0.050587784 -0.089036435

feed_forward.2.weight f4 [32, 128]
000000 05 dc e3 bd 94 9f 48 3b 47 f4 22 3d f0 5c b3 39
       -0.1112595 0.0030612694 0.039783742 0.00034210784
000010 bf 0b 89 3c 16 ef 69 3e b7 1e 7f 3c d7 16 68 3c
       0.016729234 0.2284511 0.015571288 0.014165602
000020 d0 87 0f 3e c8 1e 79 bd 7e 48 e5 3d 77 df 0d 3d
       0.14016652 -0.06082037 0.111954674 0.03463694
000030 b5 1b 9a 3d ce 9f 64 3d a6 e1 b3 bd 92 a8 52 bd
       0.07524816 0.055816464 -0.087832734 -0.051430292
000040 11 44 00 3d 23 ce bc bd ff 70 d2 3d 32 bf 4c 3d
       0.031314913 -0.09219005 0.102754585 0.049987026
000050 92 a4 9f 3d b9 3d 5d 3d d4 f6 e0 bd 53 06 a9 3d
       0.07795061 0.05401394 -0.10984579 0.082531594
000060 e8 c5 6b 3c 5e 49 48 be 0f db 36 3d 08 84 b4 bc
       0.014390446 -0.19559237 0.044642504 -0.022035614
000070 af c1 f5 3d 0e b2 da bc e0 38 55 3d 80 6a 92 3d
       0.11999833 -0.026696231 0.052056193 0.071492195
000080 36 97 05 be 43 ad f9 3c d3 d5 21 3e ac 17 c9 3a
       -0.13045964 0.030478125 0.15804224 0.0015342138
000090 b9 f4 14 3e f0 b1 0e 3c 99 7e ee bd ac 16 82 bd
       0.1454648 0.008709416 -0.1164524 -0.063519806
0000a0 e0 bd d4 3c 72 21 3f bd 36 4e 94 bd 23 ee 8c 3c
       0.025969446 -0.046662755 -0.0724148 0.017203396
0000b0 1e 6e fc 3c 8c 32 76 bb 07 22 05 bd ee c5 d0 3d
       0.030814227 -0.003756675 -0.032503154 0.10194002
0000c0 f9 50 bb bd 6c 8d a5 3d 38 d9 24 3d 7f f5 68 3d
       -0.09146304 0.08083615 0.04024622 0.05687475
0000d0 f8 d8 eb 3d e7 bd 31 be 98 4a 1a bd 30 f6 8b bc
       0.11515993 -0.17357598 -0.037668794 -0.017085165
0000e0 ba a7 9b bc 48 ea 52 3d d9 cf eb bc ee 91 16 be
       -0.019000877 0.05149296 -0.028785633 -0.14704105
0000f0 b8 39 0d bd b9 f3 76 3d 26 77 44 be 68 fc 71 bd
       -0.034478873 0.060291026 -0.19186077 -0.059078604
000100 56 0e 1e bd 56 16 88 3d b0 e0 dd bc 74 16 89 bd
       -0.03858789 0.06644885 -0.027084678 -0.06693736
000110 04 43 17 be d4 e3 04 3e 1e 08 41 bd 75 3b f6 3c
       -0.14771658 0.12977535 -0.04712688 0.030057648
000120 47 fb c3 bd 97 3f 97 bc 55 a9 93 bc 83 44 a4 bd
       -0.09569412 -0.01846294 -0.01802508 -0.0802088
000130 d1 38 81 3b 0d 26 c3 3d ce 67 ec 3d db 93 8e 3d
       0.0039435406 0.09528742 0.11543237 0.06961795
000140 93 c3 14 bd 89 89 d1 3d 31 bb a0 3c a9 42 9b 3d
       -0.036319327 0.10231311 0.01962051 0.07581074
000150 49 d8 51 bd 71 a0 69 bd 7b 72 c1 bc db b3 ec 3d
       -0.051231656 -0.057037774 -0.023614159 0.11557742
000160 36 c8 03 be 9c 24 71 3e ef f8 81 bc df 32 dd bd
       -0.12869343 0.23549122 -0.015865771 -0.108007185
000170 0f db d5 3b c5 b7 e1 3c 94 83 cb bb 91 ce 7e 3d
       0.006526358 0.027553448 -0.0062107537 0.062208716
000180 fd 11 29 3d af 82 8d bc 85 5a 98 bd 4a 0e 12 3d
       0.04127692 -0.017274229 -0.0743914 0.03565816
000190 67 16 c3 3c d5 bb ca bd 4a 8f aa bc ba 7e 3a 3e
       0.023814393 -0.09899107 -0.020820279 0.18212405
0001a0 5a eb 2c bd e3 fc 82 bd 17 84 45 3d 0a 3f d5 bc
       -0.042216636 -0.063958906 0.048221674 -0.026031036
0001b0 3b ff a6 3b 45 fc d3 3c 38 ee b4 3d 90 cc bc 3d
       0.005096344 0.025877127 0.08834499 0.09218705
0001c0 59 0b 41 bd e1 f7 d2 bd c8 f0 13 3d 49 9a 0e bc
       -0.047129963 -0.103011854 0.0361183 -0.008703777
0001d0 ad af 58 3c 07 fa 5e 3d b3 c2 0d 3c bb 4d d8 3c
       0.013225478 0.054437663 0.008652377 0.026404252
0001e0 32 c0 28 3e a5 c9 b3 bc c9 9e 9e 3c b4 ff f4 bc
       0.16479567 -0.021946738 0.019362824 -0.029907085
0001f0 a5 81 d1 bc c2 c0 86 bc 90 1d 2b 3d 8e 06 76 3d
       -0.025574515 -0.016449336 0.04177624 0.060064845
000200 cd e3 fb bd 24 a3 9b 3d 8f a2 5d bd 63 96 ea bc
       -0.12299309 0.07599476 -0.054110106 -0.028636163
000210 e3 66 62 bd a9 b2 25 3e fc 0f 79 bd 42 34 78 3d
       -0.0552739 0.16181435 -0.06080626 0.060596712
000220 18 66 1d 3e 0c e0 a0 bd 59 7c f2 3d 4d 17 fc 3d
       0.15370977 -0.078552336 0.11840124 0.12309132
000230 96 b6 a7 3d 53 65 47 3e 2a c8 16 3d 66 7b 97 bd
       0.081891224 0.19472246 0.036811985 -0.07396583
000240 40 3b a6 bc 06 80 6e bd 6e 15 32 3d 91 94 f1 bb
       -0.020291924 -0.05822756 0.04347747 -0.007372447
000250 7b f7 da 3d 8b 00 ee 3c 60 24 f2 bd a7 6d d0 3d
       0.106917344 0.029052993 -0.11823344 0.101771645
000260 f3 0f 51 bd 7c 32 1f be c8 73 c8 3c 95 13 78 3d
       -0.0510406 -0.15546602 0.024469271 0.06056555
000270 90 83 ca bd ef 33 a7 3b 95 35 fb bd ae cb 06 3d
       -0.09888375 0.0051026265 -0.12266079 0.032909088
000280 a0 ae f4 bd 4e 9d ef 3c 01 ab dc 3d 55 a9 c3 3d
       -0.119473696 0.029249813 0.10774804 0.09553782
000290 75 65 fe 3d d6 fa e6 3c cc 86 71 bc 6a d1 ec bc
       0.12421695 0.02819578 -0.014741611 -0.02890845
0002a0 df eb 97 3c 15 f5 ea bc 37 09 c0 3d 78 03 bc bd
       0.01854509 -0.028681317 0.093767576 -0.09180349
0002b0 68 30 bd bd b5 cc ba bc 1e 38 35 bd 6b e5 22 3e
       -0.092377484 -0.02280269 -0.04424297 0.15907829
0002c0 f3 db 83 3d 53 fa 59 bd f4 78 9f 3b 86 58 bc bd
       0.06438436 -0.053217243 0.0048667137 -0.09196572
0002d0 6a 14 9e 3d 6f ac 22 be d3 97 70 3d ee 01 0c 3c
       0.077187374 -0.1588609 0.05873854 0.008545382
0002e0 2e 40 87 3c 33 a3 ce 3d 8f 93 20 bd a0 a2 44 be
       0.016510095 0.100897215 -0.039203223 -0.19202662
0002f0 a0 5e 39 bd 47 25 8a 3d 94 1b 43 be d0 0c b2 bd
       -0.045256257 0.06745391 -0.19053489 -0.0869385
000300 6d 61 e6 bd 7a 1c 2c 3c 22 7b 7d bd 7b 56 0c bc
       -0.11249051 0.010504836 -0.061885007 -0.00856554
000310 57 3c 4d bd 2c 6b 16 3e 97 4d 0e 3d 81 0b cd 3d
       -0.050106373 0.1468932 0.034741964 0.1001196
000320 0f 1a dc bc 35 03 82 bc fc 0a e3 bc 26 08 34 bd
       -0.026867894 -0.01587067 -0.027715199 -0.043953083
000330 ab f1 a0 3d a8 50 1a 3e 96 15 26 3e 42 ee 84 3d
       0.078585945 0.1506983 0.16219172 0.064907566
000340 a7 d2 57 bd 85 de 03 3e c8 be eb 3c 4e fc 13 3d
       -0.052691128 0.12877853 0.028777495 0.03612929
000350 86 ba f2 3d 43 a8 09 be e1 46 ea 3d d2 0b 5c 3d
       0.11851983 -0.13443093 0.114393 0.05372221
000360 0d 75 2c bd 9e 2f a8 3e 27 36 fa 3c ee f1 9e bd
       -0.042103816 0.3284883 0.0305434 -0.07760988
000370 97 0b 2b bc 02 08 fb bc b4 d6 0a be a8 d4 5a bd
       -0.010439775 -0.030643467 -0.13558465 -0.05342546
000380 a9 30 e9 3d 00 1b 98 bd 3d a8 29 3d 32 a9 fa 3d
       0.11386234 -0.07427025 0.04142021 0.12239303
000390 d2 7c 3f bd 7f 2f e3 3c 1f 46 6e 3d e0 4d 2b 3e
       -0.046749897 0.027732609 0.05817234 0.16728926
0003a0 b1 91 0f be 17 26 28 3d c3 b0 24 bd a1 50 13 bd
       -0.1402042 0.04105195 -0.040207636 -0.035965566
0003b0 68 b1 8b 3d 16 ea 36 bd 9b 0c c9 3d 0b de ba bc
       0.06820947 -0.044656835 0.098168574 -0.022810956
0003c0 05 1c 40 bc 66 52 b7 bc 01 35 f8 38 e6 b3 3e 3c
       -0.01172543 -0.022378158 0.00011835434 0.011639571
0003d0 2b 97 b6 3c 10 9c e6 bc 70 45 83 3d 02 7d a1 3c
       0.02228888 -0.028150588 0.064097285 0.019712929
0003e0 41 08 44 3e db 32 b2 3d 6c 06 9d 3c 38 c2 80 bd
       0.19143774 0.08701106 0.019168101 -0.06287044
0003f0 18 b6 71 3d 90 bf a0 3d 51 98 10 3d 08 64 1c 3c
       0.05901155 0.07849038 0.03530151 0.009545334

feed_forward.2.bias f4 [32]
000000 de 86 c7 3d 78 be cd 3d 12 ee 0f bd 48 c7 02 3e
       0.09742521 0.10046095 -0.03513915 0.12771332
000010 2b 9b a6 3d 04 5e 9d 3d b1 b8 3f 3d b7 94 63 bd
       0.08135065 0.07683948 0.046806995 -0.055561747
000020 9a 73 23 3c f3 44 3c 3d cd 7f 11 bd 8e 23 65 bd
       0.009976292 0.045964193 -0.03552227 -0.05594211
000030 52 e2 0c 3d 91 39 5b 3d d3 d3 50 3d aa ff a3 3b
       0.034395523 0.053521696 0.05098326 0.0050048428
000040 43 ea 0c be cf c3 90 bc 76 77 6a b9 b5 ba 92 3c
       -0.13761239 -0.017671494 -0.00022360482 0.017911294
000050 af d8 de 3c 6f d1 61 3e c6 a9 e9 bc b1 e3 8d bd
       0.027202932 0.22052549 -0.028523337 -0.06928194
000060 2d 3b 88 bc 56 4b 01 3d 08 05 93 bd 8c 08 d6 3d
       -0.01662978 0.031565987 -0.07178694 0.10450849
000070 68 97 a2 3d 35 3e 0d 3b 8c f4 79 3c d1 34 81 3d
       0.07939035 0.002155197 0.015256058 0.06308902

output_layer.weight f4 [1, 32]
000000 8e b6 9c 3e 37 75 b2 3e 57 38 33 3e 26 a3 e3 3d
       0.30608028 0.34855053 0.1750196 0.111151025
000010 36 9f b8 3e d4 17 8c 3e e4 da ac 3e 32 38 ae be
       0.36058968 0.2736193 0.3376075 -0.3402725
000020 da 9d be bd ec 21 60 be fd ad da be f3 11 59 bd
       -0.093074515 -0.2188794 -0.42710868 -0.052995633
000030 99 0b b7 3d da 41 4b 3e 9b 8c 4d 3c 3d 3f fe bd
       0.08937759 0.19849339 0.01254573 -0.124144055
000040 b2 69 44 bc 68 ee e9 bb 33 ad 7f be 5a 21 e1 bc
       -0.01198809 -0.007139016 -0.24968414 -0.027481724
000050 31 07 26 3e 93 76 a8 3d 5a b2 d8 bd 63 8b 63 be
       0.16213681 0.08225741 -0.10580893 -0.2222114
000060 3c 83 84 3e ce a1 b5 be 43 81 8e be 94 16 48 3d
       0.25881374 -0.3547501 -0.27832994 0.048849657
000070 8b b0 55 3d 7c f2 68 3d d3 a2 26 bd 4d f3 c6 3d
       0.052170318 0.056871876 -0.040682625 0.09714375
