checkpoints/sketch_prediction/face_embed_model.pth (torch, 14124 bytes, 8 tensors)

self_attention.in_proj_weight f4 [48, 16]
00000000: d9c8 e43d c3b1 db3e 3d23 34be 803e 853e
00000010: 3bad 4f3e 6acf 553e aac3 a3be a3fe abbe
00000020: 9411 693e f99c 7b3e fded 7dbd de37 cf3c
00000030: 7646 903e 429c b03d ee1b 2c3e 4678 1a3e
00000040: 609f 56bd 8be7 a73d 8f40 56be 3b04 1bbe
00000050: e6c5 033d 6816 a03d a195 c8bd d822 abbe
00000060: 7502 bfbe 7be6 64be b260 f53d 40c9 11bc
00000070: 221e 11be 9504 d2bd d989 c13d a18e babe
00000080: 2a14 ebbd 5dce b9be a098 063e 00a8 94be
00000090: 4b87 11be c22a 063e 0b5f 083d 844f 5bbd
000000a0: 984b a3be c5d5 ae3c f0d7 82be 9699 aa3d
000000b0: 1d5b 61be df5d d7be 19f0 413e 10a0 6bbd
000000c0: d142 1fbe 6187 a5ba c108 9ebd 666c 223d
000000d0: 98fa d5be de63 d73d 6c0c 0abc cf68 1bbe
000000e0: 87f0 b3be 6ec6 97be c3a2 f03d 00a5 37be
000000f0: d728 d3be eb59 d6be 22da 9bbe 2aa9 ed3d
00000100: 7160 063e e325 a8bd e953 afbd 197d 89be
00000110: de89 dbbd 5b07 39bd 2a8f e5bc c55e 44be
00000120: 2b7a 6bbe ff53 7cbc cd7d 12be fd95 5e3e
00000130: d9b9 efbc edab 5a3e ec63 fa3d 5d60 fdbd
00000140: 942e 683e b93a d9be 9276 a53e 1d5d ff3d
00000150: f233 7dbe 4341 383e 9c6e 3a3d 6ab7 29be
00000160: 352e dbbe ed07 16be d7c3 7b3e fa41 803e
00000170: 6664 cabd 5962 88bd 9dc8 e23d 3788 ed3c
00000180: 7d33 86be 49c3 cebc 0fa2 f7bd 5dd3 57bd
00000190: e58a 563e 81ad 17be bf8d 673e 5c3f dc3c
000001a0: 5300 3cbe 0855 71be bbbc 82be ea1f da3e
000001b0: 7c64 353e da08 9cbe 032f 87be f80f b3be
000001c0: c7b6 903e 6675 a7be 18a2 933e 7dd0 babe
000001d0: 0361 3d3e 062e 003e 6912 d3bc a402 aabe
000001e0: 8db7 f0bd 90fa 87be be0d 2cbe bba9 b53d
000001f0: 0a69 1cbd 48bb c1bd b9b0 8b3e 2da5 2d3e
00000200: d3d2 2bbd 548a 323e 93ec 8f3d 3820 82be
00000210: 6199 f4bd 1b7f eabc f164 ae3e 0a0e 703e
00000220: 0723 763d 3886 323d b097 5dbe cf3d a5bd
00000230: cf06 4a3e 50c6 173d c883 d93d 6dc0 29be
00000240: 8c80 b63c 4a69 8a3d 3e2d 003e 2ab3 90be
00000250: 655f 9b3e fa17 cf3c dee4 99be c596 15be
00000260: 95b1 12bc 53de 383d 0908 a23d f603 b43e
00000270: 876f ee3c a580 e63c fdd5 51be 06a5 593e
00000280: 47ab a0be 5d9e 0f3e 20dc 3e3c eb5d 8b3e
00000290: a42a 95be 6f60 883d 0881 ef3c f7b6 81be
000002a0: 809b 083e 4022 9fbe 79c0 433e 0165 243e
000002b0: ff6e 62be 3ce7 a1be 4cf9 7cbe c3ab fdbd
000002c0: 4f51 b93b 96ec a73e ecaa 01bd 6a77 d13e
000002d0: 68f8 653e eae7 a33c 381b 2a3e 0dc8 03be
000002e0: 7d1d b13e 248f cf3e 1ed6 2c3e 1b3f cd3d
000002f0: d24a 33be 3ec2 453e 3ae0 9e3e 7992 6d3d
00000300: 3480 023e 567c 14be 0806 88bd f094 46be
00000310: 86dc 923e d2eb ad3d 5453 40bd f512 c03d
00000320: b00e 8abe c9ec a6bd 58e4 ab3e bc86 af3d
00000330: e123 a63d 793c 113d 16e9 2f3e b8b1 a2be
00000340: 481d ec3e cc9e 24be 08e1 84be 325b 193e
00000350: b9c5 dbbd 9610 9bbe acd4 90be 0a38 c23d
00000360: 159d 923d 5745 ab3e 33e8 a43e ad5e 3b3b
00000370: 0ddc 343e 1f95 9d3e 3b78 84bd 92a8 5c3e
00000380: 1cd5 96be 3e56 f0bd 4bc1 713e cf7d 383e
00000390: 05de d23c 8a60 8ebe a422 993e bf42 1b3e
000003a0: 1a5e f7bd e749 2b3e 8499 5abe 8ecf 53be
000003b0: 8d29 be3e 21ef ba3d 2850 313e bf94 1ebe
000003c0: 3d7e 203e 95df 9abe 6017 1ebe 4a9e a2be
000003d0: 82d7 81be 6a16 c23c 665d ba3d df5a a5be
000003e0: c507 cfbe 278f 09bd 78e7 bb3d 3ed1 353e
000003f0: e2bc 5abe 0cd3 623e 2720 9bbd 34a3 c03c
0.11171121 0.4290906 -0.17591567 0.26024246 0.20280926 0.20879903 -0.31985217 -0.3359271
0.22760612 0.24571599 -0.06199454 0.025295194 0.28178757 0.08623554 0.1680753 0.15084943
-0.052398086 0.0819846 -0.20923065 -0.15138333 0.032171153 0.07816774 -0.097941644 -0.3342502
-0.37306562 -0.22353546 0.11981334 -0.008898079 -0.14171651 -0.1025478 0.094501205 -0.36436942
-0.11478455 -0.36290255 0.1314416 -0.29034424 -0.14211766 0.13102248 0.033293765 -0.05354263
-0.3189361 0.021342168 -0.25555372 0.083300754 -0.22007413 -0.42063805 0.18939246 -0.057525694
-0.15552832 -0.0012628847 -0.077165134 0.039654158 -0.4179275 0.10517095 -0.008425813 -0.151767
-0.35144445 -0.29643577 0.11749794 -0.17934036 -0.41242096 -0.41865477 -0.3043986 0.11604531
0.13122727 -0.08210351 -0.085609265 -0.26853254 -0.107196555 -0.04517303 -0.028022368 -0.19176777
-0.22995822 -0.015400886 -0.14305802 0.21736903 -0.029263424 0.21354647 0.1222609 -0.123718955
0.22674018 -0.42427614 0.32317024 0.12468932 -0.24726847 0.17993645 0.04551564 -0.16573873
-0.4280869 -0.14651461 0.24586426 0.25050336 -0.09882431 -0.06659383 0.1107342 0.028995616
-0.26211157 -0.025239604 -0.12091457 -0.052691806 0.20951422 -0.1481228 0.22612666 0.02688568
-0.18359499 -0.23567593 -0.25534615 0.42602473 0.17714113 -0.30475503 -0.26403055 -0.3497312
0.28264448 -0.32706755 0.28834605 -0.3648719 0.18494038 0.12517557 -0.025765615 -0.3320514
-0.117537595 -0.26558352 -0.16802117 0.08870264 -0.03818611 -0.09459549 0.27283266 0.16957541
-0.041949105 0.1743558 0.07027545 -0.25415206 -0.11943317 -0.028625062 0.34061387 0.23442855
0.060092 0.043585032 -0.21639895 -0.0806843 0.1972916 0.03705436 0.106208384 -0.16577311
0.022278093 0.067583635 0.12517259 -0.2826169 0.30346218 0.025279988 -0.30057424 -0.14608295
-0.008953472 0.0451339 0.07911689 0.35159272 0.029105915 0.028137514 -0.20491786 0.21254358
-0.31380674 0.14025255 0.011649162 0.2722009 -0.29134095 0.06659018 0.029236332 -0.25334904
0.13340569 -0.31080818 0.19116391 0.16054155 -0.22112654 -0.3162173 -0.24704474 -0.123862766
0.0056554447 0.32797688 -0.031657144 0.40911418 0.2245804 0.020008046 0.16611946 -0.12869282
0.3459281 0.40538895 0.16878554 0.10021802 -0.1750901 0.19312379 0.31030446 0.058001015
0.12744218 -0.14500555 -0.06641775 -0.19392753 0.2868387 0.08492245 -0.046954468 0.09378616
-0.2696433 -0.08150632 0.3357265 0.085706204 0.08112312 0.03545806 0.17178759 -0.31776214
0.4611609 -0.16076201 -0.25952935 0.14976195 -0.10731072 -0.30286092 -0.28287256 0.09483345
0.07158867 0.3345134 0.32208404 0.0028590367 0.17662068 0.30777833 -0.06468245 0.2154868
-0.29459465 -0.117351994 0.23608892 0.18016742 0.025740633 -0.27808028 0.2990924 0.1516218
-0.12078495 0.1672741 -0.21347624 -0.20684645 0.37141076 0.091276415 0.17315733 -0.1548643
0.15673156 -0.30248705 -0.15438604 -0.3176139 -0.25359732 0.023692328 0.090998456 -0.32295892
-0.40435615 -0.033583786 0.091750085 0.17755601 -0.21361116 0.2215082 -0.07574492 0.023515321

self_attention.in_proj_bias f4 [48]
00000000: 33c1 3f3e eae6 36be ebc1 7dbe 3d23 f6bd
00000010: fd0d 85bd 3333 f3bd 25f8 31be 95d3 0ebe
00000020: 8ebd b9bc 92ed 3ebc 7ae0 35be 3ba3 103e
00000030: 110d c6bd cf1a 1f3e d3a7 aabd f346 b7bd
00000040: 8e4d cc3a 828b 95bb fb9f dd39 ed37 47b9
00000050: bd6d 35bb aee4 83bb 1eca 48bb 9b35 0dbb
00000060: 5e65 df3a 0e5d 0f39 acad fcba f8dd f73a
00000070: 0728 89ba 0252 0e3b 4abd 453b 9004 96ba
00000080: f02b 4eba 8361 afbb 28c0 643b 1ad5 a1b9
00000090: b2ef e8bb af76 4c3c 4b21 d43b 03da 473b
000000a0: 1e86 3abc 3cbc d93b 2ea4 103c b1cf 6abb
000000b0: 591c 053c 16df 3cbb 0b4f 973b 695a 59bc
0.18726043 -0.17861524 -0.24781005 -0.1201844 -0.06496809 -0.11875 -0.17379816 -0.139479
-0.022673395 -0.011653321 -0.17761412 0.14124767 -0.09670461 0.1553757 -0.08332791 -0.08949079
0.0015587078 -0.00456375 0.000422716 -0.00018998953 -0.0027683817 -0.0040250635 -0.003063805 -0.0021546844
0.001704376 0.00013672208 -0.0019277832 0.0018910756 -0.00104642 0.002171636 0.003017264 -0.0011445452
-0.00078648236 -0.0053522005 0.0034904573 -0.00030867086 -0.007108652 0.012479468 0.0064736954 0.0030494935
-0.011384515 0.0066447537 0.008828206 -0.003582936 0.008124434 -0.0028819493 0.004617577 -0.013266184

self_attention.out_proj.weight f4 [16, 16]
00000000: 02b7 0fbe 8742 79be 3450 23be 2a64 c03d
00000010: 3a32 45bd bb61 d93d c6f3 7e3d 7889 24be
00000020: b954 efbd 486e 513d 8047 073d 20d8 ed3d
00000030: c459 2f3e f8c9 6cbe dc9b 69be bb50 94be
00000040: ab9a c5bc 9fa9 583e 9d9f 1e3e 4b2f 3dbe
00000050: aca4 66bc b6aa 8fbe ed58 50be b315 823e
00000060: 44fb 0c3e 7575 cf3d 6da1 cb3d 655a 723e
00000070: 782e 383e 9e31 c33d ea4c 1fbd f896 603e
00000080: e046 b0bd 0ec2 6e3d 80b9 c83c be5b 2f3e
00000090: 949d e03d 918b fdbd 551e 0abc 4602 503d
000000a0: feec 5cbe 1ba7 b43d 8f50 3bbe 5ce4 ef3d
000000b0: 579b 7abe c241 1abe a8ca 2fbd 6918 e93c
000000c0: 50df 883d 90b7 fe3d f07a 2a3e d29d 8e3c
000000d0: d92a 48be fb70 a5bc 40f4 cc3d 94db cebd
000000e0: c1da 473e 4c74 1b3e 01b3 68be f4d6 d2bc
000000f0: 2316 40be 79f9 e13c 1021 2c3e 75fc 86bd
00000100: 62d0 683b 80b5 40be 9035 0cbe 22f1 ef3d
00000110: cb83 6dbd 8ab3 c4bd 95ba cd3d cf90 273e
00000120: 2b72 9c3d 2a38 093e 5640 5a3d 883a 383e
00000130: 9cb4 5d3e d0cd 68be 2918 293c 385d 93bd
00000140: dfb0 463e 2b3f 4d3e a234 6e3b 9d2e 92bd
00000150: 30ea 643d c947 e93d bfb8 913b ab19 6d3d
00000160: f82a b03c 340e 063e a445 d53d 5863 79bc
00000170: 09a1 1e3c 1d89 3ebe 0bb6 533d cd18 20be
00000180: 7cf3 543d 30dc 833e 9491 353e b65f 79be
00000190: 1202 72be 43e2 e4bd 493e 313e 3b0a 22bd
000001a0: d9c0 ecbc abf7 803e 7e90 a83d 38d6 2e3d
000001b0: 0500 fe3d 6bcd f13d 5002 3f3e 6922 0c3e
000001c0: 1b77 27bd 72b4 773e efb2 a7bd 54f8 8cbe
000001d0: 8c17 783e 4dbc 033d b952 e4bd 646c 4e3e
000001e0: a110 09be 5dcd 1cbe 1aff c8bd 853e bdbd
000001f0: 71bd b4be 56ae 1a3d ca71 5d3e 0b20 453d
00000200: 1e99 8fbe 07be 873e d173 1e3e c97a 41be
00000210: 8222 003e 6640 88be a789 95be 66be 11be
00000220: 5d83 643b 8de0 45be 5b92 2bbe 28a2 4abe
00000230: dec0 34be 7951 c539 a68f 84bd f90c c13d
00000240: a0ac 2dbe 0e7c 04be 0089 72be 673d 6a3e
00000250: 7d34 33be 27fe 4d3e cc38 863d de08 903d
00000260: 2efa 8a3e e4e3 bbba 3264 a1be ad44 813e
00000270: a92b 31bd 61ea 72be e110 38bc a79d a9be
00000280: c4dc fbbd b359 acbd b968 733e 9e09 223e
00000290: 829f 2b3e 9201 72be cd4b 923d fead 273d
000002a0: 1af8 9fbe bfdb bbbd 5b04 98bc 18a2 a23d
000002b0: 7a70 02bd 8638 86be d41f 4ebe a7b3 843e
000002c0: fb34 303d 992c 97bd 975b 293e 27ce 48be
000002d0: 61f4 3e3e 8d20 c7bd dc26 53be c563 4f3e
000002e0: b8cc cfbd ea76 2dbe 1214 493e 14a3 cebb
000002f0: 2dd1 7abe be8e 4dbe 57dd 543e 7a14 9b3e
00000300: 2510 7abc 8ba1 07be c535 cfbd a258 59be
00000310: 95b0 56be a40d 13be cf58 b9bd c8e0 823e
00000320: a7ea ecbd 67e4 7abe efed 24be a9e6 06bc
00000330: e056 88be 4b0c 873c f1a6 5e3e 6fcb 0f3e
00000340: eebd 293e 9013 303e d7b2 44be 7854 083e
00000350: a534 3fbd 6791 dbbd 1006 8b3d a51d ef3c
00000360: 9500 2cbc 688b bcbd d8bc 183e e7ca 573e
00000370: d35e 9abe 1b34 bfbc 8e68 53be cc7c a53e
00000380: 8c49 113d c276 e53d 714f 5ebe 1f0e 943d
00000390: 6b53 3cbd b4f8 e83d 3776 14be dcfd 8fbd
000003a0: c933 cebd 3090 fb3d 8d65 2f3e 72da 0fbe
000003b0: daf8 82be ea0a 04bd cec1 703e 25fe ca3d
000003c0: b9ae 70be 925e 583d b2bb 04bd 7f87 353d
000003d0: c7fe cc3d f73c 2fbe 6dd7 86bd b0a5 51bc
000003e0: 6a88 2fbe 46c1 2e3e d690 933e 5d28 143d
000003f0: c72a 5abe 44da 343e 3d97 cdbd 18c0 523d
-0.14034656 -0.24341784 -0.15948564 0.09394105 -0.048143603 0.10614344 0.0622442 -0.16068065
-0.116860814 0.051130563 0.033027172 0.11613488 0.17124087 -0.2312392 -0.22813362 -0.28967842
-0.024121603 0.21158455 0.15490575 -0.18475072 -0.014077347 -0.2805993 -0.20346422 0.2540718
0.13767725 0.10129825 0.09942899 0.23667295 0.17986476 0.09530948 -0.03889171 0.2193259
-0.08607268 0.058290534 0.024502516 0.1712484 0.10967556 -0.12380136 -0.008430083 0.050783418
-0.2157478 0.08820935 -0.1829245 0.11713478 -0.2447332 -0.15064147 -0.042917877 0.028454022
0.066832185 0.124373555 0.1664846 0.017409239 -0.19547595 -0.020195475 0.100075245 -0.10100475
0.19517042 0.15181082 -0.22724535 -0.025737263 -0.18758444 0.027584778 0.16809487 -0.06591121
0.0035524596 -0.18819237 -0.13692307 0.11715914 -0.057987016 -0.09604557 0.10045353 0.16363834
0.07638963 0.13400331 0.05328401 0.17991078 0.21650928 -0.22734761 0.010320702 -0.071955144
0.19403408 0.20043628 0.003634729 -0.07137797 0.0558874 0.11390645 0.0044470723 0.057885807
0.021504864 0.13091356 0.104136735 -0.015221439 0.009681948 -0.18606992 0.05168728 -0.15634461
0.051990017 0.25753927 0.17731315 -0.24352917 -0.23633602 -0.111759685 0.17308916 -0.039560538
-0.02890055 0.25188956 0.08230685 0.042684764 0.124023475 0.118067585 0.18653226 0.13685001
-0.040885072 0.24189928 -0.08188426 -0.2753321 0.24227732 0.032162 -0.111485906 0.20158535
-0.1338525 -0.15312715 -0.09814282 -0.0924044 -0.35300782 0.037763916 0.21625438 0.04812626
-0.28046507 0.26512167 0.15473868 -0.18894495 0.12513164 -0.26611632 -0.29206583 -0.14232787
0.0034868338 -0.1932394 -0.16755049 -0.1978842 -0.17651698 0.0003763547 -0.06472711 0.094263025
-0.16960382 -0.12937948 -0.23685074 0.22874986 -0.17500491 0.20116483 0.06553802 0.07032941
0.27143997 -0.0014334884 -0.31521755 0.25247708 -0.04325453 -0.23722221 -0.011234493 -0.33128092
-0.12297967 -0.08415546 0.23770417 0.15823981 0.16760066 -0.23633412 0.07143364 0.040937416
-0.31243974 -0.091727726 -0.018556764 0.07941073 -0.031845547 -0.26215 -0.20129329 0.25918314
0.043019276 -0.07381553 0.16538845 -0.19609891 0.1864791 -0.097230054 -0.20620292 0.20252903
-0.10146469 -0.16939893 0.19636562 -0.0063060615 -0.24493857 -0.20073983 0.2078756 0.3028906
-0.015262638 -0.13245218 -0.101176776 -0.21225217 -0.20965798 -0.14360672 -0.09050142 0.2556212
-0.11568194 -0.24501191 -0.1610639 -0.008233705 -0.2662878 0.016485354 0.2174337 0.14042448
0.16576359 0.17194963 -0.19208847 0.13313472 -0.046681065 -0.10721093 0.06788266 0.02918894
-0.010498186 -0.09206277 0.14915788 0.21073495 -0.3015047 -0.023340276 -0.20645353 0.32321775
0.03547053 0.11204292 -0.21709992 0.07229256 -0.04597799 0.11375561 -0.1449822 -0.07030842
-0.10068471 0.12283361 0.17128582 -0.14048174 -0.25580484 -0.03223697 0.2351143 0.099117555
-0.23504151 0.052824564 -0.032405563 0.044318672 0.100095324 -0.171131 -0.06584058 -0.012795851
-0.17141882 0.17065915 0.2882144 0.036171306 -0.21305381 0.17661387 -0.10038612 0.051452726

self_attention.out_proj.bias f4 [16]
00000000: a398 6bbb 1a20 eebb 31b0 28bc 0a4c 0a3c
00000010: 0230 6ab8 7473 dc3b 8796 40bc 9f6c c6bb
00000020: 15fd acbc d722 cc3b c512 a83c c145 0abc
00000030: 3588 36bb 9eaa d2bb 21d3 b7bc da3a 5cbb
-0.0035949133 -0.0072670104 -0.010295914 0.008440981 -5.583466e-05 0.0067276303 -0.0117546385 -0.006055429
-0.021116773 0.006229739 0.020516763 -0.008439482 -0.0027852182 -0.0064290306 -0.022439541 -0.0033604414

fc.weight f4 [32, 16]
00000000: cf97 aebd 7152 7abe 4be4 0bbe 0a42 043e
00000010: bb1c 643e 948b 2a3e e9b7 0a3e 6be3 66be
00000020: 7754 fabd c84b 07be 9c94 2ebe 2603 40bd
00000030: fc6e 20be 2b9e 92be 646e 1abe 7df2 95be
00000040: 5dc5 fabd ffe4 df3d 7607 6b3d e0bf 353e
00000050: 2bcf 49be aab6 fabd a2ad 953d f3d6 66be
00000060: d33d 723e 6f27 833e 9a06 983d a451 4d3d
00000070: 8dc3 65bd fe4c 19be 58bc 95bd a0e1 473e
00000080: 3b33 783e 7950 23be 4c39 073d 8861 983d
00000090: f879 a0bd 9aff bb3d 4765 03be 11c2 353d
000000a0: 325b 733e 6026 0fbe a122 92bd 6b01 403e
000000b0: 21df 7cbd 293c f1bb 3171 edbd 7bb1 aa3d
000000c0: a64a 56be 89bb 2cbe d6b7 43be 94b4 3cbb
000000d0: c559 a9bd e4bf 05bd c6d3 fd3d 282b ac3d
000000e0: a3be b1be 12bc f2bd edf0 7c3d d9d5 4a3d
000000f0: e762 3c3e 5714 9bbc 8257 3e3e bc4c b3bc
00000100: 5e9e a83d 0746 16be 4213 2c3b 7d9d 8bbd
00000110: 489a e5bd 0efc 5b3e fe18 a9bd 8c61 1b3e
00000120: d33f 0ebc 20e7 1fbe f536 93be 5b73 9b3e
00000130: 6404 abbd f9e6 5c3d 9101 453e f69d b2bd
00000140: 4ad2 b9bc 663c 86bd 8409 1f3e ed88 a1bd
00000150: de04 51be e84b 3bbe 469b d63d 5af8 6c3e
00000160: 4f59 003e b2d8 eb3d 5981 963e 2ada 26be
00000170: ce53 c93d cde3 063e 4d85 8dbd 45a6 883d
00000180: 0ed7 083e 5df6 26bd 4a8b 01bc 2a73 a2bd
00000190: 7300 d53d d978 8cbd f183 4bbe e32c d8bd
000001a0: 04aa 48be e18e 9d3e c7fb 1cbe 055a 8dbe
000001b0: 482d ac3c 44c7 173e 6604 e5bd 01d0 09be
000001c0: aba4 52be f8ca 473e 407a 713d d87b 84be
000001d0: ffc6 d3bd 90da 20be 1bd8 15be 6269 e53d
000001e0: 3164 7c3d 29a7 e1bd a2d0 3c3e bb6a 473e
000001f0: 4215 6c3e 47e4 d13d 61d8 283e 5942 74be
00000200: efe2 5f3e bb89 513d 257d b9bd 986b 08be
00000210: a4b7 cfbc 2e5f a13d 13e2 4fbe 0b79 593e
00000220: 131c 2e3e 3a20 2d3e b7a6 3f3e 059f 8b3d
00000230: 8b96 143e de16 3fbc 41db 3bbe 9d55 1bbe
00000240: bb17 073e 14ff 04be 7ddf 8d3c 9400 35bd
00000250: f634 1fbd 32a0 80bd a034 4b3e ca63 75be
00000260: fa83 1cbe 3590 223e c616 763c 49c3 b7bd
00000270: 58a6 2ebe 2abf 72be 86ce 44bd 91c6 54be
00000280: 6eff 74be a1e2 c43c af3f de3d 3a83 213e
00000290: 0718 52be 4ae6 43be 3a2a 54be a05b d93d
000002a0: cf4c 883e 42f9 4abe e491 663e 911a 2bbe
000002b0: b29b 6bbe 1c6a 42bd 4be5 0abd 5ed1 703d
000002c0: cd8c 033d 43fc 3abe e113 12be 2030 c63d
000002d0: ae24 3dbe 604f 1a3e 4052 54bd 23d9 303e
000002e0: 6865 19bd 3451 2cbe bfd4 5e3e 8436 913d
000002f0: 3b4b c43c b9e7 2cbe da84 183e 4f31 92be
00000300: 4621 ad3d 5e2f 28be ac70 c2bd 339e e73d
00000310: 6a3f ae3c c75d 53be d809 183e 314f 33be
00000320: 9b12 21be fd5d 2b3e 967b 0bbe 9e63 aebe
00000330: c460 8a3d 2b90 81be 482f b7bb eceb 71bd
00000340: e472 69be d1ad 023e 11f7 a5bd abac 233e
00000350: b20b 98bc c5da 6bbe 38d2 a4bd 5f82 e0bd
00000360: 416b 9dbe 14cd 623e 0115 96bd 2a45 65be
00000370: b345 b83d f34c a7bd 7665 73be a919 ac3d
00000380: b01f 19bd 55e0 edbd 670b 3fbe 7705 74bd
00000390: 3285 b13c f72b 423e 4796 1c3e 58b5 5a3e
000003a0: 6d91 4dbe 5301 673e 4678 2abe de89 913d
000003b0: da2e 103e 55d2 743d 51d4 163e 5238 bb3c
000003c0: 23fb 923d 3596 21be 73c3 f3bd 82bc 163e
000003d0: e542 73be 575d f83c 28e8 02be da26 203b
000003e0: fe2f 3a3d 7be3 53bd 3c69 3cbe bbc7 383e
000003f0: 94c7 023d 6b1b 45bd 61e4 0c3e 0fcf 4b3d
-0.08525049 -0.24445511 -0.13661306 0.12915817 0.22276585 0.16654807 0.13546719 -0.2254769
-0.12223142 -0.13212502 -0.17048877 -0.046878003 -0.15667337 -0.28636298 -0.15081173 -0.29286566
-0.12244675 0.109323494 0.057380162 0.17748976 -0.19707935 -0.12241872 0.073085085 -0.22542934
0.23656397 0.25616023 0.07423134 0.050126687 -0.056094695 -0.14970776 -0.07311314 0.19519663
0.24238293 -0.15948667 0.033013627 0.074404776 -0.07835764 0.091796115 -0.12831603 0.04437453
0.23765257 -0.13979483 -0.07135511 0.18750541 -0.06173623 -0.007361908 -0.11593855 0.08334633
-0.20926914 -0.16868414 -0.19113097 -0.0028794156 -0.08269075 -0.032653704 0.12393908 0.08406669
-0.34715757 -0.11852278 0.061753202 0.049520347 0.18397103 -0.018930597 0.18588069 -0.021887176
0.08233331 -0.14675151 0.0026256596 -0.06817148 -0.112110674 0.2148287 -0.0825672 0.1517393
-0.008682209 -0.15615511 -0.28752866 0.30361447 -0.08350447 0.05393121 0.19238879 -0.08721535
-0.022683281 -0.06554489 0.15530974 -0.07887445 -0.20412013 -0.18290675 0.10478835 0.23141614
0.12534069 0.11515941 0.2939556 -0.1629416 0.098304376 0.13172837 -0.06910191 0.066723384
0.13363287 -0.040762294 -0.007906744 -0.07932122 0.10400476 -0.06858987 -0.1987455 -0.105554365
-0.19596106 0.3077307 -0.1533042 -0.27607742 0.021017686 0.14822108 -0.111824796 -0.13458253
-0.20570628 0.1951102 0.058954477 -0.25875735 -0.1034069 -0.15708375 -0.14633219 0.11201741
0.061618987 -0.110182114 0.18438962 0.19474308 0.23054984 0.102486186 0.16488792 -0.23853435
0.21863912 0.05115674 -0.090570726 -0.13322294 -0.025356121 0.07879482 -0.20301084 0.2123758
0.17002897 0.16906825 0.1871594 0.0681744 0.14510553 -0.011663167 -0.18345357 -0.15169378
0.13192646 -0.1298793 0.017318482 -0.044190004 -0.038868867 -0.06280555 0.19844294 -0.23963848
-0.1528472 0.15875323 0.015020078 -0.089727946 -0.17055643 -0.23705736 -0.04804852 -0.20778872
-0.23925564 0.024033846 0.108519904 0.15772715 -0.20516978 -0.19130817 -0.20719233 0.10613179
0.266211 -0.19821647 0.2251659 -0.16709353 -0.23008612 -0.047464475 -0.033910077 0.058793418
0.0321167 -0.18260293 -0.14265396 0.09677148 -0.18471023 0.15069342 -0.051836252 0.17270331
-0.037450224 -0.16827852 0.21760844 0.07090476 0.023961654 -0.1688527 0.14894429 -0.28553244
0.08453612 -0.16424319 -0.09494147 0.11309471 0.021270473 -0.20641242 0.14847505 -0.17510678
-0.15729754 0.16735072 -0.13621363 -0.34060377 0.06756738 -0.25305304 -0.005590353 -0.059062883
-0.22797734 0.12761618 -0.08103765 0.15983836 -0.018560264 -0.23032673 -0.080479085 -0.10962366
-0.3074589 0.22148544 -0.07328225 -0.22389665 0.08997669 -0.08168974 -0.23769173 0.08403332
-0.037383735 -0.116150536 -0.18656693 -0.059575524 0.021669958 0.18962084 0.15291701 0.2135824
-0.20075007 0.22559099 -0.16647443 0.07106374 0.14080372 0.0597709 0.1472943 0.022854004
0.07176807 -0.15779956 -0.11902513 0.14720348 -0.23755987 0.030317945 -0.12783873 0.002443722
0.045455925 -0.051730614 -0.18399519 0.18044941 0.031928614 -0.04812185 0.13758995 0.049758013

fc.bias f4 [32]
00000000: e6ed 2fbe 8367 d5bd 1cc7 3ebe 4216 71be
00000010: 8c5d 2cbe 6771 2e3e d578 983d 7026 b1bd
00000020: e2d4 3cbe 2a15 b5bd 77b9 b63c 8a7c fa3d
00000030: 6620 30be 973c 173e b02d 2a3e 34b2 c93d
00000040: 9390 a2bd 1eb8 b43d ae57 90bd 7116 7fbe
00000050: a4e7 493e 7e96 943d 40bb 0ebd d798 41be
00000060: d6d1 4d3e 59df 523e afa9 143d 42f3 253e
00000070: fb6a 31be 481e 75bd 199d 803d d710 60bb
-0.17180595 -0.10420134 -0.18630642 -0.23543647 -0.1683256 0.17035447 0.07444922 -0.086499095
-0.18440583 -0.08841927 0.022305233 0.12230785 -0.17199859 0.14769207 0.16618991 0.09848443
-0.079377316 0.0882418 -0.070479736 -0.24910904 0.1971727 0.072552666 -0.034846544 -0.1890596
0.20099577 0.20593013 0.036294635 0.16206077 -0.17325966 -0.05984333 0.06279964 -0.0034189725

fc_output.weight f4 [32, 32]
00000000: f1c6 e83b 562a f43d 67fc 10be 9b2b 203e
00000010: 91d8 96bc 8086 0fbe 3d5c acbd ea2d a63d
00000020: 9d4a dbbc 5aa8 41be 1be5 b93c 256d c83c
00000030: c00d 97bd 3996 acbd 2b37 293e 29b7 5d3c
00000040: e64e 203e 29b3 0c3e b9a3 c13d a043 26be
00000050: 0ca8 a33c c913 3a3d 263e 8e3d 405c 84bd
00000060: 65cb 4fbd 6606 99bd 1c01 85bc 6cae 03be
00000070: 0a83 4cbe 48f7 44be 0371 973c e9f2 82bc
00000080: 8eb9 e4bd 11b9 d53c b71e 143e 0375 4ebe
00000090: 5f54 85bd 1e04 01be d72e e43d 254a a43d
000000a0: 7db2 afbd b693 343d eb29 3a3b 26c4 efbc
000000b0: 34fe a33d 79c5 063e 6c57 453e da4e f7bd
000000c0: 4eeb 24be 187d 943c 1e60 373d 0bad c6bd
000000d0: 0b43 c03d a5e6 843c bc35 d1bc 0c07 1cbe
000000e0: 5f69 e03d 5579 13be d1df 123e ebf2 da3b
000000f0: 9e96 7fbd 79c5 063e 0128 c0bd 8ebc 26bd
00000100: 1f49 b33c ee77 453e 5034 023e f683 283e
00000110: 3ed3 16be ba23 37be 872a 343c 3ac7 233d
00000120: 4709 103e 3cae 693e ae40 053e 2d8a 40bd
00000130: ca40 653e 10c6 303e e095 3d3e 4ffb 1d3e
00000140: 1c78 d4bd 7c21 793d c289 80bc 4309 63bc
00000150: 7537 42bd dd43 7d3d 7b4a 323d de97 503e
00000160: a986 b8bd 9d2e 333e 47c8 ddbd 9b47 de3d
00000170: 35bd 4f3d a601 11be cd88 3f3e a804 36be
00000180: 9184 4b3c 68d1 1f3e 5ee2 be3d 80e5 193e
00000190: 5139 d0bd 229d f43d e4ed 03be 47e9 fc3b
000001a0: e684 0b3e 89ec 083e a4fb 83bd bf25 873d
000001b0: d996 a83d a298 95bd 88f3 1b3e 6a65 453c
000001c0: af29 4a3c f8df 573b dde4 c03d 804c b7bc
000001d0: 064e cf3d 7a0b 563d e326 023e 7f6c 1b3e
000001e0: a606 8abd a3cc 263e 6611 243e eff2 4dbd
000001f0: 5b93 573e ef0f 14be 53dd 3d3e 9cf5 88bd
00000200: 3661 8b3c f6a9 b6bd 79a2 47bd 95c1 fa3d
00000210: 3235 383d bd18 b3bd 6eb5 673d 4f27 b33d
00000220: 000e f23d fa53 3a3e 3e0f 56be 10f0 113e
00000230: b56f 163e 2bc0 fb3c b9b0 e5bd 3c71 c0bc
00000240: e00c 2bbe 9113 553e f897 5e3e 2c68 16bb
00000250: e5a5 6c3c 4b48 523e af7d 223e 54f5 933d
00000260: 295e 9cbd 6e43 a5bd 0665 5d3e 11f3 6c3e
00000270: 1db9 3b3e fd15 a9bc b502 3b3e 7261 073d
00000280: 2798 e93c 5035 3b3e 4513 7b3c 1957 823a
00000290: 255c 50be d6c7 5fbe c02f 473e da8d 8d3d
000002a0: 4737 693d 31bc e53d f442 abbd 78b7 6e3c
000002b0: 1bdc a7bd 7835 90bd 13de 6dbd d5f0 91bc
000002c0: 75d6 6d3d 3168 01bc ea2d 2cbd afcf 1ebe
000002d0: 0493 df3d ed23 4a3e 89f1 173e eb86 3d3e
000002e0: d0a1 e33d 5cbd b2bc 2e1b 62bd ac36 623d
000002f0: 6133 7e3e db3e 0fbc 1423 acbd f5cd 6abe
00000300: 941d 1c3e f358 32bd 4109 6ebb eeff 863d
00000310: d862 adbd c320 3c3e c40c 993d c3bb b93a
00000320: 7319 31be fa99 68bd 3b2c d0bd 3651 38bd
00000330: 57e7 303d 120e ae3c 1eb8 c8bd ea21 473d
00000340: 6331 06be a725 ecbb 36ce e2bd 7d74 3cbd
00000350: 82a9 be3d e837 8d3c cd5e 06be 82a0 b43c
00000360: 92fb 5f3e 497b b2bd 915a 4fbe 6ac4 bebb
00000370: a446 cb3d 8552 b1bb 1bd1 b73d 88c8 d33d
00000380: 383a 26be 81f1 33be be56 213e 00e9 a0bb
00000390: 66f1 74bd c03a 963d f4b0 57be 2c45 1bbd
000003a0: 3efd 90bd 72e0 8fbd f87d 193d d934 4b3e
000003b0: 34e2 c93d b473 39be aafb c93b 227a d3bd
000003c0: 471c acbd 7740 3b3d f600 3cbe 3ecf c6bd
000003d0: e347 00be 2989 fbbd 69e3 31bd e63b 763d
000003e0: 3ed0 283e 8438 48bd 8f81 cfbc 7fd3 26be
000003f0: dbba 03bd cb6c e53d 6814 a43c fb03 f83b
0.007103794 0.119221374 -0.14158784 0.15641634 -0.018413814 -0.14016151 -0.084160306 0.08114226
-0.026768977 -0.18911877 0.022692254 0.024466107 -0.073756695 -0.0842709 0.16524951 0.013532438
0.15655097 0.13740219 0.09455056 -0.16236734 0.019977592 0.045429025 0.069454476 -0.06462908
-0.05073108 -0.074719235 -0.01623588 -0.12859505 -0.19971862 -0.19234955 0.018486505 -0.01598497
-0.11168204 0.026089223 0.14464842 -0.20161824 -0.06510233 -0.12599227 0.111417465 0.080219544
-0.08578966 0.04408618 0.0028406333 -0.029268336 0.0800747 0.13161267 0.1927163 -0.120755866
-0.16105387 0.018126056 0.0447694 -0.09700974 0.093877874 0.016223261 -0.025538318 -0.15237063
0.10957598 -0.14401753 0.14343192 0.00668179 -0.0623995 0.13161267 -0.0938263 -0.040707164
0.021885453 0.19284031 0.12715268 0.16456589 -0.1472902 -0.17884722 0.010996467 0.03998492
0.14066039 0.22820371 0.13012955 -0.047006775 0.22387996 0.17263055 0.18514204 0.15427898
-0.103744715 0.06082295 -0.015690688 -0.013857189 -0.04741617 0.061832298 0.04352806 0.20370433
-0.090100594 0.1749825 -0.108292155 0.108535014 0.05071755 -0.14160785 0.18704529 -0.17775214
0.012421743 0.15607226 0.0932052 0.15028954 -0.10167182 0.11944033 -0.12883717 0.0077182385
0.13624915 0.13371481 -0.06444481 0.06598996 0.08231897 -0.07304503 0.15229619 0.012048105
0.01233904 0.0032939892 0.09418652 -0.022375345 0.10122304 0.05225704 0.12710147 0.15178107
-0.06739549 0.16289 0.16022262 -0.050280508 0.21052305 -0.14459203 0.1854146 -0.06687471
0.017014127 -0.08919136 -0.04873893 0.12243954 0.044972606 -0.08744953 0.05656951 0.08747732
0.118190765 0.18196097 -0.20904252 0.14251733 0.1469105 0.030731281 -0.11215348 -0.023491494
-0.1670413 0.20808245 0.21737659 -0.0022950275 0.014443849 0.2053539 0.15868257 0.07224527
-0.07635147 -0.08069502 0.21620569 0.23139597 0.18332334 -0.020640368 0.18262751 0.033051915
0.028514935 0.18282056 0.015324418 0.000994417 -0.2034765 -0.21853575 0.19451809 0.06911822
0.056937482 0.11217535 -0.0836238 0.01457011 -0.08196279 -0.07041448 -0.058073115 -0.017815033
0.05806585 -0.007898376 -0.042035975 -0.15508913 0.10916713 0.19740267 0.14838232 0.18508498
0.11114848 -0.02181881 -0.0552017 0.05522792 0.24824287 -0.008743013 -0.08405128 -0.22930129
0.15245658 -0.04354186 -0.0036321434 0.065917835 -0.084661186 0.18371873 0.07473138 0.0014170337
-0.17294864 -0.05678747 -0.10164686 -0.044999324 0.043189373 0.021246944 -0.098007426 0.048616327
-0.13104777 -0.007206637 -0.11074488 -0.04600953 0.09309675 0.017238572 -0.13122101 0.022049192
0.2187331 -0.08714921 -0.20249392 -0.005821754 0.09925583 -0.0054114484 0.089754306 0.10340983
-0.16233146 -0.17572595 0.15755746 -0.0049105883 -0.059800528 0.073354244 -0.21063596 -0.037907764
-0.07079552 -0.070252314 0.03747365 0.19844379 0.09857598 -0.18110543 0.006164034 -0.10326029
-0.08403831 0.045715775 -0.18359742 -0.09707497 -0.12527423 -0.122820206 -0.043429766 0.060115717
0.16485688 -0.048882023 -0.025330333 -0.16291617 -0.03216062 0.11202391 0.020029262 0.007568834

fc_output.bias f4 [32]
00000000: 8f9f 87bd 4a79 8e3d 6985 9a3d 7b1f 003e
00000010: 580c 823d e30c 673d aba7 9cbd 0e6f f8bc
00000020: c324 273e b170 0cbe c290 cf3c ff36 653d
00000030: dbda 303e ee62 46bd 6426 04bd aebc 7bbd
00000040: 09f6 30bb 5fe3 d63c 6753 85bd 6b5e 803b
00000050: fb00 23be a673 20be 96c5 b73d eb42 b73c
00000060: c5b3 9b3c 056a 113e ce20 d23d 56ee 633b
00000070: 9b85 a3bd 9019 e8bd 0280 a83d 40a6 f2bc
-0.0662223 0.06956728 0.07544977 0.12512009 0.06350011 0.056408774 -0.076491676 -0.030326393
0.16322617 -0.13714863 0.02533758 0.05596065 0.17270987 -0.04843419 -0.032263175 -0.061459236
-0.0027002117 0.026231466 -0.06510048 0.0039175055 -0.15918343 -0.15669116 0.089732334 0.022370776
0.01900662 0.142006 0.10260163 0.003477951 -0.079844676 -0.11333001 0.082275406 -0.02962029
