checkpoints/sketch_prediction/FaceBrepAttention.pth (torch, 56032 bytes, 13 tensors)

cross_attn.in_proj_weight f4 [96, 32]
00000000: 9f3c 1ebe 5903 42bd b0b7 c2bd 51d3 a63d
00000010: 3658 113d b49b bf3d 0900 c6bc 5f6a 2f3e
00000020: d5c0 34be 2d53 283e feda ad3d 6055 e1bd
00000030: 2251 d0bd b3d3 d63c 5538 50be 8294 adbc
00000040: e705 bbbd 4128 f3bd 6ded b2bc 39fa 35be
00000050: d364 feba 7829 803e f650 bcbd da65 49bd
00000060: fc6c 07be ed88 a0bc 4d1e 0e3e 559b c9bc
00000070: 8922 65be 5118 70bd b6aa e43c aae9 21be
00000080: 8e5c 833d 7041 283e 002e d03d 1b5a dd3d
00000090: db06 47be 4dcc 2ebe d676 68be 3248 6a3e
000000a0: 8956 e4bd 5348 03be e843 86bd 3d71 2d3e
000000b0: 4dc8 703e d5b7 4cbe ba4b 8b3d 49eb afba
000000c0: 085e 613e 1bf8 0ebd 546f 12be 7eb8 29be
000000d0: 3151 803e 6ea1 a8bd 14c7 1b3e 110f 42bd
000000e0: 0267 423c 166a 4c3d c0bc 2fbd cece 33bd
000000f0: 96f7 c83d 159e 063e dc78 05be 3925 6abe
00000100: 2509 8ebd f8ca 7bbd e974 90bd 3453 c2bd
00000110: a817 52be 853f 09be a8ea 223d 20e7 d63d
00000120: af1f 46be 4911 1a3e b36c bfbd 29a4 a0bc
00000130: 6d56 cdba 982a a43d 27ef b83d 0c5d 50be
00000140: dd9f 29be 397d a23c 8543 febd ff1c f8bc
00000150: 03fd 61bd 3ba2 03bd 23b7 debd 2b88 fcbd
00000160: d3e2 b2bb 53ce 303c 606f 2a3d 0b23 4c3c
00000170: 036a 2fbe 333b 183e d558 043d f31f 313c
00000180: e569 72bd ba2c 6a3e 3931 953d 6d86 85bc
00000190: c212 3dbe 8d76 3f3d 5121 9abd beee 2b3e
000001a0: 56c0 393e 11f7 4dbc b977 89bd a38e c8bd
000001b0: 1229 e0bd 2d90 d93d b3bf eb3d 006a 823d
000001c0: cc6f 47be 895a 65bd 987c 213e 2fb0 403e
000001d0: ba73 d33d 01fc e23d 6be6 60be a3e6 4e3d
000001e0: 4b41 05bd a631 31be 8099 9abd a4ae bcbd
000001f0: bf6b 013e 0115 b43d 1e73 403e d55b 0ebe
00000200: 7769 0c3e c44b 343d d09b bd3d 3a4e 843d
00000210: f1b9 313e 1f7a 84bd ce2b 953d f77b 2dbe
00000220: ce95 9dbd b30b c2bd 1459 34be 453c 243e
00000230: 1f67 143e bb8b b0bd c444 f7bd c64b 30be
00000240: 7773 dfbb 8f92 183e d5f0 15be 497b 2dbe
00000250: aa37 e93c ec54 a2bd 8c77 12be ba44 0d3d
00000260: fd28 febd 1348 243e a6dd fbbc b35b 1fbd
00000270: f2bd 043e c1b0 7c3c b3ad 423c be34 0fbe
00000280: 857a 52bd e328 e93d f865 21be 3631 373e
00000290: 6da8 a33c 433b 6bbc 7013 13be 5040 b9bd
000002a0: f4c1 ea3d af6c 313e b084 163e 1435 93bd
000002b0: 4517 56be 2d74 57bd b7c6 cabd ee4b 1c3e
000002c0: 08fc 643e f2f8 8e3d 0c5f 2b3e c8af 3cbe
000002d0: a327 dd3d 21db 11be 007a 0cbe 6c66 c6bc
000002e0: 2de7 f93d 5f66 14be c8f7 ee3d 1157 163e
000002f0: 23da 29be f829 afbd d77e 74bd 75b8 223e
00000300: cdf0 bf3c 5e84 2b3e ac2f 1e3e cc9c 53bc
00000310: 5e60 3abe b893 4cbe ffa5 183e 4084 c63d
00000320: 4f1d 49bc 92c6 2fbe 57f2 0d3e 5a07 14bd
00000330: 5056 2c3e f760 f23d b149 23be fdbd c53d
00000340: 98e0 073e 0879 9f3c 0097 313e bb70 e0bb
00000350: ae00 f13d 65e4 443d 7139 4abe 929d 0fbe
00000360: fcbe 8bbd 3862 813e e625 fa3d 33b5 f83c
00000370: dddc 51bc 3cfb df3c 7232 f6bd e6d2 c7bd
00000380: 7027 d83d 6a10 7cbc fe15 27be 96ee df3d
00000390: 3e38 bdbd 96b6 363e 327b 11bd c50b a63d
000003a0: ae2e 213e bc08 2c3e b94f 0e3e 9c3c 8dbd
000003b0: 4b0a fe3b 33e9 20bc 0d2c 10bd fd72 1fbc
000003c0: bc57 633e 3594 6bbd d88f 483e 1ee1 2abe
000003d0: 1753 5c3d 8f54 313e 1308 de3d 15a8 9d3d
000003e0: 61d9 1ebe 1172 8b3d 150a 64bd b8a7 1ebe
000003f0: ce52 d33d 8ea2 b3bd 05d6 29bd 147f ae3d
-0.15452813 -0.047366474 -0.09507692 0.08145774 0.035484515 0.0935587 -0.024169939 0.17130421
-0.17651685 0.16437979 0.08489035 -0.11002612 -0.10171725 0.026223993 -0.20333989 -0.021188978
-0.09131985 -0.11872912 -0.021841729 -0.17771234 -0.001940871 0.25031638 -0.091951296 -0.0491694
-0.13225168 -0.019596541 0.13878746 -0.0246102 -0.22376455 -0.05861694 0.027913433 -0.15811792
0.06414138 0.16431212 0.10165024 0.10808202 -0.19436209 -0.17070122 -0.22701582 0.22879103
-0.11149318 -0.12820558 -0.06555921 0.16937728 0.23513909 -0.19992001 0.06801553 -0.0013421561
0.22008526 -0.03490458 -0.14300281 -0.16574284 0.25061944 -0.08233915 0.15212661 -0.04737765
0.011865379 0.04990586 -0.042904615 -0.043898396 0.09812848 0.13146241 -0.13034385 -0.22865762
-0.06935338 -0.061472863 -0.07053549 -0.09488526 -0.20516837 -0.13403137 0.039774567 0.10493302
-0.19348024 0.15045656 -0.093469046 -0.019609528 -0.0015666016 0.080159366 0.0902999 -0.20347995
-0.16564889 0.019835101 -0.12415222 -0.030287264 -0.05517293 -0.032137137 -0.10874774 -0.123306595
-0.0054591685 0.010791379 0.04161012 0.012459527 -0.17130284 0.14866333 0.03231128 0.01081084
-0.05918302 0.22868624 0.07284779 -0.01629945 -0.18464187 0.04674392 -0.07525886 0.16790292
0.18139777 -0.012571112 -0.067122884 -0.09792831 -0.109453335 0.106232025 0.11511173 0.06367874
-0.19476241 -0.055994544 0.15770185 0.18817209 0.103248075 0.11083222 -0.21962897 0.05051292
-0.03253297 -0.17304096 -0.07548809 -0.092129976 0.12638758 0.08793069 0.18793914 -0.13902219
0.13712107 0.04401757 0.092582345 0.06460233 0.17356087 -0.06468605 0.07283746 -0.1694182
-0.076945886 -0.09474888 -0.17612106 0.16038616 0.14492463 -0.086204015 -0.12073663 -0.17216405
-0.0068191844 0.14899658 -0.14642651 -0.16941561 0.028468926 -0.07926354 -0.14303416 0.03448937
-0.12410162 0.16043119 -0.030745339 -0.03890581 0.12963083 0.015423001 0.011882233 -0.13984963
-0.051386375 0.11384752 -0.15761554 0.17889866 0.019977773 -0.014357391 -0.14362884 -0.0904547
0.11462775 0.17326616 0.14699054 -0.07187858 -0.20907314 -0.05260103 -0.09901183 0.1526334
0.22361767 0.06981076 0.16735476 -0.1842643 0.10798576 -0.14243747 -0.13718414 -0.02421876
0.122022964 -0.14492176 0.11668354 0.1468165 -0.16587119 -0.08552927 -0.059691276 0.15890677
0.023430252 0.16749713 0.15447873 -0.012915801 -0.18200824 -0.19978225 0.14907072 0.096931934
-0.012275054 -0.17165592 0.13861977 -0.036139823 0.168298 0.11834901 -0.1594608 0.09655378
0.1326927 0.019466892 0.17342758 -0.006849376 0.11767708 0.048069376 -0.19748475 -0.14024952
-0.06823537 0.25270247 0.1221426 0.03035984 -0.012809006 0.027341478 -0.120213404 -0.097570226
0.10554397 -0.015384773 -0.16316983 0.109341785 -0.09239243 0.17843089 -0.03551788 0.081077136
0.15740463 0.16800207 0.138976 -0.06896326 0.007752692 -0.009821224 -0.03519826 -0.009732005
0.22201437 -0.057514388 0.19586122 -0.16687438 0.05379018 0.17317413 0.10841384 0.07698075
-0.15512611 0.06808866 -0.055673677 -0.15493667 0.10318528 -0.08771239 -0.04146387 0.08520332

cross_attn.in_proj_bias f4 [96]
00000000: 8650 0cbd e23c 0b3c 054d 033d 4c80 113d
00000010: cfd4 eb3c 400e d6bc 520a c13b 2da0 86bc
00000020: 046b a73a f313 7e3b d438 cebc 16cc 213c
00000030: fe1a dcbc 9977 32bb 4623 9f3c c558 5abd
00000040: 5b40 ca3c 9c0f a13c d76e 543a 219b 65bc
00000050: 451b e6bc 1e40 14bd cac5 85bc 5ab7 04bd
00000060: bb58 b73c c329 82bd 00cb 1dba 743b 45bc
00000070: 4ee5 823a c693 32bc 4a62 1938 48ff abbb
00000080: 2166 58bb 89b7 b13b e7f4 b03a c741 463a
00000090: acb9 9f3a 8ee0 65ba 7d13 e138 9c9c af39
000000a0: 30e8 f13a da53 073b f606 13bb 05ba 1dbb
000000b0: a42a aaba 2344 413b 9e8d 0d3a 1fe1 22ba
000000c0: a664 df3b dd10 30bb 71c0 ed3b 28a2 5d3b
000000d0: 2e2e 80ba b32a c1bb e8f5 d53b 033a 9e3b
000000e0: ae23 84ba b0df 00bb 4a03 363b e702 363b
000000f0: 5ff0 3f3b 02b9 64bb ce9c 96ba e1e6 22ba
00000100: 5c81 e53b c415 f2bc 1c54 46bb 7873 c43b
00000110: 0c18 f2bb 5f8f bcbb 5823 ecbb ac22 d43a
00000120: 4efc 4b3c 0b35 623c 6f59 903a d7ea 3b3c
00000130: 47cf a0bc 2e21 b83c 2d2a abbc c179 7f3c
00000140: 99e8 5dbb 149f 35bb 7d19 00bd a35d a33c
00000150: ea01 a43c f188 34bb 41c1 a2bc b705 493c
00000160: 620f 3dbc ccd8 aabb c817 3e38 de59 cc3c
00000170: 4f1c dfbb 1311 19bd bce7 75bc 758a a03c
-0.03425648 0.008498402 0.032055873 0.035522744 0.028787998 -0.026129842 0.005891123 -0.0164338
0.0012772982 0.0038769215 -0.025173582 0.009875318 -0.02686834 -0.002723193 0.019426 -0.053307313
0.02468889 0.019660763 0.00081036746 -0.014014036 -0.028089175 -0.03619396 -0.016329665 -0.03240142
0.022381177 -0.06355622 -0.0006019324 -0.0120381005 0.0009986551 -0.01089949 3.656958e-05 -0.0052489378
-0.0033019858 0.0054234904 0.0013500721 0.0007562902 0.0012186072 -0.0008769118 0.00010732466 0.00033495284
0.0018456038 0.0020649345 -0.002243457 -0.0024067175 -0.0012982679 0.0029490076 0.0005399826 -0.0006213355
0.006817418 -0.002686552 0.007255607 0.0033818576 -0.0009779388 -0.0058949827 0.0065295584 0.004828693
-0.0010081434 -0.0019664578 0.0027772957 0.0027772726 0.002928756 -0.0034900312 -0.0011490823 -0.0006214213
0.007003946 -0.029551394 -0.0030262535 0.0059952103 -0.0073881205 -0.005754396 -0.0072063617 0.001618465
0.012450291 0.013806592 0.0011012981 0.011469564 -0.019630088 0.022476759 -0.020894134 0.015592993
-0.0033860563 -0.0027713226 -0.031274308 0.01994211 0.020020444 -0.0027547444 -0.019867541 0.012269429
-0.011539312 -0.0052138325 4.5321678e-05 0.024945196 -0.0068087946 -0.0373698 -0.015008863 0.019597271

cross_attn.out_proj.weight f4 [32, 32]
00000000: 816e c83d 1442 7abd 5704 1a3e c201 ccbc
00000010: fe5b 34be 0437 b6bd 0bd8 ec3d d39f 95bd
00000020: 576f de3d 17c3 1ebe 0a77 14bc 04ea 983d
00000030: 0b04 f23c 8bc6 8e3b 4280 263e 2be2 07be
00000040: 2aab e4bd ff51 8fbd 39a1 003e 27f7 a83d
00000050: 1eaa 3ebe fd16 12be a08b 653c fac1 ed3d
00000060: c9e3 0ebe e2d3 0c3e 8607 a23d 356a b93c
00000070: a037 7b3d c106 c43d 10b4 fc3d 32bd 0c3e
00000080: 7bcb 0e3d 6261 113d 5670 c13d 00ed 44be
00000090: ec6e 27be 0acf 3a3e 0dd5 223e 45f4 da3d
000000a0: 3a76 e3bd e5d0 233e 5ff8 223e 97d7 2abd
000000b0: 8770 c63d bf3c db3d 584c 23bc fa11 a5bd
000000c0: d5ae 0f3e 3139 b13d 2977 29be 541f 8c3c
000000d0: d9a5 b93d eb3e d2bd dd9b b13d c775 2abe
000000e0: 4bce d63d 5de9 b33d e223 1bbd 559f e43d
000000f0: 5034 0dbe 58cc 0d3e dff7 183e 7c70 283e
00000100: 9a15 4bbd 231d 563c 9427 ef3d 50ab 653d
00000110: 827d fcbd bfe5 e1bd 4d94 413e 1a7a b7ba
00000120: c54a 14be ec80 0b3d b9ac 4e3d 77d0 21be
00000130: 9657 17be 4a6e fb3d cd8c 34bd e008 ae3d
00000140: 65ee a53d 6345 083e d20a fcbd 71e6 c13d
00000150: 3a83 1b3d 4727 35bd f004 39be 1f2e 01be
00000160: fb37 b9bd e583 80bd bc42 3c3e 0e83 05be
00000170: 416c c93b ffe9 273e 9f4c 20be a9d8 c5bd
00000180: 99a8 ad3d 32cd b3bd 3bd6 823d d704 783c
00000190: e496 0e3e 7a02 ccbd a5ba 8c3d b0e2 48bd
000001a0: 1905 d43d 3425 bc3c 3d14 1a3e 0e62 ec3d
000001b0: 765a 793d 15d4 b0bc 0546 be3d 0cc5 d93d
000001c0: 4028 203d bb9e 543d 2d86 2fbe 7d52 ec3d
000001d0: 83cc 2e3e 4892 6dbd 7004 40bd 1a1d 8cbc
000001e0: 5303 913d 9061 e0bc 64bd 97bd 429c cd3d
000001f0: 8295 87bd d1af e3bd 1010 8abc b76d c53b
00000200: a08d f1bc 2509 1abe 940e 54bd 769d cb3d
00000210: 31e1 80bd e3c7 c8bd f208 873d 6955 aebd
00000220: a938 c03c caf0 5a3d 00e8 033e c9cd 7b3d
00000230: afb7 de3d a1b8 053e 74a2 dc3d 217f c1bd
00000240: fbd0 fb3d 9349 943d 2c92 75bd 2080 8abd
00000250: 4fe0 26be 3231 073e 0a9c a63d 0c96 063e
00000260: 3518 8dbd fef6 c2bd 53ee 9a3d 6b65 0fbe
00000270: 3323 3e3c e163 333d 6887 04be 4b64 703d
00000280: 041c 003d 9ed3 f4bd f583 18be 47a0 1cbd
00000290: 4253 a83d 2ad5 a33d e703 153e 7a77 82bd
000002a0: 94b8 cabd aafb 933d a24d bcbd 81ba 503d
000002b0: 995a d4bd ce30 d03d 3b5a f4bd ac15 0b3e
000002c0: 0c82 76bd 2d4c 923d 3d77 113e 900d cabd
000002d0: 19f1 e5bd f667 e9bd fff1 e53d 9770 c1bc
000002e0: a23e be3c 03d5 b13d fbec 3c3e 1a3b 073e
000002f0: 3310 aebd 912a 4b3d e257 b8bc 5d7b 483d
00000300: 34ae 6dbd 647d 9dbd 0c59 0fbc 8f13 bf3d
00000310: 4356 85bd 84b9 6d3d 36d7 ab3d d732 d6bc
00000320: 2731 aebd 9d85 c63d 8b8b 163c a577 02bd
00000330: a33d 093e a6c9 843c 0b05 2b3d d1d4 a7bd
00000340: d1f1 56bd 9872 2b3e f574 10bd bc1d 61bc
00000350: e9c7 21be a4b2 f3bd e9b7 d6bd 1708 afbd
00000360: f3b6 01be fbb0 3b3b 2039 243e 7a88 063e
00000370: 4729 c43d 930f 8c3c 68d6 92bd 9b7a e2bd
00000380: 1e4a c0bd 6bf5 8b3d 16ea 22be a28d 0e3e
00000390: 7879 423e 891a eebd a6c5 ccbd d28e 303e
000003a0: 2bad f3bd 5fa6 bd3d 06ac f83d 30b0 f83d
000003b0: 0836 843d 2110 73bd 69bb 29be 2b4b 043d
000003c0: 7cec dc3c ddd9 07be 017d 05be 3dc9 243d
000003d0: 19c1 473c 7549 f7bd 2949 efbd de46 0ebd
000003e0: a969 c73d 5b81 e0bd 6b18 90bd a683 333e
000003f0: 1908 fe3d bac2 e8bd bbb8 babc fb90 f3bd
0.09786702 -0.061098173 0.15040718 -0.024903182 -0.17613217 -0.08897212 0.115646444 -0.07305875
0.1086108 -0.15504108 -0.009061584 0.0746651 0.029542943 0.0043571643 0.16259864 -0.1326987
-0.111654595 -0.069980614 0.12561502 0.082502656 -0.18619582 -0.14266582 0.01401034 0.11609264
-0.1395408 0.13752702 0.07911591 0.022633651 0.061332345 0.09571601 0.12339032 0.13744047
0.034862023 0.035493262 0.094452545 -0.19231033 -0.16350907 0.18243042 0.15901585 0.10691122
-0.11106534 0.15997656 0.15915059 -0.04170951 0.09689432 0.10704946 -0.009966932 -0.080600694
0.14031537 0.086534865 -0.16549362 0.017104782 0.09064836 -0.10265907 0.08672307 -0.16646491
0.10488566 0.08784745 -0.037876017 0.11163203 -0.13789487 0.13847482 0.14938305 0.1644916
-0.049581148 0.01306847 0.11677471 0.05607158 -0.12328626 -0.11030149 0.18904229 -0.0013998181
-0.14481647 0.034058496 0.05045769 -0.1580218 -0.14779505 0.12276895 -0.04407959 0.084977865
0.08102111 0.13307719 -0.12306751 0.09467781 0.037966944 -0.04422691 -0.1806829 -0.1261525
-0.090438806 -0.06275157 0.18384832 -0.13038275 0.006146938 0.16397856 -0.15654229 -0.09660465
0.08479423 -0.08779372 0.063885175 0.015137873 0.13924748 -0.0996141 0.06871537 -0.04904431
0.10352535 0.022966959 0.15046783 0.1154214 0.060877286 -0.021585504 0.09290699 0.10633287
0.039100885 0.05190919 -0.17141028 0.11539171 0.17070203 -0.058000833 -0.046879232 -0.01710372
0.07080712 -0.027390271 -0.0740917 0.100395694 -0.06620313 -0.11117519 -0.016853362 0.006025042
-0.029486477 -0.15042551 -0.051771715 0.09942143 -0.06292952 -0.0980375 0.06593503 -0.085123844
0.023464518 0.05345229 0.1288147 0.06147555 0.108748786 0.13058712 0.10773173 -0.09448076
0.12295719 0.07240596 -0.059953853 -0.06762719 -0.16296504 0.1320236 0.08135231 0.13143176
-0.06889383 -0.09519766 0.07564988 -0.14003532 0.011605072 0.043796424 -0.12942278 0.058689397
0.031276718 -0.11954425 -0.14894088 -0.03823879 0.08219005 0.07999642 0.1455227 -0.063704446
-0.09898487 0.072257355 -0.09194495 0.050959114 -0.10368843 0.10165559 -0.119312726 0.13582486
-0.060182616 0.071434356 0.14205642 -0.09865868 -0.11227626 -0.11396782 0.11227798 -0.023613257
0.023223225 0.08683207 0.18449776 0.13206139 -0.084991835 0.04960114 -0.022502843 0.048945773
-0.05802746 -0.07689932 -0.008749258 0.093299024 -0.06510594 0.05803825 0.083906576 -0.02614729
-0.08505469 0.096934535 0.009188543 -0.031852383 0.13402419 0.016209435 0.041752856 -0.081948884
-0.052476708 0.16742933 -0.03526779 -0.013739999 -0.15798916 -0.11899307 -0.10484297 -0.08546465
-0.12667446 0.0028639424 0.16037416 0.13137999 0.095781855 0.01709727 -0.07169801 -0.110585414
-0.09389137 0.06833919 -0.15909609 0.13921216 0.18991649 -0.11626155 -0.09998636 0.17241982
-0.118982635 0.092602484 0.12142186 0.1214298 0.06455618 -0.059341554 -0.16575398 0.03229825
0.026968233 -0.13266702 -0.13035966 0.04023098 0.012192034 -0.12074558 -0.11683876 -0.034735553
0.0973695 -0.109621726 -0.07035907 0.17530689 0.12403888 -0.11365266 -0.022793164 -0.11892887

cross_attn.out_proj.bias f4 [32]
00000000: d88f 883c 0509 2e3c 9087 5bba a813 dc3b
00000010: fe39 5b3c 8409 9fbc 5dc7 aa3c e9aa b43c
00000020: b653 86bb 51fd bc3c a76c 1bbc 7a88 5a3c
00000030: de79 2fbc c9c5 babb 6539 0ebc 70c2 c0ba
00000040: 7332 ad3c 329a 9f3c 8bd3 debb 0fe9 afbb
00000050: cc02 263c a267 11ba cfbb b33c 0973 3a3b
00000060: cb19 423c b684 283c 2f76 04bc fb4b 02bc
00000070: d342 13bc 83af 1a3c 0658 53bc ed9d 80bb
0.016670153 0.010622268 -0.00083743874 0.0067162104 0.013380526 -0.019413717 0.020847017 0.022054153
-0.0040993346 0.02307001 -0.009486354 0.013338203 -0.010710208 -0.0056998474 -0.008680676 -0.0014706384
0.02114222 0.019482706 -0.00680012 -0.005368359 0.010132503 -0.00055467535 0.02194014 0.0028449914
0.01184697 0.010285547 -0.008084818 -0.0079526855 -0.0089881 0.009441259 -0.012899404 -0.003925076

ff.0.weight f4 [128, 32]
00000000: a546 e23d 811d f4bd 0632 3b3b 633d a13d
00000010: 70cd 023d 45b2 423c e98e ed3d b31e 13bd
00000020: 8e80 16be be2b 2fbe acaf 59bd 8602 ed3d
00000030: d20c 083d 17cc 1e3d be50 073e ba9e eebd
00000040: 6ea1 78bd d9e7 0b3e 96fa 033e 4511 e53d
00000050: dda9 54bd 3f12 04bd f79a b8bd c213 9dbc
00000060: c7b6 223d 9f05 29be 0e69 f03c ab51 633d
00000070: 0c7e 473c 41e2 00bd 906e 0f3e 5e06 10be
00000080: 485a 003e 46f0 fb3c 1436 283e aed3 de3c
00000090: fcc5 05bc a651 ca3d 1dee 0d3e bf14 75bd
000000a0: a1bb 3d3d 7b70 16be cec5 0fbe b602 043e
000000b0: 831a 68bd 7e7f a03b 7c59 793d 3d3a cdbd
000000c0: 5a06 5f3d 8f03 11be b3ff d7bd 1526 edba
000000d0: 4b1b a13d fe97 1dbe 167f 393e 783e 86bb
000000e0: 66d1 c4bd a77d 263e ccdd d43d 7cf0 a53d
000000f0: 1f4f 48bd e78b 223d 75aa ec3d 8282 cfbd
00000100: fc4e fdbd 739c b4bc a5fe 8dbd 8cd5 13bd
00000110: 7936 d03a 9a3c 313e c20d ecbd 5311 293e
00000120: 5999 bdbd 1bc4 30be 1c75 c5bd 1b8c db3d
00000130: 1281 0c3e 3f3a 9fbd 7bbc 5ebd 937c 31bd
00000140: 1858 fc3d 90f7 91bd b8db 413e 86a6 203e
00000150: 2d26 febd 9d8d 48be 2c70 253e e40d 243e
00000160: 679c cbbd 9b4c 28be aeae 63bd 9bf0 6bbd
00000170: da46 fe3d 3ee4 bd3b 5f70 123d 3fd5 debd
00000180: 8d43 cdbd 02c6 183e dc99 e8bc 1804 10be
00000190: e68f 273e 2b96 1c3e f956 4f3d 0062 babd
000001a0: 9963 02be d3af 523c 2814 113e a9fa c2bc
000001b0: c39e c5bc 85e6 203e 6f87 ae3d fa77 1e3d
000001c0: ff3e 46bc 83da 1d3e 0a7d 51bc f2b4 bd3d
000001d0: 3d68 22be 254d bdbd 2716 6abd 8882 2e3e
000001e0: 09fd 053e 5c73 2dbe 564d 263e 5baf 86bd
000001f0: 2bbc e53c 05b6 ccbd d487 383e ae80 0a3e
00000200: 5ef8 89bd 229a cebb 64be 453e 5ae1 8bbd
00000210: 506a 31be 695f abbc 643a e43d 0479 cabd
00000220: 98c5 8dbd 257e edbd 5b6e d13c 3d33 0abe
00000230: e11c 013e 0e6c 6dbd b224 c6bd 6014 31bc
00000240: c3c6 ec3d 66ed 843d 08b7 f13c 8c24 6dbc
00000250: 88e8 debd 280c efbd a82b 423d a098 1bbd
00000260: 825d 243d 1b5d b2bd faa3 76bd 6e64 e63d
00000270: 3aff ea3d 9f48 ddbd 25a3 803d 13ae 5abc
00000280: e17c 0e3e 3d36 18be 9139 123e 3f41 f5bd
00000290: a61d 603d 6f4b 833d 140e 46be 5b7c 0e3e
000002a0: 4aa0 19be f7bd 99bd 8cbe 283e 43ee f8bd
000002b0: 53da 703d 396b 05be 73c7 d83d 7a09 16be
000002c0: fd5e 13bd 7b91 823c 07b5 933d e1eb 103e
000002d0: 11d5 2ebe df73 ad3c e6ca f4bd 95cc 57bd
000002e0: 11d9 5c3d e9b3 07be 8399 e33d 480c 0fbe
000002f0: 71a7 a4bc 94f7 b33d 5f38 4dbd d7b5 24be
00000300: 52df ac3c 3a9a 45bd be01 143e a048 db3d
00000310: 6912 013e 3a31 99bc 3bfa 19bd 5b9a 2abe
00000320: f0e8 103d 58ce 143e 1ec7 ea3d f35c e03d
00000330: 8193 d1bd 6f4f 68bb d992 0cbe 50ec ad3c
00000340: 0ecd 4f3c 54d8 aabc 5083 32bb 4ca3 3abd
00000350: 8b1e 073e c886 18be e929 51bd a89f af3d
00000360: da0b 8fbc 8991 28be ad98 0bbd 0182 19bd
00000370: 4d82 35be 8918 313e 80ee 4e3d 3ff1 263e
00000380: e25f 0d3d 8b85 183d a0b7 5dbd 562a 3b3d
00000390: a1ef 93bc c2f5 a9bd 1cd9 0bbe c9e2 493c
000003a0: 67ae 03be 484d cebc 41bf 1f3e 6ce3 67bd
000003b0: 4063 0d3e 0bec 73bd f577 babd 0103 873d
000003c0: 7e28 73bc ea04 2bbe 6ea9 9e3d 521a a93d
000003d0: 7cbf c7bc 5a64 01be 4997 41bd 7eb5 163e
000003e0: 5b8c ac3d 17b5 5cbe e4dd 04be d143 883d
000003f0: fbe8 9a3d d38b 3c3d fe0e 6f3c c3e8 ea3d
0.110486306 -0.1191969 0.0028563752 0.07873037 0.0319342 0.011883323 0.115995236 -0.03591795
-0.14697477 -0.1710653 -0.05314605 0.11572747 0.03321535 0.038768854 0.13214394 -0.116513684
-0.060700826 0.13662662 0.1288856 0.111849345 -0.051919807 -0.032243963 -0.09013932 -0.01917446
0.03972509 -0.1650605 0.029346969 0.055497807 0.012176048 -0.031465773 0.1400702 -0.14064929
0.1253444 0.03075422 0.16426879 0.027200546 -0.008164879 0.098788545 0.13860364 -0.05983424
0.046321515 -0.14691345 -0.140403 0.12891659 -0.05666591 0.0048980108 0.060876355 -0.10020874
0.054449417 -0.14161514 -0.10546818 -0.0018093014 0.07866534 -0.15390012 0.18114886 -0.0040968023
-0.09610252 0.1625887 0.10393867 0.081025094 -0.04890358 0.039684203 0.115559496 -0.10132314
-0.12368581 -0.022047257 -0.06933335 -0.036092326 0.0015885375 0.17308274 -0.115260616 0.16510515
-0.09257764 -0.17262308 -0.096414775 0.10720082 0.13721111 -0.077747814 -0.054378968 -0.043331694
0.1232149 -0.07127297 0.18931472 0.15688524 -0.12409625 -0.19585271 0.16156071 0.16020924
-0.09941941 -0.16435473 -0.05558651 -0.057602506 0.124158576 0.005795031 0.035751697 -0.10880517
-0.1002265 0.14919284 -0.028393678 -0.14064062 0.16363487 0.1529166 0.050620053 -0.09100723
-0.12733306 0.012859303 0.14167845 -0.023801165 -0.024123555 0.15712936 0.08521926 0.038688637
-0.01209998 0.15415387 -0.012786159 0.09263028 -0.15860076 -0.0924323 -0.057150032 0.17041981
0.13084807 -0.16938537 0.16240439 -0.06576415 0.028043827 -0.09995655 0.18020564 0.1352565
-0.067368254 -0.006304995 0.1931091 -0.06830092 -0.17325711 -0.020919519 0.1114395 -0.09886363
-0.06922454 -0.11596326 0.025565317 -0.13496108 0.12608673 -0.057964377 -0.09674968 -0.01080808
0.11561348 0.06490593 0.029506221 -0.0144740455 -0.108841956 -0.116722405 0.047404915 -0.03798735
0.04012824 -0.08709165 -0.060214974 0.11249624 0.11474462 -0.10804867 0.06281117 -0.013347167
0.13914825 -0.1486444 0.14279772 -0.11975335 0.054715775 0.06410872 -0.19341308 0.13914625
-0.15002552 -0.07506936 0.16478938 -0.1215482 0.05880196 -0.13029183 0.10584917 -0.14652053
-0.03597926 0.015938511 0.072122626 0.1415248 -0.17073466 0.021173416 -0.11952762 -0.05268534
0.05391795 -0.13252224 0.111132644 -0.13969529 -0.020099374 0.08787456 -0.050102588 -0.16084991
0.021102581 -0.048242785 0.1445379 0.107072115 0.12604679 -0.01870023 -0.037592154 -0.16660444
0.035378397 0.14531839 0.1146376 0.10955229 -0.10233212 -0.0035447737 -0.13727893 0.021230847
0.012683166 -0.020855106 -0.0027238913 -0.04556589 0.13195245 -0.14895165 -0.05106536 0.08575374
-0.017461706 -0.16461767 -0.03408115 -0.037477497 -0.17725487 0.17294516 0.05052042 0.16302966
0.03451527 0.03723673 -0.054130197 0.04569467 -0.0180586 -0.08298828 -0.1365704 0.012322136
-0.12859498 -0.025183335 0.15600301 -0.05661337 0.13807392 -0.05955128 -0.09104911 0.0659237
-0.014841197 -0.16701093 0.0774716 0.08256973 -0.024383299 -0.12635937 -0.047263417 0.14717671
0.08425208 -0.21553455 -0.1297527 0.0665356 0.07563969 0.046031784 0.014590977 0.11470177

ff.0.bias f4 [128]
00000000: 6ebe 28bd 78a4 18be a897 d8bd 6acc 1b3e
00000010: d1fd 0a3e 4a4a 283e 7526 fe3b cf6e 5abd
00000020: fb2d e6bd 1a89 1fbd ad97 fdbd 5815 a1bd
00000030: d806 fd3c d21a 2abe 8ce5 09be 36aa ebbd
00000040: b019 283e 6bf7 0f3e 00d6 973c 1848 5dbd
00000050: c231 923d 9eef b8bd e96e e9bd 03f0 2bbc
00000060: 88aa 9e3d 8273 c5ba 7ed4 b73d 7de6 493e
00000070: dea6 fc3d d77b 23bb f1fb b13c 43da 00be
00000080: 3de2 2abe 4a64 19bd 8a3b 313c fb09 c8bd
00000090: 9672 09bd e60f 83bd 6ea3 fe3d f73d 15bd
000000a0: f8e6 38bd 142c cabd 5f2d 45be a1a8 1d3e
000000b0: 07a2 38be 08c6 0bbc 062f ca3d e6f6 023c
000000c0: d8b7 1e3e 613c 42be 2a6b 173e 32f1 ac3d
000000d0: 9b2c b0bd 36db adbd 40b2 003e 982b 8c3d
000000e0: d062 27be 80f2 013e aecd 9dbd 3c9e f83d
000000f0: 9f9f e2bd 9366 06be dcc8 203c 68cc e73d
00000100: ac37 8cbd 7193 113e 719f 143d a682 72bd
00000110: a5d6 1a3e b1d2 4fbd 4245 05bd cfd8 903d
00000120: c266 2fbd f25f 86bb cd9d ddbc a2fa 193e
00000130: 8a3b 62ba 7fba 3c3d 9577 e4bd 73c4 ad3d
00000140: 836f 863c 31c4 a53d b1f8 333e 41d0 f23d
00000150: 8317 e3bd 5a72 113e 72b4 dbbb 5e28 36bd
00000160: a0b7 2fbe 35a9 0a3e 2cd5 503d 990e 1a3e
00000170: 538a 903d d7a0 30be 3075 07bb 8184 58bc
00000180: 98a9 953d 7a26 213e 95e6 013d ab75 0f3e
00000190: bae3 32bd 47e6 f1bd 7107 36be 21d0 cc3c
000001a0: 336a d3bd 6568 cc3d 5518 31be 1543 cbbc
000001b0: ba3a 9ebd 634d c13d 89b0 3c3d 9e2f f83c
000001c0: c3d2 71bd fc3d ebbc 1782 813c e2e0 203d
000001d0: 84da 58bd 570e debb 9122 0abe fa0b f4bd
000001e0: 5bcf 943d 3a79 26be 5983 46bd e865 bdbc
000001f0: 3b6a 003d 7aaa d93d b3c5 8abc 59fa 2d3d
-0.041197233 -0.1490649 -0.10575801 0.15214697 0.13573386 0.16434589 0.0077560493 -0.05332833
-0.11239239 -0.03894911 -0.123824455 -0.07865399 0.030887052 -0.16611794 -0.13466471 -0.115070745
0.16416049 0.14059226 0.01853466 -0.054023832 0.07138397 -0.09030078 -0.113981076 -0.010494235
0.0774737 -0.0015064331 0.089760765 0.1971683 0.12336515 -0.002494564 0.02172658 -0.1258326
-0.16687866 -0.03744916 0.010817418 -0.097675286 -0.033556543 -0.06399517 0.124335155 -0.036436047
-0.045142144 -0.098716885 -0.19255589 0.15396358 -0.18030559 -0.008531101 0.0987225 0.0079934355
0.15499818 -0.18968345 0.14786974 0.08444442 -0.08602258 -0.08489077 0.12567997 0.06844252
-0.16346288 0.12690163 -0.07705246 0.12139556 -0.110656016 -0.13125066 0.009813514 0.11318284
-0.06846556 0.142164 0.036284868 -0.059206627 0.15120943 -0.05073804 -0.032536753 0.07072603
-0.042822607 -0.004100793 -0.027052784 0.15037015 -0.0008630088 0.046076294 -0.11155621 0.08484735
0.016410595 0.08094061 0.17575337 0.118561275 -0.11088469 0.14203778 -0.0067048604 -0.04447209
-0.17159891 0.1354111 0.050984547 0.15044631 0.07057633 -0.17248856 -0.0020669214 -0.013215185
0.07307738 0.15737334 0.03171404 0.1400973 -0.04367421 -0.118115 -0.17776276 0.025001587
-0.1032299 0.09980849 -0.17294438 -0.02481226 -0.07726045 0.094385885 0.046066795 0.030296143
-0.05903889 -0.02871608 0.015809102 0.039276965 -0.052942768 -0.006776612 -0.13489749 -0.11916347
0.072661124 -0.16257182 -0.048465107 -0.023119882 0.03135131 0.10628219 -0.016939973 0.04247508

ff.2.weight f4 [32, 128]
00000000: 0d72 733d 5ac0 063d f60d 443d 58d2 953d
00000010: 0fa0 a3bd 43e2 ffbc 3391 5f3d c815 ddbc
00000020: 991e 863d 401c 2abd e63a 41bd 7d2e 5f3d
00000030: 1ef6 163d 25da 4abd bcd9 59bd 0043 69bd
00000040: f544 8c3d f9b0 bd3c f01d 21bd c15b cfbd
00000050: 5221 493c f4d8 993d 021a 843d d25f cfbc
00000060: eb5e f13c 0221 91bd bcd6 91bc 8afc 49bd
00000070: 6982 69bd e2df 553d aeea b5bc 3734 763c
00000080: e55b 78bd 952b 513d d48d c3bc e8f8 35bc
00000090: 0ef8 553d 381d 3abc e21f 153d 1758 c93d
000000a0: 7dd7 7a3d 406d d93d 215d ef3c 60cb 9bbd
000000b0: d6ee 27bc 880b dfbb 2ffc 563d 8d3a ae3d
000000c0: 2536 d6bc 2305 8fbd d082 213c a90b cdbb
000000d0: b0d9 d73d e199 08bd f7e9 993b ebca 0c3e
000000e0: 9044 0ebd bcfe 0b3d f0d0 803d 88ba b43d
000000f0: cab3 0d3d 68c9 1b3d 0fc6 913d 3a1f afbd
00000100: d694 053d a8f1 51bd a318 b43d 7afb ebbc
00000110: c107 b2bc a446 d93c 8707 d8bb ef75 903d
00000120: b5fd bd3d 8c3c 10bd 5bbc 9dbc 9d98 59bd
00000130: 349b bf3d 614a c83c 2452 e73d 4725 22bd
00000140: 0a00 f03d cf41 1f3d 96e6 17bd d3eb 57bd
00000150: 15e4 13bc 7d6a a1bc 9ceb 94bd c139 213d
00000160: b0eb 093d 328f 413d c2d3 fc3c 17b7 54bc
00000170: 33dc 483d fab1 703d d32b eebc e570 6b3d
00000180: 287e e73d 2898 36be 00a6 efbb ff52 d23d
00000190: 22d3 c4bd 7332 c2bc 0f88 02bc c08e b53b
000001a0: 175d 143d 30b9 ab3d c327 06bd 27ac ac3d
000001b0: a5c1 b2bb 4b1c 68bd c286 823d 1747 d53b
000001c0: 1c62 843d 9359 1abd 8fdd a93d 45b1 3e3d
000001d0: 0029 153d bf5c 62bd d50f e23d c641 5c3d
000001e0: 41b3 fabc a547 853d 831a e23d 8cd9 d8bc
000001f0: eac6 88bd b4f1 81bd ef93 a7bd 75cb a9bd
00000200: 49c2 c93c 4126 9ebd 3f69 b8bd 0e06 2bbd
00000210: dfed ab3c 062c 693d 51a1 afbc eb93 b73d
00000220: 9455 8c3c 8e99 bfbc c266 2abd af41 d03d
00000230: 18ed 87bc 329e bc3c e251 b93d 0684 4d3d
00000240: 551c 1b3d e1f3 0dbd 6a14 903d 6943 d13c
00000250: 7c3f 8a3d fe66 893b b7d1 0fbd 2d28 b0bc
00000260: acb1 b6bd 7df3 333d 17f5 72bc 5b80 afbd
00000270: a8e5 2a3a 39a9 d13d 8c8e acbc 42cb 88bc
00000280: c6fe 0abc daba 473c e08f 07bd d96b 273d
00000290: 43c1 07bd 53e9 8f3d e69d 82bd 7c56 433d
000002a0: 4b3e b23d 2bd1 2b3d 6fee aa3d 706d 0cbd
000002b0: 6797 ec3c 6338 c3bc a7be 323c b7f2 fbbc
000002c0: e46e e43c 8812 afbc c0c5 a33d 7d8b bb3d
000002d0: 4152 c33d 76a6 a73d f36f 603d 7988 f03d
000002e0: 1562 0bba 2021 eabb 1793 b1bd 2a1a e3bc
000002f0: a92e 1cbd 895e 093d 71f3 9b3d cd60 dc3b
00000300: 6537 393d db4c 26bc ab8b 913d 69e3 2ebd
00000310: 1f19 86bc d4a4 0c3d 7005 8fbd de52 8f3d
00000320: 3bc3 8a3d f728 a33d 0522 ca3c d581 bc3d
00000330: 1416 813d 05f7 a5bd b7b6 d53d 17d8 25bc
00000340: f0db cb3d 3221 363c 9df3 c4bd 3bc1 603c
00000350: 7546 2a3d f62d 52bd 2cd8 79bd 1b0b 273d
00000360: d32e 1e3d 6150 abbd 348a fa3c fb37 7c3d
00000370: 3321 f63b 7778 6cbd e0e2 60bd fa4a 213d
00000380: b116 c13d 1759 863b 4584 793d 28a0 4d3d
00000390: 5c73 8cbd 0cf2 c1bd 46ab 20bd 9cda ebbc
000003a0: e714 ecb9 f44f 8e3d 4375 8abd 7dc5 84bd
000003b0: f970 96bc 28a5 e53c 5441 183d 722d a33c
000003c0: fe59 553d 7584 ad3c 7a85 bc3a 0f76 ea3d
000003d0: 0620 54bd bb39 533d ac8b b73d 985c a5bd
000003e0: 38b3 11bd 6b0f 80bd 48c1 07bd 7ccd ac3d
000003f0: 0dcf 293c a25e b4bb 671b 72bd f958 993d
0.05943494 0.032898284 0.047864877 0.073155105 -0.07989513 -0.03123582 0.054581832 -0.026987925
0.06548805 -0.041530848 -0.04717531 0.054487694 0.03685581 -0.049524445 -0.053186163 -0.05694866
0.0684909 0.023155676 -0.03933519 -0.101249225 0.012276011 0.07512084 0.06450273 -0.025314245
0.029464206 -0.07086374 -0.017802589 -0.049313106 -0.057009134 0.052215464 -0.02220663 0.015027097
-0.060634512 0.051066954 -0.02387134 -0.011106707 0.052238517 -0.011359505 0.03640736 0.09831255
0.061240662 0.10616541 0.029219212 -0.0760715 -0.010249814 -0.0068067946 0.052486595 0.085072614
-0.026148865 -0.069834016 0.009857848 -0.0062574935 0.105395675 -0.033349875 0.0046970802 0.13749282
-0.034733355 0.03417848 0.06289852 0.088246405 0.03459529 0.038033873 0.07117855 -0.08550878
0.032612644 -0.051255852 0.087937616 -0.028806437 -0.021732213 0.026522942 -0.006592694 0.07053744
0.092769064 -0.035213992 -0.019254854 -0.05312406 0.093557745 0.02444953 0.11294964 -0.03958633
0.117187575 0.03888112 -0.03708514 -0.052715134 -0.009026547 -0.019704098 -0.072715014 0.03936172
0.033672035 0.047255702 0.030862693 -0.012983105 0.049038123 0.05876348 -0.029073631 0.05748071
0.11303359 -0.1783148 -0.00731349 0.102697365 -0.09610583 -0.023705697 -0.007967009 0.0055406988
0.03622159 0.08384931 -0.032752763 0.08431273 -0.005455213 -0.056667607 0.06373359 0.0065087187
0.064640254 -0.03768308 0.08294212 0.046555776 0.036416054 -0.05526423 0.11038176 0.053773664
-0.030603053 0.06507806 0.11040213 -0.026470922 -0.06678565 -0.06344929 -0.08182513 -0.082907595
0.024628775 -0.0772214 -0.09004449 -0.04175382 0.02098745 0.05692675 -0.021439226 0.0896376
0.01713065 -0.02338865 -0.041601904 0.10168778 -0.016592547 0.023024652 0.09048821 0.050174735
0.037868816 -0.03465641 0.07035144 0.025544839 0.0675039 0.004193186 -0.03511211 -0.021503532
-0.08920607 0.04393338 -0.014828942 -0.08569404 0.0006519207 0.10237355 -0.021064065 -0.016698483
-0.008483594 0.012190545 -0.033096194 0.040874336 -0.033143293 0.07026925 -0.06377773 0.0476899
0.08703288 0.041947525 0.08346259 -0.034284055 0.028880788 -0.023830598 0.010909713 -0.030755384
0.027884908 -0.021371141 0.07996702 0.09157465 0.09537173 0.08186047 0.054794263 0.1174478
-0.00053170446 -0.007145062 -0.08670633 -0.027722437 -0.038130436 0.03353742 0.07614792 0.0067254067
0.045218844 -0.01015016 0.07106718 -0.042697344 -0.0163694 0.03433688 -0.06983459 0.069982275
0.067755185 0.07966798 0.024674425 0.09204451 0.06303039 -0.08103756 0.10435241 -0.010122321
0.09954059 0.011116313 -0.09616778 0.013717945 0.0415711 -0.051313363 -0.060997173 0.040782075
0.038618874 -0.083649404 0.030583479 0.061576825 0.007511282 -0.05773207 -0.054903865 0.039378144
0.09428156 0.004099976 0.060917158 0.050201565 -0.068579406 -0.09469995 -0.03922584 -0.028790765
-0.00045029 0.069488436 -0.06760647 -0.064829804 -0.018364416 0.028032854 0.037171677 0.019919131
0.052087776 0.021181324 0.0014383041 0.11448299 -0.051788352 0.051568728 0.08962187 -0.080743015
-0.035571307 -0.06252941 -0.03314331 0.084376305 0.010364306 -0.005504445 -0.059108164 0.07487673

ff.2.bias f4 [32]
00000000: c913 92bd ea10 4f3b 113c 6cbd 86b4 1bbd
00000010: 08fa 053d 0875 903d 59e2 82bd 40cf 7cb5
00000020: 9bf3 49bd 79e7 00bd f6b6 89bd fc5e d5bc
00000030: a483 393d 944b 3b3d 410a 98bd 8b86 4fbc
00000040: d71f 22bd 5e4a 87bd 0631 c3bd 6a3d 8cbd
00000050: 7154 863d 6f2b 8cbd d7c3 3d3d 3daf 43bd
00000060: 7f2f 0cbd e47e 81bd 117c 003d e9ba f53c
00000070: 4f3b d4bc e065 3dbd 9945 5abc 612f 8d3d
-0.0713268 0.0031595775 -0.05767447 -0.038013957 0.03270915 0.07053572 -0.06390829 -9.4178904e-07
-0.049304586 -0.03147075 -0.0672435 -0.026046269 0.045291558 0.045726374 -0.07423831 -0.012666355
-0.039581146 -0.06605981 -0.09530835 -0.06847651 0.06559075 -0.06844222 0.046329346 -0.047774542
-0.034224983 -0.063230306 0.03136832 0.029996352 -0.025907187 -0.046239734 -0.013322257 0.068938024

norm1.weight f4 [32]
00000000: 8999 743f 8fce 7e3f ecb6 7d3f 0ba7 7c3f
00000010: dac2 803f 724f 7d3f 7ac3 7c3f 7caa 823f
00000020: 6f81 793f 27c1 733f a816 813f dad8 7a3f
00000030: 10de 7c3f 5f24 843f b963 803f 368b 843f
00000040: dce1 833f f411 813f 1777 813f 6206 7e3f
00000050: f0fd 833f 24e2 853f 60a2 823f e552 7e3f
00000060: bc7a 823f f1aa 793f 9af6 7c3f 8c77 753f
00000070: 83d9 843f db50 6d3f cdd1 713f db46 803f
0.95546776 0.99533933 0.9910724 0.9869239 1.0059464 0.9894935 0.98735774 1.0208278
0.97463125 0.952166 1.0085039 0.9798714 0.9877634 1.03236 1.0030433 1.0354984
1.0303302 1.0083604 1.0114468 0.9922849 1.031187 1.0459638 1.0205803 0.99345237
1.0193706 0.9752646 0.98813784 0.9588554 1.0378879 0.927015 0.94460756 1.0021623

norm1.bias f4 [32]
00000000: 9ce0 263c b431 d238 47e2 faba ae27 e93b
00000010: 9382 39bc b0cb 36bc d0a0 823c 6175 b33b
00000020: e982 9dbb f0a1 e43b 75e5 32bb 379a 543c
00000030: 7c48 23bb 3072 043b 7b12 023a a34a 53bc
00000040: 259c 85bb b241 853c ece9 95bb a7a8 09bc
00000050: bd1a 203b ba7e 29bc c4f4 d6b8 8f70 42bc
00000060: 0836 9c3b 679f 9f3b ab4c e6bb 2a2d fbbb
00000070: 945e c53b cfd3 813b 6527 b1bb 3e67 63ba
0.010185387 0.00010022838 -0.0019140922 0.007115326 -0.011322635 -0.011156961 0.015945822 0.005476639
-0.0048068655 0.0069773123 -0.0027297412 0.012976221 -0.002491503 0.0020209663 0.000496186 -0.012896213
-0.004077452 0.016266678 -0.004575005 -0.008402026 0.002443 -0.010345155 -0.00010249906 -0.011867656
0.004767183 0.004871297 -0.0070281825 -0.007665296 0.0060232375 0.003962017 -0.0054063075 -0.0008674747

norm2.weight f4 [32]
00000000: 6587 7f3f e270 803f cf52 773f 1f88 7a3f
00000010: 7327 873f 1155 803f 5ba3 803f 07f4 863f
00000020: 2d74 823f b144 803f 647d 843f 9250 773f
00000030: 8c0b 7c3f 1045 873f f3fa 823f 0e2b 863f
00000040: 8702 843f 79f3 7d3f 29ba 713f 1fea 773f
00000050: 80f4 883f 7fcd 893f 95b1 863f 1bf8 803f
00000060: 0a2a 863f 46ce 803f a378 843f e353 833f
00000070: 879d 893f cd0c 813f cdd2 7d3f 968e 7e3f
0.9981597 1.0034449 0.9661073 0.97863954 1.0558914 1.002596 1.0049852 1.0543221
1.0191704 1.0020963 1.0350766 0.96607316 0.9845512 1.0567951 1.0232834 1.0481889
1.0313271 0.99199635 0.9442468 0.96841615 1.0699615 1.0765837 1.0522944 1.0075716
1.0481579 1.006295 1.0349315 1.0259975 1.0751199 1.0082031 0.9914978 0.9943632

norm2.bias f4 [32]
00000000: 1bab 323c c4b0 313c 3a59 08bc 63a3 67b7
00000010: a1cf 3f3c 7d1e 2c3c 16d9 583c 115e 2fbc
00000020: 117a 353c 84fa 343c aea7 443c 3222 173b
00000030: 00df 053c e0aa 4a3c 27d4 2ebc 5b9f 51bc
00000040: f183 23bc fec3 133c 94e7 443d 22ed 17bc
00000050: d76c 51bc 3349 423c 2855 35bc 3e84 e83b
00000060: ec35 43bc caef 303c 809e 483c 39b0 473c
00000070: 2861 37bc ec90 363c 75d7 523c 1000 163c
0.010905053 0.010845367 -0.0083220545 -1.3806714e-05 0.011707217 0.010505316 0.013235351 -0.0107035795
0.011076466 0.011046056 0.012002869 0.0023061153 0.008170843 0.012369841 -0.010670698 -0.012794341
-0.009980188 0.009018896 0.048072413 -0.009272845 -0.012782297 0.011858272 -0.011067666 0.0070958426
-0.011914711 0.010799358 0.012244821 0.012188011 -0.011192597 0.0111429505 0.012868752 0.009155288

classifier.weight f4 [1, 32]
00000000: c820 34bd 2323 d6bd eb6a 1d3d 25a9 2dbb
00000010: b26f b4bd 1f30 f3bd d294 39bd 211d 293e
00000020: 4ad3 13be f5a8 b1bd 2d62 42be ca7a 8e3b
00000030: 9f3a 74bd 1fe5 60be 4ead 253e ff93 113e
00000040: 08b0 843d 46c6 29bd fc51 a4bb 3376 493d
00000050: 8871 293e 4904 55be 462d 393e b019 17bd
00000060: 52ba 493e 3eda 02be ccaf 29be 2c92 80bd
00000070: e204 4d3e 70e1 9cbd 45ea 28bd 7ec7 21bd
-0.043976575 -0.104559205 0.038432043 -0.0026498523 -0.08810367 -0.11874413 -0.04530794 0.16515018
-0.14436069 -0.08674804 -0.18982764 0.0043481337 -0.059626218 -0.21962403 0.16179392 0.14216612
0.06478888 -0.041448854 -0.005014656 0.04918499 0.16547215 -0.20802416 0.18083677 -0.036889732
0.19699982 -0.12778565 -0.16570967 -0.0627788 0.20021394 -0.07660186 -0.04123904 -0.03949689
