checkpoints/sketch_prediction/graph_embedding_model.pth (torch, 87680 bytes, 22 tensors)

local_head.gconv.convs.<stroke___temp_previous___stroke>.nn.0.weight f4 [32, 12]
000000 bb db 43 be e0 05 17 bc 8a dc 26 be 8c 95 aa 3d
       -0.1912679 -0.009217709 -0.16295066 0.08329305
000010 34 f6 3e be d4 8a fa 3d 1c 39 73 3e fc 06 2e bd
       -0.18648607 0.122335106 0.23752254 -0.04248713
000020 1c e1 4d bd ac 06 7f 3e 88 c0 2a 3e f7 97 20 be
       -0.05026351 0.24904889 0.16675007 -0.1568297
000030 a8 4f ae bd 7a 93 93 be 90 16 98 3c ec d1 75 3e
       -0.08511287 -0.28823453 0.018565446 0.2400586
000040 50 36 7f 3e 5f fc 85 be 16 01 e7 bd 31 d6 77 be
       0.24923062 -0.26169106 -0.11279504 -0.24202801
000050 be 83 8c be e8 e8 68 3e 60 7e ca bc 14 02 50 3e
       -0.2744426 0.22745097 -0.024718463 0.20313293
000060 12 ba 26 3e 92 75 3c be 20 a2 69 3e bf ed 75 be
       0.16281918 -0.18404225 0.22815752 -0.24016474
000070 b4 87 7f 3e a0 b9 26 bd d0 74 11 bd 1c a8 b8 3d
       0.2495411 -0.04070437 -0.03551179 0.09016439
000080 5a a7 59 be 20 e4 13 3e 8e 74 8d 3e 32 a6 81 3e
       -0.21255246 0.14442492 0.27627987 0.2532211
000090 a0 bb ee bc 18 0f 37 3d 9e f1 49 be 4e 4a 3f 3e
       -0.029142201 0.04469213 -0.19721076 0.18680689
0000a0 d2 54 8a 3e 26 2d 52 be 3c 6c 92 bd d0 19 64 3d
       0.27017838 -0.20525035 -0.0714955 0.05568868
0000b0 ca 56 47 be 1a b9 a0 bd 7e 3d 82 bd 43 b0 62 be
       -0.19466701 -0.07847805 -0.06359385 -0.22137551
0000c0 70 2d 8c 3e f6 25 89 3e dc 00 a1 3d 38 af 93 bd
       0.27378416 0.26786774 0.07861492 -0.07211155
0000d0 34 b1 a2 bd b4 70 61 3e b3 17 33 be 77 d7 83 be
       -0.07943955 0.22015649 -0.1748951 -0.25750324
0000e0 e0 6d 83 3e 00 a7 bc ba d8 57 5e bd a8 74 24 3d
       0.25669765 -0.0014393032 -0.054282993 0.040150315
0000f0 d0 01 90 3d c0 e5 e3 3d 98 6e 13 3e e6 0b 09 be
       0.07031596 0.11127806 0.14397657 -0.13383445
000100 16 05 2e be 20 f6 37 3d 20 b2 85 3e d0 f4 0a 3d
       -0.16994128 0.044912457 0.2611246 0.033924878
000110 8a 4d 81 be 74 b0 72 be a8 6c 17 bd 2a 0c 85 3e
       -0.2525447 -0.23700124 -0.036968857 0.25985843
000120 b2 11 93 3e f4 af 1d 3e c0 eb fe bb fe 74 83 be
       0.28724438 0.15399152 -0.0077795684 -0.25675195
000130 eb 2c 72 be cd 72 82 be 77 4e 7a be 0c 7e cd 3d
       -0.23649947 -0.2547821 -0.24443994 0.10033807
000140 00 81 3b be cb 4d 74 be 86 68 bd bd a0 c0 55 3c
       -0.18310928 -0.238578 -0.09248452 0.013046414
000150 f2 e0 0c 3e eb 5b 41 be f0 fa 4c 3e 24 f2 61 3e
       0.13757685 -0.1888272 0.200176 0.22065026
000160 a4 cb 77 3e 2e 3c 60 be 9e 2b 07 3e e4 45 c4 bd
       0.24198776 -0.21897957 0.13200232 -0.09583643
000170 cc 08 49 3e ea 8e 0e 3e 44 56 3c 3e 40 3a ee 3d
       0.19632262 0.13921705 0.18392283 0.11632204
000180 60 a3 13 3e 3c 39 43 3e 5c e1 4d be d0 ad d7 bd
       0.14417791 0.19064802 -0.20105499 -0.10531199
000190 58 04 8f be 20 b3 b7 3d 40 66 91 be ec c8 19 3e
       -0.27933002 0.08969712 -0.28398323 0.15018052
0001a0 b6 12 b1 bd 66 0d 3e be 00 80 71 38 1c 0c 30 bd
       -0.08646147 -0.18559799 5.7578087e-05 -0.0429803
0001b0 34 d7 9c 3d f8 8c 02 3d f0 40 b1 3d 4e 93 81 3e
       0.07658234 0.03187272 0.08654964 0.25307697
0001c0 10 6f bf 3d 00 54 be 3d 84 e1 dc 3d f8 d9 17 be
       0.09347355 0.092933655 0.10785201 -0.14829242
0001d0 40 23 71 3d e0 e3 bd 3c 18 5c e2 3d 9c 93 72 bd
       0.058871508 0.023179948 0.11052722 -0.059222803
0001e0 b0 78 1f bd 74 03 84 3d 92 8b 47 3e 49 83 18 be
       -0.038933456 0.06445971 0.19486836 -0.14893831
0001f0 aa 87 50 be 4c cf 78 3e 10 ae 35 be 00 40 26 b8
       -0.20364252 0.24297827 -0.17742181 -3.963709e-05
000200 66 5b 47 3e 34 b7 4a 3e 1f 2e 6b be 60 8a 34 3d
       0.1946846 0.19796449 -0.22966813 0.044077277
000210 52 92 30 3e 94 5a 9e 3d 8e 9b db bd 9c 9a 47 3e
       0.17243317 0.0773212 -0.10723029 0.19492573
000220 2a 0c 0b 3e 28 6c 7a 3d ba 17 1b be 7c 35 0a be
       0.13578859 0.061138302 -0.1514577 -0.13496965
000230 98 ae 26 bd 70 f1 ba bc 8b 8c 83 be 43 22 4b be
       -0.04069385 -0.022820204 -0.25693163 -0.19837289
000240 e6 35 46 be 3b a7 54 be ae 37 3c 3e b1 79 6d be
       -0.19356498 -0.20766918 0.18380615 -0.23190953
000250 ae 54 53 be 0a ec 57 3e da ff 8a be 58 22 a8 3d
       -0.20637771 0.21086136 -0.27148324 0.082096756
000260 36 e3 08 3e 38 d2 9e 3d ab 9d 7a be c4 84 fc 3d
       0.13367924 0.0775494 -0.24474208 0.123300105
000270 c8 05 eb bd 1c 4a 71 3e ec f1 18 3e ea 16 58 be
       -0.11475712 0.23563427 0.14936036 -0.21102491
000280 a8 b1 68 be 9c 4a 90 3d a0 ea fd bc 78 dc 4e 3d
       -0.2272402 0.070454806 -0.030995667 0.050503224
000290 c0 93 c2 bb 08 27 2e be 36 bb 29 3e 18 89 49 be
       -0.0059380233 -0.17007077 0.16575322 -0.19681203
0002a0 26 b5 82 bd 46 34 ef bd 60 b2 88 be aa 15 13 be
       -0.063822076 -0.11679892 -0.2669859 -0.14363733
0002b0 f8 f8 82 3e 9c 8a 1e bd 0c cc cf 3d 23 8f 30 be
       0.25580573 -0.038706407 0.10146341 -0.17242102
0002c0 20 71 12 3d 1c b1 3d be 5c 69 8a bd 32 0d be bd
       0.035752416 -0.18524593 -0.06758377 -0.092798606
0002d0 71 5e 8d be cc 16 e0 3d b4 02 85 3e 14 52 12 3e
       -0.27611116 0.10941848 0.25978625 0.14289123
0002e0 be eb 89 be b0 d3 9e bc 00 b5 71 3e 20 c3 e6 3d
       -0.2693767 -0.01938805 0.23604202 0.11267686
0002f0 e4 e8 a9 3d 84 a5 84 be 98 de 06 3d 6e 8e 82 bd
       0.082963735 -0.25907528 0.032927126 -0.063748226
000300 40 8b 7c be 89 db 81 be 60 bb eb 3d 94 f1 5b 3e
       -0.24662495 -0.25362805 0.11510348 0.21478873
000310 38 97 f8 3d 2a 9a 80 be da 90 83 be 80 6a 1d 3c
       0.12138218 -0.25117618 -0.2569645 0.009607911
000320 18 43 41 3d e4 a4 70 3e 52 4b dd bd 14 50 5c bd
       0.047183126 0.23500401 -0.10805382 -0.053787306
000330 e8 71 a5 3d be 0c 1f 3e 04 bd 8c 3e 86 d9 bb bd
       0.080783665 0.15532205 0.27487957 -0.09172349
000340 20 c0 89 be c0 52 e6 3b 62 ac 2a 3e 5c bc 79 3e
       -0.26904392 0.0070289075 0.16667321 0.2438826
000350 ca 3b 1d 3e 0e 0c 4a 3e 34 1f 00 3e cc 53 b7 3d
       0.15354839 0.19731161 0.12511903 0.0895153
000360 42 aa 59 be a0 98 77 3d 30 a6 c5 3c 8a 51 d5 bd
       -0.21256354 0.06044829 0.024127096 -0.10415943
000370 f9 d5 8f be 3d 1f 55 be 20 9c 0e 3c b6 0d 14 be
       -0.28092936 -0.20812698 0.008704215 -0.14458355
000380 ba 05 3e be 36 60 47 3e 06 30 26 3e 20 8e 80 3e
       -0.18556872 0.19470295 0.16229257 0.25108433
000390 e0 0b 76 3e b0 ee 0c bd 78 8a f9 3d 22 74 1a 3e
       0.24027967 -0.034407318 0.12184614 0.15083364
0003a0 00 0b 36 3d 50 ce 43 3e 86 84 fe bd d0 e5 c9 bc
       0.044444084 0.1912167 -0.124276206 -0.024645716
0003b0 da 0c 77 be e8 06 25 3d 88 0b 15 3d 10 c9 43 3d
       -0.24125996 0.04028979 0.03638795 0.04779917
0003c0 ec ae 30 bd b0 8f 5a 3e 70 bb 93 bd 39 a7 54 be
       -0.04313557 0.21343875 -0.07213485 -0.20766915
0003d0 4c 83 b7 bd b4 f0 05 3e a8 6c 2e 3d 64 05 2a 3e
       -0.0896059 0.13080102 0.04258409 0.16603619
0003e0 80 45 e0 bb b6 d6 30 3e 54 32 a1 3d 86 ca 16 be
       -0.0068442225 0.17269406 0.078709275 -0.14725694
0003f0 64 73 3e be 40 ba 39 3c 96 bd 51 be 8a 49 47 be
       -0.18598706 0.011335909 -0.20482478 -0.19461647

local_head.gconv.convs.<stroke___temp_previous___stroke>.nn.0.bias f4 [32]
000000 00 94 f7 3a 60 b1 5f 3c 30 0b 69 3e c0 bf bc 3d
       0.0018888712 0.013653129 0.22758174 0.09216261
000010 f0 88 12 be 2e 2f 18 3e 14 ab 50 3e 03 aa 00 be
       -0.1431005 0.14861748 0.20377761 -0.12564854
000020 a0 12 80 3d 32 3c 21 3e e2 02 4e 3e 78 97 08 3e
       0.062535524 0.15745619 0.20118287 0.1333903
000030 08 a0 70 bd b8 98 7c 3e 6c 03 d7 3d 98 9b 5b 3e
       -0.058746368 0.24667633 0.104986995 0.21446073
000040 74 df fb 3d c6 de 45 3e 18 62 6c be 70 86 c1 3c
       0.1229848 0.19323263 -0.23084295 0.023623675
000050 4e e0 90 3e 70 f1 96 3d d0 a1 2b 3d 2c e8 d6 bd
       0.2829613 0.07370269 0.041902363 -0.10493502
000060 4e 04 90 3e 60 e4 aa bc 03 84 08 be bc d3 22 3e
       0.28128284 -0.02086085 -0.13331608 0.15901083
000070 d4 7c bd bd 74 44 7d 3e 40 2d 2d 3c 54 aa 48 3e
       -0.09252325 0.24733144 0.0105698705 0.19596225

local_head.gconv.convs.<stroke___intersects___stroke>.nn.0.weight f4 [32, 12]
000000 1e 87 8b 3e 71 22 ea bd dc 2d 0c 3e 6d 4e 18 be
       0.27251524 -0.114323504 0.13689369 -0.14873667
000010 f5 25 91 bd 87 e5 af be 5b c5 43 3e 36 5e d1 bd
       -0.07087318 -0.34354803 0.19118254 -0.102230474
000020 d3 e6 60 3e b3 f8 ba 3d 2b 8f 25 3d 81 b5 eb bc
       0.21963052 0.09129467 0.04041974 -0.028773071
000030 f4 49 1b 3e b1 b0 b6 3d 8f 1f 85 bd 37 e1 16 be
       0.1516493 0.0892042 -0.0650016 -0.1473435
000040 83 4d 10 3e c2 b0 f1 bd 8d b9 6b 3e 8a 43 29 bd
       0.14092068 -0.11801292 0.23020001 -0.041324176
000050 96 ec a2 bd b7 33 87 be de 19 8d bd 65 50 a2 be
       -0.079552814 -0.26406643 -0.068896994 -0.3170196
000060 0c 0d 00 be 4a de 18 be 98 6a 1a be bb af de 3d
       -0.12504977 -0.14928547 -0.15079725 0.10873362
000070 d4 c8 df 3c ed a5 6e 3d 33 b6 24 be 2e 61 ef 3d
       0.027317442 0.058263708 -0.16085128 0.116884574
000080 06 ad 77 bd f4 e7 91 be f6 d9 9c be bb 6a 55 bc
       -0.060467742 -0.2849728 -0.3063504 -0.013025935
000090 3d 0f 5d 3e 03 c1 ad bd d5 0c 16 3e 9e db 4e be
       0.21587844 -0.0848408 0.14653333 -0.20200965
0000a0 02 c8 61 bb 95 fe 10 be ec d7 8a be 8a 42 dd be
       -0.003445149 -0.14159615 -0.2711786 -0.43214828
0000b0 af 4c 19 3e a5 a6 ca be 31 fe 08 3e 69 6b e3 3e
       0.14970659 -0.39580265 0.13378216 0.44417885
0000c0 ae e2 6c 3d 32 45 06 3d 66 c6 b1 3c 8e 17 af bd
       0.057833366 0.032780834 0.021701049 -0.085494146
0000d0 b7 b9 1c be 78 cd 89 bd 40 78 14 be a2 49 8e be
       -0.1530522 -0.06728643 -0.14498997 -0.27790552
0000e0 ab cb 43 bd 3f a1 af be 6a d7 93 3d 9d e5 89 3e
       -0.047801655 -0.34302709 0.07218821 0.26932994
0000f0 f0 ef 05 3e 46 19 8f 3e e2 c4 1f bc ef d0 e9 3d
       0.1307981 0.2794897 -0.00975153 0.11416804
000100 6a d3 6f be 0f a6 f1 bd 1d 3b e7 bd 90 93 2d be
       -0.23420492 -0.11799251 -0.11290572 -0.16950822
000110 31 fd ab 3d 76 b9 81 be f7 4d 8f 3e 0c cb 9b 3d
       0.08397902 -0.25336808 0.2798917 0.076070875
000120 f6 e6 eb 3c fe 8b 27 bd a4 8c aa bb 0c 0e 93 3d
       0.028796654 -0.04090499 -0.005204754 0.071804136
000130 d9 8d 19 3c 5b 3b aa bd fa a7 c6 3d 77 ae f6 3d
       0.009372198 -0.083121024 0.09700008 0.12044995
000140 6c 7c 87 be de 8d 0e 3d 6d d2 a9 be cc 1f 38 be
       -0.26462114 0.034803264 -0.33168355 -0.1798088
000150 5c 6d 2f bd 36 34 fe 3d 75 3c b5 bd 4a 23 06 be
       -0.042828903 0.12412302 -0.08849422 -0.13099399
000160 c2 c0 51 be 96 b7 30 be 2d e8 89 bd 51 3b 87 3e
       -0.20483688 -0.17257532 -0.06733737 0.26412442
000170 f8 1d 63 be 4b 9d 89 3e 1f 02 07 be ba 0f 90 3e
       -0.22179401 0.26877818 -0.13184403 0.28136998
000180 d0 83 a8 3d bb 32 00 3e 35 f5 69 3e 9b cc 7f be
       0.08228266 0.12519352 0.22847445 -0.24980395
000190 84 cd 10 3e 2d a7 4a be 4a 13 7a be 7d 6a cb bd
       0.14140898 -0.19790335 -0.2442142 -0.099324204
0001a0 eb d1 9f 3e a5 42 8c 3d 0a a5 b9 bd 65 89 5a be
       0.31214842 0.06848649 -0.09064682 -0.21341474
0001b0 5e d5 6e 3e 0b 6f 3f 3d c8 65 25 3d 78 43 2b 3e
       0.2332358 0.04673676 0.04038027 0.16724956
0001c0 b5 f2 6a 3e 6d e6 2e be 7c 26 47 3e 3b 33 87 bd
       0.22944148 -0.17080088 0.19448274 -0.06601568
0001d0 b2 74 3b be e8 c6 27 be 6e 76 2b be ca ee 77 3d
       -0.18306234 -0.1638447 -0.16744396 0.06053046
0001e0 4e e5 2d 3e 5e 12 87 bd ca 74 31 3e c9 13 2d be
       0.16982004 -0.065953 0.17329708 -0.16902079
0001f0 c6 88 7c 3d b4 96 42 be dc 51 fa 3e a4 be 91 3e
       0.061653875 -0.19002801 0.4889058 0.2846576
000200 f7 a5 04 be cd 2a 33 3e d1 33 93 be 82 08 f2 be
       -0.12953936 0.17496796 -0.2875047 -0.47272116
000210 27 bf 2e be aa da 76 be bf 3f ab 3d 3d b1 2a 3e
       -0.17065106 -0.24106851 0.08361768 0.16669174
000220 fe 2a 79 3e 2e ee 87 bd 5a 2f ad 3e a9 f7 9c 3d
       0.24332806 -0.06637226 0.3382519 0.07664425
000230 d6 a7 00 be f5 9b 26 3e 91 2b 70 be 98 22 78 be
       -0.12564024 0.1627043 -0.2345412 -0.24231946
000240 91 98 35 3e 67 8f 3e 3e b5 dd 9a 3d 43 15 d3 bd
       0.1773398 0.18609391 0.075618185 -0.1030679
000250 ac a9 c4 bd 1a 41 0e be f5 65 80 be c8 49 9d be
       -0.09602675 -0.13892022 -0.25077787 -0.30720353
000260 6d 54 d6 bd 52 c0 ba be 32 ab 52 be d2 73 ab 3e
       -0.10465322 -0.36474854 -0.20573118 0.334868
000270 c2 95 40 bd e4 e3 1a bd 7d 49 0d be 89 03 92 3a
       -0.04701782 -0.03781499 -0.13797565 0.001113997
000280 44 f2 ba 3c c7 23 13 3e 2a af 5a be d0 6e 5d be
       0.0228206 0.14369117 -0.21355882 -0.21624303
000290 bf 26 41 3e ea 46 76 3e e4 b9 73 bb 77 89 94 3c
       0.18862437 0.24050489 -0.0037189657 0.018131955
0002a0 21 95 e0 3c 0b e3 41 3e 70 c7 4e 3e e2 a1 1e 3e
       0.02741486 0.18934266 0.20193267 0.15491441
0002b0 d4 a8 2c 3e b4 29 91 3d d0 9c 5f 3e fe 6d ed 3d
       0.16861278 0.07088032 0.21837163 0.11593245
0002c0 27 8c bf 3d 5a c6 55 3e 45 6b ad 3e 42 5b ba 3d
       0.09352904 0.20876446 0.33870903 0.09099437
0002d0 4d 69 93 be 57 03 11 be b4 de 81 3e b3 3a 82 3e
       -0.28791276 -0.1416143 0.25365222 0.2543541
0002e0 b3 ec ad 3e e3 63 25 be 1c a6 17 be c9 36 3b be
       0.3396965 -0.16151385 -0.1480946 -0.18282618
0002f0 67 f3 9f bd 38 83 4b 3e 29 f6 21 3e af c0 2e be
       -0.07810097 0.19874275 0.15816559 -0.1706569
000300 c7 78 0d 3e 10 37 40 be 16 a5 79 be 06 99 d6 bc
       0.13815604 -0.18771005 -0.24379382 -0.026196014
000310 4b 8f a2 3d c5 11 b0 bc 74 06 23 3e ff c7 5e 3e
       0.07937487 -0.021492848 0.1592043 0.2175598
000320 e1 54 8b bd 69 b7 45 be 4a e2 36 3e e2 f3 b9 3d
       -0.06803299 -0.19308247 0.1785976 0.0907972
000330 27 d6 cf bc a4 5b 87 bd 5f 70 7c be 0c 0d 00 bb
       -0.02537067 -0.06609276 -0.24652241 -0.0019539027
000340 9e 92 4f be 6e 56 49 be 4b 7b 73 be 2e 3e 91 3e
       -0.20270774 -0.19661877 -0.23777501 0.28367752
000350 12 62 2a 3e 07 20 01 3e ee fb 09 3e e4 ae 55 3c
       0.16638973 0.12609874 0.1347501 0.013042185
000360 6a 63 0e be 67 f4 22 be d2 e3 00 3e d0 a6 8f bc
       -0.13905111 -0.15913545 0.12586907 -0.017535597
000370 11 bb 77 3e 3f 9c 10 3e 8e 05 7f 3e 46 8f fc bd
       0.24192454 0.14122103 0.24904463 -0.12332015
000380 cb 6f f9 bd 16 07 c2 3e a4 83 55 3e c4 97 c5 bd
       -0.12179526 0.3789603 0.20850998 -0.096480876
000390 7c 52 d6 3d 7b 3f 05 be c6 8c 1a be 0e 6d 8d 3e
       0.104649514 -0.13012497 -0.15092763 0.27622265
0003a0 2a fc 7b 3e 0f d3 00 bc e9 4d 4d 3e 1a 77 99 bd
       0.24607912 -0.00786282 0.20049252 -0.0749342
0003b0 b5 3c 87 bd 51 ee 1c 3d 10 03 58 be 06 ca 04 3e
       -0.06603376 0.038313214 -0.21094918 0.12967691
0003c0 fb a6 ab 3d 72 ea 3e be 31 53 05 be 7e bc 90 bd
       0.08381458 -0.18644121 -0.13020016 -0.07067202
0003d0 0f be ba 3d ce bb e4 3d 41 04 2d be aa 5e c2 bc
       0.09118282 0.111686334 -0.16896154 -0.02372678
0003e0 1b b3 3d 3d f9 a8 cb be 7e 23 8d bd f6 b0 85 be
       0.046313386 -0.39777353 -0.06891535 -0.26111573
0003f0 2a 8f a9 bd 2d e3 d3 3d c6 6f 36 be 94 c1 de 3b
       -0.082792595 0.10346065 -0.17816076 0.0067979787

local_head.gconv.convs.<stroke___intersects___stroke>.nn.0.bias f4 [32]
000000 f5 8c cd 3d 61 a9 43 be a7 ce a2 3b cc 94 2b be
       0.10036651 -0.19107582 0.0049684825 -0.1675598
000010 10 23 09 be 33 78 86 be 94 fc 9b bd 53 b6 2b 3e
       -0.13392282 -0.2626358 -0.07616535 0.1676877
000020 e7 5c b5 bd 7d e5 5b 3e 63 b3 2c be 50 2f 92 be
       -0.0885561 0.21474262 -0.16865306 -0.28551722
000030 51 48 95 bd bb 09 2e bd 91 c8 67 be 7a 2c e0 3d
       -0.07289184 -0.04248975 -0.22635104 0.10945983
000040 d0 a3 a5 3d ed bd 66 be 36 34 5b be 8b 44 9d bd
       0.080878854 -0.22533388 -0.21406636 -0.07679089
000050 56 30 00 be 2b 4c 7a 3c ee 74 82 3d 2e 6b 34 be
       -0.12518439 0.015276949 0.06369959 -0.17619011
000060 4e 82 8d be 57 0a 0b be e9 ce 8f bc 43 f6 41 3e
       -0.27638477 -0.13578163 -0.017554717 0.18941598
000070 bd b2 ca 3b f7 06 8f 3e ab 77 05 3e 0d d5 8d 3e
       0.006185858 0.27935 0.13033931 0.27701607

layers.0.mlp_edge_conv.gconv.convs.<stroke___temp_previous___stroke>.nn.0.weight f4 [32, 64]
000000 ea 51 a4 3d 04 0e d5 bd ec 68 19 bd dc ef ec bd
       0.08023436 -0.10403064 -0.037453577 -0.11569187
000010 52 e3 dd 3d c0 d1 e4 bd e8 16 1d bd cc 6c 32 3d
       0.108343735 -0.11172819 -0.038351923 0.043560788
000020 58 a2 da bd 5c 3c fd bd e4 52 5b 3d 08 9e 66 bd
       -0.10675496 -0.12365028 0.053545848 -0.056303054
000030 a0 c9 ae 3d 60 ab 1e 3c 7c 54 f2 3d 20 1b 3e 3c
       0.08534551 0.009684414 0.1183252 0.011603147
000040 b0 60 98 3c 10 70 b3 bc ee 8f a7 3d 90 e6 c4 bc
       0.018600792 -0.021904022 0.08181749 -0.024035722
000050 e2 4b be bd 60 53 8b bd 96 8c b8 bd 94 1e c1 bd
       -0.09291817 -0.06803012 -0.0901119 -0.094296604
000060 4c 8f 51 bd 90 28 65 3c 54 d2 d9 bd c0 5a 71 bd
       -0.05116205 0.013986722 -0.1063582 -0.058924437
000070 30 b2 65 3d 90 1a 7d 3c 9a b4 f6 bd 74 e6 fe bd
       0.056078136 0.0154482275 -0.12046166 -0.12446299
000080 40 91 40 3d 74 e6 3f bd ce 5f d8 bd 1a 12 96 3d
       0.04701352 -0.046850637 -0.10565148 0.07327671
000090 b0 1b 16 3c 30 3f f9 3d e0 c0 2d bd e0 3d b6 3b
       0.009161875 0.12170255 -0.042420268 0.0055615753
0000a0 38 8d e5 3c f8 23 c6 3d b0 8b a5 3d 58 f7 77 bd
       0.02802144 0.09674829 0.08083284 -0.06053862
0000b0 cc 84 65 bd 36 a0 fb bd cc 9f 37 bd 20 74 e1 bb
       -0.056034848 -0.12286417 -0.04483013 -0.0068802983
0000c0 e6 ec c7 3d aa 10 da bd 48 af 8a bd c8 39 88 bc
       0.09761982 -0.1064771 -0.067717135 -0.016629115
0000d0 06 4d 87 3d a4 fd 1f 3d 70 b7 cc 3d d4 b2 44 3d
       0.06606488 0.03906025 0.099959254 0.048022106
0000e0 64 8c 5b 3d ae 07 d6 bd 44 54 77 bd 00 f4 70 3c
       0.053600684 -0.104506835 -0.060383096 0.014706612
0000f0 a6 d5 c5 bd 0e e3 f3 bd 88 1e f0 3d 60 01 06 bc
       -0.09659891 -0.119085416 0.117245734 -0.008179039
000100 60 7a 96 bd 9e 2a c7 bd 64 65 3f 3d a2 10 85 3d
       -0.0734756 -0.097249255 0.046727553 0.06497313
000110 40 8b f0 3b 98 8f 9d 3d a4 be 34 bd 34 2e e8 bd
       0.0073408186 0.07693404 -0.04412712 -0.113369375
000120 40 a3 f5 bd 7e b2 c0 bd b8 c5 77 bd 64 15 92 bd
       -0.11994028 -0.09409045 -0.060491294 -0.07132986
000130 2c 65 ec 3d c4 30 df 3d f0 73 22 bc 48 c7 03 bd
       0.115427345 0.10897973 -0.009915337 -0.03217247
000140 10 7a 8c 3c ea 69 d5 3d 2c f0 86 bd 6c 4b 01 bd
       0.017148048 0.10420592 -0.06588778 -0.03156607
000150 20 6d ef 3b b0 78 b6 bc 98 b6 ef 3d 8c 86 4b 3d
       0.00730671 -0.022274345 0.11704749 0.04968886
000160 74 7c ee bd fc 43 bb bd 30 43 86 3c fc 23 16 bd
       -0.11644831 -0.09143826 0.01638946 -0.03665541
000170 14 db 90 3d 62 0f c2 bd c8 95 e9 3d b6 3c cf 3d
       0.07073036 -0.0947559 0.11405522 0.101190016
000180 58 ce 3c bd f0 8b 11 3c 60 99 c9 bc e0 da e9 bc
       -0.046095222 0.008883461 -0.024609268 -0.02854675
000190 22 b3 bd bd 04 72 67 3d 40 bb 75 bb e8 25 73 bd
       -0.092626825 0.05650522 -0.0037495643 -0.059362322
0001a0 aa 53 89 bd 2e 50 e2 3d 54 07 65 3d 68 f3 c7 3c
       -0.06705411 0.11050449 0.05591519 0.024408057
0001b0 16 f7 da 3d 80 c3 68 bb c4 1f 8b 3d 0c 22 53 bd
       0.10691659 -0.0035516918 0.06793168 -0.05154614
0001c0 00 2a 19 ba 00 d0 5f 3c 00 35 59 3c cc ee 16 3d
       -0.00058427453 0.013660431 0.013257265 0.03684883
0001d0 00 cc 6c bd 98 dd b3 3c 3a f5 f0 3d 70 28 4b 3c
       -0.057811737 0.02195625 0.11765523 0.012399778
0001e0 a0 cd be 3b 30 c6 bd bc d0 25 3a 3c 84 6d e9 bd
       0.0058228523 -0.023165792 0.011361554 -0.113978416
0001f0 b4 c6 24 bd da fd b6 bd f8 e6 98 3d 12 a8 f6 bd
       -0.04022856 -0.08935137 0.07465929 -0.120437756
000200 b4 7b 9d 3d 20 ca 60 bd 00 f4 79 ba d0 93 4f 3c
       0.0768961 -0.05488026 -0.0009534955 0.012669519
000210 cc 36 65 3d cc c5 d0 bd 70 d4 72 3c 58 9c cf bd
       0.05596046 -0.10193977 0.014821157 -0.10137242
000220 72 0d d0 bd f0 af cb bc 5e 55 93 bd 88 24 9f bc
       -0.101588145 -0.024864167 -0.07194017 -0.0194266
000230 60 13 0f bc 18 68 ca 3c 14 bf 7d 3d b8 af 47 3d
       -0.008732647 0.024707839 0.061949804 0.048751563
000240 b2 ca cb bd f0 d5 de 3c 84 02 61 bd f8 7f e6 3d
       -0.099507704 0.027201623 -0.05493404 0.11254877
000250 0c f8 54 3d 68 42 55 3d 20 d5 be 3d 5c 3b 67 3d
       0.05199437 0.052065283 0.09317994 0.056453094
000260 c0 69 17 3d ac c1 18 bd 1a f5 fc bd 54 41 a9 3d
       0.036966085 -0.037294075 -0.12351437 0.082644135
000270 48 65 13 3d fc 82 de bd 7c ac 10 3d 60 3b 06 bd
       0.03598526 -0.10864827 0.035320744 -0.03277147
000280 c0 b0 14 3b 18 10 b3 bd 48 e1 af 3c 6c 7f 8d 3d
       0.002268836 -0.08743304 0.021469727 0.069090694
000290 d8 91 4f bd f0 d7 8c 3c ea 94 95 3d 70 ef 71 bc
       -0.050676197 0.01719281 0.07303794 -0.014766559
0002a0 90 b1 ef bc bc 52 6f bd f0 41 a6 bc f0 30 9f bc
       -0.029259473 -0.05842851 -0.020295113 -0.019432515
0002b0 20 83 71 3c be f7 89 3d 8a 1f ac bd ea 70 c5 3d
       0.014740735 0.06736706 -0.08404453 0.09640677
0002c0 8c 7e 89 bd 72 f1 ea 3d 34 a0 31 3d 98 95 db 3c
       -0.0671359 0.11471833 0.043365672 0.02680473
0002d0 80 89 2c bd e0 35 dc 3c 70 67 8e bc 5a 3b 88 3d
       -0.042123318 0.026881158 -0.017383307 0.066519454
0002e0 5a 21 ae 3d 3a d6 cd 3d c8 b2 85 bd c8 99 91 bc
       0.08502455 0.10050626 -0.065282404 -0.017773524
0002f0 be 54 b2 bd 60 a2 5f 3d 1c 87 94 3d e0 90 d1 3c
       -0.087075695 0.054598212 0.072523326 0.025581777
000300 88 cd ad 3d 24 9f 1c bd 38 b2 96 3c 34 cd 8f 3d
       0.084864676 -0.038237706 0.018395528 0.07021561
000310 32 b1 9a bd 5a 85 a9 bd 08 ee 9a 3d 22 25 d7 3d
       -0.075533286 -0.08277388 0.07564932 0.105051294
000320 5c 7c 8d 3d 18 1a fa bd 2a 0b a6 3d 38 57 85 bd
       0.06908485 -0.12212008 0.08107598 -0.06510776
000330 46 d9 ec 3d 2a 5b f7 3d d8 db fe 3d 64 a1 51 3d
       0.11564879 0.12077935 0.124442756 0.051179305
000340 64 c9 bb 3d bc a1 ea bd 1a 6e 88 bd c8 cb 76 bd
       0.091692716 -0.1145663 -0.06661625 -0.060252935
000350 70 80 9e 3c 7a 54 a4 3d 04 e9 34 3d 8a 39 97 bd
       0.019348353 0.08023925 0.044167534 -0.073840216
000360 a0 0c b2 3d 24 38 f0 3d e8 15 8c bc cc de c0 3d
       0.08693814 0.11729458 -0.01710029 0.09417495
000370 40 54 51 bc 84 a2 62 bd 20 b5 ac 3b 2a 43 95 bd
       -0.012776434 -0.05533077 0.005270615 -0.07288201
000380 4c cd da bd c0 d1 14 bc ca 1d ce bd 68 a4 e8 3d
       -0.106836885 -0.009083211 -0.100642756 0.11359483
000390 0e 4e b2 3d 40 cd a3 bc 00 6f bd bc 98 ee fc bd
       0.08706294 -0.019995332 -0.023124218 -0.12350196
0003a0 4c 51 49 bd 08 55 80 3d fa 25 f4 3d 9c da 54 3d
       -0.049149796 0.062662184 0.11921306 0.051966295
0003b0 b0 f7 17 bd 60 79 b9 3d ec 3c 91 3d a8 91 c2 bd
       -0.037101448 0.090563536 0.07091698 -0.09500438
0003c0 cc ec 7f 3d 48 2c a8 bc 6a 24 8b bd 90 56 10 bd
       0.062481686 -0.020528927 -0.06794055 -0.035238802
0003d0 50 84 a9 3d a8 d1 99 bc 8e 12 df 3d ca 81 ce bd
       0.0827719 -0.01877673 0.10892211 -0.10083349
0003e0 8c 08 1b bd 8c fb 7f bd e0 3f 3a 3c 62 09 a5 bd
       -0.037849948 -0.062495753 0.011367768 -0.0805843
0003f0 64 c2 08 bd a0 ac e3 bd 2c 25 83 3d 58 05 7f 3d
       -0.03338851 -0.1111691 0.06403574 0.062260956

layers.0.mlp_edge_conv.gconv.convs.<stroke___temp_previous___stroke>.nn.0.bias f4 [32]
000000 e8 c9 04 bd 36 01 cb bd b0 fd 3a 3c 54 bb 57 bd
       -0.032419115 -0.0991234 0.011413023 -0.052668884
000010 00 91 6f 3b 98 66 f9 bc 1a 2c b1 bd c0 96 5f 3d
       0.0036554933 -0.030444428 -0.0865099 0.054587126
000020 a8 b6 0f bd c8 25 b0 3d 1e c4 ef bd 2c 22 37 3d
       -0.035086304 0.08600956 -0.11707328 0.044710323
000030 d0 f7 f6 bd 9c b6 89 bd 0e 54 d9 bd 10 4d 80 bd
       -0.12058985 -0.06724283 -0.10611735 -0.062646985
000040 1a 76 c5 bd bc d6 3b bd c0 05 1a bb 38 68 4e 3d
       -0.09641667 -0.045859084 -0.0023501962 0.05039236
000050 f0 d0 30 3c 08 60 a4 bd 1e 89 d8 3d e0 81 a0 bd
       0.010792002 -0.08026129 0.10573028 -0.07837272
000060 34 31 42 3d e0 58 ce 3d 7c 9c 08 bd 1e b9 e0 3d
       0.047410205 0.10075545 -0.03335236 0.10972808
000070 c0 38 a0 3c b0 c0 84 bd 54 0f 18 bd e0 9f 15 bd
       0.01955831 -0.06482065 -0.037123993 -0.03652942

layers.0.mlp_edge_conv.gconv.convs.<stroke___intersects___stroke>.nn.0.weight f4 [32, 64]
000000 67 03 0b 3e d4 d9 4a 3d c4 1f 15 be 34 e0 88 bd
       0.13575517 0.049524143 -0.14562899 -0.06683388
000010 06 70 0c bd 18 94 79 bd 38 91 09 bd 41 0c ca 3d
       -0.03428652 -0.06093225 -0.033585757 0.098656185
000020 38 a8 a0 3d 5e 70 29 bd f3 df 03 be 4a a7 29 be
       0.07844585 -0.041366927 -0.12878399 -0.16567722
000030 13 b7 01 3d 53 23 0f 3c 8e dc fe bc bd 31 23 bb
       0.031668734 0.008736449 -0.031111028 -0.0024901472
000040 9a d8 23 3d ea 4a bd bd 50 c7 05 3d c1 73 9e 3d
       0.04000149 -0.09242804 0.032660782 0.07736922
000050 80 16 6f 3d cc 40 03 bd b1 4c 9f 3c ba d4 91 3d
       0.058371067 -0.032044217 0.019445749 0.071206525
000060 6e 79 9c 3d a4 85 3d bd f2 84 4d bb 48 f7 17 3e
       0.076403484 -0.046270028 -0.003135976 0.14840424
000070 61 63 35 bd e3 e1 fd 3c f8 3a 93 bd be a4 ed 3c
       -0.04428423 0.0309915 -0.07188982 0.02900922
000080 c3 a4 7a bd 32 ac cc bd 4e 4c 82 bd a3 3b 6b 3a
       -0.061192285 -0.09993781 -0.0636221 0.0008973425
000090 6c 8a a2 bd e1 b9 81 3d 7e 46 ef bd ea aa 11 be
       -0.07936558 0.06334282 -0.11683367 -0.14225355
0000a0 2b 7d 71 3d 62 bb 2d be 65 f9 3a be df 76 12 bd
       0.05895726 -0.16966012 -0.18259199 -0.035757896
0000b0 1a 13 ea bd 8d 6e 15 3e b6 4b 58 bc 25 90 c0 3d
       -0.114294246 0.14592953 -0.013201645 0.094024934
0000c0 5e 75 f4 bc 39 af f3 3a 7b 03 3b 3d 5c ff 90 3d
       -0.029841121 0.0018591649 0.045657616 0.07079956
0000d0 a5 2d 28 3e 2f e5 47 3e 0a dd a1 bd 06 ee d1 3b
       0.16423662 0.1952102 -0.07903488 0.0064065484
0000e0 65 f2 ad 3d aa 1a f2 3d ed 70 57 bd 2b f2 79 bd
       0.08493499 0.11821492 -0.05259793 -0.061021965
0000f0 36 08 38 be 64 89 06 3e 75 73 21 3d 4a 38 bd bd
       -0.17971882 0.13138348 0.03941675 -0.09239252
000100 e0 45 06 be 03 63 ba 3d 89 77 10 3d de 93 2a bd
       -0.13112593 0.09100916 0.035270248 -0.041644923
000110 68 12 d6 bd af 4a ed bc f4 77 94 bd 45 7c f2 3c
       -0.104527295 -0.028966276 -0.07249442 0.029600272
000120 a5 61 01 be eb f2 e4 bd 4a fb ab 3c 47 03 8c bd
       -0.12634905 -0.111791454 0.020993847 -0.068365626
000130 d0 cb 50 be 8e d5 75 bc b9 af bf 3d cb e4 54 bc
       -0.20390248 -0.015004529 0.09359688 -0.012994002
000140 25 17 06 bd bf 19 d1 bd aa a7 c2 bc f7 71 09 bd
       -0.032736916 -0.10209989 -0.02376159 -0.03355595
000150 74 a9 c9 3d 7b b0 c9 bd 75 d1 a7 bb df 11 89 3d
       0.09846774 -0.09848114 -0.005121405 0.06692862
000160 d6 58 86 bd 4a d8 f5 ba 77 76 9f bc 2a bb c5 bb
       -0.06559913 -0.0018756476 -0.019465668 -0.0060342746
000170 a2 95 06 bc 2e 9b 12 bc c2 34 14 3d e5 8a 45 bc
       -0.008214386 -0.0089481305 0.036183126 -0.012057041
000180 e7 41 cf bd 53 76 a9 ba 7e 21 61 bd 12 60 a8 3d
       -0.10119992 -0.001292894 -0.05496358 0.08221449
000190 9b 48 72 bd 05 55 99 bb 42 0c b2 3d 1f 91 55 3d
       -0.059151273 -0.0046793246 0.08693744 0.05214035
0001a0 51 b0 28 3e f0 14 67 bd 2a fa 81 3c f0 8d 9a 3d
       0.1647351 -0.056416452 0.015866358 0.07546604
0001b0 8b b1 f6 3d 64 31 20 3e 87 f0 6d 3d 58 ed 47 bd
       0.120455824 0.15643841 0.058090713 -0.048810333
0001c0 d2 6b 90 3d 50 7e 94 3c 00 ae 2c be eb 21 4c 3d
       0.07051815 0.018126637 -0.1686325 0.049837034
0001d0 15 23 18 3e d6 1c f1 3d 92 2e bf bc c7 51 90 bd
       0.14857133 0.11773078 -0.023337636 -0.07046848
0001e0 51 19 cf 3d 09 7d b8 3c 94 f0 2c be e3 10 02 3d
       0.101122506 0.022520559 -0.16888648 0.031754386
0001f0 9e 05 1d be dd d9 26 3d 5c 9c e9 3d 3b 25 f1 bc
       -0.15334174 0.040735114 0.11406776 -0.029436698
000200 1f 15 1c 3d ba 5e da bd ed 29 c4 bd f4 c3 8f bd
       0.03810608 -0.10662599 -0.09578309 -0.07019797
000210 ae 95 38 3d 50 16 05 bc 38 1e ed bc 53 93 63 bc
       0.04506462 -0.0081229955 -0.028945073 -0.013890105
000220 4e d5 a4 bb e2 ab d2 bd 8e f8 fa 3c 3f fc 62 be
       -0.0050303107 -0.1028669 0.030636098 -0.22166537
000230 69 21 ac bd f4 00 b7 bd 5f cc 16 bd 1b b7 93 bc
       -0.0840481 -0.08935729 -0.036815997 -0.018031647
000240 82 72 8b bd c5 92 a3 3d 47 09 87 3d ca 62 41 3c
       -0.0680895 0.079869784 0.065935664 0.011803338
000250 52 38 c6 bd 6f 0f 86 3d b4 4d 8a 3d 43 b4 b4 bd
       -0.09678711 0.065459125 0.06753102 -0.08823445
000260 4c 5f c8 bd b8 12 2e be 95 81 b9 bd 2f 46 09 3d
       -0.097838014 -0.16999328 -0.09057919 0.033514198
000270 5a 3f 25 bd 89 45 0e 3e f3 ba b0 3c 22 60 26 3d
       -0.04034362 0.13893713 0.02157352 0.040619023
000280 f6 59 88 3d c3 6b 3e 3e 43 b5 ec 3d 00 c0 70 3c
       0.06657784 0.18595795 0.115580104 0.014694214
000290 77 ce 13 be 2a 41 3a 3d 38 f8 ed bb 3a c1 9d bd
       -0.14434229 0.0454723 -0.007262256 -0.07702871
0002a0 a3 c6 06 be c5 10 68 bc d6 50 85 be e9 f8 19 3e
       -0.13161711 -0.014164154 -0.26038235 0.15036358
0002b0 f5 24 4c be 00 24 ce 3d 87 38 11 be 03 26 58 be
       -0.19935973 0.1006546 -0.1418172 -0.2110825
0002c0 97 e1 0c 3e 80 fa c8 3c c7 0e 8e be c1 c1 65 3e
       0.1375793 0.02453351 -0.2774565 0.22437192
0002d0 34 66 15 3e 16 0c bf bc b1 d3 51 3e 08 f7 dd bc
       0.14589769 -0.023321193 0.2049091 -0.027095333
0002e0 ce c7 35 bd bd 2a 80 bd 96 58 8f bc 7d 52 bf 3c
       -0.04438 -0.06258152 -0.017498296 0.023354763
0002f0 9e a0 27 bd 0c 95 63 be b0 e0 af bb 14 5e 8a bd
       -0.04092466 -0.22224826 -0.005367361 -0.06756225
000300 40 fd d2 3d 20 17 fc 37 07 86 4a 3c 44 37 85 3d
       0.1030221 3.005151e-05 0.012361056 0.06504682
000310 50 26 ac 3d 1e 37 45 3d e6 dc 1a 3d e8 2c c0 bd
       0.08405745 0.048148267 0.03780832 -0.09383565
000320 29 ac 00 3e a4 fd 89 bd 2a 22 71 3e c5 a8 9b 3b
       0.12565674 -0.06737831 0.23548189 0.0047503435
000330 36 0d 34 3e d8 39 c4 3b 9b 4a 83 3d de ef e0 bb
       0.17583165 0.005988341 0.06410714 -0.006864532
000340 f9 b5 28 3d 61 e2 e1 3d cc 98 86 bd 13 e0 e8 bc
       0.041189168 0.110295065 -0.065721124 -0.02842716
000350 8d 3b 0d bd 17 4f e3 bd e8 d0 11 be cd 58 fd bd
       -0.03448062 -0.110990696 -0.14239848 -0.12370453
000360 14 6b ad 3c d8 9c 85 3b ef 1b e0 bc 1c a9 ad bd
       0.021169223 0.004077535 -0.02735707 -0.08479521
000370 c7 26 80 3d 11 bf 36 3c 74 92 77 3d 6d e7 e7 bb
       0.06257396 0.011153952 0.060442403 -0.0070771486
000380 7c c5 50 be e3 49 45 bc 83 13 5c bc 3e 4c 07 be
       -0.20387834 -0.012041542 -0.013432386 -0.13212678
000390 37 5a 29 be 8c d3 df bb d7 9a 1c 3c 47 77 c1 bc
       -0.1653832 -0.0068306383 0.009558401 -0.023616446
0003a0 00 81 7c 3d e5 a8 b8 bc 2d 3a 15 be d1 af b7 3c
       0.06164646 -0.022541473 -0.14572974 0.022422703
0003b0 03 74 a4 bc 0a a0 a7 3d 00 5e 91 3e 1c d7 c4 3e
       -0.02007485 0.08184822 0.2839203 0.38445365
0003c0 47 53 d9 bd 27 32 1d be dd b2 78 3e 50 1a 2a 3d
       -0.10611587 -0.15351163 0.24286981 0.041529
0003d0 41 e2 2d be 4f f7 2f bd 88 60 a8 3d ca 5d af 3d
       -0.1698084 -0.04296046 0.08221537 0.08562811
0003e0 65 8f 7e 3c 41 cb b1 bc e4 97 77 3d 12 7e b5 bb
       0.015537118 -0.021703364 0.06044759 -0.0055387104
0003f0 1e 77 e7 3d 91 79 de bd dc 63 4e 3e 28 26 85 3d
       0.11302017 -0.10863031 0.20155281 0.06501418

layers.0.mlp_edge_conv.gconv.convs.<stroke___intersects___stroke>.nn.0.bias f4 [32]
000000 5a eb 49 3e fb 55 3c bd b2 91 b5 3d 69 43 6f bd
       0.19718686 -0.045980435 0.0886568 -0.058413897
000010 84 e3 b4 bd f2 bc e4 3b bb 4c 2a bd 1c 7a a3 bd
       -0.08832458 0.006980532 -0.041577082 -0.07982275
000020 34 24 32 3e e3 7b 01 3c c3 05 6e bd 5b 3e 0f 3d
       0.17396623 0.007903072 -0.058110964 0.034971576
000030 95 4f 66 be 76 d4 02 be 41 be 6d 3e 0f b8 23 3d
       -0.22491296 -0.1277636 0.23217107 0.039970454
000040 9d a9 68 3d fa 26 07 bd fe 4b 57 3c d6 2e 70 bd
       0.05680238 -0.032996155 0.013140677 -0.058638416
000050 f9 3e e2 bb 03 84 e6 bd ef 58 35 3c a4 c0 1c 3d
       -0.0069044796 -0.11255648 0.011068567 0.038269654
000060 f8 fe 02 be b4 ca e0 3d aa 1b 89 3d c4 65 fd bd
       -0.12792575 0.109761626 0.066947296 -0.12372926
000070 78 b3 d5 bc 9e 3b c4 3d d2 46 28 be cd d8 38 bd
       -0.026086554 0.095816836 -0.16433266 -0.045128632

layers.1.mlp_edge_conv.gconv.convs.<stroke___temp_previous___stroke>.nn.0.weight f4 [32, 64]
000000 d8 04 01 bd 10 15 5f bd b4 97 e6 3d 6c c7 c3 3d
       -0.03149876 -0.054463446 0.11259404 0.09559521
000010 6c 6e 2d 3d 06 93 a1 bd 38 b5 a8 3d de e8 a1 bd
       0.042341635 -0.078893706 0.0823769 -0.07905744
000020 d0 42 09 3c b0 c4 22 bd 9e 8d a0 3d 98 d8 8b 3d
       0.008377746 -0.039738357 0.07839511 0.06828421
000030 f0 7b 53 3d 70 86 92 3d 06 a2 bc bd cc 40 e5 3d
       0.051631868 0.07154548 -0.09210591 0.11194
000040 c0 83 3a 3c b0 dd 39 bd ba ae da bd 14 d5 f8 3d
       0.011383951 -0.045377433 -0.10677858 0.121500164
000050 28 68 42 bd 40 b5 91 bd cc 30 b9 3d 5c c8 6b 3d
       -0.047462612 -0.07114649 0.090425104 0.057564124
000060 22 48 ae 3d c6 f6 99 bd 90 da e4 bc 00 c6 d0 3c
       0.08509852 -0.075177714 -0.02793625 0.025485039
000070 74 c8 90 bd 40 3d 3c 3d 28 16 9f 3c 20 89 2f 3c
       -0.070694834 0.04595685 0.019419745 0.0107138455
000080 4c 0e a6 3d f2 82 ef bd 46 a0 f0 3d ac 0d 92 3d
       0.08108196 -0.11694898 0.1174932 0.07131514
000090 6e a4 80 3d 08 b9 6c bd 78 ba 69 3d d0 e5 cf 3c
       0.062813625 -0.057793647 0.057062596 0.025378138
0000a0 dc d2 ec bd 9e 74 9e 3d c4 70 50 bd 22 0e 99 3d
       -0.11563656 0.07737087 -0.05088879 0.07473399
0000b0 ca a0 9c 3d 6c ab af bd 80 6c 70 3d 90 25 60 3c
       0.076478556 -0.08577618 0.058697224 0.013680831
0000c0 9c 32 77 3d 34 dd ff 3d 98 bd ca bd 60 69 fc bb
       0.060351 0.12493363 -0.098994434 -0.0077029914
0000d0 d0 ed 84 3c 1e 76 97 bd b4 c4 ee bd 3c 7b 4f bd
       0.01622668 -0.07395576 -0.11658612 -0.050654635
0000e0 20 ac a7 3b 40 7a a7 3b 2c 36 77 bd 88 8e 45 bd
       0.0051169544 0.005111009 -0.060354397 -0.04823163
0000f0 b6 6f c3 bd e0 37 b0 3d f4 49 2d bd c6 3f ec bd
       -0.095427915 0.08604407 -0.042306855 -0.11535601
000100 e8 6c 66 bd a8 1f 46 bd e8 8a ab 3c 30 63 ba 3d
       -0.056256205 -0.048370034 0.02094026 0.0910095
000110 78 e4 48 3d 38 69 91 3c ee 7c d8 3d 22 e9 d0 bd
       0.04904601 0.017750368 0.105707034 -0.102007166
000120 c4 b3 f2 3d ea 7c f1 3d e8 84 ca bc a0 87 84 3d
       0.11850694 0.117914036 -0.024721578 0.06471181
000130 60 81 bc bb ea dd 82 3d 2c b5 26 bd 38 1b e0 bd
       -0.0057527274 0.06389983 -0.040700123 -0.109426916
000140 40 68 a2 3d 7a 97 a9 bd 0c ec 53 3d 70 98 58 3c
       0.0793004 -0.08280845 0.051738784 0.013219938
000150 92 a7 ab bd b6 aa cb 3d 7c a9 4a 3d 18 2b d6 bc
       -0.08381571 0.0994467 0.04947804 -0.026143596
000160 38 fd 7a bd 40 d7 8a 3c 9a 02 92 3d 20 f2 0c bd
       -0.061276644 0.016948342 0.071294025 -0.034410596
000170 d0 db 94 bc 58 90 72 3d 30 3e c5 3d 52 2b f7 3d
       -0.018171221 0.05921969 0.09631002 0.120688096
000180 58 24 a6 bd a2 35 e7 bd 90 36 d1 3c f4 e9 92 3d
       -0.08112401 -0.112895265 0.025538713 0.07173529
000190 a0 d3 83 3b 70 45 f0 3d 9c 08 8c bd a0 ba bb bb
       0.0040230304 0.11731994 -0.068375796 -0.0057290345
0001a0 30 20 ab bc b0 ea 7c 3c 5a e1 a1 bd 18 f0 ef bd
       -0.020889372 0.015436813 -0.079043105 -0.11715716
0001b0 4a ad 89 3d b8 01 aa 3d 8a 8c f3 bd 0e 43 bb bd
       0.067225054 0.08301109 -0.1189204 -0.09143649
0001c0 58 da 09 bd d8 d4 e2 bc 6c 17 7f bd 78 54 af bc
       -0.033655494 -0.027689382 -0.062278196 -0.021402583
0001d0 ce f8 a8 bd 00 bd 10 bb 46 b3 bc 3d f0 75 a0 bc
       -0.08250581 -0.002208531 0.09213881 -0.019587487
0001e0 34 10 c8 bd 40 27 22 bb 00 a2 d6 bb 68 4b 97 3d
       -0.097687155 -0.0024742633 -0.0065500736 0.073874295
0001f0 b8 e1 8a 3d fc 04 b8 bd 10 6b a7 3d 20 5c c9 bb
       0.06781334 -0.08985326 0.081747174 -0.0061450154
000200 80 68 fc 3d f4 55 ed 3d 0e 91 f4 bd 64 d6 ef 3d
       0.12324619 0.1158866 -0.119417295 0.11710814
000210 b2 9b cc bd 64 a7 75 3d 1a 39 88 3d 28 32 7f 3d
       -0.09990634 0.05997409 0.06651516 0.062303692
000220 3a 7f 88 3d c0 9f 30 3d 40 87 bb 3d 04 1d 33 bd
       0.066648915 0.0431211 0.09156656 -0.043728843
000230 5e e8 9d 3d 8e fe ae 3d d0 a4 b4 3d a6 eb ae bd
       0.07710336 0.08544646 0.08820498 -0.0854104
000240 48 ad f9 bd 84 fd 2a 3d ee d8 81 3d e8 a0 dc 3d
       -0.12191254 0.041745678 0.06340204 0.10772878
000250 c0 27 ef 3b a8 c0 24 3d d0 24 03 3c 06 9c b5 bd
       0.0072984397 0.040222794 0.008004382 -0.0886765
000260 5c 5e 4b bd b8 0a 3d 3d 4c a6 56 3d 56 e6 e9 3d
       -0.049650535 0.0461528 0.052404687 0.11420886
000270 44 54 8e 3d e0 76 27 3c c4 28 72 bd 0c 2f d4 3d
       0.06949666 0.010221213 -0.05912091 0.10360536
000280 10 5f 28 3d 10 f4 36 bc e6 3e b9 bd 90 63 61 3d
       0.041106284 -0.0111665875 -0.090452 0.05502659
000290 92 21 9b 3d a8 05 9a bc 12 9a f7 bd 60 67 89 3b
       0.075747624 -0.018801525 -0.120899335 0.0041932315
0002a0 fe 28 ce 3d 60 c9 eb bb 7c bb 8e bd b0 4d b3 bc
       0.100664124 -0.0071956366 -0.069693536 -0.02188763
0002b0 24 b0 d0 bd 00 55 31 bb b0 0a 3e 3c 84 6a 48 3d
       -0.10189846 -0.002705872 0.011599228 0.048929706
0002c0 90 f8 4b bd 40 87 29 bd 5c e4 80 3d 1a 5e fa 3d
       -0.049797595 -0.04138875 0.06293556 0.1222498
0002d0 e8 79 8c bd 3e c0 99 bd 14 ed 5f 3d 8e bd cf 3d
       -0.06859189 -0.075073704 0.054669455 0.101435766
0002e0 b0 0f 38 3c 84 fd 2b 3d 30 ce aa bd c8 fc 8f bc
       0.011234209 0.04198982 -0.083401084 -0.01757659
0002f0 00 2e 5f bd d0 48 36 bd f0 16 ec 3d e0 e2 8f bc
       -0.05448723 -0.044503033 0.115278125 -0.017564237
000300 c0 00 51 3d 48 46 f3 3c da ba da bd 88 d3 e8 bd
       0.051026106 0.029696599 -0.1068017 -0.113684714
000310 02 b2 e3 3d 3c 24 d0 bd ec 5a f5 3d f8 4f be bd
       0.11117937 -0.10163161 0.119802326 -0.092925966
000320 08 fc e1 3c 70 ee 22 bd f8 9e fd bc 62 ac 8c bd
       0.027585998 -0.039778173 -0.030959591 -0.06868817
000330 8c 91 79 3d d8 2e 5d bd 48 e8 97 bc ae bd b4 3d
       0.06092982 -0.05399975 -0.018543378 0.08825241
000340 9a 8c cc bd 40 ed 3e bd d8 e2 eb 3d 30 a8 af bc
       -0.09987755 -0.046612978 0.115178764 -0.021442503
000350 9c 83 52 3d 08 d6 fa 3c a0 f2 65 bc 60 7a d2 3d
       0.051395044 0.030619636 -0.014034897 0.102772474
000360 e4 73 ec 3d 4e 8a bb bd 7e 72 e9 3d 18 4b 72 bd
       0.11545542 -0.09157239 0.11398791 -0.059153646
000370 b0 f6 45 3d 0e 86 b7 3d 00 0d ec ba 8c bc 96 bd
       0.048330963 0.08961116 -0.0018009245 -0.07360181
000380 bc 25 7e bd 98 73 32 3d 7e bb ac bd 34 a4 f9 3d
       -0.062047705 0.04356727 -0.08434199 0.121895224
000390 94 fe 0f 3d 30 f1 39 3d ce 68 c2 3d b0 e8 d9 3d
       0.035154894 0.04539603 0.09492646 0.10640085
0003a0 44 95 cd 3d 06 44 d8 bd ca 0c f2 3d b0 64 17 3c
       0.10038236 -0.105598494 0.118188456 0.009240314
0003b0 4c b4 c9 3d 1e 08 e7 bd ec 64 0e 3d 7c de 6f bd
       0.09848842 -0.11280845 0.034764215 -0.058561787
0003c0 26 f1 9c bd 7c d1 c2 3d f4 12 7b bd 3a 88 a6 bd
       -0.07663183 0.09512612 -0.061297372 -0.08131452
0003d0 84 cf 03 3d 8a cd ec bd 86 80 f4 3d 22 34 93 bd
       0.032180324 -0.11562641 0.119385764 -0.07187678
0003e0 1c c0 5c 3d 34 56 ba 3d a8 87 fc 3c 44 d9 d8 bd
       0.053894147 0.09098473 0.030826405 -0.10588315
0003f0 ec 9c da 3d 98 94 e9 3c ca 18 f9 bd 50 47 10 bc
       0.10674462 0.028513238 -0.12162931 -0.008806065

layers.1.mlp_edge_conv.gconv.convs.<stroke___temp_previous___stroke>.nn.0.bias f4 [32]
000000 66 fb dd bd f4 88 65 3d 00 2c ea 3b 28 06 57 bd
       -0.10838966 0.05603881 0.0071463585 -0.052496105
000010 00 6e 52 3d ac d2 4a 3d 28 5d d0 3d 2a bf be 3d
       0.051374435 0.04951732 0.10174018 0.093138054
000020 2a 71 ff bd c0 4e a8 bc 0c df 07 3d 00 02 0d 3b
       -0.12472756 -0.020545363 0.0331717 0.0021516085
000030 f8 ea 80 3d 60 ef 43 3d 9a bf f9 bd 58 d8 9c bd
       0.06294817 0.047835708 -0.12194748 -0.07658452
000040 c8 2e 06 bd d4 ed 9b bd a8 bf 0e bd 04 45 94 bd
       -0.032759458 -0.076137215 -0.034850746 -0.07239726
000050 b4 d0 97 bd 1a e2 9f bd a0 ce c1 bb 00 1a ab ba
       -0.07412854 -0.07806797 -0.005914524 -0.0013054013
000060 f8 6f 18 3d 8a 94 cc bd 7c ef 07 bd fe 8a e8 3d
       0.037216157 -0.09989269 -0.033187374 0.11354636
000070 e4 67 8a 3d b0 cc 80 bc e0 bf ed bc 48 b7 72 3d
       0.06758097 -0.015722603 -0.029022157 0.059256822

layers.1.mlp_edge_conv.gconv.convs.<stroke___intersects___stroke>.nn.0.weight f4 [32, 64]
000000 13 4d 24 bd ac ec c0 3d 51 d8 13 bd 46 b1 81 bd
       -0.040112566 0.094201416 -0.036094967 -0.0633264
000010 41 25 f2 bd ee f7 04 be a1 18 a3 3d b4 20 e1 bd
       -0.11823512 -0.12985203 0.07963682 -0.10992566
000020 ba 13 9a bd 5a fa ba bd 47 9d df bd cc d6 86 3d
       -0.07523294 -0.09129782 -0.1091867 0.06583938
000030 47 52 d5 bd 30 ca 8f bc b4 26 e5 bd 80 61 97 bd
       -0.10416084 -0.017552465 -0.11189023 -0.073916435
000040 a7 b6 e2 bd ba f0 9b 3c aa d3 08 be 79 f8 1f bc
       -0.110699944 0.019035686 -0.13361993 -0.00976383
000050 c8 7a 22 bd f7 44 f4 bd 7b 6c 40 b9 36 ee de 3d
       -0.039667875 -0.119272165 -0.00018350959 0.10885279
000060 a2 4c ef bc 7a fb 5e bd 80 6c 1e bd 49 b3 d7 bc
       -0.029211346 -0.054439045 -0.038677692 -0.026330607
000070 58 75 56 bd 3d 61 ec bc 24 19 a7 bd 0b d6 83 bc
       -0.052358 -0.02885496 -0.08159092 -0.016093275
000080 9d 56 65 3d 73 f2 0b bd 07 ba cb 3c a4 f8 ed 3d
       0.055990804 -0.034166764 0.024868978 0.1161969
000090 ee 1a 9c 3d 8b b6 bf bd bc 2c 7f bc 06 54 9b bd
       0.07622324 -0.09360989 -0.01557463 -0.075843856
0000a0 34 ff ed bc 62 76 29 bd 78 69 68 bc 56 14 e0 3d
       -0.029052354 -0.041372664 -0.014185302 0.10941379
0000b0 99 9f cb bd a9 0f d5 bd 4e 26 4c bd 89 4c 90 3d
       -0.0994255 -0.104033776 -0.049841218 0.07045848
0000c0 42 96 93 3d a8 29 91 bd f9 0d bd bc 51 10 eb bd
       0.07206394 -0.070880234 -0.023077952 -0.114777215
0000d0 01 ff b0 bd aa 42 b7 bd 84 f9 88 3d 27 60 90 bd
       -0.08642388 -0.08948262 0.06688216 -0.070495896
0000e0 af 14 02 be d3 b4 33 3d c5 7a 33 3c 50 03 d1 bd
       -0.12703203 0.04387362 0.0109545635 -0.1020571
0000f0 9c 71 56 3d d9 3e 02 bd 7c e5 e1 bd c8 6c a9 3d
       0.05235444 -0.031798217 -0.11030099 0.082727015
000100 d9 7d 7d bd 5f 98 53 bd bb 29 93 bc 5d da 55 be
       -0.061887596 -0.051658984 -0.017964235 -0.2088408
000110 ef a9 cc 3d f2 48 8c bd 23 4e a0 3d e2 e8 8d 3c
       0.0999335 -0.06849851 0.078274034 0.017322961
000120 74 49 ea 3d d0 5b ce 3c f7 2c ac 3c 79 12 09 3d
       0.11439791 0.025190264 0.021017535 0.033464883
000130 6b e8 18 be 80 dc 1e bd 92 e3 d6 3c ca 03 8b bd
       -0.1493241 -0.038784504 0.02623156 -0.06787832
000140 94 93 5c bc 52 a5 08 3d ad 4c ec bd 2e 77 bb 3d
       -0.01346292 0.033360787 -0.11538062 0.09153591
000150 a5 1c 9e bd 97 5c e2 3d 28 f7 67 bd d0 6a 90 3d
       -0.07720307 0.11052816 -0.05663219 0.07051623
000160 1b 59 6f 3d c1 92 9e 3d 2d 24 e8 bb bd cc eb bd
       0.058434587 0.07742835 -0.0070843906 -0.1151366
000170 71 ec bd bd 0e 74 bc 3d 8e 93 f1 3c 22 95 40 bc
       -0.09273613 0.09201823 0.029489305 -0.011754306
000180 35 46 33 be 37 db cb 3c c6 7b 61 bc 80 de c3 bd
       -0.1750725 0.024884803 -0.01376242 -0.09563923
000190 e3 ce d0 bd 82 7c 6e 3d 76 74 de bd d8 a8 18 be
       -0.101957105 0.05822421 -0.10862057 -0.14908159
0001a0 1f 1d 36 3d a9 0e fb 3d f0 13 5d be 5b 62 c0 bd
       0.044461366 0.122586556 -0.21589637 -0.0939376
0001b0 f8 51 c6 bd 75 0c b2 3d 0e fd 61 3c f1 f2 ab bd
       -0.09683603 0.08693782 0.013793243 -0.08395947
0001c0 d1 b7 1f bd c9 a8 17 bc 20 d0 68 be 6e 2f c4 bd
       -0.03899366 -0.00925655 -0.22735643 -0.09579359
0001d0 b0 03 d1 bd 81 e7 30 bc 72 1d f5 3c 67 3b ec bd
       -0.102057815 -0.010797382 0.029921267 -0.115347676
0001e0 68 e5 ee bd db 6b db 3d 03 d6 61 bc 0d e6 8d ba
       -0.116648495 0.10713931 -0.0137839345 -0.0010826007
0001f0 f6 e9 78 bc 22 d2 64 bd 46 3c 00 be 5c 85 87 3c
       -0.015192499 -0.05586446 -0.12522992 0.016543083
000200 82 c3 4d 3d 97 9e e8 bd a5 6e c1 3d 5d 2a d1 bd
       0.05023528 -0.113583736 0.09444932 -0.10213158
000210 e9 05 90 3d 7a 52 a6 3d 2b 7e 18 3e 7b 0d 60 3c
       0.07032377 0.081212 0.1489188 0.013675089
000220 bb 38 83 3c 42 dd 6f 3d 08 d8 9b bd a2 a0 b3 bd
       0.016018262 0.058560617 -0.07609564 -0.08770873
000230 e7 6b c0 3c 01 df d5 bd 0b b8 e1 bd ca 95 c6 3d
       0.023488952 -0.10442925 -0.110214315 0.09696539
000240 9e 63 c0 3d eb e9 ff 3c 52 b2 66 bd 2c 21 02 3d
       0.093940005 0.03123947 -0.056322403 0.031769916
000250 09 a6 d0 bd 69 6a 3a bd f1 82 5c bd 60 49 3e 3d
       -0.10187919 -0.045511637 -0.053835813 0.046456695
000260 a1 79 03 be 0b 2e a7 bd a0 ed c6 bc 98 fc 1a 3d
       -0.12839366 -0.08163079 -0.02428323 0.03783855
000270 96 02 b6 bd d5 81 6d 3d 60 76 51 be 3f 21 b8 bd
       -0.08887212 0.057985146 -0.20455313 -0.08990716
000280 6b 6e d9 bd f7 84 f7 3d c5 43 8a 3d bb 8f d7 3c
       -0.10616764 0.12085908 0.06751207 0.026313653
000290 90 01 a7 bd 62 15 da 3a 14 4f 66 3d ce 5a 17 be
       -0.08154595 0.0016638453 0.05622776 -0.14780733
0002a0 85 86 1a 3e 66 7a e9 bd 81 a7 48 bd 9a 71 ae 3d
       0.15090378 -0.11400299 -0.04898787 0.085177615
0002b0 0f 62 8c bd 06 f7 21 bd 6d e9 4f 3d c2 bb 0c be
       -0.06854641 -0.03954222 0.05075972 -0.13743499
0002c0 e7 98 60 3d 87 7d 51 3c f3 ab 02 bd 9e ae bf bd
       0.05483332 0.012786276 -0.031902265 -0.093594775
0002d0 71 da dd 3d c9 7f 9c 3c a0 92 e5 bd b7 44 06 be
       0.1083268 0.019103901 -0.11209607 -0.1311215
0002e0 63 ea 1e bc ad 3f af 3d 12 66 8b bd d4 99 47 3e
       -0.009699437 0.08557067 -0.06806578 0.19492275
0002f0 0b 66 2d 3d dc 5f b7 3c 6d 23 25 3d b1 a1 a3 bb
       0.042333644 0.022384576 0.040316988 -0.0049936404
000300 7f c1 64 bd b0 38 74 3d 46 75 b5 bb 33 fe 29 3e
       -0.055848595 0.059624374 -0.0055376617 0.16600876
000310 a2 ae ba bd 5d 38 30 3d a1 0f 23 be ea 52 f9 bc
       -0.0911534 0.043022502 -0.1592393 -0.030435044
000320 4c 7c c2 bd 3e 71 0a be d9 44 5b 3e 84 8d 2c 3d
       -0.09496364 -0.13519761 0.21412982 0.042127147
000330 c9 cb 09 3e 18 9a e8 3d 98 68 8d 3c c1 f1 b2 3c
       0.13456644 0.11357516 0.017261788 0.021843793
000340 63 cd 92 3c 95 90 57 3d eb 39 8e 3d c5 92 7a 3d
       0.017920202 0.05262812 0.06944641 0.061175127
000350 5b 52 de bd d5 29 b2 3d 8c fb ae bd 3f d9 f6 bc
       -0.10855552 0.08699385 -0.085440725 -0.030132888
000360 ac 41 35 3c f5 7f ae bc f2 5e f0 3c 0a 2e 50 bd
       0.011063021 -0.021301249 0.029342148 -0.050825156
000370 3a 36 ff bd 4b 9d 51 3d 72 9e ae bd aa d6 5f 3c
       -0.12461515 0.051175397 -0.08526315 0.01366202
000380 f8 60 60 be 54 ee 15 be 38 7d 53 bd cc df 82 3c
       -0.2191199 -0.14641696 -0.05163309 0.015975855
000390 2b 09 69 bd 8c 20 23 3c a8 73 05 3e cd fd 28 bd
       -0.05689351 0.00995649 0.130324 -0.04125767
0003a0 9f 7b 02 be ca f2 09 bd 14 ff 9d bd 48 16 24 3e
       -0.1274247 -0.033678807 -0.07714668 0.16024125
0003b0 d9 fb d0 bd e7 eb 41 3c 29 52 dc 3d 9f bb 52 3e
       -0.10204286 0.011836029 0.10757858 0.20579384
0003c0 99 bf 31 be 63 70 81 be c8 29 71 3e 0e c9 07 3e
       -0.17358245 -0.25281057 0.23551095 0.1326029
0003d0 e1 92 18 3a 05 84 b9 bb 9f 43 b9 3d da ca d1 3d
       0.00058202265 -0.00566149 0.09046101 0.10243769
0003e0 d5 24 22 3d 52 ad 7b bd 3b f3 f5 bc 01 5a 34 be
       0.039585907 -0.061444588 -0.030023208 -0.17612459
0003f0 84 a1 5e 3e 55 28 47 3d dc 7e 43 3e 19 92 ec 3b
       0.21741301 0.048622448 0.19091362 0.0072195646

layers.1.mlp_edge_conv.gconv.convs.<stroke___intersects___stroke>.nn.0.bias f4 [32]
000000 02 90 d0 bd 8f 6c 2d bd 56 9c 7c 3d fc 08 04 be
       -0.10183717 -0.042339858 0.06167253 -0.12894052
000010 5f 5a 12 be 8d 9b 2f be 6c 4f 09 be 87 b3 20 be
       -0.14292286 -0.17149182 -0.13409203 -0.15693484
000020 1c eb 6d bc c3 0c 96 bd d4 21 4f be cb fa 8d 3d
       -0.0145213865 -0.07326653 -0.20227748 0.069326006
000030 31 cc 70 be 55 fc 32 3d 63 29 18 bd 64 88 30 3e
       -0.23515393 0.043697674 -0.037148844 0.17239529
000040 bc be a1 3d 9f 18 f8 bd eb 3f 20 3e 63 ce 24 3e
       0.07897708 -0.12114071 0.15649383 0.16094355
000050 20 a1 c6 bd 70 98 61 be e9 ff 36 be bd 76 47 bd
       -0.09698701 -0.22030807 -0.1787106 -0.048697222
000060 12 2a 8b bd fc ae 84 3d 70 85 a4 bb 00 d0 3c be
       -0.06795134 0.06478688 -0.00502079 -0.1843872
000070 46 2c 0e be f4 e4 82 bd 69 a2 71 be 65 6b 00 3e
       -0.13884076 -0.063913256 -0.23597111 0.12540968
