checkpoints/sketch_prediction/graph_decoder.pth (torch, 44996 bytes, 5 tensors)

local_head.weight f4 [64, 32]
00000000: 8e93 223e 524a 10bd 1961 fdbd 829e e2bb
00000010: 55a5 d83d e98a 0a3e 9256 9cbd 62b7 64bc
00000020: 27e1 0dbe 459b 863d b68e 9c3c 92f7 483d
00000030: c380 4bbd 5aea 3fbc f19e 15bc 2dc3 d43d
00000040: bb56 40bd fb0e 57bc 0893 87bc 207b 72bc
00000050: f503 00be e793 173e d6f8 6fbd a53d 823d
00000060: c0f3 f53d 2c74 6d3d 19b2 2fbe ff00 573d
00000070: 630c 973d d177 863d 7b10 2dbe 9057 e43d
00000080: 6be3 0bbe b7a4 313d 8108 04bd d067 63bd
00000090: 718f 60be 4816 6f3e 64a0 a93c a0b3 a4bc
000000a0: 11eb 763c 9df0 e3bd 91b6 dbbd 229e 84bd
000000b0: 969b 063e 921d 4d3e 4f29 973d 8df9 093d
000000c0: 0774 af39 a9db a53c e55d c7bd 4364 7abd
000000d0: dad2 febd 1e23 0e3d 910a 093e cf20 1f3d
000000e0: 84bd 01bd 7469 6b3d 81b7 8e3d 1fd4 783d
000000f0: 0aa9 0f3d c8c8 82bd 7e1d 95bc e3c7 883d
00000100: 8eca ef3d c9bf 7b3d 7a73 f4bc b445 1c3e
00000110: 0b71 6bbd 2fbd 923d 81ba a83d 6ae5 45be
00000120: 8400 c03d 37f3 b7bc 9dbc 263c 02a3 433c
00000130: 9fd6 b93d 42b2 15bd d1c9 42bd 3e0a f2bd
00000140: 66cb 1cbd 7bc3 d4bc b41a acbd 750a d1bd
00000150: 0fdc f63d 937e f53d 8050 9abd ef37 d4bd
00000160: ecbd 033d 1d4f 093e 67bc 8fba 2f3e dd3b
00000170: c883 f0bc 9421 093d 33a9 0a3e b337 f7bd
00000180: b505 3e3d b3fc efbd 7ef7 92bd 3b37 003e
00000190: c1f8 35bb 0af1 75bd 98de a23d 6cf2 843d
000001a0: 1d61 27be 16d6 5b3c 682c eabd 8c81 a7bd
000001b0: e230 0fbe 6487 5f3e be60 763a cd3f 2cbd
000001c0: 38bf 0a3e 917a ae3d 9fa5 b93d d942 9abd
000001d0: 496b bfbd 4f29 92bd ea2a 163e 6137 c4bc
000001e0: 0f04 bb3c 1c4e 323d d746 d4bd cb68 c3bb
000001f0: 3c84 bebd 6b8a 5ebd fc51 23be d765 b33d
00000200: fcee e6bd 7736 263e c90a 03bd 197a 643d
00000210: 8c53 49bd f1ff 3f3d 3d4c 313e ad28 4dbd
00000220: d298 0c3e d181 bfbd 0349 5e3b 3fdb acbd
00000230: 10c5 56bd 3f05 213c 7885 733c 637d a83d
00000240: 1d1c 9f3d 352f 073e ace5 22be ef13 82bd
00000250: 1c7e 1a3e 0738 863d 38ce e2bc 6563 36bc
00000260: 37de 053e 60f8 f0bd 96bf 983d 7fab b8bb
00000270: 1464 d9bd 34d6 2c3e 059e 96bd 5bae 7d3d
00000280: d33c 8e3d 2563 d9bd 0bd3 a2bd d3c7 93bd
00000290: b432 bd3d a42b f9bc 0ba7 033e d60d 983d
000002a0: 420f a03d a866 523d 45bd 353e 8ea1 2cbd
000002b0: 131c e9bd bf03 aa3d 35e6 843d 5875 383d
000002c0: 4344 223e d6fe d9bc 6ab7 e2bd bcf9 853d
000002d0: 2fc9 ae3c abd6 373e 548e 2bbe 1146 cb3c
000002e0: 6d7a afbd a2c6 3bbc 103c 41bd 3a7b e33d
000002f0: 9b42 d5bd 462a 28be dbb5 ecbd e898 a73d
00000300: 83f0 5d3c 42a3 c93d 0fe9 3c3d eb74 d1bd
00000310: 771f f33a dc50 033d 9d84 9dbd f7b1 2abe
00000320: 056d fbbd 7fcd d93d 3fa0 123d 21c4 58bd
00000330: 01f4 053e b653 90bd b584 063e ef1c cf3b
00000340: fb43 d1bb 2235 a3bc 2d76 833d 118c ddbd
00000350: 68b3 d1bc c8f7 a9bc 27a0 ee3d f4c2 5dbd
00000360: 073a 8a3d 6e14 f9bd b45e 173d 3a74 09be
00000370: 5a84 d23b b716 04be 17e8 523e 389f 47be
00000380: 2c7e 17be 5851 13bd 8eec db3d 97cd 833d
00000390: d8cf 0c3d 76fa fabd bf03 323e c966 f83d
000003a0: 8725 65bc a64e 483d b8af b0bd a60f e0bc
000003b0: ca08 2f3e 8196 d03d fe67 08be 2169 b0bd
000003c0: a625 36be f1c7 ed3d 3931 703d b6a0 abbd
000003d0: bd0a 80bd a779 47bd 88c0 8abc 5aea 773d
000003e0: 150d a0bd a2c1 8f3c dd17 38be 1101 dd3d
000003f0: 6371 503d 368f 54be a223 c1bd c8cf 8c3d
0.158766 -0.035227127 -0.123720355 -0.0069158683 0.105784096 0.13529553 -0.076336995 -0.0139597375
-0.1385542 0.06572584 0.019111019 0.049064226 -0.049683344 -0.011713589 -0.009132133 0.10388789
-0.046957713 -0.01312613 -0.016549602 -0.014799863 -0.1250151 0.14802514 -0.058586918 0.06359414
0.12009382 0.05797212 -0.17157783 0.052491184 0.073754095 0.06565822 -0.16900818 0.11149514
-0.13660972 0.043369975 -0.032234672 -0.055518925 -0.21929719 0.23348343 0.020706363 -0.020105183
0.015070693 -0.11129878 -0.10728181 -0.06475474 0.13145289 0.20030811 0.07380926 0.033685256
0.00033465048 0.020246344 -0.09734706 -0.061130773 -0.124425605 0.03470146 0.13382937 0.038849648
-0.031674877 0.057473615 0.06968594 0.06074917 0.035073318 -0.06385952 -0.01820254 0.0667875
0.11708556 0.061462197 -0.02984022 0.15260965 -0.057480853 0.0716499 0.08238698 -0.19325796
0.09375098 -0.022454841 0.010176805 0.01194072 0.09074139 -0.036546953 -0.04755575 -0.1181836
-0.038279913 -0.025972119 -0.08403531 -0.10207073 0.120536916 0.11987033 -0.075348854 -0.10362231
0.032163545 0.13409086 -0.0010966182 0.0067517976 -0.029359713 0.03347929 0.13541107 -0.12071171
0.04639216 -0.117181204 -0.07176112 0.12521069 -0.0027766677 -0.060044326 0.07952613 0.06491551
-0.1634564 0.013417741 -0.11434251 -0.08179006 -0.13983491 0.21828991 0.0009398571 -0.042053033
0.13549507 0.085194714 0.09064793 -0.075322814 -0.09346635 -0.07136785 0.14664808 -0.023952188
0.022829084 0.043531522 -0.10365074 -0.00596342 -0.093025655 -0.054331224 -0.15949243 0.08759659
-0.112760514 0.16231714 -0.031992707 0.055780504 -0.049151942 0.046874944 0.17314239 -0.05008762
0.13730171 -0.093509324 0.003391803 -0.084402554 -0.052434027 0.009827911 0.014863364 0.082270406
0.07769034 0.13201602 -0.15907925 -0.06351458 0.1508717 0.06553655 -0.027686223 -0.011132096
0.1307305 -0.11766124 0.07458417 -0.0056356783 -0.106147915 0.16878587 -0.073543586 0.061933856
0.06945195 -0.106146134 -0.079504095 -0.07215848 0.092381865 -0.030416317 0.1285669 0.07424514
0.0781541 0.051367432 0.17747982 -0.042146258 -0.11382308 0.08301496 0.06489221 0.045033783
0.15846352 -0.026610773 -0.1107014 0.06541774 0.021336166 0.17952983 -0.16753513 0.024813684
-0.08568273 -0.011460932 -0.04717642 0.11107488 -0.104130946 -0.16422376 -0.11558124 0.081834614
0.013546112 0.09845592 0.0461207 -0.102273785 0.0018548806 0.032059535 -0.076913096 -0.1666945
-0.12276653 0.106348984 0.035797354 -0.052921418 0.13081361 -0.070472166 0.13136561 0.006320588
-0.0063862777 -0.019922797 0.064190246 -0.10817731 -0.025598243 -0.020748034 0.116516404 -0.054141
0.06749349 -0.121621 0.03695555 -0.13423243 0.006424469 -0.1289929 0.20596348 -0.19494331
-0.14794225 -0.035966247 0.107384786 0.064356975 0.034377903 -0.12254803 0.17384242 0.1212898
-0.013985998 0.04890313 -0.08627266 -0.027351212 0.17093197 0.10184956 -0.1332092 -0.08613802
-0.17787799 0.116104014 0.058640692 -0.083802626 -0.06252048 -0.0487 -0.01693751 0.06052623
-0.07814995 0.017548386 -0.17977853 0.10791219 0.050889384 -0.20757756 -0.094306245 0.06875569

local_head.bias f4 [64]
00000000: 3b70 c8be 97e7 3d3e 378a bbbd 580b ba3d
00000010: ce4b 91be 006b b2be 0ef6 66be 2975 b4bd
00000020: dc31 173e 0dbf 16be f6c3 1ebe 7293 74be
00000030: a0b5 2dbe c83c 203e 4798 05be 897a 66be
00000040: 911b 99be 72ac d5be 06b7 3dbc 75ba 93bd
00000050: 588a 2cbd 0ebb 54be 498a 5ebc 80c0 2fbe
00000060: 299a 82be 6aae bbbe 90a2 58be 3bb5 22be
00000070: 67d3 a33e ca67 c93d 73a0 843e c918 13be
00000080: 8248 72bd c17a 7ebe bd97 533d 3586 b0bd
00000090: d32a 03bd 9d77 7f3e 68a8 3e3e 1e14 0d3e
000000a0: c73f 253e 1780 2a3e c368 2c3e 7e90 e3bd
000000b0: 89fd 3cbe 0d02 48be 736b 13be 42ad f63d
000000c0: 7ab4 21bd d33c d33d 5ee6 6bbe a941 113e
000000d0: c624 30be 7e93 59be a4f8 eb3c 497b acbd
000000e0: 5074 8b3e dc22 cdbe 53a4 cabd 5b5d 5d3d
000000f0: 5e42 023e 7d62 e5be de5d 3fbe c6c1 aa3e
-0.39148125 0.18545376 -0.09157222 0.09084195 -0.28378147 -0.3484726 -0.225548 -0.08811409
0.14765114 -0.14721318 -0.1550444 -0.23884371 -0.16963816 0.15648186 -0.1304637 -0.22507681
-0.29903844 -0.41733128 -0.011579281 -0.07213298 -0.042124122 -0.2077448 -0.013582774 -0.17163277
-0.2550824 -0.36656505 -0.21155763 -0.15889446 0.31997225 0.09834249 0.25903663 -0.14364924
-0.05915118 -0.24851514 0.05165838 -0.08619348 -0.032023262 0.24947973 0.1861893 0.13777205
0.1613761 0.16650425 0.16836838 -0.11111544 -0.18456091 -0.19532032 -0.14396457 0.12044765
-0.039478756 0.10314336 -0.23037097 0.14185204 -0.17201528 -0.2124767 0.028805085 -0.08421952
0.27237177 -0.40065658 -0.098946236 0.05404411 0.1272063 -0.44801703 -0.18688151 0.33350962

decoder.0.weight f4 [128, 64]
00000000: 3866 a33d 5e7a fc3d fc2c 35bd e5d3 923d
00000010: 355e a2bd 1696 8cbb 4f67 213e dc7f cf3b
00000020: d505 e63d cebd a83c 25ad c7bc 811c 2abd
00000030: 82ac 54bc 8873 363b dde1 343d dba5 fdbc
00000040: e117 d73d 4774 e13d d101 47bd ecb2 efbd
00000050: 3e20 003d ea48 01be 06e5 cd3c c21d 0b3d
00000060: 9e0c f83c 15fc 9ebd 5c97 abbd 584a 993c
00000070: a2e3 463c 38d7 6cbb 7633 293d 2060 be3d
00000080: bedc cbbd 4f30 4a3d 0471 6abd c2c6 143d
00000090: 6d1c 0bbd 999a d33d 80c1 c2bb 9398 cabd
000000a0: 62c2 303d 6ae5 0c3e 6a52 02be 5de5 53bd
000000b0: 4829 e33d 09b7 033d 65f5 87bd 4ccd 863d
000000c0: 5471 d33d 231b 1e3e 668f 383c f81a f43d
000000d0: 7b3c f73d 0002 47bb bffd d03b a6de d3bd
000000e0: 0016 383d f952 3fbd d9b7 90bb 00dc c93d
000000f0: 0312 e9bc ba45 51bc b2da 3fbb 5695 6ebd
00000100: e2e8 06bd 3b23 0c3d b860 293d 0a70 14bd
00000110: 6fe7 683d 03f0 7c3e 9ac1 923d 3872 d1bd
00000120: d207 d23c 4d95 9bbd 33e1 9e3d bbd0 6cbd
00000130: e1a7 55b9 7998 0c3e b09c ad3c 171a 13bd
00000140: cb8e 403d 0a05 c83d cc8b d1bd f558 2ebd
00000150: 6e59 fabb bafc be3d aba5 fcbd 227a 1a3e
00000160: 73bf 2f3d 86ea 373c 7759 f9bb a8d8 013d
00000170: e007 e7bd 8611 123c 8e2e 6e3d 3084 023e
00000180: 7bea 14bc 29cb 703d b05e 763d 13cf 5f3d
00000190: 67a7 85bd 200d 30bd 6b0c dfbd 7012 c13d
000001a0: f7d3 f1bc a186 bf3c cbc8 16bb 9106 3dbd
000001b0: 524d 1b3c 2deb e5bd 3bc7 ca3d 0b2f 253e
000001c0: 97a4 983c a884 d23d e816 2a3e b298 a53b
000001d0: 5b7f 243d 6f43 0abd e44e 73bc 34c0 f7bd
000001e0: 97df 5fbd e09d 11bd e46f 63bd 7ef1 6c3d
000001f0: a383 e23d e878 cb3d cee3 c1bc 1fe6 e5bd
00000200: 7cae dfbb 83aa b23d bc95 a7bd b666 59bd
00000210: 85c4 b6bd 7073 583d d093 4a3e 16f3 4cbe
00000220: 7ed1 02be b5f1 303e 80b4 17be ab5b 163e
00000230: 0c23 223e 41be 8dbd 9fc3 9d3b ef26 15be
00000240: 93cb 033d a4be 1abd a1f0 1a3e dd10 1bbe
00000250: 11f0 be3b 4d59 c9bc 7d85 4cbe 7953 683c
00000260: 6359 f23d 1377 c63d 4d20 263e 851a d33d
00000270: 9110 673d d51a 78bc 4f31 ccbb dd4f b43d
00000280: 025e ffbc c7c8 5c3e 50d2 abbd 6c63 81bc
00000290: 2851 da3d 4540 1bbd e164 353e 920f c4bd
000002a0: aabf 36bc 97e4 9ebd 5399 7cbd 589b 2fbe
000002b0: 53dd d03d 2037 87be aa1c 88bc aca0 04be
000002c0: b49c 963d 5e38 80bd 780c 773c 89a0 893d
000002d0: 2b0b 383e 818d 90bd c420 0fbd 0ae1 4dbd
000002e0: b0c2 03ba 1a8d 00be 3933 a3bd 5224 35bc
000002f0: e438 7dbd 29e6 1f3e e5ea a23c 60c5 c3bc
00000300: f573 9bbd cd98 b0bc 1fc2 1e3d aaef c53d
00000310: fdaf d83c 57c8 6ebd 7913 133e 2ef0 273d
00000320: 1fd5 a7bc 7321 1ebd 4984 4fbd ae44 313c
00000330: 6380 0a3e 4666 563c 4c96 59bd a149 18bc
00000340: 01f6 933d e022 88bd 0cbf 2bbc 0c13 ebbd
00000350: fb8e 193b 4654 2e3c c416 bfbd e18a 26be
00000360: d143 9d3c 5e86 c6bc 049a 9fbd 1133 01bd
00000370: dd2d bb3d f3ed e7bd 0c0f 573b 457a 8fbd
00000380: f1ad b8bd cb0f 133e a31d 87bd a268 993d
00000390: d495 07be befa 8c3d 61de 98bc 40d1 24bd
000003a0: b8ad 873d 7a9b 02bd 2b74 32bd faa7 7fbd
000003b0: 782a cb3d 0140 bdbc 5230 e53d 4909 0fbd
000003c0: 5aa1 07bd 91f6 023d 2f16 023e 4651 86bd
000003d0: a7a8 ff3c 91c8 36bd 1935 a5bd 48a5 033e
000003e0: 2566 b9bd d9d2 f23d 10ac 8d3d 362d 89bd
000003f0: 3bfc 7b3d 0a6a 65bc dbb7 a2bd 8050 553d
0.07978481 0.12328027 -0.044232354 0.07169322 -0.07928125 -0.0042903526 0.15762065 0.0063323807
0.11231581 0.020598318 -0.024374554 -0.04153109 -0.012980582 0.0027839858 0.044160713 -0.030962875
0.105026014 0.11008506 -0.048585717 -0.117040485 0.03128075 -0.12625471 0.025133621 0.033963926
0.030279454 -0.077629246 -0.08378479 0.018712208 0.012139233 -0.0036139023 0.041308843 0.09295678
-0.099542126 0.049362477 -0.057236686 0.036322363 -0.033962656 0.103322215 -0.005943477 -0.098923825
0.043154128 0.1375939 -0.12726751 -0.05173241 0.11091858 0.032156978 -0.06638602 0.06582126
0.1032435 0.1544004 0.011264658 0.119192064 0.120720826 -0.0030366182 0.006377905 -0.10345201
0.044942856 -0.04670999 -0.0044164476 0.09856415 -0.028450971 -0.012772972 -0.002927464 -0.058247887
-0.032936938 0.034213286 0.041352004 -0.03623966 0.056861337 0.24700932 0.07165833 -0.102268636
0.025638495 -0.07596836 0.07757797 -0.05781625 -0.00020375803 0.13730039 0.021192878 -0.035913553
0.047011178 0.09766586 -0.10231742 -0.042565305 -0.0076400554 0.093255475 -0.12336286 0.15085652
0.04290719 0.011225348 -0.007609542 0.03170076 -0.11280799 0.008915311 0.058149867 0.12745738
-0.009089108 0.0587875 0.060148895 0.05464084 -0.0652607 -0.042981267 -0.108910404 0.09427345
-0.029520018 0.023379626 -0.0023007866 -0.04614884 0.009478884 -0.11226497 0.099012814 0.16131227
0.01863317 0.102792084 0.166103 0.005053603 0.04016052 -0.033755716 -0.014850352 -0.12097207
-0.05465659 -0.035550952 -0.05552663 0.057847492 0.11060264 0.099351704 -0.023668196 -0.11225533
-0.00682622 0.08723929 -0.081828564 -0.05307647 -0.08924202 0.052844465 0.19782948 -0.20014605
-0.12775227 0.17279704 -0.14814949 0.14683406 0.15833682 -0.06921054 0.0048145796 -0.14565633
0.032176565 -0.037779465 0.15130855 -0.15143152 0.005826958 -0.024578715 -0.19972797 0.014180058
0.118334554 0.0969068 0.1622326 0.103077926 0.056412283 -0.015143116 -0.006231464 0.08804295
-0.031172756 0.21560965 -0.08389723 -0.015794478 0.106600106 -0.03790309 0.17714263 -0.09573282
-0.011154095 -0.07758444 -0.06166966 -0.17149103 0.10198464 -0.26409245 -0.01661523 -0.12951916
0.073541075 -0.06260751 0.015078656 0.06720073 0.1797301 -0.0705824 -0.034943357 -0.050263442
-0.0005026264 -0.12553826 -0.07968754 -0.011056023 -0.061821833 0.15615143 0.019887397 -0.023897827
-0.075904764 -0.021557236 0.038759347 0.09664853 0.026451105 -0.058296528 0.14362897 0.041000538
-0.020487366 -0.03860612 -0.050663266 0.010819597 0.13525538 0.013085907 -0.05312185 -0.009294898
0.07224656 -0.06647277 -0.010482561 -0.11478242 0.002343117 0.01064021 -0.09330514 -0.16263916
0.019197376 -0.024233993 -0.07793048 -0.03154284 0.09139607 -0.11324682 0.0032815365 -0.07005743
-0.09017552 0.14361493 -0.0659745 0.0749066 -0.13240749 0.06883763 -0.018660726 -0.04023862
0.06624931 -0.031886555 -0.043567818 -0.062416054 0.0992021 -0.023101809 0.11190857 -0.034920964
-0.03311286 0.031973425 0.12703775 -0.065584704 0.03120835 -0.04462487 -0.08066768 0.12856019
-0.09052686 0.11856622 0.06917584 -0.066980764 0.061519843 -0.014002332 -0.07945224 0.052078724

decoder.0.bias f4 [128]
00000000: 4bd0 3ebe b302 243d 8f49 af3d 3f09 8a3d
00000010: a1d8 c73e 624e 9bbd ed18 ac3e b0ce b23d
00000020: 486e e23e 39ef 14bd 74e1 d93c 6aa9 f43d
00000030: d240 04be 35c0 a2bd bd52 50bd e297 143e
00000040: e4d3 d23d 1f59 14be cb83 ff3d cb70 9ebd
00000050: d6ac 663e cf10 0b3e dd97 f6bd f47c 6abd
00000060: 981f 883c 658f 57bd 79b9 bc3e 43ba 783d
00000070: 70a0 1d3e 0f8c c3bd bf6e 2ebe 17e4 173e
00000080: 5938 0cbe f21d 88bd 7053 77be 36a9 c2bd
00000090: 552e 213d e049 69bc f839 083e 14a0 7c3b
000000a0: 0932 4e3d 0209 bfbd e216 5b3e b3cd 49bd
000000b0: 16c0 97bd 05ee 81be 9490 6ebd 2bf9 88be
000000c0: 57f6 c1bd 0d72 a0bd c63b 5d3d 3060 06be
000000d0: 39d4 673d d182 ccbd 5ee5 2abe f4ca 91be
000000e0: 6520 85ba 8878 333d a141 c23d d90c 2abe
000000f0: b13d b33c 0e15 343e 1536 ebbe b339 703e
00000100: 8291 fcbc 88e2 163d d22b 07be 773c 173d
00000110: 5230 df3d e70f 473e 0a35 1a3e 390d 223d
00000120: 2a37 573e f9f5 693c bc9e f7bb 3703 b33d
00000130: de28 af3d 166f 973c 013d 7e3a 5472 103e
00000140: 8f65 6c3e a3e1 043e 591b 89bd 75d9 3bbe
00000150: 0c80 9fbd 4514 9b3b 3560 1e3e d6e1 313b
00000160: 6f31 2ebe a059 16be 5016 94bd 7945 aebc
00000170: cb6a 2cbe 9638 66be 5f19 b6bd 1f36 0b3e
00000180: b0b7 9c3d fa8d f2bc a33f 0c3d 650f 073e
00000190: 2f2e 9b3c 41b6 653d c201 7a3d 91be 99b9
000001a0: 4419 b43b f7b5 023e 8378 0e3d ff79 8abd
000001b0: 68a2 333e 45ff 50bb affc 2bbd e875 943e
000001c0: 6258 1bbe 16cf babd fffb 913c 4647 13be
000001d0: 922d 4e3e 0696 95bd bebe f0bc 3916 bc3e
000001e0: 6ef9 1c3e efdc d2bd 756c 043f b825 1abd
000001f0: 22c4 c73d 0b31 173d 876e 923e 6886 f9ba
-0.18634145 0.040041637 0.08558952 0.06740045 0.39032462 -0.0758331 0.33612767 0.08730829
0.44224763 -0.036360953 0.026596762 0.11946376 -0.12915352 -0.07946817 -0.050860155 0.14511064
0.10294321 -0.14487122 0.124763094 -0.07736357 0.22526869 0.1358063 -0.12040684 -0.05724807
0.016616628 -0.052626986 0.36860254 0.060724508 0.15393233 -0.095481984 -0.17034434 0.14833103
-0.1369337 -0.066463366 -0.24152923 -0.09504931 0.039350826 -0.014238805 0.13303363 0.0038547562
0.050340686 -0.0932789 0.21395448 -0.049268436 -0.07409684 -0.25376907 -0.05824335 -0.267526
-0.09470814 -0.078342535 0.054012083 -0.1312263 0.056598876 -0.09985889 -0.16689059 -0.28475153
-0.0010156749 0.04381612 0.09485174 -0.16606463 0.021880003 0.17586157 -0.459397 0.2345951
-0.030831102 0.03683713 -0.1320031 0.0369229 0.10897888 0.1943966 0.15059295 0.03956339
0.21017137 0.014279836 -0.0075567644 0.087408476 0.08552717 0.018485587 0.00096984213 0.14106113
0.23085617 0.12976699 -0.06694669 -0.18344672 -0.07788095 0.004732641 0.15466388 0.0027142665
-0.17011045 -0.14682627 -0.07230818 -0.021273362 -0.16837613 -0.22482523 -0.08891558 0.13594864
0.07652223 -0.029608715 0.034240376 0.13189466 0.01894292 0.056082014 0.061036833 -0.00029324417
0.005496176 0.12764727 0.034782898 -0.0676155 0.17542422 -0.0031890434 -0.041989025 0.28996205
-0.15170434 -0.0912153 0.017820356 -0.14382657 0.20134571 -0.07304005 -0.029387828 0.36735705
0.15329525 -0.10296046 0.5172799 -0.037633628 0.09754206 0.036912005 0.2859995 -0.0019037249

decoder.2.weight f4 [1, 128]
00000000: 00a1 bfbb a568 873c 7f6f 243e 3996 f5bb
00000010: d929 72bd cdc7 a23c 2c1c 48bc 5374 23bb
00000020: da12 68bd 8cd6 3d3d ec95 a7bc 5cf5 793d
00000030: ef4c 49bc 4f5b b4bb 529a 2cbb bc1d bebb
00000040: e7ea 4b3b 31e2 443c 5d2e b53b 8b37 2abb
00000050: 05b6 debd 6d4a 0c3d 9524 2d3c 9c94 003a
00000060: d283 deba 6d32 b8bb 1377 88bd 70ea 37bd
00000070: 0f6e dbbc ae60 753d f41a 1fbd 06e4 393d
00000080: 95f0 4b3b 146c 403c 4b84 813c 107b a53b
00000090: 7519 11bd 670a ac3a 8035 b43a 4a86 7bbd
000000a0: bae1 003d e27a 4d3d d1e5 96ba b26a 533c
000000b0: 3205 3fbc 9625 a63c d2fa fe3c 9463 17bd
000000c0: 1049 15ba 93a1 6abc add0 4839 ba37 9b3b
000000d0: 9aaf e73c 0857 ca3c 1d57 0cbd 7c2f d73b
000000e0: c9da cb3c 803f 1a3c ad6b 463c 30e6 59bd
000000f0: e56d 633d 62fb 44ba faed 713d 58d3 85bc
00000100: d31b da3b c1c9 1cbd b936 2fbb 1660 4e3c
00000110: 1173 b53c 0d34 91bd 1959 abbd 758b 473c
00000120: 583d 27bb a48d 1fbc dea6 fc3c c61c e7bb
00000130: 5bed ce3a e7d8 813c 5022 693c e9ba a6bd
00000140: 4aaf 88bc e0d1 18bc 8387 b63c 2c3d 4fbd
00000150: d370 2bbb 1f95 9e3d afec 2b3e c0ad eabc
00000160: 53d2 973c 4f1b 86bc 5da7 b0bc 9d40 27be
00000170: edfa 2c3c 3bd0 dfbc d3d5 efba e399 9738
00000180: 4e59 ad3b 4213 753b 4d7f 8fbc 41dc 21bd
00000190: d773 c83c 29eb 1b3b 36a7 9c3b a1ec a0bc
000001a0: f13a 4c3d 3b8d d2bb 6c86 0c3c cee2 0abd
000001b0: ccf0 bcbd bf4c 613c c064 273a 50ba ccbd
000001c0: f274 8c3b 7c3e dd3b 4429 593d 1e7f ed3a
000001d0: ca66 91ba 57c0 19ba 3544 e3bd bd0e f2bc
000001e0: 38d5 183d 7759 1c3b 8545 65bd 263a 92bc
000001f0: 1bb0 803d 15ec 283c 2f79 30bd 1c07 74bd
-0.00584805 0.01652939 0.16058157 -0.0074947146 -0.05912194 0.019870663 -0.012213748 -0.002494116
-0.056658603 0.046347186 -0.02045723 0.06102501 -0.012286409 -0.005504049 -0.00263371 -0.0058018845
0.0031115355 0.012016819 0.0055292086 -0.0025973048 -0.10874561 0.034250665 0.010567804 0.0004904957
-0.0016976541 -0.0056212456 -0.066633366 -0.04490131 -0.026785878 0.059906654 -0.038844064 0.045383476
0.003111874 0.011744518 0.015810153 0.0050500706 -0.03542467 0.0013125659 0.0013748854 -0.061407365
0.03146527 0.05016602 -0.0011512582 0.012903856 -0.0116589535 0.020281594 0.03112546 -0.0369602
-0.0005694786 -0.014320749 0.00019151224 0.0047368677 0.028281976 0.024699703 -0.034262765 0.00656694
0.024884598 0.009414554 0.012110633 -0.05319804 0.055524725 -0.00075142656 0.059064843 -0.016336128
0.006656149 -0.038278345 -0.0026735498 0.012596151 0.022149595 -0.07090006 -0.083666034 0.012179245
-0.0025518741 -0.00973836 0.030841287 -0.0070529906 0.001578729 0.015850497 0.014229372 -0.08141119
-0.016685147 -0.009327382 0.022281414 -0.050595447 -0.0026159778 0.07743286 0.16789506 -0.028647304
0.018532908 -0.016370444 -0.02156418 -0.16333242 0.010557872 -0.027320972 -0.0018297978 7.228905e-05
0.005290187 0.0037395512 -0.017516756 -0.03951669 0.0244693 0.002379129 0.0047806753 -0.019644083
0.0498609 -0.0064255274 0.008576971 -0.033907704 -0.09225616 0.013751208 0.00063855574 -0.09996474
0.004286402 0.0067518335 0.05301787 0.0018119549 -0.0011093256 -0.00058651477 -0.11096994 -0.029548043
0.037312716 0.0023857036 -0.055974502 -0.017849993 0.062835895 0.010310193 -0.04308432 -0.059577093
