checkpoints/sketch_prediction/SBGCN_model.pth (torch, 58936 bytes, 18 tensors)

embed_f_in.f.0.weight f4 [32, 4]
000000 00 37 5d be 20 5b 3a 3e d4 29 b4 be 37 f4 94 bd
       -0.21603012 0.18198824 -0.35188162 -0.07273143
000010 76 51 3c be e9 c7 cd 3c e1 9d e3 bd 57 cf 16 3c
       -0.1839045 0.025119739 -0.111140974 0.009204707
000020 8d eb a8 3e 77 3b e1 be 25 b1 d0 be 7e 36 e0 3e
       0.3299221 -0.4399068 -0.4076015 0.43791574
000030 d3 c5 54 be e1 0a 14 3f 77 c5 8e 3d 7f aa 1d bf
       -0.20778589 0.578291 0.06971257 -0.6158828
000040 15 ac a3 be d9 de a5 3e 35 b9 ac be f4 3a 8a bc
       -0.31967226 0.32396582 -0.33735052 -0.016873814
000050 44 90 11 be 80 99 c8 be d7 b9 ba 3c ef 60 17 bd
       -0.14215189 -0.3917961 0.022793693 -0.036957677
000060 11 b6 b0 be c5 58 d1 3e 1e 0f 07 be 67 6e 3b 3e
       -0.34513906 0.40888038 -0.1318936 0.18303834
000070 61 2b 8c 3c e5 fe ec 3e 24 b3 03 3e dd 52 bd be
       0.017110528 0.4628822 0.12861305 -0.36977282
000080 a1 d7 8e be 53 1b 8c be 3d b3 8f 3e 3e da d6 3d
       -0.27898887 -0.27364597 0.28066435 0.10490845
000090 fa cc 9c bd 12 b0 9d 3e ca 9e 8c 3e 72 5f c9 3e
       -0.07656284 0.30798393 0.27464896 0.39330631
0000a0 a1 5d fc be 9c e9 af 3d 2f dd bf 3e 9c bf eb be
       -0.49290183 0.08589479 0.37473437 -0.46044624
0000b0 4d a8 0c 3e 3a 7f a8 3e 28 d8 8e bd 7b 4c c6 3e
       0.13736077 0.32909566 -0.06974822 0.38730225
0000c0 97 b8 31 3e 37 cb 0a bd 24 25 0e 3e ad 3e 91 3e
       0.17355572 -0.033885207 0.13881356 0.2836813
0000d0 7b c7 92 be 65 46 11 be dd 22 d2 be a4 d8 9d bc
       -0.28667817 -0.1418701 -0.41042224 -0.019268341
0000e0 57 f4 a5 3e 9f 91 00 be 71 83 4a bc 2f b3 8b be
       0.3241298 -0.1255555 -0.01236044 -0.27285144
0000f0 d4 05 e7 be 23 f5 b0 be 39 87 d3 be cb 1f ab be
       -0.45121634 -0.34562024 -0.41314104 -0.33422694
000100 5d 7f 0d 3f 65 a5 c0 be 5a 72 de be e1 68 8e be
       0.55272466 -0.37626186 -0.43446618 -0.2781439
000110 a2 b3 8e be 23 35 84 3d 0f 65 be be 28 85 be 3e
       -0.27871424 0.064554475 -0.37186477 0.37210965
000120 eb b5 80 3e 30 7b d7 3d 05 1a f3 be e0 92 eb bc
       0.25138792 0.10521543 -0.4748079 -0.028756559
000130 ae 7f 02 be b3 6f ba 3e af 6d 89 3e cf 42 d9 3e
       -0.12744018 0.36413345 0.26841494 0.42433783
000140 e1 b0 3a bd 3a a4 3e 3e 45 92 f1 3e dd 43 9e 3e
       -0.04557884 0.18617335 0.47181907 0.3091115
000150 9e 62 07 be e2 3f ea 3c af 8b c9 3e 9c 62 b1 bd
       -0.13221213 0.028594915 0.39364383 -0.08661386
000160 58 4f c4 3e 3d 99 91 be 5b 85 98 3d 64 7a d5 3d
       0.38341784 -0.28437224 0.074473105 0.10423735
000170 9a d1 97 bd d6 a9 b8 be 8e 70 8b 3d af 0a 99 3e
       -0.07413025 -0.36067075 0.068085775 0.29890963
000180 0a fd c1 3b d4 db 72 3d b9 fe 17 3f e9 75 10 3f
       0.005920057 0.059291676 0.5937305 0.56429917
000190 e0 7d 13 be 9b 50 21 3e cb aa 01 bf 1d aa c6 bd
       -0.14403486 0.15753405 -0.50651234 -0.09700415
0001a0 15 fb a6 3e 4e 4d 14 bf 8a e9 b2 3e 53 d1 dd be
       0.32613435 -0.5793046 0.349438 -0.43323764
0001b0 d8 e8 1b bf ca 1f 7f 3d 41 a6 7a be f0 21 f3 bc
       -0.60902166 0.062286176 -0.24477483 -0.029679269
0001c0 03 90 08 bc 62 f7 df 3e c2 08 18 3c 37 6a cd 3e
       -0.008335116 0.43743426 0.009279432 0.40120098
0001d0 b8 b9 cf 3e 07 88 03 3d f9 29 04 3f 9c 8b 6a bb
       0.4057138 0.032112148 0.51626545 -0.003578878
0001e0 c9 0c 25 3e 73 0f 46 be 06 ba 74 3d 9d 4b cb bd
       0.16118158 -0.19341831 0.05974772 -0.099265315
0001f0 69 4a 9d be 8f ad 48 3e ea 91 b8 be 1c d6 91 bd
       -0.30720833 0.19597457 -0.36048824 -0.07120916

embed_f_in.f.0.bias f4 [32]
000000 16 72 0f bf e3 33 55 be c6 46 a8 3c 69 da fe be
       -0.56033456 -0.20820574 0.02054156 -0.4977601
000010 21 49 2d bf ab 6e 34 3d f8 f6 0c bf fa f1 96 be
       -0.6768971 0.044050854 -0.55064344 -0.29481488
000020 bf e8 31 3f dd c2 3a be 9f e3 af bd 8f 15 d8 be
       0.6949577 -0.18238397 -0.08588337 -0.42203948
000030 88 68 23 bf 69 f9 bc be 68 18 02 3f 1f b5 c8 3e
       -0.6383138 -0.36909035 0.5081849 0.39200684
000040 0c 66 40 bd 45 ee 22 bf 09 ba b9 be bc 98 ce be
       -0.04697232 -0.6364482 -0.36274746 -0.40350902
000050 84 a0 a1 be 3b a9 85 3e e4 27 36 bf d4 dc ec 3d
       -0.31567776 0.26105675 -0.7115462 0.11565557
000060 87 c1 86 be 01 bc 2c bf 48 25 d3 3e a3 19 10 bf
       -0.26319525 -0.6747437 0.4123938 -0.5628912
000070 01 75 0e bf 9c dd 4b be 30 24 eb be 0c a4 0a bf
       -0.55647284 -0.19908756 -0.45926046 -0.54156566

embed_e_in.f.0.weight f4 [32, 6]
000000 26 3f 85 3d 21 b1 05 be c4 5e 9f 3d 37 64 85 bd
       0.06506185 -0.1305585 0.07781747 -0.06513255
000010 75 82 0b 3e d7 66 c8 bd e4 ab 8a 3c 9d 0c c8 bd
       0.13623984 -0.0978524 0.016927667 -0.09768031
000020 fc 72 cc bc 78 c4 13 bd 95 18 b4 3d 1b a3 0f bb
       -0.024957173 -0.03607604 0.08793751 -0.0021917287
000030 a7 66 cc bd 1f a8 44 be 54 ea 87 3e d1 18 9d 3d
       -0.09980517 -0.19204758 0.26545966 0.07670749
000040 e9 62 39 3e 3c 32 b7 be 83 16 fe 3c 15 01 9d be
       0.18104137 -0.35780513 0.031016594 -0.30664888
000050 9e d3 b9 be b4 12 b7 bd 08 61 85 3e 82 6d 96 3e
       -0.36294264 -0.08939114 0.2605059 0.29380423
000060 37 4c b4 3d bb 7a 66 be ca 3f 2e 3e b9 66 fc bd
       0.08803599 -0.22507755 0.17016521 -0.1232428
000070 17 6e 0c 3e b2 b9 1a bd 17 21 48 3e 91 8d 42 3e
       0.13713871 -0.03777475 0.19543873 0.18999316
000080 ae d7 9f bc b5 ca 2d be 79 60 45 be a4 33 ef bd
       -0.019512024 -0.16971858 -0.19275083 -0.116797715
000090 1d 72 94 3e 34 e7 a0 3e 73 19 ba 3e 0f c5 79 be
       0.28993312 0.31426394 0.3634754 -0.24391578
0000a0 36 ac 05 be 39 54 76 be 22 c4 52 bd c7 9e ca bd
       -0.13053975 -0.24055566 -0.051456578 -0.098935656
0000b0 af f2 64 3e 6b 04 d2 3d a7 ed 8e 3d 5d 43 54 be
       0.22358201 0.10254749 0.06978922 -0.20728822
0000c0 1f 74 94 be 9e 0f 13 3e 74 4f 76 be b0 37 5f 3e
       -0.28994843 0.14361426 -0.24053746 0.21798587
0000d0 95 a0 7e be 88 30 b8 3e b4 12 41 be ab 4b 37 3d
       -0.24865945 0.35974526 -0.18854791 0.044749897
0000e0 9e 16 2c 3d 90 72 4f 3e f9 ab 46 bd 84 f7 49 bd
       0.042013757 0.20258546 -0.04850385 -0.049308315
0000f0 13 53 de 3d f5 3f ac bd fa 7e fd bd 31 99 86 be
       0.10855689 -0.08410636 -0.123777345 -0.2628875
000100 5b dc 3e 3d 86 70 38 3e a6 09 fa 3d cd 9e 15 be
       0.046596866 0.18011674 0.122088715 -0.14611359
000110 f6 7b 92 3e 24 91 f0 bd 93 79 29 3e 71 9a 8d be
       0.286102 -0.117464334 0.16550283 -0.27656892
000120 2d a9 9e bd 78 37 5d bd 8e ae 81 3d 76 7f af bc
       -0.077471115 -0.054007977 0.06332122 -0.021423083
000130 d4 f4 37 bd 4a f3 9c 3d e0 bd e0 3d 6a ae 72 3e
       -0.04491122 0.07663591 0.10973716 0.23699346
000140 3d b0 06 be 0f 91 f8 bd fa 83 a3 be 6b 75 75 3e
       -0.13153167 -0.12137043 -0.31936628 0.23970573
000150 38 c7 20 39 b8 b4 a1 3e bd 1a 16 3e 02 f8 e0 3c
       0.00015333004 0.3158319 0.14658637 0.02746201
000160 75 2d a3 be 7c ee 0d be 7f 16 74 bc 3c a7 d5 bd
       -0.31870618 -0.13860506 -0.014897942 -0.10432288
000170 d5 ab 1b 3e f0 c8 bb bd 1e be 96 bb 4e 9f 51 bd
       0.15202267 -0.09169185 -0.0046003005 -0.051177315
000180 d2 84 84 be 71 9f 05 be 21 20 c5 bd 26 7b 85 3e
       -0.25882584 -0.13049103 -0.09625269 0.26070517
000190 f8 74 04 3e 48 dc 05 3e 04 1e d6 3c b8 cd 77 3c
       0.12935245 0.13072312 0.02613736 0.015124731
0001a0 27 3b 5b 3e bf d0 b6 bd 08 03 d5 3c e2 7d 42 be
       0.21409284 -0.08926534 0.026002422 -0.18993333
0001b0 a0 6b d4 3d 9c 71 73 be 5c fb d2 bd ca 3d cd bd
       0.1037209 -0.23773807 -0.10301849 -0.10021551
0001c0 1a 99 45 3e 52 41 c3 3d 65 59 20 3e 4b a1 96 be
       0.19296685 0.09533943 0.15659101 -0.29419932
0001d0 c1 91 14 3d 7a 18 14 be 69 9e 9e 3e 83 8d 3a 3d
       0.036271814 -0.14462462 0.30980232 0.045545112
0001e0 bd df aa 3e 5a 52 cf bd 94 98 ea 3d 57 7b df be
       0.33373824 -0.10123129 0.11454883 -0.43648788
0001f0 27 92 46 3d 69 1d 46 be a9 13 c6 3d 1d b5 d7 be
       0.048479225 -0.19347157 0.096717186 -0.42130366
000200 33 45 2b be df 99 23 be 2e 79 1a 3e 5f 28 00 3e
       -0.16725616 -0.15976666 0.15085289 0.125154
000210 98 62 18 3e 48 6e b3 3e ba 8b 79 be 6e 98 36 be
       0.1488136 0.35045075 -0.24369708 -0.17831585
000220 35 60 95 bd 84 64 ae 3d 49 9a bd 3d a6 39 09 be
       -0.07293741 0.085152656 0.09257943 -0.13400897
000230 99 37 03 3e 31 4f fe 3d f0 4b 5a 3d 2e 5e 83 be
       0.12814178 0.12417448 0.053295076 -0.2565779
000240 45 b1 d6 3d d0 0c 6d 3e f5 f6 83 be 08 9f 1d 3d
       0.1048303 0.23149419 -0.2577435 0.038481742
000250 14 d1 7f be 84 4d 7c 3e c9 77 e2 bd 68 7e c1 3d
       -0.249821 0.24638945 -0.110580035 0.09447938
000260 17 4f 3d 3e 66 c4 4d 3e d8 60 4c be b5 63 53 be
       0.18487202 0.20094451 -0.19958818 -0.20643504
000270 50 af 66 be c0 f3 a5 3c 6f 50 a8 be 64 a4 59 3e
       -0.22527814 0.02025783 -0.32873866 0.21254116
000280 50 11 c8 3b 99 dd a6 3e 95 a9 02 be 01 e2 e6 bd
       0.0061055794 0.3259094 -0.12760003 -0.112735756
000290 77 bb e4 3d 31 fe 4e bc e9 6f cc bd f0 48 bf bc
       0.111685686 -0.012633846 -0.09982283 -0.023350209
0002a0 28 21 5c bd a2 2f a1 3d 9d 12 32 bd 6d 73 2e bc
       -0.053742558 0.07870413 -0.043474782 -0.010647637
0002b0 09 84 99 3c 7b bd 6e bd 8e 5b b8 3d c2 77 41 be
       0.018739717 -0.05828617 0.09001838 -0.1889334
0002c0 47 89 91 3b 74 6d 0f bd d4 90 1e bd b6 48 0e 3e
       0.0044414136 -0.035016492 -0.038712338 0.13894925
0002d0 4f 50 b7 3d 26 3f 67 3d 57 69 2c 3c ab 3e b0 bd
       0.089508645 0.056456707 0.010523162 -0.08605703
0002e0 55 e7 9c 3d 73 69 6a 3d 65 b6 83 bd 08 26 42 be
       0.076613106 0.05722947 -0.06431273 -0.1895982
0002f0 58 c7 a1 be 00 37 1c 3e 45 a7 a9 3e ac 03 c3 3e
       -0.315974 0.15255356 0.3313543 0.3808874

embed_e_in.f.0.bias f4 [32]
000000 4b 59 09 be 0b 42 08 bf e7 53 30 3e ba 26 a7 be
       -0.13412969 -0.53225774 0.17219506 -0.32646734
000010 68 82 18 bf a9 e8 96 be 55 34 a3 be 72 2e 94 3e
       -0.59573984 -0.2947438 -0.31875864 0.28941685
000020 5d cb 1b bc d4 d6 8a be ad 3e c4 be bd 4f 2b bf
       -0.009508935 -0.27117026 -0.38329068 -0.66918546
000030 65 0e 5b be 7c a4 9a be bc 59 36 bf 64 25 04 bf
       -0.2139221 -0.30203617 -0.71230674 -0.51619554
000040 9d c4 cf be 0c 58 f1 be 38 d9 16 bf 78 d9 84 3e
       -0.40579692 -0.47137487 -0.589252 0.25947165
000050 60 06 e5 bd 85 ed 8d 3c 2c 04 9f 3c 42 28 d5 bd
       -0.111828566 0.017325172 0.019411169 -0.10408069
000060 8b c1 99 3e fc 13 2e 3e a9 c0 fd be 43 85 9d 3e
       0.30030474 0.16999811 -0.4956105 0.30765733
000070 e0 ce e6 be 76 32 a1 bd fd 12 27 3c 5e d1 9a 3d
       -0.45079708 -0.07870953 0.010197398 0.07559465

embed_v_in.f.0.weight f4 [32, 3]
000000 03 7e 22 be 67 47 21 be 1a 92 1b 3c 4b c6 9d 3d
       -0.15868382 -0.15749894 0.009495283 0.07703837
000010 9d 19 e3 bd a1 38 8e bc 36 d5 d4 be 4b b2 ef bd
       -0.1108887 -0.017360987 -0.41568917 -0.117039286
000020 8a 74 8e 3e 49 e1 fc bc c1 40 73 b9 65 2b f4 3b
       0.27823287 -0.030869143 -0.00023198409 0.007451462
000030 05 6c 44 ba 2e ae f5 bd 89 a6 1f be d3 39 8c 3e
       -0.0007492903 -0.11996113 -0.15590872 0.27387866
000040 ff 9f 44 3d 74 18 53 be c7 18 be 3e 57 d6 f7 3d
       0.048004147 -0.20614797 0.3712828 0.12101429
000050 90 93 cf be 8e dc bf bc 7f 54 72 be ae 2b af be
       -0.4054227 -0.023420598 -0.23665045 -0.34213012
000060 91 4b cd 3d db cb e0 bd 98 f8 43 3e a6 12 4f 3c
       0.10024179 -0.10976382 0.191378 0.0126387235
000070 b3 bb 8e ba c4 dd 22 bc 9d 4b 76 be 7b 25 bc be
       -0.0010889679 -0.009940568 -0.24052282 -0.36747345
000080 d1 47 fa bd 9a 2f 10 bd e0 6a 9c 3c 89 6d c0 3c
       -0.12220729 -0.035201646 0.01909393 0.02348973
000090 c4 d5 dd bd 51 84 aa 3d 53 28 ee bd 5a a6 61 3e
       -0.10831788 0.083260186 -0.11628785 0.22036114
0000a0 98 5e 14 be 8d 8b 5a be 65 60 84 bd 4e 0b 1f 3e
       -0.1448921 -0.21342297 -0.06463698 0.15531656
0000b0 53 b8 6d bd 54 7b fd bc 5e 4b 31 bd 64 46 93 3c
       -0.058037113 -0.030942596 -0.043284766 0.0179779
0000c0 12 19 63 3e ee 65 b2 3e 0b 65 41 3e 5d ca b5 bd
       0.22177532 0.3484339 0.18886201 -0.08876488
0000d0 3c 41 2e 3e 9c fe 83 bd 3d c3 12 3e 92 0d fc 3d
       0.17017072 -0.06445047 0.1433229 0.12307276
0000e0 86 8a 70 3d 8b e7 91 3b 6b 9c 54 bd 5e 5e 9c bb
       0.058725856 0.004452651 -0.051906984 -0.0047719916
0000f0 6a 59 27 be 1f 50 e3 be 61 f9 24 3d 6b 64 1d be
       -0.16342703 -0.44397065 0.04027689 -0.15370338
000100 3d c7 21 be e2 cf 0e 3e 6a 18 72 3e 19 f8 39 be
       -0.1579866 0.13946488 0.23642126 -0.18161048
000110 1e 81 de 3b bc 65 05 3f 5a e7 4d 3e e0 0f 8b 3d
       0.0067902943 0.5210836 0.20107785 0.06790137
000120 09 00 ad 3d 56 54 7d 3e 04 d4 a9 be 0b 7b 8d 3d
       0.08447272 0.24739203 -0.33169568 0.06908234
000130 bc 2f b2 bd 52 03 b1 be 35 9f 72 3d b1 7c f1 bc
       -0.08700511 -0.34572846 0.059233863 -0.029478403
000140 b1 c6 a8 3e 33 f1 39 bd e1 80 13 be e7 7a a6 3e
       0.3296409 -0.04539604 -0.14404632 0.32515642
000150 f9 32 fb 3c 79 f8 b8 bd c1 9f 3e be 46 e8 57 3e
       0.030663954 -0.090317674 -0.18615629 0.21084699
000160 4c 3e 24 3e 52 43 a0 3d 8c b7 ea 3d e1 ff f5 3d
       0.1603939 0.0782534 0.1146079 0.12011696
000170 23 db 94 3c e0 f3 77 3e 01 4c 93 3d b4 ec c4 bc
       0.018170899 0.24214125 0.07192231 -0.02403865

embed_v_in.f.0.bias f4 [32]
000000 a3 f4 ef bd fd d7 27 3e f2 c4 15 3e 6d 3f 03 bf
       -0.117165826 0.16390987 0.1462591 -0.51268655
000010 10 6f 4e bf 58 45 7b 3e 30 ce 86 be 3a 44 3d be
       -0.8063822 0.24538171 -0.26329184 -0.18483058
000020 72 f2 3f 3f 93 ab 72 be af cf ee 3e 73 f8 d9 3e
       0.7497932 -0.23698263 0.46642825 0.42572364
000030 9c ab e4 3c e6 de 92 3e cb a3 03 3f 1e ef e4 3e
       0.027913861 0.28685683 0.51421803 0.44713682
000040 11 55 34 3e eb 3a f0 3e 18 7e f3 3e ac dc 17 be
       0.17610575 0.4691995 0.4755714 -0.14830273
000050 c4 65 44 3f eb c0 09 bf 44 aa c2 be 27 7b 09 3f
       0.7671778 -0.53809994 -0.38020527 0.5370354
000060 9c ba f7 3e 5e 67 5e bf 97 3b 77 3f 10 b7 30 bf
       0.4838456 -0.86876476 0.965753 -0.6902933
000070 39 f1 09 bf 7d 0b b1 3e 5b 4d 8f 3c 70 53 c4 be
       -0.538837 0.34579077 0.01749294 -0.38344908

F2E.mlp.f.0.weight f4 [32, 64]
000000 e2 00 62 be 77 25 3b be 65 40 29 be d9 61 6a be
       -0.2207065 -0.1827601 -0.16528471 -0.22888888
000010 d0 7d c5 bd 82 72 4b be 82 0d a9 bd 1b c0 5f bd
       -0.096431375 -0.198679 -0.082545295 -0.054626565
000020 f4 60 cc bd 36 55 e0 bd 9d d8 60 3d d4 56 17 3e
       -0.0997943 -0.10953753 0.05489408 0.14779216
000030 5b e5 f6 bb 28 e2 d9 bd f8 00 bf 3d d1 78 8a bb
       -0.0075346655 -0.10638839 0.09326357 -0.004225828
000040 fb 6d 4a be b7 85 74 3d 9d 77 dc 3d 6d af 1f be
       -0.19768517 0.059697833 0.10765002 -0.15594263
000050 61 7d a5 bd 5f a2 18 be e2 cd 93 be a1 f7 25 be
       -0.08080555 -0.1490569 -0.28868014 -0.16207744
000060 51 d9 89 bd 23 59 0d be b2 f0 75 be 83 bb 28 be
       -0.06730903 -0.13803534 -0.24017599 -0.1647778
000070 7f ff 02 be f1 18 c1 bd 3d 78 41 be f4 0e 42 be
       -0.12792777 -0.09428585 -0.18893524 -0.18951017
000080 f6 f9 1c be 1f 18 0f 3e d3 a0 50 be d1 58 ba bd
       -0.15329728 0.13974045 -0.2037385 -0.09098972
000090 a5 b9 76 3e fa 0d ce bc 7b 1b 1b 3d 4f f1 dc bc
       0.24094255 -0.025153149 0.037868004 -0.026970534
0000a0 53 00 71 bd f9 7e 37 bc 10 90 66 bd b3 32 a9 3c
       -0.0588382 -0.011199706 -0.056289732 0.020654058
0000b0 78 76 80 bd 29 2d d8 bb c2 55 0f 3e fa ae 60 3e
       -0.06272596 -0.0065971804 0.13997558 0.21941748
0000c0 b6 c6 9f bd 81 20 63 3e 6c 9a c3 3d 3f 7a b7 bc
       -0.07801573 0.22180368 0.09550938 -0.022397159
0000d0 d8 77 61 be 05 51 3b be 12 27 fc bd c1 3e f3 bd
       -0.22018373 -0.18292625 -0.123121396 -0.11877204
0000e0 b8 d2 b9 bd 08 de 4e bd 5d 45 64 be 38 38 b8 be
       -0.090733945 -0.050504714 -0.22292085 -0.35980392
0000f0 2a 5b 5c be 34 78 8c bd 4a 2b 28 3b 53 af ad bd
       -0.21519151 -0.068588644 0.0025660568 -0.08480706
000100 34 96 2e bd 42 8e 12 be 2d f5 64 be 92 36 0c bd
       -0.042623714 -0.1431208 -0.22359152 -0.03423173
000110 13 40 b4 bb 8b 30 31 3d 89 b0 34 be 7b 0b 59 be
       -0.0055008023 0.043259185 -0.17645468 -0.21195786
000120 19 b1 8f bd 2e 0d bf bd 47 2e cd 3c 11 58 ba 3d
       -0.070162006 -0.09328686 0.02504648 0.090988286
000130 67 a9 81 be 06 2d 35 be 57 fe ea bd e7 53 c2 3d
       -0.25324556 -0.17692956 -0.11474293 0.09488659
000140 6e 25 1b 3d 1d fa 03 3e 9d 13 68 3d ce 63 fb bb
       0.037877493 0.1288838 0.05665933 -0.0076718098
000150 49 95 c9 3c 0e d2 0d be e0 8b 49 be 52 99 e6 bd
       0.024607318 -0.13849661 -0.19682264 -0.11259712
000160 99 73 59 be c5 53 86 be 43 ab db bd 19 ec 9b be
       -0.21235503 -0.26235786 -0.10726025 -0.30453566
000170 54 85 11 3d 0b 15 80 3d 5d 30 58 be 7a f6 cd bd
       0.035527542 0.06254014 -0.21112199 -0.10056777
000180 7c 4b 77 bd 3e 49 3c be 7e f3 31 be ee 5c 03 bd
       -0.060374722 -0.18387315 -0.17378041 -0.032071047
000190 ec e1 13 3e 0d f7 04 3d d6 57 52 3d 57 50 1e be
       0.14441651 0.03246217 0.051353298 -0.15460335
0001a0 14 c6 8b bb 0a 7c 92 3d cb b1 4a 3c 6c 2b cb 3c
       -0.004265556 0.07152565 0.012371491 0.024800979
0001b0 2f 80 1d be b7 74 16 3e e7 11 58 3c 8e cb f3 3d
       -0.1538093 0.1469296 0.013187862 0.11904059
0001c0 de bd 46 3d 82 34 ac 3d 04 3e 0b 3e 7b f8 8c be
       0.048520915 0.084084526 0.13597876 -0.27533326
0001d0 67 42 ba 3c b4 6d 79 bd 73 40 42 be 96 ea 96 bd
       0.022736741 -0.060895637 -0.18969898 -0.073689625
0001e0 8b e2 26 be 2c 4c 56 be 31 ea 1f be bb f0 82 be
       -0.16297357 -0.20927495 -0.1561668 -0.25574288
0001f0 26 d5 b8 bd 84 8a 29 3e 91 fe 41 be ba 21 cf 3b
       -0.0902503 0.16556746 -0.18944766 0.006321159
000200 d3 13 00 bd 56 a0 00 bc 6f 17 bc be a0 c0 bd bd
       -0.031268906 -0.007850727 -0.36736628 -0.09265256
000210 e1 44 b1 bd 61 81 de bd a3 87 61 3c 98 c0 c3 bd
       -0.08655716 -0.10864521 0.0137652485 -0.09558219
000220 07 dc ae bd 55 2b c6 bd e6 ae 20 be 26 61 90 3e
       -0.08538061 -0.09676234 -0.15691718 0.28199118
000230 76 ee 3b be d7 f4 4e be db 9c 6e bd dd a6 ab 3d
       -0.18352684 -0.20210586 -0.058255058 0.08381436
000240 c9 05 5d bd 83 7b 58 bd 1a d8 73 3c 0f 89 ae bd
       -0.053960595 -0.052852165 0.014883066 -0.085222356
000250 96 be da bd 27 99 0a bd 46 f7 85 bd 05 3f 63 bc
       -0.10680883 -0.033837464 -0.06541304 -0.0138700055
000260 6c 28 5b bd 9c cb a5 3d 31 43 77 be c9 10 ff bd
       -0.053505346 0.08095476 -0.24146725 -0.124543734
000270 1a 6c 32 bd 1f 31 da bc 19 b0 d3 bd e1 02 bd bd
       -0.043560125 -0.02663475 -0.10336322 -0.09229065
000280 87 78 c6 3d 82 5f e5 bd 51 fc 47 be cf a0 94 3d
       0.096909575 -0.11199857 -0.19529845 0.07257234
000290 e3 13 4d bd 5c 4c c3 3c 07 0a 6b 3e 30 83 28 bd
       -0.050067794 0.023840122 0.22953044 -0.041140735
0002a0 52 74 0d 3e b0 83 e0 3d 77 b7 7d bd 3f 58 77 3e
       0.13813904 0.109626174 -0.061942544 0.24154757
0002b0 35 40 68 bd e1 8a ae bd 6a df aa bd 09 99 24 3e
       -0.056701858 -0.08522583 -0.08343394 0.16074003
0002c0 e0 d5 90 3d 4c 82 ef 3d 53 9f d1 3d 2b 0c 79 3d
       0.070720434 0.11694774 0.10235467 0.06080262
0002d0 e3 3c ac bc 54 d7 2d bd 11 90 8f bc 74 cd 1d bd
       -0.021025127 -0.04244168 -0.01752475 -0.038526013
0002e0 bc 82 91 3d ad 63 8f bb a0 7b 92 bd f2 1d 41 bd
       0.07105014 -0.004375896 -0.07152486 -0.0471477
0002f0 9d af f4 bd b5 31 e5 bd 37 bf ce bc b9 84 14 3e
       -0.11947558 -0.111911215 -0.025237663 0.14503755
000300 36 e1 36 be c3 42 0f be e8 27 c4 bd b0 3f ad be
       -0.17859349 -0.13990311 -0.09577924 -0.33837652
000310 e2 53 5f bc 67 1e 10 bd 18 f3 89 be ea d1 c7 bd
       -0.013630839 -0.035185244 -0.26943278 -0.09756835
000320 7a bd 15 be 51 0e 9e be 4d 17 0e 3c f4 45 8b be
       -0.14623061 -0.30870298 0.0086725475 -0.27201807
000330 94 df 10 bf 1e c4 16 bd 94 0a 48 3d ca 7c 83 3e
       -0.56591153 -0.036808126 0.048838213 0.25681144
000340 ef 34 cf bd 4f bb 48 be 1f 8b 80 bd 6b 0b d4 be
       -0.10117518 -0.19602703 -0.06276535 -0.4141496
000350 1f c0 16 be b2 8a b8 bd 0c 70 90 bd 30 f3 87 be
       -0.14721726 -0.09010829 -0.07052621 -0.26552725
000360 a7 e8 44 be 05 43 cb bd 86 18 ff bd 5b e1 14 be
       -0.19229375 -0.09924892 -0.12455849 -0.14539091
000370 d0 21 c8 be 50 7e e8 bd 4a db 7c bd b0 55 b4 bc
       -0.39088297 -0.11352217 -0.061732568 -0.022013515
000380 01 c0 3f 3d d3 0a 0e 3e 70 13 07 be f0 0c 8f 3e
       0.04681397 0.13871317 -0.13191009 0.27939558
000390 94 6c 1a 3f ba 77 01 bd 0c 1c 6b 3e 20 e9 c0 3d
       0.6032193 -0.03160832 0.22959918 0.09419465
0003a0 4d b7 19 be a6 38 ea 3d 9f 3f cb bd 5c 56 fb 3e
       -0.1501133 0.11436586 -0.09924244 0.49089324
0003b0 04 1e 0f bf d4 f5 71 3d b7 64 63 3d 56 7a f4 3d
       -0.55905175 0.05907233 0.05551597 0.11937396
0003c0 6c ec ae bb 11 24 39 3e ac 2b d1 3e 5d cb b4 bc
       -0.0053382423 0.18080164 0.40853631 -0.022069627
0003d0 27 a9 d8 bd 1a 13 99 3d 40 49 3a bd 69 54 97 bd
       -0.10579138 0.074743465 -0.045480013 -0.07389147
0003e0 8a 84 12 be 8e b8 5a bc cb f3 87 be 4f d4 3e be
       -0.14308372 -0.013349665 -0.26553187 -0.18635677
0003f0 5e 11 3d 3e 96 95 63 be a5 6e 16 be 2f 2f 28 bd
       0.18463656 -0.22225031 -0.14690645 -0.041060623

F2E.mlp.f.0.bias f4 [32]
000000 60 05 92 be bc d9 8c be c4 d7 b0 be be b4 74 bd
       -0.28519726 -0.27509868 -0.34539616 -0.05974268
000010 49 09 46 be 17 fb eb bd 0c 29 45 be 1b f1 93 3e
       -0.1933948 -0.11522501 -0.1925394 0.28894886
000020 c4 29 16 3e ee 02 e2 bd 74 a0 11 bd 1e c5 36 3c
       0.1466437 -0.11035715 -0.03555341 0.011155395
000030 b3 57 09 bd 9d fc 2e be 6f a3 bd be 6b 2f 70 be
       -0.033530902 -0.17088552 -0.37038752 -0.23455589
000040 b1 3c 22 be a0 4f c2 bd 8b f3 d4 be 48 13 96 3e
       -0.15843464 -0.094878435 -0.4159206 0.29311585
000050 89 1f d0 be a3 d6 fb 3e 80 6d a6 3a 8a 5d 3a 3f
       -0.4064906 0.49187192 0.0012697428 0.7279898
000060 e1 78 9a 3e 5d 09 11 be e4 64 b1 bd f1 a1 fd 3d
       0.30170348 -0.14163728 -0.086618215 0.123844035
000070 da 32 98 be a5 e5 42 3f 00 2c 98 3d 2c 38 0a 3f
       -0.29726297 0.7613166 0.07430267 0.5399196

E2V.mlp.f.0.weight f4 [32, 64]
000000 e8 a2 cd bd f6 0f 07 be 59 99 78 be 98 8e a9 bd
       -0.100408375 -0.13189682 -0.24277247 -0.08279151
000010 22 52 14 3e 68 94 e1 3d fd fd 22 be 42 00 0d be
       0.14484456 0.11014634 -0.15917201 -0.1376963
000020 05 a3 bb 3d 22 3f 58 3d 7a da 5c 3a fc 84 54 be
       0.09161953 0.052794583 0.00084248895 -0.20753855
000030 b3 5a ef bc 4a 59 13 be b4 f3 17 be fa 99 01 be
       -0.029218053 -0.1438953 -0.14839059 -0.12656394
000040 10 2e 43 3e ba 27 00 be 45 31 59 bd ae f0 8c 3c
       0.1906054 -0.12515154 -0.053025503 0.017204609
000050 6a 73 0e bc 73 9c b1 3c 06 31 7e bd eb 2f 18 3d
       -0.008694509 0.021681046 -0.06205847 0.037155073
000060 2f 69 15 be 37 7c ef 3d e2 a5 b8 bb 85 51 ba 3b
       -0.14590906 0.11693614 -0.005635009 0.0056859874
000070 1d b8 12 bd 42 d9 3e 3e 0e 8d c8 bb f7 9a af 3d
       -0.035820115 0.18637565 -0.0061203307 0.08574479
000080 89 1b cb bd 87 4b 11 3c ae 64 6c bc 20 d0 70 be
       -0.09917361 0.008868105 -0.014428301 -0.23516893
000090 fb 6a 17 3d cd 81 13 3e 8e 92 65 bd 42 d6 36 bd
       0.03696726 0.14404984 -0.05604797 -0.044637926
0000a0 c7 ea 33 3d 12 95 fc 3c cb d8 a0 bd 2b f0 7f be
       0.043925073 0.030832801 -0.0785385 -0.2499396
0000b0 33 9d 4c bd a0 b4 e5 bd eb 62 0c bd 18 9c 5a be
       -0.049954604 -0.11216092 -0.034274023 -0.21348608
0000c0 f4 4c 5c 3d 8b ec 48 be 93 66 e2 3d 5b 99 06 3b
       0.053784326 -0.19621484 0.11054721 0.0020538184
0000d0 2c d2 99 bd 8b 37 2c bd 85 05 0e bd 10 dd fa 3d
       -0.0751079 -0.042045157 -0.034673233 0.122491956
0000e0 aa 32 a0 bd b2 7e d5 ba 90 18 22 be fe 07 ae 3d
       -0.078221634 -0.0016288368 -0.15829682 0.08497618
0000f0 4e 09 02 3e 46 0b 6a be 2b 3f 89 3c 77 e3 3c 3e
       0.12698862 -0.22855863 0.016753754 0.18446146
000100 9c a4 9e be 20 a9 db be 3e cf df be b0 68 de be
       -0.30984962 -0.4290247 -0.437128 -0.43439245
000110 e6 ba 25 bf a4 ff f4 be 7c ad 05 bf 91 c4 32 bf
       -0.6473831 -0.47851288 -0.5221784 -0.69831187
000120 41 b2 d0 be b6 33 2f be e3 19 89 be 52 97 a3 be
       -0.40760997 -0.1710957 -0.26777562 -0.31951386
000130 d6 e3 ca be 72 3d ae be 10 13 b4 be 16 f0 ff be
       -0.3962695 -0.34031254 -0.35170794 -0.4998786
000140 3a 88 b7 be ba b4 9f be e6 d7 25 be 45 14 e0 be
       -0.3584612 -0.3119257 -0.1619564 -0.43765464
000150 c8 ec aa be cc 7b ba be 18 74 97 be 71 bb d1 be
       -0.33383775 -0.36422575 -0.2958076 -0.4096332
000160 18 b8 9a be b1 fa e5 be 79 5a ad be d7 84 d9 be
       -0.30218577 -0.44917825 -0.33858088 -0.4248416
000170 52 97 f4 be d1 a8 17 bf 27 72 9a be 4c 4b cf be
       -0.47771698 -0.5924197 -0.30165216 -0.40487134
000180 1d b0 e7 3d b2 d7 de be f0 f8 2a be 5b 84 5f be
       0.11312888 -0.43523937 -0.16696525 -0.21827833
000190 21 2f fe be 82 c0 19 be e9 38 08 bf 10 96 ac be
       -0.49645332 -0.15014842 -0.5321184 -0.3370824
0001a0 7b 73 b7 be 34 72 b2 3c c3 4f ad be ac c2 83 be
       -0.35830292 0.021782972 -0.33849916 -0.2573446
0001b0 3d df 3d be 16 06 85 be 38 94 a1 be 59 17 ce be
       -0.1854219 -0.25981206 -0.31558394 -0.40252188
0001c0 95 ca c5 be de 78 a2 be 9f 5b 91 be 0f 2b c0 3e
       -0.3863112 -0.3173284 -0.28390214 0.3753285
0001d0 7e e5 9c be 31 62 9f 3e 14 19 10 be a9 74 99 be
       -0.3064384 0.31129602 -0.14072067 -0.29971817
0001e0 08 6d 1a be e7 24 81 bd a4 c3 c8 be 27 63 6c 3c
       -0.15080655 -0.06305867 -0.39211762 0.014427937
0001f0 da 99 28 be 28 62 76 bd 62 02 8a bc 01 62 14 be
       -0.1646494 -0.060152203 -0.01684684 -0.1449051
000200 3a 0b 7b 3e a9 2e b2 3d 06 c1 09 be c4 c4 40 be
       0.24516001 0.08700306 -0.13452539 -0.1882506
000210 69 86 e7 3c 43 92 87 3e 3c bf 46 3d 2d 4d 3b 3e
       0.028262334 0.26478776 0.04852222 0.18291159
000220 50 05 ce 3e 78 23 e7 3d 20 c5 91 3d 6b bb a7 3d
       0.40238428 0.11286062 0.07117677 0.08190044
000230 9d b9 f0 3d 50 28 d2 3d dc e6 14 3d a5 5c 7d 3c
       0.11754153 0.10261595 0.036352977 0.015463983
000240 4c b0 44 3e e4 ca 87 3d d1 10 2c 3e 43 14 60 3e
       0.19207877 0.06630495 0.1680329 0.21882729
000250 7e b6 82 3e 66 56 35 3d 12 0b 2e 3e d3 fb 8a 3e
       0.25529855 0.04427185 0.1699641 0.27145252
000260 59 26 ae bd aa 40 87 3d c4 a8 cd 3d 06 02 e6 3d
       -0.08503408 0.066041306 0.10041955 0.11230855
000270 ee 5c 9d 3d 8a 74 3c 3e 56 ab ba 3d 21 fa 8e 3d
       0.076837406 0.18403831 0.09114711 0.06981302
000280 ae 50 13 bd 76 bf 1b 3e ec 29 4c be c3 ed 30 3c
       -0.035965614 0.15209755 -0.19937867 0.010798874
000290 1b 18 af bc 68 a0 4d bd d2 05 cf bd ba 01 c4 bd
       -0.0213738 -0.050201803 -0.10108532 -0.09570642
0002a0 f6 a7 39 3d 3a 93 c3 bd 8d db 87 3e a0 66 c7 bb
       0.045326196 -0.095495656 0.2653469 -0.006085232
0002b0 3e e6 a0 3a a5 da 32 3d 37 da 26 3e da 5f 39 3e
       0.0012275649 0.043665547 0.1629418 0.1810297
0002c0 bc dd 4d 3e e1 37 50 3d c7 b7 0c bb 46 67 24 3d
       0.20104116 0.05083454 -0.0021471845 0.04013755
0002d0 40 43 ef 3d 97 e0 6c bd 4d d3 86 3d 17 9c 4f 3d
       0.11682749 -0.057831373 0.06583271 0.05068597
0002e0 f1 bd 37 3d ff 12 ab bd 3c 34 e2 3d 23 40 20 be
       0.044858877 -0.083532326 0.11045119 -0.15649466
0002f0 ba 33 df 38 bf 98 4d bd 0c 91 77 3c 71 06 2a 3d
       0.000106431035 -0.0501945 0.015110265 0.04151005
000300 7c c6 b4 be 43 1f 0f be 92 bb 02 be 3f 36 b2 be
       -0.35307682 -0.13976769 -0.12766865 -0.3480701
000310 61 b9 8a be 82 49 34 be a4 a2 55 be 4b 7f 1e be
       -0.27094558 -0.17606166 -0.20862824 -0.15478246
000320 a0 8e be bd 4d 88 19 be 59 f1 03 be 3c ce a8 be
       -0.09304547 -0.14993401 -0.12885036 -0.32969844
000330 37 9c 6d be c5 b9 4e bc b0 d6 18 bd 12 53 ce be
       -0.23204122 -0.012617533 -0.037314117 -0.40297753
000340 38 79 52 be b8 95 5a be f0 26 71 3d aa 4c 15 bd
       -0.20554054 -0.21346176 0.058875024 -0.036450066
000350 f3 fc b3 be b3 7c 93 be 18 2a 89 be 1f 32 13 be
       -0.35153922 -0.28806075 -0.26789927 -0.14374588
000360 f1 2b 2a be ec cb 77 be 1c 8d 35 be 25 dd 11 be
       -0.16618325 -0.24198884 -0.1772961 -0.14244516
000370 0a dc fc bd c2 cc 88 bd 29 f9 0d be d8 d4 56 bd
       -0.123466566 -0.066796795 -0.13864578 -0.052449077
000380 9d cb 08 be c4 57 1b be c2 a3 4b be 89 1c 9f be
       -0.13358922 -0.15170199 -0.19886687 -0.31076458
000390 aa df 54 be fe 8c 25 be 28 50 79 be 3c a0 96 be
       -0.20788446 -0.16167066 -0.24346983 -0.29419124
0003a0 fd f6 8d be 0a 81 7d 3d 2b c9 19 bd e2 98 27 be
       -0.277275 0.06189064 -0.037545364 -0.16366914
0003b0 2f 56 02 be 5c a0 40 be d3 af 8d ba 8f e4 84 be
       -0.12728189 -0.18811172 -0.0010809846 -0.25955626
0003c0 87 96 91 3d 57 38 e5 bd 49 6f e6 bd 8f fc 30 3e
       0.07108789 -0.111923866 -0.11251695 0.17283843
0003d0 c3 c4 8f be 36 b8 69 3d a1 06 aa bd ac 59 10 be
       -0.28079805 0.057060443 -0.083020456 -0.14096707
0003e0 a7 b6 80 be e3 02 ba 3b 50 21 06 bd a3 70 99 3d
       -0.25139353 0.0056766137 -0.032746613 0.07492187
0003f0 ac 5c 86 bb b4 00 bd bd b3 3c 1f 3e af 28 02 3e
       -0.004100403 -0.0922865 0.15550499 0.12710832

E2V.mlp.f.0.bias f4 [32]
000000 42 3f 6c be 31 b7 a8 be c2 31 f0 3e f9 20 20 be
       -0.23071006 -0.32952264 0.46912962 -0.15637578
000010 31 f7 bf be 8c 76 25 3e ea eb 17 3f 91 b3 30 3f
       -0.3749328 0.16158503 0.5934435 0.69023997
000020 bb 97 17 3e f9 23 23 bf c5 43 67 be 45 44 36 be
       0.14803974 -0.63726765 -0.22584446 -0.1779948
000030 fa 72 af bd 90 f7 02 be 7d 0a 3e be 88 3e 8d be
       -0.08566852 -0.1278975 -0.18558688 -0.2758677
000040 40 5c 50 3e 16 95 89 bd c1 5f 73 be 24 78 08 bf
       0.2034769 -0.06717889 -0.23766996 -0.5330832
000050 d6 82 67 bc dc 93 b9 be ba d0 53 bd dd 10 14 3d
       -0.014130315 -0.3624562 -0.05171273 0.036148895
000060 46 f3 5d be 18 f9 d9 be 7b 20 dc 3e da 56 a8 be
       -0.21674833 -0.42572856 0.4299353 -0.32878762
000070 3e 09 3e be e0 c0 9b be 88 bf 94 bd 9c a0 92 3c
       -0.18558213 -0.3042059 -0.07263094 0.01789885

ffLayers.0.mlp.f.0.weight f4 [32, 64]
000000 21 88 da 3d 1c ab c3 3d a8 bc f7 be ce e3 c7 be
       0.10670496 0.09554121 -0.4838612 -0.3904099
000010 bf e8 19 3d b7 05 02 bd 6e 73 3e 3e 49 3a 99 be
       0.03757548 -0.03174373 0.1859872 -0.2992728
000020 94 36 3d be a5 7d 9c bd e3 fa a4 be 07 ec b4 3d
       -0.18477851 -0.07641152 -0.3222266 0.08834081
000030 9f 3e 54 3e b7 ce 89 3d f0 e0 be be d1 2e 1d be
       0.20727013 0.06728881 -0.3728099 -0.1534989
000040 cc 38 46 3d ac ab 8a 3e 6e dd 94 be 76 d6 41 bc
       0.04839401 0.270841 -0.29075187 -0.011830917
000050 3c e2 a4 3c 46 7f 47 be 6d 4d 24 3e 03 2e 95 be
       0.020127408 -0.19482145 0.1604516 -0.29136667
000060 fa 89 22 3f 92 33 3e 3c 00 66 f6 3c f5 3a c1 3e
       0.63491786 0.011608975 0.030077934 0.37740293
000070 17 d1 04 3e 54 c9 4f bd 2e 5d d1 bd 3d 40 c3 bd
       0.12970386 -0.05072911 -0.10222851 -0.09533737
000080 47 ad 55 bd 74 e8 81 bd a7 2e 76 be c8 3e 74 be
       -0.052167203 -0.06343165 -0.24041234 -0.23852074
000090 55 20 88 3d 03 ae 6f 3d 84 28 05 be 85 2e 8d be
       0.06646792 0.05851556 -0.13003737 -0.27574554
0000a0 59 c5 44 be 62 2f 2b bd fb 2a e1 be d5 e7 40 be
       -0.19215907 -0.041793235 -0.43978104 -0.18838437
0000b0 0b 22 11 3e 6a 26 64 3d bd ec 8f 3e 59 0a 4b 3e
       0.14173143 0.055700697 0.28110304 0.19828166
0000c0 a1 e1 9f bb c8 b5 7b 3e e7 84 2f bd 87 03 1c be
       -0.004879192 0.24581063 -0.042851355 -0.1523572
0000d0 c5 36 f1 bd e6 c8 e0 bd 4c 77 46 3d 97 02 58 be
       -0.117780246 -0.10975818 0.048453614 -0.21094738
0000e0 68 7c 85 bc 3f 87 a3 bc 0a 8e 11 3d 81 d3 a4 3e
       -0.016294673 -0.019961951 0.03553585 0.32192615
0000f0 06 a1 27 be dd 29 8a 3d 14 f6 e5 bc f5 af 85 bb
       -0.1637002 0.06746266 -0.02807144 -0.0040798136
000100 0b ce a8 3e 0f 58 aa 3d a5 14 25 3d e1 47 29 be
       0.32969698 0.08317577 0.04030289 -0.16531326
000110 87 f2 7a 3e 49 97 08 3e 64 dd 2a 3e c0 e0 df be
       0.2450658 0.1333896 0.16686016 -0.43726158
000120 16 35 71 be 2f c7 c9 3c d9 6d d4 3d d2 13 e4 bc
       -0.23555407 0.024631111 0.10372514 -0.027841482
000130 28 bf 2b 3e 48 39 4f 3e 77 d4 b2 3e 82 a2 37 3e
       0.16772139 0.20236695 0.34927723 0.17933086
000140 df d5 5c 3e 24 f5 82 3e c2 03 32 3e 32 51 fa bd
       0.2156596 0.25577652 0.17384246 -0.12222518
000150 8a 7b 85 bd c2 d2 3a be c1 2f 68 bd e7 99 a9 bc
       -0.06517704 -0.1824446 -0.056686167 -0.02070327
000160 50 01 e8 bd 41 de bb 3e ab aa cd bd ca 8f 1f 3f
       -0.11328375 0.36693004 -0.10042318 0.6232878
000170 56 aa d3 be ec 8f 3f be 19 65 93 3d bf 15 d9 3e
       -0.41340894 -0.18707246 0.07197017 0.42399403
000180 29 8f cf 3d aa 05 b4 3d cc c8 d4 bd a6 5a 9d be
       0.101347275 0.08790143 -0.103898615 -0.30733222
000190 c9 fe 8b 3d d4 bc 65 3d 25 6f 71 be c8 8d 87 be
       0.06835706 0.056088284 -0.23577555 -0.26475358
0001a0 df ca 77 be dd 1e 64 be 11 80 23 bd 1a 74 22 be
       -0.24198483 -0.22277398 -0.039917056 -0.15864602
0001b0 d8 1b 99 3d 66 c3 63 bd ce 2a bd 3e 41 9d c3 3d
       0.07476014 -0.05560627 0.3694672 0.09551478
0001c0 6c a9 bb 3e 0e 93 5d bb d0 1f 80 3d 1f e4 0d be
       0.36652696 -0.0033809575 0.06256068 -0.13856553
0001d0 bf c8 21 3e 77 46 08 be 20 74 85 bd d9 d3 22 be
       0.15799235 -0.1330813 -0.0651629 -0.15901126
0001e0 92 29 90 3e 6c b7 a7 3d 4d 2f 55 3e f7 5f 7a 3e
       0.28156716 0.08189282 0.20818825 0.2445067
0001f0 b5 b0 87 bd f5 18 72 bd d3 4e 86 3d 18 ca 03 3e
       -0.06625501 -0.059105832 0.06558003 0.12870061
000200 0a ff 2d be 0d 3a 93 3e 65 68 89 3e e3 66 0c 3d
       -0.16991821 0.28755227 0.2683746 0.034277808
000210 11 94 17 be 9a 85 83 3e 67 25 b5 ba 09 a8 42 be
       -0.14802577 0.25687867 -0.0013820351 -0.19009413
000220 3a 0e 20 3f 75 20 c8 3d a4 e1 70 3e 0c 66 86 be
       0.6252171 0.09771816 0.23523575 -0.2624973
000230 1a 1e 8f be 5d a3 53 3e 96 97 09 3f ec bd 0e 3f
       -0.27952653 0.20667787 0.53746927 0.5575855
000240 42 a8 88 be 78 cb ee 3d 90 cf 27 3d 9f 7e f7 bd
       -0.2669087 0.11659902 0.04096943 -0.12084698
000250 43 34 08 bf 05 a0 a8 3e 31 0d 17 bf 3a 0a 83 3e
       -0.53204745 0.32934585 -0.59004503 0.2559374
000260 39 a8 e3 be 5e b8 9c be 5b 0e 39 be 7a f6 1f be
       -0.4446428 -0.3060941 -0.18071882 -0.15621367
000270 c6 60 88 be 56 a0 5a be 65 a9 cd be 4f 64 03 be
       -0.26636332 -0.21350226 -0.401683 -0.12831233
000280 31 87 28 bd d0 b9 bc 3d cf 2f 63 3e ab ee 88 3e
       -0.041144554 0.092151284 0.22186206 0.2674459
000290 75 86 ed 3d 9a 8a 48 3e 9a 42 6a 3e 6e dc 41 3e
       0.11597911 0.19584122 0.22876969 0.18931744
0002a0 61 4c d9 3e f2 57 ba 3e dc e8 0c 3f e8 f4 dd 3d
       0.42441085 0.36395222 0.55042815 0.10837728
0002b0 ab 27 06 3e d6 31 bf 3d 13 39 8f be 34 44 a4 bd
       0.1310107 0.09335677 -0.27973232 -0.08020821
0002c0 8f ba e5 bc ff 6d a2 3c 06 84 a3 bd 60 4c 4c 3e
       -0.02804306 0.01982784 -0.07984166 0.1995101
0002d0 1b bd 25 3e 6d cc c9 3e 14 c7 38 3e 4d 00 47 3e
       0.1618542 0.39413777 0.18044692 0.19433708
0002e0 68 c1 84 3e 26 79 7f bd 15 a0 62 be fc 91 41 be
       0.25928807 -0.062371396 -0.22131379 -0.18903345
0002f0 4e d1 dc 3d 26 d4 85 3e 97 7c b0 bd 1e 01 13 bd
       0.10782109 0.2613842 -0.086175136 -0.035889737
000300 2b ed ae 3e fc e8 77 3e 05 d3 b7 3e b8 d7 e7 3e
       0.3416532 0.2420997 0.35903183 0.45281768
000310 95 0a bb 3e 9b 39 28 bd 8a 71 e0 3e 5b 8d a1 3e
       0.3653151 -0.04107056 0.43836623 0.31553158
000320 91 4a 8d 3d e9 8c 13 3c 40 62 dd 3e cb 7c 70 3e
       0.06898988 0.009005764 0.4323902 0.23485105
000330 80 ec 97 be dd 47 6a be 6d 08 c7 be a5 49 8b be
       -0.29672623 -0.22878976 -0.38873616 -0.27204624
000340 b1 49 a5 bd d8 ed 36 bd 45 1e 72 3e 29 56 38 3e
       -0.08070696 -0.04466042 0.2364436 0.18001617
000350 2b 9a 29 be 4c f2 e0 3c a5 46 5c be d8 b6 cb 3d
       -0.16562717 0.027459286 -0.21511324 0.09946984
000360 d9 3c 4c be 44 e8 f9 3e 53 31 b3 be b7 00 27 be
       -0.19945087 0.48810017 -0.3499857 -0.16308866
000370 0d f7 07 3b ab f3 2f be 07 46 5f be 9e 7d e7 3e
       0.002074662 -0.17182796 -0.21804057 0.45213026
000380 bf 35 74 be db 9d 4a bd 60 71 8a 3e 50 db b6 bc
       -0.23848628 -0.04946695 0.27039623 -0.022321373
000390 2b 00 a8 be 2f c8 d9 3d 25 bc 43 be f2 05 44 be
       -0.32812628 0.10633885 -0.1911474 -0.19142893
0003a0 c9 a5 e7 3c 19 71 3a be 2a 40 d6 3e 48 9b 81 bd
       0.028277295 -0.18207206 0.41845828 -0.06328446
0003b0 2d 85 d4 bd 80 03 60 be d3 70 35 bd b4 4c 38 3d
       -0.10376964 -0.21876335 -0.04429705 0.044995025
0003c0 2b a5 9c 3e 33 71 67 be 98 e5 1e bc 86 80 12 be
       0.30594763 -0.22601776 -0.009698294 -0.1430684
0003d0 5f fd 00 3e 2f 1b cd 3d 1a 9b e3 3c e0 98 66 bd
       0.12596653 0.100149505 0.02778392 -0.056298137
0003e0 fb 06 64 3c e7 da f8 be 01 d6 38 3e 2a 10 80 be
       0.01391768 -0.4860451 0.18050386 -0.25012332
0003f0 9c d8 16 be cf 26 36 bd 4d 1e 00 3e 9b fb b9 be
       -0.14731067 -0.044470605 0.12511559 -0.36324772

ffLayers.0.mlp.f.0.bias f4 [32]
000000 ea 04 91 be dc 38 33 bc ff c2 13 3f 69 7b bc 3d
       -0.28324062 -0.010938849 0.57719415 0.09203226
000010 8a 96 b8 be b4 f2 a5 bd 2b b9 ac be 36 cd dc 3e
       -0.36052352 -0.081029326 -0.33735022 0.43125314
000020 ba 2f 87 3e c7 9b 1a be e3 79 74 be 37 6b 3f be
       0.264036 -0.15098487 -0.23874621 -0.18693243
000030 98 8f ee bd 2d 91 c2 bd b5 fb 2b 3e 07 99 8f be
       -0.11648482 -0.09500346 0.16795237 -0.28046438
000040 29 f6 4a be 2c ed 2a 3b 85 1a 7e 3e c4 42 f0 be
       -0.19820465 0.0026081307 0.24814804 -0.46925938
000050 7f a7 1d 3f af 57 9b 3e 8b 9d da be 35 9b eb bd
       0.61583704 0.30340335 -0.4269832 -0.11504213
000060 38 ed 9b be f2 bb 55 bd 81 23 21 3e cc 84 8b be
       -0.3045442 -0.05218119 0.157362 -0.27249753
000070 b1 a7 25 be 5c ca 08 be 88 9a 9f bd 0e 29 bc be
       -0.1617725 -0.13358444 -0.07793146 -0.36750072

F2F.mlp.f.0.weight f4 [32, 64]
000000 08 e9 4d bd 10 51 c2 3c c0 b6 3c 3b e2 f7 b1 bd
       -0.050271064 0.023720294 0.002879545 -0.08689858
000010 9a e3 a0 3d a4 48 07 3d c0 e1 a8 3d 96 5d c2 3d
       0.078559116 0.03302826 0.082461834 0.09490506
000020 b2 d3 e7 3d 24 1a 44 bd 9a 0d bd 3d e0 9c 4f bd
       0.113196746 -0.047876492 0.0923111 -0.050686717
000030 42 c3 95 bd 90 8f 80 bd 80 51 96 3a 38 0f 42 bd
       -0.07312633 -0.062773824 0.0011468381 -0.047377795
000040 3e 9b ff bd 80 77 72 bd 2e 66 86 3d 16 0c af 3d
       -0.12480782 -0.059195995 0.06562458 0.08547227
000050 b0 90 10 3d 0c 69 10 bd ce a7 c4 3d a6 29 fe bd
       0.035294235 -0.03525643 0.09602319 -0.124102876
000060 68 25 9a 3c 18 4d a9 3d 72 6a a7 bd a0 0c 4e 3d
       0.018816665 0.082666576 -0.081746 0.05030501
000070 16 b8 e5 3d f4 9b aa 3d 56 9f f6 3d 68 25 b0 3d
       0.11216752 0.08330527 0.1204211 0.08600885
000080 98 a1 91 bc 80 56 97 3a b6 70 86 3d 32 17 c3 3d
       -0.01777725 0.0011546165 0.06564467 0.095259085
000090 c8 26 01 bd 0c 36 7a 3d 66 ee ad 3d 10 f3 a8 3d
       -0.031531125 0.0610867 0.084927365 0.082494855
0000a0 20 9c 80 3c e0 a4 d4 3d 4c 6d fd 3d 7a 90 88 bd
       0.015699446 0.1038301 0.12374362 -0.06668182
0000b0 44 42 70 3d 86 54 b2 bd b0 f3 50 bc 32 ba b2 3d
       0.058656946 -0.08707528 -0.012753412 0.0872692
0000c0 d2 43 af 3d 00 95 e8 3b 98 d2 6a 3d 50 b1 81 3c
       0.085578576 0.0070978403 0.057329744 0.01583162
0000d0 f0 81 b9 bc d0 70 03 3c b2 c2 a1 3d 88 bc 2d 3d
       -0.022644967 0.008022502 0.07898463 0.042416126
0000e0 40 c2 c1 3c dc 98 a9 3d 44 45 78 3d c0 48 f8 bd
       0.023652196 0.08281109 0.06061293 -0.12123251
0000f0 ee 43 fc 3d c0 7d 0d bd 94 58 fa bd 5c 89 73 bd
       0.12317644 -0.034543753 -0.12223926 -0.059457168
000100 be 0d 99 bd e0 16 87 bc ec 9a de 3d ba ad d8 bd
       -0.07473324 -0.0164904 0.10869393 -0.10580011
000110 10 76 f9 3c c0 5e 96 3d 88 d1 c9 bc 50 25 e7 bc
       0.030451804 0.07342291 -0.024636045 -0.028216034
000120 70 e3 25 3c 10 78 87 bc 0a 45 8f bd 7e ea e8 3d
       0.010125026 -0.016536742 -0.0699559 0.11372851
000130 cc c1 1b 3d 58 e1 93 bd 22 e0 fb bd 62 9c f5 bd
       0.038026616 -0.07220715 -0.12298609 -0.11992718
000140 66 33 b4 3d a6 8b 89 bd 1e 4e e4 bd b4 90 09 3d
       0.08798866 -0.06716089 -0.11147712 0.033585265
000150 50 15 75 bc 10 8a e2 bd a4 43 06 3d 28 03 02 bd
       -0.014958695 -0.110614896 0.03277935 -0.03174129
000160 4a a9 c8 bd f4 a7 cc bd f6 dd 8a bd 5c f7 2b bd
       -0.09797914 -0.09992972 -0.06780617 -0.041983947
000170 ba d4 da bd d6 d3 f9 bd 38 1d 79 bd 26 2c e9 bd
       -0.106851056 -0.121986076 -0.06081888 -0.11385374
000180 64 84 27 bd 18 49 8b 3d b0 bf 74 bd 84 46 5e bd
       -0.040897742 0.06801051 -0.05975312 -0.054266468
000190 5c f7 83 bd 02 50 b7 3d 30 2a 23 bc 92 d4 ce 3d
       -0.064436644 0.08950807 -0.009958789 0.10099138
0001a0 ce fc da 3d 2c de 02 3d e0 88 e7 bd b8 58 be 3c
       0.1069275 0.03195016 -0.11305404 0.023235664
0001b0 68 82 ea 3c a8 14 cf 3d 94 ff 81 3d f8 77 d1 3d
       0.028626636 0.10111362 0.06347576 0.1022796
0001c0 b0 0f 64 3d 9c 28 2d 3d fa 31 be 3d d2 ca e2 3d
       0.055679023 0.042275056 0.09286876 0.11073841
0001d0 1c 10 99 3d 7a c7 d0 bd d8 ec b4 3d 00 8f 77 bb
       0.07473776 -0.10194297 0.08834237 -0.0037774444
0001e0 54 e5 5d bd 90 66 d0 3d 3c d9 c6 3d 8c 1c 2c bd
       -0.054173782 0.10175812 0.09709403 -0.042019412
0001f0 6c af 92 bd 1c 14 94 3d 68 aa 6f bd 28 84 c5 3d
       -0.07162365 0.07230398 -0.05851212 0.096443474
000200 00 d3 d1 bb cc 06 8f 3d ce 1e d5 3d 40 57 fb bc
       -0.006403327 0.06983718 0.10406266 -0.030681252
000210 c2 cb c9 bd 88 d0 64 bd a4 e3 a7 bd 44 3b 81 3d
       -0.09853317 -0.055862933 -0.08197716 0.06310132
000220 68 81 b4 bd be 9e 9a bd 4c 9c ac bd fc 1d 5a bd
       -0.08813745 -0.07549809 -0.08428249 -0.05325125
000230 e6 50 a2 3d 58 cb 36 bd b8 7e 17 bd f2 ef d2 bd
       0.079255864 -0.044627517 -0.036986083 -0.10299672
000240 08 69 e4 3c 38 21 97 bc 00 d8 21 b9 a4 90 60 bd
       0.027882114 -0.018448457 -0.00015434623 -0.05482544
000250 6a 7c fe bd 30 8c 6b bd 2c ca df bd 6a 64 94 bd
       -0.12426074 -0.05750674 -0.10927233 -0.07245715
000260 08 34 22 3d 38 59 59 bd 8a f3 c8 3d 22 fb 80 bd
       0.039600402 -0.0530636 0.098120764 -0.062979
000270 24 cc 49 bd 80 e7 a7 3d 2a 7d e1 bd b0 fa 2a 3c
       -0.04926695 0.08198452 -0.11010201 0.010435745
000280 68 4c a8 bc 38 a5 55 3d a4 51 60 bd b0 46 cb bd
       -0.020544246 0.052159518 -0.05476536 -0.09925592
000290 a4 9b 91 3d 94 71 ff bd 32 b6 f3 3d 50 1b 43 bc
       0.07109764 -0.12472835 0.118999854 -0.011908367
0002a0 f8 bd 79 3d 40 5c 1b 3c 26 75 a0 3d b6 a9 ad 3d
       0.060972184 0.009482443 0.07834844 0.084796354
0002b0 e0 df 8c bc b0 de a3 bd 5a d6 a5 3d b0 a3 40 3c
       -0.017196596 -0.08001459 0.08097525 0.011757776
0002c0 ec cb 83 bd ea 02 d2 3d ba 4e b6 bd 9c 32 68 bd
       -0.064353794 0.10254462 -0.08901735 -0.05668889
0002d0 e0 0a 3f 3d 40 6f bd bc 28 c5 51 3d 1e 2b c0 3d
       0.04664123 -0.023124337 0.051213413 0.09383224
0002e0 88 72 da 3d 1e 26 be 3d 1c 12 bc 3d 44 b2 94 3d
       0.10666376 0.09284614 0.091831416 0.07260564
0002f0 52 73 9f 3d a2 a8 f0 3d 10 84 ad 3c 48 cd dd bc
       0.077856675 0.11750914 0.021181136 -0.027075425
000300 da c5 c5 3d 6e d5 a1 3d b8 36 53 3d 50 b5 14 bc
       0.09656878 0.079020366 0.051565856 -0.009076431
000310 2e d7 90 3d 58 ec dc bc ba ad f3 bd c0 8c be 3c
       0.07072292 -0.026968166 -0.1189837 0.023260474
000320 e0 60 39 3d 6c 8c d8 bd a8 9b 89 bd 08 8a ef bd
       0.045258403 -0.10573658 -0.06719142 -0.11696249
000330 7a c6 ee bd 70 c9 3b 3c ce e4 d2 3d 26 56 da bd
       -0.1165895 0.011461601 0.10297547 -0.10660963
000340 30 dd 80 3d 50 ea a6 3d 18 db e6 3d b8 7b 37 3d
       0.06292188 0.0815016 0.112722576 0.04479572
000350 60 75 1c 3d 60 06 c3 3d 68 bb 76 bd b8 ff f3 bc
       0.038197875 0.095227 -0.06023732 -0.029785022
000360 86 8e 82 3d 68 ee c6 bd b0 29 04 3d 00 36 db 3d
       0.063748404 -0.09713441 0.03226632 0.10703659
000370 80 0d 67 3c dc 41 39 bd 44 d4 03 bd 00 8b b0 bb
       0.01410234 -0.045228824 -0.032184854 -0.005387664
000380 74 26 2a 3d ac ef 99 bd 70 d5 99 3c 1c ea 41 bd
       0.041540578 -0.07516417 0.018778533 -0.047342405
000390 c8 4a 69 bd ae 8e ac bd c0 ee 64 3b 44 f9 66 3d
       -0.056956083 -0.084256515 0.0034932345 0.056390062
0003a0 7c 17 ff 3d 80 e5 15 bb 10 5d 47 bc 2c 6b 46 bd
       0.12455651 -0.0022872388 -0.012168184 -0.04844205
0003b0 04 ef d3 3d c4 1d 0f 3d c2 28 b8 3d 10 3c 11 bd
       0.10348323 0.034940496 0.08992149 -0.03545767
0003c0 20 29 a0 3c 50 6d d1 3c fc b2 f7 bd 90 01 f7 bc
       0.01955086 0.02556482 -0.120946854 -0.030152112
0003d0 e8 67 ff bd 28 54 d9 3c c8 18 8d bc 00 a4 ab 3a
       -0.124709904 0.026529387 -0.01722373 0.001309514
0003e0 14 00 8c bd 9a 12 d1 bd b0 4d d0 3c 66 7a f7 bd
       -0.068359524 -0.10208626 0.02542767 -0.120838925
0003f0 6e ab b8 bd f8 6c 6a bd 40 c4 e2 3b cc 40 26 bd
       -0.090170726 -0.057232827 0.0069203675 -0.04058914

F2F.mlp.f.0.bias f4 [32]
000000 7e 79 92 bd 84 ac 17 3d b0 c2 aa bd 20 42 45 bd
       -0.07152079 0.037029758 -0.08337915 -0.048158765
000010 50 1e 11 bc 84 cb 39 3d 30 95 39 3d 60 79 aa 3c
       -0.008857325 0.045360103 0.045308292 0.02080983
000020 40 e3 0b 3b 04 c7 4d bd 48 83 95 bc a0 44 86 3b
       0.0021345168 -0.050238624 -0.018251076 0.004097536
000030 80 45 bb bb a0 54 98 bb 7c 14 2c 3d 1a 03 d4 bd
       -0.005715072 -0.00464876 0.042011723 -0.10352154
000040 a0 df f5 bc 48 04 fd 3c 44 2b c4 3d 7c 18 8d 3d
       -0.03001386 0.03088583 0.09578565 0.06889436
000050 7c 23 6a 3d 70 65 ec bc e8 34 89 bd 1a 78 e7 bd
       0.057162747 -0.028856963 -0.06699544 -0.113022044
000060 5c eb 23 bd 24 4e e4 3d 3e 29 b9 bd c0 8e 9b bb
       -0.040019378 0.11147717 -0.090410694 -0.0047472417
000070 cc 1a 2d 3d d4 8b ed bd 40 1e 57 bb 80 26 0d 3b
       0.042261884 -0.11598936 -0.0032824427 0.002153784
