checkpoints/sketch_prediction/stroke_embed_model.pth (torch, 5160 bytes, 4 tensors)

fc1.weight f4 [32, 6]
0.15896823 0.024015063 -0.1003765 0.3967405 0.16887833 -0.23947568 -0.21097277 -0.3567939
-0.26035526 -0.41572592 -0.21486937 0.23085897 0.40275234 0.3435493 -0.15310133 -0.030545533
-0.17920965 -0.05171691 -0.23800473 -0.021783572 -0.20057301 -0.2002804 0.35517627 -0.39031485
-0.2861903 0.21849708 0.27708033 0.31648704 0.193116 0.17975964 -0.010844756 -0.10561822
-0.39859155 0.31964743 -0.20063683 -0.043845523 -0.116270155 -0.15440649 -0.19354478 0.113828085
-0.10772401 0.07414158 0.21957128 0.003925134 -0.4248324 -0.15345074 0.007911173 0.15431054
0.30161354 0.35418457 -0.24683776 0.22777352 -0.38823548 -0.38970608 0.11691625 -0.23917611
-0.25429967 -0.059992064 -0.36940482 -0.2375347 -0.032842025 -0.3423654 0.0018612046 -0.34644783
0.0590969 0.2130185 -0.19481829 0.15373024 0.22025546 -0.3726949 -0.37045163 -0.010284789
0.055665527 0.017855123 -0.35291097 -0.17767668 0.16843054 0.26183903 -0.10160622 -0.41073698
-0.14588168 0.026326006 -0.33161098 0.15818426 0.34236756 0.2743356 0.26534346 -0.2561717
0.39941156 -0.2769713 -0.3745449 -0.056404326 0.29150274 -0.15095034 0.0926895 -0.40542492
-0.31842482 -0.12466816 0.10245007 -0.04875866 0.19485453 -0.22831078 0.2730648 -0.35672638
0.42703986 0.27373394 -0.17222981 0.10641747 0.100589514 0.19097541 -0.2705183 0.07983731
-0.079665765 -0.01596779 0.32055604 -0.2665823 -0.21101719 0.38347533 0.13406338 -0.040067885
-0.097674266 0.16698214 -0.042600848 -0.2999248 -0.032167096 -0.37515524 0.2074041 -0.38452476
-0.39635044 -0.38010138 -0.24781162 0.2409988 0.046495914 0.27358276 -0.06437528 0.16075249
0.30047062 -0.2181293 -0.1262756 -0.17567223 -0.052373916 0.022127567 -0.20553839 0.2876739
0.42305198 -0.067391835 0.38671744 -0.22748429 -0.15811798 0.38030666 -0.40563026 -0.23743993
-0.1649291 0.035990987 -0.19096571 0.016285697 0.19384272 0.3504719 0.39899862 0.17705192
0.19915058 -0.36950654 -0.36801142 -0.08015983 -0.04941061 0.2415997 0.26876068 0.25069717
-0.12141054 0.28336248 -0.39592075 0.14220925 -0.0046294825 -0.3637185 -0.29344428 -0.19731
-0.2768742 -0.15721698 0.16648057 0.078937106 -0.103175886 0.14136447 0.28188795 0.034697622
0.12503336 -0.35466817 0.102595694 0.19866435 -0.030452922 0.27004093 0.30911696 -0.1564054
00000000: 91c8 223e 3dbb c43c 3292 cdbd 9221 cb3e
00000010: 71ee 2c3e 1d39 75be 3f09 58be b1ad b6be
00000020: 494d 85be 07da d4be b706 5cbe 4b66 6c3e
00000030: 8e35 ce3e b2e5 af3e 98c6 1cbe a03a fabc
00000040: bc82 37be 1cd5 53bd 83b7 73be 7673 b2bc
00000050: 0363 4dbe 4e16 4dbe aad9 b53e 59d7 c7be
00000060: 8987 92be b3bd 5f3e 79dd 8d3e 970a a23e
00000070: 33c0 453e e912 383e 34ae 31bc 5e4e d8bd
00000080: 3114 ccbe d4a8 a33e be73 4dbe 5d97 33bd
00000090: 0c1f eebd bc1c 1ebe 9a30 46be b31e e93d
000000a0: 689e dcbd 8ad7 973d 4bd7 603e 699e 803b
000000b0: a283 d9be 3122 1dbe dd9d 013c 9503 1e3e
000000c0: 176d 9a3e ae57 b53e 0ac3 7cbe 763d 693e
000000d0: cdc6 c6be 8e87 c7be c971 ef3d 95ea 74be
000000e0: 9133 82be 3dba 75bd a122 bdbe 4c3c 73be
000000f0: 5c85 06bd 854a afbe aaf3 f33a 9c61 b1be
00000100: 970f 723d 8621 5a3e 727e 47be 766b 1d3e
00000110: a68a 613e ded1 bebe d6ab bdbe 8881 28bc
00000120: 8901 643d e844 923c bfb0 b4be e0f0 35be
00000130: 0e79 2c3e c40f 863e ec16 d0bd 1e4c d2be
00000140: 0262 15be a3a9 d73c eac8 a9be 0efb 213e
00000150: cd4a af3e b775 8c3e 19db 873e f028 83be
00000160: ac7f cc3e 2fcf 8dbe 59c4 bfbe 3908 67bd
00000170: d93f 953e ba92 1abe fed3 bd3d db93 cfbe
00000180: 9408 a3be 0552 ffbd 58d1 d13d 29b7 47bd
00000190: f287 473e 4dca 69be 26cf 8b3e d7a4 b6be
000001a0: f8a4 da3e db26 8c3e 035d 30be 67f1 d93d
000001b0: e001 ce3d 0f8f 433e 6081 8abe be81 a33d
000001c0: ce27 a3bd e2ce 82bc ec1f a43e 7a7d 88be
000001d0: e414 58be e156 c43e e947 093e 391e 24bd
000001e0: 7209 c8bd 5efd 2a3e 3a7e 2ebd be8f 99be
000001f0: a5c1 03bd 5914 c0be be61 543e 6ee0 c4be
00000200: 72ee cabe a69c c2be 54c2 7dbe 64c8 763e
00000210: 8072 3e3d 0a13 8c3e 30d7 83bd 4d9c 243e
00000220: 49d7 993e 4a5d 5fbe 644e 01be 6ce3 33be
00000230: 0886 56bd df44 b53c a878 52be fe49 933e
00000240: 459a d83e bb04 8abd d4ff c53e a4f1 68be
00000250: aee9 21be 8eb7 c23e c5ae cfbe 7423 73be
00000260: 2de3 28be 496b 133d 848c 43be 9569 853c
00000270: b57e 463e 0e71 b33e 8c49 cc3e 194d 353e
00000280: 21ee 4b3e f62f bdbe fe6b bcbe d62a a4bd
00000290: c862 4abd e965 773e 009b 893e 615b 803e
000002a0: 17a6 f8bd e314 913e 20b6 cabe 4d9f 113e
000002b0: eab2 97bb 5039 babe 543e 96be a20b 4abe
000002c0: 75c2 8dbe 7dfd 20be e279 2a3e c7a9 a13d
000002d0: e14d d3bd d9c1 103e 9e53 903e 181f 0e3d
000002e0: bf08 003e 1197 b5be b11d d23d ab6e 4b3e
000002f0: 6878 f9bc ce42 8a3e 9444 9e3e bd28 20be

fc1.bias f4 [32]
0.38488886 -0.26822475 -0.19411962 0.27520886 -0.14019841 0.049349066 0.24270357 0.31293073
0.26749593 0.00774499 0.12871169 -0.32807028 0.13595776 0.30736428 0.4060135 0.22094125
0.023977881 0.24422294 0.3490964 -0.2632754 0.22671379 0.40418893 -0.23324834 0.051192127
-0.2630274 -0.3092162 -0.3946792 -0.07326049 -0.22113888 -0.2658294 0.026134154 -0.28166875
00000000: 2710 c53e c154 89be 4bc7 46be 2de8 8c3e
00000010: 2c90 0fbe 3f22 4a3d 4987 783e 7538 a03e
00000020: 3af5 883e afc9 fd3b ffcc 033e d4f8 a7be
00000030: 8338 0b3e da5e 9d3e 00e1 cf3e 6c3e 623e
00000040: 436d c43c 9415 7a3e c3bc b23e 09cc 86be
00000050: a927 683e daf1 ce3e a7d8 6ebe d6ae 513d
00000060: 87ab 86be 9651 9ebe 6413 cabe 9909 96bd
00000070: 3b72 62be cb1a 88be 4b17 d63c e336 90be

fc2.weight f4 [16, 32]
0.12914541 0.07404085 -0.10865373 -0.15340075 -0.071397305 0.097022094 -0.1354651 -0.11495383
0.09645867 0.018199984 0.043560646 -0.10110457 0.0739334 0.15012036 -0.092722975 -0.11301502
-0.06128158 0.13623124 -0.011294637 0.026121384 -0.10447428 0.18844756 0.16885461 0.09331161
0.08346851 -0.07780956 0.10242966 -0.073203325 -0.115645476 0.11049585 -0.080637105 0.14733721
-0.016835202 -0.0137015665 -0.054057997 0.059101976 -0.1735774 -0.113695465 -0.10870467 0.091028124
-0.1737823 -0.18574719 0.12756366 0.09873979 -0.14344147 0.0062009245 0.06360796 -0.07299608
-0.015512888 -0.11269878 -0.14144102 -0.11054417 0.08863514 -0.03464068 -0.0242362 -0.07967793
-0.20281069 -0.18330574 -0.00966743 0.11929914 -0.18066423 0.029928973 0.05669163 -0.14287286
0.16370526 -0.060223278 -0.08126488 -0.014081237 0.15413083 -0.020630104 0.083078735 -0.001666626
0.124976546 -0.12854883 0.03407276 -0.12599777 -0.14740944 -0.0978363 0.08622245 -0.14752552
-0.09978317 -0.13266808 0.03571015 0.13849214 -0.0812855 -0.09853507 -0.015358313 -0.20386714
-0.0092279995 0.018482568 -0.062325567 -0.1755711 0.0893189 -0.14572026 0.14111008 -0.14724818
-0.10487674 -0.16567169 -0.11520497 -0.12673634 0.013956074 -0.102301046 -0.078879125 0.14755532
-0.1724429 0.029952813 -0.20470053 -0.10587506 0.14492942 0.08593568 -0.015694674 -0.050063584
0.060839143 0.13386227 -0.15006039 -0.087209865 0.045983084 -0.09803479 0.15254904 -0.001825053
0.10078514 0.05782546 0.11781334 -0.16489135 -0.07579535 -0.016134232 0.06845034 0.11570833
-0.09453672 -0.18123524 0.07723879 -0.019995311 0.021598808 -0.056263138 -0.03871037 0.14742076
-0.13852651 -0.15894103 0.1318555 -0.15802985 -0.094895944 -0.14058988 0.09667201 0.16235678
-0.023958053 -0.13462125 -0.06229584 0.15073258 -0.0865924 0.010958932 -0.03054748 -0.025604833
-0.09830428 -0.12589036 0.0828899 -0.10285434 0.015918266 0.15559323 0.061547816 -0.028936716
-0.1145206 -0.042669326 -0.13065918 0.08850858 0.12889256 -0.05781119 -0.08483574 -0.08531009
-0.045795716 0.06995165 -0.059691973 -0.047009155 -0.06587825 0.17739129 0.16802274 0.1069624
-0.13245913 -0.0541855 0.01659493 -0.14435057 0.09495911 -0.08016447 0.13494194 -0.07093199
0.16736156 0.07894958 -0.13282572 0.10581451 -0.0005133753 -0.0684231 0.1744439 0.1711498
0.100089036 0.018089479 0.05448897 -0.07092139 0.1546479 -0.10901503 0.034970224 0.16394557
0.103092544 -0.036217466 -0.04847392 -0.028945714 -0.15416971 0.10399067 0.10908244 0.1859495
-0.12364305 0.044943787 0.15082882 0.13725999 -0.12733692 0.076014824 0.052444436 0.109002404
0.044756472 -0.0074576256 -0.14336984 0.20333132 -0.14664845 -0.018379563 0.07777123 0.16653635
0.044158947 -0.0795523 -0.042842384 -0.005947165 -0.10486473 -0.041452903 -0.03189578 -0.1673545
0.14871661 0.07280434 -0.04784938 -0.006222854 -0.13034952 -0.030376546 -0.10931956 0.13843276
-0.028752083 0.023637079 -0.001577373 -0.1666136 -0.1359796 0.103751905 -0.011640394 -0.004164119
-0.12462061 -0.09278766 0.08334045 0.14445487 -0.047795545 -0.015899953 -0.17300381 -0.13979536
00000000: b23e 043e bba2 973d d985 debd 1615 1dbe
00000010: c038 92bd 85b3 c63d 5db7 0abe ea6c ebbd
00000020: 208c c53d 2218 953c a66c 323d ea0f cfbd
00000030: 656a 973d 27b9 193e 8be5 bdbd 6b74 e7bd
00000040: 6502 7bbd 3480 0b3e 240d 39bc 83fc d53c
00000050: 9cf6 d5bd 66f8 403e 39e8 2c3e 281a bf3d
00000060: 8af1 aa3d 9e5a 9fbd a4c6 d13d a0eb 95bd
00000070: 89d7 ecbd a64b e23d 1125 a5bd 91df 163e
00000080: fae9 89bc 897c 60bc eb6b 5dbd ea14 723d
00000090: 46be 31be 2bd9 e8bd 8ea0 debd f46c ba3d
000000a0: fdf3 31be 8334 3ebe 0ca0 023e 1638 ca3d
000000b0: 52e2 12be 2031 cb3b e444 823d f87e 95bd
000000c0: c529 7ebc 9ece e6bd ead5 10be fb64 e2bd
000000d0: 5786 b53d 63e3 0dbd ff8a c6bc 2f2e a3bd
000000e0: 9bad 4fbe 80b4 3bbe 2464 1ebc 1c53 f43d
000000f0: 0b00 39be 9b2d f53c 7c35 683d 434d 12be
00000100: 5aa2 273e afac 76bd 346e a6bd fdb4 66bc
00000110: 79d4 1d3e 7700 a9bc 2f25 aa3d b072 daba
00000120: b4f3 ff3d 4ea2 03be e18f 0b3d 8f05 01be
00000130: 80f2 16be 665e c8bd 6595 b03d ee10 17be
00000140: 1e5b ccbd 24da 07be ce44 123d e2d0 0d3e
00000150: 0379 a6bd c1cc c9bd 6fa1 7bbc 8cc2 50be
00000160: 0931 17bc c168 973c 1849 7fbd e9c8 33be
00000170: d4ec b63d b137 15be 297f 103e 3ac8 16be
00000180: 9ec9 d6bd d7a5 29be 95f0 ebbd 2cc7 01be
00000190: 04a8 643c 3683 d1bd 618b a1bd be18 173e
000001a0: df94 30be 9a5f f53c 049d 51be 06d5 d8bd
000001b0: 6168 143e 0cff af3d 1e92 80bc 790f 4dbd
000001c0: 7732 793d 3113 093e 6ea9 19be 169b b2bd
000001d0: c258 3c3d 77c6 c8bd d135 1c3e 9e36 efba
000001e0: 7168 ce3d 64da 6c3d 1f48 f13d 47d9 28be
000001f0: 983a 9bbd f02b 84bc b12f 8c3d 7df8 ec3d
00000200: 789c c1bd bb95 39be 5f2f 9e3d 35cd a3bc
00000210: fcef b03c 2d74 66bd c48e 1ebd 78f5 163e
00000220: e5d9 0dbe 70c1 22be 2105 073e 94d2 21be
00000230: ce58 c2bd cbf6 0fbe fafb c53d db40 263e
00000240: ae43 c4bc 27da 09be ec29 7fbd a459 1a3e
00000250: 5b57 b1bd 188d 333c b53e fabc 3ac1 d1bc
00000260: c153 c9bd 67e9 00be 2ec2 a93d 4ca5 d2bd
00000270: 0667 823c d553 1f3e 9019 7c3d b10c edbc
00000280: c789 eabd 08c6 2ebd 85cb 05be fd43 b53d
00000290: 69fc 033e 6dcb 6cbd 5cbe adbd 0eb7 aebd
000002a0: 4a94 3bbd d042 8f3d 927f 74bd ac8c 40bd
000002b0: 2deb 86bd 10a6 353e 270e 2c3e 1a0f db3d
000002c0: 5ea3 07be 9df1 5dbd 17f2 873c a3d0 13be
000002d0: ec79 c23d 452d a4bd 382e 0a3e cb44 91bd
000002e0: d460 2b3e 51b0 a13d 7703 08be 47b5 d83d
000002f0: 0894 06ba 6921 8cbd 6ca1 323e e541 2f3e
00000300: 7bfb cc3d 6330 943c d42f 5f3d 3c3f 91bd
00000310: 055c 1e3e 4643 dfbd f03c 0f3d 59e1 273e
00000320: 2f22 d33d c458 14bd 978c 46bd 901f edbc
00000330: aade 1dbe 0ff9 d43d 9d66 df3d 8c69 3e3e
00000340: 9138 fdbd fa16 383d df72 1a3e e28d 0c3e
00000350: 9c64 02be a9ad 9b3d facf 563d a73c df3d
00000360: 9052 373d 195f f4bb 8bcf 12be 1636 503e
00000370: 032b 16be bd90 96bc 8646 9f3d 8188 2a3e
00000380: 03e0 343d 51ec a2bd 7f7b 2fbd 70e0 c2bb
00000390: 52c3 d6bd 85ca 29bd 26a5 02bd fa5e 2bbe
000003a0: 2b49 183e 711a 953d b6fd 43bd 15e9 cbbb
000003b0: 587a 05be 3cd8 f8bc efe2 dfbd 51c1 0d3e
000003c0: 7d89 ebbc 8ca2 c13c dbbf ceba c19c 2abe
000003d0: 3c3e 0bbe e17b d43d 5ab7 3ebc 2973 88bb
000003e0: 1739 ffbd 7507 bebd 66ae aa3d faeb 133e
000003f0: 43c5 43bd 9e40 82bc e927 31be 8426 0fbe

fc2.bias f4 [16]
0.051823467 -0.067974076 0.09033036 -0.044541046 -0.123655796 0.06823808 0.16075483 -0.10647858
-0.11263843 -0.16838644 0.0977381 0.06356477 0.077838615 -0.12570243 -0.05580583 -0.09135207
00000000: d844 543d fe35 8bbd 20ff b83d ac70 36bd
00000010: 403f fdbd 68c0 8b3d ea9c 243e 7111 dabd
00000020: faae e6bd 7f6d 2cbe ea2a c83d 3f2e 823d
00000030: da69 9f3d 23b8 00be a794 64bd cb16 bbbd
