checkpoints/sketch_prediction/stroke_embed_model.pth (torch, 5160 bytes, 4 tensors)

fc1.weight f4 [32, 6]
0.1706928 -0.1138164 -0.29862624 -0.22307062 0.09844799 0.22553428 -0.4123415 0.34297565
-0.020313209 -0.2610709 0.102743894 -0.3611482 -0.06483263 0.40144017 -0.08166212 -0.19013777
-0.18331216 -0.25302613 -0.38095295 -0.11479544 0.20365593 0.072125085 0.19064948 0.21561462
-0.08168462 -0.05213509 -0.12759964 0.23222488 0.1255473 -0.16583237 -0.1121211 0.2122411
0.1997594 0.05088144 -0.16559814 -0.13515207 -0.18949741 -0.036762618 -0.2871252 -0.24270456
0.17054714 0.41994688 -0.037905823 -0.14751697 0.2752258 -0.3327892 -0.25933284 -0.2626288
-0.21830532 -0.19499284 -0.13598621 0.41411155 -0.20509247 0.3264236 0.29983643 0.25078028
-0.32219133 0.07380426 -0.06844995 0.24549219 0.26319852 -0.01971118 0.26856026 0.09274793
-0.1999941 -0.08707837 0.19576998 0.30102724 -0.0029781158 -0.27949584 0.26831385 -0.3214242
-0.099328436 -0.091428734 -0.009053955 0.36060607 -0.30328712 0.37942958 0.18904877 -0.11335211
0.3516644 0.22143209 -0.25710833 0.1609661 -0.3458389 -0.3398941 -0.20261255 0.07549429
0.14532907 0.110830665 0.14569989 -0.14593266 0.11178952 0.26520768 -0.09759315 0.27139306
-0.34678683 -0.18749367 0.3789181 0.28707665 0.07501476 0.31383824 -0.12464436 0.20529218
0.22805187 0.28933814 0.32778054 -0.054079056 -0.012972834 -0.31140327 0.35391116 -0.31958273
0.0112449825 -0.40738466 -0.22542857 -0.3934957 0.4080314 0.07460249 0.21509999 -0.35619208
0.01532165 -0.33781528 0.31280914 -0.16707103 -0.3720141 0.19462273 0.2935853 0.3878606
-0.050025057 0.091430806 0.029813245 0.2507552 -0.081685446 -0.026646521 0.3753498 0.091359064
0.19734591 0.20653139 -0.38995486 -0.07260062 -0.3608252 0.27218708 -0.04907779 0.39875424
0.07360345 0.22880045 0.19851348 0.33278972 0.07560176 0.045066938 -0.18528216 -0.11589477
0.02048548 0.23543496 0.3021154 0.36216488 0.09555855 -0.2921477 -0.21669503 0.28215837
0.03415838 -0.11421529 -0.061557513 0.3341153 -0.29501653 0.08394394 0.3582728 0.20270249
0.34936282 -0.1557841 0.31489915 -0.014558367 -0.0948867 -0.15822409 -0.2622194 0.17920275
0.08866093 -0.05749811 0.21916893 -0.34859458 -0.14699711 -0.39483958 0.09671315 0.10885764
-0.3715757 -0.29325455 0.41794065 -0.15600441 -0.28272724 0.06319008 -0.12851138 0.10126359
00000000: 18ca 2e3e 9318 e9bd 8ae5 98be a06c 64be
00000010: 1a9f c93d 75f2 663e 6d1e d3be 819a af3e
00000020: e367 a6bc 16ab 85be 646b d23d 6be8 b8be
00000030: f8c6 84bd 9189 cd3e 783e a7bd 7ab3 42be
00000040: 2fb6 3bbe a48c 81be 440c c3be df19 ebbd
00000050: 2e8b 503e 51b6 933d 9e39 433e 14ca 5c3e
00000060: 444a a7bd 9b8b 55bd 7ba9 02be 5ccc 6d3e
00000070: 798f 003e f6cf 29be bf9f e5bd bb55 593e
00000080: ba8d 4c3e 0f69 503d 8f92 29be 4e65 0abe
00000090: 9c0b 42be 6694 16bd 1302 93be 8b87 78be
000000a0: e9a3 2e3e 4703 d73e 2343 1bbd b00e 17be
000000b0: 65ea 8c3e 5963 aabe 46c7 84be 4877 86be
000000c0: 6e8b 5fbe 34ac 47be f83f 0bbe 6e06 d43e
000000d0: c303 52be fe20 a73e 2984 993e 4666 803e
000000e0: 43f6 a4be b026 973d 7d2f 8cbd 4e62 7b3e
000000f0: f5c1 863e 5779 a1bc bb80 893e a0f2 bd3d
00000100: 41cb 4cbe 2556 b2bd ed77 483e 3e20 9a3e
00000110: 7e2c 43bb 141a 8fbe 6f60 893e b691 a4be
00000120: b56c cbbd fd3e bbbd 0a57 14bc 5ca1 b83e
00000130: 7348 9bbe 9844 c23e 0096 413e 2725 e8bd
00000140: 5b0d b43e 18bf 623e b4a3 83be 4cd4 243e
00000150: cc11 b1be 9906 aebe aa79 4fbe c09c 9a3d
00000160: 25d1 143e 30fb e23d 5a32 153e 5f6f 15be
00000170: e7f1 e43d 4dc9 873e ebde c7bd 08f4 8a3e
00000180: 0b8e b1be 57fe 3fbe 8e01 c23e b6fb 923e
00000190: 57a1 993d 68af a03e 8b45 ffbd 1d38 523e
000001a0: 6e86 693e 2124 943e dad2 a73e 0082 5dbd
000001b0: 028c 54bc 4070 9fbe d833 b53e 59a0 a3be
000001c0: e03c 383c b994 d0be bfd6 66be 4578 c9be
000001d0: 7ee9 d03e 31c9 983d 2c43 5c3e cf5e b6be
000001e0: a807 7b3c 20f6 acbe 8528 a03e ab14 2bbe
000001f0: a278 bebe 2e4b 473e d050 963e aa95 c63e
00000200: 13e7 4cbd 1340 bb3d e83a f43c fc62 803e
00000210: b34a a7bd ce49 dabc d92d c03e 761a bb3d
00000220: 0c15 4a3e f77c 533e 2aa8 c7be a2af 94bd
00000230: 15be b8be 1b5c 8b3e cb05 49bd 8429 cc3e
00000240: 68bd 963d aa4a 6a3e 1e47 4b3e 6a63 aa3e
00000250: 18d5 9a3d 1c98 383d 9bba 3dbe 3d5a edbd
00000260: 2ad1 a73c dd15 713e dfae 9a3e ad6d b93e
00000270: 33b4 c33d 6294 95be 4de5 5dbe 1077 903e
00000280: a8e9 0b3d b5e9 e9bd bb23 7cbd 2911 ab3e
00000290: 680c 97be cdea ab3d 886f b73e 3e91 4f3e
000002a0: afdf b23e de85 1fbe 763a a13e 3886 6ebc
000002b0: f553 c2bd 7f05 22be 9f41 86be ed80 373e
000002c0: dd93 b53d 2383 6bbd d26d 603e fd7a b2be
000002d0: 6986 16be 6a28 cabe 8b11 c63d c1f0 de3d
000002e0: 2c3f bebe 7625 96be 51fc d53e 9fbf 1fbe
000002f0: a0c1 90be cd69 813d 7d98 03be 4963 cf3d

fc1.bias f4 [32]
-0.14965144 -0.38614553 -0.31305218 0.3330882 -0.3841004 0.15234616 -0.37706262 0.38914856
-0.17829469 0.1519906 -0.23291183 -0.088136256 -0.17091575 0.01759311 -0.0014922573 -0.3563127
0.18480112 -0.114395976 0.14707959 0.28862208 0.21701734 0.0046719075 -0.17722204 0.35488367
-0.09219473 0.03460815 -0.19280909 0.40326908 -0.2268585 -0.010317411 -0.08349909 -0.25993374
00000000: 3a3e 19be deb4 c5be 6048 a0be 898a aa3e
00000010: cfa8 c4be a200 1c3e 5a0e c1be 7b3e c73e
00000020: e292 36be 6da3 1b3e 7080 6ebe c880 b4bd
00000030: 8a04 2fbe 6d1f 903c d997 c3ba 9e6e b6be
00000040: 813c 3d3e 7048 eabd 089c 163e 46c6 933e
00000050: cb39 5e3e cd16 993b b279 35be 50b3 b53e
00000060: 97d0 bcbd 47c1 0d3d bf6f 45be 4979 ce3e
00000070: 984d 68be 5c0a 29bc 9201 abbd 0916 85be

fc2.weight f4 [16, 32]
0.13313666 -0.07467301 -0.054217663 -0.00030550797 0.13911605 -0.13720688 0.06965712 -0.16155876
-0.011070545 -0.11052983 0.13459666 -0.03117132 0.1742644 -0.116111994 -0.015109499 0.17537092
0.002722233 -0.11474009 -0.0318473 -0.00868838 0.035844143 0.13710597 0.19251388 -0.15564305
-0.05403003 0.15804997 0.18274766 -0.14808123 0.15541454 0.012617413 -0.09333421 -0.115498416
0.07299227 -0.19184798 -0.09943949 0.008538679 -0.030476153 0.041156255 -0.13125266 -0.116662584
-0.051751386 0.044267725 -0.10157063 -0.19940053 -0.15570976 0.018436974 0.043416232 0.10476168
0.09462541 0.06502264 0.029975 -0.05711586 -0.032100946 -0.17005359 -0.0062785167 0.15234011
-0.18310685 0.15615915 0.10334173 -0.13781849 -0.13709821 -0.09181102 0.014603674 -0.1424313
0.093431845 -0.035899423 0.08418507 0.03719261 0.12594502 0.102363005 0.008512298 -0.112012215
0.14893225 0.07834137 0.121304065 -0.12539218 0.037143666 -0.09574181 0.030644624 -0.15437594
0.15149117 0.11547999 0.14740646 -0.18309869 -0.06584626 -0.11253689 -0.044037566 -0.09852321
0.087142885 0.14845292 -0.010028161 -0.008380058 -0.14577232 0.02420247 -0.16516002 -0.1770689
-0.09634697 0.11453558 -0.14112343 0.07186297 0.046660963 0.15746798 -0.16605866 -0.01366354
0.14976484 0.17093666 -0.10166684 0.14908259 -0.13043644 -0.009381495 -0.087479964 0.101819195
-0.09636351 0.0023922732 -0.046139088 0.009228779 0.121690124 0.026442293 -0.13343303 -0.03682691
0.09763608 -0.15102741 -0.16953601 0.16136856 -0.0283967 0.16418107 0.08939007 -0.14957623
-0.06905555 0.13329607 -0.15950501 -0.0063581197 -0.047840282 0.14517099 0.08164034 0.09587692
0.06680681 -0.06333148 0.11598464 0.041217554 -0.1469541 0.14733693 -0.11017604 -0.15178688
0.07396354 -0.015154218 0.11255673 -0.10484474 -0.025762226 -0.1798852 0.12866285 -0.12123993
-0.005612668 -0.10654574 0.0667856 -0.1824163 0.12144945 -0.105078906 0.13942873 0.19631802
-0.02767659 -0.106745884 0.04845794 0.11579414 -0.12299146 0.10452318 0.017329384 0.12911925
0.03408515 -0.073133364 -0.10866046 0.16027737 0.011132032 0.079808645 -0.042279452 0.13047867
-0.112126954 0.0799345 0.14566074 -0.19312926 0.1571354 0.15010707 -0.0784677 0.048931785
0.039067473 -0.038836204 -0.03456451 0.057094734 -0.13920557 0.042791493 -0.15060154 0.017196642
-0.108823664 0.04421914 0.05052395 -0.10241539 0.11273965 -0.06843464 -0.075827435 0.053093046
0.048979912 -0.11470267 0.13431303 -0.0672726 -0.13502975 0.14654414 0.09634865 0.017911443
-0.128731 0.063875966 0.13094182 0.0347772 -0.16556095 0.16419606 0.08658798 0.08248553
0.16501653 0.16236886 -0.065798335 -0.18212734 0.20953658 -0.17561233 0.1213027 0.15460894
0.063169084 0.1354979 0.14031391 -0.045338023 -0.022385277 -0.007342023 -0.08987565 -0.023415143
-0.0024622937 0.036489774 -0.0052315346 0.1848926 0.09596446 -0.030906362 -0.15671098 -0.16758484
-0.07339744 0.08980103 -0.17660917 -0.05092992 -0.010212912 0.101409696 -0.083503656 -0.001537981
0.15723874 0.09349807 -0.19697435 0.124678425 0.06601794 -0.13825323 -0.04207825 -0.07866807
00000000: fa54 083e 2aee 98bd 5713 5ebd 962c a0b9
00000010: 7074 0e3e f67f 0cbe 64a8 8e3d a96f 25be
00000020: 3b61 35bc 775d e2bd b5d3 093e ff5a ffbc
00000030: 5e72 323e 20cc edbd d58d 77bc 6f94 333e
00000040: 7e67 323b dafc eabd 5072 02bd b559 0ebc
00000050: 4fd1 123d 8265 0c3e 5c22 453e e460 1fbe
00000060: 984e 5dbd dad7 213e 3422 3b3e 9ba2 17be
00000070: fd24 1f3e 44b9 4e3c 0226 bfbd 6f8a ecbd
00000080: f97c 953d cc73 44be eea6 cbbd d1e5 0b3c
00000090: 20a9 f9bc 7693 283d 1967 06be cbec eebd
000000a0: 43f9 53bd 1352 353d 4304 d0bd a72f 4cbe
000000b0: 6172 1fbe 2309 973c 38d5 313d 4b8d d63d
000000c0: f8ca c13d 972a 853d 228e f53c 52f2 69bd
000000d0: 487c 03bd 8722 2ebe 04bc cdbb 0cff 1b3e
000000e0: 5d80 3bbe 2fe8 1f3e d4a4 d33d 4a20 0dbe
000000f0: 7963 0cbe 6b07 bcbd 4044 6f3c 83d9 11be
00000100: 3259 bf3d 460b 13bd 3969 ac3d 4757 183d
00000110: bbf7 003e b2a3 d13d 2a77 0b3c a966 e5bd
00000120: b281 183e 7171 a03d 446e f83d cf66 00be
00000130: f523 183d 4814 c4bd 6f0a fb3c ba14 1ebe
00000140: 8020 1b3e c680 ec3d b8f1 163e 397e 3bbe
00000150: 67da 86bd be79 e6bd bc60 34bd 89c6 c9bd
00000160: f877 b23d 0b04 183e 284d 24bc 834c 09bc
00000170: 5745 15be 4244 c63c b51f 29be 8d51 35be
00000180: 8f51 c5bd a191 ea3d a982 10be e52c 933d
00000190: 911f 3f3d 493f 213e 480b 2abe 0add 5fbc
000001a0: f45b 193e 050a 2f3e b436 d0bd 1ba9 183e
000001b0: 2191 05be d8b4 19bc b228 b3bd 9586 d03d
000001c0: 3b5a c5bd afc7 1c3b 57fc 3cbd 4e34 173c
000001d0: ac38 f93d 829d d83c aba2 08be d0d7 16bd
000001e0: 6df5 c73d eea6 1abe d99a 2dbe cd3d 253e
000001f0: 32a0 e8bc 151f 283e 2412 b73d 832a 19be
00000200: ff6c 8dbd c47e 083e 4855 23be c657 d0bb
00000210: 2cf4 43bd b4a7 143e 0d33 a73d 1e5b c43d
00000220: 02d2 883d efb3 81bd 5b89 ed3d bdd3 283d
00000230: 237b 16be 7edf 163e faa3 e1bd 056e 1bbe
00000240: 327a 973d 6649 78bc 2584 e63d d7b8 d6bd
00000250: 4e0b d3bc d333 38be 32c0 033e a44c f8bd
00000260: 79ea b7bb a734 dabd e3c6 883d 57cb 3abe
00000270: 7dba f83d 9c33 d7bd 68c6 0e3e 9707 493e
00000280: 04ba e2bc 969d dabd d57b 463d 7a25 ed3d
00000290: f2e2 fbbd 4010 d63d 5af6 8d3c d637 043e
000002a0: df9c 0b3d f2c6 95bd 6089 debd c01f 243e
000002b0: 2063 363c b772 a33d 382d 2dbd 339c 053e
000002c0: d1a2 e5bd b3b4 a33d 1728 153e adc3 45be
000002d0: 1ae8 203e abb5 193e acb3 a0bd b26c 483d
000002e0: 3705 203d b612 1fbd 8493 0dbd 2bdc 693d
000002f0: e88b 0ebe 2246 2f3d 4a37 1abe f9df 8c3c
00000300: f1de debd 211f 353d 34f2 4e3d 29bf d1bd
00000310: 0ce4 e63d 7627 8cbd 6a4b 9bbd 1878 593d
00000320: 299f 483d 3ce9 eabd 5b89 093e 38c6 89bd
00000330: 3d45 0abe ab0f 163e 7152 c53d 05bb 923c
00000340: 0fd2 03be 67d1 823d 9d15 063e 8a72 0e3d
00000350: cf88 29be 0323 283e 0a55 b13d 2cee a83d
00000360: 18fa 283e 0644 263e 47c1 86bd 977f 3abe
00000370: c290 563e b8d3 33be 8d6d f83d ce51 1e3e
00000380: cb5e 813d f6bf 0a3e 73ae 0f3e 5db4 39bd
00000390: 5461 b7bc 5a95 f0bb ba10 b8bd 1dd1 bfbc
000003a0: 6f5e 21bb 4d76 153d 4b6d abbb 7c54 3d3e
000003b0: 0489 c43d 572f fdbc d878 20be 5c9b 2bbe
000003c0: 6651 96bd 9ae9 b73d 09d9 34be e49b 50bd
000003d0: 0f54 27bc e3af cf3d f703 abbd 1496 c9ba
000003e0: 3103 213e eb7b bf3d a5b3 49be 6757 ff3d
000003f0: 6a34 873d 4192 0dbe 3e5a 2cbd ba1c a1bd

fc2.bias f4 [16]
0.13281786 0.1192085 0.083941184 -0.10500395 0.10532029 0.18915859 0.046996873 -0.1147753
0.017765388 0.06674531 0.15056382 -0.039328698 0.13627446 -0.085550144 0.091133334 0.008997535
00000000: 6801 083e 9623 f43d 5be9 ab3d 500c d7bd
00000010: 2ab2 d73d cab2 413e cb7f 403d 500f ebbd
00000020: b888 913c c4b1 883d 672d 1a3e 2117 21bd
00000030: 888b 0b3e ea34 afbd 1da4 ba3d 666a 133c
