checkpoints/sketch_prediction_timeEmbed/graph_encoder.pth (torch, 83626 bytes, 20 tensors)

local_head.gconv.convs.<stroke___intersects___stroke>.nn.0.weight f4 [32, 16]
-0.12324022 -0.15211011 -0.16792855 0.14595601 0.1274478 0.19903219 -0.111111104 -0.1520052
0.9028905 0.3552162 -0.3534185 0.12362057 0.17550409 0.24183753 0.18504348 -0.20369214
0.0036757428 0.09183661 0.21940394 0.0067039947 -0.09552473 -0.16257764 0.8084021 0.7409598
0.17713055 -0.5074252 -0.63176817 0.5063506 0.029528694 -0.05310139 -0.5587221 -0.43196982
-0.14106418 -0.03098095 -0.13905823 0.15662703 0.0027986285 0.23583451 0.01652684 0.14597367
-0.4780705 0.11099191 -0.06582452 0.11557166 0.12750573 0.18197079 2.341881 2.221414
0.12733734 0.18612775 -0.025511516 -0.1320173 -0.16004719 0.041103654 -0.34011912 -0.6108526
0.018718569 0.024523737 -0.037883442 -1.6435795 -0.6282449 0.011200112 -0.6222957 -0.6128867
0.09662582 -0.11342414 0.1472451 -0.0067582233 0.06384951 -0.15579562 -0.49760222 -0.43732166
-0.17544769 -0.20805046 0.16165046 -0.22066604 -0.024019163 -0.12790976 -0.7322895 -0.3854817
-0.08561048 -0.012458168 -0.07463969 0.09079546 0.03546281 0.11168433 -1.1655828 -0.7677005
-0.07415111 -0.31176713 0.028013011 -0.2909281 -0.66603017 -0.43739974 -0.6711536 -0.7622593
0.17948166 -0.05933351 -0.07855152 -0.16564849 0.03862049 0.021358246 0.24798246 0.10956873
0.4389987 -0.17342661 -0.7513879 -0.27536947 -0.24745609 -0.20328741 0.84188855 0.6998323
-0.11696578 0.122568995 0.108726636 0.06210487 -0.090833016 -0.100312054 -0.52419215 -0.4749348
-0.080037475 -0.0064802323 0.14134501 0.048964623 0.08593987 1.3625265 -0.6031324 -0.54366255
-0.22446093 0.14740175 -0.06969175 0.19684389 -0.13235615 0.05534791 -1.013767 -1.1039908
-0.074751295 0.088355355 0.042340428 0.99877435 -0.050996844 1.3537325 -0.7068582 -0.44301173
-0.0060415715 0.12912898 -0.047166653 -0.030941669 -0.024800796 0.0059847287 0.37610346 0.2395837
0.056987047 -0.3017143 0.13310716 -0.19975787 -0.16134611 0.09171605 1.278509 1.2041065
0.1429358 0.095491126 -0.00089386816 -0.14815111 -0.11153926 0.07692765 0.5183535 0.5829893
0.12126159 0.052332286 -0.1607425 -0.09735611 -0.1294483 0.039442673 2.8686347 2.5469484
0.20566747 0.023128375 -0.16168165 -0.24711604 0.024580989 0.17872664 -0.6863455 -0.48560613
-0.13783558 0.32113308 -1.0254173 -0.16426636 0.15279575 -1.0005895 -0.48144904 -0.43973526
-0.03727856 0.116688006 0.05127202 0.030130211 -0.101690836 -0.088983886 -0.47025692 -0.55123943
-0.07017843 -0.063719966 0.0668616 0.12415314 -1.7702273 -0.5983047 -0.7759743 -0.6872952
-0.031460233 0.1694012 -0.07557473 0.027871802 -0.14610818 0.08396164 0.07657082 0.022008646
-0.13331383 -0.035196025 -0.397661 0.12079127 -0.32322204 -0.8459276 -0.37238201 -0.5349155
0.08233554 0.051329847 -0.07535444 -0.043952953 -0.056042064 0.07019445 -0.57212466 -0.6397583
0.062526405 0.047811706 -0.066039704 -0.7344421 0.9089586 -1.1691678 -0.45428136 -0.22479133
0.13845256 0.030954713 0.03375916 -0.10678367 -0.029971337 -0.017886274 -1.7411383 -1.6558293
0.094399326 0.03240636 0.04510914 0.9235907 0.9928851 -0.846691 -0.8852897 -0.8296686
00000000: 5e65 fcbd c1c2 1bbe 76f5 2bbe 7e75 153e
00000010: ad81 023e 18cf 4b3e 388e e3bd 40a7 1bbe
00000020: d523 673f e6de b53e 45f3 b4be c82c fd3d
00000030: 58b7 333e 42a4 773e 0a7c 3d3e ac94 50be
00000040: bbe4 703b d514 bc3d 6dab 603e 2fad db3b
00000050: 78a2 c3bd c17a 26be 71f3 4e3f 8baf 3d3f
00000060: b661 353e 9ee6 01bf 8fbb 21bf 31a0 013f
00000070: 29e6 f13c d880 59bd 6908 0fbf 262b ddbe
00000080: 2173 10be c3cb fdbc 4865 0ebe d662 203e
00000090: 3269 373b 9a7e 713e 4c63 873c 1f7a 153e
000000a0: a8c5 f4be ba4f e33d 02cf 86bd d6b0 ec3d
000000b0: dd90 023e 8d56 3a3e 61e1 1540 a62b 0e40
000000c0: b864 023e 4698 3e3e 87fd d0bc 8b2f 07be
000000d0: 69e3 23be 4e5c 283d 1824 aebe d660 1cbf
000000e0: af57 993c 01e6 c83c ab2b 1bbd d060 d2bf
000000f0: a8d4 20bf ad80 373c c54e 1fbf 25e6 1cbf
00000100: c2e3 c53d ea4a e8bd 6bc7 163e 1674 ddbb
00000110: 88c3 823d e388 1fbe b8c5 febe a0e8 dfbe
00000120: 8fa8 33be 2e0b 55be b387 253e 47f6 61be
00000130: d6c3 c4bc c7fa 02be 5377 3bbf db5d c5be
00000140: 8c54 afbd 581d 4cbc b2dc 98bd f8f2 b93d
00000150: 7441 113d c1ba e43d d131 95bf 0588 44bf
00000160: 8adc 97bd f19f 9fbe 8b7b e53c 87f4 94be
00000170: f480 2abf dcf2 dfbe b9d0 2bbf 6d23 43bf
00000180: 0aca 373e b207 73bd 9fdf a0bd c29f 29be
00000190: 8530 1e3d 7df7 ae3c 1def 7d3e 9265 e03d
000001a0: 70c4 e03e bf96 31be f55a 40bf 3afd 8cbe
000001b0: 2165 7dbe 932a 50be 0286 573f 3628 333f
000001c0: c18b efbd 7405 fb3d 12ac de3d ad61 7e3d
000001d0: a906 babd 6870 cdbd 7531 06bf a72a f3be
000001e0: b0ea a3bd 2158 d4bb bfbc 103e 218f 483d
000001f0: 3e01 b03d 4567 ae3f e366 1abf 782d 0bbf
00000200: 16d9 65be 7cf0 163e 8cba 8ebd 7291 493e
00000210: 5f88 07be 7db4 623d 1ec3 81bf 924f 8dbf
00000220: 3517 99bd a7f3 b43d 286d 2d3d adaf 7f3f
00000230: 11e2 50bd 1b47 ad3f a9f4 34bf 6fd2 e2be
00000240: 60f8 c5bb 633a 043e d231 41bd 6279 fdbc
00000250: 0a2b cbbc 8b1b c43b a290 c03e 6e55 753e
00000260: 406b 693d 4c7a 9abe 3e4d 083e 548d 4cbe
00000270: ea37 25be a0d5 bb3d 2fa6 a33f 2920 9a3f
00000280: c35d 123e da90 c33d 7a52 6aba edb4 17be
00000290: b26e e4bd 3e8c 9d3d d1b2 043f c93e 153f
000002a0: ff57 f83d 615a 563d af99 24be a462 c7bd
000002b0: 188e 04be a48e 213d b697 3740 3401 2340
000002c0: 7e9a 523e b877 bd3c e08f 25be fd0b 7dbe
000002d0: 125e c93c 1e04 373e 57b4 2fbf 5ea1 f8be
000002e0: c524 0dbe 8e6b a43e e040 83bf 7135 28be
000002f0: 7d76 1c3e 5113 80bf 7d80 f6be fb24 e1be
00000300: 67b1 18bd 1ffa ee3d 9c02 523d a2d3 f63c
00000310: 4943 d0bd 2f3d b6bd 84c5 f0be 071e 0dbf
00000320: b5b9 8fbd 9d7f 82bd bcee 883d 0044 fe3d
00000330: cf96 e2bf 7f2a 19bf 40a6 46bf 94f2 2fbf
00000340: 72dc 00bd 8277 2d3e edc6 9abd 6853 e43c
00000350: 629d 15be 15f4 ab3d 29d1 9c3d 7a4b b43c
00000360: 6c83 08be b529 10bd 399a cbbe 6a61 f73d
00000370: 5c7d a5be b68e 58bf dba8 bebe 39f0 08bf
00000380: 899f a83d 3f3f 523d 6e53 9abd 0308 34bd
00000390: 5d8c 65bd 1cc2 8f3d c376 12bf 33c7 23bf
000003a0: d80d 803d 35d6 433d d33f 87bd 6604 3cbf
000003b0: 83b1 683f 4aa7 95bf 9197 e8be b32f 66be
000003c0: 82c6 0d3e bd94 fd3c 0c47 0a3d 66b1 dabd
000003d0: 7386 f5bc 3c86 92bc 9fdd debf 37f2 d3bf
000003e0: 6f54 c13d 88bc 043d 5dc4 383d 7170 6c3f
000003f0: b82d 7e3f bec0 58bf 59a2 62bf 2965 54bf

local_head.gconv.convs.<stroke___intersects___stroke>.nn.0.bias f4 [32]
-0.53123003 -0.0864189 -0.2047615 -0.089843646 -0.6892778 -0.5006483 -0.2048367 -0.23062786
-0.09167169 -0.7276663 0.27076653 -0.05789504 -0.1404926 0.2770244 -0.042760674 -0.17219089
-0.2181732 -0.11212202 -0.27512738 -0.16565534 -0.6759805 -0.7919482 -0.23064536 -0.04650451
0.2232582 -0.24558832 -0.046396412 0.103015676 -0.77721524 -0.6841766 -0.22282611 -0.040892508
00000000: b1fe 07bf 64fc b0bd 00ad 51be f2ff b7bd
00000010: 8374 30bf 7d2a 00bf b6c0 51be b629 6cbe
00000020: 5ebe bbbd 5748 3abf e9a1 8a3e 5923 6dbd
00000030: 4bdd 0fbe 24d6 8d3e d125 2fbd cf52 30be
00000040: cc68 5fbe 3ba0 e5bd 7fdd 8cbe 8ea1 29be
00000050: 0f0d 2dbf 1ebd 4abf 4c2e 6cbe 837b 3ebd
00000060: cc9d 643e 817b 7bbe 2a0a 3ebd e2f9 d23d
00000070: 94f7 46bf 3326 2fbf 872c 64be e77e 27bd

local_head.gconv.convs.<stroke___strokecoplanar___stroke>.nn.0.weight f4 [32, 16]
0.27249402 0.113443136 -0.048222344 -0.28221643 -0.07103591 -0.008971961 0.2352835 0.22953165
0.5546737 0.6587603 -0.49668708 0.008322148 -0.0263344 0.012893495 -0.16783649 -0.086066924
-0.021981398 0.15157378 0.08517367 0.046260633 -0.13231055 -0.07004867 0.39713106 0.43225315
0.26489314 0.052319672 -0.22373828 0.10915125 0.24881393 0.060919292 -0.41464284 -0.12608726
-0.0066901096 0.025900181 -0.20635869 0.00055917 0.056263417 0.16925037 0.17123765 0.27610907
0.07263217 0.011740065 0.00025180692 -0.05779957 -0.046875942 0.0023280862 0.038394682 -0.19285408
-0.12694821 -0.010790422 0.21705228 0.05733519 0.012310314 -0.23574948 -0.34607434 -0.76574093
0.078784585 -0.09599237 -0.14964841 -0.1924034 -0.053203702 0.12334928 -0.55599976 -0.27321818
-0.07599542 -0.15608813 0.021756971 0.05700524 0.17452393 -0.06469079 -1.2273685 -1.0055817
-0.016563341 -0.12224754 -0.016813705 -0.45447174 -0.088799745 0.13523917 0.30380574 0.20387971
-0.073221825 0.15141647 -0.10651804 0.08710896 -0.09472622 0.033785865 -0.75498426 -0.7642615
-0.117814995 -0.043031976 -0.059302945 0.007886009 0.04601615 -0.13248304 0.48209375 0.5841316
0.038923074 -0.0068191523 -0.07772716 -0.08435774 0.022582117 0.12408068 0.7870643 0.8305905
-0.07606024 -0.13742293 -0.24614422 0.25961232 -0.004543298 -0.22955814 0.27782518 0.1922045
-0.12642282 -0.10169531 0.06986154 0.12129305 0.07249885 -0.06401597 -0.79745364 -0.47332424
0.23719652 0.2657399 -0.10880806 -0.24613124 -0.22822095 -0.08751331 -0.5673368 -0.38373417
-0.12452243 -0.082207136 -0.18689963 0.14725532 0.09208313 0.22823846 -0.90891254 -0.8524082
-0.10512332 -0.16729598 0.0013794624 -0.050016448 -0.014680271 0.23231876 0.33151093 0.38904008
-0.008988421 0.11268491 0.10837283 0.02041386 -0.054611713 -0.11974639 0.3848676 0.089127414
-0.61996245 -0.25122887 0.14031357 0.4597187 0.15795135 -0.1118482 -0.61994517 -0.6302233
0.11104806 -0.0029723137 -0.08110769 -0.10119492 0.029383495 0.1086263 0.6468736 0.8237778
0.12891144 0.053502027 0.51333857 -0.12043477 -0.031594366 -0.29618108 -0.26433918 -0.2355214
-0.014877388 0.07093846 0.21906964 0.024468096 -0.012362747 -0.14871617 -0.2791616 -0.73532224
-0.075667076 -0.028124912 0.1568643 0.0003364808 -0.0061225113 0.021163924 0.029751316 -0.08539776
0.07545977 0.15200546 0.032337584 -0.07067184 -0.16121902 -0.028205795 -0.5394089 -0.478262
-0.14051168 -0.056566056 0.1710883 0.14543304 0.14805315 0.11389469 -0.39218643 -0.52842855
-0.10789015 -0.065044396 -0.026306903 0.13324057 0.061986867 0.04291446 0.28515416 0.2103311
0.20098189 0.37980363 0.0022802292 0.06546346 -0.0451015 -0.44669574 -0.14196615 -0.3184447
0.040631093 0.09333287 -0.10792514 -0.036026906 -0.0983378 0.1034796 -0.09644261 -0.116485484
-0.010583798 0.056795042 -0.018375281 -0.010941823 -0.0034790686 0.019430311 -0.1265207 -0.07257216
-0.025355153 0.025105435 -0.046125848 -0.03217955 -0.060803063 0.08070461 -0.53785795 -0.5339102
0.1990251 0.004707449 0.033245396 0.22614929 -0.23069173 -0.20126669 -0.7397308 -0.50777364
00000000: 5684 8b3e e054 e83d cb84 45bd ac7e 90be
00000010: 467b 91bd 22ff 12bc 28ee 703e 580a 6b3e
00000020: 18ff 0d3f 84a4 283f c54d febe 9e59 083c
00000030: 3dbb d7bc 3d3f 533c 54dd 2bbe db43 b0bd
00000040: 5512 b4bc 2836 1b3e 886f ae3d ca7b 3d3d
00000050: 6b7c 07be ad75 8fbd c354 cb3e 4950 dd3e
00000060: 13a0 873e 274d 563d a61b 65be b18a df3d
00000070: 14c9 7e3e 8286 793d 114c d4be 051d 01be
00000080: b538 dbbb 9e2c d43c b14f 53be 4395 123a
00000090: 7874 663d f84f 2d3e ec58 2f3e 2b5e 8d3e
000000a0: 2dc0 943d 6759 403c f404 8439 3ebf 6cbd
000000b0: fd00 40bd ce92 183b be43 1d3d 8a7b 45be
000000c0: b6fe 01be 4fca 30bc f442 5e3e 4ed8 6a3d
000000d0: 33b1 493c 5068 71be a830 b1be 9907 44bf
000000e0: d059 a13d a697 c4bd 6f3d 19be 6605 45be
000000f0: 20ec 59bd 8c9e fc3d 0056 0ebf 41e3 8bbe
00000100: 7da3 9bbd 91d5 1fbe ad3b b23c 547e 693d
00000110: 67b6 323e 9b7c 84bd 691a 9dbf e7b6 80bf
00000120: d8af 87bc eb5c fabd e5bc 89bc 85b0 e8be
00000130: a4dc b5bd 237c 0a3e 6d8c 9b3e d8c5 503e
00000140: 53f5 95bd eb0c 1b3e 2126 dabd 2f66 b23d
00000150: d2ff c1bd 0c63 0a3d a646 41bf a4a6 43bf
00000160: fd48 f1bd 4c42 30bd a5e7 72bd 5234 013c
00000170: 6e7b 3c3d a2a9 07be fed4 f63e a689 153f
00000180: cd6d 1f3d 3273 dfbb 6b2f 9fbd c0c3 acbd
00000190: 22fe b83c 031e fe3d 0c7d 493f 94a1 543f
000001a0: 79c5 9bbd 99b8 0cbe 3b0d 7cbe e8eb 843e
000001b0: f2df 94bb 4a11 6bbe 1a3f 8e3e 42d1 443e
000001c0: fc74 01be a145 d0bd 9113 8f3d 7e68 f83d
000001d0: 477a 943d ce1a 83bd ec25 4cbf 8e57 f2be
000001e0: a5e3 723e 0f0f 883e c3d6 debd d409 7cbe
000001f0: c1b2 69be 2e3a b3bd fc3c 11bf ce78 c4be
00000200: 9e05 ffbd 375c a8bd 9e62 3fbe 19ca 163e
00000210: 1496 bc3d 58b7 693e 7eae 68bf 6c37 5abf
00000220: e54a d7bd a34f 2bbe 14cf b43a 0cde 4cbd
00000230: 8585 70bc f8e4 6d3e cdbb a93e 4330 c73e
00000240: 2c44 13bc 59c7 e63d 93f2 dd3d f83a a73c
00000250: 88b0 5fbd 983d f5bd 5e0d c53e 6f88 b63d
00000260: dcb5 1ebf 12a1 80be 5cae 0f3e 4060 eb3e
00000270: 00be 213e ab10 e5bd bab4 1ebf 5056 21bf
00000280: 2a6d e33d 26cb 42bb ca1b a6bd 483f cfbd
00000290: a8b5 f03c 7777 de3d 8299 253f 1ae3 523f
000002a0: 5c01 043e f124 5b3d 286a 033f 81a6 f6bd
000002b0: 1869 01bd 0ca5 97be 7757 87be 862c 71be
000002c0: 4ac0 73bc 2f48 913d cb53 603e 5171 c83c
000002d0: 1f8d 4abc 0d49 18be 45ee 8ebe 143e 3cbf
000002e0: 57f7 9abd 3766 e6bc 09a1 203e b069 b039
000002f0: 599f c8bb f75f ad3c 08b9 f33c 05e5 aebd
00000300: a78a 9a3d 52a7 1b3e 6a74 043d 66bc 90bd
00000310: 9916 25be d70f e7bc b416 0abf c2de f4be
00000320: 4be2 0fbe cfb1 67bd c531 2f3e 66ec 143e
00000330: 3f9b 173e 9f41 e93d a9cc c8be 1847 07bf
00000340: 83f5 dcbd ff35 85bd 9381 d7bc 3770 083e
00000350: f1e5 7d3d 13c7 2f3d baff 913e 0961 573e
00000360: 32ce 4d3e 9f75 c23e e66f 153b b511 863d
00000370: 5abc 38bd 4eb5 e4be 935f 11be 2f0b a3be
00000380: ca6c 263d 4e25 bf3d db07 ddbd f390 13bd
00000390: 5465 c9bd 1ded d33d b483 c5bd f18f eebd
000003a0: ab67 2dbc eba1 683d c287 96bc 5545 33bc
000003b0: 1601 64bb 512c 9f3c a48e 01be b6a0 94bd
000003c0: 9cb5 cfbc eaa9 cd3c 75ee 3cbd b4ce 03bd
000003d0: a20c 79bd 7548 a53d 0fb1 09bf 57ae 08bf
000003e0: 3ccd 4b3e f240 9a3b 532c 083d ae93 673e
000003f0: 743a 6cbe db18 4ebe ff5e 3dbf 74fd 01bf

local_head.gconv.convs.<stroke___strokecoplanar___stroke>.nn.0.bias f4 [32]
0.22851369 -0.22635072 -0.5172072 -0.36922902 0.2060954 -0.6329655 -0.12981959 -0.40170985
0.10627067 0.32612482 0.70803374 -0.99266595 -0.28280652 0.5613379 -0.81871754 -0.28352833
0.35150313 -0.6874534 -0.7104396 -0.11741577 0.55870926 0.23790862 -0.43116027 -0.32383537
-0.42526063 0.32942182 0.12561338 -0.50190914 0.39018747 -0.17051764 -0.072702155 0.21478759
00000000: 7eff 693e 7cc8 67be b167 04bf 960b bdbe
00000010: ac0a 533e 070a 22bf 6def 04be eaac cdbe
00000020: 70a4 d93d d5f9 a63e b341 353f 5b1f 7ebf
00000030: 04cc 90be d7b3 0f3f 7997 51bf a02a 91be
00000040: 38f8 b33e f2fc 2fbf 5fdf 35bf ae77 f0bd
00000050: 9207 0f3f 519e 733e 0ac1 dcbe c0cd a5be
00000060: c3bb d9be faa9 a83e cba0 003e 1e7d 00bf
00000070: a7c6 c73e 2d9c 2ebe dee4 94bd 47f1 5b3e

layers.0.mlp_edge_conv.gconv.convs.<stroke___intersects___stroke>.nn.0.weight f4 [32, 64]
-0.13783357 0.13691339 -0.039549634 0.13386276 -0.27170807 0.2713483 0.06273756 -0.23256569
0.41896442 -0.11733042 0.013745989 0.18424973 0.39694026 -0.0051445724 0.24080816 0.28895545
-0.30187792 0.11870162 -0.36260045 -0.21682063 -0.5877867 -0.030471047 -0.15402332 -0.5252256
0.092449896 -0.47185835 0.027740734 0.0517128 -0.14042684 -0.123182975 0.3006863 -0.26605088
-0.066522695 -0.013652286 -0.094158955 -0.3217123 0.02470293 -0.09946723 -0.093365304 0.025728276
-0.08011087 0.6381525 0.05135242 -0.25298542 -0.15556297 -0.1795271 -0.22781962 0.111214615
0.18437727 0.2703494 0.016760988 0.12626724 0.36839032 -0.01663893 0.059785306 0.22395
0.068169616 -0.021899417 0.029449536 -0.11537832 0.14837007 0.39782515 0.33405983 0.038675662
0.08773638 -0.10413593 -0.16123916 -0.4692402 -0.023125652 0.2230738 0.08811596 0.093952164
-0.12884052 0.019966045 -0.031475987 0.07095508 -0.16195105 -0.011766166 -0.29490077 -0.072548285
-0.25175318 -0.011185079 0.11241256 0.055663742 0.1474881 -0.14734441 0.16046304 0.06261773
-0.021564523 0.1439772 0.53053546 -0.10405693 -0.09058668 -0.0038841546 -0.10862742 -0.28813356
0.24600516 0.032876108 0.5996608 0.30211413 0.180919 0.03185722 0.049649738 0.1704851
0.06279098 -0.41495708 0.31567237 -0.09633441 -0.1504754 -0.17428224 0.05493725 -0.23284581
-0.0406043 -0.016615694 0.10528887 0.2935031 -0.39301267 0.22225906 -0.030237634 0.19230036
-0.12253299 0.07049888 -0.50026375 0.9493437 0.26653776 0.24070105 -0.06972299 0.8702358
-0.11810363 0.003189927 -0.04033027 0.13582063 0.03696593 0.15864436 0.02227704 0.057220753
-0.024292089 0.18344298 -0.06280808 -0.014485513 -0.49121124 -0.096579105 -0.095567994 -0.18815577
0.16416933 0.27509 0.3877695 0.14906836 -0.08094126 -0.48126742 0.13066545 0.1302514
-0.015416131 0.2847707 -0.114702545 0.2844785 0.024760425 0.09639737 -0.068375364 -0.015551942
0.5961023 0.078513406 0.54817027 0.32672998 0.41639194 0.33407086 0.41527274 0.01337855
0.31902096 -0.27809665 0.3584159 0.039161734 0.24164593 0.35104907 0.005509211 0.0033552211
0.16583799 0.12497205 0.17793399 0.14404075 0.036345735 0.123093516 -0.02298322 -0.2273903
-0.11949686 -0.12159399 0.13872935 0.41328928 0.5307202 0.29282707 0.06537145 0.759611
-0.5041951 -0.22974506 0.06046489 0.3932419 0.094902106 -0.16048405 -0.1292701 0.17036287
0.33212525 -0.2070636 -0.10272264 0.009476677 0.3952054 0.16772284 0.37274733 -0.04503127
-0.14985369 0.44265404 -0.35701138 -0.01177691 0.010649532 -0.23214526 -0.14315045 0.09535293
0.098001294 -0.06605398 -0.12272811 -0.25218815 -0.04524765 -0.5278492 -0.35216433 -0.10520379
0.6535447 -0.3583565 0.11732663 -0.472876 0.12723657 0.33800057 0.18312372 -0.20712203
-0.16319826 -0.34733337 0.21447249 -0.13217805 0.07248894 0.27089387 -0.17011037 -0.10756277
-0.19246593 0.02494518 0.14332996 0.017005846 0.21245012 0.022853317 0.07619761 -0.005635524
0.20770396 -0.24934918 0.12799811 0.078757994 0.14914994 -0.1707799 -0.13314337 -0.25586984
00000000: 3e24 0dbe 0633 0c3e ccfe 21bd 5213 093e
00000010: 521d 8bbe 2aee 8a3e 8d7c 803d b325 6ebe
00000020: 8182 d63e ee4a f0bd db36 613c f6ab 3c3e
00000030: c13b cb3e cd93 a8bb 6a96 763e f8f1 933e
00000040: be8f 9abe d619 f33d c4a6 b9be 3a06 5ebe
00000050: 3079 16bf 6b9e f9bc 4ab8 1dbe 2f75 06bf
00000060: 5f56 bd3d 6b97 f1be 8940 e33c cdd0 533d
00000070: 0ecc 0fbe 5b47 fcbd 8ef3 993e d237 88be
00000080: 0d3d 88bd d6ad 5fbc 69d6 c0bd 79b7 a4be
00000090: cd5d ca3c 7ab5 cbbd 4f36 bfbd 1bc4 d23c
000000a0: 2b11 a4bd f65d 233f ea56 523d 4e87 81be
000000b0: e64b 1fbe f4d5 37be 8c49 69be 7dc4 e33d
000000c0: 65cd 3c3e 3d6b 8a3e 574e 893c 334c 013e
000000d0: a89d bc3e 5e4e 88bc 70e1 743d 2653 653e
000000e0: 839c 8b3d 6866 b3bc 2740 f13c 784b ecbd
000000f0: 53ee 173e bdaf cb3e e409 ab3e 5f6a 1e3d
00000100: 22af b33d 3845 d5bd e11b 25be 4040 f0be
00000110: 0272 bdbc 756d 643e 2476 b43d fe69 c03d
00000120: c5ee 03be d58f a33c f7ec 00bd e650 913d
00000130: 7fd6 25be e1c6 40bc 3cfd 96be 3294 94bd
00000140: cbe5 80be 9f41 37bc 8e38 e63d aaff 633d
00000150: 1f07 173e 74e1 16be 6c50 243e b93d 803d
00000160: 15a8 b0bc c26e 133e 2cd1 073f cd1b d5bd
00000170: 8285 b9bd 4d8d 7ebb 0e78 debd 3e86 93be
00000180: c7e8 7b3e 19a9 063d 5f83 193f b4ae 9a3e
00000190: d542 393e b77c 023d 865d 4b3d a593 2e3e
000001a0: 8f98 803d 4175 d4be cf9f a13e fa4a c5bd
000001b0: 3916 1abe 0b77 32be e205 613d 226f 6ebe
000001c0: b250 26bd a31d 88bc b1a1 d73d 0a46 963e
000001d0: f538 c9be e197 633e eab4 f7bc 63ea 443e
000001e0: 94f2 fabd b861 903d 4911 00bf 3008 733f
000001f0: a377 883e 567a 763e edca 8ebd c6c7 5e3f
00000200: 51e0 f1bd 180e 513b 5a31 25bd 9014 0b3e
00000210: 9669 173d ab73 223e 577e b63c 4f60 6a3d
00000220: 3400 c7bc 7ad8 3b3e 86a1 80bd a554 6dbc
00000230: 0a80 fbbe 44cb c5bd 27b9 c3bd e8ab 40be
00000240: 011c 283e 99d8 8c3e b989 c63e 60a5 183e
00000250: 88c4 a5bd af68 f6be 2acd 053e 9f60 053e
00000260: f193 7cbc 77cd 913e 2be9 eabd 2aa7 913e
00000270: 60d6 ca3c fc6b c53d 6208 8cbd 93cd 7ebc
00000280: 299a 183f a3cb a03d e354 0c3f 2749 a73e
00000290: 5331 d53e 560b ab3e a19e d43e b531 5b3c
000002a0: b756 a33e af62 8ebe 4a82 b73e 0e68 203d
000002b0: 0872 773e b4bc b33e 9d86 b43b 45e3 5b3b
000002c0: 6fd1 293e 59f1 ff3d 5434 363e 6b7f 133e
000002d0: 44df 143d 7418 fc3d 4e47 bcbc 01d9 68be
000002e0: c5ba f4bd 4506 f9bd 110f 0e3e a79a d33e
000002f0: 47dd 073f 6eed 953e 77e1 853d de75 423f
00000300: ee12 01bf 4a42 6bbe 08aa 773d 0157 c93e
00000310: 095c c23d ee55 24be 625f 04be 9b73 2e3e
00000320: 520c aa3e 7b08 54be 3f60 d2bd 1044 1b3c
00000330: 5d58 ca3e 89bf 2b3e bdd8 be3e b572 38bd
00000340: 3f73 19be 8da3 e23e 32ca b6be f1f3 40bc
00000350: 607b 2e3c 7db7 6dbe 0896 12be 6648 c33d
00000360: e7b4 c83d 4f47 87bd e058 fbbd ce1e 81be
00000370: 9a55 39bd 2021 07bf e24e b4be 1675 d7bd
00000380: b54e 273f 817a b7be f248 f03d ce1c f2be
00000390: 4e4a 023e 690e ad3e c984 3b3e cc17 54be
000003a0: 721d 27be aed5 b1be ad9e 5b3e af59 07be
000003b0: 1575 943d 9ab2 8a3e 6a31 2ebe df49 dcbd
000003c0: ca15 45be d659 cc3c 17c5 123e d84f 8b3c
000003d0: 868c 593e e136 bb3c 7e0d 9c3d 34aa b8bb
000003e0: 59b0 543e 6455 7fbe f011 033e df4b a13d
000003f0: c3ba 183e ede0 2ebe bc56 08be 5f01 83be

layers.0.mlp_edge_conv.gconv.convs.<stroke___intersects___stroke>.nn.0.bias f4 [32]
0.027206266 0.24026169 0.18871145 -0.18732545 -0.3798301 -0.4058135 0.1794637 -0.38235337
-0.2622283 -0.25206235 0.18325959 -0.027494568 -0.094071254 -0.06563392 0.05725951 -0.21484879
0.24348208 -0.19005622 -0.3337284 0.058586903 0.00025930043 -0.1869364 -0.21201676 -0.042412985
0.28343728 0.57813305 -0.100726254 0.027039709 -0.04539634 0.10935933 -0.10474431 -0.28602448
00000000: addf de3c 2907 763e 933d 413e 3ed2 3fbe
00000010: 1779 c2be c9c6 cfbe 55c5 373e d2c3 c3be
00000020: ca42 86be 510e 81be 67a8 3b3e 4a3c e1bc
00000030: 6ea8 c0bd 146b 86bd f388 6a3d 5201 5cbe
00000040: 5e53 793e 199e 42be 73de aabe d2f8 6f3d
00000050: b7f2 8739 416c 3fbe ec1a 59be 3db9 2dbd
00000060: b11e 913e 8700 143f 9149 cebd 6182 dd3c
00000070: 83f1 39bd c9f7 df3d 2f84 d6bd cd71 92be

layers.0.mlp_edge_conv.gconv.convs.<stroke___strokecoplanar___stroke>.nn.0.weight f4 [32, 64]
0.027779946 -0.16914926 -0.1627473 -0.21376778 -0.08384604 0.03908804 -0.15869251 -0.18021987
-0.10907259 -0.053069245 -0.057467256 0.02681308 -0.18774982 -0.09092367 -0.12867701 0.010629875
-0.09071273 -0.17829281 -0.035808787 -0.16916065 -0.1932167 0.06621721 -0.14957231 0.008863871
0.014071187 -0.1653003 -0.047509328 -0.16734245 -0.011172968 0.020803 -0.18999581 -0.055385303
0.03020822 -0.06536948 -0.16281496 0.051205788 0.018105837 -0.023819504 -0.027950075 -0.08190203
-0.04000733 -0.10642997 0.1355913 -0.02520564 0.11547731 -0.080755174 0.013748206 -0.08358816
0.026586713 0.02936141 -0.08110295 -0.05432876 -0.053884644 -0.062380005 0.0495959 -0.011113515
-0.008790988 0.026234342 0.0059970086 0.06786658 -0.18125427 -0.022403786 0.044823878 -0.19902302
-0.2013271 -0.18766244 -0.3263218 -0.042253792 0.011489968 -0.18667252 -0.20893902 -0.048137154
-0.17558311 -0.14810571 -0.0460183 -0.29713723 -0.05853012 -0.09133432 -0.07474641 -0.19239485
-0.048270516 -0.12871915 0.07389424 0.18333271 0.055645306 -0.15536107 0.20019956 0.11601331
-0.29096106 0.1220434 -0.14766029 -0.1661182 0.07253066 -0.01344962 -0.15692921 -0.16689506
-0.207887 0.00827564 0.07188998 -0.16987127 -0.18251626 -0.068824805 0.18252048 -0.04710537
-0.20878431 0.2042434 0.028496074 0.121141195 -0.008171668 -0.0012671552 -0.006519535 0.042884734
-0.023610232 -0.40530235 -0.054888245 -0.50717705 -0.23471577 -0.16626316 0.0014502469 -0.3916692
0.033362232 -0.33843333 0.29928452 0.034130268 -0.11580802 -0.06293068 0.28008565 -0.30536202
-0.14787205 -0.23998018 -0.22120693 -0.15689768 -0.106467925 -0.20171094 -0.18357046 -0.13756393
-0.20923494 -0.024616575 -0.014953997 -0.07449583 0.1419436 -0.012953282 0.09502298 -0.35597134
0.12410183 0.26273125 -0.09356493 -0.19104329 -0.31910467 -0.15822062 -0.07471426 0.12193021
-0.007289808 0.10190909 -0.03559887 -0.1777094 -0.14665663 0.021330366 0.17875896 -0.1536066
-0.24268952 -0.14757712 -0.059191998 0.12761106 -0.20182458 0.010538395 -0.18865594 0.050373662
0.21598141 -0.07666416 -0.052204117 -0.13006417 0.17997111 0.08113998 -0.058498602 0.20910898
-0.19213067 0.34846714 -0.44835174 -0.27658606 0.1436603 0.15854178 -0.2624972 -0.3207299
0.12847379 -0.34138483 -0.34583995 -0.29993394 -0.27259526 -0.03803883 -0.142348 -0.321983
-0.22734174 0.113120124 -0.04377019 0.082295276 0.06181072 -0.15412214 -0.0775414 0.10456196
0.14150085 0.21043661 -0.0018776921 -0.03585248 0.067199044 0.29405797 0.33929798 -0.11384797
-0.0016211059 0.11182404 -0.19908807 -0.10598858 -0.031100558 -0.19532149 -0.20536649 -0.18284091
0.24969344 0.03857451 -0.094949655 0.082201086 -0.08364468 0.089931235 0.07428105 -0.08122797
0.2315379 -0.024481557 -0.029958172 0.07578816 -0.03901903 -0.11106963 -0.040861025 -0.03738963
0.1335134 0.09545245 0.25377107 0.2981543 -0.06940453 -0.25318772 0.2355729 0.09729904
0.22868161 -0.07013035 0.31609067 -0.17292017 -0.16648844 -0.037857834 -0.17685293 -0.08965487
-0.15929444 -0.1376967 -0.2522392 0.058973912 -0.14845689 -0.14663191 0.15211196 -0.049317498
00000000: c592 e33c 7735 2dbe 3aa7 26be f1e5 5abe
00000010: 79b7 abbd c81a 203d 4a80 22be 8f8b 38be
00000020: 7361 dfbd 235f 59bd c962 6bbd 1ba7 db3c
00000030: 7d41 40be 3036 babd e8c3 03be ed28 2e3c
00000040: 99c7 b9bd 6492 36be 3cac 12bd 7338 2dbe
00000050: 99da 45be e39c 873d 7c29 19be c539 113c
00000060: d68a 663c 7b44 29be 2499 42bd d25b 2bbe
00000070: d30e 37bc 0e6b aa3c 438e 42be b3db 62bd
00000080: 3b77 f73c 6fe0 85bd f7b8 26be 29bd 513d
00000090: b152 943c 1f21 c3bc 8ef7 e4bc 40bc a7bd
000000a0: bade 23bd f5f7 d9bd 72d8 0a3e 0f7c cebc
000000b0: 5e7f ec3d f862 a5bd 2840 613c 4530 abbd
000000c0: 61cc d93c 5787 f03c 4e19 a6bd d587 5ebd
000000d0: 25b6 5cbd 2d82 7fbd 1225 4b3d 7615 36bc
000000e0: 1308 10bc 67e9 d63c 8e82 c43b a2fd 8a3d
000000f0: b89a 39be 2588 b7bc 3e99 373d b1cc 4bbe
00000100: b128 4ebe 952a 40be a713 a7be 5012 2dbd
00000110: 6b40 3c3c 1527 3fbe 1cf4 55be 772b 45bd
00000120: 0fcc 33be 06a9 17be af7d 3cbd 5f22 98be
00000130: 47bd 6fbd 7d0d bbbd a514 99bd 2803 45be
00000140: 4eb7 45bd f4ce 03be dd55 973d 92bb 3b3e
00000150: 55ec 633d f916 1fbe 1d01 4d3e 6398 ed3d
00000160: d9f8 94be e4f1 f93d 4234 17be e41a 2abe
00000170: f48a 943d cc5b 5cbc 0db2 20be 8ae6 2abe
00000180: 54e0 54be 8d96 073c 0e3b 933d bcf2 2dbe
00000190: 8be5 3abe 05f4 8cbd a6e6 3a3e 8ff1 40bd
000001a0: 8ecb 55be 2f25 513e 9970 e93c e018 f83d
000001b0: 76e2 05bc ac16 a6ba d3a1 d5bb e7a7 2f3d
000001c0: 3f6a c1bc ca83 cfbe 7fd2 60bd 5bd6 01bf
000001d0: 5559 70be e440 2abe 3616 be3a de88 c8be
000001e0: d6a6 083d 2247 adbe d23b 993e 2ecc 0b3d
000001f0: c12c edbd cde1 80bd 6367 8f3e 6958 9cbe
00000200: c56b 17be 5dbd 75be 1284 62be c9a9 20be
00000210: db0b dabd 508d 4ebe e5f9 3bbe 8fdd 0cbe
00000220: af41 56be b3a8 c9bc 9c01 75bc 4591 98bd
00000230: aa59 113e 013a 54bc 689b c23d e041 b6be
00000240: 1a29 fe3d b684 863e f89e bfbd daa0 43be
00000250: b061 a3be 9604 22be ca03 99bd 8cb6 f93d
00000260: 57df eebb b7b5 d03d 1fd0 11bd 74f9 35be
00000270: 282d 16be 05bd ae3c 970c 373e 0c4b 1dbe
00000280: 9a83 78be 751e 17be 4f73 72bd 79ac 023e
00000290: 1aab 4ebe 3ba9 2c3c 062f 41be 9d54 4e3d
000002a0: 3b2a 5d3e 1902 9dbd fcd3 55bd 8b2f 05be
000002b0: 594a 383e b82c a63d 3b9c 6fbd aa20 563e
000002c0: e7bd 44be 496a b23e 5c8e e5be b09c 8dbe
000002d0: b01b 133e c758 223e 0866 86be b636 a4be
000002e0: a28e 033e fec9 aebe ef11 b1be f190 99be
000002f0: 9b91 8bbe 9bce 1bbd adc3 11be f5da a4be
00000300: 46cc 68be 86ab e73d 5f48 33bd 6d8a a83d
00000310: 3d2d 7d3d 32d2 1dbe 07ce 9ebd 9524 d63d
00000320: 99e5 103e b27c 573e e41c f6ba 0dda 12bd
00000330: a79f 893d c48e 963e 77b8 ad3e 2029 e9bd
00000340: 4a7b d4ba 0104 e53d bedd 4bbe 8a10 d9bd
00000350: 99c6 febc 5b02 48be 984b 52be a63a 3bbe
00000360: a3af 7f3e 4e00 1e3d f774 c2bd 0b59 a83d
00000370: e74d abbd de2d b83d aa20 983d da5a a6bd
00000380: 4518 6d3e 8c8d c8bc d76a f5bc d336 9b3d
00000390: 6bd2 1fbd 7978 e3bd e45d 27bd de25 19bd
000003a0: bdb7 083e 937c c33d 48ee 813e aea7 983e
000003b0: f623 8ebd d2a1 81be 063a 713e b844 c73d
000003c0: 832b 6a3e 80a0 8fbd a3d6 a13e fc11 31be
000003d0: f27b 2abe d110 1bbd ef18 35be f99c b7bd
000003e0: 151e 23be 5d00 0dbe 7f25 81be a18e 713d
000003f0: 1505 18be ad26 16be 3dc3 1b3e 2501 4abd

layers.0.mlp_edge_conv.gconv.convs.<stroke___strokecoplanar___stroke>.nn.0.bias f4 [32]
-0.09672439 0.107889816 0.090484105 -0.2154757 -0.14536402 -0.3673235 -0.19224241 -0.063954584
-0.12329094 -0.19859529 -0.15018572 -0.19876178 -0.15110824 -0.3390772 -0.06560517 -0.15928799
-0.06257327 -0.29088354 0.0662539 0.14268924 0.30943072 0.52074105 -0.052961707 -0.09760073
0.30325174 0.23243077 -0.018708963 -0.004964529 -0.011233939 -0.0032309212 -0.12938395 -0.18757354
00000000: 7017 c6bd 56f5 dc3d bb4f b93d a9a5 5cbe
00000010: 4eda 14be d311 bcbe 32db 44be 9ffa 82bd
00000020: f67f fcbd 905c 4bbe 49ca 19be 3588 4bbe
00000030: 1ebc 1abe 879b adbe 015c 86bd 641c 23be
00000040: 6a26 80bd b0ee 94be 20b0 873d 211d 123e
00000050: b46d 9e3e 494f 053f 60ee 58bd e4e2 c7bd
00000060: d043 9b3e 5502 6e3e 8a43 99bc 7dad a2bb
00000070: 8e0e 38bc ddbd 53bb 3a7d 04be 4713 40be

layers.1.mlp_edge_conv.gconv.convs.<stroke___intersects___stroke>.nn.0.weight f4 [32, 64]
-0.03379299 -0.13980313 0.004109092 0.23190844 0.015989583 -0.007986946 -0.05827152 -0.060072612
0.1321339 -0.21467793 -0.24373034 0.10593324 0.034939438 -0.11436695 0.18104376 0.10259326
0.091839835 -0.00015912938 -0.19336231 -0.5392236 -0.11052913 0.02613341 0.11395541 -0.20288518
-0.26090378 -0.25449675 -0.49304935 0.04996238 -0.6496418 -0.24661791 0.19649015 -0.108376764
-0.5635538 -0.3687664 -0.5322092 -0.48618397 0.2667542 0.15102117 -0.55986357 -0.18552594
0.09904787 -0.030014513 -0.26159012 -0.034575574 -0.14642438 -0.45371345 -0.3651469 -0.8679124
-0.39406502 -0.38197896 -0.24853763 0.0844455 -0.11469538 -0.1051335 -0.27490613 -0.1609685
0.025579724 -0.1712151 -0.14122976 -0.52807695 -0.010007981 -0.012919111 -0.16663608 -0.12569791
-0.29627615 0.018686494 -0.075808965 -0.18964435 0.0056227483 -0.17895453 -0.36802885 0.002397242
-0.14218916 0.14872523 0.11841663 -0.17416425 0.096919544 -0.07907383 -0.23151973 -0.33803305
0.21333395 0.023014037 -0.07696896 0.06539288 -0.049531754 -0.014234155 -0.25421014 0.005283012
0.07483823 -0.01988407 -0.019512204 -0.036265142 -0.010273146 0.2142157 -0.12960503 -0.11131025
-0.084118605 0.27739388 0.07896188 0.26975954 -0.1071276 0.12266238 0.3209525 -0.044785257
0.30173486 0.053311065 -0.5617858 0.14049464 -0.40935 -0.062155344 -0.1756047 0.29914004
-0.29971012 0.20925568 -0.26918584 -0.4408946 0.03361139 -0.20784035 0.11577301 0.116131924
-0.10883292 -0.22818892 0.10736527 0.25398186 0.44068226 -0.13181803 0.43630573 0.29898077
0.062822714 0.16127628 0.021098487 -0.2625203 0.15049419 0.12611388 -0.19999562 -0.10089944
-0.09214715 0.012507224 -0.13509426 0.14910273 -0.24986286 -0.043040313 -0.24042994 -0.33257225
-0.19887967 0.1182816 0.09448442 0.019939642 0.13620731 -0.09957253 0.032810587 0.29789826
0.2656376 0.05909719 -0.16453741 -0.011623969 0.13445951 -0.13350582 -0.12393533 0.05170419
0.43483588 -0.04971198 -0.0077154357 0.33652171 0.23072512 0.12534785 0.19071959 0.3704127
0.4384458 0.11811066 0.07529522 0.2302278 -0.048840612 0.23949577 0.32056072 0.35484076
0.35651788 0.28042096 -0.35237792 0.29183108 -0.08470656 0.17193516 -0.20635672 0.035782095
-0.29772845 -0.37425667 0.24510479 0.15873782 0.23156662 -0.23573284 0.09547128 0.03314367
-0.11491904 -0.26818022 0.02629239 -0.031618893 -0.3312224 -0.073804565 0.04668319 -0.12111321
0.056987714 -0.3917534 -0.14417337 -0.35324872 -0.12771729 0.035055857 -0.01843532 0.08988642
-0.33120704 -0.1748881 0.017333906 -0.15547067 -0.119210854 0.0059314882 0.011785832 -0.0617079
-0.18602687 -0.20610268 -0.3429664 -0.18884955 -0.19352041 -0.2957926 -0.17382279 0.0061962935
-0.055161342 -0.06890243 -0.14026281 0.081589855 0.075999096 0.06252089 -0.0012948356 0.08863438
-0.02515067 -0.123609856 0.07912377 -0.11937376 0.10199947 -0.03552364 -0.3511544 -0.0995939
-0.0315251 0.13238858 0.010066482 0.048168216 -0.16623716 -0.35056183 0.107995205 -0.08311367
-0.15414885 0.12852895 -0.23936486 -0.11481549 0.012360083 -0.15475343 -0.12418469 0.08919705
00000000: 856a 0abd 8d28 0fbe 90a5 863b 6879 6d3e
00000010: 96fc 823c aedb 02bc 1eae 6ebd b30e 76bd
00000020: 1c4e 073e 88d4 5bbe 7294 79be 87f3 d83d
00000030: a81c 0f3d 3839 eabd 8963 393e 6a1c d23d
00000040: 8616 bc3d f8db 26b9 c500 46be 8f0a 0abf
00000050: 195d e2bd bc15 d63c 7461 e93d 22c1 4fbe
00000060: 2e95 85be 664d 82be f770 fcbe 5aa5 4c3d
00000070: ed4e 26bf 6889 7cbe b734 493e a3f4 ddbd
00000080: 1045 10bf f3ce bcbe dd3e 08bf 1bed f8be
00000090: 0294 883e 4ba5 1a3e 3853 0fbf 83fa 3dbe
000000a0: 9cd9 ca3d ffe0 f5bc 24ef 85be 1e9f 0dbd
000000b0: 46f0 15be 214d e8be 89f4 babe 822f 5ebf
000000c0: e4c2 c9be bf92 c3be a680 7ebe c3f1 ac3d
000000d0: 69e5 eabd 3c50 d7bd 7fc0 8cbe edd4 24be
000000e0: 928c d13c 0353 2fbe 899e 10be 0d30 07bf
000000f0: 84f8 23bc aeaa 53bc a6a2 2abe f4b6 00be
00000100: 82b1 97be 6b14 993c bb41 9bbd 2132 42be
00000110: 083f b83b db3f 37be 476e bcbe 0c1b 1d3b
00000120: 099a 11be 6d4b 183e 6b84 f23d 1d58 32be
00000130: c17d c63d 76f1 a1bd 8213 6dbe ab12 adbe
00000140: 3774 5a3e ef87 bc3c e7a1 9dbd b4ec 853d
00000150: cfe1 4abd 6036 69bc d527 82be 1e1d ad3b
00000160: c944 993d ebe3 a2bc 0fd8 9fbc c28a 14bd
00000170: b350 28bc 5c5b 5b3e 2eb7 04be a1f6 e3bd
00000180: 6046 acbd 9206 8e3e c4b6 a13d ec1d 8a3e
00000190: b765 dbbd 6a36 fb3d e353 a43e bf70 37bd
000001a0: fe7c 9a3e b45c 5a3d 32d1 0fbf d4dd 0f3e
000001b0: 5396 d1be 9a96 7ebd b8d1 33be e228 993e
000001c0: 9b73 99be 1f47 563e bad2 89be f0bc e1be
000001d0: 19ac 093d 1ad4 54be 661a ed3d 93d6 ed3d
000001e0: cbe3 debd 5baa 69be 53e2 db3d e909 823e
000001f0: 1ba1 e13e 4efb 06be 7763 df3e 0214 993e
00000200: 32a9 803d 9c25 253e bcd6 ac3c 1069 86be
00000210: 261b 1a3e ff23 013e a7cb 4cbe 5ea4 cebd
00000220: a5b7 bcbd 1aeb 4c3c 2656 0abe 63ae 183e
00000230: 0ddc 7fbe 0a4b 30bd 4433 76be e946 aabe
00000240: 1da7 4bbe a03d f23d 0c81 c13d 7658 a33c
00000250: ee79 0b3e afec cbbd 6564 063d 1f86 983e
00000260: a701 883e e50f 723d 7f7c 28be 7672 3ebc
00000270: c1af 093e c0b5 08be ced1 fdbd c6c7 533d
00000280: cfa2 de3e ca9e 4bbd c4d1 fcbb 934c ac3e
00000290: 3543 6c3e 305b 003e ff4b 433e bca6 bd3e
000002a0: f87b e03e 00e4 f13d 6134 9a3d d6c0 6b3e
000002b0: 180d 48bd 613e 753e 8920 a43e b0ad b53e
000002c0: 8389 b63e 5693 8f3e e16a b4be e26a 953e
000002d0: a27a adbd c50f 303e 2d4f 53be 3f90 123d
000002e0: dd6f 98be 929e bfbe c0fc 7a3e 2b8c 223e
000002f0: cd1f 6d3e f363 71be 7286 c33d a8c1 073d
00000300: ac5a ebbd eb4e 89be 2363 d73c d082 01bd
00000310: fb95 a9be d926 97bd df36 3f3d 340a f8bd
00000320: f36b 693d e793 c8be 2fa2 13be 04dd b4be
00000330: 52c8 02be bb96 0f3d ab05 97bc 5f16 b83d
00000340: f893 a9be de15 33be d6ff 8d3c b433 1fbe
00000350: d224 f4bd ee5c c23b 5d19 413c 6cc1 7cbd
00000360: d47d 3ebe 950c 53be 4b99 afbe c761 41be
00000370: 372a 46be 2172 97be 9afe 31be 470a cb3b
00000380: dcf0 61bd b81c 8dbd 0ea1 0fbe 9518 a73d
00000390: 6aa5 9b3d f40a 803d 79b7 a9ba f185 b53d
000003a0: c708 cebc 2a27 fdbd a50b a23d 3b7a f4bd
000003b0: 19e5 d03d 3d81 11bd 82ca b3be e3f7 cbbd
000003c0: 7720 01bd df90 073e e3ed 243c 094c 453d
000003d0: 133a 2abe d77c b3be 972c dd3d 8037 aabd
000003e0: 32d9 1dbe 189d 033e 101c 75be 6224 ebbd
000003f0: f281 4a3c af77 1ebe 8b54 febd f1ac b63d

layers.1.mlp_edge_conv.gconv.convs.<stroke___intersects___stroke>.nn.0.bias f4 [32]
-0.42861038 0.023497507 0.46207103 -0.08141762 -0.07177188 -0.33368126 -0.08997647 -0.15466012
-0.013393861 -0.41438887 0.49942484 -0.22800303 0.06737129 -0.18959096 0.26845762 -0.11241457
0.048546884 0.21194927 -0.3730837 0.01994586 -0.16845475 -0.026944881 -0.2003487 -0.18213439
0.15048827 0.12062263 0.12088447 -0.048410043 -0.035186026 -0.07867609 0.013699371 -0.29953888
00000000: d272 dbbe d87d c03c 9394 ec3e 48be a6bd
00000010: 23fd 92bd 45d8 aabe 9545 b8bd 395f 1ebe
00000020: ed71 5bbc c72a d4be 9db4 ff3e a079 69be
00000030: f5f9 893d 2224 42be 4773 893e 9c39 e6bd
00000040: 19d9 463d 3b09 593e d404 bfbe 8065 a33c
00000050: 677f 2cbe 83bb dcbc 3628 4dbe 7081 3abe
00000060: 9919 1a3e ff08 f73d 4792 f73d 9c49 46bd
00000070: 391f 10bd ee20 a1bd 5473 603c 295d 99be

layers.1.mlp_edge_conv.gconv.convs.<stroke___strokecoplanar___stroke>.nn.0.weight f4 [32, 64]
-0.28802705 0.11096111 0.040402155 -0.11631895 -0.03300222 -0.27777702 -0.22135957 -0.117440335
-0.112860106 -0.15326853 -0.2474259 -0.052397627 -0.0016294774 -0.015589383 0.010873248 0.04908715
-0.39351743 -0.00066664483 0.056802776 0.04305858 -0.17881194 -0.14405346 0.086847834 0.14090623
-0.11533022 0.023735758 -0.022367258 -0.2573017 -0.23455301 0.001627703 0.24743241 0.26488015
0.06317121 -0.14003758 0.055548057 0.051683873 -0.0172644 -0.0070425784 0.14190072 -0.08066246
-0.12693027 -0.013437003 0.22231159 0.04436194 -0.341136 -0.08828088 -0.16912374 -0.12160849
0.27869058 -0.27811906 -0.13554025 -0.06889766 -0.32587707 0.13880791 -0.23012957 -0.17577256
0.025105435 -0.06755311 0.09858737 0.15864144 0.05159065 0.10444965 -0.31447652 -0.27354997
-0.08590375 -0.09129741 0.05753811 -0.4309342 -0.16367233 -0.14429896 -0.24262545 -0.3174891
-0.31715068 -0.13214985 -0.09108155 0.015707774 -0.11812465 -0.06229548 -0.2712949 -0.2561211
-0.21952972 -0.27731112 -0.02709208 -0.10755767 -0.004879955 -0.19658516 0.07930415 -0.12537245
0.14586867 0.0941283 -0.18654464 0.13311674 -0.05104303 0.06527238 -0.10521841 -0.13436085
0.0060073487 -0.13697657 0.3475163 -0.09142919 -0.077664495 -0.16218574 -0.055876985 0.094092324
0.22783826 -0.11629375 0.35502264 -0.40494743 0.14092164 -0.25831756 0.2623712 -0.036804743
-0.01713205 0.007560021 -0.10274217 0.033794425 -0.23007959 -0.24221596 0.2311032 0.06916392
0.3283319 -0.27087975 -0.12998405 0.10407889 -0.50215065 -0.24124286 0.20209326 -0.3851851
0.19109936 -0.19418523 -0.1207317 -0.22184965 -0.102317475 -0.075263165 0.029105924 -0.17693675
-0.25278196 -0.07175362 -0.02202626 -0.008416349 0.06597548 0.11841244 0.23003742 0.022783028
-0.041396193 0.036905274 0.43139175 -0.09333805 -0.17880479 -0.29201508 0.100087374 0.030324697
0.21454789 0.03841415 -0.23375882 -0.013089005 -0.27362594 -0.29547453 0.1737572 -0.0027975177
-0.053210463 -0.11468818 -0.23236853 0.051773764 0.13773702 0.04016222 -0.3787178 0.11229896
0.071320355 -0.118379995 -0.36007395 0.04059747 -0.11134003 -0.11055327 -0.4625689 -0.09606022
-0.056165382 0.07043872 0.2135399 0.12344416 0.30772892 0.23429877 0.1471327 0.09676035
-0.1728494 -0.050613277 0.03745502 -0.28342283 -0.145361 0.036533717 -0.39110693 -0.21509242
-0.0405307 0.20004874 0.114940085 -0.41653687 -0.023161372 0.044410594 -0.069108136 -0.12102942
0.14954221 -0.2851533 -0.010737608 -0.07377622 -0.09997353 -0.014492591 0.18183658 -0.14065276
-0.16470896 -0.11583899 0.21347672 0.08883114 -0.046730746 -0.14242096 -0.22943984 0.050357524
0.24066101 0.1203431 -0.034657523 -0.031548377 -0.20076782 0.061728522 0.1012658 -0.036724042
0.09575338 0.008874344 0.3992769 0.4031287 0.28008848 0.21463671 0.23049103 0.18319842
0.15188067 0.2965023 -0.08934094 0.16443454 -0.09746961 0.39810345 0.2601193 0.48823956
0.40122333 0.26516977 0.032477494 0.03931504 0.02012596 0.083837405 0.31829306 -0.078402914
0.06979637 0.28902856 0.014882183 0.18526953 0.23625627 -0.103526816 -0.01694347 -0.02309396
00000000: 4878 93be 943f e33d bb7c 253d a138 eebd
00000010: 562d 07bd ca38 8ebe 15ac 62be 8f84 f0bd
00000020: 3323 e7bd 6df2 1cbe 375d 7dbe e59e 56bd
00000030: 3094 d5ba 9d6a 7fbc b525 323c 9b0f 493d
00000040: 1e7b c9be c7c1 2eba 07aa 683d 325e 303d
00000050: 7a1a 37be c082 13be 47dd b13d b949 103e
00000060: 4032 ecbd 7e71 c23c 8a3b b7bc 0cbd 83be
00000070: aa2e 70be a658 d53a ec5e 7d3e 5f9e 873e
00000080: e85f 813d 0366 0fbe 5c86 633d 78b2 533d
00000090: 126e 8dbc 6ec5 e6bb 6c4e 113e 5c32 a5bd
000000a0: 02fa 01be e026 5cbc a6a5 633e deb4 353d
000000b0: 61a9 aebe 9bcc b4bd c62e 2dbe df0d f9bd
000000c0: 88b0 8e3e 9f65 8ebe 10cb 0abe 371a 8dbd
000000d0: 5cd9 a6be a923 0e3e 16a7 6bbe b9fd 33be
000000e0: eaa9 cd3c 4959 8abd 2de8 c93d e772 223e
000000f0: b850 533d b3e9 d53d 1103 a1be be0e 8cbe
00000100: 4eee afbd 23fa babd 15ad 6b3d 68a3 dcbe
00000110: b899 27be 1bc3 13be ce72 78be ee8d a2be
00000120: 9361 a2be 4a52 07be f788 babd 97ad 803c
00000130: 56eb f1bd 8c29 7fbd 2ae7 8abe 4e22 83be
00000140: 66cc 60be b9fb 8dbe 36f0 ddbc 3247 dcbd
00000150: 08e8 9fbb 9f4d 49be 376a a23d a361 00be
00000160: 995e 153e 57c6 c03d 8f05 3fbe c14f 083e
00000170: 7f12 51bd 87ad 853d c07c d7bd e495 09be
00000180: 4bd9 c43b 9643 0cbe a8ed b13e 3a3f bbbd
00000190: 900e 9fbd 0514 26be 44df 64bd 7ab3 c03d
000001a0: 6f4e 693e 6b2b eebd 87c5 b53e 4555 cfbe
000001b0: c34d 103e 3342 84be 8555 863e 92c0 16bd
000001c0: 8358 8cbc 0dba f73b 7d6a d2bd 066c 0a3d
000001d0: fc99 6bbe 7607 78be 51a6 6c3e d0a5 8d3d
000001e0: 1e1b a83e c0b0 8abe 8a1a 05be 5027 d53d
000001f0: f28c 00bf 5e08 77be 89f1 4e3e fb36 c5be
00000200: 8daf 433e 7ed8 46be 2e42 f7bd 8e2c 63be
00000210: d38b d1bd 9323 9abd 8c6f ee3c e82e 35be
00000220: a36c 81be 90f3 92bd 6a70 b4bc bae4 09bc
00000230: 271e 873d 3982 f23d ee8e 6b3e 79a3 ba3c
00000240: 0e8f 29bd fc29 173d 61df dc3e 0528 bfbd
00000250: 9a18 37be 0083 95be 9cfa cc3d 806b f83c
00000260: 71b2 5b3e 2858 1d3d 795e 6fbe 4473 56bc
00000270: b318 8cbe 7048 97be 68ed 313e 8f56 37bb
00000280: 37f3 59bd a3e1 eabd 04f2 6dbe ba10 543d
00000290: ef0a 0d3e 2481 243d 4de7 c1be fffc e53d
000002a0: 6810 923d 3671 f2bd 9d5b b8be 8849 263d
000002b0: 3e06 e4bd c169 e2bd d5d5 ecbe 38bb c4bd
000002c0: ac0d 66bd 2d42 903d 34aa 5a3e 4bd0 fc3d
000002d0: a58e 9d3e 04ec 6f3e f4a9 163e 4a2a c63d
000002e0: 6fff 30be de4f 4fbd 6f6a 193d cc1c 91be
000002f0: 84d9 14be 61a4 153d 2b3f c8be 3041 5cbe
00000300: 8503 26bd 94d9 4c3e b565 eb3d 5244 d5be
00000310: ebbc bdbc e2e7 353d 9188 8dbd 46de f7bd
00000320: 9821 193e 9dff 91be cbec 2fbc fd17 97bd
00000330: ecbe ccbd 5572 6dbc 5e33 3a3e 4707 10be
00000340: 77a9 28be fe3c edbd a499 5a3e 1aed b53d
00000350: bd68 3fbd cdd6 11be 47f2 6abe b143 4e3d
00000360: d76f 763e 7176 f63d 0cf5 0dbd df38 01bd
00000370: 1496 4dbe 0cd7 7c3d 7264 cf3d f36b 16bd
00000380: 591a c43d b265 113c 066e cc3e e366 ce3e
00000390: c267 8f3e bac9 5b3e d705 6c3e 5e98 3b3e
000003a0: 9b86 1b3e 26cf 973e 62f8 b6bd 8761 283e
000003b0: 269e c7bd 37d4 cb3e 5b2e 853e 89fa f93e
000003c0: 256d cd3e 55c4 873e 1f07 053d cf08 213d
000003d0: 33df a43c f2b2 ab3d 4ff7 a23e b591 a0bd
000003e0: 66f1 8e3d 8dfb 933e 66d4 733c 4cb7 3d3e
000003f0: 2aed 713e de05 d4bd 08cd 8abc 8b2f bdbc

layers.1.mlp_edge_conv.gconv.convs.<stroke___strokecoplanar___stroke>.nn.0.bias f4 [32]
-0.43711266 0.17813142 -0.044326734 0.061940156 -0.018617133 -0.16736251 -0.2172804 0.003136515
-0.08293365 -0.2884415 0.080733605 0.0029852667 -0.10250921 -0.0048593804 -0.2127231 -0.100292586
0.07435531 -0.12268024 -0.26083517 -0.0728895 -0.0735365 0.04479504 -0.0027252766 0.22480008
0.051584177 -0.043817442 -0.105937704 0.058221728 0.0043430296 -0.069551386 0.07726316 -0.14984268
00000000: 3bcd dfbe 1568 363e f38f 35bd f6b4 7d3d
00000010: f582 98bc 1461 2bbe c17e 5ebe fd8d 4d3b
00000020: 1ed9 a9bd 9bae 93be a957 a53d 77a4 433b
00000030: 59f0 d1bd 703b 9fbb 16d4 59be 3366 cdbd
00000040: 9947 983d c73f fbbd 308c 85be 1747 95bd
00000050: 4e9a 96bd 017b 373d 8e9a 32bb fe31 663e
00000060: ee49 533d eb79 33bd def5 d8bd e879 6e3d
00000070: f94f 8e3b f570 8ebd 263c 9e3d 5c70 19be

layers.2.mlp_edge_conv.gconv.convs.<stroke___intersects___stroke>.nn.0.weight f4 [32, 64]
0.11052914 -0.15313315 -0.23687893 -0.049017765 -0.120605014 0.14499405 -0.12269074 -0.16002789
-0.034480877 0.08360575 -0.08993304 0.05554428 0.22870606 -0.039394528 -0.011895372 0.09960926
-0.17944704 0.087455474 0.2732955 -0.12077643 0.106228136 0.036366053 -0.06556134 -0.04635261
-0.096389204 -0.07661362 -0.24642147 -0.25036126 -0.14274742 -0.08280811 -0.033201907 0.081582546
-0.024507647 -0.055837687 -0.06370123 -0.12481655 -0.7156396 0.0923974 0.09221664 -0.1821608
0.01509433 0.25074747 0.44040275 0.13930121 0.3877782 -0.10183804 0.29578146 0.10436067
0.23102395 -0.006271937 0.65800387 -0.34621358 -0.035211585 -0.5536036 0.05671828 -0.09115332
0.0122310985 -0.4624887 -0.35316643 0.024833532 -0.53134024 -0.20507045 0.39111507 -0.15750773
-0.26927498 0.0664653 0.18508069 -0.14750518 -0.026852679 -0.47577402 -0.15411581 0.07235054
-0.031912472 -0.17350805 0.14627251 -0.17207234 -0.22875983 0.22507633 0.2551336 0.08729833
0.09142267 -0.3850816 0.1963773 0.084437065 -0.16325931 -0.11508535 -0.56104755 0.13807784
0.42872632 0.26105532 0.033214882 0.15719153 -0.20633215 0.019098405 -0.18855517 -0.069526345
0.06945283 -0.120196864 0.16675 0.2517121 0.112698115 0.49056473 0.65626 0.02734379
0.22954516 -0.34010592 0.4829654 0.17236128 0.18205133 1.3292587 -0.025677312 -0.17097913
0.5500286 0.13944134 0.03610934 0.4731777 -0.034680292 -0.0081945695 0.13646643 -0.04823098
-0.41893092 0.32717425 0.23094271 0.8173082 0.4137456 0.6609696 0.17533708 0.28602725
-0.011876583 0.1346415 0.07902976 0.05655731 0.22897182 -0.008268505 -0.17320535 -0.12934974
-0.16016915 0.08112664 -0.15505637 0.171081 -0.16327032 -0.092819296 -0.4594619 -0.026720297
-0.056851625 -0.071489125 -0.00822769 -0.01543618 0.012056487 -0.075342074 0.011020376 0.17262729
-0.17123489 -0.047651738 0.050633203 -0.022170423 0.02219238 -0.21820183 -0.038665127 0.1408532
0.31953904 -0.46524218 -0.16207096 0.42141664 0.23934956 0.83517003 0.78473127 0.33877766
0.62255454 0.47097412 0.011486828 0.70041686 -0.12968056 0.07758448 0.018786833 0.71694213
-0.17255831 0.5264707 -0.05267311 0.19853126 0.43619525 0.34510824 0.45002124 -0.09414399
-0.31179392 -0.5265559 0.19841963 -0.23857324 -0.14952546 -0.020453716 0.5126525 -0.10460544
-0.013572778 -0.22860456 -0.077560976 0.13465779 -0.0870331 0.11705518 -0.10685117 -0.16272098
-0.32426265 -0.26647577 -0.039164096 0.1312114 -0.084437065 -0.10765741 -0.082870685 -0.023701457
-0.03691868 0.008391996 -0.1589402 -0.22897203 -0.35107782 0.009309656 -0.07339812 -0.18202712
0.09051057 -0.06648814 -0.22825637 0.11934618 0.13195102 0.09945309 0.035521314 0.12702945
0.24313752 0.06033473 -0.21198978 0.14141482 -0.27217004 0.09383948 -0.21544461 0.21588826
0.48693055 -0.06193543 -0.118755676 -0.30875152 0.052683454 0.15630278 0.41990846 0.23021217
0.46135333 0.19801153 0.18424916 0.19042447 0.6557003 0.31638172 0.25695324 0.22576578
0.111139625 0.36360416 0.40283 -0.36288863 0.37039948 0.6679344 0.21198729 0.13201295
00000000: 1a5d e23d f0ce 1cbe 6490 72be dac6 48bd
00000010: c3ff f6bd 5279 143e 4845 fbbd 5ade 23be
00000020: d23b 0dbd 7e39 ab3d d02e b8bd 6682 633d
00000030: ec31 6a3e 285c 21bd cee4 42bc f1ff cb3d
00000040: f7c0 37be db1b b33d 63ed 8b3e a259 f7bd
00000050: 238e d93d 92f4 143d 0645 86bd 3cdc 3dbd
00000060: b467 c5bd 9ae7 9cbd e955 7cbe 5a2f 80be
00000070: 612c 12be 4c97 a9bd b9fe 07bd c014 a73d
00000080: 43c4 c8bc 0fb6 64bd ca75 82bd d29f ffbd
00000090: 2834 37bf d93a bd3d 14dc bc3d 5c88 3abe
000000a0: 354e 773c f961 803e 787c e13e faa4 0e3e
000000b0: dd8a c63e 7690 d0bd ab70 973e 0cbb d53d
000000c0: 8b91 6c3e d284 cdbb f172 283f e842 b1be
000000d0: 063a 10bd f7b8 0dbf 6d51 683d 98ae babd
000000e0: f264 483c 52cb ecbe 3bd2 b4be b16f cb3c
000000f0: ea05 08bf fdfd 51be 3c40 c83e b549 21be
00000100: 69de 89be f61e 883d cb85 3d3e 990b 17be
00000110: 26fa dbbc a798 f3be 89d0 1dbe 852c 943d
00000120: a7b6 02bd 18ac 31be 76c8 153e bb33 30be
00000130: 0440 6abe 697a 663e dfa0 823e 78c9 b23d
00000140: cf3b bb3d 6a29 c5be 2217 493e 57ed ac3d
00000150: 732d 27be deb1 ebbd d0a0 0fbf 4764 0d3e
00000160: 0482 db3e 0ba9 853e 540c 083d d1f6 203e
00000170: bc48 53be 4274 9c3c 9b14 41be d463 8ebd
00000180: 493d 8e3d c629 f6bd 83c0 2a3e 69e0 803e
00000190: 45ce e63d 4d2b fb3e a800 283f 1500 e03c
000001a0: e30d 6b3e 5d22 aebe 3e47 f73e 7a7f 303e
000001b0: aa6b 3a3e 2625 aa3f 3a59 d2bc 2715 2fbe
000001c0: adce 0c3f b6c9 0e3e 63e7 133d 5944 f23e
000001d0: ec0c 0ebd 8442 06bc dbbd 0b3e d98d 45bd
000001e0: 1d7e d6be 6283 a73e 3f7c 6c3e 1c3b 513f
000001f0: 77d6 d33e 4e35 293f 908b 333e 2a72 923e
00000200: 0096 42bc 76df 093e 5bda a13d a3a8 673d
00000210: 9777 6a3e a078 07bc be5c 31be 4274 04be
00000220: 6203 24be b925 a63d 19c7 1ebe dc2f 2f3e
00000230: 5630 27be 0b18 bebd 973e ebbe 86e4 dabc
00000240: 40dd 68bd e468 92bd 6fcd 06bc 08e8 7cbc
00000250: 9288 453c f24c 9abd cf8e 343c 35c5 303e
00000260: 3358 2fbe 782e 43bd c364 4f3d bf9e b5bc
00000270: cbcc b53c 4d70 5fbe 535f 1ebd d23b 103e
00000280: 9f9a a33e 3934 eebe eef5 25be ecc3 d73e
00000290: 0d18 753e b4cd 553f 26e4 483f 4474 ad3e
000002a0: bc5f 1f3f 8523 f13e 4033 3c3c 854e 333f
000002b0: fbca 04be 9de4 9e3d d8e6 993c 8589 373f
000002c0: 20b3 30be c9c6 063f c2bf 57bd c74b 4b3e
000002d0: fc54 df3e 07b2 b03e 2f69 e63e 90ce c0bd
000002e0: 74a3 9fbe 5ecc 06bf 842e 4b3e 8b4c 74be
000002f0: 341d 19be 8d8e a7bc 323d 033f 603b d6bd
00000300: 5b60 5ebc 5017 6abe 4ad8 9ebd bbe3 093e
00000310: 693e b2bd a0ba ef3d c9d4 dabd 54a0 26be
00000320: c105 a6be 836f 88be 886a 20bd 485c 063e
00000330: 57ed acbd 7d7b dcbd 1bb8 a9bd 8f29 c2bc
00000340: 0b38 17bd 957e 093c 38c1 22be a577 6abe
00000350: 79c0 b3be 8787 183c c151 96bd 5165 3abe
00000360: 9b5d b93d ef2a 88bd 0abc 69be c56b f43d
00000370: 2b1e 073e 10ae cb3d cc7e 113d 0214 023e
00000380: 0bf9 783e 8d21 773d d913 59be 0ccf 103e
00000390: df59 8bbe ea2e c03d 839d 5cbe d011 5d3e
000003a0: f64e f93e 01b0 7dbd 2d36 f3bd ae14 9ebe
000003b0: 9bca 573d d60d 203e 3efe d63e bdbc 6b3e
000003c0: 8136 ec3e 89c3 4a3e d0ab 3c3e a2fe 423e
000003d0: fadb 273f c9fc a13e 608f 833e 252f 673e
000003e0: 2c9d e33d 532a ba3e bc3f ce3e 8acc b9be
000003f0: 00a5 bd3e c0fd 2a3f 3213 593e 672e 073e

layers.2.mlp_edge_conv.gconv.convs.<stroke___intersects___stroke>.nn.0.bias f4 [32]
-0.41530088 0.12227765 0.31485346 -0.06913485 0.27035698 -0.041711897 0.09173745 -0.72770137
-0.20564577 0.056131244 0.35441956 -0.08126958 -0.045240667 0.21901366 0.059136234 0.34061015
-0.13586721 0.29124853 0.28496364 0.26229513 0.12600033 0.023843495 0.04436652 0.18034703
0.49505407 0.27414444 0.08718242 0.045868676 0.29455468 -0.17234018 -0.1576218 0.071053304
00000000: 51a2 d4be b46c fa3d 7934 a13e 9296 8dbd
00000010: 3b6c 8a3e 18da 2abd d8e0 bb3d a34a 3abf
00000020: ce94 52be e0e9 653d 7b76 b53e aa70 a6bd
00000030: 474e 39bd 1e45 603e d638 723d 7464 ae3e
00000040: c620 0bbe 871e 953e c1e6 913e 8c4b 863e
00000050: 3b06 013e 6f53 c33c abb9 353d e4ac 383e
00000060: ba77 fd3e a95c 8c3e b28c b23d cbe0 3b3d
00000070: dfcf 963e f279 30be 9c67 21be 6584 913d
