checkpoints/full_graph_sketch/graph_decoder.pth (torch, 44996 bytes, 5 tensors)

local_head.weight f4 [64, 32]
000000 97 30 1e 3e 56 6d 57 3e 3a 7b 8a be 5b 8e 71 bd
       0.15448223 0.21037802 -0.2704714 -0.05897365
000010 90 a1 d4 3d 07 24 a5 bd 5c 8a d2 3c 06 20 e9 bc
       0.10382378 -0.08063512 0.02570074 -0.028457653
000020 91 6d 94 bd e8 28 05 3e 74 94 e2 3d 02 03 f7 3a
       -0.07247461 0.13003886 0.110634714 0.0018845501
000030 8f 8c cd bd 87 0a a1 bc 64 bb 11 be 0a 15 14 3e
       -0.10036575 -0.01965834 -0.1423164 0.14461151
000040 36 21 1d 3e c3 56 09 be c2 da ff bd 65 f0 a0 3d
       0.153447 -0.13412003 -0.124928966 0.078583516
000050 32 63 aa 3d a8 a5 3c be 53 e0 96 3d ec a7 63 bc
       0.08319701 -0.18422568 0.07367005 -0.013895016
000060 25 95 22 3d c4 0c c4 3d 5c 11 1d bd f2 89 99 bc
       0.039693017 0.09572747 -0.038346633 -0.018742535
000070 73 76 2f bd 5d df ed 3d e5 0e d9 3d d6 0f 9d bd
       -0.04283757 0.11614869 0.10598544 -0.07669036
000080 ed 32 22 3d c7 d4 40 be 67 1d 31 be 56 4a 80 bd
       0.039599348 -0.18831168 -0.17296372 -0.062641785
000090 81 a3 56 3d bd 92 18 3e 0f e9 af 3c 08 c2 58 3e
       0.052402023 0.14899726 0.021473436 0.21167767
0000a0 3f b6 aa 3d b4 b5 0e 3e b6 bc db 3d c9 d4 0a 3d
       0.08335542 0.13936502 0.10729353 0.033894334
0000b0 fd 68 54 3c ff c1 bd 3c 11 bd b3 bd 6e 01 ac bd
       0.012964484 0.023163794 -0.08776296 -0.0839871
0000c0 5c cb 02 be 9e a0 04 3e 14 f4 f8 bd 8c 23 74 bd
       -0.12772888 0.12951896 -0.12155929 -0.059604213
0000d0 b4 57 29 3e bf 06 95 3d 89 ff 89 bd 23 46 3d be
       0.16537362 0.07276677 -0.067381926 -0.18483786
0000e0 9d 45 07 3e 17 a8 c7 bc 6f c9 34 3d af 12 90 3e
       0.13210149 -0.024372144 0.044137415 0.28139254
0000f0 2d 88 bb bd c0 35 08 bd 6e 0b 8e bb 0c 64 52 bd
       -0.09156833 -0.033254385 -0.0043348586 -0.051364943
000100 1c 7b 05 3e cf 30 53 3e 17 b5 bf 3d 5f fa e8 bb
       0.13035244 0.20624088 0.09360712 -0.0071099247
000110 59 6d ec bd 0d d8 cb bd f9 9a 05 3e 13 86 49 be
       -0.11544294 -0.09953318 0.13047399 -0.19680052
000120 b2 6e 06 3e 39 89 c9 bd cb f3 3a 3e c1 b0 25 be
       0.13128164 -0.09840626 0.18257062 -0.16180708
000130 93 0a 22 3d b2 c1 a6 3c bf 3d f8 bd a3 18 2e 3e
       0.039560866 0.020356033 -0.12121152 0.17001586
000140 1d 5e ab 3d f8 e9 78 3d 10 65 14 be 49 63 84 3d
       0.0836756 0.060770005 -0.14491677 0.0646425
000150 4b 8d d1 ba c1 1a dc bd 40 c7 95 bc 8c fe 9f bd
       -0.0015987543 -0.107472904 -0.018283486 -0.07812223
000160 34 b0 89 bd 8f 26 d4 3d 50 12 ac bd 92 27 2d be
       -0.06723061 0.10358917 -0.0840193 -0.16909626
000170 98 30 34 3e a8 dc 45 bd 41 94 29 3d 50 27 2a bd
       0.17596662 -0.048306137 0.04140115 -0.041541398
000180 b2 0c 43 be 4b e1 09 be 55 e7 58 bd fb 3e 36 bd
       -0.19047812 -0.13464849 -0.05295499 -0.044493657
000190 eb 82 11 bd dc 14 8c 3d 72 8f 00 be ad 65 1d 3e
       -0.035525244 0.06839916 -0.1255472 0.15370817
0001a0 56 e9 a9 bc f5 07 4f 3e 96 62 6a 3d 89 11 0e be
       -0.020741146 0.20217879 0.057222925 -0.13873877
0001b0 69 3f b9 bd f2 3c 94 bd 2f 6f bc bc 77 31 0f be
       -0.09045298 -0.07238187 -0.023002235 -0.13983713
0001c0 d8 cc 0e be 5a b2 09 be 53 95 38 bd a0 9e c9 bd
       -0.13945329 -0.13446942 -0.04506428 -0.098447084
0001d0 08 0e f9 3d 80 57 0f be ba 0e 5d bd 9c 27 1d be
       0.121608794 -0.13998222 -0.053969122 -0.15347141
0001e0 dd b8 8f 3d e8 e8 24 3d a0 8c eb 3d 4e c4 9b bd
       0.07017682 0.04026118 0.115014315 -0.076058015
0001f0 bc 6b 3b 3d b6 67 1b be 55 dd 88 3d c0 2c fb 3d
       0.04575704 -0.15176281 0.06682841 0.12264395
000200 2f f4 91 bd 5f 44 8a 3b 54 c1 b5 bd b7 55 1e bc
       -0.071266524 0.0042195763 -0.08874765 -0.009663991
000210 71 f4 6e bd 21 5f cc 3c 19 e9 8e bd 83 aa 57 3d
       -0.058338586 0.024947705 -0.069780536 0.052652847
000220 83 f1 a5 3d aa 04 be bd f0 da df bc dd 76 2e bd
       0.08102705 -0.09278233 -0.027326077 -0.042593826
000230 b0 59 c6 3d b2 94 70 3e 8e 93 08 3e 0b 63 54 be
       0.09685075 0.23494223 0.13337538 -0.20740907
000240 af ca 72 3d da d4 20 3d cc 53 41 bd d8 b5 ab bd
       0.059275325 0.03926549 -0.047199056 -0.08384293
000250 3f af cc 3d 45 e8 d5 3c ad 39 9e 3b 52 9b f4 3d
       0.09994363 0.026111731 0.004828653 0.119436875
000260 9b c1 43 3e 4e fd 34 be ed 10 d1 3d 4f ff e6 bd
       0.19116823 -0.17674753 0.102083065 -0.11279165
000270 47 e0 8e bc ac f5 34 3e 40 7c 18 3d e7 92 8b 3e
       -0.017440928 0.17671841 0.03722787 0.27260515
000280 29 c5 0a bd 49 13 88 bc 83 de 5d 3e 5b 86 18 3e
       -0.033879433 -0.016610758 0.21666913 0.14895003
000290 2f 77 cd bc 3f 00 b5 bc 64 40 f8 3d 49 83 02 be
       -0.025081245 -0.022094844 0.121216565 -0.12745394
0002a0 9e 37 a7 bd d0 5a b6 bd 0a 1e dd bb 08 b6 56 3d
       -0.08164905 -0.0890404 -0.0067479657 0.052419692
0002b0 13 c9 9f bd 47 ec 0c be c1 d2 4c 3d 6e 7e 09 be
       -0.07802024 -0.13762008 0.050005678 -0.13427135
0002c0 04 94 25 bc b4 ba 2d 3e c6 59 08 3e 37 ab 30 be
       -0.01010609 0.16965753 0.13315496 -0.17252813
0002d0 a4 2a a8 bd 87 6c 18 be 66 20 f7 3d d1 c1 22 be
       -0.08211258 -0.1488515 0.120667264 -0.15894248
0002e0 6d 2c 52 bc 16 a7 ee 3d ed 78 ee bd 96 e7 28 be
       -0.012827975 0.11652963 -0.116441585 -0.16494593
0002f0 4a 9a 3f 3e e7 41 43 bd 2b 1f 2a 3e 26 27 1b 3d
       0.187112 -0.04767027 0.16613452 0.03787913
000300 14 48 b8 bb 27 56 bf bd c3 0e 09 bc 81 4e 97 bd
       -0.0056238268 -0.09342604 -0.008365336 -0.0738802
000310 fe 52 45 3e cb 26 67 bd ea 74 8c bc ff 6e fc bd
       0.1926994 -0.05643348 -0.017145593 -0.12325858
000320 a8 80 b2 3d a4 fe c9 3b e2 da cd 3c 7d b1 0a 3e
       0.087159455 0.0061643887 0.025128786 0.13544269
000330 bf 10 62 3d c9 2d d0 3d 5d 4a 94 3d 06 ba b5 3d
       0.05519175 0.10164983 0.07240746 0.08873372
000340 8c 60 0a 3d 4e 5a 9b 3c 41 1a c1 bd bd fa 85 be
       0.03378348 0.018963959 -0.09428836 -0.2616786
000350 d8 42 4c 3e bf f0 bd bd c6 f5 9f bc a7 10 84 be
       0.19947374 -0.09274434 -0.019526374 -0.25793955
000360 af 1b d0 bd 72 3e 8f 3b f7 96 cd bd e3 18 e1 3d
       -0.1016153 0.0043714577 -0.1003856 0.10991075
000370 6d 2f 00 3e cc 6e ba bd 8e 6c 5a 3e c9 73 bc bd
       0.12518091 -0.09103164 0.21330473 -0.09201772
000380 ce 4b f9 3d 65 b8 8c bc 51 20 54 bd 33 3c 02 bd
       0.12172662 -0.01717777 -0.05178863 -0.03179569
000390 0e 87 7e bb 46 4c 90 3d 12 56 c5 bd b5 70 18 3e
       -0.0038837823 0.07045798 -0.09635557 0.14886744
0003a0 6b 55 95 bc f3 48 dd bc ce 6c 0c bc 19 21 33 3d
       -0.018229207 -0.027012324 -0.008570863 0.043732736
0003b0 47 83 8a 3d a5 f6 15 be ae d3 42 3d 5a b9 4c 39
       0.067633204 -0.14644869 0.047565155 0.00019524005
0003c0 95 60 19 be 61 3e 21 3c c1 29 63 bc ca df 77 bb
       -0.1497825 0.009841532 -0.013864935 -0.0037822598
0003d0 fa b3 48 be 09 35 5f bd 3b 80 d9 3d 90 fb 78 3e
       -0.19599906 -0.054493938 0.10620161 0.24314713
0003e0 09 38 06 bd 6a 0d 0b 3e 16 f1 00 bd d3 ca 4d be
       -0.032768283 0.13579336 -0.031479917 -0.20096903
0003f0 de d9 ac 3c e4 2f 18 3e 04 6e d7 3d e8 94 11 bd
       0.02109998 0.14862019 0.10519031 -0.0355424

local_head.bias f4 [64]
000000 d5 c4 ea bd 34 85 62 3e a5 f4 ed 3c fd 72 c6 3e
       -0.11463324 0.22121125 0.02904732 0.38759604
000010 ec 90 27 bc ab 15 44 be e8 ca 3a 3d 27 6d 0b be
       -0.010227423 -0.1914889 0.045603663 -0.13615857
000020 3c a5 57 bd 7c 94 d8 3c df 30 b1 bd d4 bf 23 3e
       -0.052647814 0.02643799 -0.086518995 0.15991145
000030 50 09 18 be 75 0b 25 be 9d 77 46 bd 29 5a c5 3c
       -0.14847302 -0.16117652 -0.048453916 0.024090843
000040 12 74 c5 be 61 ad a2 be c4 01 be bd 65 cb 92 bd
       -0.38565117 -0.31772903 -0.092776805 -0.07167701
000050 b9 dc 3e be ad b9 44 bd fe d8 85 bd a9 ae 58 bb
       -0.18638887 -0.048028637 -0.065355286 -0.003306309
000060 88 00 8f be d0 e8 5a bd 89 d0 0c 3e b2 ee aa 3e
       -0.27930093 -0.053444684 0.13751425 0.33385235
000070 b0 92 c5 3c ca a7 36 3e d4 e0 4e 3e 9e ba e2 be
       0.024117798 0.17837444 0.20202953 -0.44283003
000080 e8 d4 81 3d 00 2a 70 be 8b 56 80 be ee 90 e2 bd
       0.06339437 -0.23453522 -0.25066027 -0.110627994
000090 0c 9f 00 be 6c a9 95 be 7f 29 26 be 30 7f 76 be
       -0.12560672 -0.2923082 -0.16226767 -0.24071956
0000a0 4d 62 14 be 39 19 06 be fd ff 14 be f7 32 6d bd
       -0.14490624 -0.13095559 -0.14550777 -0.057909932
0000b0 8c 4d 93 bd be b8 80 3c d0 de af bd d0 8a 9e 3c
       -0.07192525 0.015713092 -0.0858742 0.0193533
0000c0 d5 f9 31 bd 94 6c 0c bd 7f 3b 68 3d 90 c6 20 3e
       -0.04345115 -0.034283236 0.056697365 0.15700746
0000d0 65 d1 8a 3d c8 df 1a bd 81 24 4d bd 74 22 72 3e
       0.0677822 -0.03781107 -0.05008364 0.23645955
0000e0 91 a6 1c be 24 c4 38 3d cf 34 9d 3d 1f 03 e6 be
       -0.15297915 0.04510893 0.07676088 -0.44924256
0000f0 ed e1 d4 3e 40 50 d0 bd f9 93 21 be 7d d1 51 3e
       0.41578618 -0.101715565 -0.15779103 0.2049007

decoder.0.weight f4 [128, 64]
000000 38 81 fc bc 8d d8 03 be 5b a9 d3 bd 75 29 24 3e
       -0.030823335 -0.12875576 -0.10335036 0.1603144
000010 48 aa 64 3d 46 39 ca bc eb 05 03 be 55 e2 80 3d
       0.055826455 -0.024685513 -0.12795226 0.062931694
000020 33 1b 72 bd 4f 51 0e be 34 0e 68 bd c6 06 81 3d
       -0.05910797 -0.13898204 -0.05665417 0.0630012
000030 0a 3c 24 be f0 f0 13 3c 24 28 a3 3d c5 63 c4 bc
       -0.16038528 0.009029612 0.079666406 -0.023973355
000040 d9 8a 82 bd 0f 5e 5f 3d 24 b2 0a 3e 01 c0 3e bd
       -0.06374139 0.05453306 0.13544518 -0.046569828
000050 70 25 a3 3c ec 74 ad 3b c9 a1 d5 bc 6d 28 29 3e
       0.019915313 0.005293479 -0.026078122 0.16519327
000060 85 03 01 3e 51 4c 81 bd 09 4f 87 be 7b 47 54 bd
       0.12598999 -0.06313384 -0.26427487 -0.05182598
000070 84 05 45 3d 0a cf 87 3c 54 3f 06 3e e5 20 8d 3d
       0.048100963 0.016578216 0.13110095 0.0689104
000080 7a ad f8 bc 6d 4f 3e be d0 91 d0 bd d2 b6 0e be
       -0.030356158 -0.18584986 -0.101840615 -0.13936928
000090 cb 64 80 bd 4a 7f 96 ba ff 51 60 3d 3c 9b 33 3d
       -0.06269225 -0.0011482027 0.054765698 0.043849215
0000a0 79 c2 7d bd 8d 2d 31 bc 0a 50 91 bd 95 0b 02 bb
       -0.06195304 -0.010814083 -0.07095344 -0.001984333
0000b0 77 4b 6a bd 76 f3 49 3d 81 4b e3 bc ff 5f 41 3e
       -0.057200875 0.049304448 -0.027745964 0.18884276
0000c0 cf 1e 35 3d ef 63 a3 3c 18 5f af 3d 3f 5c fd 3d
       0.044218834 0.019945113 0.085630596 0.1237111
0000d0 7a aa 49 3e 95 ea 1c be ad aa 47 bd 0c 3f 1c bc
       0.19693938 -0.15323861 -0.048746753 -0.009536516
0000e0 77 3d f6 bc bf c4 92 bd 50 a3 8e 3d 65 bd a4 bd
       -0.030058606 -0.071664326 0.06964743 -0.08043937
0000f0 d2 e9 32 bd 35 a1 f8 3d 20 3d aa bd c6 ae d7 3d
       -0.04368002 0.12140123 -0.0831244 0.10531382
000100 c2 4f 46 bc d9 74 d3 3d 58 22 06 be d2 e9 3b 3e
       -0.012103977 0.10325021 -0.13099039 0.18350914
000110 cb bb dc bb 9a 64 13 be a1 57 66 bd 72 21 1e 3e
       -0.006736254 -0.14393845 -0.056235913 0.15442446
000120 90 ab 02 bd d3 a0 87 be aa fa 25 bc f1 e0 84 bd
       -0.031901896 -0.26489887 -0.010130564 -0.06488217
000130 dd 25 dc bd 7c e1 9c 3d 75 91 1c 3d 77 bc 01 be
       -0.10749409 0.07660195 0.038224656 -0.1266955
000140 49 ac a8 bd ec 0f a5 bd d3 85 21 3d fc 8a 07 be
       -0.08235986 -0.080596775 0.039434265 -0.13236612
000150 bb 7a 80 3d 43 6e f8 3d 7a 02 83 3d 38 b4 56 3d
       0.06273409 0.12130406 0.06396957 0.052417964
000160 94 5f f6 bd 3f 2f 37 be a6 76 4c be 14 15 e3 3c
       -0.12029949 -0.17889117 -0.19967136 0.027720012
000170 bb ec 96 3d 44 1b e8 3c 22 b3 35 3e d0 39 15 3d
       0.073693715 0.028333314 0.17744115 0.036432087
000180 84 8a 75 bd 99 22 0c be 4c 5e 7b 3b 0c d0 0f 3e
       -0.059946552 -0.13685073 0.0038355766 0.14044207
000190 35 b6 37 be ea bb 0a 3e 75 3c 70 3d 9d eb 14 be
       -0.179406 0.13548246 0.058651406 -0.14543004
0001a0 95 88 c8 bd 59 c2 c4 bd 3e 2e 8a bd 7a 4a 01 3d
       -0.09791676 -0.096073814 -0.06747101 0.031565167
0001b0 61 25 03 be 2e 91 84 3d 69 2b c7 3d cb ea fc 3d
       -0.12807228 0.06473003 0.09725077 0.12349471
0001c0 ef 9f 76 3c 58 e2 5b 3d a3 ff 11 bc 27 37 a2 3d
       0.01505278 0.053682655 -0.008911046 0.07920676
0001d0 10 ec 04 3e f7 72 9c bd 36 05 8a 3d 77 19 08 3e
       0.12980676 -0.07639115 0.06739275 0.13290964
0001e0 bc 6d 0e bd 8b 5e 32 3e de 9c e8 3d 23 a8 84 be
       -0.03477262 0.17418878 0.11358045 -0.25909528
0001f0 98 b0 7d 3d 72 2e 2f 3e 61 ea 18 bd 23 57 ff 3d
       0.06193599 0.17107561 -0.037332896 0.12467792
000200 fd d4 b8 3d 2b 06 c2 3d e8 c7 7b 3d 77 36 89 3d
       0.09024999 0.09473833 0.061469942 0.066998415
000210 db 27 d8 bb 3a 27 94 bd 22 50 3a 3b 7c 10 b0 bb
       -0.006596548 -0.072340444 0.002842911 -0.005373059
000220 9b 80 73 3c 7c dd b3 3d 7d 03 f2 bd 6f 7b b8 bd
       0.014862205 0.08782479 -0.118170716 -0.09007918
000230 d6 7f ae bd 8e c5 28 be 81 38 62 bd 57 94 a7 bc
       -0.085204765 -0.16481611 -0.055229668 -0.020456476
000240 0e 78 60 3c 77 75 f5 bd a7 12 b0 bd 2a 7c 8d ba
       0.013700498 -0.11985295 -0.08597308 -0.001079445
000250 9a f3 05 bd a1 e2 02 3d 74 fd d8 3d 88 81 82 3d
       -0.03270302 0.03195441 0.10595217 0.063723624
000260 ec f9 ba bc b5 58 5e be a5 70 20 3e 22 c5 ea bc
       -0.02282425 -0.21713527 0.1566797 -0.028658453
000270 2f dc 07 be a3 d6 a8 3c 54 9d 16 3e 1f ec 0d be
       -0.13267587 0.02061016 0.14708453 -0.13859604
000280 47 90 84 3c d2 e9 9d 3d 87 1e cf 3c 9b d8 1e bc
       0.016182078 0.07710613 0.025283111 -0.009695197
000290 01 90 a4 bd ae 8b aa bd 95 a6 f8 bd d8 b4 61 3d
       -0.08035279 -0.08327423 -0.12141148 0.055104107
0002a0 b1 a5 9d bd 32 5f aa 3d 37 6e cb bd ac de fe 3d
       -0.07697619 0.08318938 -0.09933131 0.12444815
0002b0 0b f0 0f bc ca 29 5e ba a2 e7 fd 3c c5 ff 97 bd
       -0.008785258 -0.0008474855 0.03099424 -0.07421831
0002c0 36 b3 d5 3d 34 da 61 bd 89 be 67 be bc 50 13 bc
       0.104345724 -0.055139735 -0.22631277 -0.008991417
0002d0 19 87 32 3e b3 6c 38 be 31 e7 61 bd 97 09 c2 3d
       0.17434348 -0.18010215 -0.055152122 0.09474485
0002e0 a7 45 8c bc 48 52 8c 3e d7 e2 4e bc 3f 56 d0 bd
       -0.017123057 0.27406526 -0.012627325 -0.101727
0002f0 f7 3f 3c 3d 78 25 2f 3e a1 c0 70 ba 10 77 d7 bc
       0.04595944 0.17104137 -0.00091839774 -0.02630189
000300 67 25 24 bd a0 25 85 3c c9 53 65 3c 2c 0d e5 bd
       -0.040074732 0.016253293 0.013997027 -0.11184153
000310 2c 5f 01 3d 10 fe 27 bd a6 3b 39 be e6 8c ba 3b
       0.031584904 -0.041013777 -0.1808916 0.005693066
000320 9f b1 2c be d9 77 e3 3d 46 e5 77 3d 80 30 0a 3c
       -0.16864632 0.111068435 0.060521387 0.008434415
000330 6e 10 41 3d ca a3 e1 bb f5 62 67 3c 46 ec d4 3d
       0.04713481 -0.0068859803 0.014122714 0.10396628
000340 5c fb 28 be 34 a6 8c 3c 9f ad fa 3d de c2 b7 bd
       -0.16502136 0.017169096 0.12240147 -0.08972715
000350 ba d6 7e bd c0 aa 35 3e 49 52 8a bd 30 4c b7 bd
       -0.062216498 0.17740917 -0.06753976 -0.089500785
000360 72 6b 35 be cd c1 9e 3d 86 6b 25 3d 0f 60 83 bd
       -0.17716768 0.07751808 0.040385745 -0.06414806
000370 1d 84 e7 3d 35 a0 fd b9 d6 95 e5 bd ef 0b 17 3d
       0.113044955 -0.00048375284 -0.112102196 0.036876615
000380 10 0b 58 3c 96 77 a7 bd a3 f9 4b 3c 46 d0 24 bd
       0.013186231 -0.08177106 0.012449655 -0.040237688
000390 43 b3 a3 3d a8 0d f7 bd 0d 9d bd bc 45 44 56 bd
       0.07993176 -0.120631516 -0.023146177 -0.0523112
0003a0 e2 b4 fe bc d1 6c f8 bd 5d 1a 9e 3c 08 79 95 bd
       -0.031092111 -0.1213013 0.01929968 -0.072984755
0003b0 ee 55 b2 bb 3a c4 1c 3e b6 32 31 3d 90 e1 c4 3c
       -0.0054423725 0.1530923 0.043261252 0.024033338
0003c0 b1 0d 22 bd ce b7 02 bd 9b c3 b6 3d 0c 81 23 3c
       -0.03956384 -0.03191357 0.089240275 0.009979498
0003d0 d3 f4 95 bd 91 ae 57 3e 61 80 30 be d0 97 aa bd
       -0.07322087 0.21062686 -0.17236473 -0.08329737
0003e0 26 5d 0e be 61 cf df bd 83 3b 53 3c e4 72 8f bd
       -0.13902721 -0.10928226 0.012892607 -0.070043355
0003f0 65 ec b7 bd 3f 25 12 bd 0f ef 90 bd bf 2d 73 3d
       -0.089806356 -0.035680052 -0.07076847 0.0593698

decoder.0.bias f4 [128]
000000 b0 6a 9e 3d 7c be 33 3e db 71 d6 3d 07 f2 b4 3e
       0.07735193 0.17553133 0.10470935 0.35340902
000010 eb 32 3e bd d4 fc 12 3e 6c a6 8a bb 4b 02 97 bd
       -0.046435278 0.14354259 -0.004231265 -0.07373484
000020 ac ae 99 bd 9e 43 5e 3d 98 c7 0b 3e ee c6 fa 3a
       -0.07504019 0.054263704 0.13650358 0.0019132772
000030 fc 79 19 3e ec f8 69 be 77 60 99 3e 43 e6 9b 3d
       0.1498794 -0.22848862 0.2995641 0.07612278
000040 d8 0a 60 3e 6f cc 00 bc 50 5a f3 bd d6 61 8c bc
       0.21879137 -0.007861241 -0.1188246 -0.017136496
000050 01 2a be 3e 0a f5 16 3e d0 18 ce 3d 91 aa 4d 3b
       0.3714142 0.14741912 0.10063326 0.0031382183
000060 ab 0d 45 be e8 d4 37 3e 61 3a a5 3d 6e f2 3f be
       -0.19243495 0.17952311 0.080677755 -0.18744823
000070 e3 f7 8b 3d 2c fa 75 be 51 b9 73 3c 65 79 33 3e
       0.0683439 -0.24021214 0.014875726 0.17526777
000080 d9 85 6f 3e 1e b0 06 3e 1f 0b c9 3c 19 41 95 be
       0.23390903 0.13153121 0.024541436 -0.29151228
000090 a5 1a 25 3d 41 fe 16 3e 62 05 37 3e d6 25 7b bd
       0.040308613 0.14745428 0.17873147 -0.06131538
0000a0 f2 15 e1 3e f7 28 61 bd 75 1f 90 bc 12 26 27 3d
       0.43962055 -0.054970708 -0.017593125 0.04080779
0000b0 7b a2 e2 3d 79 1e ca 3d 25 c6 13 be bd de d8 bc
       0.11066147 0.098690934 -0.14431055 -0.026473397
0000c0 6a 7e 71 3e 77 df d6 bd c9 d2 22 3e bb 00 eb 3c
       0.2358338 -0.10491841 0.1590072 0.028686872
0000d0 41 50 16 3d d6 c5 18 3e b5 88 c3 3d bd 25 3e be
       0.03669763 0.14919218 0.09547559 -0.18569084
0000e0 ad ca d5 3c 55 7b 29 bd 3f 2e 1c be 66 7f 01 bc
       0.02609762 -0.041377384 -0.15252016 -0.007903909
0000f0 93 12 8a 3c 6c 92 49 3e d4 bf 44 be 41 00 b2 3d
       0.01685456 0.19684762 -0.19213802 0.08691455
000100 bd b6 72 3e e6 94 85 be 4e d6 1f 3d ce d4 4d 3e
       0.23702522 -0.26090163 0.039022736 0.2010071
000110 4d 66 bd 3d c4 3a 96 3d 7b 99 ca bd 92 cb 75 be
       0.09248028 0.073354274 -0.09892555 -0.24003437
000120 99 40 b7 3c 13 96 b1 be 60 10 e7 3d b3 58 34 bd
       0.02236967 -0.3468481 0.1128242 -0.044029903
000130 5f a6 99 bd d1 c3 81 3d 29 b0 4d 3c 34 b5 de bd
       -0.07502436 0.06336177 0.012554207 -0.108744055
000140 60 3b 1a be ac 33 7a be a4 f3 69 be b8 97 68 bd
       -0.15061712 -0.24433774 -0.22846848 -0.056785315
000150 67 85 85 3d cb b8 8a bd 6b 05 94 3d ab f6 d5 bd
       0.06519585 -0.06773528 0.07227596 -0.10447439
000160 10 e9 58 3e e2 e7 99 be d9 2b 4b 3e c1 4a 2b bd
       0.21182656 -0.30059725 0.19840945 -0.041819338
000170 2d 65 3a bc 36 db eb bc 91 fe 48 3d a4 7a 87 3d
       -0.011376661 -0.028791051 0.0490709 0.06615189
000180 05 03 fa bc 73 38 28 be 82 bd 81 3d be 08 c2 bd
       -0.030519018 -0.16427784 0.06334974 -0.09474324
000190 f7 3b 08 be 45 0a 22 bd d7 06 ad 3d bc db a4 3e
       -0.13304125 -0.039560575 0.0844857 0.32198894
0001a0 ae f9 97 bd 80 86 40 bd 83 d2 9a 3e 3a 2e a3 bd
       -0.074206695 -0.04700327 0.30238733 -0.079678014
0001b0 68 f3 04 be 91 50 90 3c 10 f5 33 3d ca af ff 3b
       -0.12983477 0.017616542 0.04393488 0.007802938
0001c0 86 cf 95 bd 60 d6 94 3d f1 49 28 3a d8 3b 6a 3e
       -0.073149726 0.07267451 0.00064197095 0.22874391
0001d0 ab 9b 4f 3e e4 81 07 be 05 39 47 3e 0f 37 ce bd
       0.20274226 -0.13233143 0.19455345 -0.10069095
0001e0 f7 92 4e 3d 68 54 03 3e d4 8b ad 3d cb d4 66 3e
       0.050433125 0.12825167 0.08473936 0.22542112
0001f0 a1 d7 b7 3c 1e 1b ba bd 1c 88 8b 3d 69 ed ef bd
       0.022441687 -0.090872034 0.0681307 -0.11715204

decoder.2.weight f4 [1, 128]
000000 22 3b fc 3c b5 3b 14 3e 60 11 51 bd 47 fb 64 bd
       0.030789915 0.14475901 -0.05104196 -0.0559037
000010 b4 f0 24 bc 6c 8f 6f bd 69 76 9c bb 3f 35 3a bd
       -0.010067154 -0.058486387 -0.004774858 -0.045460936
000020 e1 cf 3d 3d 88 3f e4 3c 6b 7e bb bc d8 b0 81 3a
       0.046340827 0.027862325 -0.02288743 0.0009894622
000030 d6 b3 87 3d 91 0e a5 bb 27 80 4e bd b9 5c f4 bc
       0.06626098 -0.005037137 -0.050415184 -0.02982937
000040 1d 8a c7 bd 24 1c 5d 3d f0 ff 8c 3c b2 4f 41 bd
       -0.0974314 0.053981915 0.017211884 -0.047195144
000050 5d 73 91 bd 3c 25 88 ba d7 23 07 bd f9 7b b5 3d
       -0.07102082 -0.0010387073 -0.032993164 0.088615365
000060 d9 7d 69 3c ba 30 80 bd 7b 72 67 bc de 2b cf bb
       0.014251196 -0.06259294 -0.014126415 -0.006322368
000070 7e 48 0e bd 63 d8 2e 3b 56 9c 64 bd 09 2c bd bc
       -0.034737103 0.002667927 -0.055813156 -0.023092287
000080 bf 93 93 bc 4f 1c 17 be 2f 98 c7 bb 26 8a 1f bc
       -0.018014787 -0.14756893 -0.0060911397 -0.009737527
000090 76 7d 40 bd 8a 08 00 bd dc ff 03 3d 5c 94 dc 3a
       -0.04699465 -0.031258143 0.03222643 0.0016828883
0000a0 4d 78 e3 bc 67 22 2f bc c4 ee e2 3a 15 eb 96 bc
       -0.027767325 -0.0106893545 0.0017313589 -0.018422643
0000b0 7a 73 63 3d 0c 6a 6d 3d 61 9e fb 3b 70 80 09 3d
       0.05553005 0.057962462 0.0076787923 0.033569753
0000c0 eb 2b 94 bd e1 48 01 3d b3 24 44 bd e2 af c8 bc
       -0.07234939 0.031563643 -0.04788656 -0.02449793
0000d0 19 14 88 bd bb e6 33 bd e0 ff 8c bc 54 13 81 3b
       -0.06644458 -0.043921214 -0.017211854 0.0039390717
0000e0 b5 62 c1 bd 51 76 5b bc 09 ac d6 bb 35 8b d4 3d
       -0.09442655 -0.013394908 -0.00655127 0.10378114
0000f0 73 71 5c bc d9 44 d3 3d 3b 89 91 bc e7 a8 02 bd
       -0.013454783 0.10315866 -0.017765632 -0.03189936
000100 9b e9 c5 bd 93 71 80 3b 3c 0e 6a bc 61 98 ba bc
       -0.09663697 0.003919789 -0.01428562 -0.022777738
000110 27 37 1e bd 1a 3d d6 bc f4 4c 29 bc 68 e1 d0 bc
       -0.038626816 -0.026152182 -0.010333288 -0.025498107
000120 1f 83 37 bd a8 ac 50 3c fc e5 eb 3d d5 d8 10 3e
       -0.04480278 0.012736477 0.115184754 0.14145215
000130 17 24 02 ba d5 7a c3 3d 6e 59 81 3d 74 46 9a bd
       -0.0004964484 0.09544913 0.063158855 -0.07532969
000140 6d 4c 0e 3d 55 e4 e5 bb 94 45 b9 ba 27 7b 36 3d
       0.034740854 -0.0070157447 -0.0014135116 0.04455104
000150 86 ed 55 bc 93 0c 9d bd 83 e7 93 bc 17 57 be ba
       -0.013057118 -0.07668414 -0.01805473 -0.0014521804
000160 0d c2 e7 bd 51 2b 3a 3d 33 f5 f5 bc 38 12 b4 bc
       -0.11316309 0.045451466 -0.030024147 -0.021981344
000170 c3 b7 1c 3d f8 65 d4 3d ab ed 8c bd bd cb 39 bc
       0.038261186 0.103710115 -0.06881269 -0.011340079
000180 0d 6f 22 3d a0 14 c6 bb 27 19 fd 3d fc 87 bd bc
       0.039656688 -0.006044939 0.12358313 -0.023136131
000190 fb 14 c0 3d 01 f9 04 bd 9b f9 1c 3e d4 e1 31 3b
       0.09379002 -0.03246403 0.15329592 0.002714266
0001a0 8f 77 92 3b c4 8f cd bc 10 46 e7 bc 1b 5e 9b 3c
       0.004469819 -0.025092967 -0.02823165 0.018965771
0001b0 54 74 c1 bc 65 18 fb 3c ac f6 9c bd 79 58 de b9
       -0.02361504 0.03065128 -0.076642364 -0.00042409057
0001c0 7d 5c 83 3b 89 9b 3b 3d c0 6a 22 3d 48 b9 44 bd
       0.004008828 0.045802627 0.039652586 -0.04802826
0001d0 f8 d3 c1 bb 0d 63 dc bb 14 95 57 bb b6 44 33 bc
       -0.005915161 -0.006725675 -0.0032895254 -0.010941675
0001e0 72 90 f8 3d b0 0b 2b bc ea 2e a6 bd 67 81 82 bd
       0.12136926 -0.010439798 -0.08114417 -0.06372338
0001f0 53 0f 3e 3c 50 51 a0 bd 34 da 2f bc 73 a6 12 bc
       0.011600333 -0.07828009 -0.010733176 -0.008950817
