checkpoints/full_graph_sketch/graph_encoder.pth (torch, 205188 bytes, 50 tensors)

local_head.gconv.convs.<stroke___temp_previous___stroke>.nn.0.weight f4 [32, 12]
0.033768654 -0.029175526 -0.12490983 -0.02465202 0.016531777 0.021078248 0.17825016 -0.0008083483
-0.63563573 0.6085969 0.454364 -0.44881636 0.039048597 0.10456258 -0.12306505 -0.09925001
0.059783097 0.13777885 -0.23485053 -0.22633274 0.288168 0.3624284 0.22558546 -0.3337843
-0.03765525 0.04712047 0.014097014 0.021335477 -0.04722896 -0.04128923 0.6972702 -0.025099304
0.72240186 -0.748658 0.050082814 -0.59097534 -0.08502223 -0.031908587 -0.25428718 -0.06776949
-0.028037906 -0.044666592 -0.22442168 0.017455615 -0.18997419 0.11318815 -0.16244394 0.036737442
0.009231891 -0.021681294 0.10480902 -0.0062054135 0.008021013 -0.13344844 0.491811 0.14947739
-0.62056667 0.2095219 -0.044177245 0.6352576 -0.019905511 -0.053278286 -0.08953214 0.020093605
0.025817078 0.028164603 -0.49868524 -0.5499145 -0.33582202 -0.35404778 -0.013656273 0.16290663
-0.101797834 0.19805288 0.01241085 -0.19450435 -0.2171854 0.14982033 -0.124346755 0.043809295
0.06486789 0.16837454 0.28618172 -0.1816548 0.03588977 -0.015429593 -0.06198805 -0.0111499075
-0.021395156 0.04154384 0.13871336 0.104840435 -0.19692925 0.018926913 0.83775216 -0.26046404
0.16662037 -0.2683381 0.29428792 -0.056957573 0.16744548 0.2694186 -0.48316053 0.12419141
0.22566459 -0.09125044 -0.12677482 -0.11302493 0.06586364 0.041362826 -0.13087882 -0.0475115
-0.09239534 -0.12262464 0.32010478 0.22949879 -0.001793745 -0.17577086 -0.010291658 0.22063677
0.21767902 0.16566367 -0.19677167 -0.23870493 -0.18575174 0.18775298 0.11884074 -0.31519526
-0.21016978 0.03446254 0.7614656 -0.08147723 -0.08704382 0.17964622 -0.044943735 0.065967344
-0.14985557 0.06706278 0.18764527 -0.147834 0.4470678 -0.04867908 0.6484401 0.8156752
-0.04919476 -0.09824678 -0.05488643 0.07371883 0.114010036 -0.0060166502 0.34571132 -0.42717987
-0.33185712 0.63867205 -0.5586467 -0.6048138 -0.12410432 -0.09268042 -0.030742062 0.08177846
0.12588777 0.045841098 0.2056482 0.47062397 0.1711046 -0.49183488 -0.47525972 0.021343246
-0.10171673 -0.20769736 0.041866075 0.055470742 0.25690365 -0.17297052 -0.41665557 -0.19218792
0.24311736 -0.08636643 0.22009814 0.2317054 0.095978945 -0.03994952 0.036364686 0.077892266
0.09420708 -0.07573598 0.044600014 -0.058886576 0.05875531 0.12059509 0.0454388 0.22522956
-0.01606728 0.16852008 -0.0020816769 -0.058167044 -0.20627072 -0.12821177 -0.123053186 0.05822895
-0.22774717 -0.33968547 -0.38694516 0.29210237 0.049731888 -0.06481643 -0.0715158 -0.029575914
0.06505306 0.112967156 -0.18079649 0.36705816 0.36193958 -0.2658446 0.6527329 0.6824784
0.19025995 -0.16133073 -0.2645012 -0.22145782 -0.09543363 0.12944998 0.1166261 -0.16678838
0.32503873 -0.40603504 -0.18444017 -0.09048677 -0.16868515 0.064878836 -0.21298401 -0.010613322
0.06858402 0.19035307 0.05922241 -0.09762854 -0.5232496 -0.038275283 0.29979917 -0.2289925
-0.019145364 0.1656688 0.18521398 -0.09002089 0.0922294 0.18145522 0.27089706 0.18478358
0.3686091 0.2136126 -0.13589726 0.15057935 0.34381035 0.32943574 -0.054700185 -0.07741192
00000000: 0051 0a3d 8301 efbc bad0 ffbd 08f3 c9bc
00000010: a66d 873c 4aac ac3c 3687 363e 56e7 53ba
00000020: 06b9 22bf 02cd 1b3f 66a2 e83e 42cb e5be
00000030: 6cf1 1f3d e824 d63d 8709 fcbd 9743 cbbd
00000040: 1fdf 743d e615 0d3e a87c 70be c5c3 67be
00000050: c28a 933e 3790 b93e e0ff 663e c7e5 aabe
00000060: 643c 1abd 6501 413d 2af7 663c bdc7 ae3c
00000070: 2773 41bd e51e 29bd 4d80 323f 0e9d cdbc
00000080: 54ef 383f 0da8 3fbf a323 4d3d 294a 17bf
00000090: 2320 aebd 94b2 02bd ee31 82be bbca 8abd
000000a0: c0af e5bc 51f4 36bd ccce 65be 14ff 8e3c
000000b0: 9888 42be 30cf e73d b457 26be 007a 163d
000000c0: 5b41 173c f89c b1bc 1da6 d63d c856 cbbb
000000d0: 916a 033c b5a6 08be a7ce fb3e 9a10 193e
000000e0: 75dd 1ebf e98c 563e 33f3 34bd 3ea0 223f
000000f0: e210 a3bc 553a 5abd a05c b7bd 589b a43c
00000100: 567e d33c 74b9 e63c ac53 ffbe 32c7 0cbf
00000110: ddf0 abbe c045 b5be 8fbe 5fbc ffd0 263e
00000120: 627b d0bd 60ce 4a3e e156 4b3c 262c 47be
00000130: d965 5ebe 806a 193e 83a9 febd 6071 333d
00000140: 75d9 843d 606a 2c3e 6986 923e b703 3abe
00000150: 2701 133d 67cc 7cbc 2ee7 7dbd 1aae 36bc
00000160: e544 afbc e029 2a3d e00a 0e3e 95b6 d63d
00000170: d2a7 49be 9d0c 9b3c ed76 563f 8b5b 85be
00000180: 889e 2a3e 9d63 89be e8ac 963e 584c 69bd
00000190: d476 2b3e 3cf1 893e d160 f7be 1158 fe3d
000001a0: 9e14 673e 83e1 babd 42d1 01be 9d79 e7bd
000001b0: 84e3 863d 116c 293d 1905 06be 6b9b 42bd
000001c0: c539 bdbd a122 fbbd c6e4 a33e bb01 6b3e
000001d0: 181c ebba 47fd 33be 589e 28bc 9bee 613e
000001e0: 40e7 5e3e bda3 293e 837e 49be 116f 74be
000001f0: b435 3ebe 5142 403e c662 f33d 4661 a1be
00000200: bf36 57be 9828 0d3d 69ef 423f 89dd a6bd
00000210: 0844 b2bd 2ef5 373e ec16 38bd e319 873d
00000220: bd73 19be 3658 893d 1526 403e cc61 17be
00000230: 12e6 e43e b763 47bd 2c00 263f 17d0 503f
00000240: 7280 49bd 9c35 c9bd 98d0 60bd e6f9 963d
00000250: 187e e93d 5227 c5bb 1301 b13e 52b7 dabe
00000260: 2de9 a9be 0380 233f 7803 0fbf 14d5 1abf
00000270: 682a febd 3bcf bdbd c7d6 fbbc 777b a73d
00000280: b9e8 003e e0c3 3b3d 7195 523e a0f5 f03e
00000290: 0b36 2f3e c8d1 fbbe 3e55 f3be 08d8 ae3c
000002a0: dc50 d0bd 9eae 54be c37b 2b3d 4a35 633d
000002b0: e088 833e 2f1f 31be e153 d5be e9cc 44be
000002c0: c2f3 783e e2e0 b0bd 6861 613e 2e44 6d3e
000002d0: 9c90 c43d 1ca2 23bd 23f3 143d fb85 9f3d
000002e0: a4ef c03d 771b 9bbd 81ae 363d 0d33 71bd
000002f0: 68a9 703d 8ffa f63d 091e 3a3d 94a2 663e
00000300: 879f 83bc 8790 2c3e be6c 08bb 9140 6ebd
00000310: a238 53be f249 03be 4f03 fcbd 7b81 6e3d
00000320: 8e36 69be 41eb adbe ad1d c6be 718e 953e
00000330: aab3 4b3d 7abe 84bd e076 92bd 3049 f2bc
00000340: 8a3a 853d 535b e73d b722 39be 0cef bb3e
00000350: 2550 b93e c91c 88be 8119 273f e8b6 2e3f
00000360: 81d3 423e e233 25be b46c 87be d7c5 62be
00000370: b572 c3bd 898e 043e aad9 ee3d 93ca 2abe
00000380: 7a6b a63e d3e3 cfbe e2dd 3cbe 2151 b9bd
00000390: cdbb 2cbe 32df 843d 7b18 5abe 80e3 2dbc
000003a0: c775 8c3d eaeb 423e 3393 723d 79f1 c7bd
000003b0: b0f3 05bf 8bc6 1cbd 477f 993e 037d 6abe
000003c0: bdd6 9cbc 15a5 293e bca8 3d3e df5c b8bd
000003d0: c5e2 bc3d 66cf 393e 05b3 8a3e e837 3d3e
000003e0: 55ba bc3e 43bd 5a3e a728 0bbe 7931 1a3e
000003f0: e907 b03e cdab a83e 4d0d 60bd 248a 9ebd

local_head.gconv.convs.<stroke___temp_previous___stroke>.nn.0.bias f4 [32]
0.4396607 0.116883226 -0.01794331 -0.068333514 0.1739843 -0.015921272 0.15625417 -0.13086988
0.16355698 -0.069955744 -0.024259113 0.51932305 -0.04738996 0.29746127 -0.21657349 -0.18026514
0.20741057 0.08628909 0.09961342 -0.17251489 -0.18054633 0.04958454 -0.04637737 0.13298437
-0.1641411 0.3102587 -0.31492606 -0.020152798 -0.07277145 -0.23970622 0.23969395 -0.55589855
00000000: 351b e13e 7960 ef3d d9fd 92bc 71f2 8bbd
00000010: f128 323e 546d 82bc 1801 203e c102 06be
00000020: 7b7b 273e f544 8fbd 0cbb c6bc 5bf2 043f
00000030: fa1b 42bd d84c 983e 71c5 5dbe 6d97 38be
00000040: 7063 543e 56b8 b03d 1f02 cc3d bea7 30be
00000050: 23e1 38be 2919 4b3d 32f6 3dbd 0e2d 083e
00000060: 9b14 28be 3ada 9e3e fd3d a1be 7b17 a5bc
00000070: 3309 95bd 8c75 75be 5572 753e 5e4f 0ebf

local_head.gconv.convs.<stroke___intersects___stroke>.nn.0.weight f4 [32, 12]
0.038468517 0.08479805 -0.20971099 -0.06567711 -0.087256365 0.23378475 -0.23477967 -0.3565206
0.171028 -0.5753349 -0.43862218 0.35663888 0.040161077 0.035568614 -0.10861215 -0.065130815
-0.10924778 0.08971834 -0.20848955 -0.2625273 -0.01787013 -0.18836069 -0.30778915 -0.12555997
0.15541652 -0.065291084 -0.010426183 -0.13498157 0.02880416 0.028492585 -0.29330477 0.33634233
0.014262214 0.11766527 0.21747135 0.1923165 -0.10460384 0.03859818 -0.048870686 0.05510399
0.11840021 0.16081493 -0.20440339 -0.2019174 -0.49998748 -0.18542472 -0.14243189 -0.21352506
-0.023234751 0.07731561 0.12168965 -0.00020078509 -0.09875052 -0.12658252 -0.17428522 0.15339813
0.20207857 0.03849155 0.045015607 0.39740184 -0.04701738 0.19425334 -0.034559023 0.03383825
-0.1943868 0.047795147 -0.5403668 0.8681172 0.24546051 -0.056400962 0.30528945 0.07518149
0.11613317 0.19714712 -0.077294335 -0.06974597 -0.009801254 0.10508733 0.20673983 0.33501077
0.137085 -0.024433771 -0.21369272 -0.07570523 0.16375016 -0.13506998 -0.054157894 -0.17172974
0.1507348 0.04786605 -0.20686094 -0.18045053 0.13672593 0.24141052 -0.52191216 -0.25248972
-0.10744464 0.16876043 0.1212265 0.06265225 -0.03788473 -0.17297384 0.12091339 -0.014112033
-0.1122193 0.03266484 -0.08986496 -0.21385436 0.007951177 -0.049728524 -0.1834097 -0.029603185
0.09125721 0.19294794 -0.083890356 0.29079446 0.75962436 0.2733381 0.2854852 0.16043602
0.081644975 -0.17860907 0.21543388 0.15903732 0.14089648 -0.25743064 -0.01882429 -0.09387219
0.062484425 0.17147303 0.10982926 -0.13674173 0.2872147 0.21277432 0.08808102 -0.26612425
-0.20310509 -0.08568913 0.15026687 0.10319588 0.74937344 -0.17875795 -0.34521583 0.14955653
-0.03246669 -0.08349919 0.007939287 0.052736424 0.091322236 -0.11540837 -0.10958736 0.12817551
0.14091194 -0.32681078 -0.07214748 0.15482932 -0.0082621025 -0.0017967316 0.028298425 0.01914387
0.023197016 0.13518703 0.20847823 -0.005439219 -0.063116156 0.35637385 0.18428402 0.13756548
0.013829784 0.066327214 0.10606979 -0.019591212 -0.10055087 -0.13360254 -0.07026887 -0.026697878
-0.6386906 -0.22144233 -0.34647897 -0.20452033 -0.21413422 -0.059086025 0.03637695 0.22045049
0.09028694 -0.016394401 0.79912627 0.014455393 -0.81880975 0.35715204 -0.18008763 -0.44108567
0.01228627 0.021345003 0.08677692 -0.045708645 0.0062140375 -0.112248294 -0.03909803 0.0019894275
0.10713136 0.33962682 -0.3695722 0.45408696 -0.049178988 0.23634551 0.24166869 0.049161725
-0.24063677 -0.20042254 -0.14005178 0.17083623 0.0009122236 -0.5907797 -0.2613482 0.033988953
0.2821792 0.17043464 0.123026475 -0.31420207 -0.16842647 -0.12810065 -0.6228762 -0.10712027
0.041249253 -0.44065353 -0.14025426 -0.108980075 0.21001841 0.14145578 -0.07525445 -0.25519985
-0.12804146 -0.0022772641 0.24447584 0.17225568 0.50422585 0.0026118772 0.04743296 0.18030594
0.05481813 -0.18288703 0.05759286 -0.04936843 0.18585756 -0.05523074 0.2060659 -0.5056411
0.1664097 0.16198131 -0.17345509 -0.064061046 0.13317591 -0.09950059 0.0013090058 -0.13094726
00000000: 2a91 1d3d 9aaa ad3d 7abe 56be b881 86bd
00000010: 77b3 b2bd 4565 6f3e 156a 70be de89 b6be
00000020: f721 2f3e 2649 13bf 1693 e0be 5f99 b63e
00000030: f17f 243d 65b0 113d 0c70 debd 4e63 85bd
00000040: 4dbd dfbd 40be b73d 497e 55be fa69 86be
00000050: 6164 92bc a0e1 40be 8a96 9dbe cb92 00be
00000060: 8225 1f3e 55b7 85bd 95d2 2abc 9c38 0abe
00000070: b4f6 eb3c 4869 e93c 0b2c 96be 1035 ac3e
00000080: 10ac 693c 7dfa f03d cfb0 5e3e 9eee 443e
00000090: 8a3a d6bd 2019 1e3d a12c 48bd b9b4 613d
000000a0: cf7b f23d abac 243e 1f4f 51be 6fc3 4ebe
000000b0: 5cfe ffbe fadf 3dbe aad9 11be 50a6 5abe
000000c0: ce56 bebc a657 9e3d 6c38 f93d d689 52b9
000000d0: b63d cabd d99e 01be d377 32be 6614 1d3e
000000e0: afed 4e3e 51a9 1d3d 4962 383d 4178 cb3e
000000f0: 4c95 40bd 59ea 463e c38d 0dbd fa99 0a3d
00000100: 550d 47be d8c4 433d 7b55 0abf ee3c 5e3f
00000110: 005a 7b3e b204 67bd e64e 9c3e c1f8 993d
00000120: 3ad7 ed3d efe0 493e 7e4c 9ebd fad6 8ebd
00000130: 7095 20bc 0738 d73d 9bb3 533e 8886 ab3e
00000140: 0360 0c3e 5529 c8bc 44d2 5abe 580b 9bbd
00000150: 1fae 273e c94f 0abe abd4 5dbd ecd9 2fbe
00000160: 395a 1a3e 310f 443d 5bd3 53be 06c8 38be
00000170: e201 0c3e 5234 773e 099c 05bf 5546 81be
00000180: ef0b dcbd 89cf 2c3e 9945 f83d d34f 803d
00000190: 052d 1bbd 0e20 31be 70a1 f73d 2836 67bc
000001a0: 3bd3 e5bd 91cb 053d 1f0b b8bd a3fc 5abe
000001b0: a745 023c 23b0 4bbd c1cf 3bbe 6182 f2bc
000001c0: 0fe5 ba3d 2594 453e b5ce abbd 03e3 943e
000001d0: be76 423f f9f2 8b3e 1e2b 923e 5749 243e
000001e0: 7b35 a73d 4ce5 36be b39a 5c3e aeda 223e
000001f0: 2b47 103e f3cd 83be 6635 9abc 1040 c0bd
00000200: abef 7f3d a096 2f3e 2aee e03d 0606 0cbe
00000210: ce0d 933e 83e1 593e d263 b43d 7041 88be
00000220: c8fa 4fbe c87d afbd 8fdf 193e 5d58 d33d
00000230: f0d6 3f3f 530c 37be 21c0 b0be 5925 193e
00000240: cbfb 04bd a001 abbd c913 023c 2602 583d
00000250: 2707 bb3d 395b ecbd 566f e0bd 7140 033e
00000260: 384b 103e be53 a7be 0fc2 93bd 948b 1e3e
00000270: c55d 07bc 4f80 ebba 19d2 e73c 9bd3 9c3c
00000280: ab07 be3c 786e 0a3e 517b 553e 7a3b b2bb
00000290: 0b43 81bd a276 b63e f3b4 3c3e f7dd 0c3e
000002a0: 5196 623c 90d6 873d 1e3b d93d c07d a0bc
000002b0: 9ded cdbd 1bcf 08be 20e9 8fbd 82b5 dabc
000002c0: 3a81 23bf c7c1 62be b165 b1be c76d 51be
000002d0: 0046 5bbe 3004 72bd ffff 143d c6bd 613e
000002e0: 5ce8 b83d 8d4d 86bc 8a93 4c3f 50d6 6c3c
000002f0: 849d 51bf a2dc b63e e468 38be fbd5 e1be
00000300: 5a4c 493c b7db ae3c 19b8 b13d fd38 3bbd
00000310: 209f cb3b 6fe2 e5bd 4225 20bd 0e61 023b
00000320: b067 db3d 91e3 ad3e 9138 bdbe 167e e83e
00000330: e86f 49bd 8f04 723e ff77 773e ce5d 493d
00000340: 7c69 76be 913b 4dbe bc69 0fbe b1ef 2e3e
00000350: 4a22 6f3a 573d 17bf 6ecf 85be 0038 0b3d
00000360: cb79 903e 6b86 2e3e 4ef5 fb3d 18df a0be
00000370: fd77 2cbe d12c 03be d174 1fbf df61 dbbd
00000380: faf4 283d 579d e1be d09e 0fbe f230 dfbd
00000390: 110f 573e c9d9 103e 011f 9abd 8ea9 82be
000003a0: 4d1d 03be 273e 15bb e057 7a3e cb63 303e
000003b0: f214 013f 072c 2b3b 1049 423d 1fa2 383e
000003c0: fa88 603d bd46 3bbe 7ee6 6b3d 8d36 4abd
000003d0: 7251 3e3e a139 62bd f002 533e b271 01bf
000003e0: 4e67 2a3e 6ede 253e 369e 31be 7032 83bd
000003f0: 445f 083e f7c6 cbbd f292 ab3a 0a17 06be

local_head.gconv.convs.<stroke___intersects___stroke>.nn.0.bias f4 [32]
-0.23097888 0.36771 -0.22203237 0.42524645 0.10153318 -0.26808655 -0.12710825 -0.18627782
-0.017988024 -0.41728407 0.16695876 -0.03324828 -0.45190567 -0.19706668 -0.10088566 -0.0004195521
-0.04737924 0.13213515 0.047167145 -0.13151824 -0.002195806 -0.06649727 0.24652863 -0.21088715
0.56916004 0.3736006 -0.39586276 0.049848966 -0.101898186 -0.16640931 0.05061836 0.023286235
00000000: ba85 6cbe 7c44 bc3e 745c 63be e7b9 d93e
00000010: a1f0 cf3d a442 89be aa28 02be 9dbf 3ebe
00000020: 9f5b 93bc 42a6 d5be 3df7 2a3e 592f 08bd
00000030: 2e60 e7be d9cb 49be 249d cebd 54f7 dbb9
00000040: bc10 42bd 704e 073e 5632 413d b8ac 06be
00000050: 83e7 0fbb b82f 88bd 0072 7c3e cdf2 57be
00000060: 79b4 113f 9448 bf3e 86ae cabe 6e2e 4c3d
00000070: ffaf d0bd 3467 2abe 3355 4f3d c6c2 be3c

local_head.gconv.convs.<stroke___strokecoplanar___stroke>.nn.0.weight f4 [32, 12]
0.25988254 -0.0434358 -0.027562566 -0.24574788 -0.022448635 -0.0054649245 -0.5402919 -0.16723752
0.059979863 -0.6184512 0.21562015 0.33689395 -0.27477163 -0.016597806 0.06388855 0.23323119
0.053931847 0.11657966 -0.1953062 0.1378572 -0.11789966 0.08788856 -0.2789175 0.5520154
-0.14784732 -0.14563707 -0.09680229 0.050639 0.08284438 0.15333632 0.15438157 0.15136799
-0.05666603 -0.20230614 -0.11200026 -0.019965045 0.17551865 0.111142896 0.11970507 -0.05711522
-0.1263991 -0.1873713 0.26613274 -0.022822622 -0.03191018 0.040387806 -0.45581824 -0.23336273
-0.12224344 0.09659636 -0.056386612 0.040655524 -0.06792273 0.10299202 -0.100930415 0.1959705
-0.009637373 0.1234095 -0.08807201 0.28686434 0.068076454 -0.22709905 -0.12209689 -0.03409482
0.1112854 0.078107715 0.14160547 0.089819826 -0.09890822 0.0030549734 0.13707764 0.105108716
0.1258381 -0.12829392 -0.15913786 -0.08239701 0.08020767 0.052819774 -0.067512445 -0.2956033
0.50408745 0.11387296 -0.17717674 -0.10611342 0.17353229 0.18928425 0.004807272 -0.14996107
-0.22711276 0.031012045 -0.113591075 0.31449068 0.07291228 0.05031067 -0.15775666 0.103481874
-0.03657091 0.21514696 0.06439521 0.031241808 -0.2091625 0.021369329 -0.21868284 -0.51319903
-0.05412066 0.05892016 -0.579503 0.10152601 -0.07999735 -0.06407155 0.22734185 -0.049375504
0.06952824 0.0067817303 -0.15986647 0.1894578 -0.15583785 -0.11383007 -0.08979545 0.0661392
0.016216902 0.0055230763 -0.1779868 0.13122647 0.06011482 0.18320352 0.3673657 -0.0011884527
0.12363472 -0.17507486 0.009188559 -0.22870858 0.15529414 0.09582999 0.035557617 -0.036105074
-0.106937476 0.023821535 0.004974197 0.33928105 0.113857746 -0.16430639 -0.07335036 0.118291356
0.059649378 0.0709088 0.0437228 -0.12682079 -0.06556436 -0.05579412 0.1696875 0.05754368
0.49420816 -0.05283934 -0.19430396 -0.07780291 0.104513116 -0.021118848 -0.28301984 -0.07065475
0.04723062 0.27086076 -0.015047425 -0.3057189 -0.1600536 0.32558075 0.50218517 -0.04851634
0.08822529 -0.11132082 -0.086657114 -0.044699047 0.10739754 0.08685218 0.3923445 -0.26467058
0.09579393 0.56026953 -0.1502462 -0.028775364 0.08284043 0.098199874 -0.07623733 -0.047457088
-0.110770255 0.06314128 -0.28585503 -0.1263252 0.6045135 -0.10811276 0.2507597 0.50155187
-6.65114e-06 0.06468606 0.04162233 0.09251668 0.045571662 -0.032773424 0.298092 0.33713287
0.11328137 -0.4355488 0.12208437 0.14196709 0.06126598 0.1737137 0.30836818 -0.003295323
-0.0011147214 -0.023706537 -0.085489914 -0.10398275 0.13320287 0.18670829 0.24379495 -0.050200995
0.07895933 0.22385032 0.1421175 0.0204429 -0.12401458 -0.023608178 -0.24372306 0.1865508
0.19207472 -0.20969169 -0.03546119 0.2770781 -0.08237696 -0.093243554 -0.15641713 -0.005319153
0.030756908 0.20851666 0.031960588 0.23095721 0.21103163 0.19194596 0.016561788 0.27520344
0.01641405 0.012458003 0.1995277 0.0514246 0.0038599267 -0.17264344 -0.38729244 -0.4471932
0.20124769 -0.3512693 -0.35541272 0.026852993 0.024224356 0.0884712 0.089430206 -0.04892268
00000000: 530f 853e bde9 31bd e4ca e1bc 55a5 7bbe
00000010: 33e6 b7bc 1c13 b3bb 9250 0abf 5040 2bbe
00000020: 72ad 753d d152 1ebf 87cb 5c3e 5d7d ac3e
00000030: deae 8cbe 1ff8 87bc 00d8 823d 28d4 6e3e
00000040: a4e7 5c3d 51c1 ee3d 59fe 47be 702a 0d3e
00000050: 6075 f1bd ebfe b33d 46ce 8ebe e250 0d3f
00000060: 4a65 17be e221 15be 4740 c6bd d76a 4f3d
00000070: 50aa a93d 3204 1d3e 3416 1e3e 3600 1b3e
00000080: a41a 68bd 5729 4fbe 6460 e5bd bc8d a3bc
00000090: 29bb 333e e39e e33d ef27 f53d a6f1 69bd
000000a0: c46e 01be 43de 3fbe 8d42 883e 82f6 babc
000000b0: 40b4 02bd af6d 253d 0261 e9be a4f6 6ebe
000000c0: c55a fabd 50d4 c53d a6f5 66bd 6886 263d
000000d0: 131b 8bbd 7bed d23d 9bb4 cebd 7eac 483e
000000e0: 12e6 1dbc 1fbe fc3d 195f b4bd e2df 923e
000000f0: ab6b 8b3d a78c 68be ef0d fabd 03a7 0bbd
00000100: 9ae9 e33d f0f6 9f3d 0601 113e 75f3 b73d
00000110: 6590 cabd f335 483b 155e 0c3e 3d43 d73d
00000120: b4db 003e 7b5f 03be 09f5 22be c3bf a8bd
00000130: eb43 a43d 8c59 583d f743 8abd 5159 97be
00000140: e00b 013f 3a36 e93d d26d 35be fe51 d9bd
00000150: 73b2 313e bbd3 413e 5286 9d3b 658f 19be
00000160: 3f90 68be f90c fe3c 70a2 e8bd ec04 a13e
00000170: 0953 953d 9012 4e3d f68a 21be 4eee d33d
00000180: 61cb 15bd 7c4f 5c3e a3e1 833d d2ee ff3c
00000190: b22e 56be bb0e af3c 65ee 5fbe 0361 03bf
000001a0: a0ad 5dbd 4456 713d 4f5a 14bf deec cf3d
000001b0: a7d5 a3bd f237 83bd 4dcc 683e f83d 4abd
000001c0: d264 8e3d 4739 de3b 09b4 23be 3a01 423e
000001d0: f593 1fbe bd1f e9bd ade6 b7bd fd73 873d
000001e0: 4fd9 843c ecfa b43b 2c42 36be 3b60 063e
000001f0: f53a 763d b499 3b3e 5b17 bc3e dbc5 9bba
00000200: 3334 fd3d d346 33be 9c8b 163c 9532 6abe
00000210: 6d05 1f3e 8442 c43d dda4 113d eae2 13bd
00000220: 0902 dbbd 6125 c33c 97fe a23b 3fb6 ad3e
00000230: 402e e93d ef3f 28be b738 96bd bd42 f23d
00000240: e852 743d a238 913d ae16 333d 4fdd 01be
00000250: 9b46 86bd 6088 64bd 8fc2 2d3e ecb2 6b3d
00000260: da08 fd3e 106e 58bd 9ef7 46be 2257 9fbd
00000270: f90a d63d 6f01 adbc fae7 90be 70b3 90bd
00000280: e574 413d 43ae 8a3e 7a89 76bc 3087 9cbe
00000290: 17e5 23be 85b2 a63e 358f 003f 12b9 46bd
000002a0: 76af b43d 2cfc e3bd 4979 b1bd 5916 37bd
000002b0: 3ef3 db3d 8edf b13d 61e1 c83e e782 87be
000002c0: 9c2f c43d d36d 0f3f 24da 19be 50ba ebbc
000002d0: 3ea8 a93d 041d c93d 5122 9cbd 5d62 42bd
000002e0: 84db e2bd 3750 813d 975b 92be 655b 01be
000002f0: 66c1 1a3f 396a ddbd 9363 803e b465 003f
00000300: dc2c dfb6 207a 843d 2d7c 2a3d 6379 bd3d
00000310: 5aa9 3a3d 6d3d 06bd 849f 983e ae9c ac3e
00000320: 1000 e83d 4100 dfbe 5f07 fa3d d25f 113e
00000330: 09f2 7a3d 01e2 313e 6fe2 9d3e 59f6 57bb
00000340: d81b 92ba 3634 c2bc 5615 afbd e8f4 d4bd
00000350: 5566 083e 7530 3f3e 62a5 793e 8f9f 4dbd
00000360: 6eb5 a13d 0539 653e 4087 113e de77 a73c
00000370: 5bfb fdbd f065 c1bc 8a92 79be 2c07 3f3e
00000380: 3caf 443e 6bb9 56be c13f 11bd 2edd 8d3e
00000390: 40b5 a8bd 7af6 bebd d02b 20be 4a4c aebb
000003a0: e9f5 fb3c 6485 553e 1be9 023d 0c80 6c3e
000003b0: ad18 583e 7b8d 443e 96ac 873c 77e7 8c3e
000003c0: c276 863c a71c 4c3c fd50 4c3e 9aa2 523d
000003d0: d3f6 7c3b 71c9 30be 324b c6be 82f6 e4be
000003e0: e013 4e3e 92d9 b3be a8f8 b5be cffa db3c
000003f0: 2872 c63c 6330 b53d 2f27 b73d 2663 48bd

local_head.gconv.convs.<stroke___strokecoplanar___stroke>.nn.0.bias f4 [32]
-0.16676556 -0.24388675 -0.15271987 -0.48232606 0.10947866 -0.014453861 -0.18096001 0.14818278
-0.33772126 0.0060648653 -0.17353584 0.15115988 0.33954602 -0.18005967 -0.26023582 -0.32459235
-0.14422163 -0.20782764 0.07260651 -0.15290686 -0.066983715 -0.08340234 -0.042245816 -0.006403109
-0.12306403 -0.030276407 -0.21031865 -0.1032259 -0.3759721 -0.03844366 0.12898418 -0.5445179
00000000: 97c4 2abe 73bd 79be 9962 1cbe 71f3 f6be
00000010: 5936 e03d e3cf 6cbc 954d 39be 3abd 173e
00000020: cde9 acbe c7bb c63b 61b3 31be a8c9 1a3e
00000030: fad8 ad3e 9061 38be a13d 85be f830 a6be
00000040: d6ae 13be c5d0 54be b9b2 943d 9e93 1cbe
00000050: c22e 89bd d9ce aabd f309 2dbd 2cd1 d1bb
00000060: ff08 fcbd 3a06 f8bc c65d 57be 1a68 d3bd
00000070: 6a7f c0be 1977 1dbd 6e14 043e 8665 0bbf

local_head.gconv.convs.<stroke___represented_by___brep>.nn.0.weight f4 [32, 12]
-0.13926311 -0.11698052 0.008112418 0.17285515 0.09193613 -0.09688823 -0.25696036 0.07334185
0.016966373 -0.16400614 -0.06514627 -0.2101531 0.16069221 -0.069316216 -0.124199376 -0.20267585
0.0632243 0.12048548 0.23016876 0.1873329 0.27163547 0.2738043 0.13711509 -0.22749332
0.08931244 0.023760203 -0.10987972 -0.031116413 0.04006174 0.09053176 -0.006214589 -0.09842479
0.18391359 -0.047899008 -0.22740696 -0.28288513 0.18897934 0.09523248 0.14533056 0.06314882
-0.08299702 -0.09836927 0.1591163 0.23045659 -0.19316408 0.16943926 0.04400873 -0.2125195
-0.14593951 -0.06929206 0.039803054 -0.24669117 0.22674993 0.16489801 0.23438412 0.0053189695
-0.28439948 -0.07042499 0.007207215 -0.21317877 0.020618819 0.09083806 -0.11564292 0.0680048
0.095837705 -0.031557173 -0.04119903 0.09025261 0.13175231 0.25167215 0.26408553 -0.26721397
-0.010858501 0.2357633 0.09265906 -0.29273716 0.12364389 -0.05235942 0.23806322 -0.028266132
-0.18548042 -0.004809141 -0.25160536 -0.14203842 -0.096076846 -0.12320127 -0.08419173 -0.07732424
0.10747702 -0.06514074 0.24321431 0.20061016 0.16678941 0.11930135 -0.06453249 -0.12417674
-0.14292756 -0.0131297335 0.23781966 0.09059192 0.023827134 -0.25164676 -0.25921556 0.060660332
-0.039088354 -0.07384096 -0.18177235 0.20315489 -0.01522916 -0.043702304 0.02042096 -0.13500048
0.06948345 0.15155794 -0.18553108 -0.10252699 -0.16385934 0.25374323 -0.19796327 0.17177463
0.37486452 0.0989165 0.31603527 -0.01725425 0.17163762 -0.020588081 -0.01959297 0.121617734
0.1491211 0.12636083 0.08913484 0.22016835 -0.1536168 -0.14212295 -0.025305951 -0.0030368106
0.1961118 -0.14139363 -0.021748543 -0.116416916 -0.088409305 -0.08029398 -0.22968248 -0.13922356
0.038852967 0.060944088 0.0039952477 -0.02517854 0.079029925 0.06372925 0.27358174 0.17473996
-0.07123709 0.2246154 0.282413 -0.1893148 0.09085245 -0.13780832 -0.12648171 0.10475045
0.18017761 -0.123537555 0.20027873 -0.23573805 0.08957571 0.17686394 -0.21171412 0.0067733824
0.12196269 0.21799414 -0.09003893 -0.116361775 -0.21296078 0.20164397 0.13544098 -0.07683353
-0.14392513 0.14464307 -0.2579847 -0.10593781 0.0045853974 -0.08338461 -0.01670551 -0.10616277
0.17614666 0.017633213 -0.20524701 -0.037203997 0.11080828 0.008887678 -0.17973366 -0.1387443
0.12067148 0.22355147 -0.098168865 0.083492145 -0.1111805 -0.02499074 0.27481455 0.037602186
0.13748658 -0.12287195 -0.013775378 -0.028948188 0.052422762 -0.06424398 0.1589971 0.097595595
-0.0927448 0.10665538 0.27560955 0.18887314 0.117935985 -0.03664416 -0.039728045 0.19042447
-0.15432219 0.11891057 0.1858562 0.123318784 0.15374345 -0.16864483 -0.27282527 -0.24649593
0.07082668 -0.18014967 -0.14730449 -0.10439533 -0.13036467 -0.050311547 0.20104481 0.16858523
-0.035457507 -0.25473613 -0.07961081 0.1418623 0.09258103 0.101658106 0.22719502 0.2790889
0.079241894 0.011532085 -0.050380573 -0.16599466 -0.09961465 -0.008720199 0.13984567 -0.28576368
-0.28180394 0.004236698 0.2724468 0.28059548 0.14528948 -0.122701876 0.23402154 -0.24268834
00000000: fd9a 0ebe 7c93 efbd f3e9 043c f100 313e
00000010: 0249 bc3d 566d c6bd 4f90 83be 4034 963d
00000020: 10fd 8a3c 3af1 27be 686b 85bd 6032 57be
00000030: 808c 243e a9f5 8dbd 3e5c febd 428a 4fbe
00000040: be7b 813d 17c1 f63d 5cb1 6b3e 32d4 3f3e
00000050: ce13 8b3e 1430 8c3e e667 0c3e 02f4 68be
00000060: 71e9 b63d c2a4 c23c 9e08 e1bd d9e7 febc
00000070: c717 243d b768 b93d c0a3 cbbb f092 c9bd
00000080: d853 3c3e c031 44bd 5fdd 68be 52d6 90be
00000090: cd83 413e 3f09 c33d 89d1 143e 2b54 813d
000000a0: 57fa a9bd d475 c9bd 62ef 223e d0fc 6b3e
000000b0: cecc 45be 7c81 2d3e 8042 343d b69e 59be
000000c0: 2b71 15be ffe8 8dbd 8708 233d 9c9c 7cbe
000000d0: 2231 683e 06db 283e 6402 703e c04a ae3b
000000e0: cf9c 91be fa3a 90bd 802a ec3b 894b 5abe
000000f0: cce8 a83c 4e09 ba3d 32d6 ecbd 1a46 8b3d
00000100: 8f46 c43d 1842 01bd 50c0 28bd 5cd6 b83d
00000110: 14ea 063e 2cdb 803e 3836 873e 45d0 88be
00000120: dbe7 31bc ef6b 713e 09c4 bd3d a5e1 95be
00000130: 0239 fd3d d576 56bd d8c6 733e 608e e7bc
00000140: 94ee 3dbe 0096 9dbb 6bd2 80be 8572 11be
00000150: f0c3 c4bd f350 fcbd b76c acbd 2c5c 9ebd
00000160: e91c dc3d 8268 85bd 2c0d 793e c06c 4d3e
00000170: d8ca 2a3e 4454 f43d 9c29 84bd 6050 febd
00000180: 9a5b 12be 181e 57bc ff86 733e 4288 b93d
00000190: 1f31 c33c d8d7 80be e7b7 84be f876 783d
000001a0: 1c1b 20bd ee39 97bd 8822 3abe d607 503e
000001b0: ba83 79bc 3001 33bd db49 a73c 913d 0abe
000001c0: 574d 8e3d 0132 1b3e dcfb 3dbe acf9 d1bd
000001d0: beca 27be a2ea 813e e2b6 4abe b0e5 2f3e
000001e0: 3eee bf3e bc94 ca3d 60cf a13e c958 8dbc
000001f0: c6c1 2f3e 56a8 a8bc 7081 a0bc b812 f93d
00000200: 34b3 183e bc64 013e 548c b63d d073 613e
00000210: b94d 1dbe ae88 11be 6d4e cfbc 3a05 47bb
00000220: 88d1 483e 7ec9 10be 002a b2bc fe6b eebd
00000230: f00f b5bd 2c71 a4bd e231 6bbe 9f90 0ebe
00000240: 4a24 1f3d 82a0 793d 91ea 823b 3a43 cebc
00000250: 71da a13d 7b84 823d e812 8c3e 08ef 323e
00000260: c0e4 91bd 9401 663e 7098 903e bddb 41be
00000270: d910 ba3d a01d 0dbe 6c84 01be 6787 d63d
00000280: 7b80 383e 4201 fdbd de15 4d3e 5165 71be
00000290: 7873 b73d d21b 353e 96cb 58be 40f3 dd3b
000002a0: 93c7 f93d db39 5f3e 5566 b8bd 154f eebd
000002b0: 6412 5abe c27b 4e3e 0ab1 0a3e e65a 9dbd
000002c0: 1c61 13be 501d 143e 9216 84be ecf5 d8bd
000002d0: 1a41 963b 8dc5 aabd fed9 88bc de6b d9bd
000002e0: ca5f 343e 8773 903c 462c 52be 3863 18bd
000002f0: 74ef e23d a09d 113c 1a0c 38be fc12 0ebe
00000300: 9c22 f73d adea 643e c20c c9bd eefd aa3d
00000310: 9ab2 e3bd 61b9 ccbc 7eb4 8c3e c004 1a3d
00000320: 48c9 0c3e 4aa4 fbbd 20b2 61bc c024 edbc
00000330: 40b9 563d 5992 83bd 23d0 223e 33e0 c73d
00000340: fcf0 bdbd 236e da3d b21c 8d3e f667 413e
00000350: 6c88 f13d 3018 16bd e0b9 22bd a2fe 423e
00000360: a306 1ebe 6387 f33d 1651 3e3e 8f8e fc3d
00000370: ec6e 1d3e 3bb1 2cbe c1af 8bbe 6e69 7cbe
00000380: 940d 913d 2879 38be fdd6 16be 38cd d5bd
00000390: 517e 05be 7b13 4ebd b1de 4d3e 9ba1 2c3e
000003a0: e43b 11bd c66c 82be fe0a a3bd 5a44 113e
000003b0: 209b bd3d 2032 d03d d0a5 683e bee4 8e3e
000003c0: 9349 a23d 12f1 3c3c dc5b 4ebd 81fa 29be
000003d0: c402 ccbd 2adf 0ebc b433 0f3e 9e4f 92be
000003e0: 9b48 90be 00d4 8a3b 267e 8b3e 36aa 8f3e
000003f0: c4c6 143e 1f4b fbbd 58a3 6f3e 4b83 78be

local_head.gconv.convs.<stroke___represented_by___brep>.nn.0.bias f4 [32]
-0.33036768 -0.14038861 -0.47325912 -0.011190882 -0.59395367 -0.23591127 0.1404183 -0.37173232
-0.44845745 -0.1947082 0.19090843 -0.094064474 0.10475338 0.203873 -0.12267306 -0.43899345
-0.05682756 -0.33472252 -0.32308453 0.31937456 0.09749313 -0.052213993 -0.30447495 -0.44753316
-0.09126136 -0.16291213 0.17292167 -0.010836616 -0.29581663 0.017787335 0.032368325 -0.1291421
00000000: f425 a9be 08c2 0fbe 054f f2be f659 37bc
00000010: 590d 18bf b992 71be d1c9 0f3e b353 bebe
00000020: 379c e5be 9661 47be 807d 433e e0a4 c0bd
00000030: f188 d63d 15c4 503e 033c fbbd c0c3 e0be
00000040: 04c4 68bd c060 abbe 566b a5be 1085 a33e
00000050: 7aaa c73d 57de 55bd 24e4 9bbe 1123 e5be
00000060: 3ce7 babd 70d2 26be 6112 313e 108c 31bc
00000070: 4775 97be bfb6 913c a694 043d d43d 04be

local_head.gconv.convs.<brep___brepcoplanar___brep>.nn.0.weight f4 [32, 12]
0.31297165 0.17783539 0.15845214 -0.26062167 -0.1198572 0.017821535 -0.21605927 -0.066690296
0.3461206 -0.101628944 -0.064624645 -0.1825693 -0.09453964 -0.19585821 -0.048455276 0.120527595
0.15291451 0.13103984 0.2315341 -0.3460822 0.20873909 0.25192392 0.059198778 0.32948616
-0.104854204 0.21956794 0.11423646 0.14282693 -0.19062719 0.04194424 0.027071042 0.21441369
-0.29143128 0.15922847 0.04385988 0.28313702 -0.07344403 -0.06316856 -0.17548949 0.1143157
-0.12292349 -0.034460902 -0.19436467 -0.19684239 0.04851823 -0.09812871 0.17143862 -0.21995127
0.18271235 -0.15229453 -0.17048892 0.11761132 -0.0012792702 -0.040809907 0.27668306 0.059494216
-0.071273774 0.32069215 0.0023985123 0.025082726 0.0015967368 -0.07799282 -0.20529664 -0.12081607
0.15521644 0.06423895 0.13794746 0.091713294 -0.07285696 0.32816976 0.016800186 -0.33739337
0.06470962 0.092919916 0.10327015 0.019564874 0.14776291 0.24485056 -0.09605011 0.20090044
0.110726155 0.31505582 0.018838251 -0.16149212 0.14790955 0.12434061 0.20668812 -0.18205898
-0.10963651 -0.21183541 0.116582245 0.30710208 -0.4135155 0.17745103 0.15702309 -0.43344903
-0.164363 0.26144013 0.024368305 0.03824032 -0.050003935 0.10019753 0.24779405 -0.06602714
-0.120034516 -0.045264132 0.12881315 0.15318093 -0.047226097 -0.05919659 -0.16469055 0.005394997
-0.025296485 0.048609905 -0.20894516 0.05173383 -0.019494958 -0.2512912 -0.23416705 0.1847773
0.1057071 -0.2789051 -0.19763961 -0.024602903 0.0124451015 0.08237809 0.122846834 0.07386331
0.02669906 -0.056377083 0.007841304 0.009421675 0.123152316 0.12078046 0.17804019 -0.008997607
0.11134274 -0.020908058 0.1435144 -0.19413967 0.25428838 0.23157935 0.007388609 0.20685583
-0.026908452 0.14551125 -0.04193659 0.015565192 -0.11130786 0.07924854 -0.32633874 0.094032794
0.010436824 -0.2843229 -0.24611776 0.07921544 -0.020354742 0.06262388 0.106236584 0.036358085
-0.14932638 0.104061864 -0.17198159 -0.017492255 0.14766786 0.12848786 -0.35235074 -0.11065248
0.10678031 -0.08481894 -0.024065461 0.10400135 0.16274431 -0.028707534 -0.06670577 -0.21995708
0.16241807 0.2981022 -0.16134802 0.2008845 0.13508476 -0.3504965 0.035802573 0.052131616
0.042052798 -0.18898566 0.2375633 0.19491903 0.29503104 0.40986156 0.071098045 -0.20390715
0.25805166 0.18240954 -0.2754819 -0.24323297 -0.15515293 0.31909552 0.24367854 0.15204717
-0.07686638 -0.16204159 0.38290125 -0.02614412 -0.31109917 -0.013415324 0.02997199 0.16290319
0.0024769334 -0.17566656 -0.077267565 0.13086283 -0.08946125 -0.25475985 -0.019814583 -0.048692413
-0.13811247 -0.1513647 0.18472093 0.15735236 0.039211802 -0.20237629 0.119564034 0.11736063
0.045370173 -0.06496856 0.103934236 0.16812402 -0.15487793 -0.13427329 -0.09973984 -0.03614825
0.12519617 0.14613914 0.31764483 0.10628257 -0.07548156 0.08065615 -0.36255744 0.17291933
0.17636955 0.07878926 -0.10648429 -0.03888072 0.1480507 -0.074578375 -0.1863886 0.16035943
-0.056058545 0.020067714 0.25385985 -0.019682283 -0.082544655 0.39669862 -0.12404847 0.082675315
00000000: d23d a03e 7b1a 363e 4741 223e 3470 85be
00000010: b177 f5bd 78fe 913c a43e 5dbe ec94 88bd
00000020: b836 b13e d622 d0bd ed59 84bd 72f3 3abe
00000030: 009e c1bd 0e8f 48be 0a79 46bd 2cd7 f63d
00000040: 9f95 1c3e 4f2f 063e 4617 6d3e b031 b1be
00000050: b3bf 553e 2cfc 803e 6b7a 723d 69b2 a83e
00000060: cdbd d6bd 6bd6 603e cef4 e93d 3941 123e
00000070: c633 43be b9cd 2b3d 17c4 dd3c 438f 5b3e
00000080: 7b36 95be ca0c 233e 6ba6 333d 56f7 903e
00000090: d369 96bd 855e 81bd 84b3 33be 5a1e ea3d
000000a0: 50bf fbbd e026 0dbd 8807 47be 0d91 49be
000000b0: 0dbb 463d b5f7 c8bd 9b8d 2f3e e83a 61be
000000c0: f218 3b3e 19f3 1bbe a694 2ebe 34de f03d
000000d0: 2fad a7ba 4a28 27bd 67a9 8d3e 35b0 733d
000000e0: fcf7 91bd c331 a43e 5c30 1d3b 4a7a cd3c
000000f0: 9949 d13a b3ba 9fbd 4839 52be 6a6e f7bd
00000100: 0ff1 1e3e b68f 833d 1942 0d3e 2ed4 bb3d
00000110: 0836 95bd de05 a83e 8ba0 893c d3be acbe
00000120: 7a86 843d cc4c be3d 4d7f d33d 8446 a03c
00000130: 294f 173e 1bba 7a3e ecb5 c4bd d8b8 4d3e
00000140: 65c4 e23d ff4e a13e ad52 9a3c 315e 25be
00000150: 9a75 173e 4aa6 fe3d 0da6 533e ab6d 3abe
00000160: 1b89 e0bd 62eb 58be acc2 ee3d 7c3c 9d3e
00000170: 4eb8 d3be b9b5 353e a9ca 203e 08ed ddbe
00000180: c64e 28be 7bdb 853e 0aa0 c73c e2a1 1c3d
00000190: edd0 4cbd 5d34 cd3d b9bd 7d3e 3d39 87bd
000001a0: a8d4 f5bd e266 39bd 98e7 033e 76db 1c3e
000001b0: 2770 41bd 2078 72bd a4a4 28be 84c8 b03b
000001c0: 933a cfbc 2e1b 473d b8f5 55be dae6 533d
000001d0: e4b3 9fbc 3da9 80be 7dc9 6fbe 4336 3d3e
000001e0: f77c d83d a6cc 8ebe 0a62 4abe 078c c9bc
000001f0: 8ae6 4b3c d8b5 a83d 1f97 fb3d a645 973d
00000200: fdb7 da3c a8eb 66bd d078 003c 5e5d 1a3c
00000210: 4837 fc3d bf5b f73d 2b50 363e b36a 13bc
00000220: aa07 e43d 6047 abbc 70f5 123e 8dcc 46be
00000230: 1632 823e 2323 6d3e 251c f23b 04d2 533e
00000240: 1d6f dcbc e700 153e b4c5 2bbd 2605 7f3c
00000250: 60f5 e3bd 0f4d a23d df15 a7be 4494 c03d
00000260: 36ff 2a3c c592 91be 4b06 7cbe b43b a23d
00000270: fdbe a6bc f340 803d 9192 d93d 37ec 143d
00000280: 04e9 18be 631e d53d f11b 30be eb4b 8fbc
00000290: 3e36 173e 5292 033e 5167 b4be c49d e2bd
000002a0: a3af da3d 8db5 adbd ee24 c5bc a9fe d43d
000002b0: 72a6 263e 102c ebbc 099d 88bd 6e3c 61be
000002c0: ec50 263e daa0 983e 6a38 25be abb4 4d3e
000002d0: a953 0a3e 4774 b3be b8a5 123d f687 553d
000002e0: 8e3f 2c3d 7585 41be cb43 733e db98 473e
000002f0: 4f0e 973e 60d9 d13e da9b 913d 09cd 50be
00000300: 591f 843e 91c9 3a3e f70b 8dbe 1012 79be
00000310: 69e0 1ebe 7d60 a33e de86 793e 41b2 1b3e
00000320: 1f6c 9dbd 3bee 25be a20b c43e 322c d6bc
00000330: 6448 9fbe f2cb 5bbc d287 f53c 18d0 263e
00000340: 0c54 223b efe1 33be 753e 9ebd e800 063e
00000350: 7637 b7bd e26f 82be 3152 a2bc b271 47bd
00000360: 5b6d 0dbe 59ff 1abe 7c27 3d3e fa20 213e
00000370: 8e9c 203d bb3b 4fbe fddd f43d c55a f03d
00000380: 13d6 393d 3d0e 85bd 79db d43d b428 2c3e
00000390: 5298 1ebe f07e 09be 6744 ccbd 3010 14bd
000003a0: 6d33 003e 80a5 153e 58a2 a23e adaa d93d
000003b0: 1396 9abd 0d2f a53d 21a1 b9be c411 313e
000003c0: 389a 343e 435c a13d 6f14 dabd 6441 1fbd
000003d0: 9a9a 173e 8cbc 98bd a7dc 3ebe 4335 243e
000003e0: a59d 65bd 0c65 a43c ebf9 813e bd3c a1bc
000003f0: 2c0d a9bd 151c cb3e 200d febd ad51 a93d

local_head.gconv.convs.<brep___brepcoplanar___brep>.nn.0.bias f4 [32]
-0.3593502 -0.2479358 -0.07254655 -0.06769687 0.0124383755 -0.19668566 0.06256036 -0.003643107
-0.020891087 -0.4154568 -0.4103971 -0.4345044 -0.34510002 -0.10967429 -0.2095957 -0.090267465
0.12058573 -0.21245484 -0.22096802 0.2037506 -0.25127468 0.0028562103 -0.15753856 -0.51332897
-0.29165217 -0.45929274 -0.59018576 -0.12210046 -0.079486094 -0.23141234 -0.21810016 -0.08117662
00000000: c0fc b7be e2e2 7dbe 4993 94bd a8a4 8abd
00000010: 54ca 4b3c f767 49be a51f 803d 31c1 6ebb
00000020: c923 abbc c1b6 d4be 921f d2be 5c77 debe
00000030: f3b0 b0be ea9c e0bd 41a0 56be 26de b8bd
00000040: a7f5 f63d c38d 59be 7145 62be ffa3 503e
00000050: 13a7 80be 422f 3b3b ca51 21be 8769 03bf
00000060: 6f53 95be 6b28 ebbe 6a16 17bf ce0f fabd
00000070: 9bc9 a2bd 5bf7 6cbe a655 5fbe ee3f a6bd

layers.0.mlp_edge_conv.gconv.convs.<stroke___temp_previous___stroke>.nn.0.weight f4 [32, 64]
-0.049252033 -0.23474039 -0.070171386 -0.103098966 -0.08965406 0.06295812 -0.20076059 -0.009295336
-0.11961864 -0.055809133 -0.14238009 -0.13560371 -0.15895456 0.002766083 -0.08350556 0.045554295
-0.10239697 -0.15576911 0.038827695 0.010409575 -0.18778685 -0.18445875 -0.06567282 -0.1117762
-0.11581708 -0.09771109 -0.1957454 -0.081342585 -0.15176123 -0.07920366 -0.02855765 -0.12916517
0.13762507 0.15439638 -0.10604666 -0.11785343 0.043791234 -0.070499696 0.07230328 0.018078951
-0.16238 -0.08594057 0.03095903 -0.17475921 0.06245954 0.20400769 0.10061337 0.10455665
-0.003894193 0.013415039 -0.09157541 0.022903267 0.022001231 -0.025877727 -0.15313607 0.021495618
-0.06474521 0.024277749 0.01993778 -0.0073639415 -0.051799215 -0.10632834 -0.11148313 -0.17675628
0.068093084 0.10170261 -0.1878317 0.07882323 -0.03161686 -0.03786743 0.024863943 0.10453889
0.027501056 -0.12201756 0.11395272 0.013383019 0.096464016 -0.11379535 -0.25472122 -0.28152114
-0.06467629 -0.2757599 -0.05730367 0.13279468 -0.030471155 -0.068191245 -0.059280783 -0.06144459
-0.18352109 -0.08220989 0.039590776 -0.068619445 -0.23798685 0.0059559415 0.06479986 0.08732202
0.06590284 -0.47338328 -0.07463135 -0.18893977 0.46148884 -0.35459456 -0.37706196 -0.11101706
-0.16542451 -0.008829011 -0.2949862 -0.09456491 0.20518087 -0.06163741 0.1284727 0.08466698
0.32903418 0.23180376 -0.23690581 0.01859255 -0.0028432573 0.1533544 -0.35622457 -0.16913047
-0.15214725 0.4982004 -0.16908696 -0.10697971 -0.11992746 -0.36383256 0.15058361 -0.0011113759
0.034475002 -0.035205074 -0.08120498 -0.017204098 -0.078823686 0.17071389 0.053184748 -0.0019775096
0.031005016 0.007327828 -0.0939494 -0.12861821 0.0023069312 0.08562653 -0.013784076 -0.06535323
0.02964276 -0.06278679 0.0051562437 -0.016271539 0.063006625 -0.15326956 -0.047286097 0.14519739
0.03539016 0.04181801 0.020434918 0.09021531 0.041976657 -0.0012170669 -0.15827309 -0.00614266
-0.27265197 0.09797419 0.55439 -0.0028262197 0.12845363 0.15583014 -0.07198989 -0.20166707
-0.17978583 0.10308767 -0.18017088 0.070554115 -0.08502665 0.37823445 -0.32500896 -0.055700127
0.11642505 -0.08469814 0.20400804 0.06277124 -0.051863283 -0.16151382 -0.069710515 0.09762817
-0.049412366 -0.014478447 0.1637743 0.21881886 0.23530455 0.0080099795 -0.13463937 0.08891627
-0.17723942 0.113439344 0.047192745 -0.010276674 0.14770669 0.1290688 -0.09361301 -0.010580762
-0.07286499 -0.08308829 -0.10408754 0.08930967 -0.06458027 0.008808916 0.029477665 0.036197986
0.09290033 -0.08074563 -0.0067988387 0.11226629 -0.08340148 0.04432486 0.011078145 0.17100306
0.09714708 0.07159789 -0.038212053 -0.010717546 0.090720266 -0.06323372 -0.12331845 -0.03889887
-0.074502096 0.0063076494 0.011613326 0.059224885 0.096604966 -0.046626583 -0.10375547 -0.052068144
0.045774907 -0.098304264 0.23472232 -0.18462664 -0.21755987 0.034971386 0.0010124189 0.23461737
0.07894039 -0.20325962 0.0808459 -0.18831523 0.10358083 -0.021346174 0.20076756 0.13386633
0.29172528 -0.059758876 -0.21813624 0.28776076 0.22861706 -0.08656441 -0.13050587 0.21813017
00000000: 80bc 49bd c95f 70be 04b6 8fbd 8d25 d3bd
00000010: 8c9c b7bd 30f0 803d 2f94 4dbe 774b 18bc
00000020: 9efa f4bd 1e98 64bd 16cc 11be b3db 0abe
00000030: fcc4 22be 2c47 353b f704 abbd 2497 3a3d
00000040: 81b5 d1bd f081 1fbe ca09 1f3d ec8c 2a3c
00000050: 324b 40be c1e2 3cbe 797f 86bd ecea e4bd
00000060: 8131 edbd c11c c8bd 7b71 48be f196 a6bd
00000070: 4c67 1bbe 8735 a2bd bcf1 e9bc e043 04be
00000080: 96ed 0c3e 161a 1e3e fe2e d9bd 245d f1bd
00000090: 705e 333d 2562 90bd be13 943d 4f1a 943c
000000a0: f146 26be 9c01 b0bd cb9d fd3c 14f4 32be
000000b0: 93d5 7f3d 64e7 503e 620e ce3d cc21 d63d
000000c0: b835 7fbb c0ca 5b3c e38b bbbd a29f bb3c
000000d0: ed3b b43c 87fd d3bc b4cf 1cbe 9417 b03c
000000e0: 2399 84bd 21e2 c63c 8e54 a33c 384d f1bb
000000f0: 6a2b 54bd acc2 d9bd 4451 e4bd 99ff 34be
00000100: 6374 8b3d 7549 d03d f456 40be 136e a13d
00000110: ae80 01bd e11a 1bbd 78af cb3c 7c18 d63d
00000120: e549 e13c 58e4 f9bd 0b60 e93d 7344 5b3c
00000130: ed8e c53d 890d e9bd d26a 82be 8a23 90be
00000140: 0175 84bd 6730 8dbe 41b7 6abd 54fb 073e
00000150: a59e f9bc daa7 8bbd 68d0 72bd 53ad 7bbd
00000160: f4ec 3bbe a95d a8bd f029 223d 5a88 8cbd
00000170: d3b2 73be 0f2a c33b cab5 843d e3d5 b23d
00000180: 11f8 863d 4b5f f2be 52d8 98bd 6d79 41be
00000190: 4448 ec3e 6b8d b5be 440e c1be ea5c e3bd
000001a0: 0b65 29be 8ea7 10bc 6e08 97be 3fab c1bd
000001b0: ef1a 523e 8277 7cbd 598e 033e e265 ad3d
000001c0: 2b77 a83e f75d 6d3e 7097 72be 674f 983c
000001d0: f155 3abb f008 1d3e 1163 b6be 8a30 2dbe
000001e0: 7dcc 1bbe 1f14 ff3e 2225 2dbe 2e18 dbbd
000001f0: 879c f5bd 4348 babe 9732 1a3e 96ab 91ba
00000200: a935 0d3d 3233 10bd cc4e a6bd 9cef 8cbc
00000210: 506e a1bd 9fcf 2e3e 40d8 593d 1b99 01bb
00000220: 3bfe fd3c 471e f03b 8b68 c0bd 7eb4 03be
00000230: e22f 173b f65c af3d 9bd6 61bc ead7 85bd
00000240: 60d5 f23c 5c96 80bd b5f5 a83b e44b 85bc
00000250: 9e09 813d b2f2 1cbe 11af 41bd a0ae 143e
00000260: 46f5 103d 5d49 2b3d 2167 a73c cec2 b83d
00000270: b7ef 2b3d fd85 9fba 5712 22be 5e48 c9bb
00000280: 0a99 8bbe b1a6 c83d 81ec 0d3f 1938 39bb
00000290: 5989 033e f091 1f3e 6f6f 93bd d081 4ebe
000002a0: c719 38be a11f d33d b77e 38be ad7e 903d
000002b0: 7422 aebd f2a7 c13e 9367 a6be d125 64bd
000002c0: 4270 ee3d 3876 adbd 7ce7 503e 358e 803d
000002d0: 986e 54bd e163 25be 63c4 8ebd 47f1 c73d
000002e0: 9f64 4abd 0237 6dbc 73b4 273e 0d12 603e
000002f0: adf3 703e 4a3c 033c e7de 09be bc19 b63d
00000300: 407e 35be e352 e83d 2e4d 413d 7f5f 28bc
00000310: 6c40 173e 9d2a 043e 2eb8 bfbd ef5a 2dbc
00000320: 3d3a 95bd 322a aabd d92b d5bd fde7 b63d
00000330: a942 84bd 4653 103c 257b f13c 5744 143d
00000340: 8742 be3d f75d a5bd cbc8 debb deeb e53d
00000350: 65ce aabd fc8d 353d 1c81 353c 6d1b 2f3e
00000360: 0cf5 c63d eaa1 923d 3e84 1cbd a598 2fbc
00000370: 8ccb b93d ae80 81bd 628e fcbd 6c54 1fbd
00000380: 8e94 98bd 66b0 ce3b d245 3e3c cb95 723d
00000390: d3d8 c53d 84fb 3ebd bf7d d4bd 6845 55bd
000003a0: 787e 3b3d bf53 c9bd 0c5b 703e c40e 3dbe
000003b0: 04c8 5ebe 283e 0f3d 24b3 843a 893f 703e
000003c0: 80ab a13d 4a23 50be 8992 a53d b5d5 40be
000003d0: 3022 d43d 2cde aebc 0396 4d3e 4114 093e
000003e0: 045d 953e b9c5 74bd 1b5f 5fbe 6155 933e
000003f0: 971a 6a3e ae48 b1bd 55a3 05be 845d 5f3e

layers.0.mlp_edge_conv.gconv.convs.<stroke___temp_previous___stroke>.nn.0.bias f4 [32]
0.047989104 0.11786457 0.04213185 -0.06463388 -0.039278146 0.019964356 0.033760138 -0.11600371
0.11902239 0.043687675 -0.13579406 -0.1401072 -0.060588665 0.1653308 -0.18654892 -0.054262258
0.18884291 -0.08649979 -0.15702674 -0.059734825 0.058033604 -0.02143997 -0.20529759 0.019439189
0.06964042 0.11567583 -0.018120533 0.06328336 0.038619928 -0.11149497 -0.07754095 -0.021989862
00000000: 3990 443d fb62 f13d 7292 2c3d c55e 84bd
00000010: 1fe2 20bd 4a8c a33c 1248 0a3d 5a93 edbd
00000020: 03c2 f33d d9f1 323d 990d 0bbe 4378 0fbe
00000030: d22b 78bd 7a4c 293e ae06 3fbe 1a42 5ebd
00000040: 0960 413e cd26 b1bd 9ecb 20be 81ac 74bd
00000050: a5b4 6d3d e0a2 afbc 8839 52be ef3e 9f3c
00000060: a39f 8e3d 73e7 ec3d 8371 94bc b59a 813d
00000070: ee2f 1e3d 7a57 e4bd cacd 9ebd 1524 b4bc

layers.0.mlp_edge_conv.gconv.convs.<stroke___intersects___stroke>.nn.0.weight f4 [32, 64]
-0.08536719 -0.09078132 -0.06898396 -0.14349993 -0.0035034427 -0.22811253 0.025038034 -0.14865382
-0.17493983 -0.045344267 0.061399344 -0.10717067 -0.1635464 -0.121187255 0.058764447 0.07347332
0.019535678 -0.19271506 0.022418637 -0.12786381 -0.12548384 -0.15418422 0.033206183 -0.17670155
-0.0981064 -0.045063604 0.013805561 -0.12663804 0.02076196 -0.014744262 -0.17152508 0.012547947
0.12719284 -0.0759624 -0.1068819 -0.027100801 0.12298487 -0.11830363 -0.08119027 -0.034627125
0.009398535 0.07617156 0.06510376 -0.011784401 0.20319065 0.08351323 0.033051383 -0.14120837
0.118559696 0.01752759 -0.11384147 0.23369719 -0.23544677 0.011268895 -0.11640319 0.10395907
0.19033568 0.14669794 0.12752408 0.09034632 -0.014422572 0.07909562 -0.010748314 -0.02728846
0.027236426 -0.005923199 0.037499927 0.12528542 -0.051142495 -0.021679265 -0.11893371 -0.040008496
-0.05526897 0.06772253 0.01785287 -0.030651048 -0.021395687 -0.12554775 -0.104159504 0.020364061
-0.17808978 0.0133468155 -0.095764466 0.032423362 -0.15841822 -0.13889657 -0.09012011 -0.06768547
0.116575584 -0.23238118 -0.16531023 -0.11074647 -0.053007297 0.07956911 -0.05040179 -0.021753412
0.0009250934 -0.17725644 0.07627925 -0.047266416 -0.13256742 0.10513939 0.002971701 -0.05806678
0.13463861 -0.010269982 -0.004347432 0.0528435 -0.023094 0.08096515 -0.11635149 -0.21270177
0.0020535944 0.17619488 -0.042644776 -0.1363328 0.1682555 0.09207911 -0.009992662 0.03097455
0.06573342 0.13958184 0.2955788 0.024435204 0.20886798 -0.024116937 0.115131974 0.0706723
0.023782613 -0.16384475 0.065509014 -0.22990908 0.024692096 0.04609511 -0.10515342 -0.06335804
-0.0920555 -0.018573338 -0.113417946 0.13903354 0.039526183 0.019057047 -0.17649303 -0.080501966
0.17956626 -0.11962555 -0.19139284 -0.069753096 -0.078136995 0.024112735 -0.16210137 0.0157879
-0.052708283 0.030957146 -0.08483358 -0.038940605 -0.0058571887 -0.04007632 0.020762311 -0.10511041
-0.10866697 -0.104129024 0.0199905 0.07556824 -0.20628047 0.117557116 -0.029954126 -0.00939834
-0.15747267 0.11160298 0.07871421 -0.1414795 -0.16457002 -0.04507691 0.085269645 0.087381765
-0.17102627 -0.19264871 -0.04642462 -0.018507978 -0.16700712 -0.15123422 0.052875713 0.17943569
-0.055690933 -0.19939071 0.10127237 0.036805198 -0.041850496 -0.010023638 0.011393277 0.06568776
-0.15186168 -0.14493555 0.017325751 0.0017507459 -0.014274559 -0.12237919 -0.07445641 -0.17298591
-0.010465092 -0.10932428 -0.05681517 0.0744989 -0.057539 -0.08263672 -0.00085260434 -0.12844591
-0.0996779 0.0028746508 -0.14635654 0.031217342 -0.095132284 0.04263069 -0.15838432 -0.067652866
-0.035802994 -0.1405473 -0.0026387547 -0.14414757 -0.009335638 -0.0015746813 0.028735261 -0.15142268
-0.017569223 0.07925023 -0.01154416 -0.094153576 -0.003923927 0.101889394 0.10523191 -0.09689253
0.076927304 0.07995121 -0.14478666 -0.0006002367 0.0806869 0.05419966 0.0029748161 0.041486483
-0.0456045 0.09854656 -0.038346034 -0.05712836 0.050041493 0.08232533 -0.024563354 0.070644304
0.09212917 0.013939788 -0.1333813 0.07388863 0.0227208 0.025557853 -0.07549712 0.046864774
00000000: fed4 aebd 8feb b9bd 7647 8dbd a5f1 12be
00000010: 049a 65bb 5596 69be 901c cd3c b538 18be
00000020: 6d23 33be e9ba 39bd e17d 7b3d 4c7c dbbd
00000030: b578 27be 0631 f8bd fdb2 703d 2e79 963d
00000040: 4909 a03c 1957 45be 4aa7 b73c bbee 02be
00000050: d67e 00be 78e2 1dbe 3503 083d 40f1 34be
00000060: 02ec c8bd 9d94 38bd b830 623c 67ad 01be
00000070: fc14 aa3c eb91 71bc 45a4 2fbe e795 4d3c
00000080: d73e 023e 2d92 9bbd e6e4 dabd 8002 debc
00000090: 7edf fb3d 2c49 f2bd 1647 a6bd 2cd5 0dbd
000000a0: 50fc 193c d6ff 9b3d 1f55 853d 5c13 41bc
000000b0: 3611 503e fc08 ab3d e360 073d ed98 10be
000000c0: 6dcf f23d 0596 8f3c b725 e9bd 514e 6f3e
000000d0: f518 71be 2ca1 383c cc64 eebd 7ee8 d43d
000000e0: 5be7 423e fc37 163e ac95 023e 7e07 b93d
000000f0: a74c 6cbc e2fc a13d b219 30bc 0c8c dfbc
00000100: ed1e df3c 6517 c2bb 8699 193d d24a 003e
00000110: cb7a 51bd b798 b1bc 8493 f3bd f3df 23bd
00000120: b761 62bd 1cb2 8a3d 2f40 923c e817 fbbc
00000130: 0246 afbc 978f 00be 9451 d5bd 88d2 a63c
00000140: 2b5d 36be 9aac 5a3c 2920 c4bd 5cce 043d
00000150: 6338 22be e73a 0ebe e490 b8bd ae9e 8abd
00000160: 2ebf ee3d 55f5 6dbe 1647 29be 0ccf e2bd
00000170: 2e1e 59bd 21f5 a23d 1b72 4ebd 3634 b2bc
00000180: f881 723a b682 35be 4c38 9c3d 6e9a 41bd
00000190: c1bf 07be 5253 d73d dfc0 423b 6fd7 6dbd
000001a0: b4de 093e 6d43 28bc e774 8ebb 6d72 583d
000001b0: a12f bdbc 0ed1 a53d b149 eebd 7ece 59be
000001c0: 9995 063b 6e6c 343e 4aac 2ebd d39a 0bbe
000001d0: 2b4b 2c3e f993 bc3d 43b8 23bc 57be fd3c
000001e0: 3e9f 863d 8bee 0e3e 1b56 973e 562c c83c
000001f0: 7de1 553e e290 c5bc 50ca eb3d a4bc 903d
00000200: c1d3 c23c ebc6 27be 9729 863d 496d 6bbe
00000210: 1447 ca3c 3ace 3c3d ad5a d7bd dcc1 81bd
00000220: 9887 bcbd 1d27 98bc ab47 e8bd cf5e 0e3e
00000230: 35e6 213d 861d 9c3c 97ba 34be 37de a4bd
00000240: 38e0 373e 3efe f4bd 7cfc 43be b6da 8ebd
00000250: 4a06 a0bd 1288 c53c e7fd 25be a055 813c
00000260: a4e4 57bd d799 fd3c 3abd adbd 2f80 1fbd
00000270: a9ed bfbb 1127 24bd b915 aa3c 2044 d7bd
00000280: ca8c debd 9941 d5bd 1ec3 a33c 85c3 9a3d
00000290: 303b 53be c9c1 f03d 5b62 f5bc 7ffb 19bc
000002a0: 8440 21be 1a90 e43d ea34 a13d 01e0 10be
000002b0: 0b85 28be 91a2 38bd daa1 ae3d 36f5 b23d
000002c0: 8321 2fbe b445 45be be27 3ebd 0b9e 97bc
000002d0: ea03 2bbe 25dd 1abe 3494 583d fdbd 373e
000002e0: 2d1c 64bd 142d 4cbe e367 cf3d 0cc1 163d
000002f0: 6d6b 2bbd 2f3a 24bc deaa 3a3c 4e87 863d
00000300: a181 1bbe fc69 14be bcee 8d3c 4979 e53a
00000310: d7df 69bc f1a1 fabd 9a7c 98bd 3823 31be
00000320: c775 2bbc 68e5 dfbd 06b7 68bd e192 983d
00000330: 04ae 6bbd 713d a9bd 4f81 5fba 5387 03be
00000340: ed23 ccbd a364 3c3b 7dde 15be 83bb ff3c
00000350: b7d4 c2bd 859d 2e3d 802f 22be 968d 8abd
00000360: 29a6 12bd a2eb 0fbe f5ee 2cbb 6c9b 13be
00000370: 81f4 18bc 8965 ceba 3666 eb3c 8c0e 1bbe
00000380: 55ed 8fbc f24d a23d b723 3dbc 97d3 c0bd
00000390: 4994 80bb 63ab d03d d483 d73d 976f c6bd
000003a0: 108c 9d3d 76bd a33d f442 14be 3459 1dba
000003b0: 2c3f a53d 7600 5e3d 22f5 423b bbed 293d
000003c0: c9cb 3abd c7d2 c93d bb10 1dbd 6dff 69bd
000003d0: 4ff8 4c3d 2f9a a83d 1639 c9bc f6ad 903d
000003e0: 38ae bc3d b563 643c 1c95 08be ec52 973d
000003f0: f920 ba3c b45e d13c 3c9e 9abd 47f5 3f3d

layers.0.mlp_edge_conv.gconv.convs.<stroke___intersects___stroke>.nn.0.bias f4 [32]
-0.01585027 -0.13320254 -0.10958521 0.023382438 -0.016301394 0.042322855 0.05362562 0.011079158
-0.16377112 0.022732971 0.27312428 -0.031066777 -0.042107612 -0.03814094 -0.02972283 -0.11502162
-0.08650176 -0.14333488 0.046288874 -0.1335046 -0.06330128 0.044252027 0.061196342 -0.058214888
-0.15967914 -0.021892976 -0.13273105 0.0471118 -0.1685719 0.07875931 -0.008014743 -0.16638425
00000000: 6dd8 81bc 3f66 08be 366e e0bd 878c bf3c
00000010: 808a 85bc bb5a 2d3d 8aa6 5b3d 5b85 353c
00000020: 9eb3 27be 7f3a ba3c f2d6 8b3e c17f febc
00000030: 0879 2cbd ad39 1cbd 4b7d f3bc 7590 ebbd
00000040: d627 b1bd 61c6 12be 6799 3d3d 6eb5 08be
00000050: 1aa4 81bd 9d41 353d 04a9 7a3d bc72 6ebd
00000060: ee82 23be e658 b3bc a6ea 07be 4ef8 403d
00000070: 1d9e 2cbe 904c a13d 4550 03bc a260 2abe
