checkpoints/extrude/graph_decoder.pth (torch, 75358 bytes, 15 tensors)

edge_conv.mlp_edge_conv.gconv.convs.<stroke___temp_previous___stroke>.nn.0.weight f4 [32, 64]
00000000: 0808 3c3d cfda 48bc 79b9 6a3b 9394 c43c
00000010: fbeb b73c d8ce d03d b93d 1dbc 2112 693c
00000020: f7aa 483d fbd3 c6bd 2ded 4f3d e87a 02bd
00000030: 1f72 08be 1557 b13d 76b9 9bbc 1701 433c
00000040: c696 963d eebe 55bd ee9b 08be 61ea 203d
00000050: ce4d 6d3c 4f5d d7bd 9ced 3dbc fbaa 893d
00000060: 7dcf df3c 4713 92bd 62e2 d6bd a2cb a8bd
00000070: 6b45 aa3d c247 8bbd a6ad f0bd 330c 073d
00000080: b52f cfbd 8ab7 b33d 30a0 e63c b857 85bc
00000090: d07e a63c 7fec fcbd c4c0 2d3d 5557 c3bd
000000a0: 0de5 b93d 1f91 46bd 76c6 4fbc 4897 b93d
000000b0: be8b 5c3d 4b60 a23d 9515 c43d 88c8 853d
000000c0: 7c79 01be e231 dbbd 0d27 083c 1ec1 e1bc
000000d0: 6a22 ecbd 1044 14be 57d9 26bd d374 3bbd
000000e0: 06e7 d3bd 445b 4f3d 2553 8abd a745 23be
000000f0: a36e a6bc 8ed0 023e 7df1 e13d 3368 b83d
00000100: 71fd da3d 3dd1 643b aa81 a8bd 7984 54bb
00000110: e665 a43d 99ea 963d 7558 f1bc 1741 863c
00000120: 392d b13d 3286 6b3d 28df 9bbb aa25 823d
00000130: e0cf 9cbd c92d 8c3d ffdc 913c 0744 eebc
00000140: 5e49 973d 280d 3fbb d2d1 7b3c 97b5 7a3d
00000150: 3c45 f73d 9092 1d3d 5cae e13d ea08 7abd
00000160: a7a6 7d3d c9ea c53d 97b2 dfbb 084b 8e3d
00000170: 2696 c23d 69b4 8fbd b04f 2abd 39c2 df3d
00000180: 42d8 b63c eeed 3e3d 3fad 2e3e 7d2e 3e3b
00000190: 42b1 143e 6446 0f3e c4cd 7e3d e3e4 083e
000001a0: dd27 6dbd 8058 0a3d 6634 e33d 4a60 283e
000001b0: fb12 003e 0b53 f23c 96c5 003e e4d8 1e3e
000001c0: 1df3 053c 44bb a0bc 01a3 d73d 0bcb 2a3e
000001d0: 5131 2f3e cc90 d43d c448 3b3e 527d 323c
000001e0: 74e2 9a3d 56f1 c93d 458b 0d3e 85cf d83c
000001f0: 9504 743d 40b1 c53d 8842 b43d dbee 82bd
00000200: acb8 04be 96ab 7e3d 7f54 debd 8acc 933d
00000210: 1b3b 9dbd f0ab 573d 45b6 ba3d b961 633d
00000220: 31f1 3bbd 4840 06be 385d 02bd f52e b0bd
00000230: 02bc ca3c ae70 3f3c 00bb 4f3d bf07 483d
00000240: 33da 653d ab05 4ebd f522 abbc f2b2 9c3d
00000250: 5c82 05be b822 e63d 7342 ffbd 0773 bb3c
00000260: b14d ad3c 1c25 8c3d 3dae 90bc 6c2c b5bd
00000270: 0caa 51bd 602d ac3d 4c67 67bd b9f0 023a
00000280: 4fc7 ca3d 3c95 a0bd b1a6 ca3d ad9c 7ebb
00000290: f3d5 1b3e 26fc f73b d270 00be 2a82 1e3d
000002a0: caa8 903d 0d68 f3bd 6cad 9c3d ad6c 5f3d
000002b0: 640d a7bd b359 b6bd 4ac1 5e3d b980 09bd
000002c0: 550d f2bd c22f dbbd 31c8 363d 0be9 bb3d
000002d0: 2e9a b03d cd1e 0c3c 9212 a93d febd 8dbd
000002e0: 3dfa 02be 411d b8bd ec51 dd3d a390 bc3d
000002f0: 143b d9bd b8a9 39bd 9245 acbc a315 60bb
00000300: 19ca ba3d e13e 453d 73ff db3d 36db 50bc
00000310: f761 08be 7ef2 4d3d ee8b 8ebd 8ba4 96bd
00000320: d2f5 b338 d656 003e 74f0 bf3b 32a1 e3bc
00000330: 389c dcbd f1de 22bd eb98 bfbd 25a9 663c
00000340: b67d 97bd 1044 e0bd e56b bbbc df39 96bd
00000350: 6c65 49bd 5610 4ebd ae22 f63d e078 cb3d
00000360: dc60 e23d 08a0 f43d cd7c a13a 2b97 8ebd
00000370: 3f63 f23d 1294 153d 768f eabd ed85 063d
00000380: 07c5 a9bd 59a6 9ebc 7518 17bd 1b5e c5bd
00000390: 251f b9bd 1b4c 32bb 1620 cdbd d862 913d
000003a0: 195b a53d 42e5 e33d d77d d9bd 5fc5 a33d
000003b0: cb7d b83d 5498 e7bc 0ea2 d83d 3783 0abe
000003c0: 4f94 01be a8ae 263d e97c a93c 010a a7ba
000003d0: 2815 923d f541 00bd bea9 703d 0732 38bd
000003e0: d6cd e2bd aa1f 9abd 455b a5bc 7f07 d7bc
000003f0: 99f5 ccbd a653 7cbd 68ee bbbd cb08 443d
0.045906097 -0.012259199 0.0035816117 0.023996627 0.022451391 0.10195702 -0.009597235 0.014225514
0.04899117 -0.09708401 0.050763298 -0.031855494 -0.13324784 0.08659188 -0.019009333 0.011902115
0.073529765 -0.052184038 -0.13340732 0.03928602 0.014483882 -0.10515844 -0.011592295 0.06722065
0.027320618 -0.07132583 -0.10492398 -0.08241965 0.08314022 -0.06800796 -0.11751871 0.03297062
-0.10116521 0.08775242 0.028152555 -0.01627718 0.02032414 -0.123497956 0.042420164 -0.09538142
0.09076891 -0.048478242 -0.012681594 0.09062058 0.053844206 0.07928523 0.09574429 0.06532389
-0.12643999 -0.10702874 0.008310092 -0.027557906 -0.115300015 -0.14479089 -0.040734615 -0.04576571
-0.103467986 0.050624147 -0.0675414 -0.15944539 -0.020316428 0.1277487 0.11032388 0.090042494
0.10692871 0.0034914755 -0.082278565 -0.0032427593 0.08027248 0.07368965 -0.029461125 0.01638846
0.08651204 0.057501025 -0.004756827 0.0635484 -0.076568365 0.0684467 0.017805574 -0.029085172
0.073870406 -0.002915213 0.015369849 0.061208334 0.12073752 0.03846985 0.110195845 -0.061043657
0.06192651 0.09663922 -0.0068267095 0.06947905 0.09501295 -0.070168324 -0.041579902 0.10925717
0.022319917 0.046613626 0.17058276 0.0029019408 0.14520743 0.13991696 0.062207952 0.13368563
-0.057899345 0.033775806 0.110939786 0.16442981 0.1250724 0.029580614 0.12575373 0.15512425
0.0081756385 -0.019620545 0.105291374 0.16679017 0.17108656 0.1037918 0.18289477 0.0108941365
0.07562724 0.09860484 0.13822658 0.02646614 0.059574682 0.096529484 0.08801752 -0.06393214
-0.12961072 0.062175356 -0.1085596 0.07216747 -0.07677289 0.052654207 0.091167964 0.055513117
-0.045884315 -0.13110459 -0.03182718 -0.08602706 0.024747852 0.01168458 0.050715446 0.048835512
0.056116294 -0.050298374 -0.020890692 0.076513186 -0.1303801 0.11237091 -0.12463846 0.022881998
0.02115521 0.068430156 -0.017661208 -0.088463634 -0.05118756 0.08407092 -0.056494996 0.0004994977
0.09901296 -0.07840964 0.09895075 -0.003885071 0.15218334 0.0075679002 -0.12543038 0.038698353
0.07063444 -0.118850805 0.07650265 0.054547 -0.08156851 -0.089038275 0.054383554 -0.033570025
-0.11818949 -0.107024685 0.04462451 0.09175309 0.086231574 0.008552265 0.08255495 -0.06921004
-0.12790771 -0.08989955 0.10806641 0.09207275 -0.106069714 -0.045327872 -0.021029267 -0.0034192584
0.09120578 0.04815567 0.107420824 -0.012747576 -0.1331862 0.050280087 -0.06960283 -0.07355603
8.581173e-05 0.12533125 0.0058575217 -0.027786825 -0.10771984 -0.039763395 -0.09355339 0.014078413
-0.07397024 -0.10950482 -0.022878597 -0.07335257 -0.04916899 -0.050308548 0.120183334 0.099351645
0.11053631 0.11944586 0.0012320519 -0.06962427 0.11835336 0.036518164 -0.11453144 0.032842565
-0.08289533 -0.01936643 -0.03688856 -0.0963709 -0.090391435 -0.0027206007 -0.100158855 0.07098931
0.08074016 0.11127712 -0.10619705 0.0799663 0.09008368 -0.028270878 0.105777845 -0.13526617
-0.12654231 0.04069391 0.020689445 -0.001274407 0.071329415 -0.0313129 0.05875563 -0.044969585
-0.11074416 -0.07525571 -0.020185122 -0.026248692 -0.100077815 -0.06160321 -0.09176332 0.047859948

edge_conv.mlp_edge_conv.gconv.convs.<stroke___temp_previous___stroke>.nn.0.bias f4 [32]
00000000: 2ead 87bd fef5 6b3d 3f3d 903d 5381 783b
00000010: ce35 53bd 2b69 93bd dab4 b4bd 5f8f fc3d
00000020: ba40 8bbd 5fd6 9abd 148e 80bd 49e2 383c
00000030: 0103 643d 0550 8d3c 277e 76bc 9c93 1ebb
00000040: f48a 793b 9755 96bd a6bc e73d 6325 0abe
00000050: d215 263e 5cd6 973d 8266 813d 6d5c 073e
00000060: 518e 5bbd a59b d53d 07b2 6f3d 81b8 6ebd
00000070: 8840 f53b 6802 bcbd d426 a03d 856f 973d
-0.06624828 0.057607643 0.07042932 0.003791888 -0.051564984 -0.071977936 -0.08823557 0.12332033
-0.06799455 -0.07560419 -0.06277099 0.011284419 0.055666927 0.01725007 -0.0150447255 -0.0024196869
0.0038077207 -0.07340544 0.11315279 -0.13490824 0.16219261 0.07413933 0.0631838 0.13218851
-0.05360252 0.104300775 0.05851939 -0.058281425 0.0074844994 -0.091801465 0.07819906 0.073943175

edge_conv.mlp_edge_conv.gconv.convs.<stroke___intersects___stroke>.nn.0.weight f4 [32, 64]
00000000: a0a3 3abd 2eac b93d 143f fdbd 4fba 643d
00000010: 928c 33bd 8708 69bd 9b48 f3b9 bdfc cabd
00000020: eb1e c3bc c14c bbbc 56b5 c93d fd51 c03d
00000030: 5f22 bdbd d032 153d de98 04bc 912a 1d3d
00000040: 6f5c 843d 4360 4d3d 140b 12bd f2dc db3c
00000050: f6be 6b3c 1b05 5bbd 45e7 ad3d bcdf 763d
00000060: 3a91 cabd 4963 debd 0948 f9bc 1ec5 d8bc
00000070: 5759 92bd b3ec 73bd e8de 82bc 23b9 b13d
00000080: ed18 873c 92f2 843d f6a4 fa3d e5f7 033d
00000090: b6f8 6a3c 8ea9 d93c 34ce 84bd 0d76 193e
000000a0: 1228 22bd e0da 1a3e 1b89 1cbd 6124 ca3d
000000b0: b234 273e d2d6 b33d f0bd 913d eeef 033e
000000c0: 8a5d 0f3d 80f3 e93d b735 163d 75ee 2a3d
000000d0: ea97 d73d 7e8d 473d e947 893d 9ad5 2e3e
000000e0: 4851 273e dc14 a7bc ec6a c13d 874f 8cbd
000000f0: dfd6 8d3d 67ba 573c bb87 bdbb 3493 b13d
00000100: 77d7 953d 457a 85bd b545 ea3d 1637 e53c
00000110: a58e 94bd 9d56 9c3d a449 003e 1801 3b3a
00000120: f694 2f3b 9b44 093d c707 0f3e db82 953d
00000130: a341 1a3c cfe8 bd3d 9a6e 85bd 8b12 b23c
00000140: 1940 38bd 308d 92bd cc6b 063e 4d38 3ebd
00000150: ddaf bbbd 81f9 803d aa6e c8bd 7e1c 7a3d
00000160: 5b51 113e 7d4f 92bd de92 013e 8734 b2bb
00000170: 02ce 8f3d 2833 9ebd be83 f73d 476d 133d
00000180: b991 f3bd 5f5e a8bc 9a8f 6bbd 73db d0bd
00000190: c03c d03c 5664 5cbd 6f9d b13d a194 96bc
000001a0: b400 afbc fa9e b73d fef9 89bc 6166 c03d
000001b0: 947f 333c 79cb ae3c 570e 5a3d 37bb a8ba
000001c0: d414 23be 8e43 8bbd b76f 1dbd 4569 2a3d
000001d0: ad43 653d 89de 21be 4aa8 db3b b95b 1fbe
000001e0: 534b 0ebc 1704 aabd b17b e03d 4e86 83bd
000001f0: 76c1 9bbd 718c 9bbd e194 bfbd a398 a1bb
00000200: 584e 0e3e 88dd 92bd cbf3 5cbb b54c 203c
00000210: 8a25 7f3d b748 e83d 3e51 573d ae9a 223c
00000220: 60c4 e4bd a0bf 2b3d f0c6 01bd f149 4f3b
00000230: a2f0 75bd 48ab 0f3d 06e9 3ebd 75b2 b2bd
00000240: 74bf 16bc 6166 b53d b5de babc 68b5 063d
00000250: e4d2 94bd a64e 643d 102e b83d 40b7 943b
00000260: d4a2 423d e3b9 a1bd ac02 03be f011 98bd
00000270: 6960 47bb 2321 87bc 964d aabc 8ec2 183d
00000280: f2e6 8abd bf09 b33d a317 cb3c 9f70 ba3b
00000290: 5048 09be 4419 0f3e 33c6 143e a41c 8bbd
000002a0: e8bd cbbd 7d40 b53d 477f c6bc ef5b c5bc
000002b0: bd5f 7e3b 94a1 a0bd 473b c3bd cf9f c03d
000002c0: b7e6 9e3d ff8d 83bd 7528 d13c ec6b 033d
000002d0: 3fcf 503d 01ea 69bd bd95 793d 9441 abbd
000002e0: f7ac 93bd 72dd adbc d820 21bd 8a45 243e
000002f0: 3ca5 61bd 7979 1cbd 6929 b5bd 307a fdbc
00000300: 79a6 b03d 9f9c 8d3d 35de f4bc 5624 1dbc
00000310: 0477 8e3d 751b a4bd 7783 13bd 944f 883c
00000320: 52b9 74bd 71dc 5e3d b383 df3c 9d8b 583d
00000330: 2403 0c3d 2bae 3c3d 2832 69bc a667 ffbd
00000340: aa5b c73c 133c 9ebc e4ee 93bc f7ee 9bbd
00000350: c210 733d e1ad e2bd 394c d93d 21d4 dcbd
00000360: 4809 fbbd e147 c23d 0e6e cabd 3233 403d
00000370: 28b0 23bd 1e57 223d a5c8 273d 6d27 afbc
00000380: 0b6c adbd 332c bbbd 5216 63bd 4d39 92bc
00000390: 494e 7a3d 08dc ac3c c539 94bd 6a7d 00be
000003a0: b641 a0bd d868 b73d d738 8fbd 2595 423d
000003b0: 7d7d c5bc b0c1 46bd ba2d 993d f01f edbd
000003c0: e71b 8fbd aa58 0f3d b6ac 7dbd df7a e6bd
000003d0: 37db ddbd d47d b63d 6392 ad3b e982 d7bd
000003e0: 8273 f23c cd9e bcbd 3bbb 2d3d 1ce3 ddbb
000003f0: 7f99 fb3c 5ec6 983d 97a7 013d 9108 8e3d
-0.0455662 0.09066044 -0.12365547 0.05584174 -0.04383523 -0.056892898 -0.00046402667 -0.09911487
-0.023818454 -0.022863748 0.0984904 0.09390638 -0.092350714 0.03642541 -0.008093087 0.038370673
0.06462943 0.05014063 -0.035655096 0.026838753 0.01438879 -0.053471666 0.08491377 0.060271963
-0.09890981 -0.10858781 -0.030429857 -0.02646118 -0.071459465 -0.059551906 -0.01597543 0.0867789
0.016491378 0.06491579 0.12238495 0.032218833 0.014341524 0.026570108 -0.064846426 0.14986439
-0.039588995 0.15122557 -0.03821669 0.0987022 0.16328695 0.08781208 0.07116306 0.12884495
0.035001315 0.11423397 0.03667232 0.041731317 0.10527022 0.04871892 0.06703169 0.1707367
0.163396 -0.020395689 0.09444222 -0.06851106 0.06925749 0.013167 -0.0057840026 0.08670655
0.07316487 -0.06517462 0.11439077 0.027980369 -0.0725377 0.07633708 0.12528092 0.0007133647
0.0026791668 0.033512693 0.1396781 0.07300349 0.009415063 0.0927292 -0.06515236 0.021737358
-0.044983003 -0.07155836 0.13127059 -0.04644041 -0.09164403 0.06297589 -0.097867325 0.06106233
0.14191191 -0.071440674 0.12653682 -0.0054383907 0.07021715 -0.07724601 0.12085675 0.035992887
-0.11893029 -0.020552812 -0.057509996 -0.101981066 0.025419593 -0.053806625 0.08672606 -0.018381419
-0.02136264 0.08965869 -0.016842838 0.09394527 0.01095571 0.021337258 0.05323633 -0.0012873177
-0.15925914 -0.067999944 -0.038436618 0.0416043 0.055972744 -0.15807547 0.006703411 -0.15562333
-0.008684951 -0.08301561 0.10961092 -0.06422101 -0.07605259 -0.075951464 -0.09354568 -0.004931526
0.13897073 -0.0717116 -0.0033714648 0.009783913 0.06229166 0.11341994 0.052567713 0.009924574
-0.11170268 0.041930795 -0.031683862 0.0031629766 -0.06004394 0.035075456 -0.046608947 -0.08725444
-0.009200919 0.08857418 -0.022811273 0.032887846 -0.07266787 0.055739067 0.08993161 0.0045384467
0.047518566 -0.07896783 -0.12793988 -0.07425296 -0.0030422455 -0.016495293 -0.020788949 0.037294917
-0.067823306 0.08742093 0.024791544 0.005689695 -0.13406491 0.13974482 0.14528732 -0.06792572
-0.09948331 0.08850191 -0.024230612 -0.024091689 0.0038814389 -0.078433186 -0.09532791 0.09405481
0.07758849 -0.06423568 0.025531987 0.032085344 0.050978895 -0.05710793 0.060933817 -0.083621174
-0.07210725 -0.021223757 -0.039337963 0.16042152 -0.05508922 -0.038201783 -0.08845789 -0.030942053
0.08625502 0.06914639 -0.029891113 -0.009591183 0.06956294 -0.080130495 -0.036014047 0.016639508
-0.059747048 0.054409448 0.027284479 0.05286752 0.034182683 0.046064537 -0.01423315 -0.12470941
0.024335701 -0.019315755 -0.018058248 -0.07613938 0.059342153 -0.11068321 0.106102414 -0.10782648
-0.1225763 0.09486366 -0.098842725 0.046923824 -0.039962918 0.039633863 0.040962834 -0.021381104
-0.08467873 -0.0913929 -0.05544121 -0.017849589 0.061109815 0.021101013 -0.07237581 -0.12547842
-0.07825033 0.08955544 -0.06993263 0.047505517 -0.024107689 -0.04852456 0.07479425 -0.11578357
-0.06987744 0.034996666 -0.061932288 -0.112539046 -0.108328275 0.089107186 0.0052969917 -0.10523016
0.029596094 -0.09209976 0.042414885 -0.0067714583 0.030712841 0.074597105 0.031653967 0.06935228

edge_conv.mlp_edge_conv.gconv.convs.<stroke___intersects___stroke>.nn.0.bias f4 [32]
00000000: 282e 603d f544 cbbb 48a6 b63d 8802 63bb
00000010: ca05 04be 3914 c53b 0d77 85bd c8c0 c4bc
00000020: bd10 b1bd 4819 13bd 89a4 fd3d 7eab a1bd
00000030: 7c95 103e 2b5d cabd 8d57 06be 4681 a2bd
00000040: 4b57 ba3d 7739 9a3d f68f fbbc 5f21 00be
00000050: e0f5 b53d 31a0 f6bc 4dc3 b0bd 1f79 19bd
00000060: ef1f 1ebe 0ecf 17be 6344 153e 205b af3d
00000070: d542 be3d e943 96bc 1e52 12be 828d 883d
0.054731518 -0.0062032887 0.089184344 -0.003463896 -0.12892833 0.0060143736 -0.06516848 -0.024017707
-0.08645771 -0.035912782 0.12384898 -0.07894038 0.14119524 -0.09881052 -0.13119335 -0.07934813
0.09098681 0.07530492 -0.030708294 -0.1251273 0.088847876 -0.030105682 -0.08631001 -0.037469026
-0.15441869 -0.14825079 0.14576869 0.085623026 0.09290091 -0.018342929 -0.14289138 0.066676155

edge_conv.mlp_edge_conv.gconv.convs.<stroke___strokecoplanar___stroke>.nn.0.weight f4 [32, 64]
00000000: 332b b73c ab02 c23d 3a95 593d 6e77 3ebd
00000010: 84ed c13c d4a5 b43d aad5 e23c 1a28 85bd
00000020: cd82 603d 4013 e13b 22b2 4dbd 05c4 01be
00000030: 8bc3 853c 7b5c 8b3c 9084 883d 6105 783d
00000040: 6217 20bc bd26 9f3d 61af 82bd a3e0 313d
00000050: a509 8b3d 42e8 4abd 6bd2 da3d 15b0 f2bd
00000060: 1006 76bd b3f8 693b 4f97 0dbe de60 923d
00000070: a521 9e3c f2c1 9c3d e978 e5bd bbf8 e5bd
00000080: 6fb2 a3bd 0f0d 033c 9c9d 12be 77b2 6ebd
00000090: 4ed2 01be 3b70 dabd 4679 113d 139b 873d
000000a0: 0e1a 413d a64b 9cbb ef3f 24bd 5f71 5cbc
000000b0: ed06 8bbd 7398 4f3d 8df1 e1bd 9f20 2abd
000000c0: 102c e03d 294f 12bd 3756 08be 5321 c83d
000000d0: afaf 7cbc 9912 e3bd 55e0 b0bd 7ddc 5b3d
000000e0: bb34 b3bc 808a 333c 0001 863d bdc9 0cbd
000000f0: d170 76bd 390c 82bd b6cf f4bc 5b54 82bd
00000100: e273 a93d 8ec9 1bbd 7b90 efbd c698 4c3d
00000110: cca7 d13d 69e6 23ba 55ba dfbd 4038 7dbd
00000120: ba27 45bd 00d4 263d c005 0dbe a18d 9c3d
00000130: defe acbd 62c0 0cbd 297d 9e3d e3c1 e73c
00000140: e58e e0ba 4362 54bd 313c 103c 56bd e5bd
00000150: 4830 9dbd d216 983d 77c8 c0bd 673e 653d
00000160: 688d a83d fc87 8cbd 1e34 793d 4bf8 f3bd
00000170: 918a be3c 4db3 a1bb 253e e1bd 25da bc3d
00000180: a9a3 c53c 14e0 27bd 9177 db3d 13ee d4bd
00000190: 07fa 093d e2a4 693d e497 e6bd affc a03d
000001a0: 7e6e 3f3d fb1c 01be 8fd3 703c 958a 66bd
000001b0: 0664 cfbd 49fc dbbd b398 933d 5d2d dfbd
000001c0: 06ec 06be d6be 63bc b6c5 6d3d ab01 debc
000001d0: dfa8 ecbd da44 40bd 486b 043c 8923 9bbd
000001e0: 8bb1 07be 83de dbbd 857d edbd 9bee a6bd
000001f0: ae00 7d3d 5ae8 243d 3045 0abe 7812 e43d
00000200: 59c9 9a3d 0a8a bbbd ee2a 3ebd 5f6a 98bd
00000210: bd73 763d cc36 a4bd 1bc1 e13d d6de ea3d
00000220: adad 003e 1a24 1a3a 663f a6bd aea9 0e3d
00000230: fbdc d13a 2e30 6bbd 6c8b d1bd 50b8 723d
00000240: 6da3 3cbd 6c3a 7a3d 84c6 debd f7d6 01bd
00000250: 99f6 13bd bd5e 20bd 824e d43c 6f3d a2bc
00000260: e871 103e 4b8c bfbd 969e 11bd 67bd ac3d
00000270: 4924 69bd 1e51 8b3d 9f11 c7bc 88fe a03d
00000280: c7bc 913c 140f f83d 64f4 9b3c 0cb4 343b
00000290: c413 4c3d 1ef5 53bd 882d c7bd 113e 763c
000002a0: 68d4 aa3d cc04 a7bd cd4c f53d 15e4 6a3c
000002b0: 848c 923d 3d0e 4ebd 1f52 dd3c f423 61bd
000002c0: 8bc7 f43d 40a8 fe3d 1992 b03d b16e 563d
000002d0: c450 de3d 689f f3bd c884 e6bc 90f4 c83c
000002e0: 1235 58bc bc05 86bb 0264 553d 1d68 583d
000002f0: 021b eabc 8ec9 69bb 8957 083e 8aaa b43d
00000300: 23c1 6ebc 83e2 983d 1b49 803c 5cf9 e8bd
00000310: 3846 063c 94a9 cabd c32f 3dbc a5fa eabc
00000320: 691d 16bd 4bd4 9abd 5e02 c23d be87 4c3d
00000330: e4ab 8cbd eef0 47bd 4433 dc3c 6ce6 743c
00000340: 5f2f 993c c289 193c 3297 e3bd 1cee 9abc
00000350: 03a3 3a3d f2a9 8abd 0b00 f13d 58d5 7b3c
00000360: 6da3 c3bd 17c2 313d 1d15 bd3d 0253 08be
00000370: 2ea9 58bd 511e 94bd 24eb ac3c 973e a73b
00000380: 68b5 dcbc da32 02bd 8513 b5bd 98d3 663d
00000390: 30ae 8abd 0fdf 613d 5654 8c3d b6db fe3d
000003a0: 9363 523d 5bad aabc 69cb 193d c6c5 a53d
000003b0: 15c8 193e 7718 d23d 3d81 87bc cc66 67bc
000003c0: 3fac 21bd 50a1 d4bd 4435 08bd 7668 5fbc
000003d0: ea40 fb3d 973a cb3d 8dfe 913d c7d1 253d
000003e0: fcdb 293d 8dec 283d a15c c5bd 807c 5cbd
000003f0: 0166 62bd e7a9 c63d 49b8 85bd e5c7 8f3d
0.022359466 0.09473165 0.05312083 -0.046500616 0.023672827 0.08820692 0.027689774 -0.065017894
0.05481224 0.00686875 -0.05021871 -0.12672432 0.016328594 0.017011872 0.06665909 0.060552005
-0.0097712 0.077710606 -0.06381107 0.04342712 0.06788949 -0.049537905 0.10684665 -0.11849991
-0.060064375 0.0035701215 -0.13827251 0.07147382 0.019303152 0.0765418 -0.112047024 -0.11229082
-0.07993018 0.007998719 -0.14317936 -0.058275666 -0.12677881 -0.106659375 0.035516046 0.06621375
0.04714399 -0.00476976 -0.040100034 -0.013454764 -0.0678843 0.050682496 -0.110324 -0.041535016
0.10945904 -0.035720024 -0.13314138 0.09771981 -0.015422746 -0.110875316 -0.08636538 0.05367707
-0.02187573 0.010958314 0.065431595 -0.03437208 -0.060166184 -0.063499875 -0.0298842 -0.06363746
0.08274056 -0.038034014 -0.11697479 0.049950384 0.10237083 -0.00062522903 -0.10924212 -0.061821222
-0.04813359 0.040729523 -0.13771725 0.07644201 -0.084470496 -0.034363158 0.07738716 0.028290695
-0.001713243 -0.051851522 0.008803413 -0.112177536 -0.076752245 0.07426228 -0.09413236 0.055967715
0.08230096 -0.068618745 0.06084072 -0.119125925 0.023259433 -0.0049347044 -0.10998181 0.09221295
0.02412589 -0.040985182 0.10716165 -0.103969716 0.03368571 0.05704201 -0.112594396 0.078606956
0.046736233 -0.12608711 0.014698877 -0.056284506 -0.101265 -0.10741479 0.072068594 -0.10897324
-0.13175973 -0.013900479 0.05804988 -0.027100405 -0.11555647 -0.046940662 0.0080822185 -0.07575137
-0.13251321 -0.107358 -0.115962066 -0.08150979 0.061768226 0.04026065 -0.13502955 0.11136335
0.07557935 -0.09157188 -0.04642766 -0.07442164 0.06016897 -0.08018264 0.1102316 0.11468284
0.12566252 0.00058800133 -0.08117561 0.034829788 0.0016011292 -0.057418995 -0.10231671 0.059257805
-0.046054292 0.06109087 -0.108777076 -0.031699147 -0.036123846 -0.03915285 0.025916342 -0.019804684
0.14105952 -0.09352931 -0.03555163 0.08434563 -0.05691937 0.06802581 -0.024300395 0.07861048
0.017790211 0.12112251 0.019037433 0.0027573137 0.049823537 -0.051747434 -0.09725481 0.015029446
0.083412945 -0.08155212 0.11977539 0.014336606 0.071557075 -0.050306547 0.027016697 -0.05496593
0.11952122 0.12434435 0.08621616 0.052351657 0.108552486 -0.11895639 -0.028139487 0.024530679
-0.013196247 -0.004090039 0.052097328 0.052833665 -0.028577331 -0.0035673114 0.13314642 0.0882159
-0.014572415 0.07465079 0.01565986 -0.113756865 0.008195452 -0.09895626 -0.011547032 -0.02868397
-0.03664914 -0.07560023 0.09473108 0.04993414 -0.06868723 -0.048813753 0.026879914 0.014947515
0.018699346 0.009371223 -0.111128226 -0.018912368 0.045565616 -0.06770696 0.11767586 0.015370689
-0.09552655 0.04339799 0.09232543 -0.13312915 -0.052895717 -0.07232345 0.021108218 0.005103897
-0.02694197 -0.031786777 -0.08841614 0.056354135 -0.06771505 0.055144366 0.06852023 0.1244425
0.051364493 -0.020834615 0.037547503 0.08094363 0.15017731 0.102585725 -0.016541118 -0.01412363
-0.039470907 -0.103823304 -0.033253923 -0.013635745 0.12268241 0.099232845 0.0712863 0.040483262
0.04146956 0.041241217 -0.09636808 -0.05382967 -0.05527306 0.09700375 -0.0652929 0.07020549

edge_conv.mlp_edge_conv.gconv.convs.<stroke___strokecoplanar___stroke>.nn.0.bias f4 [32]
00000000: 6121 0fbe d4b9 c9bc 60c4 3c3d 33ee 72bd
00000010: 4cc2 da3d 0dae ad3d 7ae8 033d 7979 d7bd
00000020: 868d 903d e04f bc3d 0086 d33d 1346 7bbd
00000030: 1732 093e b56a 963c 9f26 bbbc 53d2 ae3c
00000040: f209 e83c 664e 0dbd 0ec0 023e 7fa3 d8bd
00000050: 8986 71bb a8e5 9d3d 4f23 ec3d 05e3 f13d
00000060: c566 6fbd 028c b5bd 979a b3bc 1b87 0e3d
00000070: 2422 51bd 772c ef3d a6de a33c 61a1 de3b
-0.13977577 -0.024624743 0.046085715 -0.059309196 0.106815904 0.08480463 0.03220413 -0.10521216
0.070582435 0.091949224 0.10328293 -0.061346125 0.13398014 0.018361429 -0.022845564 0.021340525
0.028325055 -0.034498595 0.12768576 -0.105780594 -0.003685387 0.07709819 0.11530172 0.11810879
-0.058447618 -0.08864595 -0.0219243 0.034796815 -0.05105795 0.11678403 0.020003628 0.00679414

edge_conv.mlp_edge_conv.gconv.convs.<stroke___represented_by___brep>.nn.0.weight f4 [32, 64]
00000000: 187d a3bc 18f2 1abd 50c7 85bc 443f 66bd
00000010: 0007 ca3c 1c04 153d f4b1 7bbd 981a aebd
00000020: 7670 ee3d 14a5 2a3d c01b f43c 80c4 533c
00000030: ec9a d03d d03f d13d b821 92bd 189b 1c3d
00000040: 9018 203c 2ab2 b5bd d87f bc3d 5038 4a3c
00000050: 5eba 9ebd ac81 8e3d c8aa 50bd 14ea 26bd
00000060: 0037 3dba a4cd d2bd f46b a93d f4c3 343d
00000070: dc52 5ebd 8074 a3bc fa2a dc3d 8098 fbbd
00000080: 9010 f13d b803 b4bd 4cfa 37bd 8212 89bd
00000090: 1c7e a63d f698 f0bd 0845 1cbd dc07 bdbd
000000a0: 9870 e13c fcd6 b1bd a046 43bd 90c9 76bd
000000b0: b0c1 7cbc 780b 8ebc 001a 15bd 1abd febd
000000c0: 1652 b1bd 1ae6 8e3d f8e5 e2bc c0a7 4a3d
000000d0: ea8c f33d 9664 ab3d 4876 e7bd 70fe 13bc
000000e0: 8e75 823d 7afb 9fbd 00d4 2d3b 8008 bf3d
000000f0: 327d 883d ccf5 44bd 7439 f23d 7af3 f13d
00000100: d4a2 08bd bc19 febd 40bd 993c ead4 943d
00000110: 50b8 8e3c 0c97 b13d 6050 6b3d d2d8 b63d
00000120: 8c17 8d3d b84b babd 72ff db3d 8686 e43d
00000130: 54a8 e9bd f81c 4b3d 48c5 b1bd 2873 85bc
00000140: 20f3 89bd ce85 f2bd 5c2c 89bd a86a c6bc
00000150: b069 ae3d a8c1 c73d 885e dc3d e048 b43c
00000160: 3864 9f3d 040b c03d 3cfc f9bd e6c3 d93d
00000170: 76ba a9bd 8281 9dbd d841 c4bd 22a0 e4bd
00000180: 1033 a4bc 082e b4bc b010 a3bc 6c8c c6bd
00000190: c0d1 cfbb 3465 bd3d 1041 493d 40c5 4cbb
000001a0: 78fd 5a3d 9cdd 4f3d 1e69 a03d f600 d4bd
000001b0: 7887 c03c 8000 863c dc14 003d 2891 ca3d
000001c0: 9885 0cbd c84c 92bd 0c78 b23d 8a26 ac3d
000001d0: 7003 c8bc c8eb 6e3d 9c9c 6d3d 4a8b 93bd
000001e0: faed acbd 3090 49bd 00f2 463b 7823 03bd
000001f0: 102a 6abc f8ab 9dbc 5c89 183d 1015 90bc
00000200: b8d9 71bd fc24 323d bae1 f3bd 4844 163d
00000210: f4a8 f9bd 0cc2 92bd d0c5 023c 5023 733c
00000220: 3403 35bd 640c 7f3d 0016 bf39 8e10 e33d
00000230: 201e 26bc 0042 eabb 3483 a53d e834 ffbc
00000240: 948d 13bd e20c e13d f8c4 debd d0c1 233c
00000250: d881 51bd bcd9 dfbd 6073 2dbc 80c9 903c
00000260: 2c7e a93d 50ac bfbc 4a8f 98bd 1064 fb3c
00000270: 0c64 9abd 3c06 da3d 2298 eb3d 80ee bb3c
00000280: 4427 513d 0e75 dfbd 6443 95bd 9c1b 063d
00000290: c4c3 6bbd 3eaf e5bd 2c7b 633d 8ae5 9a3d
000002a0: c231 94bd 38c8 30bd 3892 9cbc c621 d5bd
000002b0: d440 53bd 84e7 f4bd e254 8b3d 84b5 a13d
000002c0: f0ce d23d 42af a73d e088 da3d 9437 973d
000002d0: 1e14 80bd 5a6c bd3d 44bc 31bd 1003 a83d
000002e0: b033 6c3c 0050 5ebc 00e6 bdbb 187f e63d
000002f0: 6448 3ebd 785a eabc 8cbe b7bd f2b9 e8bd
00000300: 406e bcbb 08c2 6dbd b0b6 e2bd e0c4 49bc
00000310: 44f6 dcbd e230 913d 4aa6 fe3d 549e c73d
00000320: a217 ecbd 8cdb bcbd 4cdc d3bd f001 5fbc
00000330: 4073 ae3b 040e b4bd 5e18 b7bd 341b 74bd
00000340: c4fc 8abd e822 b3bd c8f3 b8bd 7c03 3a3d
00000350: 68fd f53d fc64 6a3d 68ec 29bd d07e aebc
00000360: a2e9 a33d 2c44 81bd d657 93bd d886 ebbd
00000370: 94a7 093d 34b8 2d3d d4be 843d 484e 9cbc
00000380: 707b 653c 1c53 f93d d249 bb3d 2201 bc3d
00000390: 9200 a03d 740f d2bd 96df f0bd 2afd d43d
000003a0: 3825 973d 3c20 7b3d 10c4 a7bd 580b cf3c
000003b0: e0f8 ef3d 841c 3bbd d80b 3e3d bc8c bcbd
000003c0: 64a0 153d b8a9 10bd 0851 17bd 60bd 0d3d
000003d0: 183a 9e3d b2ab a2bd 009e 743a 1c13 4dbd
000003e0: 10f8 083c 0c03 173d e083 013d 2816 653d
000003f0: 50ec 963c 1c79 5c3d ee32 d0bd 3022 4d3c
-0.01995711 -0.037828535 -0.016330391 -0.05621268 0.024661541 0.036380872 -0.061449006 -0.08501166
0.11642544 0.041661337 0.029798388 0.012925267 0.10185799 0.102172494 -0.071353376 0.038233846
0.009771481 -0.08871873 0.09204072 0.0123425275 -0.077503905 0.06958327 -0.05094412 -0.040750578
-0.00072179735 -0.10293129 0.082725435 0.044132188 -0.05427824 -0.019953012 0.10750385 -0.122849464
0.11770737 -0.08789772 -0.044916436 -0.06692983 0.08129522 -0.11747925 -0.03815177 -0.09230015
0.02751951 -0.08683583 -0.047674775 -0.06025082 -0.015427038 -0.017339453 -0.03640175 -0.12438412
-0.08658235 0.06977482 -0.027697548 0.049476385 0.118921116 0.083687946 -0.11301857 -0.009032831
0.06370078 -0.07811637 0.0026524067 0.09327793 0.06664504 -0.048085973 0.118273646 0.118140176
-0.03335841 -0.12407252 0.018767 0.07267173 0.017421871 0.08671388 0.0574497 0.08928074
0.06889257 -0.090964735 0.10742082 0.11158471 -0.11409059 0.049588174 -0.086802065 -0.016290262
-0.067358255 -0.118419275 -0.06697914 -0.02422078 0.08516252 0.09753734 0.10760218 0.022007406
0.07782787 0.09377101 -0.12206313 0.10633068 -0.08287518 -0.07690717 -0.09582871 -0.111633554
-0.02004388 -0.021994606 -0.019905418 -0.09694752 -0.006342143 0.092478186 0.049134314 -0.00312455
0.053464383 0.050748453 0.078325495 -0.10351746 0.023502097 0.01635766 0.031269893 0.098909676
-0.034307092 -0.07143551 0.087143034 0.08405788 -0.024415702 0.058330327 0.058010682 -0.07204302
-0.08443828 -0.049209774 0.0030356646 -0.032016248 -0.014292255 -0.01924704 0.03724037 -0.017588168
-0.059045523 0.043492302 -0.11908288 0.03668621 -0.121904284 -0.07165918 0.0079817325 0.014839962
-0.044192508 0.062267676 0.0003644675 0.11087142 -0.010139018 -0.007148981 0.08081666 -0.031153157
-0.03602369 0.10988785 -0.108774126 0.009994939 -0.05114922 -0.109302014 -0.01058659 0.017674208
0.082760185 -0.023397595 -0.07449205 0.030687362 -0.07538614 0.1064572 0.115036264 0.022940874
0.051062837 -0.10910998 -0.07288244 0.032741174 -0.057559744 -0.112150654 0.055537388 0.07563312
-0.07236053 -0.043159693 -0.019112691 -0.104068324 -0.051575497 -0.119582206 0.068032995 0.078959495
0.102933764 0.08187725 0.10670638 0.073836476 -0.06253837 0.09249182 -0.043392435 0.08203709
0.01441662 -0.013568878 -0.0057952404 0.1125471 -0.046455756 -0.028607592 -0.08971891 -0.11363591
-0.0057504475 -0.05804637 -0.11070001 -0.012315005 -0.10789159 0.07089402 0.12434061 0.097469956
-0.11527945 -0.09221563 -0.10344753 -0.013611302 0.0053237975 -0.08791736 -0.089401945 -0.059596255
-0.067864925 -0.08746892 -0.090308726 0.04541348 0.12011224 0.057225212 -0.04148522 -0.021300703
0.08003546 -0.06311831 -0.07194488 -0.11500329 0.03360708 0.042411998 0.0648171 -0.019080296
0.014006481 0.12174055 0.091449395 0.091799036 0.07812609 -0.10256854 -0.11761396 0.1039985
0.07380146 0.061310038 -0.08191693 0.025273964 0.11717391 -0.04568149 0.046398014 -0.092065305
0.036529914 -0.035318106 -0.03694251 0.03460443 0.07725924 -0.079429045 0.0009331405 -0.050067052
0.008359924 0.03686814 0.031619906 0.055929333 0.01842323 0.053826436 -0.10165964 0.012520358

edge_conv.mlp_edge_conv.gconv.convs.<stroke___represented_by___brep>.nn.0.bias f4 [32]
00000000: e04c 5ebc d241 e43d 7cfa bf3d 20b6 16bc
00000010: 3e7a 9b3d eade 9fbd bc4b ddbd 5c55 58bd
00000020: 081a 09bd d0f2 4f3c 6c0d 29bd 28c1 ab3c
00000030: e0f1 223d daa8 ad3d d419 493d b4b1 c3bd
00000040: 6c3c 69bd 8838 c63d 4074 9fbd 80c0 373d
00000050: e02a 633c 3095 adbd c88e fabc b090 12bc
00000060: ec6a 123d 7218 e33d 60a4 09bd a65a 9fbd
00000070: a0af f83c 349b 2dbd 6038 093d 3007 4a3d
-0.013568133 0.11145367 0.09373948 -0.009198695 0.07591675 -0.07806189 -0.10805461 -0.05281578
-0.03347209 0.012692168 -0.041272566 0.020966128 0.03978145 0.084794715 0.049096897 -0.095553786
-0.05694239 0.09678751 -0.07785845 0.044861317 0.013865203 -0.08475721 -0.030585662 -0.008945629
0.0357465 0.11088647 -0.033604026 -0.07780962 0.030357182 -0.04238434 0.03350103 0.04932326

edge_conv.mlp_edge_conv.gconv.convs.<brep___brepcoplanar___brep>.nn.0.weight f4 [32, 64]
00000000: ee74 babd e0cd 3e3d 3053 f2bc b0ca c73d
00000010: cce3 053d c0cf be3d 6a62 f63d a2b1 983d
00000020: b852 d03c 2022 263c fa20 e5bd 3aa0 cd3d
00000030: 9c98 c2bd be9e e7bd 78a6 cc3c fc60 253d
00000040: 6636 cc3d e203 e33d 6065 4e3c 0cba 7f3d
00000050: 3caf 60bd 945e 743d 8077 fa3b 6c0c 193d
00000060: a82b 363d 4463 25bd bec3 82bd 7424 2e3d
00000070: 2c94 07bd 7c37 febd b6bc c73d e48b 9bbd
00000080: e059 4b3c 64bc 9b3d 04ab 0b3d e064 853b
00000090: 20b3 a3bb ec93 033d b667 cc3d 5883 363d
000000a0: 0070 ec3a 0e04 f73d fce7 4dbd d432 283d
000000b0: 4c98 413d 3215 f13d 6022 f8bb deca c6bd
000000c0: 1401 683d b8e3 3abd 8809 d4bc c2fd f7bd
000000d0: 064a 98bd 22f9 86bd ea38 803d 9a56 e73d
000000e0: 6408 723d 084e 7d3d e0bb c23b 9a8e cdbd
000000f0: de71 dfbd eeb9 eebd 8c5d 23bd 0cf1 bd3d
00000100: 30eb 503c 5498 863d b073 533c 987b c73d
00000110: 089f 17bd 701c 9e3c 80b2 b93a 4c8b 793d
00000120: c0d6 d8bd 9c60 f73d f84f 86bd 403b c53b
00000130: e8ab c93d fa3d cabd 5857 cdbc fca6 d5bd
00000140: f245 df3d befe a73d 0c6f 36bd 0c04 a3bd
00000150: f464 c23d b6c6 983d ae38 8ebd 3cfc 41bd
00000160: f205 f03d 2430 2ebd 7052 573c 00f0 e63d
00000170: 1841 ae3d f0be f4bc 484d c53c acfe a9bd
00000180: 1ce1 dcbd f8f9 c63c fcc4 90bd f871 77bd
00000190: b075 cdbc 62d2 acbd c0ad 28bd ea7a e6bd
000001a0: c0e1 c9bb cab6 ff3d 705a 66bd fee3 cabd
000001b0: 8073 db3a 2c8a e2bd a476 b3bd f893 f03c
000001c0: 40a7 383b 48bc fa3c a0e1 b83b 6ea9 f9bd
000001d0: 6076 593d 4274 d43d 249f 44bd 6017 113c
000001e0: 9895 9cbc cce1 18bd 5056 6f3c d073 8e3d
000001f0: fcb8 ed3d c6ae cf3d 2036 df3c e2e5 93bd
00000200: 12c5 983d 6081 e93c 1855 9cbd ea97 a2bd
00000210: e879 853d 06cc b03d d0f5 5e3c 100f 533d
00000220: 6ada fb3d 8e47 fc3d f091 3d3d ce05 87bd
00000230: 00de a43d 9ebd cabd 24e5 723d c093 e4bb
00000240: 1085 0cbc 824e f2bd a04d 41bd 02a8 8dbd
00000250: e456 4a3d 6aaa babd 98cc 033d 2253 983d
00000260: e08f 843b 405f 30bc 028c 8a3d 5088 433c
00000270: 10e3 163c 165d b13d 80aa 413b 120e cbbd
00000280: 68de d83c 9cc7 363d a04d a63c c022 cdbb
00000290: 90af 40bc 9830 533d 00c6 53ba 00ad d43a
000002a0: 00e5 f43d 8c2c 93bd c8a0 7dbd a667 9dbd
000002b0: bccd 56bd 70a2 d9bc 5c02 8b3d f843 ef3d
000002c0: 00b3 f13d b809 57bd 86d5 c6bd aa10 c03d
000002d0: a0c7 bd3c b01b 343c 9005 c73c f01a f4bc
000002e0: e45f ddbd 3840 9dbc 68a0 c2bc 200c e73c
000002f0: 1a23 8dbd 043d a0bd 266c b13d fcf2 cbbd
00000300: 1ceb 693d e83a 303d 185e 2a3d 70d8 14bd
00000310: 68cc e2bc 74ef 363d 1a1a bdbd 90dc a5bd
00000320: f8e2 14bd de28 b33d 40e3 67bd 0286 e7bd
00000330: 0011 2cba b015 e43c cac3 b63d 3001 bfbc
00000340: 0093 33bb aa47 c0bd be89 b83d 8ec0 d2bd
00000350: e46b c43d 68b9 1d3d b287 d8bd d0d2 833d
00000360: 2007 133d 2430 25bd cce6 e23d e26a fc3d
00000370: 6639 ea3d 506a 5dbc a014 af3c 30ad bebd
00000380: c003 0bbd 28c3 eebd f85c 963c e88a b53c
00000390: b026 7a3c 040f 083d 6ef0 ec3d 105a 1abd
000003a0: c0d3 f23d 00f3 683c 606c 69bd 1857 a93c
000003b0: 5050 89bd 52aa b7bd 04d5 173d 68dd a0bd
000003c0: e0f8 b63d 765d b13d ce1c 8bbd f0dd 58bc
000003d0: d810 01bd deb6 eabd e036 c2bb a0d4 eabd
000003e0: c07c 913d f81a e43c 081f 893d 4477 e2bd
000003f0: 1ee5 adbd a837 913d 3009 a53c a03f b7bc
-0.09104334 0.046583056 -0.029580683 0.097554564 0.032687947 0.09316969 0.1203049 0.07455756
0.025430068 0.010139972 -0.111879304 0.100403264 -0.09501764 -0.113095745 0.024981722 0.040375695
0.09971313 0.11084725 0.012597412 0.062433288 -0.054854617 0.05966051 0.00764364 0.037365362
0.044475228 -0.04037787 -0.06384991 0.042515233 -0.033100292 -0.124129266 0.09752791 -0.075950414
0.012411565 0.07604292 0.03409864 0.004070863 -0.0049957186 0.03212349 0.09980719 0.044558853
0.001803875 0.1206132 -0.050270066 0.0410641 0.047264382 0.11771621 -0.007572457 -0.097066626
0.056641653 -0.045627326 -0.025883451 -0.12108947 -0.07435994 -0.06590487 0.062608555 0.11295815
0.059090033 0.061841995 0.0059428066 -0.10036965 -0.1091039 -0.11656557 -0.039884135 0.09274492
0.012751386 0.06572023 0.012906 0.097403705 -0.0370169 0.01930067 0.0014167577 0.06092386
-0.10587835 0.12078974 -0.065582216 0.006019026 0.09847242 -0.09875102 -0.025066063 -0.1043224
0.10902013 0.08202885 -0.044539496 -0.07959756 0.094919115 0.07459776 -0.069444045 -0.04735969
0.11719884 -0.04252638 0.013142213 0.11276245 0.085085094 -0.029876202 0.024084702 -0.08300528
-0.10785124 0.024289116 -0.07068822 -0.060411423 -0.025080532 -0.08438565 -0.041181326 -0.11253913
-0.0061609447 0.12486036 -0.05623859 -0.09906767 0.0016742796 -0.110615104 -0.08762863 0.029367432
0.002817586 0.030607358 0.005642131 -0.12190519 0.053091407 0.10373737 -0.04800333 0.008855671
-0.0191143 -0.03732471 0.014607981 0.06955683 0.116075486 0.10140757 0.027247488 -0.07221581
0.07459463 0.028504074 -0.07633418 -0.079391316 0.065173924 0.086326644 0.013608411 0.051528037
0.122975186 0.123183355 0.046281755 -0.06592904 0.08050156 -0.09899448 0.059300557 -0.006975621
-0.008576646 -0.118313804 -0.04719317 -0.069168106 0.04939927 -0.09114535 0.032177538 0.07437731
0.0040454715 -0.010764897 0.067649856 0.011934355 0.009209409 0.08660333 0.0029551089 -0.09914793
0.026473239 0.044623956 0.020300686 -0.006260246 -0.011760607 0.051560014 -0.00080785155 0.0016225874
0.11957741 -0.07186231 -0.06192091 -0.07685785 -0.052442297 -0.026566714 0.067875594 0.11682886
0.1180172 -0.052499503 -0.09708695 0.093781784 0.023166478 0.010992929 0.024294645 -0.029798001
-0.10809305 -0.019195661 -0.023758128 0.028204024 -0.06891461 -0.07824138 0.08663206 -0.09958455
0.057108983 0.043024927 0.04159364 -0.036339223 -0.02768536 0.044661954 -0.09233494 -0.080987096
-0.036349267 0.08748029 -0.056613207 -0.11304857 -0.00065638125 0.027842373 0.089240626 -0.023315996
-0.0027400851 -0.09388669 0.09010647 -0.10290633 0.09590891 0.038506895 -0.10572757 0.06436694
0.035895467 -0.040329114 0.11079177 0.12325074 0.11436729 -0.013514116 0.02137214 -0.09310377
-0.033939123 -0.11658317 0.018354878 0.022160962 0.015268013 0.033217445 0.11569296 -0.037683547
0.11856794 0.014218092 -0.05698812 0.020671412 -0.067047715 -0.08968033 0.037068382 -0.0785473
0.08934188 0.086604044 -0.067926034 -0.013236508 -0.031510204 -0.114606604 -0.0059269518 -0.11466336
0.07103872 0.027844891 0.06695372 -0.11057904 -0.08490966 0.07090694 0.020145983 -0.022369206

edge_conv.mlp_edge_conv.gconv.convs.<brep___brepcoplanar___brep>.nn.0.bias f4 [32]
00000000: f059 b6bd 4aa1 d5bd 3011 b13d 3a93 a7bd
00000010: 7043 74bc e0b5 77bc da1c 963d 40ef 70bc
00000020: 8043 543c 001b 213a e0b1 873d 4403 0e3d
00000030: 6499 66bd 8840 2fbd d625 a63d 0872 fc3c
00000040: 06f2 a93d 741d 333d 1271 f13d a8f0 56bd
00000050: 6ebc b63d aed8 b5bd b0b7 9abc a852 eebd
00000060: ac55 183d 58d3 123d 8020 abbd 6aa0 ee3d
00000070: 8057 843d 80e9 5c3d e891 12bd 449c 5b3d
-0.08903873 -0.10431154 0.086458564 -0.08182378 -0.0149086565 -0.015119046 0.07329722 -0.014705479
0.012955546 0.0006145686 0.06625724 0.034671083 -0.05629863 -0.04278615 0.081126854 0.030816093
0.082981154 0.04372926 0.117891446 -0.0524756 0.08922659 -0.08879219 -0.018886417 -0.11636859
0.037191078 0.035846084 -0.08355808 0.1165169 0.06462002 0.05393362 -0.03578368 0.053615823

local_head.weight f4 [64, 32]
00000000: f11b 2f3e ed94 813b 639c 33bd c4f9 55bd
00000010: 00c2 eebd 5f71 b33d d4b1 dfbd 42ff a53c
00000020: 3328 40be 344e bd3d 97c7 ed3d d73f 5d3d
00000030: 4ab6 153a cd76 9d3d a268 3c3e 0761 0ebe
00000040: 558c aa3d 7d7d 97bd 80d1 103e 1fcb 733d
00000050: d076 a2bd 8b4f 17be b61a 793d 9785 413d
00000060: 9891 4bbd 5110 1ebe 2bcf 963d 0e4c 06be
00000070: 7672 a63d 8771 aabc 2a85 d5bd 9404 a7bc
00000080: 9af5 28be 51d9 0fbe be44 153e cdec 9c3d
00000090: 2e31 8d3d dee5 d7bd be99 943d 448a 57bd
000000a0: 740d 04be 30cb b1bc 16d8 b33d cfc1 223d
000000b0: 9ec7 febd 11f1 533c 2bb7 19be 3d30 4b3c
000000c0: c06e ac3d cb97 8c3d 006f 0b3e 4265 06be
000000d0: ccc3 023e b130 c13d 0c75 2a3e cccd 8dbd
000000e0: 6e86 ddbd 1b90 0ebe d9de ac3c c611 21be
000000f0: 622c 46bb ff2a 3cbd 0b57 3b3d 10e6 953d
00000100: 662e a33d 879d cf3d 70a9 ecbd 9c29 ed3d
00000110: a020 beb9 6540 9d3d 56b5 6c3d ac1c b23d
00000120: 38d9 6f3c 09fc 28be 719d 1dbd cd63 2dbe
00000130: 8a5e 6fbd bc72 9ab8 0f2d f33d be94 873c
00000140: 1357 143e 3b0d 02be 2c13 7d3d c898 42bd
00000150: a852 253e db59 b2bd 9639 183e c044 11be
00000160: 46ce f6bd 8183 153e dc42 0d3e 8267 30be
00000170: 3913 983d ac16 793c 25ce d53c b87c 22be
00000180: 01d1 25be 34e1 55be 6f0a 0e3d 3310 f73d
00000190: 1676 a7bd 5215 233c 386d 2fbe 37c3 9bbc
000001a0: 9918 cd3d ab1a f93d 7946 f9bd 782c ff3d
000001b0: 5c52 0e3e 7d79 0bbe 9eec c8bb 7ba1 edbd
000001c0: 12d3 143d ed08 e8bd 399c 3e3d 3283 013e
000001d0: 9b27 cbbd 339c 82bd 17fa 92bd 4fe7 00be
000001e0: a10d ff3d a5e2 3b3d ffb6 dc3d 2b1d 11be
000001f0: 1bc6 41bc bdcb e13d ab7d 133e a8f1 17be
00000200: b86e acbc dcca 54bd 7db9 e63c 2888 1bbe
00000210: c84a dc3c 1f04 083e d9c1 86bc b490 9dbd
00000220: 00a0 fe3d 5d4a 503d 7249 253e 48d4 69bc
00000230: 5214 14be d8d6 933c f1d5 25be ec51 cf3c
00000240: 397d 89bd 22a9 1abe d335 80bd 0cbf f9bd
00000250: 6126 933d 9cd3 e43c 32c1 913d b018 10bd
00000260: 1e3e b33d 042a 9c3d 0ace 1b3d e132 9abd
00000270: ce90 553d da5a a33d 54a6 87bd 529e 313e
00000280: a743 803c 0ad2 0e3e 6135 3b3e ac34 a73c
00000290: 664a 6ebd e19b 7b3d 84df ef3d 94ee 983d
000002a0: 5355 19be 35c8 02be 0372 013e 2db3 1dbe
000002b0: 787e 193e 146b 5abd f0f6 8b3d 34b2 1dbe
000002c0: 07ce d13c 1a9c 2c3e 745e ab3d 6d63 9d3d
000002d0: 32d3 f63d a191 ddbd ab44 aa3d 010e 86bd
000002e0: 5011 28be eafe 01be bc68 f73d cff1 a4bd
000002f0: ae7d c53d 51c3 c03c 05c5 81bd e975 0abe
00000300: dea0 943b eafa cfbd 7ff7 ff3d 242f 0dbe
00000310: 4e90 24be 2704 5c3d ff36 013c 6abb 133e
00000320: 2bb2 4d3c 9a17 333e f85f 3c3e 0d7a 55bc
00000330: cc3f e63d daa2 063d cf6f 5bbd 3c9e b4bd
00000340: a0c1 4cbd c2e5 7d3c 1a6f 333d 2501 003e
00000350: ecc1 393e 37bd 973b 49a2 64bd 13df 8abd
00000360: 5f5e 84bd e0f1 49bd 3da9 013d 66c8 03be
00000370: 0a1b 563b 46a2 33bd a066 0cbd 79b7 dbbd
00000380: 2fd5 1dbd b48b 22be 5b58 0b3e d8ff 9cbc
00000390: 998d 07bc 4fc6 273e 2f63 083e d48c 2c3c
000003a0: a20d 073e 042a 07bd 92fd 113d 8a28 0b3e
000003b0: cabd 463c b9b6 383e e078 1ebe cfd9 b83d
000003c0: e26c c33d 81dd 993d 8fec e43d b713 5e3d
000003d0: 97c7 23bb 7750 c4bd 545b c43d 9c30 0ebe
000003e0: b746 fbbd acbb 2cbe dde8 0dbe cb5b 153d
000003f0: 5d74 323e 56a1 2b3d ba52 043e 6422 f4bd
0.17100503 0.003954521 -0.043850314 -0.05224015 -0.11658096 0.08761858 -0.1092259 0.020263318
-0.18765335 0.09243432 0.11610334 0.05401596 0.0005711062 0.07688675 0.18399289 -0.139042
0.083275475 -0.07396982 0.14142418 0.059519883 -0.07932818 -0.14776437 0.06081649 0.04724654
-0.049699396 -0.15435912 0.07363733 -0.1311495 0.081273004 -0.020806087 -0.1042579 -0.020387925
-0.1649994 -0.14047743 0.14577004 0.07662354 0.06894146 -0.105418906 0.072558865 -0.052622095
-0.12895757 -0.021703333 0.087814495 0.03973561 -0.12440418 0.012935893 -0.1501128 0.012401638
0.084195614 0.0686489 0.13616562 -0.13124564 0.12770003 0.09433115 0.16646212 -0.06924018
-0.10816656 -0.1392216 0.021102356 -0.15729436 -0.0030238857 -0.04593944 0.045737308 0.073192716
0.07967834 0.10137468 -0.11555755 0.11580202 -0.00036263932 0.07678298 0.057790123 0.08696875
0.014639191 -0.16502394 -0.038480226 -0.16932602 -0.05843977 -7.364663e-05 0.118738286 0.016550418
0.14486341 -0.1270036 0.06178586 -0.047508985 0.16144812 -0.08708545 0.14865717 -0.14186382
-0.12051062 0.14600946 0.13795036 -0.17226985 0.074255414 0.015203159 0.026099274 -0.15867889
-0.1619301 -0.2088669 0.03467792 0.12063637 -0.0817682 0.009953814 -0.17131507 -0.019013984
0.10014457 0.1216329 -0.12171645 0.124596536 0.13898605 -0.13620563 -0.0061317226 -0.116030656
0.036334105 -0.113298275 0.046535704 0.12647703 -0.099196635 -0.06377449 -0.07176607 -0.12588237
0.124537714 0.045870442 0.10777091 -0.14171283 -0.011827017 0.11025188 0.14403407 -0.14838278
-0.021048889 -0.051951274 0.02816462 -0.15188658 0.026891127 0.13282822 -0.016449856 -0.076936156
0.12432861 0.05085217 0.16141298 -0.014271803 -0.14460877 0.018046781 -0.16194893 0.025307618
-0.067133375 -0.15103582 -0.06260266 -0.121946424 0.071850546 0.027932934 0.07116927 -0.035179794
0.08752082 0.07625201 0.03803829 -0.07529236 0.05214005 0.07976313 -0.066235214 0.1734555
0.01565726 0.13947311 0.18282081 0.020410858 -0.05817642 0.061427955 0.11712554 0.0746738
-0.14973955 -0.12771685 0.12641148 -0.15400381 0.1498965 -0.053324774 0.06834209 -0.1540001
0.025610937 0.16856423 0.08367625 0.076849796 0.12052001 -0.10818792 0.083138786 -0.0654564
-0.16412854 -0.12694898 0.12080523 -0.08053934 0.09643112 0.023530634 -0.063364066 -0.13521542
0.0045357784 -0.1015528 0.12498378 -0.13787514 -0.16070673 0.053714897 0.007886647 0.14426962
0.012554686 0.17489472 0.18395984 -0.013029587 0.11242637 0.03287015 -0.053573426 -0.08819243
-0.049989343 0.015496673 0.043807127 0.12500437 0.18140382 0.0046307105 -0.05581883 -0.06780829
-0.06463312 -0.049302936 0.03165554 -0.12869415 0.0032669925 -0.043855928 -0.03427756 -0.10728354
-0.038533386 -0.15873605 0.13607924 -0.019164965 -0.008273506 0.16384242 0.13319086 0.010531623
0.13188794 -0.032999054 0.035642214 0.13589683 0.01213021 0.18038453 -0.15475798 0.09025919
0.09542252 0.07512952 0.111779325 0.05421802 -0.002499079 -0.0958566 0.09587732 -0.1388573
-0.12269347 -0.16868466 -0.13858362 0.036464494 0.17427202 0.04190191 0.12922183 -0.11920622

local_head.bias f4 [64]
00000000: 725b 46be e858 1c3e efcc 0f3c 7835 8cbc
00000010: 2b27 17be 3e5f ffbc c0ac 1f3d bf2b 91bc
00000020: 3269 d2bb 6b58 42be d816 3abd 0ea4 6bbd
00000030: e856 c0bd 27ae 1cbb 50f5 90bd acfa bf3d
00000040: 5296 38be 1e3f a73d 10a4 523e abb9 65bd
00000050: 2ca5 9b3d 5ce4 b03d 99a2 443a 49e1 bdbd
00000060: 6065 9d3d b5be d43d 5827 6fbd bce2 c13d
00000070: 163a 373e 3272 123a 4966 1a3e eaab 09be
00000080: 72d1 083d e0ad 963d 468b fcbd 8472 9dbc
00000090: 51f9 893d e3a2 7dbd a80d 98bd e207 073d
000000a0: e3c4 fa3d 536e 2ebe 257f c53c 3f3d f0bd
000000b0: afaf ea3d b01b 3a3d 4397 aabd 3e0b d3bb
000000c0: 4d96 023e eb7f 303d 50d0 4c3e 0b06 f9bd
000000d0: 3e52 a73d 8ef6 44be 1e46 2dbe bdbe 8f3d
000000e0: 7246 123e e3e9 fa3d 8728 ea3d d9a1 32be
000000f0: 3052 a8bc 85e1 ac3d 28cc bcbc ea76 99bd
-0.19370821 0.1526829 0.008776887 -0.01711534 -0.14761035 -0.031173345 0.038983107 -0.017721055
-0.0064212317 -0.18979041 -0.04543194 -0.0575295 -0.09391576 -0.0023907514 -0.0707804 0.09373984
-0.18026093 0.081663355 0.20570397 -0.05608527 0.075998634 0.08637306 0.00075010356 -0.09271485
0.07685351 0.10387937 -0.05838713 0.09467074 0.17893252 0.00055864744 0.15078081 -0.13444486
0.033402868 0.07357383 -0.12331252 -0.019219644 0.067370065 -0.06192292 -0.0742448 0.032966502
0.122445844 -0.17034273 0.024108479 -0.11730432 0.1145929 0.04543656 -0.08329632 -0.006440549
0.12752648 0.043090742 0.2000134 -0.12159356 0.08169983 -0.19234678 -0.16921279 0.07018802
0.14284685 0.122516416 0.11433511 -0.17444552 -0.020547003 0.08441452 -0.023046568 -0.07493384

decoder.0.weight f4 [64, 64]
00000000: ac59 25bd 51f6 213d 6cd5 8cbd 5364 57bd
00000010: 98c6 01bc dad0 07bd 6e43 a8bd b175 54bd
00000020: 2529 f8bd dd6c 70bd 264d 2a3d f9f6 70bd
00000030: 9e00 003b 0080 dabc 0160 db3d 9c5c dbbd
00000040: e9d4 c2bc 45be 47bd 6e89 823d 0d3d e9bd
00000050: c01d a83d 4585 6c3d 7799 a33d 6bb0 a33d
00000060: aa28 fdbd 4f6b ec3d 68b4 14bd eedb 18bd
00000070: 0b71 5a3c c079 f4bd 9eb5 d63d 2749 f63d
00000080: d373 8b3d 207d a03d a607 0d3b c328 833d
00000090: 13f5 52bd ebe1 acbd 27d6 0d3e b1f0 b7bd
000000a0: 18c0 23bd c906 31bd 43a7 7cbd e140 fd3c
000000b0: f4ae a5bd ca8d 85bc 235a f93c e738 d83a
000000c0: e7ff 913d f4f9 a3bd f594 f43b 0736 04be
000000d0: 1835 e4bc cc08 cdbd 9f68 a9bd 89d8 a8bd
000000e0: b1cb 8cbc cf22 703d 47e4 363d 7a94 ac3d
000000f0: 466c febc 0a57 033e 2fc0 263c 5e40 de3c
00000100: ab11 5b3d af3b 93ba 0d4b c13d c7b0 d2bd
00000110: 1955 ea3d 65aa 7c3c bee4 a7bd 76e6 873d
00000120: d35c c2bd 57c7 e7bd b72f 61bd 7c02 223d
00000130: 2230 373b 3199 8d3d 407a 87bd 5023 aabd
00000140: 1519 f93c f075 c5bd e804 b83b 0f82 d63d
00000150: f131 a0bd e721 a73c 9b23 94bd b020 d73c
00000160: 1677 0f3d c14c b2bd 37b2 c0bd ae39 c13d
00000170: 86fb b7bd 1d0f 7e3d cb69 453d 5fed 753d
00000180: d608 f6bc 37db 9dbc 4785 46bd cc18 28bd
00000190: 855e d73d 81d5 2cbc ba80 343d 3d4d febd
000001a0: 1a9a df3d cf96 7bbd 4823 a53c a982 6fbd
000001b0: edd8 1f3d 1315 3e3d 70d7 ddbd 3769 9c3d
000001c0: dff9 ae3d 16cf 4a3d 1d51 173c 9a73 d33c
000001d0: 5012 48bd c61d 273d 1011 d5bd 2edd eb3d
000001e0: 0122 97bc 9843 c93d 82d8 633c 0e61 80bd
000001f0: c911 9f3c f693 ddbd 4953 743d 1d26 26bd
00000200: 7e85 bebc 8c7f 6e3d d517 d4bd 6298 ab3c
00000210: 8cb0 0dbe c45f 4fbb 9617 06bb be7b 8cbc
00000220: 760a 4cbc 1369 01be caa1 fd3d 0a05 903d
00000230: fd5d efba 9aca cebc 1902 a73d b7e4 2ebd
00000240: b8e8 c4bd 5332 96bd c992 b93d 9399 e9bd
00000250: ebd2 9abb 23d2 2b3d badf 48bc 5c61 033e
00000260: 36d7 543d a313 cc3d 47a9 c73d 675e 91bc
00000270: 424a 323d f11d 85bd 54d6 59bc 2149 da3c
00000280: 5af0 493d 8e0e bc3a d1e6 90bd d0c2 58bd
00000290: 97ef d2bc e5e6 c63d 99da 853c 04d7 8fbd
000002a0: fab2 14bd 7d9c c43d 88e1 88b9 e812 ab3c
000002b0: f8fa ed3c c66a f43d cc5a 43bd 9f3a 2e3d
000002c0: 270e b4bd 96f8 d8bd 49d6 05bd 30b2 03bd
000002d0: 6a54 9fbd 8036 1cbb 97ed 55bd c028 f33d
000002e0: 7f54 b73d 958c a13d 304f ad3c 8ad8 743d
000002f0: 7019 05be 9aa9 923c 68f9 debd 202b 94bc
00000300: e84c 24bd e491 053d 001f 903a 7046 68bd
00000310: bceb 253d 2c1b 10bd dc82 bd3d 58fb 2ebd
00000320: 14df 6dbd 50ac 96bd 5004 9e3c 8008 99ba
00000330: b037 65bd 60e1 dfbb 6437 4dbd 160c a2bd
00000340: 7c3a a53d 648b 403d b667 933d 788c a73d
00000350: d4a6 cb3d 7075 f93c be78 ccbd d6eb f1bd
00000360: a64a c73d eefc f5bd 206f d3bd 00f0 a3bb
00000370: f2ed aa3d 58b0 57bd 18e9 a8bd 2a27 a43d
00000380: 1a4b 9b3d 98d9 0e3d 6cb3 c03d acdd 1fbd
00000390: f40f 1b3d 2257 debd 485b 31bd 4ab9 c3bd
000003a0: 8849 6e3d 88a8 5c3d d4b8 493d f084 aa3d
000003b0: d45e 84bd 9847 0cbd c0b5 cabc 6261 c7bd
000003c0: 60aa f0bd a2c8 dc3d cc56 4fbd e099 18bc
000003d0: b65d f8bd 4822 733d e8b3 ccbd d082 833d
000003e0: cc37 b2bd 6029 cabc 90b3 c4bd 64a6 f2bd
000003f0: e6e0 813d 3897 8abc 3eff 803d 148b 60bd
-0.04036872 0.039541546 -0.068766445 -0.05258591 -0.007920884 -0.03315816 -0.08215986 -0.05187005
-0.12117223 -0.05869757 0.04157748 -0.05882928 0.0019531618 -0.026672363 0.10711671 -0.10711023
-0.023783164 -0.04876544 0.06373869 -0.11388598 0.08208799 0.057744283 0.079882555 0.079926334
-0.12361272 0.11543905 -0.03630486 -0.037319116 0.013332616 -0.119372845 0.104838595 0.120256715
0.06809201 0.07836366 0.0021519451 0.06404259 -0.051503252 -0.08441528 0.13851224 -0.08981455
-0.039978117 -0.04321936 -0.06168295 0.030914726 -0.0809001 -0.016302962 0.030438488 0.001649645
0.071288876 -0.08006659 0.007464046 -0.12911235 -0.027857348 -0.100114435 -0.08271908 -0.08244426
-0.017186971 0.058626946 0.044651296 0.08426757 -0.031057488 0.12826172 0.010177656 0.027130302
0.053483646 -0.0011232997 0.09438143 -0.10287624 0.11442012 0.015421485 -0.08197926 0.06635754
-0.09490361 -0.11317318 -0.054977145 0.03955315 0.0027952273 0.069139846 -0.06615114 -0.083075166
0.030407468 -0.096416354 0.0056158192 0.104740255 -0.078220256 0.020401908 -0.07233354 0.026260704
0.03502568 -0.08706046 -0.09408992 0.0943483 -0.08983521 0.062026132 0.048196595 0.060040828
-0.03003351 -0.019269569 -0.048466947 -0.041039273 0.10516075 -0.01054895 0.044068076 -0.12417076
0.109180644 -0.06142312 0.020158425 -0.058474217 0.039025236 0.046406817 -0.10832107 0.07637256
0.08543753 0.0495139 0.0092356475 0.025811959 -0.04884559 0.04079988 -0.10403645 0.11516796
-0.018448832 0.098273456 0.0139066 -0.06268512 0.01941766 -0.10819237 0.05964974 -0.04056369
-0.023257013 0.058227107 -0.10356108 0.020946685 -0.13836879 -0.0031642774 -0.0020460836 -0.017148849
-0.012453666 -0.12637739 0.123843744 0.07032211 -0.0018262264 -0.025243092 0.08154697 -0.04269859
-0.096147 -0.07333817 0.090612 -0.11406245 -0.0047248504 0.04194845 -0.012260372 0.12830108
0.051963054 0.09964683 0.09749084 -0.01774521 0.04352785 -0.064998515 -0.013295729 0.026646199
0.049301483 0.0014347599 -0.07075275 -0.052920163 -0.025749011 0.097120084 0.016339587 -0.07023433
-0.036303498 0.0960016 -0.00026107975 0.020883039 0.029050335 0.11934428 -0.047694013 0.042536374
-0.08791762 -0.10594289 -0.03267506 -0.032152355 -0.077797726 -0.0023836195 -0.052228536 0.11873007
0.08951663 0.07888142 0.021155924 0.05977682 -0.12997985 0.017903138 -0.10887414 -0.01808697
-0.040112406 0.032609835 0.0010995567 -0.0567078 0.040508017 -0.035182163 0.09253475 -0.04272017
-0.058074072 -0.07357085 0.019289166 -0.0011675507 -0.05596131 -0.0068322867 -0.050101653 -0.079124615
0.08067796 0.047007933 0.07197516 0.08181089 0.09943929 0.030451506 -0.09983967 -0.1181256
0.09731035 -0.12011133 -0.1032393 -0.0050029755 0.08346166 -0.05265841 -0.08247584 0.080152825
0.07582684 0.034875482 0.09409222 -0.039029762 0.03785701 -0.10856463 -0.043299943 -0.095568255
0.058175594 0.05387166 0.04924853 0.08326137 -0.064633995 -0.034247965 -0.024744868 -0.09735371
-0.117512465 0.10780455 -0.050619885 -0.00931403 -0.12127249 0.059358865 -0.09995252 0.06421435
-0.08702049 -0.024677932 -0.09604561 -0.11848143 0.06341724 -0.01691781 0.062986836 -0.054820135
