checkpoints/operation_prediction2/program_embedding_model.pth (torch, 29172 bytes, 7 tensors)

embedding.weight f4 [10, 8]
0	0xbed798c1	-0.4210873
1	0xbfcfb820	-1.6228065
2	0xbea67d15	-0.32517305
3	0x3f7a0670	0.9766607
4	0xbf39d5e1	-0.7259198
5	0xbf8c4edf	-1.096157
6	0x3f9f7d1e	1.2460058
7	0x3f5cc403	0.8623659
8	0xbf9765a3	-1.1827892
9	0xbe677f8e	-0.22607252
10	0x3f8190f1	1.0122358
11	0xbec96e30	-0.3934188
12	0x3f441983	0.7660143
13	0x3eaeafff	0.3411865
14	0x3fa85185	1.3149878
15	0x3f7e93d4	0.9944432
16	0x3faf9b90	1.3719349
17	0xbfc1bd3e	-1.5135877
18	0xbdff9a7e	-0.12480639
19	0x4059ccf1	3.4031336
20	0x3fca5301	1.5806581
21	0xbf97121b	-1.18024
22	0x3f266ce4	0.65009904
23	0x3ec9835c	0.39358032
24	0xbfbe8f40	-1.4887466
25	0xbfdc01f0	-1.7188091
26	0x3ef71d02	0.4826432
27	0x3f59528b	0.84891576
28	0xbf2c2e21	-0.6725789
29	0x3f54d5d1	0.8313876
30	0x3f0b87fa	0.5450436
31	0xbfa3c753	-1.2795204
32	0xbc6736bf	-0.014112174
33	0x3e842a7e	0.2581367
34	0xbee91a2e	-0.45527786
35	0x3efdea81	0.49592975
36	0x3e84d5c8	0.25944352
37	0x3f770235	0.9648774
38	0x4008fcb8	2.1404247
39	0xbf83f128	-1.030797
40	0xbeedbbe9	-0.46432427
41	0x3f7dfc50	0.99213123
42	0xbf44db2e	-0.7689694
43	0xbeb14718	-0.34624553
44	0x3e13c431	0.1443031
45	0xbfc9bb07	-1.5760201
46	0x3ebf0f37	0.37316296
47	0xbe45d161	-0.19318153
48	0x3f5f2365	0.8716338
49	0xbe0d97cc	-0.13827437
50	0xbe83fbee	-0.25778145
51	0x3ed1ac92	0.40951973
52	0x3ea6356c	0.32462633
53	0xbdc35401	-0.09537507
54	0x3cdf35b0	0.02724728
55	0xbdf9acf8	-0.12191194
56	0x3fae2351	1.3604528
57	0x3f4bdb20	0.79631233
58	0x3f3434a2	0.7039281
59	0x3f2b010b	0.66798466
60	0xbe17539e	-0.14777991
61	0x3f3d1e51	0.73874384
62	0xbe3bd012	-0.18341091
63	0x3f447a7c	0.76749396
64	0x3fc28d31	1.5199338
65	0xc018cc2f	-2.3874624
66	0xbe1c0fb9	-0.15240373
67	0xbec13922	-0.377389
68	0x3db4ffe4	0.0883787
69	0xbf35f5f7	-0.7107844
70	0xbfb28b14	-1.3948693
71	0xbfe429f1	-1.78253
72	0xbfbf0039	-1.4921943
73	0x3eb36afe	0.35042566
74	0xbe4869a4	-0.19571549
75	0xbf9a2251	-1.2041723
76	0x3eee91bf	0.4659557
77	0xbf2e5990	-0.6810541
78	0xbe360f5a	-0.17779294
79	0xbf236b00	-0.63835144

lstm.weight_ih_l0 f4 [128, 8]
0	0x3dd423d5	0.10358397
1	0xbe96a57b	-0.29423127
2	0xbe12d563	-0.14339213
3	0x3dbcbda8	0.092158616
4	0x3e4b4f89	0.19854559
5	0x3d72cfba	0.059280135
6	0x3e2a9a1a	0.16660348
7	0xbd3f64eb	-0.046727102
8	0xbe5e0d1d	-0.2168469
9	0xbe6cc63d	-0.23122497
10	0x3df9e197	0.12201231
11	0xbe3c63f5	-0.18397506
12	0x3e9bf174	0.30457652
13	0x3e5d9f3a	0.21642771
14	0x3d73d2cc	0.059527203
15	0x3da51f7e	0.08062647
16	0xbe4df473	-0.20112781
17	0xbbf5bf6f	-0.0074996273
18	0x3de67d50	0.1125437
19	0xbd6e9308	-0.05824569
20	0xbc6061be	-0.013695179
21	0x3d7f3072	0.06230206
22	0x3d558655	0.052130062
23	0xbd2a3ec7	-0.041563775
24	0xbe500609	-0.20314802
25	0xbc8fd8d9	-0.017559456
26	0xbe02597a	-0.12729445
27	0x3ddbd446	0.10733847
28	0x3d62ae39	0.055341933
29	0xbd6dca29	-0.058054123
30	0x3dfc32d4	0.12314382
31	0xbe47e10f	-0.19519447
32	0xbe43475c	-0.1907019
33	0x3e41a806	0.18911752
34	0xbaa85e0a	-0.0012845409
35	0xbe5d4be6	-0.21610984
36	0x3cd79187	0.02631451
37	0x3e49186d	0.19638224
38	0x3ca9c627	0.02072437
39	0xbdb3cf56	-0.087797806
40	0x3e8a1ccb	0.26975092
41	0x3dc7f2cf	0.09763109
42	0xbe426411	-0.18983485
43	0xbd3484ee	-0.044072084
44	0xbe2e69a5	-0.17032488
45	0xbe7bb990	-0.24582505
46	0xbdb71cae	-0.08941017
47	0xbe77008a	-0.241213
48	0x3ce53fec	0.027984582
49	0xbe5a26fe	-0.21303937
50	0x3e0ab348	0.13544953
51	0x3d8c73a7	0.068579964
52	0x3e7b8edf	0.2456622
53	0xbe906f6a	-0.28210002
54	0x3e886edf	0.26647088
55	0x3d66fd74	0.056394055
56	0xbe2b36f7	-0.16720186
57	0xbdcfa112	-0.101381436
58	0xbd1fe0ae	-0.03903263
59	0x3e0dfb05	0.13865288
60	0x3d3577a2	0.044303544
61	0xbd295e15	-0.04134949
62	0x3e287f42	0.16454795
63	0x3e6e5203	0.23273472
64	0x3e58b83b	0.21164028
65	0x3de78396	0.11304395
66	0xbda0392a	-0.07823403
67	0x3d95b4ef	0.07309901
68	0xbd59f9ec	-0.05321686
69	0xbe205bbc	-0.15659994
70	0xbe986ad2	-0.29768997
71	0xbeaa24cc	-0.332312
72	0x3e1fc107	0.15600978
73	0xbe0ae20e	-0.13562796
74	0x3c3a2045	0.011360233
75	0x3bbbecb1	0.005735003
76	0x3e39bf36	0.18139347
77	0x3ca8615d	0.020554239
78	0x3e300faa	0.17193475
79	0x3d86ae92	0.065762654
80	0x3e1a5f1b	0.15075342
81	0xbe6c1560	-0.23055029
82	0x3e16a423	0.1471105
83	0x3e40b2fd	0.18818279
84	0x3dde5f7c	0.10858056
85	0xbe5ec6e0	-0.21755552
86	0xbdb10fc7	-0.086455874
87	0x3da48b0e	0.08034335
88	0xbca12542	-0.019671086
89	0xbe86c70b	-0.26323733
90	0xbbc82765	-0.006108212
91	0x3dbac4c0	0.09119558
92	0x3c91cc7b	0.0177977
93	0xbd00ae49	-0.03141621
94	0x3e3d3401	0.18476869
95	0x3dbaf353	0.09128442
96	0xbe8f41e2	-0.27979952
97	0xbe8c810f	-0.27442214
98	0x3d689eda	0.056792118
99	0x3e518346	0.20460233
100	0x3e83067a	0.2559088
101	0xbdd8c2e9	-0.10584051
102	0x3de14f71	0.1100148
103	0x3e8cd4d5	0.27506128
104	0x3dd1499d	0.10219119
105	0xbd21cf34	-0.039504245
106	0xbd4180aa	-0.047241844
107	0xbd1317c1	-0.035911325
108	0xbdcea340	-0.10089731
109	0x3d96650f	0.07343494
110	0x3c172861	0.009225936
111	0xbdc7965e	-0.09745477
112	0xbc3ee66d	-0.0116516175
113	0xbe02ce4a	-0.12774006
114	0x3d33b81e	0.04387676
115	0x3e3b5355	0.18293507
116	0x3de06ee9	0.109586544
117	0x3e37e050	0.17956662
118	0xbcc81601	-0.024424555
119	0xbe5778f3	-0.21042232
120	0x3dd02d53	0.10164895
121	0xbc4c4aa3	-0.012468967
122	0x3e00fbb7	0.12596022
123	0x3e606b04	0.21915823
124	0x3dd3c684	0.10340598
125	0x3bea23ed	0.007145396
126	0x3d86097f	0.0654478
127	0x3e294812	0.16531399
128	0x3ebca5e0	0.36845303
129	0x3cc983d2	0.02459899
130	0xbcd0e2d2	-0.025498781
131	0x3e431c57	0.1905378
132	0x3e7ac4e9	0.24489178
133	0xbdf0df2a	-0.11761315
134	0x3df15ad9	0.11784906
135	0x3d66fb8e	0.056392245
136	0x3b65d29d	0.0035068162
137	0x3c67ad9e	0.014140515
138	0x3d8376ea	0.064191654
139	0x3e989406	0.29800433
140	0x3d6972b8	0.05699417
141	0xbd92b1aa	-0.07162793
142	0x3a008328	0.00049023563
143	0xbe196938	-0.14981544
144	0xbbf927e6	-0.007603633
145	0xbd022696	-0.03177508
146	0xbe032c52	-0.12809876
147	0x3df1de64	0.11809996
148	0xbc9aae7a	-0.018882025
149	0xbe7d2939	-0.24722756
150	0xbcbc26a1	-0.022967638
151	0x3e211445	0.15730388
152	0xbc161049	-0.009159156
153	0xbdb847b0	-0.08998048
154	0x3e38ea45	0.18058117
155	0xbd780d46	-0.060559534
156	0xbddf0f2f	-0.10891568
157	0xbe31688c	-0.17325038
158	0xbe284af4	-0.16434842
159	0x3e31b58d	0.17354412
160	0x3e77a3f5	0.24183638
161	0xbe63d933	-0.22250824
162	0xbe20fa94	-0.15720588
163	0x3e8f2e56	0.2796504
164	0x3d8dba02	0.06920244
165	0xbc8c4ba1	-0.017125906
166	0x3e144ed6	0.14483199
167	0xbdf1f804	-0.11814883
168	0x3c227458	0.009915434
169	0xbcac4502	-0.021029
170	0xbd95dee0	-0.07317901
171	0xbc90f276	-0.01769374
172	0xbe31f416	-0.17378268
173	0x3e096c09	0.13420118
174	0x3c98ba5b	0.018643549
175	0xbd2d0f2c	-0.042250797
176	0x3d7a56dd	0.061117996
177	0xbdb3a404	-0.08771518
178	0xbe4adb8e	-0.19810316
179	0x3e854c4a	0.26034766
180	0x3de99cfe	0.11406897
181	0xbcd22f97	-0.025657458
182	0xbe137432	-0.14399794
183	0x3c9a3af4	0.01882694
184	0x3d555442	0.052082308
185	0xbe4c6e50	-0.19963956
186	0xbdbed0a3	-0.09317138
187	0x3d862b65	0.065512456
188	0x3e656ca1	0.2240472
189	0xbda0927f	-0.07840442
190	0x3e829ee2	0.25511843
191	0x3e3dc280	0.18531227
192	0x3e7a8659	0.24465312
193	0xbe7ed159	-0.24884547
194	0xbcd62cf7	-0.026144488
195	0x3e2d74dc	0.1693911
196	0x3e29f4d0	0.16597295
197	0xbd857b3b	-0.06517645
198	0xbdfbe42a	-0.12299378
199	0x3dc7d71c	0.09757826
200	0xbddf9ea9	-0.10918934
201	0x3e1fee1d	0.15618177
202	0x3dca8fc3	0.098907016
203	0x3dc142f5	0.09436599
204	0x3cb842aa	0.022492725
205	0xbd8cfeef	-0.06884562
206	0x3cb99d5f	0.022658048
207	0x3ba2be64	0.004966544
208	0x3c8f74b8	0.01751171
209	0x3e1bfefc	0.15233988
210	0x3d7370f8	0.059433907
211	0xbcaac1e1	-0.020844402
212	0xbd558dd6	-0.05213722
213	0x3b571e00	0.0032824278
214	0xbe027680	-0.12740517
215	0x3d9d4cfb	0.076806985
216	0x3d65d617	0.056112375
217	0xbc38c533	-0.011277485
218	0x3dc2c373	0.09509935
219	0x3e825b50	0.2546029
220	0xbdb07322	-0.0861571
221	0xbe229e43	-0.15880685
222	0x3e3eec98	0.18644941
223	0xbe67b37e	-0.22627065
224	0x3dd7fbb4	0.105460554
225	0xbe24a839	-0.16079797
226	0x3c810105	0.015747556
227	0x3e44e008	0.19226086
228	0x3e128a34	0.14310533
229	0xbd377f90	-0.044799387
230	0x3d54fe80	0.052000523
231	0x3dc27ad4	0.09496084
232	0xbe49d52c	-0.19710225
233	0xbd346ea8	-0.044050843
234	0x3e4e725a	0.20160809
235	0xbdc609a7	-0.0966981
236	0x3e83883f	0.25689885
237	0x3e159f64	0.14611584
238	0x3e9110a0	0.28332996
239	0x3e7bdfd4	0.24597102
240	0xbdab3d31	-0.08361281
241	0xbda13345	-0.07871107
242	0x3dfcad1e	0.12337707
243	0x3d2df058	0.042465538
244	0x3c4f1611	0.012639538
245	0x3b214938	0.0024610292
246	0xbcfdc3df	-0.030977188
247	0x3c171792	0.009221928
248	0xbe90805f	-0.2822294
249	0x3e726580	0.23671532
250	0x3e39e075	0.1815203
251	0xbd19feff	-0.0375967
252	0x3d93dbab	0.07219633
253	0x3dbd3d6a	0.092402294
254	0xbc4ff664	-0.012693021
255	0x3e66755f	0.22505711

lstm.weight_hh_l0 f4 [128, 32]
0	0x3e49e72c	0.19717091
1	0x3d83a918	0.064287364
2	0xbd9aab65	-0.07552222
3	0xbd2e35f7	-0.042531934
4	0x3d8d882d	0.06910739
5	0x3e530623	0.2060781
6	0x3e32a7ae	0.17446777
7	0xbe32200b	-0.17395036
8	0x3da37c15	0.07982651
9	0xbdb6fb9b	-0.08934709
10	0x3de50213	0.11182036
11	0x3d8b9152	0.06814827
12	0x3ea07d68	0.31345677
13	0xbb4de157	-0.003141483
14	0x3e63b0ca	0.22235408
15	0x3e19605f	0.14978169
16	0x3e4b7238	0.1986779
17	0x3dc45a40	0.09587526
18	0x3ed60540	0.4180088
19	0x3ca611ca	0.020272154
20	0xbeb2f8ed	-0.3495554
21	0xbe503bfb	-0.2033538
22	0xbd576826	-0.052589558
23	0x3e1d5c4a	0.15367237
24	0x3dacb65a	0.08433218
25	0xbde9a1c2	-0.11407806
26	0xbdbe57e6	-0.09294109
27	0x3de3f80f	0.11131298
28	0x3cc0a93a	0.023518194
29	0xbe8db3c4	-0.27676213
30	0x3e8e5d6b	0.27805647
31	0x3dbd5e37	0.09246486
32	0x3be31814	0.0069303606
33	0x3d3d180e	0.04616552
34	0xbe8ed511	-0.27896932
35	0x3e2dfcc5	0.16990955
36	0x3e0a9d38	0.13536537
37	0x3ea90e13	0.3301855
38	0xbd753d7e	-0.059873097
39	0xbe3de0fb	-0.18542854
40	0x3e5495f2	0.20760325
41	0xbda55b2a	-0.08074029
42	0x3d8db64e	0.069195375
43	0x3dfc7f9d	0.12329028
44	0xbd2282aa	-0.039675392
45	0xbe2454c7	-0.16047965
46	0x3d6d2c6e	0.0579037
47	0x3e81cee8	0.2535317
48	0x3e6206f6	0.22072968
49	0x3e64bd7d	0.22337909
50	0xbdbfe0f9	-0.09369082
51	0x3d0a6cd4	0.033795193
52	0xbe2d4baa	-0.16923395
53	0xbe02a7eb	-0.12759368
54	0xbeb280c5	-0.34863868
55	0x3d96e3da	0.07367678
56	0x3e286143	0.16443352
57	0xbe8459a3	-0.25849637
58	0xbe07ae8e	-0.13250181
59	0x3b540154	0.0032349424
60	0xbe557000	-0.20843506
61	0xbe4ca200	-0.19983673
62	0xbdc33dad	-0.09533248
63	0x3df0fd23	0.11767032
64	0x3cc60b14	0.024175204
65	0x3dcfb0c2	0.10141136
66	0x3e536704	0.20644766
67	0x3dc5e32b	0.096624695
68	0x3a596a91	0.00082937727
69	0x3e248c89	0.16069235
70	0xbc7e13df	-0.015507667
71	0xbbba74ed	-0.005690208
72	0x3e5bc4e5	0.21461828
73	0xbe528873	-0.20559864
74	0x3cb30a60	0.021855533
75	0x3e2f708f	0.17132781
76	0xbde0267e	-0.10944842
77	0xbd806068	-0.06268388
78	0x3d2c0ed8	0.042006344
79	0xbca8e9e4	-0.02061934
80	0x3de09a52	0.10966934
81	0xbd8b7aa8	-0.06810504
82	0x3d8fb91d	0.070177294
83	0x3d242ac2	0.04007984
84	0xbdc5cd83	-0.09658339
85	0x3dd8f250	0.105930924
86	0xbe0ac096	-0.13550028
87	0x3d3fc2b2	0.046816535
88	0x3e1ec836	0.15506062
89	0xbe159482	-0.14607432
90	0xbe31f9bf	-0.17380427
91	0x3d89bd6b	0.06725582
92	0xbdb4290f	-0.08796894
93	0xbd186d21	-0.03721345
94	0xbe32cf1e	-0.17461821
95	0x3e363dbd	0.17796989
96	0x3e124539	0.14284219
97	0xbbf35e30	-0.0074269995
98	0x3d582020	0.05276501
99	0x3eaeec41	0.34164622
100	0x3d409223	0.047014367
101	0x3e70e76b	0.23525779
102	0xbd144413	-0.036197733
103	0xbdf70219	-0.12060947
104	0x3e6b45c1	0.22975828
105	0xbe6fb7df	-0.23409985
106	0x3e46d0fd	0.1941566
107	0x3e4bcea9	0.19903053
108	0xbe1710fb	-0.14752571
109	0x3d5621e0	0.0522784
110	0x3d8ff453	0.07029023
111	0x3eacc125	0.33741108
112	0x3e3a872c	0.18215626
113	0xbde9eead	-0.11422477
114	0xbe320d80	-0.17387962
115	0xbdab24c6	-0.08356623
116	0xbea4a010	-0.32153368
117	0xbcff4dd5	-0.031165043
118	0xbc01f05c	-0.007930841
119	0xbdc2d34b	-0.09512957
120	0x3d8e3809	0.069442816
121	0xbe280bea	-0.16410795
122	0xbe0beba8	-0.13664114
123	0x3e4450ef	0.19171499
124	0xbe2eeade	-0.17081782
125	0x3c9c62f4	0.019090153
126	0xbda699d5	-0.0813481
127	0xbcf0941d	-0.0293675
128	0x3d7674f9	0.060170148
129	0xbd71ff77	-0.05908152
130	0xbd8833af	-0.06650483
131	0x3e315315	0.1731685
132	0xbd558817	-0.05213174
133	0x3d4cdb7f	0.050014015
134	0x3c88bf67	0.01669283
135	0x3e74349e	0.23848197
136	0x3e20cbe7	0.15702783
137	0x3dd1aea1	0.10238386
138	0x3e92d244	0.28676045
139	0xbb7afede	-0.0038298885
140	0xbe84fcb8	-0.2597406
141	0xbda6f9ab	-0.08153089
142	0x3e8af7a5	0.27142063
143	0x3e60408d	0.21899624
144	0xbc1b867d	-0.009492514
145	0xbe51832c	-0.20460194
146	0x3e754d7e	0.23955342
147	0x3d2c4a94	0.04206331
148	0x3d37ed7a	0.04490421
149	0x3e3c3a33	0.18381576
150	0x3e806d1b	0.2508324
151	0x3d5706ad	0.0524966
152	0xbe0bd5ce	-0.13655779
153	0x3e329119	0.17438163
154	0x3d7ade99	0.061247442
155	0xbda1ff4b	-0.079100214
156	0x3ce799ed	0.02827164
157	0x3e20330b	0.15644471
158	0x3d23b4f6	0.0399675
159	0xbe7ba11c	-0.24573177
160	0x3e6e65c6	0.23281011
161	0xbd8ce681	-0.06879903
162	0x3c9beadf	0.019032894
163	0xbe3c40bb	-0.18384068
164	0x3c797306	0.015225178
165	0x3dac1de3	0.08404138
166	0x3d0947bd	0.03351568
167	0x3c828349	0.015931742
168	0xbb97e104	-0.0046349782
169	0x3bd38315	0.006454835
170	0xbdb504e0	-0.088388205
171	0x3e1db49a	0.15400925
172	0xbe2bdd05	-0.16783531
173	0xbd84aeee	-0.06478678
174	0x3de33380	0.11093807
175	0xbc8def12	-0.017325912
176	0x3e11404d	0.14184685
177	0x3d0e2f6d	0.034713197
178	0x3e99eb36	0.30062264
179	0x3d30a017	0.043121424
180	0xbe099841	-0.13436987
181	0x3d8fb397	0.07016676
182	0x3cc0c9e2	0.023533765
183	0xbe150ab8	-0.1455487
184	0x3daa13c9	0.08304555
185	0x3d762952	0.060098
186	0x3d897d4c	0.067133516
187	0x3c910fd5	0.017707745
188	0xbdfb4d18	-0.12270564
189	0x3dd92e67	0.10604554
190	0x3dd74bcc	0.10512504
191	0xbe2e7123	-0.17035346
192	0x3e22f39b	0.1591324
193	0x3e7cbf02	0.24682239
194	0xbe2d33c3	-0.16914277
195	0xbbfa055a	-0.0076300325
196	0x3d7b884b	0.061409276
197	0x3da82acf	0.0821129
198	0x3e3affec	0.18261689
199	0xbea4071c	-0.32036674
200	0x3e035f55	0.12829335
201	0xbce9fdd1	-0.028563412
202	0x3d812e42	0.06307651
203	0x3e5aed90	0.21379685
204	0x3e9c5071	0.30530122
205	0xbe8c4bbf	-0.2740154
206	0xbe485885	-0.19565018
207	0xbd81eb50	-0.063437104
208	0x3e8fe5bd	0.28104964
209	0x3e87d215	0.26527467
210	0x3df84fc0	0.12124586
211	0xbd92f435	-0.07175485
212	0xbe8addb8	-0.27122283
213	0xbe3d0274	-0.18457967
214	0xbc604e3a	-0.013690526
215	0x3e6a0994	0.22855216
216	0x3e584cbf	0.21123026
217	0xbdff4b4a	-0.12465532
218	0xbe959e44	-0.2922231
219	0x3d6d6d00	0.05796528
220	0xbe358af9	-0.17728795
221	0xbe25bdb2	-0.16185644
222	0x3e365bc5	0.17808445
223	0x3e24c653	0.1609128
224	0xbc0e4703	-0.008683923
225	0x3e18437f	0.14869498
226	0xbed93dc3	-0.42429933
227	0x3c4d42ec	0.012528162
228	0x3e7b566b	0.24544685
229	0xbd9cec40	-0.076622486
230	0xbc4cbe3f	-0.01249653
231	0xbd333c2b	-0.043758553
232	0x3ea28f26	0.3174984
233	0xbe3b15ea	-0.18270078
234	0x3d762fe1	0.060104255
235	0x3e05b0bb	0.13055699
236	0x3ea9eb78	0.3318746
237	0xbddcb2de	-0.10776304
238	0xbdfc13bc	-0.123084515
239	0x3df3b1e9	0.11899168
240	0x3d823179	0.063570924
241	0xbda48919	-0.08033962
242	0x3de603b6	0.112311766
243	0x3ddc117c	0.107455224
244	0xbe2f8c91	-0.17143466
245	0xbe1ad890	-0.15121675
246	0xbe8eda6a	-0.27901012
247	0x3e9a1786	0.30096072
248	0x3e2bb74b	0.1676914
249	0xbd5f5093	-0.0545202
250	0xbe4e3451	-0.20137145
251	0x3c13f7e0	0.009031266
252	0xbe1703cd	-0.14747544
253	0xbe9efc26	-0.3105175
254	0x3e89c6dd	0.26909533
255	0xbe1a90f0	-0.15094352

lstm.bias_ih_l0 f4 [128]
0	0xbda43831	-0.0801853
1	0x3e524838	0.20535362
2	0x3dd86c72	0.10567559
3	0xbdde9829	-0.10868866
4	0x3d3ee84a	0.046608247
5	0x3df3e34c	0.11908588
6	0xbcdcb3e1	-0.026941242
7	0x3cb3b3c4	0.021936305
8	0xbdbe1b98	-0.09282607
9	0x3d7a36f4	0.061087564
10	0x3d26e496	0.04074534
11	0x3d819645	0.0632749
12	0x3e222ebf	0.15838145
13	0xbe52f17a	-0.20599928
14	0xbde298bf	-0.1106429
15	0x3eb4fed1	0.3535066
16	0x3dff87ac	0.12477049
17	0x3d3a277f	0.045447823
18	0xbdecb4fb	-0.11557957
19	0xbde82f0b	-0.11337098
20	0x3cf8f9ac	0.03039249
21	0xbb5bf4f0	-0.0033562742
22	0xbdb4dc1a	-0.088310435
23	0xbc45fc4d	-0.012084079
24	0xbd0bb60b	-0.034109157
25	0x3dac2f4f	0.08407461
26	0xbd834c3d	-0.06411026
27	0x3dfa3d16	0.122186825
28	0xbc131476	-0.008977046
29	0x3e7802ec	0.24219865
30	0x3e4653a5	0.19367845
31	0xbdd96e3d	-0.106167294
32	0x3cd6c3bc	0.02621638
33	0x3ea89536	0.3292634
34	0x3e096127	0.13415967
35	0x3d47c72a	0.048773922
36	0x3bef27df	0.007298454
37	0xbb4384f8	-0.0029833894
38	0x3ec0f94a	0.37690192
39	0xbd07d2d0	-0.03316003
40	0xbe0f8e1a	-0.14019051
41	0x3ce5c36b	0.028047284
42	0x3db00f69	0.08596689
43	0xbdf995d4	-0.121867806
44	0x3e340bf2	0.17582682
45	0xbd2f60a3	-0.04281677
46	0xbd8a9c12	-0.06768049
47	0x3daf4cd9	0.085595794
48	0x3d996a92	0.0749103
49	0x3ba78eb8	0.005113449
50	0x3eacd550	0.33756495
51	0x3dfd67ec	0.12373337
52	0x3c1d0f76	0.009586206
53	0x3e2b1470	0.16707015
54	0xbdb7779e	-0.08958362
55	0x3d52cccc	0.05146484
56	0x3cae0dba	0.02124678
57	0xbd895b5b	-0.06706878
58	0xbe55a536	-0.20863804
59	0xbd85ba7c	-0.0652971
60	0x3e9b6d9d	0.30357066
61	0xbe3e5395	-0.18586572
62	0x3e82c74b	0.25542673
63	0x3d683838	0.05669424
64	0xbe152aac	-0.1456706
65	0x3e5f1768	0.21786273
66	0xbe914c6d	-0.2837862
67	0xbd8ae2b0	-0.067815185
68	0x3cc11d05	0.023573408
69	0x3da9c62f	0.08289754
70	0xbe3483b9	-0.17628373
71	0x3afdb440	0.0019356087
72	0x3d0b99b8	0.034082144
73	0xbc9a4bde	-0.018835004
74	0xbb093562	-0.002093636
75	0xbbcaaf55	-0.006185452
76	0xbcace6d9	-0.02110617
77	0xbdcbff51	-0.09960807
78	0x3e19c28b	0.15015619
79	0xbc5cb401	-0.013470651
80	0x3cdf5458	0.027261898
81	0x3d6986b5	0.057013232
82	0xbd230858	-0.03980288
83	0x3d7d7d46	0.06188705
84	0x3cb33e3f	0.021880267
85	0xbe3dfa72	-0.18552569
86	0x3e0b10d7	0.13580643
87	0x3e32cec4	0.17461687
88	0x3e1bb6b5	0.15206416
89	0x3dfc4928	0.12318641
90	0x3e18ba3a	0.1491479
91	0x3cbbb6a6	0.022914242
92	0xbd5be266	-0.053682707
93	0xbe765a44	-0.24057871
94	0xbd8d4d5f	-0.06899523
95	0x3d9b2c0d	0.075767614
96	0x3e10d1e2	0.14142564
97	0x3e8ae96d	0.27131215
98	0xbd4e17d9	-0.05031571
99	0xba7d9511	-0.00096733967
100	0xbdd345e0	-0.10316062
101	0xbd30dd22	-0.04317964
102	0x3dde5991	0.10856927
103	0x3e85a8fa	0.2610548
104	0x3d128a19	0.03577623
105	0xbda82bc3	-0.08211472
106	0x3b70c27c	0.0036737015
107	0x3d80615d	0.062685706
108	0x3e69d8af	0.22836564
109	0xbe2fa4ef	-0.17152761
110	0x3cf96d4f	0.03044763
111	0x3e85b868	0.26117253
112	0x3e09a387	0.13441287
113	0xbdba23c6	-0.090888545
114	0xbcb6e9a5	-0.022328207
115	0xbca9440f	-0.020662336
116	0xbca0d8c3	-0.01963461
117	0xbdad5c68	-0.08464891
118	0x3e108274	0.14112264
119	0x3e90b917	0.28266212
120	0xbd77ad75	-0.060468156
121	0xbdf367fa	-0.11885066
122	0xbc5b6190	-0.01338996
123	0x3dcaa537	0.098947935
124	0x3d02fe25	0.031980652
125	0xbc79a390	-0.01523675
126	0xbb92f823	-0.0044851466
127	0x3d9de7a4	0.077101976

lstm.bias_hh_l0 f4 [128]
0	0x3bc5ff51	0.006042399
1	0x3eaba550	0.3352456
2	0x3e2a16ac	0.16610211
3	0xbe10cd47	-0.14140807
4	0xbe128a8d	-0.14310665
5	0xbe379c6f	-0.17930768
6	0xbce2c0c9	-0.027679818
7	0xbd494ade	-0.049143665
8	0xbe2a7154	-0.16644794
9	0xbbdddba4	-0.006770568
10	0x3e3da8ca	0.18521419
11	0x3e2072f8	0.15668857
12	0x3e09bcc9	0.13450922
13	0x3db0af66	0.086272046
14	0xbdc14a88	-0.09438044
15	0x3dd34a98	0.10316962
16	0xbd845d28	-0.06463081
17	0x3d7348b9	0.059395526
18	0xbdb5c7d2	-0.08876003
19	0xbd219120	-0.039445043
20	0x3e353bee	0.17698643
21	0x3d3adef6	0.04562279
22	0x3deef687	0.11668115
23	0x3e70e4f0	0.23524833
24	0xbdd01209	-0.1015969
25	0xbda7bc1a	-0.081901744
26	0xbc9e72eb	-0.019341907
27	0x3d8f784f	0.07005369
28	0x3d5a4f25	0.053298134
29	0x3dea3142	0.114351764
30	0xbe0513cc	-0.12995833
31	0x3e03ba71	0.1286409
32	0x3e536759	0.20644893
33	0x3db02c45	0.08602194
34	0xbd18f83a	-0.037346102
35	0x3e84a2d3	0.25905475
36	0xbd55ac2b	-0.052166145
37	0x3d44216d	0.04788344
38	0x3e042c2a	0.12907472
39	0xbcecc082	-0.028900389
40	0xbe2f1c55	-0.17100652
41	0xbd657b23	-0.056025635
42	0xbd018564	-0.03162135
43	0xbe489998	-0.19589841
44	0x3dd5c829	0.10438568
45	0xbc58da0a	-0.013235578
46	0x3d51069d	0.051031698
47	0x3d5c047e	0.05371522
48	0x3e8f6158	0.28003955
49	0x3e2f5284	0.17121321
50	0x3ea3b317	0.31972572
51	0x3e4169d8	0.18888032
52	0x3e8e4872	0.27789646
53	0x3e83fbd7	0.25778076
54	0x3dadcec9	0.08486707
55	0x3e99f212	0.30067497
56	0x3e16b7f4	0.1471861
57	0x3dcbf3c2	0.099586025
58	0x3da71ca5	0.081597604
59	0xbd4d27d4	-0.05008681
60	0x3ddb1593	0.10697474
61	0xbd9dab22	-0.076986566
62	0x3e61f624	0.22066551
63	0xbd57aa6c	-0.05265276
64	0xbe13b572	-0.14424685
65	0x3e68f256	0.22748694
66	0xbdea2663	-0.11433103
67	0x3e336880	0.17520332
68	0x3bb48411	0.0055089076
69	0x3e163b0d	0.14670964
70	0x3dd6ba47	0.10484748
71	0xbdefedcc	-0.11715278
72	0x3e30e7f9	0.1727599
73	0xbd94de94	-0.07269016
74	0x3b35b482	0.0027726
75	0xbd01c95c	-0.031686172
76	0x3e894505	0.2681047
77	0xbdca0c28	-0.098656
78	0x3d78af68	0.060714155
79	0xbde02d61	-0.10946155
80	0x3e75c26b	0.23999946
81	0xbb46fdeb	-0.003036375
82	0xbd8707d5	-0.06593291
83	0xbe1053c4	-0.14094454
84	0xbe6416ee	-0.22274372
85	0xbe500bd0	-0.20317006
86	0x3d4c871d	0.04993354
87	0x3e729a9c	0.23691791
88	0xbd96ab1f	-0.073568575
89	0x3e2c87c7	0.1684867
90	0x3d80257a	0.06257148
91	0x3e316d3d	0.17326827
92	0xbd37708f	-0.04478508
93	0xbe88b21f	-0.26698396
94	0x3e713007	0.23553477
95	0xbd9b5d6a	-0.07586177
96	0xbd590e61	-0.05299223
97	0x3db659d9	0.08903856
98	0x3e95093e	0.29108614
99	0x3e134a04	0.14383703
100	0xbe2acf51	-0.16680647
101	0x3da6b2b9	0.081395574
102	0x3e47733b	0.1947755
103	0x3e88f361	0.26748183
104	0x3cd2e158	0.025742218
105	0x3e7d09b5	0.24710734
106	0x3d2a28e2	0.041542895
107	0xbd7c1b01	-0.06154919
108	0x3db774f6	0.089578554
109	0xbe51a12e	-0.20471641
110	0x3d8c98dc	0.06865093
111	0x3d662c24	0.05619444
112	0x3cbcfd45	0.023069987
113	0xbe09865f	-0.13430165
114	0x3d6a64f3	0.05722518
115	0xbd726442	-0.059177645
116	0x3dbb3b4d	0.0914217
117	0x3da45d92	0.080256596
118	0xbdddff13	-0.10839667
119	0x3d422f97	0.047408666
120	0x3e3bec8a	0.18351951
121	0xbdc2987d	-0.09501741
122	0xbe70c8d9	-0.23514117
123	0xbd91473b	-0.07093664
124	0xbdb17847	-0.08665519
125	0x3e07fd90	0.1328032
126	0xbd8a6dd0	-0.06759226
127	0x3d5f5265	0.054521937

fc.weight f4 [32, 32]
0	0x3db138ea	0.086534336
1	0xbe11541e	-0.14192244
2	0x3dcd4cde	0.10024427
3	0x3d78f940	0.06078458
4	0x3df96b82	0.121787086
5	0x3d8a72e4	0.06760195
6	0xbc394010	-0.011306778
7	0x3d7f8120	0.062379003
8	0xbd897c5c	-0.06713173
9	0xbd42088c	-0.047371432
10	0x3e197b05	0.14988334
11	0x3e13888f	0.14407562
12	0xbc6870a0	-0.014187008
13	0x3e12f6ab	0.14351909
14	0x3d15a460	0.036533713
15	0xbdd2a3d4	-0.10285154
16	0xbe325293	-0.17414312
17	0xbe325439	-0.17414941
18	0x3d72cbfc	0.059276566
19	0xbe117285	-0.14203842
20	0xbd4f509c	-0.050613984
21	0x3c3a2190	0.011360541
22	0xbd815d67	-0.06316643
23	0x3e142dad	0.14470549
24	0x3e32e4e9	0.17470135
25	0x3da830b2	0.08212413
26	0x3d96037a	0.07324882
27	0x3db0173a	0.0859818
28	0xbc80ee60	-0.015738666
29	0x3df6130e	0.12015353
30	0xbe026ae8	-0.12736094
31	0xbe1f1b9d	-0.15537877
32	0xbc81e240	-0.015854955
33	0xbe22f13c	-0.15912336
34	0x3c9473d0	0.01812163
35	0x3e25072b	0.16116016
36	0x3e0c4237	0.13697134
37	0x3d5e62d4	0.05429347
38	0x3e1d1ea9	0.15343727
39	0x3dd8cd32	0.10586013
40	0x3d5b1a0c	0.053491637
41	0xbd9912c6	-0.07474284
42	0x3d24deac	0.04025142
43	0x3da58d3e	0.080835804
44	0x3e08ac41	0.1334696
45	0xbc8bc5c8	-0.017062083
46	0xbe0bec0c	-0.13664263
47	0x3d8d7912	0.06907858
48	0x3da2617a	0.079287484
49	0xbdcf03b2	-0.10108127
50	0x3e319d3b	0.17345135
51	0xbcc11418	-0.023569152
52	0xbdab22d2	-0.08356251
53	0x3e005811	0.12533595
54	0x3d94c06a	0.072632626
55	0x3e22d9e1	0.15903427
56	0xbc0600d0	-0.008178905
57	0xbe2604eb	-0.16212814
58	0x3de1ec9a	0.11031456
59	0xbd5705da	-0.052495815
60	0xbdbd48de	-0.09242414
61	0x3d530df0	0.051526964
62	0x3b526440	0.003210321
63	0xbd89a1dc	-0.06720325
64	0x3e28e219	0.164925
65	0xbd49076c	-0.049079344
66	0x3d9ee4b6	0.07758467
67	0x3d726690	0.059179842
68	0x3d3eed30	0.04661292
69	0x3d96d56e	0.07364927
70	0x3a822a80	0.0009930879
71	0xbe16d900	-0.14731216
72	0xbe03c9a6	-0.12869892
73	0x3e1bd913	0.15219526
74	0xbde623d9	-0.11237306
75	0x3e0601cd	0.13086624
76	0x3e34bc05	0.17649849
77	0x3ce32808	0.02772905
78	0x3c5fe270	0.013664827
79	0xbda2788d	-0.079331495
80	0x3dc03052	0.09384216
81	0xbd49ecb4	-0.049298003
82	0xbd754868	-0.059883505
83	0xbcb59f50	-0.022170693
84	0x3db9006a	0.09033282
85	0x3bb57460	0.0055375546
86	0xbdc46fda	-0.095916465
87	0xbd8c0be7	-0.06838208
88	0x3d2a1e18	0.041532606
89	0xbdc1998e	-0.09453116
90	0x3dd0432e	0.101690635
91	0x3d812e52	0.06307663
92	0xbc5e0ea0	-0.013553292
93	0x3d838c2c	0.0642322
94	0x3e034ddf	0.12822674
95	0x3d645524	0.05574526
96	0xbd51ed70	-0.05125183
97	0x3de29166	0.11062889
98	0x3d8bd8b4	0.06828442
99	0xbc8bf8b8	-0.017086372
100	0x3d815e6e	0.06316839
101	0xbcc46b40	-0.023976922
102	0xbde0e491	-0.109810956
103	0xbddb059f	-0.106944315
104	0xbe15b653	-0.14620332
105	0xbd9829f8	-0.0742988
106	0x3d4022ec	0.046908304
107	0xbe24e9f8	-0.16104877
108	0xbdcf5725	-0.101240434
109	0xbd073f80	-0.033019543
110	0xbdea452f	-0.11438977
111	0xbb7a7000	-0.003821373
112	0xbd943705	-0.07237057
113	0x3da6bc46	0.08141379
114	0x3d94c7b8	0.07264656
115	0xbe312a6a	-0.17301336
116	0xbe272131	-0.16321255
117	0xbd49c9a0	-0.04926455
118	0xbd8ecc43	-0.069725536
119	0x3dc694de	0.09696363
120	0x3e120a8d	0.14261837
121	0x3def1746	0.11674361
122	0x3e210aeb	0.15726821
123	0x3e1843cd	0.14869614
124	0xbd29f874	-0.04149671
125	0x3da3602e	0.07977329
126	0x3db03a3e	0.08604859
127	0x3dcde13a	0.10052724
128	0x3e313a05	0.17307289
129	0x3df6398a	0.120226935
130	0x3df90f22	0.121610895
131	0xbdd008cf	-0.1015793
132	0xbe165cff	-0.14683913
133	0xbd7d5be6	-0.06185522
134	0xbdf875f4	-0.12131873
135	0xbdfb7ccd	-0.12279663
136	0xbe1ddcb8	-0.15416229
137	0x3cd63250	0.026147038
138	0xbdbc8a01	-0.0920601
139	0xbd9a81a4	-0.07544258
140	0xbe055753	-0.13021593
141	0xbdd83ed6	-0.1055886
142	0x3d5bc5b8	0.053655356
143	0x3df30776	0.118666574
144	0x3c500190	0.012695685
145	0xbd97a5c1	-0.07404662
146	0xbe01d103	-0.12677388
147	0x3deacdc2	0.114650264
148	0x3d63e28c	0.055635974
149	0x3d48a000	0.048980713
150	0x3e1bf667	0.15230714
151	0x3e2b0297	0.16700207
152	0x3e0ffbcd	0.14060898
153	0x3d4da27c	0.050203785
154	0xbd65bb2c	-0.056086704
155	0x3cc7b890	0.024379998
156	0x3b86df60	0.004115984
157	0x3e11cd39	0.14238442
158	0x3e24e8bf	0.1610441
159	0xbdaf65c7	-0.08564334
160	0xbde9dee3	-0.114194654
161	0xbdb6aa43	-0.089191936
162	0x3ddcc06e	0.107788906
163	0xbe0527fd	-0.13003536
164	0x3e11edd1	0.14250876
165	0x3e2b1053	0.16705446
166	0xbd18cd54	-0.03730519
167	0x3e2f7de3	0.17137866
168	0x3da72ec2	0.08163215
169	0xbb54f440	-0.0032494217
170	0x3d9857da	0.07438631
171	0xbd2ef650	-0.04271537
172	0x3caff250	0.021477848
173	0x3e0d3ca3	0.13792662
174	0xbde435ba	-0.1114306
175	0xbd5e95bc	-0.054342017
176	0xbceb44a8	-0.028719261
177	0x3dd35742	0.103193775
178	0x3d01614c	0.03158693
179	0x3e07ac55	0.13249333
180	0x3c75c940	0.015001595
181	0xbe2be404	-0.167862
182	0xbda413a5	-0.080115594
183	0xbde0d6b3	-0.109784506
184	0x3c193210	0.009350315
185	0x3e11a35d	0.14222474
186	0x3dc4c0f6	0.09607117
187	0xbdb7d8d7	-0.08976906
188	0xbe056a14	-0.13028747
189	0xbe291f1a	-0.1651577
190	0x3de55c42	0.111992374
191	0x3dd102a2	0.1020558
192	0xbc131d30	-0.008979127
193	0xbe06c118	-0.13159597
194	0xbce90180	-0.028443098
195	0xbd462de0	-0.048383594
196	0x3dfb2b62	0.12264134
197	0xbe03d91d	-0.12875791
198	0x3dbb5102	0.091463104
199	0xbc9a8d10	-0.018866092
200	0x3dbe196e	0.09282194
201	0xbdab3ba3	-0.08360984
202	0xbc7fbf40	-0.015609562
203	0x3d3cb308	0.046069175
204	0x3c842570	0.016131133
205	0xbe02916c	-0.12750787
206	0x3daacba2	0.08339621
207	0x3e0ad6c1	0.13558485
208	0xbd1b7b50	-0.037959397
209	0x3c3a4660	0.011369318
210	0x3de3970a	0.11112793
211	0xbda3d39e	-0.07999347
212	0xbde2012d	-0.110353805
213	0x3dae4ff6	0.08511345
214	0x3da44512	0.080209866
215	0x3e2d54a1	0.16926815
216	0x3ce70cf0	0.028204411
217	0xbd3cfddc	-0.046140537
218	0xbd2be26c	-0.04196398
219	0x3d9761b2	0.07391681
220	0xbd1c22a4	-0.038118973
221	0xbdd4c549	-0.10389192
222	0x3dc466b2	0.095899
223	0xbde10c05	-0.10988621
224	0x3c755af0	0.0149752945
225	0xbd8d582b	-0.06901582
226	0xbe0c16b3	-0.13680534
227	0xbda384eb	-0.079843365
228	0x3dba3852	0.090927735
229	0xbe206c4b	-0.1566631
230	0x3dc344c6	0.09534602
231	0x3e2531a9	0.16132225
232	0x3d21faf4	0.03954597
233	0x3dedf422	0.1161883
234	0x3e0f3eb3	0.13988762
235	0x3d9c9c76	0.0764703
236	0xbc141810	-0.00903894
237	0xbcdf5350	-0.027261406
238	0x3c2c72e0	0.010525435
239	0x3cf3e588	0.029772535
240	0xbd97817e	-0.073977455
241	0x3e0e847f	0.13917731
242	0xbd2389d8	-0.03992638
243	0x3d4ee4c4	0.050511137
244	0xbc73ab30	-0.014872357
245	0xbdc01b7c	-0.09380242
246	0xbd7d0f2e	-0.061782055
247	0x3d8915d4	0.066936165
248	0x3cfe8ba8	0.031072453
249	0xbe0e7676	-0.13912377
250	0xbddda3ea	-0.1082228
251	0x3cdeb868	0.027187541
252	0xbdc60c9b	-0.09670373
253	0xbe16d200	-0.14728546
254	0xbe2cab44	-0.16862208
255	0x3ce6be28	0.028166845

fc.bias f4 [32]
0	0x3e0ca8fb	0.13736336
1	0x3d5aa028	0.053375393
2	0xbcf67d10	-0.030088931
3	0xbd6392a8	-0.055559784
4	0x3da08dbe	0.07839535
5	0x3e237b13	0.15964918
6	0x3dd1ac1e	0.10237907
7	0xbd01af54	-0.031661347
8	0x3e10c87b	0.14138977
9	0x3d8a3a2c	0.06749377
10	0xbd10a81c	-0.03531657
11	0x3bd5eb00	0.0065282583
12	0x3d087764	0.033316985
13	0x3e015751	0.12630965
14	0x3dd99f8e	0.10626136
15	0xbd8b7fad	-0.068114616
16	0x3d578c38	0.052623957
17	0x3d09b670	0.03362125
18	0x3d383774	0.04497476
19	0x3e02dc99	0.12779464
20	0xbc88f1d0	-0.016716868
21	0x3c86ee00	0.01647091
22	0xbdd2d01d	-0.10293601
23	0xbd81147b	-0.063027345
24	0x3dad3386	0.08457093
25	0xbe09671a	-0.13418236
26	0xbdeb8682	-0.11500265
27	0x3e32aa83	0.17447858
28	0x3db23a26	0.08702497
29	0xbc556900	-0.013025522
30	0xbe337f11	-0.1752894
31	0xbdff79cc	-0.12474403
