checkpoints/operation_prediction/cross_attention_model.pth (torch, 76202 bytes, 20 tensors)

cross_attn1.in_proj_weight f4 [96, 32]
-0.14062998 0.08230404 0.2004201 0.13072127 -0.17790872 -0.060070667 0.02318219 -0.20995732
-0.21346766 0.12593532 -0.025208864 -0.111827455 -0.051218525 -0.1513407 -0.19500846 0.083343305
0.1462051 -0.18916084 -0.14136827 -0.19392148 -0.17588302 0.05946799 0.10316516 -0.13014705
-0.051034328 0.043048795 0.18952407 0.2096685 -0.14142576 0.20636104 -0.030144896 -0.19369492
0.14521813 0.13842694 -0.17070481 -0.061173726 -0.02481133 -0.013703114 -0.17959142 0.09976786
0.17396489 -0.0874351 0.10587157 0.04621557 -0.1413075 -0.17701472 0.040426042 0.056962095
-0.10973295 -0.012060729 -0.09061182 -0.031351056 0.19297387 0.18527699 0.15901123 0.12041465
-0.1965135 -0.066607885 0.08050095 0.18127288 -0.058110263 -0.05863795 -0.08850374 -0.101148434
0.11790679 0.20759405 -0.041115534 -0.21281995 0.06526537 -0.036441073 0.08482837 0.035593256
0.15796542 0.054368697 -0.14826733 -0.062336944 -0.20360586 0.11135923 -0.18812817 0.013193209
-0.0077188583 0.037210997 -0.06903112 -0.15464035 0.1368969 -0.16373727 0.1812927 0.11703719
0.20615263 0.15080222 -0.18458581 -0.17717527 -0.072403565 0.1554674 -0.12728679 0.12730852
-0.00729731 -0.035161138 0.12263254 -0.04772791 0.20552891 0.1457912 -0.17855386 0.057609566
0.21442586 0.12961236 -0.1503712 0.19933644 -0.17850798 -0.010621911 0.21237572 -0.15382971
0.1397618 -0.039288614 0.16701828 0.13177882 -0.14369656 -0.05433777 -0.03180363 -0.18266857
0.054759692 -0.07909508 -0.086874045 -0.11742144 0.1626326 0.1662214 -0.018092204 0.015349071
-0.077369265 -0.012382357 0.13523285 0.17741007 0.0127820335 -0.05153057 0.058914788 -0.14685369
-0.07077054 0.015294512 0.14611705 0.11610896 0.06578793 0.08304315 -0.17221399 0.12943175
-0.07524482 -0.20159325 0.057025608 -0.14225316 0.19686663 0.12760812 0.07959561 -0.19023533
-0.11401071 -0.18275094 0.08343586 0.1162303 0.18210365 0.10016046 -0.02584218 -0.20926782
-0.06001117 0.10574865 -0.022516849 0.083555415 0.08838694 -0.013926757 0.17700833 -0.0783891
0.09477317 0.10401363 -0.12076168 0.02652155 0.07353897 -0.11508478 -0.16736053 0.14372745
-0.056156892 -0.21084212 -0.14436233 -0.09020557 0.20157097 -0.12008281 0.03494616 -0.08739549
0.052829314 -0.18872985 0.01916802 -0.073011234 -0.18882237 -0.20277256 0.037207402 0.00090730493
-0.06293099 -0.039009765 0.11359841 0.15731321 -0.008719596 -0.19016309 -0.12786293 0.060219523
-0.020077473 -0.16179721 -0.11792993 -0.17325246 0.007576258 -0.1893516 0.19871737 -0.039734032
-0.1804875 0.024656713 0.16322167 0.1980728 -0.108123824 0.16836874 0.024197148 -0.18649472
-0.0009796137 -0.039309297 0.2039977 -0.010423873 -0.05607304 -0.049294308 -0.14672634 0.12051047
0.111392245 0.16633584 -0.013789704 -0.052691184 0.053543758 -0.18405095 0.06034341 0.17958479
0.21841738 0.117160134 0.2129454 -0.17108682 0.111356445 0.04463244 -0.09539035 0.027623216
0.016323542 0.016080065 0.13735773 0.14550819 0.16225353 0.057490136 0.16169752 -0.14020823
0.029469956 0.060505487 0.04676924 -0.049985196 0.12330948 0.06572331 0.103751406 0.08632235
00000000: 4e01 10be 058f a83d ed3a 4d3e ccdb 053e
00000010: b42d 36be a90c 76bd 93e8 bd3c 0dff 56be
00000020: 4497 5abe 30f5 003e d282 cebc cb05 e5bd
00000030: 84ca 51bd 0ef9 1abe 4cb0 47be e5af aa3d
00000040: cab6 153e 61b3 41be d8c2 10be 5a93 46be
00000050: ae1a 34be b594 733d 4148 d33d 4545 05be
00000060: 5f09 51bd ef53 303d 9912 423e 57b3 563e
00000070: ead1 10be 4f50 533e 6ef2 f6bc f657 46be
00000080: 10b4 143e cbbf 0d3e 3ecd 2ebe 4d91 7abd
00000090: 2141 cbbc 0783 60bc d0e6 37be 1753 cc3d
000000a0: da23 323e 2c11 b3bd 32d3 d83d 8a4c 3d3d
000000b0: eab2 10be 5943 35be c795 253d 1651 693d
000000c0: abbb e0bd 5d9a 45bc b192 b9bd f769 00bd
000000d0: f19a 453e 40b9 3d3e d7d3 223e f59b f63d
000000e0: d63a 49be b769 88bd afdd a43d 999f 393e
000000f0: 0705 6ebd 592e 70bd 7341 b5bd e926 cfbd
00000100: 1d79 f13d 8993 543e c368 28bd 79ed 59be
00000110: daa9 853d 3c43 15bd 7fba ad3d 3cca 113d
00000120: b0c1 213e b6b1 5e3d 64d3 17be 0655 7fbd
00000130: 0e7e 50be 4f10 e43d aca4 40be 5428 583c
00000140: 7aee fcbb 8f6a 183d 3060 8dbd 0a5a 1ebe
00000150: b32e 0c3e beaa 27be cba4 393e 32b1 ef3d
00000160: ad19 533e e66b 1a3e 1004 3dbe 6f6d 35be
00000170: 5248 94bd d932 1f3e 7857 02be 2a5d 023e
00000180: 461e efbb 2005 10bd c526 fb3d 577e 43bd
00000190: 2c76 523e 4a4a 153e d3d6 36be 02f8 6b3d
000001a0: 7492 5b3e 1ab9 043e e8fa 19be da1e 4c3e
000001b0: ccca 36be 8607 2ebc 0579 593e 8985 1dbe
000001c0: b81d 0f3e 19ed 20bd d706 2b3e 07f1 063e
000001d0: 3125 13be 4891 5ebd 8644 02bd 780d 3bbe
000001e0: b34b 603d 9afc a1bd 05eb b1bd a77a f0bd
000001f0: 2989 263e f135 2a3e 1a36 94bc ab7a 7b3c
00000200: c773 9ebd 5fdf 4abc 7b7a 0a3e fcaa 353e
00000210: bc6b 513c b811 53bd a250 713d d060 16be
00000220: 25f0 90bd d595 7a3c b59f 153e 89ca ed3d
00000230: d2bb 863d 8712 aa3d dd58 30be c289 043e
00000240: f519 9abd 766e 4ebe af93 693d d0aa 11be
00000250: 6897 493e b4ab 023e 0603 a33d 0dcd 42be
00000260: 727e e9bd 1023 3bbe 6ce0 aa3d 270a ee3d
00000270: 6179 3a3e ed20 cd3d fbb2 d3bc 4e4a 56be
00000280: 46ce 75bd c092 d83d 4175 b8bc 1a1f ab3d
00000290: 3604 b53d 0d2d 64bc ac41 353e 778a a0bd
000002a0: 7018 c23d 1905 d53d e651 f7bd b943 d93c
000002b0: 999b 963d 92b1 ebbd 8f60 2bbe 4a2d 133e
000002c0: c504 66bd ffe6 57be b8d3 13be b3bd b8bd
000002d0: 9f68 4e3e faed f5bd b423 0f3d 68fc b2bd
000002e0: 8d63 583d 6642 41be 4006 9d3c ea86 95bd
000002f0: a75a 41be 9ca3 4fbe ca66 183d 34d8 6d3a
00000300: f6e1 80bd b4c8 1fbd 48a6 e83d b716 213e
00000310: a3dc 0ebc 1dba 42be 80ee 02be bfa8 763d
00000320: 8379 a4bc 2bae 25be 3f85 f1bd 1869 31be
00000330: 4242 f83b 63e5 41be 917c 4b3e 27c0 22bd
00000340: b7d1 38be e0fc c93c 9523 273e 99d3 4a3e
00000350: 0670 ddbd db68 2c3e 1939 c63c 79f8 3ebe
00000360: 6266 80ba c902 21bd c6e4 503e e4c8 2abc
00000370: d8ac 65bd d4e8 49bd 6e3f 16be 31ce f63d
00000380: 9e21 e43d f153 2a3e 36ee 61bc b6d2 57bd
00000390: b350 5b3d da77 3cbe a72a 773d 13e5 373e
000003a0: cea8 5f3e a7f1 ef3d 5c0e 5a3e 6231 2fbe
000003b0: d90e e43d 81d0 363d 045c c3bd 154a e23c
000003c0: f3b8 853c 57ba 833c 81a7 0c3e 1900 153e
000003d0: ca25 263e c77a 6b3d 0994 253e bf92 0fbe
000003e0: fa6a f13c 9ad4 773d 1a91 3f3d 47bd 4cbd
000003f0: ae89 fc3d f199 863d 9e7b d43d c6c9 b03d

cross_attn1.in_proj_bias f4 [96]
-0.0030024387 -0.0027768807 0.003090129 -0.00300537 0.0029203414 0.002897182 0.0031091797 -0.0026221292
-0.0035287852 -0.0036095616 -0.0016097142 -0.0011760725 -0.00315096 -0.0037441915 0.0029780949 0.0034943963
0.0033404047 -0.003361297 0.0034229024 -0.0035356046 0.00044356042 -0.003333505 0.002819415 0.0034627242
-0.0039483355 0.0047684363 -0.0028973403 0.0042590396 -0.004169718 -0.0027242003 -0.0041799136 -0.0046455674
9.219573e-06 1.7753948e-05 -3.2230637e-06 -2.4424808e-05 -2.2947817e-05 3.6546022e-05 5.8791513e-05 -6.147601e-05
-1.1852082e-05 1.434468e-05 4.824189e-05 -3.690571e-05 1.2325233e-05 9.376654e-06 -4.3510436e-06 7.3053343e-06
-1.1296435e-05 2.004273e-05 2.7768645e-05 -5.2924297e-06 3.652719e-05 5.9110625e-05 4.454961e-05 1.2977282e-05
-8.2002385e-05 -2.7827275e-05 -4.2030748e-05 -4.111873e-06 1.8168896e-05 3.7491038e-05 1.7255477e-05 3.087509e-05
-0.0012746362 0.0027836834 -0.0038125203 -0.0026592966 -0.00408223 0.0012099281 0.0032176042 0.001450644
0.00056527427 -0.0019512686 0.0044965106 0.0035448098 0.004356414 -0.0034202312 -0.0041177375 0.0029953946
-0.002533934 -0.00019051763 0.003535838 0.0021978952 0.003933066 -0.0031289547 0.0012691509 0.0035511546
0.0041179312 0.0038821765 -0.0042653247 0.0046022255 0.0028459614 -0.0035662835 9.9503246e-05 -0.002991385
00000000: 90c4 44bb 54fc 35bb c383 4a3b bef5 44bb
00000010: 3363 3f3b a6de 3d3b 61c3 4b3b 07d8 2bbb
00000020: 3143 67bb 658e 6cbb 0cfd d2ba 7226 9aba
00000030: 5680 4ebb 1c61 75bb 242c 433b 3e02 653b
00000040: b1ea 5a3b 3549 5cbb c652 603b 9ab5 67bb
00000050: ac8d e839 ef76 5abb efc5 383b dfee 623b
00000060: 0a61 81bb 8b40 9c3b 4ee1 3dbb 6a8f 8b3b
00000070: 21a2 88bb 7f88 32bb a8f7 88bb d839 98bb
00000080: c4ad 1a37 50ee 9437 d04b 58b6 e0e3 ccb7
00000090: 1080 c0b7 fe48 1938 e896 7638 aeec 80b8
000000a0: 4ed8 46b7 eea9 7037 5657 4a38 34cb 1ab8
000000b0: 79c8 4e37 6c50 1d37 2eff 91b6 5820 f536
000000c0: d285 3db7 6f21 a837 b6f0 e837 a095 b1b6
000000d0: c634 1938 8ded 7738 c8da 3a38 00b9 5937
000000e0: b2f8 abb8 9e6e e9b7 2c4a 30b8 b8f8 89b6
000000f0: 6869 9837 b23f 1d38 dbbf 9037 e07f 0138
00000100: b211 a7ba 756e 363b 7adb 79bb 9847 2ebb
00000110: 3ac4 85bb 7396 9e3a 71de 523b 8923 be3a
00000120: ea2e 143a b6c1 ffba 7757 933b 0a50 683b
00000130: 40c0 8e3b f525 60bb 16ee 86bb 624e 443b
00000140: 5c10 26bb b0c5 47b9 85b9 673b 900a 103b
00000150: f3e0 803b 260f 4dbb a359 a63a 7dba 683b
00000160: b6ef 863b 1d6c 7e3b 23c4 8bbb 44ce 963b
00000170: 4f83 3a3b 4fb8 69bb 66ac d038 1d0b 44bb

cross_attn1.out_proj.weight f4 [32, 32]
0.089298055 -0.044637296 0.13105538 0.14479962 -0.13847306 0.17571059 -0.16144274 0.04291842
0.15678541 0.0914175 0.15888913 0.09810994 -0.16382688 -0.009848639 -0.17441949 0.063104816
0.09162041 0.041223645 -0.12497953 -0.07360328 -0.00044806057 -0.12819447 0.008853057 -0.13270906
0.022716664 0.008409624 -0.16139723 0.16815507 0.007690582 0.11182771 -0.0390313 -0.14850572
-0.16154152 -0.13895991 0.056374304 0.13045968 0.017924156 0.09390645 -0.000895498 -0.053001586
0.11645351 0.059288695 -0.17144397 0.014544542 0.061990432 0.09037069 0.071001746 -0.13961804
0.12449029 -0.08390963 -0.114043154 -0.15772684 0.17236377 -0.11855398 -0.0988627 -0.03031526
0.049805354 -0.17929001 0.14936109 0.016271768 -0.104998894 0.08633392 0.134437 -0.10125864
0.048217013 0.10919356 0.12314329 0.08205315 0.13183562 -0.021015104 -0.1293761 -0.054565966
-0.051513 0.14910471 0.1736978 0.14664136 0.11215946 -0.11235746 -0.093600646 -0.049117763
0.061721973 -0.10286066 -0.043677904 -0.0715359 -0.0953057 0.083555214 0.13105488 -0.09779478
0.1643921 -0.054034047 0.0009628419 0.16427204 -0.0010439334 -0.010450264 -0.10010273 0.16601777
-0.1021241 0.10772054 0.026773984 -0.1519136 -0.07223535 -0.14839442 -0.06546541 0.010205868
0.10786924 -0.09640005 -0.024528824 -0.05689388 -0.011027657 -0.067983784 0.123770975 -0.16435182
-0.03957805 -0.10856801 0.09291623 -0.098880835 -0.081582904 -0.14658223 -0.08533215 -0.104382165
0.023458943 -0.18024635 -0.13538498 -0.074678175 -0.0446726 -0.030048547 0.15192516 -0.021621397
0.014296676 0.07363132 -0.11773 0.13826421 0.17656168 -0.07753025 0.17343596 -0.15386125
-0.07926157 -0.09415744 0.06849679 0.10644937 0.1067071 0.08682617 0.16516162 -0.0471399
0.053763777 -0.15314893 0.01498715 0.04216423 0.15280361 -0.06451826 -0.057700194 0.1299545
0.13003936 0.08432086 -0.13811903 0.028649129 0.17060636 -0.1512241 0.13741638 -0.13147601
0.069171675 0.00029698655 0.07072087 0.16945782 -0.028048541 0.08639915 -0.16860738 0.08351247
-0.04345684 0.13506065 -0.1533058 0.15234368 -0.120869204 0.14500771 0.17236224 -0.07729538
0.055523306 0.03673791 0.033081815 0.16297607 0.15222584 0.1033594 -0.039976865 -0.14045525
0.06100983 0.042615566 -0.14977825 -0.04275413 -0.16491793 0.16326803 0.088495016 0.13110562
-0.042582136 0.16651967 -0.14057168 -0.172775 -0.11635909 0.10760698 0.001101552 -0.17746656
-0.043197233 0.01607487 0.11822317 -0.009733199 -0.1623072 0.06417982 -0.17180122 -0.13103898
0.08237276 -0.09507035 -0.06465851 -0.00038022888 -0.1282537 0.07477898 -0.02126306 -0.16496958
-0.15372884 -0.09962925 -0.050152678 -0.05780868 0.012832231 0.00013994012 0.17558946 -0.03672612
-0.10532609 0.095307186 -0.17429997 -0.06154861 0.15649854 0.16316561 -0.17688133 0.10025649
-0.1344303 -0.030604573 0.106300525 0.10036539 0.0959501 -0.0029832316 -0.03295882 -0.16841544
0.091320254 -0.14358155 -0.11905584 0.10219017 -0.10073929 -0.17269087 -0.0951197 -0.044837236
-0.038109846 -0.15059735 -0.010578845 0.08493749 0.15897888 0.044962224 -0.09927663 -0.13961935
00000000: e6e1 b63d 99d5 36bd 6233 063e 5a46 143e
00000010: e2cb 0dbe 7aed 333e 3f51 25be 3acb 2f3d
00000020: 5b8c 203e 1939 bb3d d5b3 223e dded c83d
00000030: 3cc2 27be 305c 21bc 069b 32be 193d 813d
00000040: 7ba3 bb3d 20da 283d 45f5 ffbd 51bd 96bd
00000050: ace9 eab9 6945 03be 6a0c 113c e2e4 07be
00000060: 4c18 ba3c 85c8 093c 5145 25be d830 2c3e
00000070: 4701 fc3b ed05 e53d 49df 1fbd e211 18be
00000080: 246b 25be 824b 0ebe bee8 663d 3997 053e
00000090: aed5 923c 0652 c03d dabf 6aba 3118 59bd
000000a0: 2e7f ee3d b4d8 723d 028f 2fbe 3b4c 6e3c
000000b0: aee9 7d3d 4514 b93d 5d69 913d 08f8 0ebe
000000c0: c4f4 fe3d d0d8 abbd 758f e9bd 2583 21be
000000d0: 2180 303e 6ecc f2bd 8778 cabd b557 f8bc
000000e0: b300 4c3d cd97 37be 1df2 183e 5f4c 853c
000000f0: a909 d7bd d7cf b03d daa9 093e b160 cfbd
00000100: 347f 453d e0a0 df3d 8d32 fc3d 7b0b a83d
00000110: ebff 063e de27 acbc 2b7b 04be 9080 5fbd
00000120: 4cff 52bd e8ae 183e d6dd 313e 2729 163e
00000130: dcb3 e53d ab1b e6bd b2b1 bfbd b52f 49bd
00000140: 2ed0 7c3d 9ca8 d2bd 9ae7 32bd 6a81 92bd
00000150: a32f c3bd ff1e ab3d 4033 063e a148 c8bd
00000160: 6756 283e ce52 5dbd 3a67 7c3a ee36 283e
00000170: 98d4 88ba 9637 2bbc a902 cdbd 9000 2a3e
00000180: 7126 d1bd 969c dc3d 1d55 db3c 3d8f 1bbe
00000190: 21f0 93bd b5f4 17be bb12 86bd 8336 273c
000001a0: 8cea dc3d 646d c5bd acf0 c8bc 8f09 69bd
000001b0: 59ad 34bc 153b 8bbd a37b fd3d d84b 28be
000001c0: 981c 22bd e858 debd dd4a be3d 0982 cabd
000001d0: f014 a7bd a719 16be 9fc2 aebd 51c6 d5bd
000001e0: f82c c03c 8092 38be 5ca2 0abe dff0 98bd
000001f0: 9efa 36bd 5f28 f6bc 4592 1b3e 5b1f b1bc
00000200: 9b3c 6a3c 04cc 963d 6d1c f1bd 2295 0d3e
00000210: 96cc 343e 2ec8 9ebd 3299 313e ce8d 1dbe
00000220: e453 a2bd 9ed5 c0bd 0c48 8c3d 2102 da3d
00000230: 4189 da3d ebd1 b13d 2120 293e c515 41bd
00000240: 6837 5c3d 13d3 1cbe aa8c 753c 66b4 2c3d
00000250: 8d78 1c3e 2622 84bd 0a57 6cbd cb12 053e
00000260: 0a29 053e 6ab0 ac3d 136f 0dbe 94b1 ea3c
00000270: 6fb3 2e3e 7eda 1abe e1b6 0c3e a6a1 06be
00000280: e1a9 8d3d dcb4 9b39 1ad6 903d 5a86 2d3e
00000290: 0ec6 e5bc 0af2 b03d 6aa7 2cbe 9608 ab3d
000002a0: cdff 31bd 574d 0a3e 32fc 1cbe fbff 1b3e
000002b0: 468a f7bd e77c 143e ba7f 303e 0a4d 9ebd
000002c0: 686c 633d 7e7a 163d cc80 073d 33e3 263e
000002d0: 17e1 1b3e 18ae d33d c8be 23bd 80d3 0fbe
000002e0: 72e5 793d a98d 2e3d 785f 19be f41e 2fbd
000002f0: 3fe0 28be bc2f 273e e03c b53d 8d40 063e
00000300: 9b6a 2ebd 2284 2a3e 06f2 0fbe eeeb 30be
00000310: ad4d eebd 0c61 dc3d f461 903a cbb9 35be
00000320: 95ef 30bd 72af 833c fd1e f23d ff77 1fbc
00000330: dc33 26be b670 833d a9ec 2fbe 152f 06be
00000340: 0db3 a83d 3eb4 c2bd ae6b 84bd 7559 c7b9
00000350: f054 03be b925 993d de2f aebc c9ed 28be
00000360: 186b 1dbe 6c0a ccbd e56c 4dbd cbc8 6cbd
00000370: 473e 523c e4bc 1239 b9cd 333e 216e 16bd
00000380: 34b5 d7bd 6a30 c33d b17b 32be 651a 7cbd
00000390: 2741 203e e314 273e 6120 35be 4653 cd3d
000003a0: 19a8 09be 71b6 fabc 17b4 d93d 5f8c cd3d
000003b0: 7c81 c43d 5282 43bb d4ff 06bd 1975 2cbe
000003c0: 1d06 bb3d 0b07 13be 8cd3 f3bd 1449 d13d
000003d0: 6750 cebd e0d5 30be 1ece c2bd 40a7 37bd
000003e0: 1219 1cbd 3136 1abe e452 2dbc b5f3 ad3d
000003f0: 5ccb 223e 4f2a 383d 8c51 cbbd 60f8 0ebe

cross_attn1.out_proj.bias f4 [32]
0.003939181 -0.0025001646 -0.0030929479 -0.004957631 0.0029586775 -0.003719972 -0.0031692658 0.0022467265
0.0030650878 -0.0040981863 0.00044587132 0.0009444779 0.0033716962 0.003451211 0.00258841 0.002303029
-0.0033267138 0.0030128197 0.0038441226 0.003504852 0.0036535545 -0.004473684 -0.00021705721 0.0027598161
-0.0024510226 -0.003260803 -0.0011529077 0.003417341 -0.004371667 -0.0027624066 0.002702435 -0.0036780979
00000000: 3f14 813b cdd9 23bb 0eb3 4abb a073 a2bb
00000010: 5fe6 413b c6ca 73bb 75b3 4fbb d13d 133b
00000020: a4df 483b 144a 86bb d6c3 e939 d796 773a
00000030: adf7 5c3b b62d 623b 50a2 293b 6aee 163b
00000040: ff04 5abb ba72 453b aded 7b3b a9b1 653b
00000050: 7970 6f3b fb97 92bb da99 63b9 08de 343b
00000060: 56a1 20bb 32b3 55bb 2a1d 97ba 78f5 5f3b
00000070: 3340 8fbb 7e09 35bb 561b 313b 3e0c 71bb

cross_attn2.in_proj_weight f4 [96, 32]
0.029835548 0.17171049 -0.20990485 -0.14071068 -0.21739335 -0.18254858 0.15692888 -0.07404426
-0.07267929 0.17019527 -0.21057951 -0.049296346 0.053244293 -0.18845226 0.032272793 0.08714319
0.009805738 0.12086494 -0.032224797 -0.06375731 -0.13177699 0.040267657 0.08010306 -0.019405404
-0.09962715 -0.015055059 0.092802495 0.14729472 -0.08683268 -0.21515803 0.09693874 -0.108349815
0.21416767 0.12695241 0.0685886 0.0036243848 -0.143829 0.21209708 -0.11632828 0.019492589
0.14598748 0.17525224 -0.06743012 -0.046624325 0.21404912 0.13603057 0.10629418 -0.10450621
0.10840783 -0.009878535 0.13884838 0.15442337 0.0012642129 -0.012361441 -0.1922861 -0.06668206
0.15652099 -0.1629661 -0.17423226 -0.041537434 -0.21298121 0.019417686 0.055079762 0.03622811
0.16988295 -0.1595394 0.14744341 0.043750685 -0.12264302 -0.11847496 0.17890929 0.09229969
0.072028354 0.1563061 -0.16257954 -0.09958356 -0.19047551 0.18186924 0.1817454 0.10057585
-0.033671588 -0.033006 0.10954183 0.07929551 -0.04111328 0.04373019 0.115274 -0.11232266
0.19986065 -0.09229555 -0.02781416 -0.1550946 -0.19800432 0.19428451 -0.038243704 -0.041351214
-0.08765489 -0.023250727 0.0726456 -0.07589371 -0.17303132 0.17431524 -0.037837405 0.06822613
-0.04004994 -0.040853273 -0.026834749 0.07215983 0.15405156 0.1499278 -0.15954822 -0.1473554
-0.09595828 -0.11049868 -0.16908936 0.17086114 0.18638673 -0.1526628 -0.042078856 -0.06792242
0.022889402 -0.12576188 0.1476034 0.012178632 0.1330186 0.06300846 -0.041146383 -0.20705311
-0.18415934 -0.010372852 -0.11144483 0.022762882 0.060856808 -0.18757689 0.0822068 0.15627262
0.08892278 -0.044414725 -0.043636367 0.06684264 0.08173352 0.09600332 -0.11044982 -0.12351059
0.18086982 -0.02399901 0.10431477 -0.065349445 -0.18854761 0.11699783 0.20222372 -0.12294373
-0.106359385 0.10270282 -0.18908805 0.06877662 -0.20226617 0.06904434 0.07026076 0.038383693
0.0869263 -0.0985088 0.16082203 -0.18466182 0.16531561 -0.11550374 -0.15032864 -0.19662288
-0.14475624 -0.14834182 0.10148354 -0.21637958 0.21908341 0.17495848 -0.00071259815 -0.004512535
-0.13463315 -0.12311875 -0.20383127 -0.09255989 -0.12454013 -0.1673787 -0.042568296 -0.08652603
-0.20288308 -0.20488416 -0.18242379 -0.022184983 0.17498337 0.13896738 -0.04522297 0.0363224
-0.1901203 -0.07852386 0.13001598 -0.091148086 -0.05289262 0.104413256 0.05115322 -0.20716077
0.10676835 0.20564283 -0.14856455 0.09783277 0.10568106 0.0543308 -0.069209024 0.15528905
-0.18916069 -0.016663918 -0.042112228 0.17880365 0.056634296 -0.05244501 0.07621049 -0.06582461
-0.14996567 -0.081541926 0.12939216 0.20665409 0.0927631 0.19135797 0.17240115 0.17657459
-0.10165163 -0.097717024 -0.07109635 0.12333315 0.12528455 -0.083086476 0.02975076 0.18312515
0.152397 0.07051385 -0.13354693 -0.020233102 0.19588669 0.0048050154 0.1904418 0.06610473
0.010499036 -0.10249585 -0.16702726 0.026181845 0.17140003 -0.18879257 -0.11833716 -0.06429996
0.010335394 0.16611329 0.02398752 0.092266604 0.12939045 0.014498189 -0.061311614 -0.12639248
00000000: ae69 f43c e0d4 2f3e 4cf1 56be 7616 10be
00000010: 5d9c 5ebe 04ee 3abe f7b1 203e 84a4 97bd
00000020: e1d8 94bd ab47 2e3e 28a2 57be f7ea 49bd
00000030: b016 5a3d a1f9 40be 7a30 043d 2178 b23d
00000040: 3fa8 203c 0a88 f73d 26fe 03bd 3193 82bd
00000050: 8cf0 06be b3ef 243d 130d a43d 15f8 9ebc
00000060: 5209 ccbd 7fa9 76bc 3c0f be3d 6dd4 163e
00000070: 55d5 b1bd 6352 5cbe d187 c63d 82e6 ddbd
00000080: c54e 5b3e d0ff 013e 2e78 8c3d 1687 6d3b
00000090: e947 13be fa2f 593e 853d eebd ecae 9f3c
000000a0: be7d 153e 5375 333e ce18 8abd 26f9 3ebd
000000b0: b12f 5b3e 994b 0b3e c3b0 d93d 5a07 d6bd
000000c0: ed04 de3d 94d9 21bc 452e 0e3e 2921 1e3e
000000d0: f2b3 a53a a487 4abc a6e6 44be 9b90 88bd
000000e0: 0a47 203e 96e0 26be f169 32be 2823 2abd
000000f0: bf17 5abe d711 9f3c 519b 613d ed63 143d
00000100: ccf5 2d3e 4c5e 23be 68fb 163e eb33 333d
00000110: 432c fbbd 00a3 f2bd ff33 373e 9f07 bd3d
00000120: 9a83 933d b50e 203e 407b 26be 77f2 cbbd
00000130: 030c 43be ee3b 3a3e 771b 3a3e b6fa cd3d
00000140: 38eb 09bd 4d31 07bd 7857 e03d af65 a23d
00000150: 6666 28bd 6d1e 333d c614 ec3d 6c09 e6bd
00000160: 45a8 4c3e 7305 bdbd 85da e3bc 1ed1 1ebe
00000170: a5c1 4abe 85f2 463e 6ea5 1cbd e45f 29bd
00000180: 6884 b3bd 4f78 bebc 37c7 943d 296e 9bbd
00000190: 1f2f 31be b27f 323e 65fb 1abd 24ba 8b3d
000001a0: 680b 24bd c355 27bd 8cd4 dbbc 88c8 933d
000001b0: b1bf 1d3e ac86 193e 9c60 23be 55e4 16be
000001c0: c685 c4bd 224d e2bd c325 2dbe 39f6 2e3e
000001d0: 2adc 3e3e a353 1cbe e15a 2cbd e91a 8bbd
000001e0: 8e82 bb3c b9c7 00be 5825 173e e388 473c
000001f0: 0736 083e 940a 813d 1c89 28bd bb05 54be
00000200: 4494 3cbe e5f2 29bc 303d e4bd 3979 ba3c
00000210: fd44 793d 2814 40be 0a5c a83d ee05 203e
00000220: 251d b63d 37ec 35bd 0cbc 32bd cbe4 883d
00000230: e763 a73d 639d c43d 8433 e2bd 1ff3 fcbd
00000240: f035 393e 9299 c4bc fba2 d53d eed5 85bd
00000250: a012 41be 8f9c ef3d bc13 4f3e ecc9 fbbd
00000260: f3d2 d9bd db55 d23d 4ca0 41be c2da 8c3d
00000270: dd1e 4fbe 1e67 8d3d e0e4 8f3d 3838 1d3d
00000280: 6a06 b23d fbbe c9bd 88ae 243e fd17 3dbe
00000290: 7f48 293e 3a8d ecbd c0ef 19be 8257 49be
000002a0: fb3a 14be ebe6 17be 9ad6 cf3d 9c92 5dbe
000002b0: 6757 603e 5128 333e a7cd 3aba e3dd 93bb
000002c0: 46dd 09be af25 fcbd 25b9 50be 0a90 bdbd
000002d0: e50e ffbd 5265 2bbe 185c 2ebd 8f34 b1bd
000002e0: 95c0 4fbe 27cd 51be 4dcd 3abe 48bd b5bc
000002f0: d72e 333e 774d 0e3e b93b 39bd ccc6 143d
00000300: e5ae 42be 1ed1 a0bd e922 053e d9ab babd
00000310: efa5 58bd 9ed6 d53d 0a86 513d f421 54be
00000320: 5da9 da3d 0994 523e 4e21 18be 8c5c c83d
00000330: 506f d83d f989 5e3d 76bd 8dbd 1804 1f3e
00000340: 57b3 41be c582 88bc df7d 2cbd 4e18 373e
00000350: 5df9 673d 94d0 56bd 3f14 9c3d 0ecf 86bd
00000360: 9a90 19be 74ff a6bd 617f 043e 219d 533e
00000370: 95fa bd3d 58f3 433e ed89 303e f8cf 343e
00000380: bb2e d0bd dd1f c8bd f79a 91bd 1796 fc3d
00000390: 984a 003e 3e29 aabd deb7 f33c 2985 3b3e
000003a0: f60d 1c3e 9169 903d 87c0 08be e4bf a5bc
000003b0: 8596 483e 6473 9d3b 2d03 433e eb61 873d
000003c0: 2604 2c3c 58e9 d1bd 3209 2bbe 4f7b d63c
000003d0: 7d83 2f3e d752 41be c15a f2bd b3af 83bd
000003e0: c955 293c 9a19 2a3e 7a81 c43c 46f6 bc3d
000003f0: ee7e 043e d089 6d3c e321 7bbd 086d 01be

cross_attn2.in_proj_bias f4 [96]
0.0030003036 -0.002369295 -0.0031466635 0.0030364024 -0.0031797234 0.0029035113 -0.0014093994 -0.0030509913
0.0011641302 -0.0029247552 -0.002251544 -0.0030843925 -0.0032700952 -0.0019637465 0.0033279296 -0.003188198
-0.0033269795 -0.0032737055 0.0031278585 0.0020912034 -0.0034319456 0.0032873077 0.0031859954 0.0031429727
0.003444435 -0.003452762 -0.0032088386 -0.003436075 -0.0034341668 -0.0033396003 0.0021632882 0.0034564699
-6.158416e-06 5.9212753e-06 4.344715e-06 1.8670318e-06 -5.7509856e-06 -1.3261775e-06 -2.5812392e-06 1.6064661e-06
-9.0053624e-07 4.353023e-06 -3.1685147e-06 -3.0280244e-06 -1.6390899e-06 2.450338e-06 -2.0519788e-06 9.7690845e-06
-3.345941e-05 -3.2010843e-07 1.0797616e-07 -4.798455e-06 4.5132992e-06 -3.3095207e-06 -6.427642e-06 -3.895637e-06
-3.6981266e-06 3.7597904e-06 -9.195955e-06 8.238048e-06 -7.975615e-06 -2.818767e-05 -1.6495437e-07 5.761324e-07
0.0022628854 -0.0011901865 0.0013228144 -0.0010453517 0.004458189 -0.0042586857 0.0032481826 -0.00023302517
-0.0018203557 -0.0024976446 -0.0031464063 -0.0026159468 -0.0033393605 0.003414209 -0.0021627839 0.0012031128
0.00345118 0.00039872763 0.003691319 0.004627696 0.0007072102 0.00415501 0.001120314 -0.00033486806
-0.00015219615 0.0026789196 -0.0025428685 0.0024280394 0.0027687321 0.004192482 -0.0047848504 -0.0013749059
00000000: bea0 443b 2d46 1bbb 4138 4ebb 61fe 463b
00000010: e862 50bb d648 3e3b 99bb b8ba 24f3 47bb
00000020: ba95 983a 40ad 3fbb a48e 13bb 8523 4abb
00000030: 184f 56bb 33b2 00bb 6519 5a3b 16f1 50bb
00000040: 7409 5abb aa8b 56bb c2fc 4c3b 920c 093b
00000050: 7eea 60bb df6f 573b 22cc 503b 55fa 4d3b
00000060: 08bc 613b bc47 62bb 614b 52bb c62f 61bb
00000070: c20f 61bb 32dd 5abb f4c5 0d3b f185 623b
00000080: 64a4 ceb6 5eaf c636 d1c8 9136 b996 fa35
00000090: 97f8 c0b6 1dff b1b5 5a39 2db6 c19d d735
000000a0: 61bc 71b5 2f10 9236 aba2 54b6 1035 4bb6
000000b0: b3fe dbb5 7c70 2436 bab4 09b6 e6e5 2337
000000c0: c556 0cb8 5edb abb4 86e0 e733 6a02 a1b6
000000d0: f270 9736 2219 5eb6 06ad d7b6 44b7 82b6
000000e0: 552d 78b6 b550 7c36 5348 1ab7 2636 0a37
000000f0: 01cf 05b7 8f74 ecb7 501e 31b4 84a7 1a35
00000100: eb4c 143b 0800 9cba 4962 ad3a 2f04 89ba
00000110: 0016 923b 728c 8bbb 76df 543b 3858 74b9
00000120: 0099 eeba 86af 23bb f033 4ebb 4e70 2bbb
00000130: 2cd9 5abb ecc0 5f3b 7ebd 0dbb c4b1 9d3a
00000140: 312d 623b 510c d139 0eea 713b eda3 973b
00000150: 1364 393a c026 883b 80d7 923a 3b91 afb9
00000160: d896 1fb9 d090 2f3b 41a6 26bb be1f 1f3b
00000170: 9e73 353b 1761 893b 3cca 9cbb 3036 b4ba

cross_attn2.out_proj.weight f4 [32, 32]
-0.1716615 -0.09511198 -0.061747175 -0.12927783 -0.048998978 0.1744292 -0.0526295 0.008145787
-0.15426083 -0.07384696 0.022736369 0.15046574 0.10699927 -0.10608582 -0.11388116 0.15816051
-0.08471027 0.0064219087 0.09274287 -0.08494567 0.02845774 0.09858973 -0.10336476 -0.11945363
0.011917422 0.15528311 -0.08613751 -0.010787269 0.029403755 -0.03060643 0.041550685 -0.0857648
0.094668984 0.09307051 -0.10251545 0.08722928 -0.084989145 0.10671159 -0.14985044 -0.1062787
-0.043879945 0.010449273 0.094553955 -0.043175943 0.090166815 -0.11423484 -0.02202978 -0.1705237
-0.109010294 0.0029629744 0.017060373 0.09242046 -0.17404382 -0.041989636 -0.15856344 -0.11490904
-0.0117788715 -0.17234948 0.060624804 -0.06870234 -0.08221441 -0.1579369 0.11333098 -0.17147389
-0.053216547 0.060660258 0.043872163 0.0044694385 -0.02581511 0.17747769 -0.11020782 0.021057446
-0.14254208 0.013682989 0.10837707 -0.078233294 -0.07032791 -0.034301333 0.05545285 0.10072308
0.05558939 -0.052194435 0.122117676 -0.1484973 0.091823965 -0.15191397 -0.0029667106 0.11084481
0.12995918 -0.1517977 -0.040914476 -0.1719505 -0.115020745 -0.08592225 0.1428134 -0.071722545
0.1724987 0.041270874 -0.15535522 0.15497202 0.041203484 0.1555739 0.1272897 -0.021543957
-0.07809674 -0.0001386743 0.014432276 -0.16603419 -0.046800278 -0.14363556 -0.05006406 0.004058509
0.029487947 -0.10354286 -0.16437466 -0.11013303 0.087237045 -0.0844976 -0.048066765 0.057132103
-0.001440815 0.015498229 0.16792434 -0.0598509 0.0015952557 0.072724685 -0.018587848 -0.005687619
0.15335362 0.08147709 -0.057672262 0.12203493 0.1674886 -0.025664285 -0.046036214 0.029271847
0.06680897 -0.05137934 0.15122162 -0.17300111 -0.043024972 0.079789095 -0.06203698 -0.021901827
0.1535762 0.13422029 0.07271505 0.05654468 -0.14254466 0.15209228 -0.1533596 0.028562699
-0.093174234 0.040003408 -0.03885962 0.040533464 0.11700134 -0.08459524 -0.030852813 -0.1349626
-0.07110476 0.11227117 0.041006315 0.015743937 -0.14462887 0.036232706 -0.12571773 0.03635432
-0.15316868 0.11140059 -0.1524075 0.107235484 0.16520461 0.10417787 -0.016433405 -0.101790376
0.04799947 0.08625758 -0.0075267195 -0.051748633 0.09351696 0.019934194 -0.10429363 -0.1405429
-0.06374006 -0.17711705 -0.12603173 0.035270955 -0.09321318 -0.1584816 0.05817336 -0.02915768
-0.105239145 0.096205965 0.00429522 -0.03243141 -0.057136003 0.11587978 0.06925839 0.16166756
0.15737621 -0.10471704 0.024633914 0.047850084 -0.035627358 -0.012708645 0.08629222 -0.1404447
0.066364035 -0.11527658 -0.060510155 -0.085961424 0.07615994 -0.15215313 0.106983125 0.11245191
-0.084280014 0.110942945 -0.091719225 0.044713557 -0.12912993 -0.0742014 -0.034186147 -0.07529676
0.16407242 0.14919402 0.10742285 -0.026101938 0.048851367 -0.038057685 0.079518154 0.019100504
-0.1349854 -0.06002694 -0.027385648 0.15924981 -0.11879495 -0.116598845 -0.084785014 -0.014375115
0.103393085 -0.11482503 0.14899592 0.16283035 0.1468895 0.13391857 -0.12262469 0.060311668
-0.14791003 0.0071443794 -0.028849117 0.1535547 -0.095545635 -0.0011611299 -0.034916747 -0.15634063
00000000: 08c8 2fbe 12ca c2bd 9bea 7cbd 6861 04be
00000010: 27b3 48bd 919d 323e 0892 57bd e875 053c
00000020: 8df6 1dbe 133d 97bd 9f41 ba3c b113 1a3e
00000030: 6f22 db3d 8643 d9bd 873a e9bd d4f4 213e
00000040: 947c adbd e06e d23b f9ef bd3d fff7 adbd
00000050: 3520 e93c 6ae9 c93d e7b0 d3bd 1ba4 f4bd
00000060: 4a41 433c 8902 1f3e dd68 b0bd 16bd 30bc
00000070: 25e0 f03c 56ba fabc 0d31 2a3d 75a5 afbd
00000080: d0e1 c13d c09b be3d 9ff3 d1bd 44a5 b23d
00000090: ca0e aebd 9b8b da3d 6572 19be a6a8 d9bd
000000a0: 75bb 33bd 6d33 2b3c 81a5 c13d 42d9 30bd
000000b0: 61a9 b83d f5f3 e9bd cc77 b4bc c49d 2ebe
000000c0: ca40 dfbd 762e 423b 32c2 8b3c f046 bd3d
000000d0: 8b38 32be 53fd 2bbd 745e 22be 6e55 ebbd
000000e0: 2bfc 40bc 627c 30be b751 783d d0b3 8cbd
000000f0: 0760 a8bd 36ba 21be 131a e83d da96 2fbe
00000100: 98f9 59bd e476 783d 4cb3 333d 5e74 923b
00000110: 367a d3bc b6bc 353e a3b4 e1bd aa80 ac3c
00000120: 8df6 11be 9e2e 603c ccf4 dd3d c738 a0bd
00000130: 1408 90bd 8e7f 0cbd 8722 633d e747 ce3d
00000140: b3b1 633d d5c9 55bd d518 fa3d ad0f 18be
00000150: 340e bc3d 568f 1bbe 256d 42bb 9b02 e33d
00000160: 0514 053e db70 1bbe f095 27bd cb13 30be
00000170: ff8f ebbd 01f8 afbd ad3d 123e 45e3 92bd
00000180: 80a3 303e a60b 293d 7015 1fbe fcb0 1e3e
00000190: fcc4 283d c44e 1f3e 3b58 023e f47c b0bc
000001a0: 2ff1 9fbd 1969 11b9 5a75 6c3c de04 2abe
000001b0: a6b1 3fbd 3315 13be f90f 4dbd 3efd 843b
000001c0: b590 f13c 470e d4bd d551 28be 6d8d e1bd
000001d0: 56a9 b23d 140d adbd a8e1 44bd 5a03 6a3d
000001e0: bbd9 bcba 49ec 7d3c 5cf4 2b3e 3826 75bd
000001f0: e617 d13a aef0 943d 8b45 98bc 355f babb
00000200: bb08 1d3e 76dd a63d c039 6cbd 73ed f93d
00000210: 2282 2b3e e83d d2bc 7890 3cbd 83cb ef3c
00000220: 24d3 883d 2573 52bd d7d9 1a3e 3427 31be
00000230: f43a 30bd 7768 a33d 7d1a 7ebd 766b b3bc
00000240: 1443 1d3e 0b71 093e a1eb 943d 659b 673d
00000250: 3af7 11be 14be 1b3e 4d0a 1dbe 52fc e93c
00000260: 22d2 bebd 9dda 233d 442b 1fbd 6b06 263d
00000270: 669e ef3d 4540 adbd 0abf fcbc a333 0abe
00000280: 5f9f 91bd 6dee e53d 3df6 273d 6ef9 803c
00000290: 9719 14be bf68 143d 26bc 00be 44e8 143d
000002a0: 40d8 1cbe fe25 e43d b610 1cbe 479e db3d
000002b0: 662b 293e 355b d53d 599f 86bc 7977 d0bd
000002c0: 189b 443d d0a7 b03d b3a2 f6bb 60f6 53bd
000002d0: d285 bf3d 094d a33c e697 d5bd 7aea 0fbe
000002e0: 268a 82bd 2c5e 35be 760e 01be 4778 103d
000002f0: 8de6 bebd 0049 22be 3047 6e3d 16dc eebc
00000300: 9f87 d7bd a207 c53d ebbe 8c3b ccd6 04bd
00000310: 7107 6abd 6152 ed3d 58d7 8d3d 2e8c 253e
00000320: 3b27 213e e375 d6bd 10cd c93c 73fe 433d
00000330: feed 11bd ec37 50bc fab9 b03d bcd0 0fbe
00000340: dee9 873d 2116 ecbd 7fd9 77bd 8b0c b0bd
00000350: bef9 9b3d 08ce 1bbe f819 db3d 304d e63d
00000360: 009b acbd 0e36 e33d 4ad7 bbbd 9025 373d
00000370: a33a 04be e7f6 97bd c606 0cbd 3035 9abd
00000380: 9a02 283e 51c6 183e 8300 dc3d bbd3 d5bc
00000390: 5f18 483d 60e2 1bbd 6ada a23d a978 9c3c
000003a0: 9d39 0abe cfde 75bd de57 e0bc 6212 233e
000003b0: c44a f3bd 60cb eebd c4a3 adbd 9a85 6bbc
000003c0: c1bf d33d 6329 ebbd 6392 183e 00bd 263e
000003d0: 336a 163e f321 093e a722 fbbd 5e09 773d
000003e0: ba75 17be 661b ea3b fc54 ecbc 713d 1d3e
000003f0: 6ead c3bd 0e31 98ba dd04 0fbd c217 20be

cross_attn2.out_proj.bias f4 [32]
-0.004733857 -0.002071496 -0.0046632355 -0.0009798246 -0.0008542015 -0.00012244869 0.0015119801 0.0049018045
0.0014736932 0.0008905019 -0.00028280236 0.0016233717 0.00211712 -0.0013874758 0.002093893 -0.004293329
0.00073556905 -0.0042306124 0.00090849644 0.0045711854 0.0003400842 -0.00057354226 -0.0018369665 0.0001112881
0.003977965 -2.5253947e-05 -0.0034935176 0.004070598 -0.004296135 0.0027638166 0.0021565664 0.001455852
00000000: 781e 9bbb f0c1 07bb 0ece 98bb 756d 80ba
00000010: 7eec 5fba 9265 00b9 a22d c63a 519f a03b
00000020: f028 c13a 9270 693a 1745 94b9 51c7 d43a
00000030: 61bf 0a3b f6db b5ba b239 093b 0eaf 8cbb
00000040: 34d3 403a f3a0 8abb 2a28 6e3a e2c9 953b
00000050: 544d b239 c559 16ba 5ec6 f0ba 5863 e938
00000060: 9759 823b 70d8 d3b7 80f3 64bb a762 853b
00000070: 98c6 8cbb 2621 353b 2e55 0d3b 49d2 be3a

ff.0.weight f4 [128, 32]
0.0040831035 -0.14797497 -0.124006376 -0.051066782 0.13778336 -0.17614661 0.030649476 -0.023609784
0.0031104446 -0.0910607 0.06892122 0.027769025 -0.08723458 0.16449393 0.13974206 0.06645111
-0.024620283 -0.05936245 0.09426065 0.020031251 0.17219871 0.17252406 -0.08872165 -0.13064139
0.1764514 -0.11212062 0.16934513 -0.010120105 -0.05893049 -0.066812746 0.0039105387 0.008887762
-0.001093924 -0.09714109 0.047575638 -0.1571473 -0.09623975 -0.052020945 -0.049877346 0.100175545
-0.07787597 0.16729726 0.16458945 0.07920255 -0.12730771 0.014238 -0.05482424 0.0033148974
-0.17596954 0.17374359 -0.035116166 -0.121581376 0.062317505 0.01511687 -0.05738715 0.06491125
-0.009943917 0.11485304 0.01776658 -0.0046227872 -0.14244442 -0.036524817 0.15518646 0.16092305
-0.15303004 0.022111224 -0.10355666 0.12053115 0.17609733 0.17651202 0.013884159 0.036318447
-0.029195357 -0.027539777 -0.13077563 -0.05315061 0.060255617 0.063018866 -0.05710702 0.11376572
-0.03138383 0.06533564 0.12068163 -0.12865646 -0.07536368 0.102815755 0.17436953 0.081403576
0.055608436 -0.019858476 -0.0844101 -0.10676461 0.07915105 0.08557226 0.058335863 -0.14373688
0.067907184 -0.13627373 -0.12870175 -0.16957678 -0.04742254 -0.11022738 0.019106347 0.05375221
-0.03581318 -0.043537803 0.055405036 0.04421906 -0.007048952 0.10136562 -0.1585236 -0.17159759
-0.100400284 -0.14781186 0.17443937 -0.16573097 -0.1544064 -0.077524915 0.10201295 0.07447394
0.14732532 -0.13016528 -0.15346558 0.050629687 -0.04639171 -0.04841338 -0.06937656 -0.17600831
0.025751762 -0.106230445 0.14389184 -0.006470477 0.1542164 0.016952926 -0.0068539265 0.0864188
-0.034886695 0.112666965 -0.16205862 -0.16684076 0.013873545 0.10424318 0.15303239 -0.021642705
0.14639978 -0.09656675 -0.05838894 -0.15931459 0.042207167 0.1210655 -0.13645777 0.0625066
0.048395637 -0.035398096 0.032056622 0.015423818 -0.15755565 0.14098503 0.11410993 -0.0793591
0.08659491 -0.17949688 -0.09282016 0.051957715 -0.09325777 -0.114986755 -0.06433364 -0.11592921
0.06968021 -0.015370892 -0.13688491 -0.07828395 -0.08215156 -0.1541339 -0.12309844 0.066567756
0.13297136 -0.122905195 0.15762718 -0.017866774 -0.100485265 0.013619326 -0.09238398 0.11579483
0.1549337 -0.028421177 -0.15444717 0.17232412 0.029429544 -0.05803971 0.06311121 -0.07988409
0.17533699 0.15267432 -0.16429752 -0.15074408 0.063695304 -0.14500017 -0.03901781 -0.12690178
0.08714526 0.089505985 -0.021758985 -0.061523635 0.08997482 0.1619276 -0.17676312 -0.02025737
-0.03972835 -0.046954304 -0.077054515 0.054478858 0.12280665 -0.10925698 -0.048645347 -0.022758774
-0.06246472 -0.038902853 -0.07564487 0.024958003 -0.09804062 -0.12989256 -0.038371406 0.07929789
0.012371293 0.028805096 0.007538607 0.104300044 0.092526324 0.07554601 -0.13556746 -0.0016974397
-0.024493594 -0.045957975 -0.13979626 0.04105274 -0.05519787 0.1673808 -0.09055297 -0.07011909
-0.1495117 0.1452422 0.11481942 -0.05708889 -0.037305962 -0.016144378 0.102575555 0.08434567
0.06650458 0.012570154 0.03845988 0.057514902 0.14461742 -0.11473532 0.028741073 0.055929456
00000000: 8ecb 853b c086 17be 0ef7 fdbd 672b 51bd
00000010: 1517 0d3e c75f 34be 9c14 fb3c 4e69 c1bc
00000020: 9ad8 4b3b 087e babd 9226 8d3d de7b e33c
00000030: 0ba8 b2bd 1971 283e 8b18 0f3e 8517 883d
00000040: 7ab0 c9bc 0a26 73bd ba0b c13d 9418 a43c
00000050: dc54 303e 26aa 303e b2b3 b5bd dbc6 05be
00000060: adaf 343e 7f9f e5bd cf68 2d3e ccce 25bc
00000070: 1961 71bd 1fd5 88bd fa23 803b fa9d 113c
00000080: 0062 8fba e8f1 c6bd acde 423d 39eb 20be
00000090: 5919 c5bd ea13 55bd 304c 4cbd d628 cd3d
000000a0: 707d 9fbd f94f 2b3e 238a 283e f234 a23d
000000b0: f45c 02be 8046 693c 628f 60bd c03e 593b
000000c0: 5c31 34be d7e9 313e f8d5 0fbd a8ff f8bd
000000d0: a440 7f3d c0ac 773c ca0e 6bbd 30f0 843d
000000e0: d0eb 22bc 1238 eb3d 388b 913c c07a 97bb
000000f0: f3dc 11be 0c9b 15bd 33e9 1e3e 03c9 243e
00000100: e8b3 1cbe 9922 b53c 8415 d4bd 09d9 f63d
00000110: dc52 343e 91bf 343e 627a 633c a7c2 143d
00000120: 1a2b efbc 199b e1bc 0cea 05be 74b4 59bd
00000130: 98ce 763d 0910 813d 0de9 69bd 00fe e83d
00000140: 558c 00bd b1ce 853d ee27 f73d 85be 03be
00000150: 4658 9abd 1191 d23d ed8d 323e ebb6 a63d
00000160: acc5 633d 3eae a2bc 34df acbd 67a7 dabd
00000170: f219 a23d 8240 af3d 96f1 6e3d c32f 13be
00000180: ec12 8b3d 578b 0bbe 64ca 03be 89a5 2dbe
00000190: 233e 42bd e5be e1bd ea84 9c3c 472b 5c3d
000001a0: d7b0 12bd b254 32bd 64f0 623d 0c1f 353d
000001b0: e5fa e6bb c798 cf3d 0354 22be 47b7 2fbe
000001c0: aa9e cdbd fe5b 17be 3ca0 323e 61b5 29be
000001d0: b61c 1ebe 62c5 9ebd 2aec d03d cb85 983d
000001e0: 73dc 163e 0c4a 05be 1526 1dbe 1361 4f3d
000001f0: 3c05 3ebd 1c4d 46bd 4c15 8ebd 863b 34be
00000200: 5cf5 d23c 598f d9bd 6258 133e 4c06 d4bb
00000210: e7ea 1d3e dde0 8a3c e796 e0bb 57fc b03d
00000220: 5ae5 0ebd f0bd e63d b2f2 25be 4ed8 2abe
00000230: de4d 633c 737d d53d 86b4 1c3e 0b4c b1bc
00000240: d3e9 153e cac4 c5bd 3e29 6fbd 5d23 23be
00000250: 6ce1 2c3d 30f1 f73d 96bb 0bbe 7603 803d
00000260: 813a 463d 98fd 10bd ce4d 033d 2eb4 7c3c
00000270: 4556 21be 615e 103e 78b2 e93d 0687 a2bd
00000280: ac58 b13d 08ce 37be 7f18 bebd 9dd1 543d
00000290: eefd bebd 2d7e ebbd 5bc1 83bd 4b6c edbd
000002a0: 7fb4 8e3d 32d6 7bbc 8f2b 0cbe 5653 a0bd
000002b0: 143f a8bd 47d5 1dbe 091b fcbd ad54 883d
000002c0: a529 083e b8b5 fbbd 0569 213e 575d 92bc
000002d0: 38cb cdbd 9823 5f3c d033 bdbd d725 ed3d
000002e0: f1a6 1e3e 87d3 e8bc 6627 1ebe bc75 303e
000002f0: 3a16 f13c 0cbb 6dbd 7340 813d 459a a3bd
00000300: 8a8b 333e a856 1c3e 9c3d 28be a85c 1abe
00000310: af72 823d ed7a 14be 24d1 1fbd 8af2 01be
00000320: 3779 b23d ea4e b73d e63f b2bc 3500 7cbd
00000330: b844 b83d 59d0 253e 6401 35be c9f2 a5bc
00000340: 32ba 22bd 2853 40bd c2ce 9dbd 3925 5f3d
00000350: 0e82 fb3d 20c2 dfbd 5840 47bd 9c70 babc
00000360: 02db 7fbd 9958 1fbd b3eb 9abd ba74 cc3c
00000370: 85c9 c8bd 8e02 05be 562b 1dbd ef66 a23d
00000380: f7b0 4a3c aaf8 eb3c 6b06 f73b 439b d53d
00000390: 717e bd3d deb7 9a3d 32d2 0abe a07c deba
000003a0: caa6 c8bc 6e3e 3cbd c026 0fbe eb26 283d
000003b0: 2917 62bd df65 2b3e d673 b9bd 999a 8fbd
000003c0: 9819 19be 5fba 143e 7226 eb3d 0ad6 69bd
000003d0: 23ce 18bd 3741 84bc 2213 d23d 6cbd ac3d
000003e0: 8e33 883d 0cf3 4d3c 1b88 1d3d bf94 6b3d
000003f0: 9716 143e 5afa eabd 6672 eb3c 4916 653d

ff.0.bias f4 [128]
0.0532218 -0.1330458 0.07800449 0.1638149 -0.13631158 -0.035114236 0.009626592 0.13783702
-0.01973197 0.028515179 -0.041992273 -0.050360356 -0.06627084 0.06430955 0.14940289 0.10489614
0.1547221 -0.15999155 -0.0579834 0.13110568 -0.11853973 -0.059900135 0.11628101 -0.15127303
0.035074662 0.1294495 0.029059067 -0.12783499 0.12818126 -0.10140493 -0.11086659 0.06373368
-9.538297e-05 0.04081719 -0.07888063 0.050726626 0.123825595 0.0899048 0.09448943 0.0870674
0.07874268 -0.13683209 0.16705684 -0.0716702 0.04965117 0.15111962 0.1791414 0.16583268
-0.09804389 -0.1152728 -0.030460238 -0.11094711 0.040193945 -0.117962174 0.03951625 -0.004243576
0.035694063 -0.12741722 -0.14944178 -0.09544542 0.1655387 0.053738806 -0.09341655 0.12128182
-0.088240884 0.019874556 0.051224593 -0.06944427 -0.02406236 0.12778912 -0.16468167 0.11353253
-0.07933982 0.16132611 -0.002318001 -0.15287949 0.03718239 0.0073536984 -0.1369535 0.0130874375
-0.16750473 -0.036187824 0.16992226 -0.04795 0.033181842 -0.07716359 -0.15109523 0.069839746
-0.08599963 0.11804744 -0.17341433 0.13440634 -0.00679251 0.012142622 0.09556823 0.11783674
0.036763404 0.13499014 0.0048410604 -0.04421839 -0.10627503 -0.03631527 -0.16124187 0.15662967
0.14229502 0.03319272 -0.108667366 -0.035936978 0.01423189 0.046542525 -0.07953078 0.051696897
-0.03754478 -0.118076794 -0.013729855 -0.14183417 -0.12627017 -0.010082444 0.06771461 -0.10211355
0.16794512 0.0054774946 0.055369917 -0.06275709 -0.1312898 0.12014399 -0.010037392 0.15629748
00000000: 1aff 593d 283d 08be d1c0 9f3d 18bf 273e
00000010: 4395 0bbe f2d3 0fbd dab8 1d3c 2625 0d3e
00000020: f1a4 a1bc aa98 e93c 1700 2cbd a946 4ebd
00000030: 02b9 87bd bab4 833d 12fd 183e cad3 d63d
00000040: 786f 1e3e d3d4 23be 0080 6dbd 9140 063e
00000050: f5c4 f2bd d859 75bd bd24 ee3d 51e7 1abe
00000060: 73aa 0f3d 698e 043e 480d ee3c 2de7 02be
00000070: f341 033e 63ad cfbd 060e e3bd ce86 823d
00000080: 5808 c8b8 ed2f 273d 2b8c a1bd b9c6 4f3d
00000090: 4698 fd3d 0220 b83d ad83 c13d 6550 b23d
000000a0: d843 a13d b61d 0cbe f310 2b3e d3c7 92bd
000000b0: 065f 4b3d 1abf 1a3e d870 373e 0bd0 293e
000000c0: 3ccb c8bd 2514 ecbd c087 f9bc 3d38 e3bd
000000d0: 68a2 243d 2796 f1bd cbdb 213d b20d 8bbb
000000e0: f033 123d a979 02be 4407 19be e378 c3bd
000000f0: fa82 293e 391d 5c3d 2d51 bfbd 9a62 f83d
00000100: a3b7 b4bd f7cf a23c e1d0 513d cc38 8ebd
00000110: 6d1e c5bc 27db 023e 50a2 28be be83 e83d
00000120: ea7c a2bd ac32 253e 9ae9 17bb 718c 1cbe
00000130: 904c 183d 4bf7 f03b 8a3d 0cbe b16c 563c
00000140: 5c86 2bbe af39 14bd 1a00 2e3e 3867 44bd
00000150: afe9 073d f207 9ebd b5b8 1abe 2408 8f3d
00000160: 9320 b0bd dbc2 f13d 8793 31be d1a1 093e
00000170: b493 debb d9f1 463c 47b9 c33d 6454 f13d
00000180: 3995 163d db3a 0a3e c2a1 9e3b 581e 35bd
00000190: b9a6 d9bd 52bf 14bd 971c 25be 8763 203e
000001a0: c9b5 113e 17f5 073d ff8c debd a732 13bd
000001b0: e02c 693c 60a3 3e3d 09e1 a2bd 20c0 533d
000001c0: 8ec8 19bd 3fd2 f1bd 30f3 60bc fa3c 11be
000001d0: f84c 01be d630 25bc f5ad 8a3d e920 d1bd
000001e0: cef9 2b3e 8e7c b33b 91cb 623d ca86 80bd
000001f0: d570 06be 0d0e f63d e073 24bc 720c 203e

ff.2.weight f4 [32, 128]
0.026548207 -0.05428651 -0.03590566 -0.021624444 0.07483998 -0.042685155 0.030662747 -0.013654716
0.07997642 -0.052961506 -0.08613761 -0.05060423 0.01149762 -0.06581893 0.07231756 -0.030748056
-0.048939224 0.029601151 -0.05417836 0.04300203 0.029440798 0.021342352 -0.052493263 0.07184873
0.046850722 0.05587133 -0.04371078 -0.025101908 -0.060348444 0.02385555 -0.072633445 0.014356716
0.03620734 -0.023495138 -0.06202992 -0.002094126 0.081585415 -0.022697993 -0.053657703 -0.06124622
-0.018987937 0.08137039 -0.03633926 -0.0023581758 -0.08458018 0.043058466 0.074465856 -0.056652572
-0.005285036 0.0856933 0.008932993 0.026478052 0.04095126 -0.03501919 0.045360498 -0.054351155
-0.01664289 0.03972714 -0.028010296 -0.0328433 0.01999146 0.06296978 0.031050397 -0.08102657
0.05680798 0.082633644 0.016617076 -0.025573298 -0.0665915 0.031456534 -0.011665271 0.059115853
0.024799319 0.020085707 5.951847e-05 -0.053232856 -0.06287471 -0.05686438 0.046466924 0.043832835
-0.018546222 0.08229289 -0.05450392 0.011081472 -0.06728968 -0.05283846 0.021093836 -0.06768352
0.020485625 0.038383342 0.05119299 -0.02320981 -0.03632437 -0.011401496 0.06581468 -0.056133267
-0.037277605 -0.047031272 0.083877444 -0.039697494 -0.010178975 0.040468145 -0.08545645 -0.089889795
-0.027147587 0.03771417 0.010380104 -0.022982309 0.049473222 -0.07660685 0.059020292 0.07297081
0.064185515 0.042474102 0.07956619 -0.05627554 0.018844575 -0.004133996 0.03947914 -0.056235787
-0.04148919 0.073052235 -0.049479473 -0.03473077 0.015139565 -0.08367674 0.021279588 -0.06279981
0.08283965 -0.035326794 0.021271378 0.0019378301 -0.05618029 0.06740078 0.03645283 0.071303315
0.0778407 0.0010878238 0.057318114 0.05099939 -0.068771556 -0.08208275 0.013520714 -0.004008163
0.065368176 -0.036773648 0.0394798 0.010091007 -0.013147745 0.01693824 -0.053507864 -0.0741093
-0.07315371 -0.054944497 0.058768816 0.039037667 -0.04384066 -0.059095696 0.030564934 0.01963891
0.037256647 -0.032213252 0.008814549 0.055542413 0.010971097 0.033407457 -0.01032554 0.04068803
0.014002282 0.06913812 0.075999975 0.07161109 -0.06379182 0.06592906 -0.013594538 -0.07743361
0.005033341 0.032287054 -0.06804066 -0.013263188 0.064051755 0.0805307 0.03061654 0.06379024
0.06066222 -0.054410063 -0.011007496 0.066311724 -0.03957862 -0.01741111 0.022018692 -0.012360424
0.021686455 -0.030181851 0.011126735 0.032199457 -0.06977748 -0.009306421 0.062043898 0.013317408
0.060533315 0.012855968 -0.07230757 0.009830455 -0.080651626 0.06906169 0.026965119 -0.047338925
0.07966114 0.05564358 -0.008853973 0.046623074 -0.0068581863 0.009356994 -0.08785249 -0.030515444
0.053873323 0.047557455 0.048988607 0.050805878 0.019307999 0.04681335 0.07379358 -0.032180652
-0.08370059 -0.0013172379 0.08554156 -0.051660888 0.06692068 0.05077969 0.04371903 -0.06519702
0.055017687 -0.026860723 -0.06537519 0.084918074 0.0034577055 0.08086098 -0.064846404 -0.019269124
0.059729185 -0.054098584 -0.062009394 0.048539758 -0.035068814 -0.030926758 -0.07764918 -0.0595513
0.040483896 0.07868381 -0.044724952 -0.06859689 -0.072841294 -0.018596364 -0.07477856 0.047946665
00000000: a07b d93c 885b 5ebd d011 13bd bf25 b1bc
00000010: b445 993d a1d6 2ebd 7130 fb3c 08b8 5fbc
00000020: adca a33d 2aee 58bd ea68 b0bd 6246 4fbd
00000030: 8360 3c3c 13cc 86bd 3b1b 943d 59e3 fbbc
00000040: 7f74 48bd 1d7e f23c 21ea 5dbd e622 303d
00000050: d42d f13c 28d6 ae3c 2d03 57bd 6d25 933d
00000060: 8be6 3f3d 56d9 643d 130a 33bd 84a2 cdbc
00000070: ee2f 77bd b76c c33c d8c0 94bd 6e38 6b3c
00000080: 264e 143d e078 c0bc 1613 7ebd 9b3d 09bb
00000090: 4116 a73d 24f1 b9bc 2ec8 5bbd 51dd 7abd
000000a0: 978c 9bbc 85a5 a63d 7ad8 14bd a08b 1abb
000000b0: 6038 adbd 135e 303d 8e81 983d 870c 68bd
000000c0: 182e adbb f87f af3d b05b 123c 80e8 d83c
000000d0: 82bc 273d 4870 0fbd eecb 393d 519f 5ebd
000000e0: ac56 88bc edb8 223d d975 e5bc b286 06bd
000000f0: 21c5 a33c 4df6 803d 675d fe3c 42f1 a5bd
00000100: 7caf 683d d43b a93d 8920 883c 187f d1bc
00000110: 2061 88bd 91d8 003d b11f 3fbc 7723 723d
00000120: f127 cb3c c88a a43c 78a3 7938 b20a 5abd
00000130: 75c4 80bd a0ea 68bd 1a54 3e3d 0f8a 333d
00000140: 3fee 97bc 2d89 a83d 813f 5fbd 108f 353c
00000150: 2ccf 89bd 246d 58bd fbcc ac3c a89d 8abd
00000160: 78d1 a73c da37 1d3d beaf 513d 8022 bebc
00000170: ddc8 14bd 57cd 3abc d9c9 863d ffeb 65bd
00000180: 67b0 18bd dda3 40bd f0c7 ab3d d799 22bd
00000190: b7c5 26bc edc1 253d cb03 afbd 2418 b8bd
000001a0: 9e64 debc 2c7a 1a3d 5011 2a3c 6545 bcbc
000001b0: 6fa4 4a3d 0de4 9cbd 43bf 713d b871 953d
000001c0: b273 833d 53f9 2d3d 99f3 a23d 2e81 66bd
000001d0: f05f 9a3c 7976 87bb e1b4 213d 7f57 66bd
000001e0: 92f0 29bd 699c 953d fdaa 4abd da41 0ebd
000001f0: f00b 783c b65e abbd 8852 ae3c 309d 80bd
00000200: d6a7 a93d d4b2 10bd 5041 ae3c cafe fd3a
00000210: 4e1d 66bd 6c09 8a3d 904f 153d 7907 923d
00000220: f26a 9f3d 4f95 8e3a 66c6 6a3d bde4 503d
00000230: 1ad8 8cbd 001b a8bd fc85 5d3c e956 83bb
00000240: c0df 853d f79f 16bd 92b5 213d c054 253c
00000250: a469 57bc 10c2 8a3c 102b 5bbd 9ec6 97bd
00000260: 9dd1 95bd 7b0d 61bd 92b7 703d f6e5 1f3d
00000270: 4492 33bd 540e 72bd 5063 fa3c c8e1 a03c
00000280: 6d9a 183d 0bf2 03bd e66a 103c 7180 633d
00000290: 1ec0 333c 42d6 083d 742c 29bc 7ea8 263d
000002a0: d469 653c 4998 8d3d e0a5 9b3d d6a8 923d
000002b0: 49a5 82bd d105 873d a0bb 5ebc 8395 9ebd
000002c0: b9ee a43b 6e3f 043d e758 8bbd d84d 59bc
000002d0: 912d 833d 48ed a43d 8acf fa3c 75a4 823d
000002e0: f378 783d 16dd 5ebd c958 34bc 71ce 873d
000002f0: 311d 22bd bfa1 8ebc 8b60 b43c 6083 4abc
00000300: cba7 b13c ee3f f7bc e94c 363c 94e3 033d
00000310: 7fe7 8ebd f579 18bc be21 7e3d 4231 5a3c
00000320: c8f1 773d d7a1 523c fe15 94bd eb0f 213c
00000330: ae2c a5bd 3770 8d3d f4e5 dc3c 76e6 41bd
00000340: 6125 a33d 86ea 633d 4110 11bc d6f7 3e3d
00000350: a3ba e0bb 144e 193c 02ec b3bd 86fb f9bc
00000360: 46aa 5c3d 9bcb 423d 47a8 483d d319 503d
00000370: cf2b 9e3c 5bbf 3f3d 1721 973d dccf 03bd
00000380: 376b abbd 2ba7 acba 6a30 af3d 5e9a 53bd
00000390: b60d 893d 5dfe 4f3d ba12 333d 0486 85bd
000003a0: 3a5a 613d 050b dcbc 6de3 85bd 87e9 ad3d
000003b0: ac9a 623b 719a a53d 31ce 84bd 48da 9dbc
000003c0: 97a6 743d 7a96 5dbd 90fd 7dbd a0d1 463d
000003d0: 51a4 0fbd 1d5a fdbc 8906 9fbd 10ec 73bd
000003e0: 71d2 253d fa24 a13d 8331 37bd 877c 8cbd
000003f0: d12d 95bd 6757 98bc 8025 99bd b963 443d

ff.2.bias f4 [32]
-0.022498403 -0.06753385 -0.03714464 0.02734541 -0.012308568 0.04657396 -0.07762845 0.016296221
0.044060357 0.065207146 -0.08252915 -0.029379806 0.024495827 -0.048748974 -0.036620643 -0.002785018
-0.08120812 -0.032955013 0.060829986 -0.02451972 0.012988541 -0.060096405 -0.0909116 0.06823792
0.010673228 -0.058866795 0.09212845 0.049185626 -0.0908256 0.05132367 -0.06522288 0.07064342
00000000: 924e b8bc 304f 8abd fa24 18bd 7b03 e03c
00000010: e0a9 49bc 56c4 3e3d aafb 9ebd a77f 853c
00000020: a278 343d 538b 853d 0b05 a9bd ebad f0bc
00000030: 79ab c83c 01ad 47bd 87ff 15bd d984 36bb
00000040: 7150 a6bd d6fb 06bd dd28 793d 94dd c8bc
00000050: e4cd 543c a627 76bd dc2f babd 53c0 8b3d
00000060: c3de 2e3c 4f1e 71bd d7ad bc3d de76 493d
00000070: c602 babd c538 523d 9393 85bd 7fad 903d

norm1.weight f4 [32]
0.9954755 1.0016536 1.0026281 1.0024382 0.99583167 0.99798876 1.0022684 1.0017992
1.0035654 1.0009688 1.0005183 1.0002345 1.0042897 1.0023123 0.9968835 0.9973745
0.9974603 0.99874836 1.004527 1.004522 0.9988115 0.9991073 0.9960134 0.9966429
0.9986488 0.9977696 0.99787086 0.99565023 0.99704117 1.0022624 0.99700737 1.0037897
00000000: 7bd7 7e3f 2f36 803f 1e56 803f e54f 803f
00000010: d3ee 7e3f 317c 7f3f 554a 803f f53a 803f
00000020: d574 803f bf1f 803f fc10 803f af07 803f
00000030: 918c 803f c54b 803f c233 7f3f ef53 7f3f
00000040: 8f59 7f3f f9ad 7f3f 5794 803f 2d94 803f
00000050: 1cb2 7f3f 7fc5 7f3f bcfa 7e3f fd23 7f3f
00000060: 73a7 7f3f d46d 7f3f 7774 7f3f efe2 7e3f
00000070: 173e 7f3f 224a 803f e03b 7f3f 2e7c 803f

norm1.bias f4 [32]
0.004473906 -0.00051645987 -0.002912803 -0.004704207 -0.00045758317 -0.0024311484 -0.0030195792 0.0008371606
0.0037057104 -0.004755302 0.0008756841 0.002034864 0.0043872623 0.0009504893 0.0035082595 0.001485818
-0.0031306809 0.0033690378 0.004809007 0.004748497 0.004781415 -0.004765096 0.0011278022 0.0040992005
-0.0008396483 -0.0014723219 0.0012102675 0.002279607 -0.0049727475 -0.0016160958 0.0023980704 -0.0045722635
00000000: d899 923b 0963 07ba bae4 3ebb c025 9abb
00000010: c6e7 efb9 e753 1fbb 22e4 45bb e674 5b3a
00000020: 81db 723b 5dd2 9bbb 2a8e 653a 5a5b 053b
00000030: 06c3 8f3b 422a 793a d4ea 653b c7bf c23a
00000040: 1c2c 4dbb 13cb 5c3b e094 9d3b 4899 9b3b
00000050: 6bad 9c3b 8624 9cbb c3d2 933a 9652 863b
00000060: d81b 5cba edfa c0ba d7a1 9e3a 7665 153b
00000070: 6ef2 a2bb 2dd3 d3ba f228 1d3b edd2 95bb
