checkpoints/operation_prediction/cross_attention_model.pth (torch, 76202 bytes, 20 tensors)

cross_attn1.in_proj_weight f4 [96, 32]
000000 fe aa 64 be 5c c5 79 3c fd e9 76 3e 97 f0 4b 3d
       -0.22330853 0.015244808 0.24112697 0.04978999
000010 e6 f6 87 be a4 22 40 3d 92 8f 36 be ee 8c 76 be
       -0.26555556 0.046908036 -0.17828205 -0.24077198
000020 ee b9 00 be ea 90 aa bd 16 9b 1a be 5f 51 8d bd
       -0.12570927 -0.083284214 -0.15098223 -0.06900286
000030 c2 24 c3 3e 69 25 67 3e ff 55 99 3e 1e 4b 5a bd
       0.3811398 0.22572865 0.29948422 -0.053294294
000040 79 ab 07 3e 18 f3 32 be 4a 41 ae be ac 5e 8b 3e
       0.13249005 -0.17475545 -0.34034187 0.27220666
000050 9a ed d3 3b 26 92 4b bd b2 f6 9e be 8a 3d d0 bd
       0.0064675333 -0.049699925 -0.3104759 -0.10167988
000060 fa d2 12 bd 66 4a e3 bd ea 3c f8 3d cf 7f e6 bd
       -0.035845734 -0.11098175 0.121209934 -0.11254846
000070 eb 4c 9c bc c5 a5 f5 3c 58 53 76 3b 3f be 36 bc
       -0.019079646 0.029986272 0.0037586298 -0.011153757
000080 4a 5b 2f 3c 2d 8a 03 be 01 2a ab 3d c0 00 d8 3d
       0.010702917 -0.12845679 0.08357621 0.10547018
000090 42 f3 07 be bf d8 30 3e c7 d0 04 be 50 19 b3 bd
       -0.13276389 0.17270182 -0.12970267 -0.08745062
0000a0 41 70 56 3e f9 30 be 3e 20 b9 2c 3e 77 74 00 be
       0.20941259 0.37146738 0.16867495 -0.12544428
0000b0 2b ac d3 bd 38 2a b8 bd ff d1 32 3d a6 01 60 3e
       -0.10335573 -0.089924276 0.0436573 0.21875629
0000c0 49 aa 5b 3d 36 c6 4d bc e0 b0 6e 3e f6 22 87 3d
       0.053629193 -0.012559464 0.2330966 0.06598465
0000d0 2e fb 89 be 11 47 92 be b1 8a 7c 3c 62 3b fe bd
       -0.26949447 -0.28569844 0.015413926 -0.1241367
0000e0 39 3d 17 3e 23 4c b1 bd ab 48 b1 3a e2 ca 06 3d
       0.14769448 -0.086571 0.0013525685 0.032908328
0000f0 72 43 42 bd de 9e e0 3d eb dc 2b 3e 20 6f 3f 3d
       -0.047427602 0.109678015 0.16783492 0.046736836
000100 55 2d 6a 3d 5b 5d b9 3d 84 d9 f9 bd 44 89 a5 3c
       0.05717214 0.09051009 -0.12199691 0.020207055
000110 a6 10 05 3c 5c d8 a7 bc 5b f9 dd bd b0 cc e5 bd
       0.008121645 -0.02048891 -0.108385764 -0.11220682
000120 94 30 89 bd ea d6 81 bc 53 9e 85 3c eb 9e 83 bd
       -0.06698719 -0.01584955 0.016310846 -0.064267956
000130 22 8a d4 bd 4a bb f7 3d 36 e1 96 bd 9e 37 70 be
       -0.10377909 0.120962694 -0.07367174 -0.23458716
000140 95 45 b8 3c e4 15 39 3e e1 8f 86 bd 40 1e 07 bd
       0.022494117 0.18074757 -0.065704115 -0.032987833
000150 a7 55 52 bd d3 aa a1 bd 9d 8d 96 bd 63 d1 61 3e
       -0.051351216 -0.0789391 -0.07351229 0.22052531
000160 b5 5f 65 3e c9 fc 66 3e 83 23 17 3e bd 4b dd 3d
       0.2239979 0.22557367 0.1475964 0.108054616
000170 3b de a8 3e 4c 65 01 3e d9 c2 43 3d 4c a1 d7 3c
       0.32982048 0.12636298 0.047793243 0.02632203
000180 85 68 52 be 15 86 62 bc 46 2e 7e be 0b 1c 96 bd
       -0.20547684 -0.013825913 -0.2482234 -0.073295675
000190 ad 0d c2 bd 08 5a 2a 3e ee f7 17 be d5 aa 9a bd
       -0.09475265 0.16635907 -0.14840671 -0.07552115
0001a0 9b 9d 59 bc 70 c8 09 be 9a b3 cf 3d 8e 30 45 bd
       -0.013282205 -0.13455367 0.10141678 -0.04814201
0001b0 61 fb a3 3e c9 f6 51 3d 82 8e 12 3d 94 c8 93 3d
       0.32027724 0.051260743 0.035780437 0.072159916
0001c0 ad 9e ca 3d c5 6b 9a be f0 0c 23 3d 28 44 d9 bd
       0.09893546 -0.30160347 0.03980726 -0.10608703
0001d0 d3 cc 70 bd 55 25 ba 3e b2 5a f3 bd dc f7 aa bd
       -0.058789086 0.36356607 -0.11882533 -0.08348057
0001e0 3e 9b aa 3d 65 89 91 3e 52 8f 1a bd 74 8a b3 be
       0.08330391 0.28425136 -0.037734337 -0.3506657
0001f0 5a c1 10 3e 72 0c 13 bd 7c 8d d2 be 46 90 0d bd
       0.14136258 -0.03590054 -0.4112357 -0.034561418
000200 34 a2 23 bd f4 36 ef bd 0b d7 25 be 15 13 bc 3c
       -0.03994961 -0.11680403 -0.16195314 0.022958318
000210 ac f7 48 3d 28 80 22 3d b9 b3 7e 3e c8 00 d9 3d
       0.049064323 0.039673 0.24873246 0.10595852
000220 2e ac 8a bd d1 5e 51 3e 88 bc 33 3e e2 0a 08 3e
       -0.06771122 0.20446326 0.17552388 0.13285401
000230 0a 1b 62 be b3 18 98 be e0 c2 b9 bd 0d 8b 3f 3e
       -0.22080627 -0.29706344 -0.090703726 0.18705387
000240 fe 5c 92 bc 8c 3f 7f 3e bd 7b 88 3e e5 17 86 be
       -0.017866608 0.24926585 0.26656905 -0.26190105
000250 5a 2f bf bd e7 2f 8c 3e 5c a2 93 3e d2 bd ec ba
       -0.093352035 0.27380297 0.28834808 -0.0018061942
000260 68 d1 d2 3d 8a 91 8f 3d 5e 98 e2 bd 6e 2b 8f 3b
       0.10293847 0.07010181 -0.11064218 0.004369191
000270 69 f5 7e be 6a 65 07 be 11 a3 f2 bd 8c ee 0a bd
       -0.24898304 -0.1322228 -0.11847509 -0.033918902
000280 fe 52 78 3d f0 8c 9f bd 42 cb 5a bc 27 1a 1c 3d
       0.060626023 -0.077905536 -0.0133541245 0.03811088
000290 27 32 57 3e d6 77 3c 3e 9d 6c 11 3d 69 2c f5 3c
       0.21015225 0.18405089 0.035503972 0.029928403
0002a0 cd 1a 49 bc b7 a6 1e 3e f9 9c 27 be c6 21 81 3e
       -0.012274456 0.15493284 -0.16368474 0.2522108
0002b0 c3 e8 85 3d 5e a7 1e 3d 15 9e f1 3c 1f 3f 2b be
       0.065385364 0.038733833 0.029494325 -0.16723298
0002c0 73 f7 b0 bd 35 3f 15 bd 13 20 a4 3d 05 b2 57 3e
       -0.08640947 -0.036437232 0.0801393 0.21064003
0002d0 6a a8 28 be d0 41 23 be 5b b8 27 3e 8f d8 bd bc
       -0.16470495 -0.15943074 0.1637892 -0.023174552
0002e0 4b a6 07 3e 42 79 b5 bd 8d 0c 6c 3e f2 3d d3 3e
       0.1324703 -0.08861019 0.23051663 0.41258198
0002f0 2e 26 ea bd 54 1f 1b be 64 5f 4f 3d 01 59 7c 3e
       -0.114330634 -0.1514867 0.05062808 0.24643327
000300 2b 75 0d 3e 84 45 a7 3d 76 a4 58 3d c6 09 63 3d
       0.13814227 0.08167556 0.052891217 0.055429243
000310 5f a4 97 3e 9f 43 0d 3e e8 55 89 3e 47 4b 40 be
       0.29617593 0.13795327 0.26823354 -0.18778716
000320 0a 36 a1 3e e5 64 fd 3c e6 5f e7 bc 1c 8e ce 3c
       0.3148654 0.0309319 -0.02824397 0.025214247
000330 2d 36 ac be e1 69 3b be fe e2 80 be 0a 78 5d 3e
       -0.33635083 -0.18302108 -0.2517318 0.21627823
000340 f8 f5 82 3c 1a e2 67 3d 18 8f 1e 3e 7e 92 12 be
       0.015986428 0.05661211 0.15484273 -0.14313695
000350 ef 5a 06 3e ad 15 a1 bd 49 2b c0 3e f5 72 98 bd
       0.13120626 -0.078654625 0.37533024 -0.07443801
000360 41 47 0f 3d 4b c2 1e be eb 72 71 be e4 51 01 be
       0.034980062 -0.15503804 -0.23578994 -0.12628895
000370 ae 8b 0f 3d 9c a4 c0 be 8b b2 53 3e d1 02 e2 3c
       0.03504532 -0.37625587 0.20673577 0.027589234
000380 b6 3f a2 be d9 d7 fa 3d 3d 9e 9e 3d 31 45 0c bd
       -0.31689233 0.12248201 0.07745025 -0.034245674
000390 73 8f 69 3e 68 28 d2 bb 16 99 17 be 5d ab 0a bd
       0.22808628 -0.006413508 -0.14804491 -0.03385483
0003a0 da 5b 9d 3d 72 1f 97 bd 06 a8 3c be 80 4a 54 be
       0.07683535 -0.073790446 -0.18423471 -0.20731544
0003b0 19 23 29 3e 2c db 85 3d 47 96 23 be 66 68 c1 3d
       0.16517295 0.06535944 -0.15975295 0.094437405
0003c0 50 32 e3 bd 2d 39 e4 bd d1 a3 0d 3e 8b 1b b5 3d
       -0.11093581 -0.11143718 0.13832022 0.08843144
0003d0 8e 0f 17 3e 28 58 e9 3d 0f f8 a6 bd 36 89 50 3d
       0.14752027 0.113937676 -0.08152782 0.050912105
0003e0 b5 76 f9 bd 4b 45 cd bd 10 eb 13 3e c2 4d dc 3c
       -0.12180845 -0.10022982 0.14445138 0.026892547
0003f0 64 6b 04 3e 37 70 2c be 7e f6 af be b0 e4 ed bd
       0.12931591 -0.16839682 -0.34367746 -0.11615884

cross_attn1.in_proj_bias f4 [96]
000000 64 58 2d 3d e7 8a b1 3d 94 4e cb 3d a7 e6 d6 bc
       0.042320624 0.08669072 0.09927097 -0.02623303
000010 d7 e3 28 3e 27 02 29 3e d3 f4 7f bd 58 fb ff 3c
       0.16493164 0.16504727 -0.062489342 0.03124778
000020 54 b6 07 3e ce 1d e5 3d 0c 8e e2 bd a1 72 e8 bd
       0.13253146 0.111873254 -0.110622495 -0.11349989
000030 6e 5e 67 3d 4a ee 25 be 3a b7 a3 bd 96 ea 83 be
       0.05648654 -0.16204181 -0.07993932 -0.25764912
000040 10 0b 14 bd c4 46 54 3e ba 32 c5 bd 4f ed 21 3e
       -0.036143363 0.2073012 -0.09628816 0.15813182
000050 22 95 e1 bc 63 66 85 be 20 27 05 3d 15 ba 08 be
       -0.027536932 -0.26054677 0.032508016 -0.13352235
000060 96 46 0f be 71 2a 39 3b 60 cd ca bd a2 4f 01 bc
       -0.1399177 0.0028254057 -0.099024534 -0.007892521
000070 97 53 58 bd 1b 32 e0 bd 80 35 8a 3d 49 29 f6 bd
       -0.052814092 -0.10947057 0.067484856 -0.12019593
000080 d4 01 c7 3b 4c 33 5a 3c 30 eb 8d bb 78 05 48 bb
       0.006073216 0.013317894 -0.004331015 -0.0030520838
000090 bc 47 ad bb 76 7d 7f bc 46 2c b6 ba ed 72 6c bb
       -0.0052880924 -0.015593877 -0.0013898693 -0.0036079243
0000a0 3f 71 ae bb ac e9 d2 bb c9 e7 ae 3b 26 28 4a 3c
       -0.0053235586 -0.0064365473 0.0053376895 0.012338674
0000b0 e7 85 ab bb c7 e2 cd 3b 26 c4 28 39 9e 4e 0e 3c
       -0.0052344683 0.0062831375 0.000160948 0.008685736
0000c0 46 1d 08 bb 9b d2 b1 bb 80 aa 00 3c cd cf 0b bc
       -0.0020769401 -0.0054267175 0.00785315 -0.00853343
0000d0 35 61 18 3c de ee 67 3c fd f4 04 3c 58 50 d6 3b
       0.00930052 0.0141560715 0.00811505 0.0065403394
0000e0 16 2b 92 3b 80 dc 84 3b 26 ca 42 3b 7c a2 88 bb
       0.0044607027 0.004054606 0.002972254 -0.0041697603
0000f0 a2 50 77 ba 5c d0 6c 39 72 18 71 3b 43 0c 88 ba
       -0.00094343175 0.00022584334 0.0036788252 -0.0010379631
000100 4e fa 13 3e dc e1 74 3a 63 76 c8 bc 7a d6 d1 3d
       0.14450952 0.0009341517 -0.024470514 0.10245986
000110 29 4e 13 3e c8 c9 09 bd 9a 1c 9d bb 7f 34 a0 bd
       0.14385284 -0.0336397 -0.0047946693 -0.07822513
000120 37 63 b4 3d 3f 38 94 3d 68 13 2c bd 22 31 0c be
       0.08807986 0.072372906 -0.042010695 -0.13690618
000130 1e 8f 05 be 1c 02 6f bd 7d 42 cc bc 02 ef e3 3d
       -0.13042876 -0.05835162 -0.024934048 0.111295715
000140 c9 89 c0 bd 73 2a 0c bd 55 1c 18 bd fc 8c 2c bc
       -0.094012804 -0.03422017 -0.037136395 -0.01053166
000150 87 7e 65 bd 4e 65 0a bd d5 89 b3 bb 5f 65 38 bd
       -0.05602887 -0.033788018 -0.0054790773 -0.04501855
000160 97 b8 a0 3c 8f 3e 9e 3b 0a 64 85 ba 44 e1 de bc
       0.01961927 0.004829235 -0.0010176909 -0.027207024
000170 86 7d 87 bd 58 3f c2 bd 7e 87 c7 bd 7e 2c ae bd
       -0.066157386 -0.09484738 -0.0974264 -0.0850458

cross_attn1.out_proj.weight f4 [32, 32]
000000 73 f5 e6 bc 72 24 97 bc cf d8 43 3c de 82 14 3d
       -0.028193211 -0.018449996 0.011953547 0.036257617
000010 bf 55 42 bd 77 b6 4c bd 32 cb a2 3d ba 96 7f 3c
       -0.047445055 -0.0499787 0.07948913 0.015599901
000020 70 f4 39 be a1 d2 0c 3e 1d a5 11 bd 6b 0e ec bd
       -0.18159652 0.13752224 -0.035557855 -0.115261875
000030 ac 79 81 bd 33 4d 44 3d 96 95 96 3d df c7 19 be
       -0.06322035 0.047925185 0.0735275 -0.15017651
000040 e2 8a 82 3c 43 e3 f9 bc 64 79 c4 bd 98 71 79 3c
       0.015935365 -0.030503875 -0.09593466 0.015224837
000050 23 51 06 bd ac b9 31 bd fe a1 04 3e 06 ef d0 bd
       -0.03279222 -0.04338996 0.1295242 -0.1020184
000060 93 bb 90 bc 12 6b 46 3e b4 72 8c bb d4 99 20 bd
       -0.017667567 0.19376782 -0.0042861346 -0.039209202
000070 ed 62 a8 bb 6b 56 1d be 0b fc 4a 3c 77 dd f3 bc
       -0.005138746 -0.15364997 0.012389193 -0.029768689
000080 f7 2f 23 be e5 6d 33 be a6 56 24 be 81 83 30 be
       -0.15936266 -0.1752239 -0.16048679 -0.17237665
000090 c2 71 a6 3d 5f c7 b5 bd bd 8f 12 3c 1c f1 18 be
       0.08127166 -0.08875918 0.008945403 -0.14935726
0000a0 9c 27 98 bd b8 f8 05 bd a4 7a 02 3e d2 fa 31 3d
       -0.0742943 -0.0327079 0.12742096 0.04345209
0000b0 db 10 0b 3e 0e 30 66 39 ed 16 b9 3d 0d 3c 93 bd
       0.13580649 0.00021952411 0.09037576 -0.07189188
0000c0 1d b9 7e 3d 4e a3 00 be 0f de a4 bd 22 a9 32 3c
       0.062188257 -0.12562296 -0.08050167 0.010904582
0000d0 3e 89 df bd 49 d9 1e be 41 06 9d 3d 80 8b c7 bd
       -0.10914849 -0.15512575 0.076672085 -0.097434044
0000e0 d2 ad ad bd 18 96 1d 3e 05 ee 6e 3d 60 47 81 3d
       -0.08480419 0.15389287 0.058332462 0.06312442
0000f0 81 f4 02 be 87 d7 ce 3b b2 96 1f 3e 9e d8 cc bd
       -0.12788583 0.006312314 0.1558483 -0.10002254
000100 d2 aa 9c bb 13 67 bd 3d 54 e2 ff bc 4e a9 1b 3e
       -0.0047811056 0.092481755 -0.031235851 0.15201303
000110 40 6c 02 3e dd 9a 84 3d 71 67 d4 bc 42 c8 e9 b9
       0.12736607 0.0647485 -0.025928231 -0.00044590427
000120 7b 85 95 bc ba 06 d0 bd 67 75 86 bb 26 83 0b be
       -0.018252125 -0.10157533 -0.004103351 -0.13624248
000130 c9 f4 dd 3d b6 a6 2b bd a9 25 fe bd 10 f4 ba 3d
       0.10837705 -0.041907035 -0.12409527 0.091285825
000140 47 15 14 bd 41 cf aa 3c 65 33 ee bd 0a e4 71 3e
       -0.036153104 0.02085078 -0.116308965 0.23622146
000150 ee 53 8a 3d c5 51 75 bd 97 4d 32 bd f3 21 47 bd
       0.067542896 -0.059892435 -0.043531027 -0.04861636
000160 a3 37 0d 3e d0 59 12 be aa 86 be bb 09 5f ca 3d
       0.13790755 -0.14292073 -0.005814393 0.09881408
000170 70 37 6a 3c c0 4a 5f 3d 21 89 63 bd b5 94 11 3e
       0.014295444 0.054514647 -0.0555507 0.14216883
000180 12 f8 2d be f5 40 c8 bd aa d8 57 3e fb be 91 bd
       -0.16989163 -0.097780146 0.21078745 -0.07116505
000190 7e 5c d8 3d c0 c6 e8 3d 5f d3 a8 3c e9 9d 25 3d
       0.105645165 0.113660336 0.020608602 0.040433798
0001a0 b8 7c 8f bd 9e 69 00 be 5e 81 23 be 1b e9 3e 3d
       -0.0700621 -0.1254029 -0.15967318 0.046609025
0001b0 8a df 3e 3d 19 f1 d4 3c 59 a9 94 bd 53 aa 90 3d
       0.046599902 0.02599387 -0.07258863 0.07063737
0001c0 f4 a0 3a 3e c1 dc 37 3d bc 4f df 3d b5 78 0d 3e
       0.18225461 0.04488826 0.1090388 0.13815577
0001d0 83 00 ce bd cb 4b 21 3d 02 08 b4 bd cb c9 2b be
       -0.10058691 0.039378922 -0.0879059 -0.16776197
0001e0 61 ce 48 be 97 b6 42 be cb f2 6f be d3 8d ff 3d
       -0.19609977 -0.19014965 -0.23432462 0.12478223
0001f0 98 8b 10 bc 33 ae 1f bd 43 36 16 3e 85 9d 40 bc
       -0.008822344 -0.03898449 0.14669137 -0.011756306
000200 79 e7 f1 3d e4 b7 51 3d 3a eb dc bc 51 14 e8 3d
       0.11811728 0.051200762 -0.026967634 0.11332
000210 c1 70 b4 bd 4d 88 f6 3d 5c 22 73 3d ae 6e 8f bd
       -0.088105686 0.12037716 0.05935894 -0.07003532
000220 06 6c 48 3c b0 14 3f 3d c7 3d da bd 3b 1f 2d 3e
       0.012232786 0.04665059 -0.10656314 0.16906445
000230 d1 be dc bd 8f 45 a9 bd fe f9 c9 3d d7 2a 2d 3c
       -0.10778583 -0.082652204 0.09862135 0.010569296
000240 ad fa 05 3c 20 a7 08 3d 27 43 e1 bd fe 5a 05 3e
       0.008177442 0.033362508 -0.109991364 0.13022992
000250 56 8d 79 3d ef 1b 4d bd 1c 7f d9 3c 39 02 fe bd
       0.060925804 -0.050075468 0.026549868 -0.12402768
000260 70 30 bd 3d 86 94 27 3e 74 33 e4 bd 83 30 81 bd
       0.09237754 0.16365251 -0.111426264 -0.06308081
000270 08 44 15 be 7f e3 89 bd 8d ee 51 bd f1 88 21 3e
       -0.14576733 -0.067328446 -0.05125289 0.15774895
000280 4b 83 6d 3e 81 a2 b8 3b d3 ef 16 be fa 66 84 3d
       0.23194616 0.0056346064 -0.14739923 0.06464954
000290 d0 5a f0 3d a2 fe ca bd 7a 1e 1f 3b 15 16 61 bd
       0.11736071 -0.099118486 0.002427964 -0.0549527
0002a0 39 63 3e bd dc 9c c0 bd c2 34 28 bd 75 5a 3f 3b
       -0.046481345 -0.094049186 -0.04106594 0.0029198204
0002b0 38 38 9b 3c 8a b4 3b be 2a 61 22 be 4c 7c 37 3c
       0.018947706 -0.18330589 -0.15857378 0.011199068
0002c0 a1 4e fb 3d d3 91 0b be 71 cd 02 bd 4a bb 04 3e
       0.12270857 -0.13629846 -0.031934205 0.1296207
0002d0 ed 82 86 bd d1 2a 4e bd 46 43 f9 3d a0 09 3f 3d
       -0.06567941 -0.0503338 0.121710345 0.04664004
0002e0 5e 6a 0e bd 6f 45 5a 3d 80 d6 0e bd 7a d4 74 3d
       -0.03476941 0.053288873 -0.034872532 0.059772946
0002f0 c2 60 c9 3b a4 46 87 bd 41 03 10 be a7 e6 cd bd
       0.0061455676 -0.066052705 -0.14063741 -0.10053759
000300 65 3c b8 3d dd 0e 01 3e 5f 8d d7 3c af da 2c 3e
       0.08995894 0.12603326 0.026312528 0.16880296
000310 df 95 0e 3e 96 5e 1f be 6d 01 97 3c 9a dd ed bd
       0.13924359 -0.15563425 0.018433297 -0.11614533
000320 08 37 aa 3d 85 f1 dc bb 16 8f ea 3d a5 d0 6e be
       0.08311278 -0.0067426586 0.11453073 -0.23321779
000330 3a bd ae bd a2 88 37 be f0 a4 4f bd 31 2e e8 3d
       -0.08532186 -0.17923215 -0.050694406 0.11336935
000340 45 35 22 be 73 e9 83 bd a8 90 68 be df 04 a9 3d
       -0.15840633 -0.06441011 -0.22711432 0.08252882
000350 df 55 a0 bd b1 98 f5 bd 52 04 27 3e 01 71 b5 bd
       -0.078288786 -0.11992014 0.16310242 -0.088594444
000360 77 e0 6e be 68 b0 1c 3c 01 a5 bd bb 39 30 fc bd
       -0.23327814 0.009563543 -0.0057874923 -0.12313885
000370 78 95 06 ba 04 4d 83 bd 89 e9 7a 3b 13 8b 81 3d
       -0.0005133967 -0.06411174 0.003828617 0.063253544
000380 ec 2b 04 3d bb eb 93 3e 5b 8f 3e be 58 50 8d 3d
       0.03226845 0.28890786 -0.18609373 0.0690009
000390 f0 f9 e4 3d 33 97 05 3c 6f f5 7e bd e2 e7 da bd
       0.11180484 0.0081537245 -0.062245782 -0.106887594
0003a0 e6 bc 28 3e c4 39 23 be f4 fe 5b be b9 5d 9d 3a
       0.16478309 -0.15940005 -0.21483976 0.0012006081
0003b0 53 3e 97 3d a0 f5 19 be 45 14 67 be e9 2b 3b 3d
       0.07384934 -0.15035105 -0.22566326 0.045696173
0003c0 a2 7d 9a bd 77 00 e1 bd 2c f9 2f be ba bf ae 3d
       -0.07543494 -0.10986417 -0.17184895 0.08532663
0003d0 3f a2 47 be 68 8b 25 3d b0 3a 8f bd 08 cb 63 3d
       -0.19495486 0.04041615 -0.069936156 0.055613548
0003e0 0b 04 02 3e 6f 39 a8 bc 0d 39 90 3e 49 3e bd 3b
       0.12696855 -0.020535199 0.28168526 0.0057752472
0003f0 76 42 85 3b b7 bf 2a 3e 5f 2f 82 bd ff 04 0a bd
       0.0040667607 0.16674696 -0.063566916 -0.03369617

cross_attn1.out_proj.bias f4 [32]
000000 4c a4 66 3c bd b3 ef bd d0 e3 b5 3d cd 31 9a bd
       0.014077257 -0.11704204 0.088813424 -0.0752903
000010 ab db d2 3c b6 4b af 3d 15 c3 2f 3e 2d 62 00 3e
       0.025739511 0.085593626 0.17164262 0.12537451
000020 58 24 9a bd 0b 2b 53 be 67 56 71 3d 7b ad 16 be
       -0.07526463 -0.20621888 0.05892029 -0.14714615
000030 53 aa 23 3c ce 4e 9b bd de 04 b4 3c ff 54 be bd
       0.009989339 -0.0758339 0.021974977 -0.092935555
000040 57 17 53 3e 88 6e db bc a4 d2 5f be aa 9b f1 bc
       0.20614372 -0.026786104 -0.21857697 -0.029493172
000050 09 9f 30 be e2 9f 26 bd 4d c6 4f bd 55 9a 4e 3b
       -0.17248167 -0.04067982 -0.050726224 0.0031525095
000060 7d c4 d9 3d 20 82 ba bd fc 71 dd bd a1 a2 63 3e
       0.1063318 -0.091068506 -0.108127564 0.22230007
000070 2e 34 a7 3d ed 86 90 bb d5 a6 41 bd 60 56 e7 3d
       0.08164249 -0.0044106157 -0.047278244 0.112957716

cross_attn2.in_proj_weight f4 [96, 32]
000000 2c 34 10 3e fb 2a 63 3c 0a 03 d9 bc 36 ae e0 bd
       0.14082402 0.013865228 -0.026490707 -0.10970728
000010 2c 9c 19 3e 37 4b 2a 3e 26 a1 7a be 3a 40 0a 3e
       0.15000981 0.16630255 -0.24475536 0.13501063
000020 7b e2 8d 3d 59 66 d2 3d b5 40 30 3d 37 29 26 be
       0.06927963 0.102734275 0.04303046 -0.1622666
000030 2e 86 f6 3c b4 ed 32 bd 7d 0d 3d bd ce 36 38 3d
       0.030093279 -0.043683723 -0.04615544 0.04497414
000040 76 25 41 be 84 ee 92 3d d8 ca f6 bd ac 6a 89 be
       -0.18861946 0.071743995 -0.12050408 -0.26839197
000050 04 35 ac ba 48 4d f2 bb fa d7 28 be 31 d5 cf 3d
       -0.0013138358 -0.0073944665 -0.16488639 0.10148085
000060 17 ef 13 3e 98 81 a3 bd e1 bc 5a 3e 6e 57 ba 3b
       0.14446674 -0.079837024 0.21361114 0.005686692
000070 61 e4 83 3d 60 a7 34 be c0 4d 52 3e a4 15 48 3e
       0.06440044 -0.17641973 0.20537472 0.19539505
000080 c4 05 d9 bd 47 7f 48 be 69 20 3f 3d 17 b9 09 be
       -0.10596803 -0.19579802 0.046661768 -0.13449512
000090 12 15 f4 3d 8d 75 3f 3e 74 62 20 3d c8 c1 77 bd
       0.11918081 0.18697186 0.039156392 -0.06048754
0000a0 1f 6f 29 3e 3f f9 57 3e ed 39 f3 bb ec 6d 89 bd
       0.16546296 0.21091174 -0.007422677 -0.06710419
0000b0 ea 67 b7 3d 2a 6e 03 3e 96 1d 46 be ce 33 2f 3d
       0.08955367 0.12834993 -0.19347224 0.042774014
0000c0 9e a7 ab bd 49 9e a9 3d eb e8 2d be 44 2a 46 be
       -0.0838158 0.082821436 -0.16983382 -0.1935206
0000d0 ca 86 28 bd 8f 15 34 be a0 4e 32 3e 35 25 5d be
       -0.04114417 -0.17586349 0.17412806 -0.21596225
0000e0 65 81 47 bd 74 3b 59 be e1 5a 25 3e 24 0b 83 3e
       -0.048707385 -0.21214086 0.16147949 0.25594437
0000f0 5f 2b bb bc 92 f1 24 be 62 16 06 bd 41 bb de 3c
       -0.02284783 -0.16107777 -0.03273619 0.027188899
000100 94 b5 3a 3d 20 f5 81 bd b9 31 70 3d a9 37 6d be
       0.045583323 -0.06345582 0.05864117 -0.23165764
000110 c8 6b 24 be d4 ec 2c be 87 33 77 bc 0a c5 9f 3c
       -0.1605674 -0.16887218 -0.015087969 0.019503135
000120 d0 55 04 b9 13 70 56 3e 8d 76 3d bd 73 fd 89 bd
       -0.00012620469 0.2094119 -0.046255637 -0.06737795
000130 42 e1 9d 3d 3d c1 81 3e fc a0 bb bd 9e 69 44 3d
       0.0770898 0.25342742 -0.09161565 0.047952287
000140 e2 76 0b 3e 3b 8c 96 bd d9 c3 14 bc 0d 3b 25 3e
       0.13619569 -0.073509656 -0.009079897 0.16135807
000150 27 02 64 bc 15 d4 11 be af 0a 2d 3e 39 e0 1b be
       -0.013916529 -0.14241059 0.16898607 -0.15222253
000160 22 d9 a9 bd ff f2 72 3e b3 7b 70 bd 94 ae a3 3d
       -0.08293368 0.23725508 -0.05871172 0.079922825
000170 ba 80 e4 3d 7e f1 d9 bb 88 dc 40 3e 79 6e 11 3e
       0.11157365 -0.0066511026 0.18834126 0.14202298
000180 3d 6c 1b bd 48 df 85 3e 49 e4 88 be 80 b8 0d be
       -0.03794502 0.26146913 -0.26736668 -0.13839912
000190 67 52 86 bd d4 43 9e 3e db b3 54 be 50 49 25 be
       -0.06558686 0.30911124 -0.20771734 -0.16141248
0001a0 e5 1a 07 be b5 63 23 3e c8 cb 19 bd e1 7c da 3d
       -0.13193853 0.15956004 -0.037547857 0.1066835
0001b0 87 54 1c 3e bc ca 93 3e 65 ee 47 be 43 12 ca 3e
       0.1526662 0.28865612 -0.19524534 0.39467058
0001c0 b3 16 8c be f4 14 98 bd c8 e9 80 3d 48 d6 12 3e
       -0.27361068 -0.074258715 0.0629459 0.14339554
0001d0 87 f7 4e 3d a9 da 26 be ff 99 13 be 9c a4 22 be
       0.05052903 -0.1629435 -0.14414214 -0.15883106
0001e0 68 e7 5e bd 4b f0 1b 3e f5 c4 ad 3e ba 36 27 3e
       -0.054419905 0.15228383 0.3393933 0.1632947
0001f0 d7 d3 aa bd 8d 14 62 bd fd 85 12 3e ec c6 b5 3c
       -0.083411865 -0.05519538 0.14308925 0.02218958
000200 59 0e 13 be 5f 1e b7 bd 0d 67 57 be 7e ba 1c bd
       -0.14360942 -0.0894134 -0.21035405 -0.03826379
000210 12 c1 8b bc 2f 39 48 3d 1e c5 b5 bd 17 96 a1 3d
       -0.017059837 0.04888266 -0.08875488 0.078899555
000220 34 d8 f5 3d 2d 69 91 3e ed 7c 3c be 60 24 83 3e
       0.12004128 0.28400555 -0.1840703 0.2561369
000230 e0 7b 25 3e 23 a8 51 bd 5c 47 5e 3e 61 d8 58 3e
       0.16160536 -0.05118574 0.21706909 0.21176292
000240 d6 f7 9d bb 19 fc 5d 3e c5 27 60 3e e9 66 eb bb
       -0.004820804 0.21678199 0.21890171 -0.0071838987
000250 18 15 3a be 28 a5 3e 3c dc 1d 54 3c 94 4f 0a 3e
       -0.18172109 0.011636056 0.012946572 0.13506919
000260 9a 7e 98 bd 5b 05 2f 3e f1 63 83 3b 27 46 dd 3c
       -0.07446022 0.17091887 0.0040097167 0.02701099
000270 4f 93 29 3c 2a 07 7c 3d c2 26 50 3e 0d 80 98 bd
       0.0103500625 0.06153027 0.20327285 -0.07446299
000280 fd 8c 02 be 4e 4f 03 3e 8a c2 b1 3d 8e 66 53 bd
       -0.12749095 0.12823221 0.086796835 -0.051611476
000290 e3 e2 de bd 67 22 8d be 2a 51 93 3e 86 12 82 3d
       -0.10883119 -0.2756531 0.2877286 0.06351189
0002a0 3b f1 14 be 08 3c 6a be 9b 06 5a 3e c1 92 6c be
       -0.14545147 -0.22874463 0.21291582 -0.23102857
0002b0 41 68 ca 3d 47 9d 3d be 86 5d f3 3d 13 bf 93 be
       0.09883166 -0.18517028 0.118830726 -0.28856716
0002c0 74 ae 38 3e e4 31 9b 3d cd 0b 4d 3e f4 bb 2b 3e
       0.18035299 0.07577875 0.20024033 0.16770917
0002d0 c3 d3 56 3e f3 c9 d8 bd f0 98 41 be 0c 1d 29 be
       0.20979218 -0.10585394 -0.18905997 -0.16514987
0002e0 9e 8c 98 bc 23 f3 86 bc 51 ad 6b be cb 76 c3 bc
       -0.018621739 -0.016473358 -0.23015334 -0.023860356
0002f0 89 d3 af 3d e3 08 17 bc b9 36 fb 3d ff ad 26 3e
       0.08585269 -0.009218427 0.12266297 0.16277312
000300 4a 0b 57 bd de 5b 25 3e ed 2e fd bd 57 79 bf bd
       -0.052501 0.16148326 -0.12362466 -0.093493156
000310 4b 09 e7 3c 4b f5 75 be 07 d1 1f 3c ff 09 8e bd
       0.028202673 -0.24019353 0.009754426 -0.069355
000320 f8 2e 84 bd 19 d5 76 be 34 a4 1d be eb 3a ef bd
       -0.06454271 -0.24104728 -0.1539467 -0.116811596
000330 81 e0 f2 3d dd c3 bc 3d c1 f4 22 be e5 ae 2f be
       0.11859227 0.092170455 -0.15913679 -0.1715656
000340 3f 17 18 bd 28 e5 62 be 69 dc f1 bc 8f f3 11 be
       -0.037131544 -0.22157729 -0.029524045 -0.14253066
000350 5f b6 4b 3e 57 a8 2c 3e 06 33 5b be cb f3 3d 3e
       0.19893788 0.16861092 -0.21406183 0.18550031
000360 68 15 64 be af dc f7 bd d2 7b 97 be 81 ad 21 3d
       -0.22273791 -0.12102639 -0.29586655 0.039472107
000370 a6 93 e5 bd 75 0c 70 bd 32 8c b5 3c d5 1e 47 be
       -0.11209802 -0.05860563 0.022161577 -0.19445355
000380 de b5 ce 3d 40 5e 4b 3e 6e 61 e4 bd fc 55 ca bd
       0.10093282 0.19860172 -0.11151396 -0.098796815
000390 44 e4 25 bb 5d 90 b3 3e 12 6e c7 3d 2f ea 94 bc
       -0.002531306 0.35071078 0.09737791 -0.018178074
0003a0 5c b7 b4 bd e9 d7 69 3e cf 0f e9 bd 13 32 92 3e
       -0.088240355 0.2283627 -0.113799684 0.2855383
0003b0 20 f4 20 3e 47 64 fe 3d e7 91 4e 3e e4 db 8f 3e
       0.15718126 0.1242147 0.20172845 0.2809745
0003c0 4d 34 dc bd 35 40 c8 bd c1 27 2c 3e 91 33 b9 bd
       -0.10752163 -0.097778715 0.1681204 -0.09043039
0003d0 21 8a 4f 3c 47 83 e9 bd 39 fa a9 3d 63 3b e8 3d
       0.01266721 -0.11401992 0.08299679 0.11339452
0003e0 5e b2 9f 3d 40 92 84 3d 24 33 42 3d 24 17 68 bd
       0.07797693 0.064732075 0.047412053 -0.056662694
0003f0 fb 48 ef 3c 41 6b ab bd 7c 57 dc bd 02 7f 2e 3e
       0.029209604 -0.083700664 -0.10758874 0.17040637

cross_attn2.in_proj_bias f4 [96]
000000 79 91 80 3d d9 e2 f2 3c a8 d1 b7 3c 93 de 21 3d
       0.06277747 0.029649185 0.02243884 0.039518904
000010 91 ff 24 3c 31 f2 15 bd fc f4 5c 3c 99 db 68 bd
       0.010070697 -0.036607925 0.013486143 -0.05685005
000020 b3 50 c6 bd e9 5f 22 be 06 2d 17 3e 57 da 15 bd
       -0.09683361 -0.158569 0.14763269 -0.03658518
000030 b4 56 43 bd 88 20 0b be ef 13 1a 3e 1e 49 17 bd
       -0.04769011 -0.13586628 0.15046667 -0.036934964
000040 29 ff 08 be dc 41 68 bd 6b ea 8c bd 20 45 6b 3d
       -0.13378586 -0.056703433 -0.06880649 0.05743897
000050 61 3f b7 bd 70 cb af bd ac be 8a bc 73 d6 1d bd
       -0.089476354 -0.085837245 -0.016936623 -0.038534593
000060 ed 94 27 bc 2f ba bb bc 26 4f 14 3e ce db 2c 3e
       -0.010228378 -0.022915928 0.14483318 0.16880724
000070 8f a0 f4 3d ae a1 99 3d a0 6b 05 be 11 f1 11 3e
       0.119446866 0.07501541 -0.13029337 0.14252116
000080 fb a9 0c bc d1 1d 83 bb a4 7b c3 3b a7 85 93 bb
       -0.008585448 -0.004001357 0.005965667 -0.0045020166
000090 ea 20 ae bb 6b 69 84 3a 28 f0 ff 3b 6d 1d 9e bb
       -0.0053139823 0.0010102218 0.0078106113 -0.004825285
0000a0 51 d5 a5 b9 5c 72 79 3c ed da a8 bb 00 3c 60 bb
       -0.00031630186 0.015225019 -0.005153051 -0.003421545
0000b0 10 b0 8c bb b3 85 e8 3b 25 30 77 bb 5b 52 b2 3b
       -0.004293449 0.0070960163 -0.0037717905 0.0054419464
0000c0 0a 5b c3 3b e5 ce 6a 3c cf c5 26 3c 5a c0 d3 bb
       0.0059617804 0.014331554 0.010178997 -0.006462139
0000d0 00 99 06 bc 2b d2 65 3a 64 7f 25 bc 11 d8 93 3b
       -0.008215189 0.0008766974 -0.010101173 0.004511841
0000e0 e6 47 73 3b 4d e0 ce ba ba a9 16 ba de 92 fe 3a
       0.0037121712 -0.00157834 -0.0005747337 0.0019422432
0000f0 7f f6 08 3a a1 ec 27 3c d0 4c c6 3b 36 a1 1e 3b
       0.0005224719 0.010249288 0.006051637 0.0024204976
000100 f3 92 5a 3c fb 76 85 3c b3 20 b5 bc 2a 7b 91 bb
       0.0133406995 0.016292086 -0.022110319 -0.004439731
000110 67 d3 83 3c 0d 1d 07 bd d9 b0 0f 3d 82 32 ff 3b
       0.016092015 -0.03298669 0.035080764 0.0077880034
000120 ec e2 2d bd fa ba 6c bc 40 8a 43 bd 56 f3 0f 3b
       -0.042452738 -0.014448876 -0.047739267 0.0021965108
000130 4f 10 03 3d 08 06 bb 3b dd 4a 65 bd c5 d7 04 3d
       0.031997975 0.005707506 -0.0559796 0.032432336
000140 a5 b3 46 3d 39 e5 36 3c e4 17 93 bc da 51 dc 3c
       0.048511166 0.011163049 -0.017955728 0.026894499
000150 27 f6 96 3c f8 4c 9a 3c 1c 1d dd 3b 7e 90 4f 3c
       0.018427921 0.01883553 0.006747855 0.012668727
000160 34 6c b1 3c fa b9 66 3d 00 de 2d bd 1b a9 f2 3c
       0.02165804 0.056329705 -0.042448044 0.029621651
000170 00 2c fd bb cb 6b 88 ba 49 e7 7c 3c 50 9a 3c bd
       -0.0077261925 -0.0010408101 0.015436002 -0.0460456

cross_attn2.out_proj.weight f4 [32, 32]
000000 3d 51 f6 3d 64 a3 80 3c 4a ee 8d 3b 7b 26 03 be
       0.12027214 0.01570291 0.004331385 -0.12807648
000010 d0 08 21 3d 50 17 88 3c 4f 62 fe 3b 73 46 45 3d
       0.039315045 0.016612679 0.007763184 0.04816289
000020 6d e6 c6 3b 15 7b 51 bc 20 4c 6e 3c 5a 9e 38 3d
       0.0060699494 -0.012785693 0.014544517 0.04507289
000030 bd 4c 6b bd 39 31 d0 3d 1f 12 c3 bc 37 ea 07 3d
       -0.05744623 0.101656385 -0.023812352 0.03318235
000040 fb c1 14 3d 35 72 e9 bd 1d 8f 90 bd 92 d8 96 ba
       0.036317807 -0.113987364 -0.07058547 -0.0011508635
000050 a6 f5 41 3c 1a a4 6c 3c 19 88 1d 3d ef bd 2b bd
       0.011838352 0.014443422 0.03845987 -0.04192918
000060 93 f8 59 bd 2f c2 3e 3d 63 99 9f bd 99 10 16 3e
       -0.053215574 0.046571907 -0.07792928 0.14654769
000070 c4 38 e7 bd 81 a3 0f 3e 4d 9c c4 bb 6e e2 46 3d
       -0.11290124 0.14027216 -0.006000078 0.048555784
000080 23 f0 0b be 85 30 65 bd 1f 4d be 3d 42 e8 d5 3d
       -0.13665824 -0.055954475 0.092920534 0.1044469
000090 71 e4 0a bb 17 f2 83 bd 82 d2 1c 3c 48 40 3e 3c
       -0.002119329 -0.06442659 0.009571673 0.0116120055
0000a0 e1 b9 2e 3d 9a ad 0e 3e b7 a7 b1 bc 06 0e 92 bd
       0.042657737 0.13933411 -0.021686418 -0.07131581
0000b0 3c d0 cf 3d c1 f6 77 3d 99 15 8c 3c 83 24 d9 3c
       0.101471394 0.060538057 0.017100142 0.026506668
0000c0 5e 03 85 39 eb aa 9a bd ea cb ba bd ef 5d a4 bd
       0.00025370246 -0.07552131 -0.09120925 -0.08025729
0000d0 17 e7 05 be 4a 6b 8e bc 6d 41 88 bd b0 a1 d7 bc
       -0.13076435 -0.017385144 -0.06653104 -0.026322216
0000e0 da 42 2c bd d2 46 07 be cf 5e 55 3d 2c 0f 44 3d
       -0.042055942 -0.1321061 0.05209237 0.04786603
0000f0 1a 6f 3b bd 35 b2 30 3d 22 0b 9d 3b d6 e0 a8 3d
       -0.04576025 0.0431387 0.004792587 0.08246009
000100 13 a9 af 3d 9b 00 cc bd e6 12 e3 3d 1f 73 b9 3d
       0.0857717 -0.09961053 0.11087589 0.09055161
000110 c8 dd 87 bc 29 b2 52 3d 62 24 a1 3d ec 24 e4 bc
       -0.016585246 0.051439438 0.078682676 -0.027849637
000120 2e 63 91 bc 38 4f e5 bd ab 8c a1 3d 5f a4 25 bd
       -0.017747488 -0.111967504 0.078881584 -0.04043996
000130 bd 47 2d bd 68 77 7f bd a3 f8 3b 3d 28 d9 b9 bc
       -0.042304743 -0.062369734 0.045891415 -0.022686556
000140 ff 01 71 bd ea 50 6a 3c a1 a0 97 3d 3b f2 2b bb
       -0.058839794 0.014301518 0.074036844 -0.002623691
000150 2a c7 c2 bd 4c a8 9b bd 5d 49 a2 3d e9 dd de bc
       -0.09510644 -0.076004595 0.07924149 -0.027205424
000160 d4 42 83 bd e0 80 e9 bd 55 9a 98 bd 81 79 d2 bd
       -0.06409231 -0.11401534 -0.074513115 -0.10277081
000170 00 ac a8 bd e3 98 78 3d 8e 80 90 3d 8c 94 f0 bb
       -0.082359314 0.06069268 0.0705577 -0.007341927
000180 e7 91 3c 3d d5 dd d6 bd fd 76 60 3d 35 d8 09 bd
       0.04603758 -0.1049153 0.054800976 -0.033653457
000190 8f 7c be bd 91 e1 8e bd 2a e9 85 3d 4c ee 91 3d
       -0.093011014 -0.06976617 0.06538613 0.0712553
0001a0 16 c2 49 3c 5c fe 90 bd fe 45 85 b9 6d 0c 42 bc
       0.01231434 -0.07079765 -0.00025419885 -0.011843783
0001b0 6f 7a 12 bd 66 39 13 bd 76 d2 9f 3c de 03 53 bd
       -0.035761293 -0.03594341 0.019509535 -0.05151736
0001c0 3b ee 92 3d cf 80 a8 3b ef 4b c4 3c 9a bf f4 bc
       0.07174345 0.0051423083 0.02396199 -0.029876519
0001d0 7c 94 86 bd d1 12 53 3d 3a 4e 65 3d d8 7a 84 bd
       -0.0657129 0.051531617 0.055982806 -0.06468743
0001e0 f1 e0 b1 3d dc b4 17 be 70 af c7 3d 8f a5 83 bd
       0.08685482 -0.14815086 0.09750259 -0.06428062
0001f0 9c 49 f1 3d 17 47 3b 3d 97 68 1d bd cb 03 70 3d
       0.11781618 0.045722093 -0.038429823 0.058597367
000200 01 dc b1 bd 91 6c 04 be 8a 3b f3 bd 70 e5 a1 bb
       -0.086845405 -0.1293204 -0.118765905 -0.004940681
000210 5e f9 2c bd 29 be 56 bc 5c 19 08 bd 34 8d 0e 3d
       -0.042230003 -0.013106861 -0.03322731 0.03480263
000220 40 6d 5e 3c c5 f3 81 bd 6a cb 94 3d 5a 48 c1 3c
       0.013575852 -0.063453235 0.07265361 0.02359407
000230 d4 63 c2 bd ec 1d 9b 3d 31 a0 d5 3d c3 dd e1 bd
       -0.09491697 0.075740665 0.10430945 -0.11028626
000240 de 65 04 bc 2c 85 12 3e ed e5 47 3d 32 09 1f 3d
       -0.008080928 0.14308614 0.04880326 0.03882713
000250 1c 3d 32 be 52 27 a4 bd 2b c4 28 be de aa f4 bc
       -0.17406124 -0.08015312 -0.16481082 -0.029866632
000260 4b 41 d7 3b 3e a1 2e be db 83 11 be 0b ba d1 bd
       0.006569063 -0.17053697 -0.14210455 -0.10240563
000270 b9 74 e9 bd 8f 7a 37 3d db f8 27 3e f8 dd 6c bd
       -0.11399216 0.044794615 0.16403525 -0.057828873
000280 27 43 28 bc 85 90 12 be fa 66 28 3c ba 64 9a bd
       -0.010269917 -0.14312942 0.010278458 -0.07538743
000290 00 ce ec 3c 9d c4 17 bd 00 2f a5 bd dd 81 24 3d
       0.028906822 -0.03705274 -0.08065605 0.04016291
0002a0 59 ed 8b bd e1 ff 43 be 53 f6 c8 3d 2b 6c c8 bd
       -0.0683238 -0.19140579 0.098126076 -0.097862564
0002b0 9f 8d 36 3d 1b cd 76 bc fd 3c 58 bd 2c f6 1a bd
       0.044568654 -0.015063549 -0.052792538 -0.037832424
0002c0 33 6d 17 bd e9 1a 18 3e 68 f9 e9 bc 7b 5f e0 3d
       -0.036969375 0.14854015 -0.028561309 0.109557115
0002d0 ff d1 d4 3d 9d ee 0e bc be f0 c7 bd ce dd 4e bd
       0.10391616 -0.008723882 -0.09762715 -0.0505045
0002e0 91 88 2f 3d 96 89 e2 3c b0 92 1e be 5f 70 14 bd
       0.04285485 0.027653497 -0.15485644 -0.036239978
0002f0 2d 9f 22 be 38 c4 27 bd f6 5b b0 bd 97 00 64 bd
       -0.15881033 -0.040958613 -0.0861129 -0.055664625
000300 a7 c3 f7 bc 64 bb 27 3e ee 8a 48 bd 58 3d 19 3d
       -0.030244661 0.16380078 -0.04896062 0.037412018
000310 f3 d6 f8 bd ee 83 04 be f1 f1 81 3c b8 8c b7 3d
       -0.12150373 -0.12940952 0.015862437 0.08962387
000320 e2 87 db bd ce 86 0d bd 2e b2 1c bd 94 63 a7 3b
       -0.10719277 -0.034552388 -0.038255863 0.005108306
000330 5a ea fe 3d ce d7 af 3d 0a 92 6e bd 37 31 f5 bd
       0.12447043 0.08586083 -0.058244742 -0.119722776
000340 4c 4e fb 3d 7a b9 d5 bb 34 b9 cc 3d ed e6 98 bd
       0.12270793 -0.0065223547 0.09996262 -0.074659206
000350 34 7e 97 3d 02 3a 2b be bd 56 e6 3d 34 7d 43 bd
       0.07397118 -0.16721347 0.11247013 -0.047726825
000360 a4 a3 56 bd 58 c2 96 3a 50 fc 68 be 07 d7 09 be
       -0.052402154 0.0011502011 -0.227525 -0.13460933
000370 7b 21 01 3d 73 8b fe 3d ef 0b 31 3e dc 1b ab 3c
       0.03152607 0.124289416 0.17289709 0.020887308
000380 4f dd 37 3d be d3 03 bd 73 45 0f bd 37 eb 64 3d
       0.04488879 -0.032184355 -0.03497834 0.05588838
000390 2d f3 ec bc 22 88 6d 3d c2 3f 31 be 39 67 b9 3c
       -0.028924549 0.057991154 -0.17309478 0.022632228
0003a0 fa c2 5b bd 4a 88 9f 3d 54 d0 e1 3c 60 0d a6 3c
       -0.05365274 0.07789667 0.027565159 0.02027005
0003b0 8e 06 ea bb 10 fb 95 3b c0 1d 0b 3b 1a 7b cc bd
       -0.0071418947 0.004577048 0.002122745 -0.09984417
0003c0 4f ea fb bd 2b 1f 67 3d 39 e3 94 bb 8b d3 42 3e
       -0.1230055 0.05642621 -0.0045436886 0.1902601
0003d0 e4 e4 d6 3d 59 cb 2c bd f5 3e 83 bd ee db b5 3d
       0.10492876 -0.042186115 -0.064084925 0.08879839
0003e0 2d 10 17 3c aa a0 ca bd a1 c8 ba 3d 65 2f 90 bd
       0.009220165 -0.098939255 0.09120298 -0.0704029
0003f0 59 5f ed ba 11 b9 f2 3d 9f 85 55 3d 2d eb c0 3d
       -0.0018110081 0.11851705 0.052129384 0.09419856

cross_attn2.out_proj.bias f4 [32]
000000 d9 3e af 3c 81 d0 80 be 82 fb 15 be 25 65 17 be
       0.021392273 -0.25159076 -0.14646724 -0.14784677
000010 c7 21 e1 3c ba 9b 13 3e c5 53 14 3e 6a 4d 73 3d
       0.027481927 0.14414874 0.1448508 0.0594
000020 2b 55 65 bd 8f 6b ec 39 7f 6f 01 3e 0b 70 15 bd
       -0.055989426 0.00045093565 0.12640189 -0.036483806
000030 77 91 27 3e bc d3 0a bd 62 1d 60 3e b0 6d 9d be
       0.16364084 -0.033893332 0.21886209 -0.30747747
000040 47 79 b3 bd 83 f4 b0 bd 34 70 50 3c bf 8a b9 3d
       -0.08763366 -0.08640387 0.012722064 0.09059667
000050 e2 6e 2e bd 90 0d 83 3e 20 ba 1d 3e 38 50 55 3e
       -0.042586215 0.25596285 0.15403032 0.20831382
000060 69 95 1b 3e 0f 2d 25 be ee 64 fb bc 83 6f 43 be
       0.15193714 -0.1613047 -0.030687775 -0.19085507
000070 14 91 bd bd ac e4 12 be fe b3 eb 3d e1 57 71 be
       -0.09256187 -0.14345044 0.1150894 -0.2356868

ff.0.weight f4 [128, 32]
000000 9b 60 b5 bd 3b ac 3e 3d d1 02 23 3e ce 33 79 be
       -0.08856317 0.04655097 0.15919043 -0.24336168
000010 e6 4c 82 3b 10 5f c9 3c 9f 66 a8 bd c0 22 5e be
       0.003976452 0.024581462 -0.082226984 -0.21692944
000020 ae 83 e3 bd a4 2b 3e 3e 94 cb 3d 3e db b0 dc bb
       -0.111091 0.18571335 0.1853469 -0.00673495
000030 03 68 84 bc 72 87 c2 3e 83 30 6a 3d 76 bf b0 3e
       -0.016162878 0.37993962 0.05717517 0.34521073
000040 b9 29 2f be 80 6c 3d be 4d de 85 3b 3d 4e 89 3d
       -0.1710576 -0.1849842 0.004085338 0.06704376
000050 5e d8 cd be a9 b7 26 3d 81 f5 63 3e d3 b8 80 be
       -0.40204138 0.040702496 0.22261621 -0.2514101
000060 ce c4 3a 3c cb 13 01 3e f2 ba 79 3c cc 81 fc 3d
       0.011399461 0.12605207 0.015242325 0.12329444
000070 d1 c0 01 3c 45 2c b9 3c 4f 94 8c be fa 8a 2a 3e
       0.007919506 0.022604117 -0.274569 0.16654578
000080 70 18 e7 bd e3 4a 4a bc 59 a0 05 3e a0 64 5f 3c
       -0.11283958 -0.012346956 0.13049449 0.013634831
000090 44 6b d9 3c 87 1f da bd 41 ec 1a be 2f 90 79 3c
       0.026540406 -0.106505446 -0.15129186 0.01523213
0000a0 47 02 dd 3d c6 d9 2a bd d6 a7 63 bd b7 3a cc 3c
       0.1079145 -0.04171159 -0.055579983 0.024930341
0000b0 69 e0 1f bd 0a 59 82 be dc 2a b2 bd ed 2b af 3d
       -0.039032374 -0.25458556 -0.08699581 0.085533
0000c0 9c 02 30 3e da 6a 01 3e cd c5 45 3e 71 a9 3d be
       0.17188495 0.12638417 0.19313736 -0.18521668
0000d0 14 ee 99 3e 40 b7 70 3d e8 fc b5 bd 6a 30 31 3e
       0.30064452 0.05876851 -0.08886129 0.17303625
0000e0 7a 18 2b be 33 80 cf 3d a4 48 6f 3d 47 e3 d3 bc
       -0.16708556 0.10131874 0.058418885 -0.02586521
0000f0 27 c7 20 bd a4 54 1a 3e 3f b1 1e be cf 61 d6 3d
       -0.039252426 0.1507135 -0.15497302 0.10467874
000100 96 5f 19 3e 2f ff 37 be 32 de 9d bd 01 99 42 3d
       0.1497787 -0.17968439 -0.07708396 0.047509197
000110 55 02 a4 3c 2b 6a 48 3e 4a eb b8 3d 48 83 2e 3e
       0.020020643 0.1957175 0.09029253 0.17042267
000120 e5 a4 0d 3d 9e d6 e1 3c c0 4a 5c 3e 72 e3 2f bd
       0.034581084 0.027568158 0.2151289 -0.042941518
000130 65 7e 2f 3e 0e ec 18 be f5 95 95 be f2 f4 ac bc
       0.1713806 -0.14933798 -0.2921597 -0.021112893
000140 0a f4 93 bd c2 0e 31 be e9 31 04 3e a7 4a f7 bc
       -0.07224281 -0.17290786 0.12909664 -0.030186964
000150 b4 16 15 be 03 c6 31 be 7b 51 95 bd 1a aa 69 3d
       -0.14559442 -0.17360692 -0.07290932 0.057046987
000160 b6 a5 33 3d e5 48 ef 3d 52 a8 9d 3d 70 6e 7d bb
       0.043859206 0.116838254 0.0769812 -0.0038670562
000170 40 00 98 bd b2 dc 6c be e5 fd d4 bd 16 2a 4d bd
       -0.07421923 -0.23131064 -0.10399989 -0.050088964
000180 ae 92 9a bd 0e 8f 80 be 60 c8 7b 3d 37 ce 16 bd
       -0.07547508 -0.25109142 0.06147039 -0.036817756
000190 9e af 53 3e 77 7d 24 3e ea 03 c8 3d 53 03 00 be
       0.20672461 0.16063486 0.097663715 -0.12501268
0001a0 81 9f 91 3c aa 17 fc 3d aa 6b 18 3e 72 c6 2b ba
       0.017776253 0.12309201 0.1488482 -0.0006552703
0001b0 aa 2a 25 3d 6b c6 0a be 49 bd d2 bc 00 49 17 3e
       0.04032389 -0.13552253 -0.025725024 0.14773941
0001c0 5c 8b 06 be b1 81 59 bd cd ab 74 3e c8 cc 86 3d
       -0.13139099 -0.0531022 0.23893662 0.06582028
0001d0 b8 7f 53 bd e8 9b 51 3e e5 e1 24 3e 34 ff a1 bd
       -0.051635474 0.2046963 0.16101797 -0.07910004
0001e0 50 b8 fb 3c c8 c2 fa bd e4 20 2d 3e d3 47 17 be
       0.030727535 -0.12244183 0.16907078 -0.14773493
0001f0 b7 16 3c be 8c d2 1a bd 11 25 54 bd c7 27 66 3d
       -0.1836804 -0.03779845 -0.05179316 0.05619028
000200 fa 86 12 bd d2 aa 72 bc 95 05 fa 3c 08 b1 58 3d
       -0.035773255 -0.014811235 0.03052024 0.052903205
000210 86 f1 f9 3d 18 89 65 bc 47 ec 9e bd 01 20 bc bc
       0.1220427 -0.0140097365 -0.0775991 -0.02296448
000220 14 b0 da 3a 81 99 f2 3c ab 3e 7d 3c cf d9 ab bd
       0.0016684555 0.029614212 0.015456836 -0.08391153
000230 85 47 a3 3e 8e a3 8e bd 46 40 90 bc 7e 97 13 3c
       0.31890503 -0.06964789 -0.017608773 0.0090082865
000240 e9 23 82 be dd 65 1d bb b9 ad 07 3e 63 de 19 bd
       -0.25418022 -0.0024017014 0.13249864 -0.0375656
000250 36 8c 29 be bc a4 a6 bd 52 ad 84 3d 23 a3 76 bd
       -0.16557392 -0.08136889 0.06478371 -0.060214173
000260 68 b9 b1 3d 20 7d fb bb 6f 18 0c be 10 30 71 3d
       0.086779416 -0.007674828 -0.13681196 0.058883727
000270 f2 61 ec bd 3b c8 92 be ff 8c 1e 3e 91 72 34 be
       -0.11542119 -0.2866839 0.15483473 -0.17621829
000280 97 af 65 3e 32 0e 3a 3d ec 11 94 bc 38 8b 3c 3e
       0.22430263 0.045423694 -0.018074952 0.18412483
000290 55 d8 b3 3e b6 de d2 bd d5 47 53 be 6c 2c 7f be
       0.35125986 -0.10296385 -0.2063287 -0.2491929
0002a0 ba da 67 be 1c 61 9a be 8e 9a ae bd f1 9f 00 be
       -0.22642031 -0.30152214 -0.08525573 -0.12561013
0002b0 e2 b0 d8 ba 61 22 c7 3c 74 c7 88 be 3b c0 4b be
       -0.0016532207 0.024308385 -0.2671467 -0.19897549
0002c0 5e a4 6a bc 82 37 d5 3d 20 3b 6a 3e 7d ae 22 be
       -0.014321415 0.10410978 0.22874117 -0.15886874
0002d0 cb 0f 48 bd b3 5d 0a be ef 4f 0d 3e 18 bc e0 bd
       -0.048843186 -0.13512306 0.13800023 -0.10973376
0002e0 ef 66 97 bd a5 ff 44 3e 3e e8 6c be be 59 ed 3c
       -0.0739268 0.19238146 -0.23135468 0.028973456
0002f0 80 1d 14 bd 92 6f d1 3e 40 c5 71 be c7 5e ba bd
       -0.036160946 0.40905434 -0.23610401 -0.091001086
000300 3d a0 04 bd f1 2a 57 be 33 67 bf 3d 1d a7 cd 3c
       -0.032379378 -0.21012475 0.093458556 0.0251041
000310 e4 ec fe 3d 74 16 b0 3d 4e 2c 5a 3d c8 8d 25 be
       0.12447527 0.085980326 0.05326491 -0.16167367
000320 75 46 c7 3c d3 be 07 be bd 9a 0c 3d 7c d1 dd bd
       0.024325589 -0.13256387 0.034327257 -0.108309716
000330 83 3f 46 bd b7 22 f7 bb bf a1 01 be 69 d4 bc 3d
       -0.048400413 -0.00754198 -0.12659357 0.092202015
000340 90 1c c8 3d 41 1c 41 3d 84 95 fc bc 44 e7 5a 3e
       0.09771073 0.047146086 -0.030833013 0.21377283
000350 5c a9 30 bc 91 2c 09 3c 07 04 d0 3d fc f2 06 3e
       -0.010782566 0.008372442 0.10157018 0.13178629
000360 78 69 e2 3d b7 8f 94 3d 81 ff 1f 3e a6 f5 8f 3d
       0.11055273 0.07253974 0.15624811 0.070292756
000370 87 93 ff bd d4 a5 4e be c1 cf e4 bd 78 1e 03 bd
       -0.124793105 -0.20180446 -0.111724384 -0.03201148
000380 0a 41 76 bd 6f ce 8b bd b4 e8 f0 bb c6 7a 42 bd
       -0.06012062 -0.068264835 -0.007351959 -0.047480367
000390 99 5a 96 3d 04 44 83 3d a6 1e e3 3d 36 37 68 3c
       0.07341499 0.06409457 0.1108983 0.01417332
0003a0 be 9b 30 be 7b b1 23 bd f7 bc 24 be fa ec f1 ba
       -0.17246911 -0.03996418 -0.1608771 -0.0018457465
0003b0 5c 60 23 ba c2 fb 90 3d b7 19 16 be 0e a3 fe bc
       -0.0006232315 0.07079269 -0.14658247 -0.03108361
0003c0 dc 26 cd bd 78 8e c8 bd 1b fa 70 bd cd a4 77 3d
       -0.100171775 -0.09792799 -0.05883227 0.0604599
0003d0 d4 9d 14 be 02 37 9b be ba 4f 48 bd 7a b5 cc bd
       -0.14513332 -0.30315405 -0.04890416 -0.099955514
0003e0 d0 7f 9d bb 8b 86 91 3d a6 37 8e 3c b0 f3 cd 3b
       -0.004806496 0.0710574 0.01736052 0.0062851533
0003f0 07 91 ef 3d 4f 48 00 bd 00 bc 6e bd fe c2 1d bc
       0.11697584 -0.03131896 -0.05828476 -0.009629009

ff.0.bias f4 [128]
000000 03 e9 57 be dc 6d eb 3d f3 7f 1e be 8b 1e 2e be
       -0.2108498 0.114955634 -0.15478496 -0.17003839
000010 ab e0 02 be 21 11 ae 3d 54 2c 80 be cc f0 94 be
       -0.12781017 0.08499361 -0.2503382 -0.29089963
000020 a0 ed 49 bd 0a e9 0d be 5d 2e 67 be 11 38 18 3e
       -0.049298882 -0.13858429 -0.2257628 0.14865138
000030 bf 16 78 be 9a 6c e9 3d ac 97 2e 3d e3 d5 9a bd
       -0.24227427 0.11397667 0.042625114 -0.07560327
000040 a2 c6 67 be ab 97 0e be 4e c9 ff bd d8 6b b8 3d
       -0.22634366 -0.13925044 -0.12489568 0.090049446
000050 91 e4 3c be 6b 9f 84 3d 76 0b d7 bd 05 bb 92 be
       -0.18446566 0.06475719 -0.10500233 -0.2865831
000060 e7 af 43 be 3b 02 e8 bd 5a 38 33 3e b1 87 5b 3e
       -0.1911007 -0.113285504 0.17501965 0.21438481
000070 d7 9e 61 3e 0c 37 4e be f2 4d 7e bc 2d 03 2a bd
       0.22033249 -0.20138186 -0.015521513 -0.041506935
000080 5a 55 05 be 02 8e 9f 3d da ba 4b 3e c2 bd 8f be
       -0.1302084 0.07790758 0.19895497 -0.2807446
000090 5c 28 b6 bd 1f 05 6a be fc 83 97 3c dc 1b 10 3d
       -0.08894417 -0.22853516 0.018495552 0.03518282
0000a0 f0 08 11 bd 89 9d 18 be 9a 03 84 bd 95 55 56 3d
       -0.035408914 -0.14903845 -0.064459994 0.05232771
0000b0 70 ad 00 3e a5 6d 46 bc 82 c1 26 3e 31 92 11 be
       0.12566161 -0.012111102 0.16284755 -0.14215924
0000c0 88 2a 81 bd 02 3d 2f be b6 97 94 bd 44 4e a2 3d
       -0.0630694 -0.17113116 -0.07255499 0.07925084
0000d0 71 a2 95 be e3 4b c1 bd 6c 8e a5 3d b4 73 ac be
       -0.29225495 -0.09438302 0.080838054 -0.33682024
0000e0 c0 ba 10 bd b4 86 b5 3d b5 7e d4 bd bd 26 91 be
       -0.03533435 0.08863583 -0.1037573 -0.28349867
0000f0 28 47 b2 3b 0a 21 b8 bb 28 80 42 3c e0 a3 aa be
       0.0054406114 -0.005619173 0.011871375 -0.33328152
000100 53 5b 8a be a3 6b 4d be d1 45 2f 3e aa 87 36 be
       -0.270228 -0.20060591 0.17116477 -0.17825189
000110 b4 68 41 3e 25 f3 bb bc 3e 38 e4 bd c6 87 89 3d
       0.18887597 -0.022943089 -0.1114354 0.0671535
000120 f5 0a 52 3c 03 25 ad be db 2a a9 bd 59 ab 0d 3e
       0.012819995 -0.338173 -0.08260127 0.13834895
000130 54 48 ea bc 5a 5c be 3d 76 2d 2c be ed 90 28 3e
       -0.028598942 0.092949584 -0.16814217 0.16461535
000140 55 fa b7 bd ce 16 e5 3c dc f8 17 3e 4f a6 29 be
       -0.08983294 0.027964976 0.14841026 -0.16567348
000150 91 cc 24 3d 8b db 70 be ea 12 3f be 3c 07 e2 bc
       0.040234152 -0.23521249 -0.18659559 -0.02759134
000160 d7 e6 6c 3c c5 78 8a 3d 4f c1 90 bd fc 53 34 3e
       0.014459333 0.06761316 -0.07068121 0.17610162
000170 68 05 8f 3d c3 ec 78 bd ec 60 97 be bb 4b 3a be
       0.06983453 -0.06077267 -0.29566133 -0.18192951
000180 5e 7d 98 bd 28 f4 b4 bc da 59 bd bd 0d e1 b3 3c
       -0.07445787 -0.022089079 -0.092456535 0.021957899
000190 46 74 a8 3d 62 8b ac bd 62 f5 85 be 6e 42 4f be
       0.082253024 -0.08425023 -0.26163775 -0.20240185
0001a0 a1 6b a2 be 30 d2 3a 3e a5 60 96 be 0a 21 3d bd
       -0.3172274 0.18244243 -0.2937061 -0.046174087
0001b0 7e 41 45 bc cc 86 17 bd 6a bf 88 be 70 ff 79 3d
       -0.01203954 -0.036993787 -0.26708537 0.06103462
0001c0 c4 86 c1 bd 6c df ad bd a7 31 87 3d a0 9e ca 3d
       -0.09449533 -0.0848988 0.06601267 0.098935366
0001d0 96 f7 2a be c4 2e ca bc d3 ab 40 be 37 b4 fc bd
       -0.16696009 -0.024680503 -0.18815546 -0.12339061
0001e0 18 e2 28 be 45 4c 83 bd ca 93 2c 3d ee ec 47 be
       -0.16492498 -0.06411032 0.04213313 -0.19523975
0001f0 23 18 52 bd 9c 44 40 bc 1d a4 61 3e 5b ed 2b be
       -0.05129255 -0.011735108 0.2203526 -0.16789763
