checkpoints/operation_prediction/graph_embedding_model.pth (torch, 82794 bytes, 20 tensors)

local_head.gconv.convs.<stroke___temp_previous___stroke>.nn.0.weight f4 [32, 12]
0	0xbe73af21	-0.23797275
1	0xbd909268	-0.07059175
2	0x3e46d1fc	0.1941604
3	0x3e5230a8	0.20526373
4	0xbdf7cf80	-0.12100124
5	0xbdebf082	-0.115204826
6	0xbdf9b13e	-0.121920094
7	0x3d1dbf08	0.03851226
8	0x3e60d9f8	0.21958148
9	0xbe15e8be	-0.14639565
10	0xbcdba2a0	-0.026810944
11	0x3e834c20	0.25644016
12	0xbd5b9980	-0.053613186
13	0xbd137f98	-0.036010355
14	0x3e0768fe	0.13223645
15	0x3e627378	0.2211436
16	0x3de51340	0.11185312
17	0x3e4e3dbc	0.20140737
18	0xbe12b009	-0.14324965
19	0x3e618c98	0.22026289
20	0x3cffb760	0.03121537
21	0x3b1e9180	0.0024195611
22	0xbe60e2d0	-0.21961522
23	0xbe11c710	-0.14236093
24	0xbdebf57c	-0.11521432
25	0xbe3abd1e	-0.18236205
26	0x3e62cf90	0.22149491
27	0xbd8fc38e	-0.07019721
28	0x3e8f6020	0.28003025
29	0xbe868ca0	-0.26279163
30	0xbe72318e	-0.23651716
31	0x3c9c9380	0.019113302
32	0xbd9b6ea4	-0.075894624
33	0xba6bea00	-0.00089994073
34	0xbe8ed581	-0.27897266
35	0xbd911eec	-0.07085976
36	0xbdf60638	-0.12012905
37	0xbe8bc673	-0.27299842
38	0xbe698cfc	-0.22807688
39	0x3d1bd3e8	0.038043886
40	0x3e1ecd58	0.1550802
41	0xbd61c208	-0.055116683
42	0x3e4ee038	0.2020272
43	0xbe92f4f4	-0.2870251
44	0xbe8c3dc8	-0.27390885
45	0x3cca1170	0.024666518
46	0x3e40a8f0	0.18814445
47	0x3e86327a	0.26210386
48	0x3e78c5e0	0.24294233
49	0x3c90ddd0	0.017683893
50	0x3cb68250	0.022278935
51	0xbe12cfff	-0.14337157
52	0x3df16bec	0.117881626
53	0x3e704d54	0.23466998
54	0x3b4c0480	0.0031130612
55	0x3e6a3ea0	0.22875452
56	0xbd91b7a0	-0.07115102
57	0x3e72cac0	0.23710155
58	0xbd40d1c0	-0.047075033
59	0xbe185e30	-0.1487968
60	0xbe76b5fa	-0.24092856
61	0xbe3f3bd0	-0.1867516
62	0x3e92e040	0.28686714
63	0xbe602af4	-0.21891385
64	0x3dbbe144	0.091738254
65	0x3e8989da	0.26862985
66	0xbcb8bb90	-0.022550374
67	0x3e11701a	0.1420292
68	0xbe916601	-0.28398135
69	0xbd23f03c	-0.040024027
70	0x3e2f80d0	0.17138982
71	0xbe90edb0	-0.2830634
72	0x3c9899a0	0.018627942
73	0xbd824688	-0.06361109
74	0x3e770930	0.24124599
75	0xbd63db48	-0.055629045
76	0xbe081172	-0.13287905
77	0x3e895a7a	0.2682684
78	0x3dafbdc4	0.08581117
79	0xbe4cdcbd	-0.2000608
80	0xbde6520e	-0.112461194
81	0xbbc07d40	-0.005874306
82	0x3e8a960e	0.27067608
83	0x3e7e5358	0.2483648
84	0xbe4d6584	-0.20058256
85	0x3e92ed66	0.28696746
86	0x3e0099e6	0.12558708
87	0xbe61af5e	-0.22039554
88	0x3e18b5d8	0.14913118
89	0xbe9227e9	-0.28546074
90	0xbe93120f	-0.28724715
91	0x3e05f546	0.13081846
92	0x3c9b2730	0.018939584
93	0xbd263898	-0.040581316
94	0xbd9ff29e	-0.078099474
95	0x3db30604	0.08741382
96	0xbdc62680	-0.09675312
97	0x3d0f9170	0.03505081
98	0x3e38fe68	0.18065798
99	0xbe09110a	-0.13385406
100	0x3e212268	0.15735781
101	0xbde8e23c	-0.11371276
102	0xbdc1aa50	-0.09456313
103	0x3e8ed63e	0.2789783
104	0xbc9d87f0	-0.01922986
105	0x3e70a380	0.2349987
106	0x3dee02f8	0.1162166
107	0x3d6cab90	0.057780802
108	0x3d3115b8	0.043233603
109	0x3dba97b4	0.09110966
110	0xbe0fec42	-0.14054969
111	0xbd86e92e	-0.06587444
112	0x3ce4b5e0	0.027918756
113	0x3e828c9e	0.25497907
114	0xbe825e64	-0.2546264
115	0xbe35fa1f	-0.17771195
116	0xbd42bcb8	-0.047543257
117	0x3dc789c8	0.097430766
118	0xbe89502e	-0.26818985
119	0xbd92650c	-0.071481794
120	0x3e3de7d6	0.1854547
121	0x3e624e20	0.22100115
122	0xbdb2eca0	-0.08736539
123	0xbd98b7b4	-0.074569136
124	0x3df965f4	0.12177649
125	0xbd21aa90	-0.0394693
126	0x3de79b08	0.11308867
127	0xbe6e67e7	-0.23281823
128	0x3dfdb7f0	0.12388599
129	0xbe633e48	-0.22191727
130	0xbd6b3814	-0.057426527
131	0xbd477b64	-0.04870166
132	0xbe8baafe	-0.27278894
133	0xbe409dfd	-0.18810268
134	0xbda298ce	-0.079393014
135	0xbe59aa9e	-0.21256492
136	0xbe1be466	-0.15223846
137	0xbdc30c30	-0.09523809
138	0x3e44586c	0.19174355
139	0xbe8382aa	-0.25685626
140	0x3e414ff8	0.18878162
141	0x3e8de0a2	0.27710444
142	0xbe58691b	-0.21133845
143	0xbc91a050	-0.017776638
144	0xbe50bcff	-0.20384596
145	0xbe7d132c	-0.24714345
146	0x3d81ed6c	0.06344113
147	0x3e07fa10	0.13278985
148	0xbd493654	-0.049124077
149	0xbe0e52e8	-0.13898814
150	0x3cc38bf0	0.023870438
151	0x3d837508	0.06418806
152	0x3e191550	0.14949536
153	0x3d835c34	0.06414071
154	0x3e62b7ac	0.22140378
155	0xbd81b2f6	-0.06332962
156	0xbd4f9430	-0.050678432
157	0x3d6238f0	0.05523008
158	0xbe7d5432	-0.24739149
159	0x3e796c54	0.2435773
160	0x3e156d5e	0.14592502
161	0x3d2d85b0	0.042363822
162	0xbe890d80	-0.26768112
163	0xbe8d2856	-0.27569836
164	0xbe2ea21c	-0.17054027
165	0xbd5d23dc	-0.053989276
166	0x3de1c920	0.1102469
167	0xbdbb1bec	-0.09136185
168	0x3e241d36	0.16026768
169	0x3e172b78	0.14762676
170	0x3cb74d50	0.022375733
171	0x3e82420e	0.2544102
172	0xbe822eb4	-0.25426257
173	0xbe6bb19f	-0.23016976
174	0xbc283900	-0.010267496
175	0xbe860ce8	-0.26181722
176	0xbce2cea0	-0.027686417
177	0xbe856a17	-0.26057503
178	0xbe8e9a93	-0.27852306
179	0x3dc26ac8	0.09493023
180	0xbd4c9bec	-0.049953386
181	0xbb233800	-0.0024905205
182	0xbe8a81b9	-0.27052096
183	0x3e7f6aa4	0.24943024
184	0x3db5e9f8	0.088825166
185	0x3d986d80	0.074427605
186	0xbdb48420	-0.08814263
187	0xbda8bd5e	-0.08239244
188	0xbe3f97e2	-0.18710282
189	0xbe6c7bb6	-0.23094067
190	0x3b194e80	0.0023392737
191	0xbe36d07b	-0.17852966
192	0x3e0a086a	0.13479772
193	0xbe6d9b68	-0.23203814
194	0xbe5c058b	-0.2148649
195	0xbe91210c	-0.28345525
196	0x3e44388c	0.19162196
197	0x3dec2180	0.11529827
198	0xbe1c9a82	-0.15293315
199	0xbe8cd4a1	-0.27505973
200	0x3e36aab4	0.17838556
201	0xbe7cec10	-0.24699426
202	0x3e68e04c	0.22741812
203	0x3e739380	0.23786736
204	0x3d23ada8	0.039960533
205	0xbe5e22cc	-0.21692961
206	0x3e8776ac	0.26457727
207	0xbce45c40	-0.02787602
208	0x3c857160	0.016289413
209	0xbca4bbc0	-0.020109057
210	0x3bd7c680	0.0065849423
211	0x3e683b8c	0.22678965
212	0x3dd447b0	0.10365236
213	0xbe7b2755	-0.24526723
214	0xbe77b09c	-0.24188465
215	0x3e3d993e	0.18515489
216	0xbd0fa430	-0.03506869
217	0x3e80cf32	0.25158077
218	0xbdf399ba	-0.118945554
219	0x3e7f6f28	0.24944746
220	0xbe878472	-0.26468235
221	0x3e2a2b00	0.16617966
222	0xbe23cdd3	-0.15996484
223	0x3e5f7f7c	0.21825975
224	0xbe5b379e	-0.21407935
225	0xbde7385e	-0.11290048
226	0xbdbe1756	-0.09281795
227	0x3e7ca794	0.24673301
228	0xbe6fbe5d	-0.23412462
229	0xbe1304b5	-0.14357264
230	0x3d4d48e0	0.050118327
231	0x3e91c224	0.2846843
232	0xbe0bd95f	-0.13657139
233	0x3e24a2f4	0.16077787
234	0xbd9c292c	-0.076250404
235	0x3e63d730	0.22250056
236	0x3d9e221c	0.077213496
237	0x3e53d770	0.20687652
238	0xbe719e0f	-0.23595451
239	0x3e282bd0	0.16422963
240	0x3d99f080	0.07516575
241	0xbd11c938	-0.035592288
242	0xbe7dc98a	-0.24783912
243	0xbe68a3b8	-0.22718704
244	0x3e1ef6b2	0.15523794
245	0xbe58b658	-0.21163309
246	0xbe81898e	-0.25300258
247	0x3dcbc74c	0.09950122
248	0xbe1782a9	-0.14795937
249	0x3e662204	0.22473913
250	0xbdee135e	-0.11624788
251	0xbd316418	-0.043308347
252	0xbc8610d0	-0.016365439
253	0x3c0356e0	0.008016318
254	0x3e823580	0.25431442
255	0xbd3f0384	-0.046634212

local_head.gconv.convs.<stroke___temp_previous___stroke>.nn.0.bias f4 [32]
0	0x3e2ec32c	0.1706664
1	0x3e8b2ea8	0.27184033
2	0xbd98b266	-0.07455902
3	0xbc113ce0	-0.008864611
4	0xbc17d860	-0.009267896
5	0xbd6b0ee8	-0.057387263
6	0x3e10cc90	0.14140534
7	0xbe3ef6f6	-0.18648896
8	0xbe873689	-0.26408795
9	0xbe6a53c4	-0.22883517
10	0x3dac49e4	0.08412531
11	0x3d009878	0.031395406
12	0x3b996fc0	0.004682511
13	0xbe921681	-0.28532794
14	0x3e8cebd6	0.2752368
15	0x3e7123c0	0.23548794
16	0x3e8b9654	0.2726313
17	0x3e8b9670	0.27263212
18	0xbca02340	-0.019548059
19	0x3d3372f0	0.043810785
20	0x3d2539b0	0.04033822
21	0x3bbb2f40	0.0057124197
22	0x3e916864	0.28399956
23	0x3df141a4	0.11780098
24	0x3e882620	0.26591587
25	0xbe178ee0	-0.14800596
26	0xbe887e42	-0.26658827
27	0x3e13f650	0.1444943
28	0xbe170c09	-0.14750685
29	0xbdb99500	-0.090616226
30	0x3e417702	0.18893054
31	0x3c033800	0.008008957

local_head.gconv.convs.<stroke___intersects___stroke>.nn.0.weight f4 [32, 12]
0	0x3da652ac	0.08121237
1	0xbea440a6	-0.32080573
2	0x3ea62279	0.32448176
3	0xbd087295	-0.0333124
4	0xbd43a677	-0.047766175
5	0x3e8b8a2d	0.27253857
6	0xbeb8808f	-0.36035582
7	0xbeacfe75	-0.33787885
8	0xbf0c15e9	-0.5472093
9	0x3eab9944	0.3351537
10	0x3eedd611	0.46452382
11	0xbf018297	-0.5058989
12	0x3d949474	0.07254878
13	0xbe0d970f	-0.13827156
14	0xbd3cb973	-0.046075296
15	0x3db83087	0.08993631
16	0xbe30515b	-0.17218535
17	0x3dd13a57	0.102162056
18	0xbdd0fdbf	-0.10204648
19	0xbe140e4c	-0.14458579
20	0x3d6369c1	0.055520777
21	0x3de46fd6	0.111541435
22	0x3cdbbca9	0.026823359
23	0xbd214fca	-0.039382733
24	0xbe5342c5	-0.2063094
25	0x3eb1de69	0.34739998
26	0xbebaf2c0	-0.3651333
27	0xbec2ea4c	-0.3806938
28	0x3e14afe1	0.14520217
29	0xbe0883fb	-0.13331597
30	0x3e34f1f3	0.17670421
31	0xbd670d9b	-0.05640946
32	0xbcded9c2	-0.027203444
33	0x3e79f58a	0.24410072
34	0x3ae1c12c	0.0017223707
35	0xbd8d52df	-0.06900572
36	0xbc0c91ac	-0.008579653
37	0x3ea87f61	0.32909682
38	0x3ed32c0e	0.4124455
39	0x3e132b46	0.14371976
40	0xbdf61366	-0.12015419
41	0x3d046562	0.03232325
42	0x3f1ec968	0.6202607
43	0x3e93b4ac	0.2884878
44	0xbe5833bf	-0.2111349
45	0xbf17024c	-0.5898788
46	0x3d4e7808	0.05040744
47	0xbe347cea	-0.17625776
48	0x3f1ca067	0.61182255
49	0xbe617047	-0.22015487
50	0xbe5567f9	-0.20840444
51	0x3ecb45f7	0.39701816
52	0x3e2f716a	0.17133108
53	0x3e4bdcec	0.19908494
54	0xbd077994	-0.03307493
55	0x3e0a5d78	0.13512218
56	0xbdb8e217	-0.09027498
57	0x3f495f1c	0.7866075
58	0x3db9f6cc	0.09080276
59	0xbdd030d1	-0.10165561
60	0xbd64ea3f	-0.055887457
61	0xbeb2c578	-0.34916282
62	0xbeb75ebb	-0.3581446
63	0xbe9b6a8d	-0.3035473
64	0xbd2b652b	-0.04184453
65	0xbe46cd42	-0.19414237
66	0xbe36be6e	-0.1784608
67	0x3edbe038	0.42944503
68	0xbdfb1baa	-0.12261136
69	0xbeae32ef	-0.34023234
70	0x3ed2e336	0.41188973
71	0xbe5d8f1b	-0.21636622
72	0x3e6eaa36	0.23307118
73	0xbe1e064f	-0.15432094
74	0xbe9f48c8	-0.31110215
75	0x3ce4a616	0.027911227
76	0x3d56c9dc	0.0524386
77	0xbeb75e44	-0.35814106
78	0xbe04cdf3	-0.12969188
79	0x3dee2011	0.1162721
80	0xbe974efb	-0.29552445
81	0x3d796fb9	0.060897563
82	0x3e16aba9	0.1471392
83	0xbe76069d	-0.2402596
84	0xbeac7c7a	-0.33688718
85	0x3d166a1d	0.03672229
86	0xbebc7bcf	-0.36813208
87	0xbc4b8b13	-0.012423295
88	0xbe09986b	-0.13437049
89	0x3c0dce85	0.008655195
90	0x3e3fb535	0.18721469
91	0xbda55756	-0.08073299
92	0x3e339910	0.17538857
93	0xbe294205	-0.1652909
94	0xbc4fddd3	-0.012687164
95	0x3dde6a60	0.10860133
96	0x3e9ffa00	0.31245422
97	0x3ddfd0d7	0.10928505
98	0x3de81375	0.11331836
99	0x3ed024a7	0.40652964
100	0x3f093d73	0.5360939
101	0x3dea9971	0.11455048
102	0xbdcb6962	-0.099322096
103	0x3eb46a4f	0.35237357
104	0xbe0b74f3	-0.13618831
105	0xbc968848	-0.01837553
106	0xbeada4e9	-0.3391488
107	0xbda6f168	-0.08151513
108	0x3e3a2547	0.18178283
109	0xbe936636	-0.28788918
110	0xbb1921b3	-0.0023366034
111	0x3e1e4f1c	0.15459865
112	0x3eabeb6a	0.33578044
113	0x3ebc21a9	0.3674443
114	0x3e9be7bd	0.3045024
115	0x3ec2bf6d	0.3803667
116	0xbeb632c4	-0.35585606
117	0x3c03478f	0.008012666
118	0x3e3c0882	0.1836262
119	0x3dd86a58	0.105671585
120	0xbe1a31de	-0.15058085
121	0x3e927a00	0.28608704
122	0x3b83a94a	0.0040179836
123	0x3ea1e42f	0.31619403
124	0xbd6ceeb8	-0.057844847
125	0x3e81f724	0.25383866
126	0x3e33e07b	0.17566101
127	0xbdef41ff	-0.1168251
128	0xbe0050f5	-0.12530883
129	0x3c8f3020	0.017479002
130	0xbe526028	-0.20544493
131	0xbf598d18	-0.84980917
132	0x3da66f8e	0.08126746
133	0x3e9f2d31	0.31089166
134	0x3e295e20	0.16539812
135	0x3e4e9446	0.2017375
136	0x3bbeae34	0.0058191065
137	0x3e9f786e	0.31146568
138	0xbd94000a	-0.0722657
139	0xbe1290d6	-0.14313063
140	0x3c4a9ffc	0.012367245
141	0x3e535b76	0.20640358
142	0x3a020fd7	0.0004961467
143	0xbe2c38be	-0.1681852
144	0x3ea61960	0.32441235
145	0x3ce87b25	0.028379032
146	0xbe82689b	-0.25470433
147	0xbdab776d	-0.08372388
148	0xbdd6c2fc	-0.10486409
149	0xbe23cdfb	-0.15996544
150	0xbe92f862	-0.28705126
151	0x3f1ed109	0.6203771
152	0xbe6ff700	-0.23434067
153	0x3d587a1c	0.052850828
154	0xbe48a71a	-0.19594994
155	0x3dbdcf03	0.09268
156	0x3ee9590a	0.45575744
157	0xbe1b9346	-0.15192899
158	0x3dbfa4a0	0.093575716
159	0x3ede0aaf	0.43367526
160	0x3d7fc77f	0.062446114
161	0x3c85d1a1	0.01633531
162	0xbee6dcd7	-0.45090362
163	0x3e3e4a92	0.18583134
164	0x3daaa3b8	0.08332008
165	0xbe4915da	-0.19637242
166	0xbeb1c6d5	-0.3472201
167	0xbf386f9e	-0.72045314
168	0x3f1be707	0.60899395
169	0x3e01ec06	0.12687692
170	0x3d9fd4a1	0.078042276
171	0x3deb1cce	0.114801034
172	0x3ee07b7b	0.43844208
173	0xbdaefa50	-0.08543837
174	0xbe414d38	-0.18877113
175	0x3ee14659	0.43998984
176	0xbebd33bd	-0.36953536
177	0x3c186f60	0.009303898
178	0xbd0c194e	-0.03420382
179	0xbe0afe40	-0.13573551
180	0x3e241c29	0.16026367
181	0x3e7798c2	0.24179366
182	0x3d980601	0.0742302
183	0x3edd7e58	0.43260455
184	0x3d524fa0	0.051345468
185	0x3d223307	0.039599445
186	0xbebd0e9c	-0.3692521
187	0xbd0905f6	-0.03345295
188	0x3e8dac6e	0.27670616
189	0x3deafcf0	0.11474025
190	0xbe46e9a4	-0.19425064
191	0xbe9f8b13	-0.31160793
192	0x3e2fa2e9	0.17151989
193	0x3e185b5f	0.14878605
194	0xbf17e64b	-0.59335774
195	0x3d73d369	0.05952779
196	0xbe7f06d3	-0.24904947
197	0xbe4c0037	-0.19921957
198	0xbd955f46	-0.072935626
199	0xbe8833fd	-0.26602164
200	0xbe4dd499	-0.20100631
201	0x3c88c312	0.01669458
202	0xbdbb68dc	-0.0915086
203	0x3e171252	0.14753082
204	0xbdb10a8c	-0.0864459
205	0xbde11f92	-0.1099235
206	0xbeba3d92	-0.363751
207	0x3dce99da	0.100879386
208	0x3e96c917	0.29450294
209	0xbe9d65ec	-0.30741823
210	0x3eb0829e	0.34474653
211	0x3ed48e82	0.41514975
212	0xbe1afd34	-0.15135652
213	0xbe271f39	-0.16320504
214	0x3e04cb16	0.12968096
215	0x3e8a0f81	0.26964954
216	0x3e1dc21b	0.15406077
217	0xbd1f609d	-0.038910497
218	0xbd46a59d	-0.048497785
219	0x3f3f0724	0.7462027
220	0x3cb742da	0.022370744
221	0x3e158b0f	0.14603828
222	0x3e821262	0.2540465
223	0xbe94a329	-0.2903073
224	0x3dd8e107	0.105897956
225	0x3e50a6ef	0.2037618
226	0x3d76802a	0.06018082
227	0x3dbcab96	0.09212415
228	0x3f22583e	0.63415897
229	0xbe920d24	-0.2852565
230	0xbd7126ed	-0.058875013
231	0x3eb55441	0.35415843
232	0xbe6ba5d7	-0.23012482
233	0x3eb95776	0.3619954
234	0xbe412c9b	-0.18864672
235	0x3e205baf	0.15659975
236	0x3ed710e0	0.42005062
237	0x3db925c4	0.09040406
238	0x3e2fd86c	0.17172402
239	0xbf3eb2a1	-0.74491316
240	0x3d9c70dd	0.076387145
241	0xbe7b6aa0	-0.24552393
242	0x3d15b1d4	0.036546543
243	0x3e75a983	0.23990445
244	0x3d999f1a	0.07501049
245	0x3e33e967	0.17569505
246	0x3ee92a82	0.45540243
247	0xbcaae8fd	-0.02086305
248	0xbe874fad	-0.26427975
249	0xbdeab98b	-0.11461171
250	0xbe519b48	-0.20469391
251	0x3d4eafa8	0.050460488
252	0xbeb64407	-0.35598776
253	0xbead487e	-0.3384437
254	0x3e9e6ed5	0.30943933
255	0xbef2cf9f	-0.47424027

local_head.gconv.convs.<stroke___intersects___stroke>.nn.0.bias f4 [32]
0	0xbed8954b	-0.42301401
1	0xbf8b7104	-1.0893865
2	0xbc974c81	-0.018469097
3	0xbf04f77f	-0.5194015
4	0xbf094b02	-0.5363008
5	0xbf0046b6	-0.50107896
6	0xbf12974a	-0.572621
7	0xbf38ecd0	-0.7223635
8	0xbdb6bc7d	-0.0892267
9	0xbf2dd408	-0.6790166
10	0xbebb3bd9	-0.36569098
11	0xbf540f43	-0.8283579
12	0xbf56069d	-0.8360384
13	0xbf0d3d89	-0.5517202
14	0xbe37fda8	-0.17967856
15	0xbe648db6	-0.22319683
16	0xbf3c734b	-0.73613423
17	0xbf328caf	-0.69745916
18	0xbd9fb2f3	-0.07797804
19	0xbe93a67d	-0.28837958
20	0xbf7090cf	-0.9397096
21	0xbe9f9f59	-0.3117626
22	0xbf60df70	-0.8784094
23	0xbf7f35c1	-0.99691397
24	0x3dd2e859	0.10298223
25	0x3cb7b07a	0.022423018
26	0xbeef5557	-0.46744797
27	0xbf2c899d	-0.6739748
28	0xbf24b771	-0.6434241
29	0xbf04dbf1	-0.51898104
30	0x3ee6f795	0.45110765
31	0xbf2cf8c5	-0.6756709

layers.0.mlp_edge_conv.gconv.convs.<stroke___temp_previous___stroke>.nn.0.weight f4 [32, 64]
0	0xbcbb4950	-0.022862107
1	0x3d31bfa0	0.04339564
2	0xbd494824	-0.049141064
3	0xbd69f02c	-0.05711381
4	0xbda786b8	-0.081799924
5	0xbd72eec4	-0.059309736
6	0xbd997a7c	-0.07494065
7	0xbd8a2ca0	-0.06746793
8	0x3b11edc0	0.0022266954
9	0xbdcf08c8	-0.10109097
10	0x3d9532d8	0.07285088
11	0xbcf4f938	-0.029903993
12	0x3c881080	0.01660943
13	0x3d1b5ee8	0.037932307
14	0xbd64caf4	-0.055857614
15	0xbc5a1030	-0.013309523
16	0x3c137b00	0.009001493
17	0xbc5bb490	-0.013409749
18	0xbd941636	-0.07230799
19	0xbdb6421a	-0.088993266
20	0xbcc00050	-0.023437649
21	0x3d559470	0.052143514
22	0xbde406b2	-0.111340895
23	0xbc89c500	-0.01681757
24	0xbd0e0058	-0.034668297
25	0xbdb82be4	-0.089927465
26	0xbdaa7b44	-0.08324292
27	0xbc042a00	-0.008066654
28	0x3d45d218	0.048296064
29	0xbdf81140	-0.12112665
30	0xbbcd2340	-0.0062603056
31	0x3d2f6a28	0.042825848
32	0x3d7a7a30	0.061151683
33	0x3d8ae126	0.06781225
34	0x3de88f92	0.11355509
35	0xbcc006e0	-0.023440778
36	0xbdafc422	-0.08582331
37	0xbd2d2d68	-0.04227963
38	0x3da53cb6	0.0806822
39	0xbcc6f220	-0.024285376
40	0x3df23c9e	0.11827968
41	0xbc04e640	-0.0081115365
42	0xbba501e0	-0.005035624
43	0xbda63cd8	-0.08117074
44	0xbd9ed5fc	-0.07755658
45	0xbc6ea790	-0.014566317
46	0x3de53ba0	0.11193013
47	0xbd95ab68	-0.07308084
48	0x3d5f96ec	0.05458729
49	0x3cec7a60	0.028866947
50	0x3c583360	0.0131958425
51	0x3d95f9a2	0.07323004
52	0x3db6c660	0.08924556
53	0xbbe0fd60	-0.006866142
54	0x3d9d5908	0.07682997
55	0x3d4f0c90	0.05054909
56	0xbccf2b10	-0.025289088
57	0x3cb7e920	0.02245003
58	0x3d425680	0.047445774
59	0xbdfff41a	-0.124977306
60	0xbdd4e45a	-0.10395117
61	0xbd7916c0	-0.06081271
62	0xbde39a5a	-0.111134246
63	0xbdc08512	-0.09400381
64	0xbba879c0	-0.005141467
65	0x3da23882	0.07920934
66	0xbd9d5366	-0.076819226
67	0xbda4136c	-0.08011517
68	0xbdd0c792	-0.10194315
69	0x3cafcca0	0.021459877
70	0xbd599c50	-0.053127587
71	0x3cc2fc58	0.023801968
72	0x3dffd56e	0.1249188
73	0x3d524c10	0.05134207
74	0x3d523d0c	0.05132775
75	0xbd4e4e54	-0.05036767
76	0xbdea7af2	-0.11449231
77	0x3d902c8e	0.07039748
78	0xbcd9b968	-0.026577666
79	0x3d0afaf8	0.03393075
80	0xbdc253f2	-0.094886675
81	0xbbbbd0c0	-0.005731672
82	0x3d9e5218	0.07730502
83	0xbd54d6b0	-0.051962554
84	0xbc4a5c80	-0.012351155
85	0x3d456284	0.048189655
86	0xbdb4d9fa	-0.08830638
87	0x3df2f4be	0.11863087
88	0x3d9e6b5c	0.07735321
89	0xbd82a7ea	-0.06379683
90	0x3dc79948	0.09746033
91	0xbdceda98	-0.10100287
92	0x3d6b92fc	0.057513222
93	0x3da346a4	0.07972458
94	0xbbe1b380	-0.006887853
95	0xbdd8151c	-0.10550901
96	0xbdcebaea	-0.10094245
97	0x3d165234	0.03669949
98	0x3d675628	0.05647865
99	0xbdb5637e	-0.08856867
100	0xbcd75ae0	-0.02628845
101	0x3df77a66	0.120838925
102	0xbd93fc22	-0.07225825
103	0xbd653180	-0.05595541
104	0x3dc38f7e	0.09548853
105	0xbc427d70	-0.011870727
106	0xbd948674	-0.072522074
107	0xbd559dd8	-0.052152485
108	0x3d4c1c28	0.04983154
109	0xbbd13da0	-0.00638552
110	0xbdd74962	-0.105120435
111	0xbc24b990	-0.010054007
112	0xbd3cb984	-0.04607536
113	0x3d98fdc2	0.074702755
114	0xbcf4dc90	-0.029890329
115	0xbca97178	-0.020683989
116	0x3df1a184	0.11798385
117	0xbdc84a7c	-0.09779832
118	0x3d9249d4	0.07142988
119	0xbdc42ac4	-0.095784694
120	0x3da0970c	0.0784131
121	0x3d082e20	0.033247113
122	0x3dcc8782	0.099867836
123	0x3dbfebae	0.09371124
124	0x3de61e9e	0.112363085
125	0xbc7c5070	-0.015400037
126	0xbd7a0730	-0.06104201
127	0x3defe416	0.11713426
128	0x3db74cce	0.08950196
129	0xbd8a017a	-0.06738563
130	0x3d86c938	0.06581348
131	0x3dd9e7ec	0.10639939
132	0xbc0e4fd0	-0.008686021
133	0x3cfdcd40	0.03098166
134	0x3cab7bc0	0.020933032
135	0xbb17f340	-0.002318576
136	0x3d36a9bc	0.044595465
137	0x3dd8de8e	0.10589324
138	0x3d40eac8	0.047098905
139	0x3dd004ec	0.10157189
140	0x3dfc369e	0.12315105
141	0x3dd50660	0.104016066
142	0xbd6eb4c8	-0.058277875
143	0x3dfeb4ba	0.124368146
144	0xbdec14d4	-0.1152741
145	0xbcbb2d78	-0.02284883
146	0x3dc22b92	0.09480967
147	0xbd8bd852	-0.06828369
148	0x3dc376a0	0.0954411
149	0xbda349ea	-0.07973082
150	0x3d5e737c	0.054309353
151	0x3d53d8e8	0.05172053
152	0x3c6d3c60	0.014479727
153	0x3daaa78a	0.08332737
154	0x3df66264	0.12030485
155	0xbc979e40	-0.018508077
156	0x3dbc661c	0.09199163
157	0xbdf84a52	-0.121235505
158	0xbd954f72	-0.072905436
159	0x3d9aee54	0.07564989
160	0xbd77e770	-0.06052345
161	0x3df0e98e	0.11763297
162	0xbd825c64	-0.06365278
163	0x3d913b3c	0.07091376
164	0x3d1e989c	0.03871976
165	0x3d93b3c2	0.072120205
166	0xbdc16f92	-0.094451085
167	0x3c969808	0.018383041
168	0xbc8fe420	-0.017564833
169	0xbd97520c	-0.07388696
170	0x3de42394	0.111395985
171	0xbd85e9a8	-0.06538707
172	0x3df89478	0.12137693
173	0xbdde0aee	-0.108419284
174	0xbdf9eea8	-0.12203723
175	0xbbecdc00	-0.0072283745
176	0x3ddf73e6	0.10910778
177	0x3cc82e38	0.024436101
178	0xbde6f204	-0.112766296
179	0x3abb6200	0.0014296174
180	0x3b8b6ec0	0.004255146
181	0x3dc320e0	0.09527755
182	0xbdb0e6a2	-0.0863774
183	0x3c9fc278	0.01950191
184	0xbcc36e30	-0.023856252
185	0xbc89d750	-0.016826302
186	0xbdf7cd48	-0.12099701
187	0x3d367da4	0.044553414
188	0xbd9b4e3e	-0.07583283
189	0xbdd3b71e	-0.10337661
190	0xbcdd5b80	-0.02702117
191	0xbabe7600	-0.0014531016
192	0xbdfe9074	-0.12429896
193	0xbd521084	-0.05128528
194	0x3d5106b4	0.051031783
195	0x3df09476	0.11747067
196	0x3c91d340	0.017800927
197	0xbd149048	-0.03627041
198	0xbda84a86	-0.08217339
199	0xbc8434e0	-0.016138494
200	0xbd9b4894	-0.075822026
201	0xbda86f70	-0.0822438
202	0xbd95dd02	-0.073175445
203	0x3d0ca494	0.03433664
204	0xbcc0ca50	-0.02353397
205	0x3ca93108	0.020653263
206	0xbd3f4258	-0.04669413
207	0x3a250e00	0.00062963367
208	0x3cad04c0	0.021120429
209	0xbdcd8996	-0.10036008
210	0xbdfa84c8	-0.12232357
211	0x3c9d1c98	0.019178674
212	0xbdb55d6a	-0.08855708
213	0xbc943880	-0.018093348
214	0x3dce0c16	0.10060899
215	0x3d84fa26	0.064930245
216	0x3daeef10	0.08541691
217	0xbdf11320	-0.11771226
218	0xbdfa0e4c	-0.12209758
219	0x3d7e50c4	0.062088743
220	0x3dc261b6	0.09491293
221	0x3a96bb00	0.0011499822
222	0x3d14a594	0.03629072
223	0xbaa9c480	-0.0012952238
224	0x3cd7e628	0.026354864
225	0xbd8db018	-0.06918353
226	0x3c2ddb30	0.01061134
227	0xbd8422d0	-0.064519525
228	0x3de91c06	0.11382298
229	0x3ded8264	0.11597136
230	0xbd68906c	-0.056778356
231	0x3db95c4c	0.09050807
232	0x3d481a3c	0.048853144
233	0x3ca346e8	0.019931272
234	0x3dbfb464	0.09360579
235	0x3dc3cc44	0.09560445
236	0xbdb2abf6	-0.08724205
237	0x3dac28be	0.084062085
238	0x3ded8ab8	0.11598724
239	0x3d3af694	0.04564531
240	0x3c62f400	0.013852119
241	0x3d63d24c	0.055620477
242	0x3c6fd750	0.014638737
243	0x3d8cf38a	0.06882389
244	0x3ca6c160	0.02035588
245	0x3daec6d2	0.08534016
246	0x3cf5a408	0.029985443
247	0xbc9f0420	-0.019411147
248	0x3d194170	0.03741592
249	0xbd02b178	-0.03190753
250	0xbd560194	-0.0522476
251	0x3da04138	0.078249395
252	0xbcd8ab98	-0.02644901
253	0xbdf32bf0	-0.11873615
254	0xbda313b0	-0.079627395
255	0xbb15cbc0	-0.002285704

layers.0.mlp_edge_conv.gconv.convs.<stroke___temp_previous___stroke>.nn.0.bias f4 [32]
0	0xbd86da92	-0.06584658
1	0x3cf53b58	0.029935524
2	0xbdc3a154	-0.09552255
3	0x3dc5c71c	0.09657118
4	0x3df73f52	0.12072624
5	0x3d60e7cc	0.05490856
6	0x3cb90850	0.022586972
7	0x3da96b0c	0.08272371
8	0xbcfdadd0	-0.03096667
9	0x3d447184	0.04795982
10	0x3dc0b7ee	0.09410082
11	0x3dfaf75a	0.1225421
12	0x3b3709c0	0.0027929395
13	0x3dfdbcb6	0.123895094
14	0x3df3b30e	0.11899386
15	0x3df771fe	0.12082289
16	0x3da8c6ca	0.08241041
17	0x3d4789a4	0.04871525
18	0xbd1531f8	-0.036424607
19	0x3d9e865c	0.07740471
20	0xbdea30e0	-0.114351034
21	0xbc34af50	-0.011028126
22	0xbdb62e88	-0.08895594
23	0x3d320db8	0.043470114
24	0xbdd7e1c8	-0.10541111
25	0x3debb6b4	0.11509457
26	0xbbabf820	-0.0052480847
27	0x3dd7ae90	0.10531342
28	0xbd90da38	-0.07072872
29	0x3aa5ce80	0.0012650043
30	0xbd9d4c78	-0.07680601
31	0x3b479b40	0.0030457526

layers.0.mlp_edge_conv.gconv.convs.<stroke___intersects___stroke>.nn.0.weight f4 [32, 64]
0	0x3e6a80f0	0.22900748
1	0xbdee0930	-0.11622846
2	0xbec90c51	-0.3926721
3	0x3e6825f2	0.22670725
4	0x3df1c35f	0.11804842
5	0x3e0a7da8	0.13524497
6	0xbf37d778	-0.71813154
7	0xbeb01e93	-0.34398326
8	0xbee47322	-0.4461909
9	0xbe866aa7	-0.26253244
10	0x3ddec91e	0.10878204
11	0xbd8ab2fe	-0.06772421
12	0xbf2e0885	-0.6798175
13	0x3ea8a564	0.32938683
14	0xbf5230f4	-0.82105947
15	0x3e80e92f	0.25177905
16	0xbe2972ab	-0.16547649
17	0xbdf735c7	-0.12070804
18	0x3e23c155	0.15991719
19	0x3f1c0477	0.6094431
20	0x3dc8e4a9	0.098092385
21	0x3daee541	0.085398205
22	0x3e0de360	0.13856268
23	0xbf293570	-0.66097164
24	0xbe0388b6	-0.1284512
25	0xbf48b5de	-0.7840251
26	0xbe6753c2	-0.22590545
27	0xbf0a517a	-0.54030573
28	0xbe855208	-0.26039147
29	0xbea1e0b2	-0.3161674
30	0xbeb63b17	-0.35591957
31	0xbe9b0826	-0.30279654
32	0x3eb4e643	0.35331926
33	0x3ed681bf	0.41895863
34	0x3eb921e6	0.36158675
35	0x3e584c9f	0.21122979
36	0xbeb45bfd	-0.3522643
37	0xbf03c544	-0.5147288
38	0xbd180e1b	-0.037122827
39	0x3dd05e0c	0.10174188
40	0x3d69c6ce	0.05707436
41	0x3e574b69	0.2102486
42	0xbc9adb9f	-0.018903552
43	0xbe650f33	-0.2236908
44	0x3d258817	0.04041299
45	0xbee3e422	-0.4450999
46	0x3eac5666	0.33659667
47	0xbf3207a2	-0.69542897
48	0x3e658c42	0.22416785
49	0xbc5e1b94	-0.01355638
50	0xbec5ead9	-0.38655737
51	0xbe89879c	-0.26861274
52	0xbe61b42f	-0.22041391
53	0x3e04609b	0.12927477
54	0x3dc219c3	0.0947757
55	0x3ed34de0	0.4127035
56	0xbe6c82dd	-0.23096795
57	0x3edb9903	0.42890176
58	0x3e7b97bc	0.24569601
59	0xbea697de	-0.3253774
60	0xbdfd6fa0	-0.123748064
61	0xbe0e6cf9	-0.13908757
62	0xbd44b68c	-0.048025653
63	0x3e6d2293	0.2315772
64	0xbe060a91	-0.13089968
65	0xbe6fcb99	-0.2341751
66	0xbe044ee0	-0.12920713
67	0xbe3243ac	-0.17408627
68	0xbcdcf8b2	-0.026974056
69	0xbeaea32f	-0.34108874
70	0xbccc1d4e	-0.024916317
71	0xbe631221	-0.22174884
72	0xbd1cb3cf	-0.038257416
73	0x3ca56880	0.020191431
74	0xbe326f35	-0.17425235
75	0xbe42f340	-0.19038105
76	0xbc03d4c2	-0.008046331
77	0xbd4dd6a4	-0.050253525
78	0xbdfe63e4	-0.124213964
79	0xbe203bd8	-0.15647829
80	0xbde8f472	-0.11374749
81	0x3db9ec37	0.090782575
82	0xbd5b2729	-0.053504143
83	0x3cc98eac	0.024604164
84	0xbd206341	-0.039157156
85	0xbe833088	-0.25622964
86	0xbe7b7943	-0.24557976
87	0xbe0be9e3	-0.1366344
88	0xbd86d69c	-0.06583902
89	0xbe33cf25	-0.17559488
90	0xbeeedfbb	-0.46655068
91	0xbe3c321c	-0.1837849
92	0xbeaa61bf	-0.332777
93	0xbd86d31a	-0.06583233
94	0xbe25b441	-0.16182043
95	0xbdeb3d24	-0.11486271
96	0xbd1c23f2	-0.038120218
97	0xbd5587a4	-0.05213131
98	0xbc839026	-0.016059946
99	0xbe09e5e1	-0.13466598
100	0xbde406f6	-0.1113414
101	0x3e5a62c7	0.21326743
102	0xbd857e5f	-0.06518244
103	0xbe9b634f	-0.30349204
104	0xbda81853	-0.082077645
105	0xbe267c79	-0.1625842
106	0x3bd265e2	0.006420837
107	0x3db48a36	0.08815424
108	0x3d6740a0	0.056458116
109	0x3c7524ed	0.014962417
110	0xbdac4a6a	-0.08412631
111	0xbb1789d0	-0.0023122914
112	0xbdbba15e	-0.09161638
113	0xbdde4e71	-0.10854805
114	0x3dba71df	0.091037504
115	0xbdf9b8c0	-0.121934414
116	0x3d26fe40	0.040769815
117	0x3b8d5213	0.0043127625
118	0xbdcbf597	-0.09958952
119	0xbde88922	-0.11354281
120	0xbd9e1156	-0.0771815
121	0x3d24f9c5	0.04027726
122	0x3df12b91	0.11775888
123	0xbe50989e	-0.20370719
124	0x3c9bd8b0	0.019024223
125	0xbdcb0bff	-0.099143974
126	0xbe0ca529	-0.13734879
127	0xbec9e651	-0.3943353
128	0xbe37e3d0	-0.17957997
129	0x3d364ef0	0.044508874
130	0xbe45e752	-0.19326523
131	0xbde9d64a	-0.114178255
132	0xbe132433	-0.14369278
133	0xbe840b78	-0.2579
134	0xbd06ed47	-0.03294113
135	0xbe1ad12d	-0.15118857
136	0xbbe96479	-0.007122573
137	0xbd92ae4d	-0.071621515
138	0x3cb4bb75	0.022062043
139	0xbe1248f7	-0.14285646
140	0x3e47a871	0.19497849
141	0xbe2bc027	-0.16772519
142	0xbe71c33b	-0.23609631
143	0xbe8bd8b9	-0.27313784
144	0xbe36fe21	-0.1787038
145	0xbe5e9b2c	-0.21738881
146	0xbe2b553c	-0.16731733
147	0xbdaffc1e	-0.085930094
148	0xbdf60e1c	-0.1201441
149	0xbe1f7f27	-0.15575849
150	0xbe0cfde8	-0.13768733
151	0xbda6732a	-0.081274346
152	0xbdad7cdb	-0.0847108
153	0xbe8b7994	-0.27241194
154	0xbe7bdca5	-0.24595888
155	0xbde3cba6	-0.11122827
156	0x3c72d2c7	0.014820761
157	0xbe136d70	-0.14397216
158	0xbe177676	-0.14791283
159	0xbd8020bd	-0.06256244
160	0xbda25681	-0.079266556
161	0xbd788dee	-0.06068223
162	0x3d926fc4	0.07150224
163	0x3d9ab61f	0.07554268
164	0x3d9290f5	0.071565546
165	0xbe079113	-0.13238935
166	0xbe4e7d8c	-0.2016508
167	0xbe0a8d12	-0.13530377
168	0x3d5130cc	0.051071927
169	0x3e1684bb	0.1469907
170	0x3d0b8251	0.034059826
171	0x3c4cc389	0.012497791
172	0xbe558d2e	-0.20854637
173	0x3b0c09ae	0.0021368074
174	0x3d81ca04	0.063373595
175	0xbdd95c9f	-0.10613369
176	0xbe554e1e	-0.2083058
177	0x3d87db1d	0.066335894
178	0xbe353352	-0.17695358
179	0xbcc5d646	-0.024150025
180	0xbdd46dc3	-0.10372498
181	0x3e3b48c3	0.18289475
182	0xbe70cc80	-0.2351551
183	0xbccb186b	-0.024791917
184	0x3d6d71c1	0.057969812
185	0xbc815a0c	-0.015790008
186	0xbc1efbfd	-0.009703633
187	0xbbc3231f	-0.0059551145
188	0x3d8dc2a5	0.06921891
189	0xbe1a434d	-0.15064736
190	0xbe9dbd9d	-0.30808726
191	0x3d087f51	0.033324543
192	0x3d1fa343	0.038974058
193	0xbe56a8af	-0.20962785
194	0xbe2fc962	-0.17166665
195	0x3d6167cb	0.055030625
196	0xbe974307	-0.29543325
197	0xbdce693f	-0.10078668
198	0x3d0b8bbb	0.034068804
199	0xbe6e01d1	-0.2324288
200	0x3df6d633	0.12052574
201	0xbcb98de1	-0.022650661
202	0x3dd7fca0	0.10546231
203	0x3d1edb08	0.038783103
204	0x3e7623cf	0.24037097
205	0x3e26c773	0.16287021
206	0xbe0fb1dd	-0.14032693
207	0x3e9129fa	0.28352338
208	0xbec935a4	-0.39298737
209	0xbe4ec58c	-0.20192546
210	0xbe0f3d26	-0.1398817
211	0xbcc7ec72	-0.024404738
212	0x3e5ace8b	0.21367852
213	0x3caf5fbf	0.02140796
214	0x3e31e41f	0.17372178
215	0xbdbcd26c	-0.09219822
216	0xbdaa8b85	-0.083273925
217	0xbea2d0c3	-0.31799898
218	0xbdc0b073	-0.09408655
219	0x3cea2f1c	0.028586917
220	0xbdba963d	-0.09110687
221	0xbd199c4c	-0.037502572
222	0xbe4bafa7	-0.19891225
223	0xbd83ccd2	-0.06435551
224	0x3ec9da66	0.39424437
225	0xbc3ddaac	-0.01158778
226	0xbe4ef428	-0.20210326
227	0x3ca84628	0.020541266
228	0x3ea9f07e	0.33191293
229	0xbe89278b	-0.2678798
230	0xbe37b5b1	-0.17940404
231	0xbd5334b0	-0.05156392
232	0x3de5f063	0.11227491
233	0xbe3a4789	-0.18191351
234	0xbe3c5073	-0.18390064
235	0xbe3eb32b	-0.18623035
236	0x3c4b775e	0.012418596
237	0x3e332627	0.17495023
238	0x3e62ce0b	0.22148912
239	0x3d6fd43c	0.05855201
240	0xbe1978ff	-0.14987563
241	0xbd80fc6b	-0.06298145
242	0xbe35ae39	-0.17742242
243	0x3e2bb0f0	0.16766715
244	0xbe975952	-0.29560333
245	0xbe0d175b	-0.1377844
246	0x3c80e784	0.015735395
247	0x3de0a51f	0.10968994
248	0x3c619cac	0.013770264
249	0x3dd5bc2b	0.10436281
250	0xbe4489e1	-0.19193222
251	0xbe349e57	-0.17638527
252	0xbdb377f9	-0.08763117
253	0x3e8fb09b	0.28064427
254	0xbe76ef4b	-0.2411472
255	0xbdb0cc30	-0.08632696

layers.0.mlp_edge_conv.gconv.convs.<stroke___intersects___stroke>.nn.0.bias f4 [32]
0	0xbe055bde	-0.13023326
1	0xbe78a0af	-0.24280046
2	0xbec18dd5	-0.37803522
3	0xbe654dbe	-0.22392938
4	0xbdb75b66	-0.0895298
5	0x3e8802ee	0.26564735
6	0xbe9e64b0	-0.30936193
7	0x3e29071a	0.16506615
8	0x3d34b8f6	0.044121705
9	0xbee3e04a	-0.44507056
10	0xbe912245	-0.28346458
11	0xbe2f84ea	-0.17140546
12	0xbe1d12a8	-0.15339148
13	0xbd6e7d1b	-0.05822478
14	0xbeaabe61	-0.33348373
15	0xbe817acc	-0.25289
16	0xbef0c2eb	-0.4702371
17	0xbeaa3a3f	-0.33247563
18	0xbec221fe	-0.3791656
19	0xbe7475f1	-0.23873116
20	0xbe48b4de	-0.19600245
21	0xbe665689	-0.22493948
22	0xbe42bb28	-0.19016707
23	0x3d49c428	0.049259335
24	0xbe3c3ff6	-0.18383774
25	0xbdf079b8	-0.11741966
26	0xbe846e3e	-0.25865358
27	0xbe5bd3cb	-0.21467511
28	0xbe4ac99f	-0.19803475
29	0xbd9aa13f	-0.075502865
30	0xbddb6836	-0.10713236
31	0x3c9886dc	0.018618993

layers.1.mlp_edge_conv.gconv.convs.<stroke___temp_previous___stroke>.nn.0.weight f4 [32, 64]
0	0xbd5286f0	-0.051398218
1	0xbd99ce0e	-0.07510005
2	0xbcf7e9e0	-0.030262887
3	0xbdb269ae	-0.08711563
4	0x3d29a12c	0.04141347
5	0xbda6d458	-0.0814597
6	0xbd8098b6	-0.06279127
7	0xbd7e0fe4	-0.062026873
8	0x3df1d4f6	0.11808197
9	0xbd000fe0	-0.03126514
10	0xbd85389c	-0.06504938
11	0x3d94be16	0.072628185
12	0xbcb189c8	-0.021672145
13	0xbdcebac2	-0.10094215
14	0x3be192c0	0.006883949
15	0xbbbfe800	-0.005856514
16	0x3d817eb2	0.06322993
17	0xbd91a690	-0.071118474
18	0x3d870ae6	0.065938756
19	0x3ce39420	0.027780592
20	0x3dd093c2	0.101844326
21	0x3baedf80	0.005336702
22	0xbdfc0f62	-0.123076215
23	0xbdf0a50e	-0.11750232
24	0x3d0a5a48	0.033777505
25	0xbdc1fa88	-0.09471613
26	0xbc5d4aa0	-0.0135065615
27	0xbd2c43f8	-0.042057008
28	0xbd7ce704	-0.06174375
29	0x3c1b5d90	0.009482756
30	0xbd4f5bb8	-0.05062458
31	0x3d20de24	0.03927435
32	0x3dd06744	0.10175946
33	0xbd8366d4	-0.06416097
34	0x3cdfaea0	0.027304947
35	0x3c32a820	0.010904342
36	0xbd38cc20	-0.045116544
37	0x3dd75b02	0.10515405
38	0xbdb50396	-0.088385746
39	0xbdacf6f8	-0.08445543
40	0x3d96efc8	0.073699534
41	0x3dad8cae	0.08474098
42	0x3ca14318	0.019685313
43	0x3d924ce0	0.07143569
44	0xbce84738	-0.028354272
45	0xbd427ab8	-0.047480315
46	0xbdabed40	-0.08394861
47	0x3c074b00	0.0082576275
48	0x3dec34ae	0.11533485
49	0x3cbe1690	0.023204118
50	0xbce01380	-0.027353048
51	0x3ca37850	0.01995483
52	0x3d963d6e	0.073359355
53	0xbd9f59d8	-0.07780808
54	0xbd88a5a0	-0.066722155
55	0x3daec150	0.08532965
56	0xbdd2d154	-0.102938324
57	0xbd21bce0	-0.039486766
58	0x3bf8c720	0.007592097
59	0xbd8adf56	-0.06780879
60	0x3d2174dc	0.039418086
61	0x3ce23958	0.027615234
62	0x3d226b90	0.03965336
63	0x3d8c8676	0.06861584
64	0xbd27e6f8	-0.040991753
65	0x3c7865a0	0.015160948
66	0x3daf3ff4	0.0855712
67	0xbda45388	-0.08023745
68	0x3c8b2748	0.016986504
69	0x3c9616a0	0.018321335
70	0x3d13db20	0.036097646
71	0xbc9f5400	-0.019449234
72	0xbd9b100a	-0.075714186
73	0x3dbb4e56	0.09145801
74	0xbce95460	-0.028482616
75	0xbc8cb080	-0.017174006
76	0xbdf8961e	-0.121380076
77	0xbdba8d34	-0.091089636
78	0xbb8d6760	-0.004315302
79	0x3d3c0a40	0.045908213
80	0x3cf3dac0	0.029767394
81	0xbc8a6658	-0.016894504
82	0x3dbffe40	0.09374666
83	0x3c839d30	0.016066164
84	0x3ab38480	0.0013696104
85	0x3cbf83f8	0.023378357
86	0x3cf6ffd0	0.030151278
87	0xbddae230	-0.10687673
88	0x3dbf78ae	0.0934919
89	0x3b174480	0.00230816
90	0x3dfcc4b8	0.123422086
91	0xbd89f998	-0.06737059
92	0xbd9c1362	-0.076208845
93	0xbdbf4b76	-0.09340565
94	0x3d986e52	0.07442917
95	0xbd0380ac	-0.032105133
96	0x3c2f02e0	0.010681838
97	0x3da48756	0.08033626
98	0x3d1ab2ac	0.03776805
99	0x3deb56a0	0.11491132
100	0xbdf0cdba	-0.11757989
101	0xbdba752a	-0.091043785
102	0xbbeef460	-0.0072923154
103	0xbdd1256e	-0.10212217
104	0xbdced366	-0.10098915
105	0xbdd8651e	-0.105661616
106	0x3c9b76b8	0.018977508
107	0xbd9a580e	-0.07536326
108	0x3d94a238	0.07257503
109	0xbd0c368c	-0.034231707
110	0xbd0c345c	-0.03422962
111	0xbd4d2208	-0.050081283
112	0xbdc5747e	-0.0964136
113	0x3deb1488	0.114785254
114	0x3dd5bf1a	0.1043684
115	0x3d8e3b2e	0.069448814
116	0xbc944140	-0.01809752
117	0x3dc29bce	0.09502374
118	0xbcad3ce0	-0.021147192
119	0xbce1a0e0	-0.027542531
120	0x3cac23a8	0.021013096
121	0x3c9d29a0	0.019184887
122	0x3d8ed6da	0.069745734
123	0x3de1c05c	0.11023018
124	0xbdc0c97c	-0.0941343
125	0x3c5bf420	0.013424903
126	0x3cc0d530	0.023539156
127	0x3d47424c	0.04864721
128	0x3dda41f4	0.10657111
129	0xbd0a0468	-0.03369561
130	0x3dd0aea4	0.1018956
131	0x3d403ac0	0.04693103
132	0xbcf2daf8	-0.029645428
133	0x3dcbc956	0.09950511
134	0x3df5e3b8	0.120063245
135	0x3c7c8760	0.015413135
136	0x3daa9ae0	0.08330321
137	0xbc8829d8	-0.016621515
138	0xbdc18af6	-0.09450333
139	0x3dfbb5fe	0.12290572
140	0x3d735bb4	0.059413627
141	0x3d5bf0e8	0.053696543
142	0xbdba19ec	-0.090869755
143	0x3d7ff894	0.062492922
144	0xbcc159c0	-0.023602366
145	0x3dfc3ece	0.123166665
146	0xbddb8086	-0.10717873
147	0x3ca64a58	0.020299122
148	0xbdeeafc8	-0.11654621
149	0xbccbc290	-0.024873048
150	0xbdc387b0	-0.09547365
151	0x3cacab98	0.021077916
152	0xbd751eec	-0.059843943
153	0x3db930c6	0.09042506
154	0xbdc9f2e2	-0.09860779
155	0xbd0c17b0	-0.034202278
156	0x3cee00d8	0.029053137
157	0xbdb7e914	-0.08980003
158	0xbdb6dfcc	-0.089294046
159	0x3d7a7ce8	0.061154276
160	0x3d317378	0.04332301
161	0xbdeb36f2	-0.11485089
162	0xbdac7a94	-0.084218174
163	0xbd387294	-0.045031145
164	0xbdd8807c	-0.105713814
165	0xbdc9f56a	-0.09861262
166	0xbde00fb8	-0.10940498
167	0x3caa4208	0.02078344
168	0xbdda09c6	-0.106463954
169	0x3b22cb80	0.0024840534
170	0xbdaa7708	-0.08323485
171	0x3bc40e40	0.005983144
172	0x3d87ec2a	0.066368416
173	0x3dfb6470	0.12275016
174	0xbd51bf70	-0.05120796
175	0x3d1616ac	0.036642715
176	0x3c49b5a0	0.012311369
177	0x3b047b00	0.0020214915
178	0x3d51f4d0	0.051258862
179	0xbdfc21d8	-0.12311143
180	0x3ddffbb4	0.109366804
181	0xbddb7006	-0.10714726
182	0xbd033014	-0.032028273
183	0xbd847d86	-0.06469254
184	0xbcc2b088	-0.023765817
185	0xbded50d8	-0.11587685
186	0xbdced970	-0.10100067
187	0xbdc8e344	-0.098089725
188	0x3cc617b8	0.024181232
189	0x3ddfed64	0.109339505
190	0x3c29cfe0	0.010364503
191	0xbde48572	-0.11158265
192	0xbd276434	-0.040867046
193	0x3d76bb4c	0.060237214
194	0xbd261cac	-0.040554687
195	0x3d8618ba	0.06547685
196	0xbc8bddc8	-0.017073527
197	0xbd5c41f8	-0.05377385
198	0xbc443810	-0.011976257
199	0x3da76a72	0.081746
200	0x3d7e900c	0.062149093
201	0x3dd4bfc2	0.103881374
202	0xbd1324ac	-0.035923645
203	0x3b66aac0	0.003519699
204	0x3dfaff0e	0.12255679
205	0xbd5ee85c	-0.054420814
206	0x3d81b854	0.06333986
207	0xbd833d7a	-0.0640821
208	0x3dcd0328	0.10010368
209	0x3df9909e	0.12185787
210	0x3da00948	0.0781427
211	0x3db3e1e4	0.087833196
212	0xbda54d62	-0.080714
213	0x3c992998	0.018696591
214	0xbdb93e8e	-0.090451345
215	0xbde7763a	-0.11301847
216	0x3df5e496	0.1200649
217	0xbd00cf7c	-0.031447873
218	0x3d83336a	0.06406291
219	0x3dad92b0	0.08475244
220	0x3bdea480	0.0067945123
221	0x3dd5e2bc	0.10443637
222	0x3d1acbdc	0.03779207
223	0x3dabddf0	0.083919406
224	0xbc4964c0	-0.012292087
225	0x3d42596c	0.04744856
226	0x3c005820	0.007833511
227	0x3d272db8	0.040815085
228	0x3da16d20	0.07882142
229	0xbcaaf5c8	-0.02086915
230	0x3d924862	0.07142712
231	0x3dc6c7a2	0.09706046
232	0x3cf1d7f8	0.029521927
233	0x3d7f053c	0.06226085
234	0x3de0f53c	0.10984275
235	0xbbd6e3c0	-0.0065579116
236	0x3d60bb24	0.05486597
237	0x3d7c1364	0.06154193
238	0x3d80cae8	0.06288701
239	0xbda2c3a2	-0.0794747
240	0x3d3f1920	0.04665482
241	0xbda04d54	-0.07827249
242	0x3d481ce8	0.048855692
243	0xbd04cae4	-0.032420054
244	0xbd98b1f8	-0.0745582
245	0xbc946790	-0.018115789
246	0xbc769180	-0.015049338
247	0x3d06965c	0.032858238
248	0x3df01ee0	0.11724639
249	0x3d114a78	0.03547141
250	0x3dac6af6	0.08418839
251	0x3da7b1aa	0.081881836
252	0xbdfcfee6	-0.123533055
253	0x3d9fe27e	0.07806872
254	0x3da3e250	0.0800215
255	0xbd90a7fe	-0.07063292

layers.1.mlp_edge_conv.gconv.convs.<stroke___temp_previous___stroke>.nn.0.bias f4 [32]
0	0xbd97e4ba	-0.07416673
1	0x3a888480	0.0010415465
2	0xbc975b38	-0.018476114
3	0xbcd888c0	-0.026432395
4	0x3be38900	0.006943822
5	0x3dab0aec	0.083516926
6	0x3dcdc5b0	0.100474715
7	0x3d14b458	0.0363048
8	0x3deb5426	0.114906594
9	0xbdffddf6	-0.124935076
10	0x3c311b60	0.010809749
11	0x3da53850	0.080673814
12	0xbd804eba	-0.06265016
13	0xbb8e5b80	-0.0043444037
14	0xbdb1873a	-0.086683705
15	0x3cfa8f40	0.030585885
16	0x3cf09390	0.029367238
17	0xbc048ff0	-0.008090958
18	0x3ce13798	0.02749233
19	0xbc93a638	-0.018023595
20	0x3d663704	0.05620481
21	0xbdee64d8	-0.11640328
22	0xbdc64aae	-0.09682213
23	0xbdb0b826	-0.086288735
24	0xbd859c9a	-0.0652401
25	0x3d8a48bc	0.06752154
26	0x3d85fe66	0.06542663
27	0xbdd464ac	-0.10370764
28	0x3dc2d420	0.09513116
29	0x3db15eda	0.086606696
30	0xbdb2fcaa	-0.08739598
31	0xbb6f9600	-0.0036557913

layers.1.mlp_edge_conv.gconv.convs.<stroke___intersects___stroke>.nn.0.weight f4 [32, 64]
0	0xbe0c23bc	-0.13685507
1	0x3d43b04f	0.047775563
2	0x3e1b8adf	0.15189694
3	0x3e81ff78	0.2539022
4	0x3e8750e7	0.2642891
5	0x3ef8bee9	0.48583153
6	0xbe9893f4	-0.2980038
7	0x3e8c69a9	0.27424362
8	0xbe3847cd	-0.1799614
9	0xbcc257cf	-0.023723511
10	0x3e48798c	0.19577616
11	0x3da5af6e	0.08090101
12	0xbe1fc1ca	-0.15601268
13	0x3e76fe10	0.24120355
14	0x3cec5f77	0.028854115
15	0x3df7a9b9	0.12092919
16	0x3e59aeb9	0.21258058
17	0x3edbd832	0.4293838
18	0xbde2eb56	-0.11080043
19	0x3f0f5077	0.55982155
20	0x3ee1cec5	0.44103065
21	0x3e98774d	0.2977852
22	0xbe169284	-0.14704329
23	0xbe36fa70	-0.17868972
24	0x3ea7b582	0.32755667
25	0xbe89e3f0	-0.26931715
26	0x3ed7bc2b	0.42135748
27	0x3d96db73	0.07366075
28	0x3e299ade	0.16562983
29	0x3eb327c6	0.34991282
30	0x3e81be7d	0.25340644
31	0x3c2d877e	0.010591386
32	0x3c6ee2e0	0.014580458
33	0xbeea90aa	-0.45813495
34	0xbeab3fd2	-0.3344713
35	0x3e678bae	0.22611877
36	0xbf28a41e	-0.6587542
37	0xbf3a1547	-0.72688717
38	0x3e73ab0a	0.23795715
39	0xbb210dbc	-0.0024574837
40	0xbe1a691b	-0.15079157
41	0x3df077e1	0.11741615
42	0xbd0678cf	-0.032830056
43	0xbda4cba1	-0.08046652
44	0xbd8ebea6	-0.06969957
45	0xbf0916de	-0.5355052
46	0x3f15d275	0.58524257
47	0xbc728910	-0.014803186
48	0xbd6197f9	-0.055076573
49	0xbe5a9ccc	-0.21348876
50	0x3dcf7309	0.10129363
51	0xbe3feabb	-0.18741886
52	0xbe4b54c4	-0.19856554
53	0xbe935d4c	-0.28782117
54	0x3e3f2567	0.18666612
55	0x3e997080	0.29968643
56	0x3d595a0b	0.053064387
57	0xbd0f0aa4	-0.034922257
58	0xbeb4560a	-0.35221893
59	0xbe49e3b0	-0.19715762
60	0x3f176ca4	0.5915015
61	0xbe885f48	-0.26635194
62	0xbe5dc076	-0.2165545
63	0xbe1a5299	-0.15070571
64	0xbddd17de	-0.10795568
65	0xbef04e3c	-0.46934688
66	0xbd38969e	-0.045065515
67	0xbb8b269c	-0.004246546
68	0xbccd18f2	-0.025036309
69	0x3d12a8a0	0.035805345
70	0x3c3a37f6	0.011365881
71	0xbdf2541e	-0.1183245
72	0x3e8afb91	0.27145055
73	0xbdbd625b	-0.092472754
74	0xbe0a91a7	-0.13532124
75	0x3d35397d	0.04424428
76	0x3e5c72ba	0.2152814
77	0xbedc0fd5	-0.4298083
78	0x3eca7567	0.39542696
79	0xbe2c08a6	-0.16800174
80	0xbc71f405	-0.014767651
81	0x3ed07af1	0.40718797
82	0xbe87d683	-0.26530847
83	0xbf205084	-0.6262286
84	0x3e1dcf29	0.15411057
85	0xbe6d589f	-0.23178338
86	0x3d523b82	0.051326282
87	0x3e8cb887	0.27484533
88	0xbe8a5691	-0.2701917
89	0x3e323a5e	0.17405078
90	0xbea0aff0	-0.3138423
91	0xbecd0367	-0.40041658
92	0xbe662700	-0.22475815
93	0x3c80a1bc	0.015702121
94	0xbe1208cf	-0.14261173
95	0x3ec68f74	0.3878132
96	0xbea038e2	-0.31293398
97	0x3e8d141b	0.27554402
98	0xbe221e9d	-0.1583199
99	0xbef433e3	-0.47695836
100	0x3f097674	0.5369637
101	0x3e9032fb	0.28163895
102	0xbe833a28	-0.25630307
103	0xbd0b2634	-0.03397198
104	0x3d9ec5c8	0.077525675
105	0xbea33762	-0.3187819
106	0xbe713b4d	-0.23557778
107	0xbf1bd5ba	-0.60872996
108	0x3d518ef3	0.051161718
109	0x3e878aef	0.26473185
110	0xbe01ba7c	-0.12668794
111	0xbe32ca32	-0.17459944
112	0xbcabcd3e	-0.02097189
113	0xbee87415	-0.45401064
114	0xbea688ba	-0.3252619
115	0x3df54de4	0.11977747
116	0xbed72d98	-0.42026973
117	0x3b3d297c	0.0028863838
118	0xbea42d15	-0.32065645
119	0xbe4f051d	-0.20216794
120	0xbe834d51	-0.25644925
121	0x3d437e98	0.04772815
122	0x3eb48e82	0.35264975
123	0x3ea53bff	0.32272336
124	0xbef3a203	-0.47584543
125	0xbe34c472	-0.17653063
126	0xbea78fd2	-0.32726914
127	0xbeb6c5a8	-0.35697675
128	0xbec9025b	-0.3925961
129	0xbe553094	-0.20819312
130	0xbed9880d	-0.4248661
131	0xbeae7228	-0.3407147
132	0xbb624b76	-0.0034529842
133	0xbe05983e	-0.13046357
134	0xbdb73d83	-0.08947279
135	0xbe20239b	-0.15638582
136	0x3e5d1f3c	0.21593946
137	0xbe01ecb7	-0.12687956
138	0xbe56481a	-0.20925942
139	0xbd323f92	-0.043517657
140	0x3daaa98e	0.08333121
141	0xbe17653f	-0.14784716
142	0xbd941791	-0.072310574
143	0xbd36355e	-0.04448449
144	0x3cfb6d7f	0.03069186
145	0xbdad3918	-0.084581554
146	0x3e11f93a	0.14255229
147	0x3d0e27b0	0.034705818
148	0xbed7f3cd	-0.42178193
149	0xbeabf234	-0.33583224
150	0xbe93c78f	-0.2886319
151	0xbde33d2b	-0.11095651
152	0xbea2d71b	-0.31804737
153	0xbbfed93b	-0.0077773607
154	0xbe85faf7	-0.26168033
155	0x3beace6a	0.0071657198
156	0xbedf7b7c	-0.436489
157	0x3e4f1fcf	0.20226978
158	0xbdb3319c	-0.087496966
159	0xbeafae13	-0.34312496
160	0xbd91f66a	-0.07127078
161	0xbd9b11e5	-0.075717725
162	0x3e55d714	0.20882827
163	0xbd60908e	-0.054825358
164	0xbdd1781e	-0.10227989
165	0xbe203bca	-0.15647808
166	0xbe102790	-0.14077592
167	0xbe7950fa	-0.24347296
168	0x3e0a7272	0.1352022
169	0x3e250930	0.16116786
170	0x3e6e8323	0.23292212
171	0xbd87dc50	-0.06633818
172	0xbc8b95e7	-0.017039252
173	0x3c7f99b1	0.015600608
174	0x3e70357f	0.23457907
175	0xbc970628	-0.018435553
176	0xbead5b6e	-0.33858818
177	0x3e6b8ba7	0.23002492
178	0x3a317417	0.0006769313
179	0xbea1ceed	-0.31603184
180	0x3e9311c8	0.28724504
181	0xbddcb4fc	-0.107767075
182	0x3e3c9fd8	0.1842035
183	0xbda5b19e	-0.080905184
184	0x3e06930f	0.13142036
185	0x3dad9c7b	0.08477112
186	0xbe215733	-0.1575592
187	0xbdec0ab0	-0.11525476
188	0x3b9ab6ba	0.0047214897
189	0xbe80491e	-0.25055784
190	0xbe16318c	-0.14667338
191	0x3eaa0b75	0.33211866
192	0xbe3fd5cf	-0.18733905
193	0xbe2622f7	-0.16224276
194	0xbe5278ee	-0.20553944
195	0xbeae75f4	-0.34074366
196	0xbe1db877	-0.15402399
197	0xbe5f296e	-0.21793148
198	0xbe076a51	-0.1322415
199	0xbe154cf8	-0.14580142
200	0xbea12416	-0.31472844
201	0x3d2f75bd	0.042836893
202	0xbd823f39	-0.06359715
203	0xbe5f837d	-0.21827503
204	0xbd8a6987	-0.06758409
205	0xbe41c038	-0.18920982
206	0xbd827b16	-0.06371133
207	0xbe5f5103	-0.21808247
208	0xbdd3dd57	-0.103449516
209	0xbe4695aa	-0.1939303
210	0xbe4cf5da	-0.2001566
211	0xbd3d2831	-0.046180908
212	0xbdce284a	-0.10066278
213	0xbe802bd0	-0.25033426
214	0xbdb397aa	-0.08769162
215	0xbe6b83f1	-0.2299955
216	0xbda7be7e	-0.081906304
217	0x3cc4ae7a	0.024008978
218	0xbde94a7c	-0.1139116
219	0xbe588e2a	-0.21147981
220	0xbd895004	-0.06704715
221	0xbe0f86fd	-0.14016338
222	0xbe296b09	-0.16544737
223	0xbe68ff69	-0.22753681
224	0xbd1bc802	-0.03803254
225	0x3d58c70d	0.052924205
226	0x3ddf562a	0.10905106
227	0x3cd443ef	0.0259113
228	0x3d5cd985	0.05391838
229	0xbd05b338	-0.03264162
230	0x3cf70b30	0.030156702
231	0x3cb5308b	0.022117874
232	0xbdab9dd4	-0.08379713
233	0x3e0d0d2e	0.13774559
234	0xbdca5daa	-0.09881146
235	0x3dd107eb	0.10206588
236	0xbe2440c9	-0.16040339
237	0xbdb53dcb	-0.08849677
238	0x3c17518b	0.00923575
239	0xbc4fbda6	-0.012679493
240	0xbc33ca35	-0.010973503
241	0x3c9f0e24	0.019415922
242	0xbc1fed31	-0.009761141
243	0x3d5d29a9	0.05399481
244	0x3e11b62a	0.14229646
245	0x3debc7bf	0.11512708
246	0x3e0321ff	0.12805937
247	0xbe50f847	-0.2040721
248	0xbd572b05	-0.05253126
249	0xbe360e89	-0.17778982
250	0x3d95e689	0.07319362
251	0x3deddb71	0.11614121
252	0xbe4c189e	-0.19931266
253	0xbca9a9f9	-0.020710932
254	0xbbcb9825	-0.0062132054
255	0xbd37ac16	-0.04484185

layers.1.mlp_edge_conv.gconv.convs.<stroke___intersects___stroke>.nn.0.bias f4 [32]
0	0x3ea54b5f	0.32284066
1	0xbe24ea02	-0.16104892
2	0xbdef9e39	-0.117001005
3	0xbe854818	-0.26031566
4	0xbe9c59e6	-0.30537337
5	0xbdf4302f	-0.11923253
6	0xbd4c411a	-0.049866773
7	0xbe6cf381	-0.23139764
8	0xbe55337d	-0.20820422
9	0xbe198c93	-0.14995031
10	0xbde64db2	-0.11245288
11	0xbe94b783	-0.29046258
12	0x3d8cbf13	0.06872382
13	0xbdee1167	-0.11624413
14	0xbe8d810d	-0.2763752
15	0xbe68ccb9	-0.22734345
16	0x3c15daef	0.009146436
17	0xbe7d6bc1	-0.24748136
18	0xbe9386d7	-0.28813812
19	0xbe3fc1c4	-0.1872626
20	0x3e9d5af4	0.30733454
21	0xbed82582	-0.42216116
22	0xbeb1473c	-0.3462466
23	0xbdd39ce0	-0.10332656
24	0xbecaa21e	-0.3957681
25	0xbdfd3551	-0.12363685
26	0xbee3ee05	-0.44517532
27	0xbf190e97	-0.5978789
28	0xbe11597d	-0.14194293
29	0xbec89f72	-0.39184147
30	0xbe70dd1c	-0.23521847
31	0x3d84ef0a	0.064909056
