checkpoints/operation_prediction/graph_embedding_model.pth (torch, 82794 bytes, 20 tensors)

local_head.gconv.convs.<stroke___temp_previous___stroke>.nn.0.weight f4 [32, 12]
0	0x3d6fd280	0.058550358
1	0xbe40fdaf	-0.18846773
2	0xbe75bf5c	-0.23998779
3	0xbe7f4796	-0.24929652
4	0x3e92d7f8	0.28680396
5	0xbe359e24	-0.17736107
6	0x3de39eb0	0.111142516
7	0xbe60c96e	-0.2195184
8	0x3da5d840	0.08097887
9	0x3e71677c	0.23574632
10	0xbe245d37	-0.16051184
11	0xbe3edcd8	-0.18638933
12	0xbe8e86ca	-0.2783721
13	0x3de982bc	0.11401889
14	0x3e842abe	0.2581386
15	0x3ddb69dc	0.107135504
16	0xbe8f6ff8	-0.28015113
17	0x3e4ff61a	0.20308724
18	0xbdec391c	-0.1153433
19	0xbcd036c0	-0.025416732
20	0x3e212112	0.15735272
21	0x3dcbd21c	0.099521846
22	0xbe779d63	-0.24181132
23	0xbbc88e00	-0.0061204433
24	0x3c516fa0	0.012782961
25	0x3e8e0186	0.27735537
26	0x3e8ce4d8	0.27518344
27	0xbcb981d0	-0.022644907
28	0xbe852f86	-0.2601282
29	0xbe2629b0	-0.1622684
30	0xbe68a2bc	-0.22718328
31	0x3e4314c2	0.19050887
32	0x3e6edc18	0.23326147
33	0xbd5d2e84	-0.05399944
34	0x3e8a222a	0.2697919
35	0xbca396b0	-0.019969314
36	0xbd1fe2f4	-0.0390348
37	0x3db73708	0.08946043
38	0xbe2f07b2	-0.1709278
39	0x3e93b636	0.28849953
40	0xbc328700	-0.010896444
41	0xbe158e6a	-0.14605108
42	0x3e0517f6	0.12997422
43	0x3e82b496	0.255284
44	0xbe2ce3a5	-0.16883714
45	0xbdd80dc2	-0.10549499
46	0xbe860323	-0.26174268
47	0xbc593640	-0.013257563
48	0xbdd2659e	-0.10273288
49	0xbcc64ed0	-0.024207503
50	0xbe28f7ce	-0.1650078
51	0x3da6a7bc	0.081374615
52	0x3e79b0dc	0.24383873
53	0xbe805a82	-0.25069052
54	0xbd01cfa0	-0.031692147
55	0xbdce2318	-0.10065287
56	0x3e7c07c0	0.24612331
57	0xbd769794	-0.06020315
58	0xbd176550	-0.036961854
59	0x3e4d1506	0.20027551
60	0x3e594f70	0.21221709
61	0xbd44fc84	-0.04809238
62	0x3e0f699c	0.1400513
63	0xbe77dc97	-0.24205242
64	0x3d2666f8	0.040625542
65	0xbe6387c0	-0.22219753
66	0x3e1a9e5e	0.15099475
67	0xbd89e61a	-0.067333415
68	0x3e5bfd0c	0.21483248
69	0x3ded5a34	0.115894705
70	0x3dfaed30	0.12252271
71	0xbd52ec70	-0.051495016
72	0x3d1c3780	0.038138866
73	0xbd8205b8	-0.06348747
74	0xbe10a1f8	-0.14124286
75	0x3da57988	0.08079821
76	0x3d59d948	0.05318573
77	0xbe8aa60c	-0.2707981
78	0x3d800f7c	0.062529534
79	0xbd394644	-0.045233026
80	0x3d5e26a8	0.054236084
81	0x3d59e200	0.053194046
82	0x3e0bd8a2	0.13656858
83	0x3c8f13f0	0.017465562
84	0x3e69d3b4	0.22834665
85	0x3e5109e8	0.20413935
86	0x3d52ad20	0.051434636
87	0x3e2c4148	0.16821778
88	0xbdb7e106	-0.08978467
89	0xbc8bc300	-0.017060757
90	0x3e2b0e62	0.16704705
91	0xbcd4ea30	-0.025990576
92	0x3e89db42	0.26925093
93	0xbe750790	-0.23928666
94	0xbc9dfe60	-0.019286335
95	0x3e3f3ca6	0.1867548
96	0xbe2e4f70	-0.1702249
97	0xbd6f1d34	-0.05837746
98	0x3e3e0148	0.18555176
99	0x3e73e7fc	0.23818964
100	0xbe79d147	-0.24396239
101	0xbe0ec9d7	-0.13944183
102	0xbdc7c6ce	-0.09754716
103	0x3d733510	0.059376776
104	0x3e40f1e8	0.1884228
105	0xbe2609ba	-0.16214648
106	0xbde71ada	-0.112844184
107	0xbdd3f75e	-0.10349916
108	0xbe10fa8e	-0.14158079
109	0x3da45e18	0.080257595
110	0xbe42225e	-0.18958423
111	0xbe60f5e0	-0.21968794
112	0x3d685328	0.05671993
113	0x3e2d0298	0.1689552
114	0x3e4bc544	0.1989947
115	0x3bb5ef80	0.0055522323
116	0x3da107e8	0.07862836
117	0xbe447008	-0.19183362
118	0xbe529544	-0.20564753
119	0xbcae97e0	-0.021312654
120	0x3de12d58	0.10994977
121	0x3da444b8	0.080209196
122	0xbdcbc5fa	-0.099498704
123	0xbd8e2630	-0.069408774
124	0xbd839dda	-0.06426592
125	0xbd0c0a60	-0.034189582
126	0x3e1f6d8c	0.15569133
127	0x3deffd40	0.117182255
128	0xbe7b4c15	-0.24540742
129	0xbd669710	-0.05629641
130	0xbdf087fe	-0.117446885
131	0x3e85daa0	0.2614336
132	0xbe750291	-0.2392676
133	0xbe187b3a	-0.14890757
134	0x3e10d274	0.14142781
135	0xbd7d4ca0	-0.061840653
136	0x3d90bfa0	0.070677996
137	0xbe696431	-0.22792126
138	0x3bbd8280	0.005783379
139	0x3df14184	0.11780074
140	0x3e2e8e30	0.17046428
141	0xbe91db5f	-0.2848768
142	0x3dfee74c	0.1244646
143	0xbd8b4b16	-0.06801431
144	0x3e5c9b7c	0.21543688
145	0x3c557200	0.013027668
146	0xbc9a7790	-0.01885584
147	0x3e81bf44	0.25341237
148	0x3e01f634	0.12691575
149	0x3e1a37b2	0.15060309
150	0xbe6ca4cb	-0.23109739
151	0xbd7ddca4	-0.061977997
152	0x3e31fc26	0.17381343
153	0xbe89a68f	-0.26884887
154	0xbe7fdcf7	-0.24986635
155	0xbe22ee8b	-0.1591131
156	0x3e4f43fe	0.2024078
157	0xbe035842	-0.12826636
158	0xbdac7152	-0.08420052
159	0xbd9c8b94	-0.0764381
160	0x3e14811c	0.14502376
161	0xbda77e3c	-0.08178374
162	0xbdedbb98	-0.11608046
163	0x3e10c362	0.14137033
164	0xbcb5d1b0	-0.022194713
165	0xbe2d9d94	-0.16954643
166	0xbe008cde	-0.12553737
167	0x3dd170f0	0.10226619
168	0x3dc375d4	0.09543958
169	0xbe5c2808	-0.21499646
170	0x3e360b12	0.1777766
171	0xbe6c63d5	-0.23084958
172	0x3dc2d20c	0.095127195
173	0x3df990c4	0.12185815
174	0x3d89dac0	0.067311764
175	0x3e09e2c6	0.13465413
176	0xbe10009c	-0.14062732
177	0xbcf34b20	-0.029698908
178	0x3e6304e8	0.2216984
179	0xbe83d3df	-0.25747582
180	0x39569800	0.00020465255
181	0x3d903214	0.07040802
182	0xbd97166e	-0.07377325
183	0x3dbc6818	0.09199542
184	0x3dd7eaa0	0.10542798
185	0xbdf9dd36	-0.12200396
186	0x3cb9d130	0.022682756
187	0xbe29e0da	-0.1658968
188	0x3de4dc10	0.11174786
189	0xbe66e6f6	-0.22549042
190	0xbe7d44ae	-0.2473323
191	0x3e6e1070	0.23248458
192	0xbd8cb6da	-0.06870814
193	0xbc49af60	-0.012309879
194	0x3e26d31c	0.1629147
195	0xbdfee7c6	-0.12446551
196	0x3e6f076c	0.23342675
197	0xbdcd9696	-0.100384876
198	0xbb55cc00	-0.0032622814
199	0xbe62f503	-0.22163777
200	0x3e60d974	0.21957952
201	0x3e1a40c6	0.15063772
202	0xbe837b10	-0.25679827
203	0x3d91a064	0.0711067
204	0x3dfb475c	0.1226947
205	0x3d266680	0.040625095
206	0xbdc10d94	-0.09426418
207	0x3df5b308	0.11997038
208	0xbe01b001	-0.12664796
209	0x3dc2c588	0.09510332
210	0x3aa31000	0.0012440681
211	0x3e355b3e	0.17710587
212	0x3e3a6a56	0.18204626
213	0xbe5f90e4	-0.21832615
214	0xbe91f6b3	-0.2850853
215	0x3d9778d4	0.07396093
216	0x3e877658	0.26457477
217	0xbe188020	-0.14892626
218	0xbcccf2f0	-0.025018185
219	0x3dee94e8	0.11649495
220	0x3cee5e40	0.029097676
221	0x3e8f3d04	0.2797624
222	0x3e170082	0.14746287
223	0xbdb6710e	-0.08908282
224	0x3e6053d0	0.21906972
225	0xbe147eba	-0.14501467
226	0xbe8489ad	-0.25886288
227	0x3e6006d0	0.21877599
228	0x3df88668	0.12135011
229	0xbe6e0ff0	-0.23248267
230	0x3e787f60	0.2426734
231	0xbe2a684a	-0.16641346
232	0xbcdb8080	-0.026794672
233	0x3e6c8af0	0.23099875
234	0x3e0257a6	0.12728748
235	0x3d3b4a38	0.045725077
236	0x3e690570	0.2275598
237	0x3e028d20	0.12749147
238	0x3e89bb1c	0.26900566
239	0x3e78f360	0.2431159
240	0x3ce7cab0	0.028294891
241	0xbe32124a	-0.17389789
242	0xbe109606	-0.1411973
243	0xbdd8f4f8	-0.10593599
244	0x3e832820	0.2561655
245	0xbe0d0ba1	-0.13773967
246	0x3e31ea66	0.17374572
247	0x3d7ef6d8	0.062247127
248	0xbdde8c42	-0.10866596
249	0xbe2b188b	-0.16708581
250	0x3e00d586	0.12581453
251	0xbe89b3bb	-0.26894936
252	0x3ccaac10	0.024740249
253	0x3daaaae0	0.08333373
254	0x3e20ecda	0.15715352
255	0x3debe8c4	0.11519006

local_head.gconv.convs.<stroke___temp_previous___stroke>.nn.0.bias f4 [32]
0	0xbe021a64	-0.1270538
1	0x3d568038	0.052368373
2	0x3dd04478	0.101693094
3	0x3e90a27e	0.28248972
4	0xbe35f3cc	-0.17768782
5	0x3e88e9c8	0.2674086
6	0x3ce99cd0	0.028517157
7	0xbe51eb95	-0.20500024
8	0xbe11f0a0	-0.14251947
9	0x3da275e8	0.07932645
10	0x3e8da53a	0.2766512
11	0x3dc3e1c0	0.09564543
12	0xbe5609ec	-0.20902222
13	0xbdba2874	-0.09089747
14	0x3dacc8e0	0.08436751
15	0x3d389228	0.04506126
16	0xbd337ac4	-0.04381825
17	0xbe5f26c8	-0.21792138
18	0xbdeaa8d4	-0.11457983
19	0x3d50d238	0.05098173
20	0x3d27c748	0.040961534
21	0x3e5a3b30	0.2131164
22	0xbd9c6b16	-0.076376125
23	0xbd9b1fd0	-0.07574427
24	0x3dce4a2c	0.10072741
25	0xbe15075c	-0.14553589
26	0x3dea370c	0.114362806
27	0x3dc37b74	0.09545031
28	0x3e4ac0aa	0.19800058
29	0xbdf7d4d2	-0.12101139
30	0x3e86605c	0.2624539
31	0xbc780100	-0.015136957

local_head.gconv.convs.<stroke___intersects___stroke>.nn.0.weight f4 [32, 12]
0	0x3e2165dc	0.15761513
1	0x3ea4d036	0.32190102
2	0x3de4d052	0.111725464
3	0x3d246d0e	0.040143065
4	0x3efdcd63	0.4957076
5	0x3be00f19	0.0068377373
6	0x3ebf1790	0.37322664
7	0xbebbebde	-0.3670339
8	0xbeef9ac9	-0.4679778
9	0xbf0f90b6	-0.56080186
10	0x3da12cb4	0.078698546
11	0x3e99aaed	0.3001322
12	0xbcf7702c	-0.030204855
13	0x3d1bdde0	0.038053393
14	0x3d670ee9	0.056410704
15	0xbd7cc5c3	-0.061712038
16	0xbe836a5a	-0.25667077
17	0x3e8f1849	0.27948216
18	0xbc9aaf30	-0.018882364
19	0x3babc3fa	0.005241868
20	0x3e4036c7	0.18770896
21	0x3e628048	0.22119248
22	0xbe855b23	-0.26046094
23	0xbecf00a6	-0.40430182
24	0xbee98d48	-0.45615602
25	0x3e0ca5c7	0.13735114
26	0xbe106996	-0.14102778
27	0xbe770fba	-0.24127093
28	0x3e1d1fb0	0.15344119
29	0xbe2046bd	-0.15651985
30	0xbf18d250	-0.5969591
31	0x3ca49d76	0.020094614
32	0x3ed8ac1c	0.4231881
33	0x3f2035a0	0.62581825
34	0xbebd2c97	-0.36948082
35	0xbf1b8a03	-0.60757464
36	0xbd6634b0	-0.05620259
37	0xbd4466c7	-0.04794958
38	0xbd82bce3	-0.063836835
39	0xbf1b0d79	-0.6056743
40	0x3e1a2dd6	0.15056548
41	0x3e00665c	0.12539047
42	0xbef2277a	-0.47295743
43	0x3f41d6f2	0.75718606
44	0x3e584eee	0.2112386
45	0x3f584bbf	0.8449058
46	0xbf038082	-0.5136796
47	0xbddcf592	-0.10789026
48	0x3e00b114	0.1256755
49	0x3e90807c	0.28223026
50	0xbe0e88dc	-0.13919395
51	0x3ed420ae	0.41431183
52	0xbbfc1828	-0.0076933093
53	0xbe3610e1	-0.17779876
54	0x3f09d46a	0.53839743
55	0xbee64143	-0.44971666
56	0xbea81180	-0.3282585
57	0xbf11c41e	-0.56939876
58	0x3e343b64	0.1760078
59	0x3eddfa34	0.43354952
60	0xbe53c02e	-0.2067878
61	0xbe33596c	-0.1751458
62	0x3ea303b1	0.31838754
63	0x3eaadd96	0.33372182
64	0xbeaa100f	-0.33215377
65	0x3f206036	0.62646806
66	0x3ebd6ac6	0.36995524
67	0xbe94e101	-0.29077914
68	0xbf0f5c14	-0.55999875
69	0xbe3f7b41	-0.18699361
70	0x3f38029b	0.71878976
71	0x3ec2725b	0.3797787
72	0x3e861590	0.26188326
73	0x3e0f707a	0.1400775
74	0x3e0fa472	0.14027575
75	0x3ee979e0	0.45600796
76	0xbef3afff	-0.47595212
77	0x3e205298	0.15656507
78	0x3eb2301c	0.3480233
79	0xbf34f773	-0.7069008
80	0xbce5328c	-0.027978204
81	0xbeb1207e	-0.34595102
82	0x3e8b8564	0.27250206
83	0x3ed72181	0.4201775
84	0xbcbb3972	-0.02285454
85	0xbe03bc9b	-0.12864916
86	0x3d63984b	0.05556516
87	0x3f0158e9	0.5052629
88	0x3ebf7bb8	0.37399077
89	0xbcdb6eea	-0.026786286
90	0xbee4f043	-0.44714555
91	0x3e674adf	0.22587155
92	0x3ead8f19	0.33898237
93	0x3f2cd394	0.6751034
94	0xbe96e6b7	-0.29472896
95	0xbeb6ed01	-0.35727695
96	0x3e7024ba	0.2345151
97	0xbe8b94f8	-0.27262092
98	0xbe78016e	-0.24219295
99	0xbe102c2a	-0.14079347
100	0x3e0fe1f5	0.1405104
101	0xbecf4722	-0.40483958
102	0xbef8db17	-0.48604652
103	0x3ef8cdaa	0.4859441
104	0xbe62dc2f	-0.22154306
105	0x3f20a55d	0.62752324
106	0xbeca7846	-0.39544886
107	0xbe92fa73	-0.28706703
108	0x3e900073	0.28125343
109	0x3edbb7c3	0.42913637
110	0x3e74667a	0.23867217
111	0x3db18ee5	0.08669833
112	0x3e5e14cd	0.21687622
113	0x3e727af1	0.23679711
114	0xbf188450	-0.5957689
115	0xbe2cd1dc	-0.1687693
116	0x3f08489a	0.5323578
117	0x3f4abd6c	0.79195285
118	0x3cd51536	0.02601109
119	0xbec0451a	-0.3755272
120	0x3e5ab973	0.21359806
121	0x3dadfa45	0.08495001
122	0x3e6e8f50	0.23296857
123	0x3ec194ff	0.37808987
124	0xbc84272f	-0.016131965
125	0xbe349a8b	-0.17637078
126	0xbe56700c	-0.2094118
127	0x3e30ebff	0.17277525
128	0x3eedd0ce	0.46448368
129	0x3e17fcf7	0.14842592
130	0xbe7b3d04	-0.24534994
131	0xbecad95a	-0.3961895
132	0xbc3341aa	-0.0109409485
133	0x3e2a56f2	0.1663473
134	0xbd2b14d3	-0.041767906
135	0x3ec9ea53	0.39436588
136	0xbe2e9e4c	-0.17052573
137	0xbde56579	-0.11200995
138	0xbeab668b	-0.33476672
139	0x3eb1a094	0.34692824
140	0x3e9f27f6	0.31085175
141	0x3b37b5e4	0.0028032
142	0xbe9bd094	-0.3043257
143	0xbe499616	-0.1968616
144	0xbba229b2	-0.004948818
145	0xbde55b90	-0.11199105
146	0x3e5cc919	0.21561088
147	0xbe13cdd4	-0.14433986
148	0xbda1c219	-0.07898349
149	0x3ec453d7	0.38345215
150	0x3ebe6652	0.3718744
151	0xbf259507	-0.6468052
152	0xbf013994	-0.5047848
153	0xbde54c54	-0.11196199
154	0x3f1a5845	0.6029094
155	0x3f045018	0.51684713
156	0xbecb7e71	-0.39744905
157	0xbe8bc3ec	-0.27297914
158	0xbe96bffb	-0.29443344
159	0x3e850f79	0.25988367
160	0xbe6d7b70	-0.23191619
161	0xbdb5a045	-0.088684596
162	0x3c590006	0.0132446345
163	0x3ef7a260	0.4836607
164	0x3f13b182	0.5769273
165	0x3df70fdb	0.12063571
166	0xbf1bdc43	-0.6088297
167	0xbe91bddd	-0.28465167
168	0x3d5ebbd0	0.05437833
169	0x3e7570e9	0.23968853
170	0xbe0d0a6a	-0.13773504
171	0x3e9b2670	0.30302763
172	0x3e1b84e4	0.15187413
173	0xbd2d9036	-0.04237386
174	0x3f0d2d37	0.5514712
175	0xbf017c2b	-0.5058009
176	0xbebc1e5e	-0.36741918
177	0xbec57420	-0.3856516
178	0x3e0f9c6c	0.14024514
179	0x3f111423	0.5667135
180	0xbf21b443	-0.6316568
181	0x3e895edc	0.26830184
182	0x3ea1a550	0.31571436
183	0xbd6f2acc	-0.058390424
184	0x3e51b107	0.20477687
185	0xbda82d33	-0.08211746
186	0xbe9865e6	-0.29765242
187	0x3cc03b1a	0.023465682
188	0xbee301b0	-0.44337225
189	0x3d2ccde6	0.042188548
190	0x3dcd9837	0.10038798
191	0x3f023de6	0.508757
192	0x3dc665c5	0.0968738
193	0x3d76c7cc	0.060249135
194	0x3e010bce	0.1260216
195	0x3ed1b12c	0.40955484
196	0xbdde4f01	-0.108549125
197	0xbd4c3411	-0.049854342
198	0x3edc79ec	0.4306177
199	0xbf33de6e	-0.70261276
200	0x3d0e0540	0.034672976
201	0x3bd96cee	0.0066353
202	0x3e290d49	0.16508974
203	0x3eb79b5f	0.35860726
204	0xbe5662db	-0.20936148
205	0x3e81f3d8	0.2538135
206	0xbc4c4a8b	-0.012468944
207	0xbe449fc8	-0.19201577
208	0xbca66d47	-0.02031578
209	0xbd4ca62c	-0.04996316
210	0xbe988b72	-0.29793888
211	0x3e72b53b	0.23701946
212	0x3e4cd0f7	0.20001589
213	0x3f0daf84	0.5534594
214	0xbed22fb5	-0.41052023
215	0x3c5b1c94	0.013373513
216	0x398a06e4	0.00026326545
217	0xbdc22421	-0.09479547
218	0x3e904902	0.281807
219	0xbe7bd3f3	-0.24592571
220	0xbe49aeb0	-0.19695544
221	0x3dcc5f11	0.0997907
222	0xbf035a74	-0.51309896
223	0xbe10acb4	-0.14128381
224	0x3e8e0d1c	0.27744377
225	0x3f02bf95	0.5107358
226	0xbed10296	-0.40822285
227	0xbf4a4e82	-0.79026043
228	0xbe853ee1	-0.26024535
229	0xbe82fae4	-0.2558204
230	0xbd4cf2ab	-0.050036114
231	0xbe0dc78e	-0.13845655
232	0xbe6fcc49	-0.23417772
233	0x3ea4e8ab	0.32208762
234	0xbf3ab701	-0.7293549
235	0x3d87b9b1	0.06627215
236	0x3f0dd8cd	0.55408937
237	0x3ec05b2c	0.3756956
238	0xbe7ae4f8	-0.24501407
239	0xbf2043af	-0.62603277
240	0xbe92f558	-0.28702807
241	0xba93a5d2	-0.0011264628
242	0x3ee455b3	0.44596633
243	0x3e2d17dd	0.16903634
244	0xbeba6a0f	-0.3640904
245	0x3edb6773	0.42852363
246	0x3edaf9d7	0.42768738
247	0xbe537259	-0.20649089
248	0xbf2a1291	-0.6643458
249	0xbe803bce	-0.25045627
250	0x3eb08794	0.34478438
251	0x3f0b9a46	0.5453228
252	0x3e56fa14	0.20993835
253	0x3d8a8514	0.06763664
254	0xbe3cbbad	-0.18430968
255	0x3e9810e0	0.29700375

local_head.gconv.convs.<stroke___intersects___stroke>.nn.0.bias f4 [32]
0	0x3e4864c0	0.19569683
1	0x3d087510	0.033314764
2	0x3eeb4032	0.45947415
3	0x3eeab7de	0.45843405
4	0x3e888c67	0.26669618
5	0x3ebc42cc	0.36769712
6	0x3ef8cba5	0.48592868
7	0x3ec2a716	0.380181
8	0xbda8c6a3	-0.08241012
9	0xbda9a3ef	-0.08283221
10	0x3ee5c368	0.44875646
11	0x3e675812	0.2259219
12	0xbe89b8e4	-0.26898873
13	0x3e0fca2f	0.1404197
14	0x3eb4fb11	0.35347798
15	0x3e9c53e3	0.3053275
16	0x3f0cbabe	0.54972446
17	0xbe16056a	-0.14650503
18	0x3f5ca744	0.8619273
19	0x3f265171	0.6496802
20	0x3e8ac69f	0.2710466
21	0x3e04dd7b	0.12975113
22	0x3e833552	0.25626618
23	0x3ecf31e2	0.40467745
24	0x3dac0f17	0.08401316
25	0x3f253863	0.64539164
26	0xbe957955	-0.29194131
27	0x3ecf98d6	0.40546292
28	0x3dc6f0ad	0.09713874
29	0x3ea0ca0c	0.3140415
30	0x3e990fa1	0.29894736
31	0x3eca9696	0.39568013

layers.0.mlp_edge_conv.gconv.convs.<stroke___temp_previous___stroke>.nn.0.weight f4 [32, 64]
0	0xbdb26550	-0.0871073
1	0x3b5020c0	0.0031757802
2	0x3bdd3a00	0.006751299
3	0x3df4998c	0.11943349
4	0x3dd19e5e	0.10235284
5	0xbc2b7de0	-0.010467023
6	0x3db0476c	0.08607373
7	0x3d1554f4	0.03645797
8	0x3dbe24ec	0.09284386
9	0xbdee003a	-0.11621137
10	0x3d6ab574	0.057301953
11	0xbd74b520	-0.059743047
12	0xbdb58458	-0.08863133
13	0xbd320e14	-0.043470457
14	0x3d10b808	0.035331756
15	0x3d970bb2	0.073752776
16	0x3d0773f8	0.03306958
17	0x3d577040	0.052597284
18	0xbddc15c0	-0.10746336
19	0xbd84ed64	-0.06490591
20	0xbcbeb918	-0.023281619
21	0x3dade616	0.08491151
22	0xbdcb2f26	-0.09921102
23	0xbdd1ca78	-0.10243696
24	0x3cd09b38	0.025464639
25	0xbd338c1c	-0.04383479
26	0x3dee62c8	0.11639935
27	0x3dc1deb0	0.094663024
28	0xbca58250	-0.02020374
29	0x3defd3ec	0.11710343
30	0xbc025760	-0.007955402
31	0xbdd8d50c	-0.105875105
32	0xbd13d068	-0.036087424
33	0xbd8fddac	-0.070247024
34	0xbdb46828	-0.08808929
35	0x3dd1edd8	0.10250443
36	0x3cbc2d18	0.022970721
37	0xbcb6e978	-0.022328123
38	0xbd2bfdf4	-0.041990235
39	0x3dea99e8	0.114551365
40	0xbd8354ea	-0.064126804
41	0xbda03bcc	-0.07823905
42	0xbda35556	-0.07975261
43	0xbdf4cf88	-0.11953646
44	0xbdc2e3a4	-0.09516075
45	0x3d99a25e	0.07501672
46	0xbdddacf4	-0.10824004
47	0x3d86f62e	0.06589924
48	0x3d5c06e4	0.05371751
49	0xbdec14b6	-0.11527388
50	0xbd95e258	-0.07318562
51	0xbd9ef0a6	-0.07760744
52	0x3d918d86	0.071070716
53	0x3da7691e	0.081743464
54	0x3d9905b8	0.07471794
55	0xbd971f7a	-0.073790506
56	0xbddda2dc	-0.108220786
57	0xbd919c22	-0.07109858
58	0x3de6d1be	0.11270474
59	0xbdaa42fc	-0.083135575
60	0x3d5c678c	0.053809687
61	0x3d1e1554	0.03859456
62	0xbce96d78	-0.028494582
63	0xbdf0d968	-0.11760217
64	0x3df69cd2	0.1204163
65	0xba40b600	-0.0007351339
66	0x3defae64	0.11703184
67	0xbd8d2208	-0.068912566
68	0x3d9897f2	0.07450856
69	0x3d42c700	0.047553062
70	0x3dffd94e	0.124926195
71	0x3c0d44b0	0.008622333
72	0x3d70e74c	0.058814332
73	0x3de4fc44	0.11180928
74	0x3d02c3bc	0.031924948
75	0x3dfcea94	0.1234943
76	0x3dfe002e	0.12402378
77	0xbd817bde	-0.06322454
78	0x3bcb76a0	0.0062092096
79	0x3d972014	0.07379165
80	0x3d6180c4	0.05505444
81	0xbd99d39a	-0.07511063
82	0xbdd0fbd8	-0.102042854
83	0xbcb01b00	-0.02149725
84	0x3df356b4	0.11881772
85	0x3ddc95fe	0.10770796
86	0xbd87f99a	-0.066394046
87	0xbd0ce980	-0.03440237
88	0xbdc32402	-0.09528352
89	0x3df357a6	0.11881952
90	0x3d2e3ebc	0.042540297
91	0xbda4561c	-0.080242366
92	0xbcbfcdf8	-0.023413643
93	0xbdb0b3d0	-0.086280465
94	0xbdf527e0	-0.11970496
95	0x3dbb7652	0.09153427
96	0xbdac123a	-0.08401914
97	0xbdee774e	-0.11643849
98	0xbde287a0	-0.11061025
99	0xbd4b4678	-0.04962775
100	0xbd9cd264	-0.07657316
101	0xbd08b960	-0.033379912
102	0xbd84dbd6	-0.06487243
103	0x3b813140	0.0039426386
104	0xbdd1413a	-0.10217519
105	0x3d9812e4	0.07425478
106	0x3d4b9878	0.049705952
107	0x3df4b3d8	0.11948365
108	0xbb0bf080	-0.0021353066
109	0xbd6f7f14	-0.0584708
110	0xbddc1b2a	-0.10747369
111	0xbd49159c	-0.049092874
112	0x3df1aed4	0.11800924
113	0x3db8dd82	0.09026624
114	0x3d19683c	0.03745292
115	0x3d92da86	0.07170586
116	0xbde8089a	-0.113297656
117	0x3d3d4dd8	0.046216816
118	0xbd642964	-0.055703536
119	0x3d1e4248	0.03863743
120	0xbde2811e	-0.110597834
121	0x3dc00ca2	0.093774095
122	0x3deef11e	0.11667083
123	0x3da64946	0.081194445
124	0x3dbeacfa	0.093103364
125	0xbdeba6d6	-0.11506431
126	0xbdbd07a8	-0.09229976
127	0x3d4f5770	0.050620496
128	0xbdac0472	-0.083992854
129	0xbd7f7820	-0.06237042
130	0xbd865308	-0.06558806
131	0x3c994b88	0.018712774
132	0xbcdf1c48	-0.027235165
133	0x3ddfbce6	0.109247014
134	0x3d2f5e94	0.042814806
135	0xbdea8efc	-0.11453053
136	0xbdc02e8c	-0.09383878
137	0x3bd198e0	0.006396398
138	0x3cd40f00	0.025886059
139	0x3df5b9b0	0.11998308
140	0xbc2c8dc0	-0.010531843
141	0xbb553c40	-0.0032537133
142	0xbd7878dc	-0.060662135
143	0xbcde9a78	-0.027173266
144	0xbd59e090	-0.053192675
145	0xbdc69f38	-0.09698337
146	0x3d9b90ba	0.07595964
147	0xba8adc80	-0.0010594279
148	0xbd0d4448	-0.034488946
149	0x3dd6cbe4	0.10488108
150	0x3dad4916	0.08461206
151	0xbd058208	-0.03259471
152	0x3dfd4bc0	0.12367964
153	0xbdb5cf82	-0.088774696
154	0xbd072ccc	-0.033001706
155	0x3d8ad294	0.06778446
156	0xbd68e50c	-0.05685906
157	0x3dd8d1f2	0.10586919
158	0x3c92efd8	0.017936632
159	0x3da6e84e	0.08149777
160	0x3dd71faa	0.10504086
161	0xbb431a00	-0.0029770136
162	0xbdd7cb6e	-0.10536848
163	0x3dae8efa	0.08523364
164	0x3de074ac	0.109597534
165	0xbdada2ce	-0.08478318
166	0xbd482f60	-0.048873305
167	0x3dff11d8	0.12454575
168	0xbc871d00	-0.01649332
169	0x3d47d110	0.048783362
170	0x3d96cf2e	0.07363735
171	0xbd284974	-0.041085675
172	0xbd8cde46	-0.06878333
173	0x3de8b53c	0.11362693
174	0x3daa1f44	0.08306745
175	0xbd9103e4	-0.0708082
176	0xbda664f4	-0.08124724
177	0x3c8127a0	0.015765965
178	0x3c8d19e8	0.017224267
179	0xbd28b924	-0.04119219
180	0xbde2f9c4	-0.11082795
181	0x3d5cc188	0.053895503
182	0x3db94476	0.09046261
183	0xbddecb52	-0.10878624
184	0x3c336fc0	0.010951936
185	0xbc894958	-0.016758606
186	0xbd8b4ad8	-0.06801385
187	0x3d15ff7c	0.036620602
188	0x3d931c74	0.071831614
189	0x3d9fef28	0.07809287
190	0xbdf038c2	-0.11729576
191	0x3bdfd440	0.006830722
192	0xbd39d97c	-0.045373425
193	0x3d25f7b4	0.04051943
194	0xbdcce950	-0.10005438
195	0x3cb0e0f8	0.021591648
196	0xbc550a00	-0.0130028725
197	0xbd01731c	-0.031603917
198	0xbda6d59a	-0.0814621
199	0xbd0fd1c0	-0.035112143
200	0xbb86a4a0	-0.0041089803
201	0xbd1c5c98	-0.03817424
202	0x3cbb6580	0.022875547
203	0x3dc3fc0c	0.095695585
204	0xbd8faefe	-0.07015799
205	0x3d664194	0.056214884
206	0x3ddcd39c	0.10782549
207	0x3ded8a66	0.11598663
208	0x3d46ba04	0.048517242
209	0x3c9b0d10	0.018927127
210	0x3d60d180	0.054887295
211	0x3ca4c188	0.020111814
212	0xbcde52f0	-0.027139157
213	0x3dd8ba44	0.10582402
214	0x3d0a0724	0.033698216
215	0x3ddbb664	0.107281476
216	0xbca0f9f8	-0.019650444
217	0xbdfc8f46	-0.12332015
218	0x3d7f0e5c	0.062269554
219	0xbc710100	-0.014709711
220	0xbd9148c2	-0.070939556
221	0x3de95630	0.11393392
222	0xbd403750	-0.04692775
223	0x3dc35488	0.095376074
224	0xbd8f8c46	-0.07009177
225	0xbcdbb9c8	-0.026821986
226	0xbddc7ffe	-0.107666
227	0xbd49a064	-0.049225226
228	0x3d2913e8	0.04127875
229	0x3cf3d008	0.029762283
230	0x3d1295b4	0.0357873
231	0x3b0d4600	0.0021556616
232	0x3df7a93c	0.12092826
233	0x3dd8f8a6	0.10594301
234	0x3d789ea0	0.06069815
235	0x3d1688f4	0.036751702
236	0x3d4d9b34	0.05019684
237	0xbc1d55d0	-0.009602979
238	0x3df8e1ea	0.12152465
239	0x3d331714	0.04372318
240	0xbd785a48	-0.060632974
241	0x3c577140	0.0131495595
242	0xbdd255b4	-0.10270253
243	0x3dcb7576	0.09934513
244	0xbda26c0c	-0.079307646
245	0x3dc23702	0.09483148
246	0xbd0f3a7c	-0.034967884
247	0x3d5690c8	0.052384168
248	0x3c7f8540	0.015595734
249	0x3dcccbd6	0.09999816
250	0x3da36a84	0.079793006
251	0x3c7d4be0	0.015459985
252	0xbdd63b9e	-0.1046059
253	0xbda148be	-0.078752026
254	0x3d4734ec	0.048634455
255	0x3d38ce08	0.04511836

layers.0.mlp_edge_conv.gconv.convs.<stroke___temp_previous___stroke>.nn.0.bias f4 [32]
0	0xbd0bb0d0	-0.03410417
1	0x3d84aeb6	0.06478636
2	0x3c89d8e0	0.016827047
3	0x3d138bac	0.036021873
4	0x3c7f1e10	0.015571132
5	0x3ddf896e	0.109148845
6	0xbdbb1b40	-0.09136057
7	0x3da038ac	0.07823309
8	0x3db46622	0.08808543
9	0xbdbccf72	-0.092192546
10	0xbdf731de	-0.12070058
11	0xbd8fcaf4	-0.07021132
12	0x3dc4da98	0.09612006
13	0xbb4be780	-0.0031113327
14	0xbd928584	-0.07154372
15	0xbd97eb46	-0.07417922
16	0xbdad9670	-0.08475959
17	0xbde266ee	-0.110547885
18	0x3bc05be0	0.0058703274
19	0xbd3c3bdc	-0.045955524
20	0xbc075580	-0.008260131
21	0x3de85f7a	0.11346336
22	0xbdc30042	-0.095215335
23	0x3de3c3c4	0.11121324
24	0xbd8fc44c	-0.070198625
25	0x3d9f628e	0.0778247
26	0x3da9673c	0.082716435
27	0x3cb360e0	0.02189678
28	0xbd1fb150	-0.038987458
29	0x3da8de0e	0.082454786
30	0x3db9e348	0.090765536
31	0x3dd4760a	0.10374077

layers.0.mlp_edge_conv.gconv.convs.<stroke___intersects___stroke>.nn.0.weight f4 [32, 64]
0	0x3dcba069	0.09942705
1	0xbeb42878	-0.35187125
2	0xbe187978	-0.14890087
3	0xbe4564d7	-0.19276749
4	0x3dbfee90	0.09371674
5	0xbcf4aa3e	-0.029866334
6	0xbc239c3c	-0.00998598
7	0xbe38f21e	-0.1806111
8	0xbea3d74d	-0.320002
9	0xbec8d7a6	-0.39227027
10	0xbee5c743	-0.44878587
11	0x3d1d0054	0.03833039
12	0x3dec732c	0.11545405
13	0x3d848ba1	0.064719446
14	0xbe06cd78	-0.13164318
15	0x3e2f2fd3	0.17108087
16	0x3e8eb815	0.27874818
17	0x3c60d846	0.013723439
18	0xbe4f4077	-0.20239435
19	0x3e6ea533	0.23305206
20	0x3cfbbc48	0.030729428
21	0x3e6185e0	0.22023726
22	0xbed16288	-0.40895486
23	0xbe7bbb46	-0.24583158
24	0x3dc8ba22	0.09801127
25	0x3f1ee6ad	0.62070733
26	0xbc06f2c7	-0.008236594
27	0x3e08ce89	0.13360037
28	0x3edaf81c	0.42767417
29	0xbd1ff71c	-0.03905402
30	0xbe370463	-0.17872767
31	0xbd41314d	-0.047166158
32	0xbefed54b	-0.49772105
33	0x3e6fed5d	0.2343039
34	0x3f3b5904	0.731827
35	0x3e87d621	0.26530555
36	0xbf2aa2be	-0.66654575
37	0xbf1bc26f	-0.6084356
38	0xbef99ddf	-0.4875326
39	0x3f13a7ff	0.57678217
40	0x3e0eb01d	0.1393437
41	0x3ee17d9a	0.4404114
42	0x3f2e4181	0.680687
43	0x3f0116a0	0.5042515
44	0xbf1ae2c0	-0.60502243
45	0x3ee71973	0.45136604
46	0xbf2c9d91	-0.6742793
47	0xbf2e596f	-0.68105215
48	0xbe6e1147	-0.23248778
49	0x3ea358b2	0.31903607
50	0x3e8a2998	0.2698486
51	0x3e9568f3	0.29181632
52	0xbf09740a	-0.53692687
53	0x3f2322ba	0.63724864
54	0x3ee56993	0.4480711
55	0x3e96f19a	0.29481202
56	0x3f277f0e	0.65428245
57	0xbf35f969	-0.71083695
58	0xbeea69b8	-0.45783782
59	0xbebc2a34	-0.36750948
60	0xbf3b498b	-0.7315909
61	0x3f06cc0f	0.5265512
62	0x3f155578	0.5833354
63	0xbee131c2	-0.43983275
64	0xbcbf841a	-0.02337842
65	0xbd5951f2	-0.053056665
66	0x3dc73327	0.097265534
67	0x3e2cf294	0.16889411
68	0x3deeae4e	0.1165434
69	0x3ea77f9b	0.32714543
70	0x3de79954	0.11308542
71	0xbeab95fd	-0.3351287
72	0x3d793118	0.060837835
73	0x3ea34871	0.31891206
74	0xbdedd660	-0.116131544
75	0xbdd5cd2d	-0.10439525
76	0x3dca1912	0.09868063
77	0x3e928463	0.28616628
78	0xbc8c230b	-0.017106554
79	0x3e94541a	0.28970414
80	0x3e4194f1	0.18904473
81	0x3e42cd12	0.1902354
82	0x3e377c86	0.17918596
83	0x3d565184	0.052323833
84	0x3e489dad	0.19591399
85	0x3ce0dc20	0.027448714
86	0x3df2ecce	0.11861573
87	0xba98a674	-0.0011646287
88	0x3e02b23a	0.127633
89	0x3e3fa122	0.18713811
90	0x3e69b8eb	0.22824447
91	0x3e8c9a45	0.27461448
92	0x3e923d03	0.28562173
93	0xbda7ca50	-0.08192885
94	0xbd8e3310	-0.06943333
95	0x3e9a0b06	0.30086535
96	0x3e93d101	0.28870395
97	0xbe2e7603	-0.17037205
98	0xbf3240ef	-0.6963033
99	0xbf201637	-0.625339
100	0x3edfe8d4	0.4373232
101	0x3f71e378	0.94487715
102	0x3ee70fb4	0.45129168
103	0xbef9fc67	-0.4882538
104	0xbe91199b	-0.28339848
105	0xbf40c3ad	-0.7529858
106	0xbe686c0d	-0.22697468
107	0xbeb1b911	-0.34711507
108	0x3f4fd7dc	0.8118875
109	0xbee63fff	-0.449707
110	0x3eec5f1d	0.46166316
111	0x3eae8592	0.3408628
112	0x3e84f660	0.2596922
113	0xbef45e3e	-0.4772815
114	0xbf28abd4	-0.6588719
115	0xbeb173b5	-0.3465859
116	0x3f615d60	0.88033104
117	0xbeb601d3	-0.35548267
118	0xbf16a1fd	-0.58840925
119	0xbf2b99e4	-0.67031693
120	0xbecc916a	-0.39954692
121	0x3ed68e18	0.41905284
122	0x3dcd5927	0.1002677
123	0x3efc972e	0.4933409
124	0x3eb767dc	0.35821426
125	0xbeca5675	-0.39519086
126	0xbe15421f	-0.14576004
127	0x3f4ed003	0.8078615
128	0x3e388af8	0.18021762
129	0xbd03f627	-0.03221717
130	0x3e9b8ef8	0.30382514
131	0xbd555389	-0.05208162
132	0xbce841b7	-0.028351648
133	0x3e87f6c8	0.26555467
134	0x3e1eec93	0.15519933
135	0xbd9ab6b0	-0.07554376
136	0x3eda89ff	0.42683408
137	0x3e7465a9	0.23866905
138	0xbdc4e793	-0.09614482
139	0xbe34b244	-0.17646128
140	0xbc6fd179	-0.0146373445
141	0xbe1271c6	-0.14301214
142	0x3df12451	0.11774505
143	0x3d80c97c	0.0628843
144	0xbe01d987	-0.12680636
145	0xbc8ed6ee	-0.01743647
146	0xbd489b7a	-0.0489764
147	0x3d0962ae	0.033541374
148	0x3ec8e072	0.39233738
149	0x3c5de354	0.013542969
150	0x3dc34928	0.09535438
151	0xbf17b0c4	-0.592541
152	0x3d916ae4	0.07100466
153	0x3e14d194	0.14533073
154	0x3e51dc19	0.20494117
155	0x3e4cf857	0.20016609
156	0x3de14cfe	0.11001013
157	0xbe199782	-0.14999202
158	0xbe9f242d	-0.31082287
159	0x3efb5687	0.49089453
160	0x3ea31beb	0.31857237
161	0x3d255e9b	0.040373426
162	0xbde35f51	-0.111021645
163	0xbe544bce	-0.20732042
164	0x3ec0b962	0.37641436
165	0x3f60de63	0.87839335
166	0x3f385661	0.72006804
167	0xbeb177e5	-0.34661785
168	0xbf057dcf	-0.52145094
169	0xbf202f19	-0.62571865
170	0xbea03e43	-0.31297502
171	0xbec2f2e3	-0.38075933
172	0x3f3991cb	0.7248809
173	0xbc5d8846	-0.01352126
174	0x3f0f1f3a	0.5590702
175	0xbda45910	-0.080248
176	0x3f0ae96e	0.54262435
177	0xbe43ac61	-0.19108726
178	0xbe08e798	-0.13369596
179	0xbe6152f7	-0.22004305
180	0x3f3e1dff	0.7426452
181	0xbef843c8	-0.48489213
182	0xbec5ee5f	-0.38658425
183	0x3e705577	0.23470102
184	0x3e607803	0.21920781
185	0x3ef3fa34	0.47651827
186	0xbd9c5eee	-0.07635294
187	0x3f23c886	0.6397785
188	0x3f340b9d	0.7033022
189	0x3c3a8938	0.011385255
190	0x3ea1aaf5	0.31575742
191	0x3f11cbe9	0.5695177
192	0xbeb700d3	-0.35742816
193	0x3ec4fa49	0.38472202
194	0x3e57a6d5	0.21059735
195	0x3cd5040d	0.026002908
196	0xbe540ee2	-0.20708802
197	0xbda29f9d	-0.079406
198	0xbf1e76f1	-0.6190024
199	0x3c709d61	0.01468596
200	0xbed73749	-0.42034367
201	0xbe786008	-0.24255383
202	0xbec649a9	-0.38728073
203	0xbf026c96	-0.5094694
204	0xbe1e6e3d	-0.1547174
205	0xbec1a051	-0.37817624
206	0xbe7672ad	-0.24067183
207	0x3d0b90a1	0.034073476
208	0xbf09a6a0	-0.53769875
209	0x3e962496	0.29324788
210	0x3e8d9645	0.2765371
211	0x3e4c6096	0.1995872
212	0xbe5ffcc3	-0.21873765
213	0xbe03e220	-0.12879229
214	0xbe8ce0b9	-0.275152
215	0xbd787f8e	-0.06066852
216	0xbea164c9	-0.31522205
217	0xbeef88ac	-0.4678396
218	0x3caefb66	0.02136011
219	0xbeff5761	-0.49871352
220	0xbf568d04	-0.8380892
221	0x3e9ac20f	0.3022618
222	0x3d8cf43e	0.06882523
223	0xbe50fb47	-0.20408355
224	0x3f028da8	0.509974
225	0xbdefd92d	-0.11711345
226	0x3dcb9455	0.099404015
227	0xbddb0e5a	-0.10696097
228	0xbdc1262d	-0.094311096
229	0xbc6ec1c5	-0.014572565
230	0x3e6cad39	0.23112954
231	0xbe3a9cd5	-0.18223889
232	0xbd850e2c	-0.06496844
233	0xbc5f87bf	-0.013643204
234	0xbf015ae1	-0.50529295
235	0xbe4c539c	-0.1995377
236	0x3e7f7a22	0.24948934
237	0x3ec9d548	0.39420533
238	0x3e15f58c	0.1464445
239	0xbdade2a6	-0.084904954
240	0xbe3d7ff8	-0.18505847
241	0xbcb69f3e	-0.02229273
242	0x3d324b73	0.043528985
243	0x3e47ca19	0.19510688
244	0x3eadb803	0.33929452
245	0x3e62b291	0.2213843
246	0xbc03e34a	-0.008049795
247	0x3d54419a	0.051820375
248	0x3ed451f3	0.41468772
249	0x3de40bee	0.11135088
250	0x3dbe17f9	0.09281916
251	0x3cc7a3aa	0.024370033
252	0x3ecbf413	0.3983465
253	0x3d3f4aee	0.046702318
254	0xbd045118	-0.0323039
255	0xbccab55d	-0.024744684

layers.0.mlp_edge_conv.gconv.convs.<stroke___intersects___stroke>.nn.0.bias f4 [32]
0	0x3e922f64	0.2855178
1	0x3ee66b57	0.4500377
2	0x3f1c277e	0.6099776
3	0x3e615cc9	0.22008051
4	0x3f06cd8e	0.526574
5	0x3f5edc12	0.8705455
6	0x3eeeb61a	0.46623307
7	0xbe5270f3	-0.20550899
8	0x3eda99fb	0.42695603
9	0x3f0d00b9	0.5507923
10	0x3c573b0d	0.013136637
11	0x3ebd7340	0.3700199
12	0x3e85a85e	0.26105016
13	0xbdadabac	-0.084800094
14	0x3eac3d8c	0.33640707
15	0x3e150629	0.14553131
16	0x3df98f2e	0.121855125
17	0xbe2a12a9	-0.16608681
18	0x3f30b6b8	0.69028807
19	0x3f10c9d7	0.56557983
20	0x3ed9e1a9	0.42554978
21	0xbd7b2b30	-0.061320484
22	0x3ec18012	0.37793022
23	0xbe9b3cf8	-0.30319953
24	0x3e8f41cb	0.27979884
25	0xbe895e22	-0.2682963
26	0xbe4dbb30	-0.20090938
27	0x3e56dd03	0.20982747
28	0xbe45d706	-0.19320306
29	0x3eccda87	0.40010473
30	0x3eada1f2	0.33912617
31	0x3efc8fa2	0.49328333

layers.1.mlp_edge_conv.gconv.convs.<stroke___temp_previous___stroke>.nn.0.weight f4 [32, 64]
0	0x3de1e94a	0.110308245
1	0xbdacb7a4	-0.08433464
2	0xbdc72016	-0.09722917
3	0xbde4b81e	-0.1116793
4	0x3dc84cc4	0.09780267
5	0xbdba4512	-0.09095205
6	0xbdc16e22	-0.09444834
7	0x3c8784a0	0.016542733
8	0xbde7159a	-0.11283417
9	0xbd5ff168	-0.054673582
10	0xbdbedbf8	-0.093192995
11	0x3d0d8d28	0.034558445
12	0xbd0838fc	-0.03325747
13	0x3db523b6	0.08844702
14	0xbc483da0	-0.012221724
15	0x3ca5f798	0.020259663
16	0xbc792460	-0.015206426
17	0x3dd18790	0.102309346
18	0x3dd48b58	0.1037814
19	0x3d7817e4	0.06056966
20	0x3d8364d6	0.06415717
21	0x3daf7476	0.08567135
22	0x3db99254	0.09061113
23	0x3d4ae6a4	0.049536362
24	0x3d824760	0.0636127
25	0xbd030640	-0.031988382
26	0x3da38d80	0.07985973
27	0xbce7c0c0	-0.028290153
28	0xbd0dc5ac	-0.034612343
29	0x3dea79e8	0.11449033
30	0x3dc3079a	0.09522934
31	0xbdb051f0	-0.08609378
32	0x3caa0618	0.020754859
33	0xbd9e8ae6	-0.077413365
34	0x3da3e5b6	0.08002798
35	0xbcd4aca8	-0.025961235
36	0x3d6f4ecc	0.058424756
37	0xbdcd7fac	-0.10034117
38	0x3d52e800	0.051490784
39	0xbdd51eaa	-0.10406239
40	0x3dda8d9a	0.106715396
41	0x3db8c14a	0.09021242
42	0x3d740f94	0.05958517
43	0x3c8f0db0	0.017462581
44	0x3cee18b8	0.029064521
45	0xbd765f78	-0.06014964
46	0x3dbd05b4	0.092296034
47	0x3d27ee24	0.040998593
48	0xbda47874	-0.08030787
49	0x3daf7d20	0.085687876
50	0xbd8adaea	-0.06780036
51	0xbd1e6140	-0.038666964
52	0xbdb493b0	-0.08817232
53	0x3dd068bc	0.101762265
54	0x3dbc7e5e	0.0920379
55	0xbd52a7b4	-0.051429465
56	0x3de2aae2	0.110677496
57	0xbc9150d8	-0.017738745
58	0xbdb27d40	-0.08715296
59	0xbce5f7d0	-0.028072268
60	0x3c9ddbb0	0.019269794
61	0xbdd592a6	-0.104283616
62	0x3bef31e0	0.0072996467
63	0x3dc7c32a	0.097540215
64	0xbdc7e282	-0.0976
65	0xbb684e80	-0.003544718
66	0x3d451e54	0.048124626
67	0xbc879dc0	-0.016554713
68	0x3d4c4890	0.04987389
69	0xbd690598	-0.0568901
70	0xbb981080	-0.004640639
71	0x3dd178c4	0.10228112
72	0xbd8753c0	-0.06607771
73	0x3caa43a0	0.0207842
74	0x3df81958	0.12114209
75	0xbaa2ce80	-0.0012421161
76	0xbd637528	-0.05553165
77	0x3d851822	0.064987436
78	0xbda22326	-0.0791686
79	0xbdd9351c	-0.10605833
80	0x3cee3c00	0.029081345
81	0x3d8b1ec2	0.06792976
82	0x3d9898ce	0.0745102
83	0xbddc2d38	-0.10750812
84	0x3d2e4294	0.042543963
85	0x3d42f168	0.047593504
86	0x3dc52b02	0.09627344
87	0xbd5564b0	-0.052097976
88	0xbdc6c648	-0.09705788
89	0x3a04fc00	0.00050729513
90	0xbc5e7ce0	-0.013579577
91	0xbd2febf4	-0.04294963
92	0x3df4cba8	0.11952907
93	0xbb39f0c0	-0.0028372258
94	0xbce434b8	-0.02785717
95	0x3dc67c02	0.09691621
96	0x3d99956e	0.074992046
97	0x3dc62270	0.09674537
98	0xbc3da4e0	-0.011574954
99	0xbd7973ac	-0.06090133
100	0x3d8df2b0	0.069310546
101	0x3d896fc4	0.06710771
102	0xbdce5a24	-0.10075787
103	0x3c1eb1c0	0.009685934
104	0xbc9eb520	-0.019373477
105	0x3da456a4	0.08024338
106	0xbdc42f8a	-0.0957938
107	0x3df62ea0	0.12020612
108	0xbd2f45a8	-0.04279104
109	0x3db2a69e	0.08723186
110	0x3d89588e	0.067063436
111	0x3dea7288	0.11447626
112	0xbdc957b0	-0.09831178
113	0x3d4a2e10	0.049360335
114	0x3ce09390	0.027414113
115	0x3db73108	0.08944899
116	0x3dc418de	0.095750555
117	0x3db71ef8	0.08941454
118	0xbca552f8	-0.020181164
119	0xbd31fffc	-0.043457016
120	0xbdedfb2a	-0.11620171
121	0x3d34fb80	0.04418516
122	0xbdfab2d0	-0.12241137
123	0x3db3fe94	0.08788791
124	0x3d75bad4	0.059992626
125	0x3cf24378	0.029573187
126	0xbd95e22c	-0.073185295
127	0x3d52f25c	0.051500663
128	0xbd4e18a4	-0.050316468
129	0xbd9685d6	-0.07349746
130	0xbcc84cb8	-0.024450645
131	0x3d34c178	0.04412982
132	0x3d61a6dc	0.05509077
133	0xbde52d9c	-0.1119034
134	0xbdebff82	-0.115233436
135	0xbdabb9f0	-0.08385074
136	0x3c7a7420	0.015286475
137	0xbc854160	-0.016266525
138	0xbdf158b4	-0.11784497
139	0x3d90d656	0.07072131
140	0xbdd078e4	-0.10179308
141	0x3ddcf03e	0.1078801
142	0xbd28da38	-0.041223735
143	0xbcff5eb8	-0.031173095
144	0x3deae0c2	0.114686504
145	0x3d2782c0	0.040896177
146	0x3c4d6380	0.01253593
147	0x3cde45d0	0.027132899
148	0xbde800aa	-0.11328252
149	0xbd1055d0	-0.035238087
150	0xbdc98626	-0.0984004
151	0xbd245614	-0.040121153
152	0xbdb4a1b0	-0.08819902
153	0xbc6be6e0	-0.014398307
154	0x3d9b749a	0.07590599
155	0x3ddfb100	0.10922432
156	0xbd26ddbc	-0.040738806
157	0x3b870d40	0.0041214526
158	0x3d53fc34	0.05175419
159	0x3db7a384	0.08966735
160	0xbdfac768	-0.12245065
161	0x3dda73fe	0.10666655
162	0xbdc1b688	-0.09458643
163	0x3d11ccd0	0.035595715
164	0x3c1f9c30	0.009741828
165	0x3de8045c	0.113289565
166	0xbd879b5c	-0.06621429
167	0xbd6abcbc	-0.057308897
168	0xbd6b16b0	-0.057394683
169	0x3dd9da7a	0.10637374
170	0x3bda92c0	0.006670326
171	0xbd11a468	-0.03555718
172	0x3ba26700	0.004956126
173	0xbcceec90	-0.025259286
174	0xbdad506c	-0.08462605
175	0x3d0affa4	0.033935204
176	0xbdeb635a	-0.11493559
177	0x3c5e8eb0	0.013583824
178	0xbd8b7500	-0.06809425
179	0x3ce6de40	0.028182149
180	0xbac1d600	-0.0014788508
181	0x3d34aeb0	0.044111907
182	0xbb8ea100	-0.004352689
183	0x3d95db56	0.07317226
184	0x3de79666	0.11307983
185	0x3df8d08a	0.12149151
186	0xbdcee03a	-0.101013616
187	0xbcbb76b8	-0.022883758
188	0xbd89e50c	-0.0673314
189	0x3d385890	0.045006335
190	0xbdb4f784	-0.08836272
191	0xbc890310	-0.016725093
192	0x3df2f286	0.11862664
193	0xbdd6a514	-0.10480705
194	0xbdb813f2	-0.08988179
195	0xbccb16d0	-0.024791151
196	0xbc9fb230	-0.019494146
197	0x3c408e00	0.011752605
198	0xbd8b543a	-0.06803174
199	0x3d62b214	0.05534561
200	0x3d893e12	0.06701292
201	0xbd93607a	-0.07196136
202	0xbdd6d2d2	-0.104894295
203	0x3d30d0f0	0.04316801
204	0xbc995f60	-0.018722236
205	0x3cb64410	0.022249252
206	0xbd8981c8	-0.06714207
207	0xbde0e45e	-0.109810576
208	0x3dc90172	0.09814729
209	0x3dc480a4	0.09594849
210	0x3c18bed0	0.009322837
211	0xbd5265c0	-0.051366568
212	0xbc1a5b70	-0.009421214
213	0xbdffb288	-0.12485224
214	0x3da58e26	0.08083753
215	0xbd5e82a8	-0.054323822
216	0xbdfaa40e	-0.12238322
217	0xbdf6e668	-0.12055665
218	0x3d622df0	0.05521959
219	0xbce02a50	-0.027363926
220	0xbcbe6438	-0.023241147
221	0x3db72b0a	0.08943756
222	0x3def1132	0.116732016
223	0xbde691c6	-0.11258273
224	0x3da9b086	0.08285622
225	0xbd9a60ae	-0.075379714
226	0x3dcf68ce	0.10127412
227	0x3de3b772	0.11118974
228	0x3d091bd4	0.033473805
229	0xbd27a308	-0.040926963
230	0x3d28d8bc	0.04122232
231	0x3da1debc	0.07903811
232	0xbdfd9c3a	-0.123833135
233	0xbbb4d9c0	-0.005519122
234	0x3d7b51dc	0.061357364
235	0x3dbabbee	0.09117876
236	0x3d8a261c	0.0674555
237	0xbdbb2310	-0.09137547
238	0xbd6b01c8	-0.057374746
239	0x3cda3d58	0.02664058
240	0x3cf700e8	0.0301518
241	0xbd066c68	-0.032818228
242	0x3bd47360	0.0064834803
243	0x3d765c30	0.06014651
244	0x3d23046c	0.03979914
245	0xbd5a624c	-0.0533164
246	0xbd639ecc	-0.055571362
247	0x3ddea4c6	0.10871272
248	0x3d787218	0.060655683
249	0x3dcc173e	0.099653706
250	0x3bf52bc0	0.007482022
251	0x3c888bc8	0.016668215
252	0xbd8b87da	-0.06813021
253	0xbd307db0	-0.043088615
254	0xbdcf4232	-0.10120048
255	0xbd9c57bc	-0.076339215

layers.1.mlp_edge_conv.gconv.convs.<stroke___temp_previous___stroke>.nn.0.bias f4 [32]
0	0x3d8a15ec	0.067424625
1	0xbcfec7b0	-0.031101078
2	0x3de158f6	0.11003296
3	0xbdba6ce8	-0.091028035
4	0xbd9950e2	-0.0748613
5	0xbdc82120	-0.09771943
6	0xbdae9b7a	-0.085257486
7	0x3c0e39a0	0.008680731
8	0xbabdc780	-0.0014479011
9	0x3de33b28	0.110952675
10	0xbcadc2f8	-0.021211132
11	0xbd55fea0	-0.052244782
12	0x3d724558	0.059148163
13	0xba891400	-0.0010458231
14	0x3dfaaaca	0.12239607
15	0xbda49fd0	-0.08038294
16	0xbdd6205c	-0.10455391
17	0xbd6f0a20	-0.058359265
18	0x3b2e4e00	0.0026596785
19	0x3d6f86a8	0.058478028
20	0x3dd4759a	0.10373993
21	0x3daea66c	0.08527836
22	0x3de75336	0.11295168
23	0xbd06b9d4	-0.032892063
24	0xbcfcd250	-0.030862004
25	0x3daea5b8	0.08527702
26	0xbdc408d6	-0.09571998
27	0x3dc8e1b8	0.098086774
28	0xbb2c0800	-0.0026249886
29	0xbdd647b6	-0.104628965
30	0x3dadaf0a	0.08480652
31	0x3d7f692c	0.06235616

layers.1.mlp_edge_conv.gconv.convs.<stroke___intersects___stroke>.nn.0.weight f4 [32, 64]
0	0x3f510d4d	0.8166092
1	0xbe0fc63f	-0.14040469
2	0xbd3e1192	-0.046403475
3	0x3e6bf60e	0.23043081
4	0x3ee5b0aa	0.44861346
5	0x3cebb47c	0.028772585
6	0x3f254a0d	0.6456612
7	0xbe85292d	-0.26007977
8	0xbd9a0373	-0.07520189
9	0xbd5fe5d6	-0.054662548
10	0xbe64671b	-0.22304957
11	0xbe3908ed	-0.18069811
12	0x3e36045e	0.17775103
13	0x3e30374a	0.17208591
14	0x3f10fe2c	0.56637836
15	0x3ba33244	0.0049803574
16	0x3ed25207	0.41078207
17	0x3d259c64	0.04043235
18	0xbdd89348	-0.10574967
19	0xbe5de023	-0.21667533
20	0x3e7865ed	0.24257632
21	0xbde47069	-0.11154253
22	0xbe194e75	-0.14971335
23	0x3c461ad7	0.01209136
24	0x3e0f984b	0.14022939
25	0x3f26945d	0.65070134
26	0x3eacb6d1	0.33733228
27	0x3a77db69	0.0009454997
28	0x3e2b885c	0.16751236
29	0x3cd40c1f	0.025884686
30	0xbd3bc4a1	-0.045841817
31	0x3f27fa7b	0.6561658
32	0xbea38bd1	-0.3194261
33	0xbe25121d	-0.16120191
34	0xbf134783	-0.57530993
35	0xbdb8a5cf	-0.090160005
36	0x3dbd0d7a	0.09231086
37	0xbea06431	-0.3132644
38	0x3f09b7c3	0.53796023
39	0x3e8fcbd4	0.28085196
40	0xbf0a39bd	-0.5399435
41	0xbed22a11	-0.4104772
42	0x3ef5fc40	0.48044014
43	0xbf098120	-0.53712654
44	0xbec6db57	-0.38839218
45	0x3db5d14e	0.08877812
46	0x3f10b5ba	0.5652729
47	0xbf00015e	-0.50002086
48	0xbe783263	-0.24237971
49	0xbe80f37b	-0.2518576
50	0xbe64d8de	-0.22348353
51	0xbe175188	-0.14777195
52	0xbcf8990b	-0.030346414
53	0xbe2b6dd3	-0.16741113
54	0xbeb472ef	-0.35243937
55	0xbdaa58bb	-0.08317705
56	0xbef35567	-0.47526094
57	0x3e2b9db0	0.16759372
58	0xbeaee2b7	-0.34157345
59	0x3d9a0915	0.075212635
60	0x3ddc4019	0.10754413
61	0xbe94e9d7	-0.29084656
62	0x3db0e29e	0.08636974
63	0x3f0daee1	0.5534497
64	0x3f267c5a	0.65033495
65	0xbe32a265	-0.17444761
66	0xbdda4bec	-0.10659012
67	0x3e8a683b	0.27032647
68	0x3f1c6709	0.6109472
69	0x3d8f68dc	0.07002422
70	0x3ee778cc	0.45209348
71	0xbeb238d6	-0.34808987
72	0x3def35e8	0.11680204
73	0xbdb9dfbe	-0.090758786
74	0xbd6a209e	-0.057160012
75	0x3cd4564d	0.025920058
76	0x3d079313	0.033099245
77	0x3e713fac	0.23559445
78	0x3e99eff1	0.30065873
79	0x3e7dbdd4	0.24779445
80	0x3ecf6528	0.40506864
81	0x3d91c9dc	0.0711858
82	0x3b66d8e1	0.0035224485
83	0xbd4e8a5d	-0.050424922
84	0x3e9e3e23	0.30906782
85	0x3ce720c4	0.028213866
86	0xbd111d02	-0.035428055
87	0xbd22afdd	-0.039718498
88	0x3e27e9a3	0.16397719
89	0x3f126fdc	0.57201934
90	0x3edd0c83	0.43173608
91	0x3d25f479	0.04051635
92	0x3ec46bcc	0.38363492
93	0xbd60cf89	-0.05488542
94	0x3d8cede1	0.06881309
95	0x3ebb3ded	0.36570683
96	0x3d46d30e	0.04854112
97	0xbf1491e7	-0.5803513
98	0xbf2e1c2c	-0.68011737
99	0xbd4689f4	-0.048471406
100	0x3ea65ce9	0.3249276
101	0xbf0f4bf2	-0.5597526
102	0x3f4bbb34	0.79582524
103	0xbd1c3693	-0.038137984
104	0xbf0d4f67	-0.55199283
105	0xbf09c46d	-0.53815347
106	0x3de91ac0	0.11382055
107	0xbf32f5e7	-0.6990647
108	0xbf1680b9	-0.58790165
109	0x3d8ed875	0.0697488
110	0x3f149ff8	0.5805659
111	0xbf151ba1	-0.58245283
112	0x3db4b2b7	0.0882315
113	0xbece26e6	-0.40264052
114	0xbf0495e7	-0.5179123
115	0xbef312aa	-0.47475177
116	0x3e495717	0.19662128
117	0x3bdebd4a	0.0067974674
118	0xbef14da9	-0.47129562
119	0xbdc44f10	-0.095853925
120	0xbf3664d3	-0.71247596
121	0x3e8462a3	0.25856504
122	0xbe2901f7	-0.16504656
123	0xbcb1d4d4	-0.02170793
124	0xbda17c90	-0.078850865
125	0xbeeca4df	-0.46219537
126	0xbe7cb670	-0.2467897
127	0x3f468229	0.7754236
128	0x3e5d7430	0.21626353
129	0x3e2a2922	0.16617253
130	0x3e313155	0.17303975
131	0x3e95a0a7	0.2922413
132	0x3eb1030d	0.3457264
133	0x3e113913	0.14181928
134	0x3ee23152	0.44178253
135	0xbe02cb47	-0.12772857
136	0xbd0e2d5b	-0.034711223
137	0x3ce8386c	0.028347217
138	0x3df3153d	0.11869285
139	0x3e67ebb0	0.22648501
140	0x3eafb0c5	0.34314552
141	0x3e819b2a	0.25313693
142	0x3e61993a	0.22031108
143	0x3e433233	0.19062118
144	0x3e7ccbe1	0.24687149
145	0xbd1d0a0b	-0.038339656
146	0x3e160147	0.14648925
147	0x3e6169bf	0.22012995
148	0x3e05bff1	0.13061501
149	0x3d8e339a	0.06943436
150	0x3db72a33	0.08943596
151	0x3c8677ac	0.016414486
152	0x3e8b0a88	0.27156472
153	0x3f16a6b9	0.5884815
154	0xbd42a524	-0.04752077
155	0xbd665729	-0.056235466
156	0x3f06d7e7	0.5267319
157	0x3e6ebdee	0.2331464
158	0xbe11218b	-0.14172952
159	0x3d898ac3	0.0671592
160	0x3ef79026	0.48352164
161	0xbf896d54	-1.0736489
162	0xbf24ad86	-0.64327276
163	0x3ccca262	0.024979774
164	0x3f0f7814	0.560426
165	0xbf4d50f7	-0.8020167
166	0x3f781820	0.9691181
167	0xbe80d70e	-0.25164074
168	0xbf48f47b	-0.7849805
169	0xbf641562	-0.8909513
170	0xbdd35348	-0.10318619
171	0xbf86a8ee	-1.0520303
172	0xbf359991	-0.7093745
173	0x3e26f931	0.16305996
174	0x3f622dd1	0.8835116
175	0xbeaafead	-0.33397427
176	0x3e92d16b	0.28675398
177	0xbdd90202	-0.10596086
178	0xbf4a560c	-0.7903755
179	0xbf4831bd	-0.78200895
180	0x3efcf0ef	0.49402568
181	0xbeb09088	-0.3448527
182	0xbf10519c	-0.56374526
183	0xbea824e6	-0.3284065
184	0xbf94f75f	-1.1637992
185	0x3dbc5e09	0.09197623
186	0x3e8c1070	0.2735629
187	0x3e1470cf	0.14496158
188	0x3dd10ae8	0.10207158
189	0xbf33b2c0	-0.70194626
190	0xbf18b6b3	-0.59653777
191	0x3f9098b9	1.1296607
192	0xbd97de3a	-0.07415433
193	0xbd93644a	-0.07196863
194	0xbdae0ccf	-0.08498537
195	0x3c93f58d	0.018061424
196	0x3d927589	0.07151324
197	0xbe4a6cdd	-0.1976809
198	0xbd71ebbd	-0.05906271
199	0xbdd591e8	-0.1042822
200	0x3d0fe14c	0.03512697
201	0xbdfd6b67	-0.12374001
202	0xbdb5f289	-0.088841505
203	0x3bd7a7b3	0.0065812706
204	0xbdcfd729	-0.101484604
205	0xbdc21cff	-0.09478187
206	0x3b910fcf	0.0044269334
207	0xbe0f9378	-0.14021099
208	0xbda0261c	-0.07819769
209	0x3afc4317	0.0019246069
210	0xbe0bbe03	-0.13646702
211	0xbd5bf141	-0.053696875
212	0xbda3724d	-0.079807855
213	0xbd471c6f	-0.0486111
214	0xbdbf3667	-0.09336548
215	0xbdb81f14	-0.08990303
216	0xbe44bb9a	-0.1921219
217	0x3d997657	0.07493275
218	0xbd96303f	-0.07333421
219	0x3ca073dd	0.019586498
220	0xbe58cf4c	-0.21172827
221	0xbe0f7931	-0.14011075
222	0xbe037548	-0.12837708
223	0xbe1ffd2a	-0.15623918
224	0x3d6cda76	0.057825528
225	0x3dd22d81	0.102625854
226	0x3e4e4d7f	0.2014675
227	0x3e165fbf	0.14684962
228	0x3c5fc1e9	0.013657072
229	0x3c6c6436	0.014428189
230	0x3d196caa	0.037457146
231	0xbe2f3b5a	-0.17112485
232	0x3c8a020b	0.016846677
233	0xbe1bc1ed	-0.15210696
234	0x3dcc000f	0.09960949
235	0x3d16e7b6	0.03684207
236	0x3d7a1b02	0.061060913
237	0x3e000479	0.12501706
238	0x3e0fcebd	0.14043708
239	0xbd910869	-0.07081682
240	0xbdb109e7	-0.08644467
241	0xbd38270a	-0.044959106
242	0xbbb1cf5e	-0.0054263314
243	0xbe0491ba	-0.12946215
244	0x3d1f8ea5	0.038954396
245	0xbdfc7102	-0.12326242
246	0xbe5d1a48	-0.21592057
247	0xbdc66158	-0.096865356
248	0xbca409dc	-0.020024233
249	0xbc9cc409	-0.019136446
250	0x3e2bf4ad	0.16792555
251	0xbbb5d7dc	-0.005549414
252	0xbc13da45	-0.0090242075
253	0x3d1d0852	0.038338013
254	0x3d464af9	0.048411343
255	0xbd26d232	-0.0407278

layers.1.mlp_edge_conv.gconv.convs.<stroke___intersects___stroke>.nn.0.bias f4 [32]
0	0x3f16ca71	0.5890265
1	0x3f21f905	0.632706
2	0x3f221e5c	0.63327575
3	0xbe3c167b	-0.1836795
4	0x3cb04a8e	0.021519925
5	0x3f13c51d	0.57722646
6	0x3ef14662	0.4712401
7	0x3e8b4865	0.2720367
8	0x3e35b90a	0.17746368
9	0x3f1ff9ee	0.6249074
10	0xbe2f7174	-0.17133123
11	0xbda51913	-0.08061423
12	0x3e788106	0.24267969
13	0x3e370303	0.17872243
14	0x3ec51f03	0.38500223
15	0xbd65bc6a	-0.05608789
16	0x3e30e784	0.17275816
17	0x3ec2cca3	0.3804675
18	0x3f067545	0.5252269
19	0x3f08b93a	0.53407633
20	0x3e8c8521	0.2744532
21	0x3c447b0a	0.011992225
22	0x3f2d290f	0.67640775
23	0xbd6310c6	-0.05543592
24	0x3f52e03c	0.82373405
25	0x3ec5c34a	0.38625556
26	0xbe16965a	-0.14705792
27	0x3ebd9b6e	0.37032646
28	0x3e491eb8	0.19640625
29	0x3f195d77	0.5990824
30	0xbdede597	-0.116160564
31	0x3ea473a7	0.32119486
