checkpoints/operation_prediction/SBGCN_model.pth (torch, 58936 bytes, 18 tensors)

embed_f_in.f.0.weight f4 [32, 4]
00000000: 5c47 0ebf b29c 51bf c96d dfbd 72ee 223f
00000010: f5a5 853f 9c13 8d3f 8c21 afbf a065 c2b9
00000020: 688a 9d3e 2618 3ebf 6a16 b53e 9ccc a53d
00000030: ecb4 5fbf 3489 50be 6c7f 193e c82b e43e
00000040: 83f1 88bf defe 58be 5a31 073e 91b1 673e
00000050: a58a 773d 9fcd 1fbf 59e0 bd3d b295 af3e
00000060: 7a9d 6f3e ca5b 8cbf 3077 7a3f c245 cb3e
00000070: 920c cebf da5e 853e 3c09 d5be 1630 9a3f
00000080: 493e 58bf df71 82be 56cf 7abe 2a87 1a3f
00000090: 0106 763e d2ee 6ebf 4ef7 ec3e 5d5d 95be
000000a0: 750d 713e 917f 04bf 67be 583f 65eb 45bf
000000b0: 8705 a2bf 0cc2 6a3f 5a85 b4bf 2113 0c3d
000000c0: 9ea2 a5bf 4d76 edbe 62f5 4ebe 9547 223f
000000d0: e7b5 75be 1ac9 60bf 3c91 9c3e 6feb afbd
000000e0: 6571 2cbf 29e9 f3bd cd6d ea3e 8a62 8c3e
000000f0: 1fa1 bf3e a071 febe a7bd 9d3e 0242 84bd
00000100: ef94 8bbf 4419 9ebe bb57 993e 04e8 823f
00000110: 6488 8dbf eacf 76be 9a93 1ebe 0c3d 533f
00000120: a470 ac3d 5ddc 6abf 7378 203f 702d 8a3e
00000130: 9cbf 7d3f f7b3 813f 31ff 92bf ccd3 563d
00000140: 799f 3e3f 5c9c f0bd b913 043f d853 873f
00000150: be46 32bd f8ff 07bf 1b33 383f ce8d 84be
00000160: fc9d 9cbf 975c 863e 87c5 e7be 15a1 d83e
00000170: 6e31 173f 7c6d b43d 7a4d 333e a3a4 8bbd
00000180: a7a7 d1be 8a38 eabe 6c58 b33e 0384 153f
00000190: ea8b 86bf 4620 82be 02d1 043f 9294 343f
000001a0: 44cb 2cbe b810 86be 8cbd 2a3f bb5d cd3e
000001b0: aa07 863f 9eec 723f 83b5 88bf 06e3 3ebe
000001c0: 5ead 203e f358 46bf ff76 9e3f b9a7 8dbf
000001d0: f9c0 07bd 4663 ebbe 7a6e acbe c1cb 083f
000001e0: 113f 343f de69 7d3c d794 c1be 0476 85bf
000001f0: 2ade ed3e efbf 7bbf fd6c 913f a145 68bf
-0.55577636 -0.81879723 -0.10909612 0.6364509 1.0441271 1.1021609 -1.3682113 -0.0003707828
0.30769658 -0.742556 0.35368663 0.08095667 -0.8738544 -0.20364839 0.14990014 0.44564652
-1.0698704 -0.21190974 0.1320242 0.2262633 0.060434956 -0.6242313 0.092713065 0.34293896
0.23399916 -1.0965512 0.97838116 0.39701658 -1.6097586 0.26048928 -0.41608608 1.2045925
-0.8447004 -0.25477502 -0.24493155 0.60362494 0.24025728 -0.9333316 0.46282429 -0.29172793
0.2354029 -0.5175715 0.8466553 -0.7731231 -1.2657937 0.9170234 -1.4103196 0.03419793
-1.2940252 -0.4637932 -0.20210794 0.63390476 -0.23995171 -0.87806857 0.30579555 -0.08589827
-0.67360526 -0.11909706 0.45786896 0.2741893 0.37427613 -0.49696064 0.30808756 -0.064579025
-1.0904826 -0.3087865 0.29949746 1.0227056 -1.1057248 -0.2410275 -0.15485993 0.82515025
0.08419922 -0.917425 0.6268379 0.2698779 0.991205 1.0133046 -1.1484128 0.05244808
0.74462086 -0.11748573 0.51592594 1.0572462 -0.043524496 -0.5312495 0.7195298 -0.25889438
-1.2235713 0.26242515 -0.4526789 0.42310396 0.590598 0.08809945 0.17510024 -0.06818511
-0.4094822 -0.4574626 0.35028398 0.5840456 -1.0511448 -0.25415248 0.5188142 0.705392
-0.16874415 -0.2618463 0.66695476 0.40110573 1.0471089 0.948923 -1.0680393 -0.1864129
0.15691134 -0.77479476 1.2380065 -1.106681 -0.033143017 -0.45974177 -0.33678037 0.53435904
0.7040873 0.015467135 -0.37808868 -1.042664 0.4645856 -0.9833974 1.1361386 -0.90731245

embed_f_in.f.0.bias f4 [32]
00000000: 8a12 9cbe 3415 893f 932e 89bf 6763 0fbf
00000010: b6b4 09bf 185d 12bd 9672 ddbe fe0a f63e
00000020: 9d06 1dbe d6c7 e7be 0123 04bf 27f9 613f
00000030: 6822 6cbe 3a41 b43e 4efa 32bf 1ba6 5abf
00000040: f22d 9c3e a2d2 f5bd dd14 833e f3c2 8f3f
00000050: 1a9a 6e3f 53e3 a1bf 29ad 89bd 9554 a6bd
00000060: 85d2 e43d 6bd9 3fbe d1a2 0d3f f314 7c3f
00000070: c9c8 a2bf cadf 04be c005 b33d 4e05 61bf
-0.30482894 1.0709596 -1.0717338 -0.5601105 -0.5379137 -0.035733312 -0.43251485 0.4805526
-0.15334554 -0.4526965 -0.5161591 0.882708 -0.2306 0.35206014 -0.69913185 -0.85409707
0.30503803 -0.12003066 0.25601855 1.1231369 0.9320389 -1.2647499 -0.06722481 -0.081216015
0.11172966 -0.18735282 0.55326563 0.98469466 -1.2717525 -0.12975994 0.08741331 -0.8789872

embed_e_in.f.0.weight f4 [32, 6]
00000000: 3c0f 543f 9e6a 933e 11e1 0e3f 03f4 673e
00000010: 617b 173f c1d8 a83e d99c 87bd 63fb abbe
00000020: 019d debd dd96 7cbe a7fa 603e df02 b83e
00000030: ab8f b2bc da22 f9be 14bf 1d3e fc8f 1ebe
00000040: a493 c0be 6c81 1b3f ffb7 c43e fa07 1dbe
00000050: 6839 573e 86db 2f3e 14a4 aabe 0063 a63d
00000060: 46b8 87bc 4853 33be 148f 113f 5bcf 34bf
00000070: ec07 41be 9c62 073f e16e b63e b1c3 5e3f
00000080: c0fd cd3d 543a 913f 57ec 4d3f 9f54 ccbe
00000090: 0278 303d 0d5d 39bf 3664 553e 1e06 d63e
000000a0: 44db 0ebf 1655 c53e 98cd c1be c836 493e
000000b0: 7b02 093e 875e 3c3e d71c bb3c 6ee7 033f
000000c0: bbed d1be 2a6a 123f d0a1 683d 4b25 8fbe
000000d0: 35b8 073d f289 853e c240 94be 1887 05bf
000000e0: 33da 08bf 4968 8abe 4f81 0bbf c36e 0cbf
000000f0: 5e8a 863d 3944 603f bdde 9d3d 3710 0d3f
00000100: e9aa 8b3f b4c6 413e 0c62 783e 8403 a5be
00000110: 45f4 08bf 3d3b 343d b678 0c3e 8ef1 433e
00000120: cca1 933e 0159 773e baf6 903d cae6 b63e
00000130: fb93 073f c415 46bd 0294 a8bd c1ee cd3e
00000140: 353a 28bf fc54 2f3c 8f21 c03e 97f9 bfbb
00000150: de16 853f f20e 5cbe 40eb fb3e f777 663f
00000160: a901 04bf cfd6 5b3e c343 1cbf 70b3 84be
00000170: 0b12 0c3e a580 d63d 14d5 643e a63b 823d
00000180: cd97 c3be 37c7 843e b99f 453e 591c a33d
00000190: 271c 973e af1f 843d 0f48 903e a7a3 503f
000001a0: af1b 833e 87aa ba3e 5afc a43e b425 87be
000001b0: f5ed afbe ca5b 89be 7e21 8abe da52 fcbe
000001c0: f230 79be b3fe dabe f690 92bd ae81 51bd
000001d0: ac3e 993e 5c3e 88bd 6e47 683e 6fbd 1f3e
000001e0: 8a4f ffbe c4f6 26bf 4f1f b5be e1d4 71be
000001f0: 54d7 12bf 37fe 61be 541c 4c3f e87a 503f
00000200: cdf8 9cbe 5262 633f c06d 543f 80c3 a8bd
00000210: 94de 94be fafe 6d3d f68a 15bf 8fcc 6bbe
00000220: e71a 8abe c456 1ebf 68c7 50bf b9f0 d0be
00000230: 0535 bc3e 8080 13bf 81f0 95be e0f8 663c
00000240: 3402 f3be e816 21bd c1d3 c0be c9e3 32bd
00000250: 038f cd3d 1f82 10bf f971 b1be 0469 57bd
00000260: bd9d 31bf 6cbd 00bf 87cc 6fbe 252b f6bd
00000270: e01a 6bbd b181 88be e7a1 e7be 6ec9 b3be
00000280: 0fe5 603e fc71 19be a52e 133d de61 ea3d
00000290: 5ade d23c 538a 3ebe 8406 3c3e c8da ca3e
000002a0: 1bd3 52bd cab9 833f 7447 603e ca9f 523e
000002b0: cb40 463f 0e5b 77bd e95c 483d c637 f63d
000002c0: 77a5 bb3e 2293 fe3d dfe6 033e 9aea 5dbe
000002d0: bb31 8ebe 3ac0 ef3e f86b 5c3e 17c1 c5bd
000002e0: 9e4c ddbc 8efb 03be d368 643f 8a3c 1e3f
000002f0: 147a eabe 5fd8 583f 4899 663e d213 8fbe
0.82835746 0.2879228 0.55812174 0.22651677 0.59172636 0.3297787 -0.06621713 -0.3359023
-0.1086979 -0.24666925 0.21970616 0.3593969 -0.021797022 -0.48659402 0.15404922 -0.15484613
-0.3761264 0.6074436 0.38421628 -0.15335074 0.21017992 0.17173585 -0.33328307 0.081243515
-0.01656736 -0.17512238 0.56858945 -0.706289 -0.18850678 0.5288484 0.3563147 0.8701735
0.100581646 1.1345925 0.8043875 -0.3990831 0.0430832 -0.7240761 0.20839009 0.41801542
-0.5580332 0.38541478 -0.37852168 0.19649804 0.13379852 0.18395434 0.0228409 0.5152501
-0.41001686 0.57193244 0.05679494 -0.2795814 0.033134658 0.26081806 -0.28955656 -0.5215926
-0.53457946 -0.27032688 -0.54494184 -0.5485651 0.0656936 0.876041 0.077084996 0.55102867
1.0911533 0.18923455 0.24256152 -0.32229245 -0.53497726 0.044001807 0.13717923 0.19135115
0.2883438 0.24155046 0.07078309 0.35722953 0.52960175 -0.0483606 -0.08231355 0.40221217
-0.65713817 0.010701414 0.37525603 -0.005858611 1.0397604 -0.21490076 0.4920292 0.900268
-0.51565033 0.21468662 -0.61040896 -0.2591815 0.13678758 0.10473756 0.22346908 0.06359033
-0.38201752 0.2593324 0.1929921 0.07964391 0.29513666 0.06451356 0.28179976 0.81499714
0.25607058 0.36458227 0.3222378 -0.26395953 -0.34361234 -0.26827842 -0.26978678 -0.4928196
-0.24335077 -0.42772445 -0.07156555 -0.051149063 0.29930627 -0.06652519 0.22683498 0.15599607
-0.4986537 -0.65220284 -0.3537545 -0.23616363 -0.57359815 -0.22069632 0.79730725 0.8143754
-0.3065857 0.888219 0.82979965 -0.08240414 -0.29076064 0.058104493 -0.5841516 -0.23027252
-0.2697365 -0.61851144 -0.8155427 -0.40808657 0.367592 -0.5761795 -0.29285052 0.014097422
-0.47462618 -0.039328486 -0.37661555 -0.043674264 0.10037043 -0.5644855 -0.34657267 -0.052590385
-0.69381315 -0.50289035 -0.23417865 -0.12019948 -0.057398677 -0.26661447 -0.4524071 -0.35114616
0.21962379 -0.14984888 0.035933156 0.11444448 0.025740791 -0.18607454 0.1836186 0.39620042
-0.051470857 1.0291073 0.21902257 0.20568767 0.77442616 -0.06038957 0.04891673 0.12022357
0.36649677 0.12430407 0.12881039 -0.21671525 -0.27772316 0.46826345 0.21525562 -0.096559696
-0.027014073 -0.12888929 0.8922245 0.61811125 -0.45796263 0.84705156 0.2251941 -0.2794481

embed_e_in.f.0.bias f4 [32]
00000000: 6176 123f c0ef 3fbf 09f9 c7be c8ec 813d
00000010: 90ac 1d3f 31ea 943f 9177 9b3c 36ec 06bf
00000020: 3611 d53d b2aa 0a3d 373a 873f 2868 5abf
00000030: bf73 a1bd 11b9 df3e 9c71 a83f 39ef c1be
00000040: 0c5c 3e3e bee2 2e3f c25f fd3e ecf7 2fbf
00000050: e730 0a3f 4384 2c3f 6520 b13d 7a49 0d3f
00000060: d0ac 323e b792 523e 5c23 e4be c92a 50bf
00000070: ab3d 403f 109a 3dbf 9dee ed3d e668 8d3b
0.5721188 -0.74975204 -0.39057186 0.063439906 0.61591434 1.163397 0.018977912 -0.5270418
0.10403673 0.033854194 1.0564641 -0.8531518 -0.07883405 0.43695882 1.3159671 -0.37877825
0.185898 0.6831473 0.4948712 -0.68737674 0.5398087 0.67389315 0.08648757 0.5519024
0.17448735 0.2056378 -0.44558227 -0.81315285 0.750941 -0.74063206 0.116177775 0.0043154834

embed_v_in.f.0.weight f4 [32, 3]
00000000: 731a 2d3f c8aa 2b3f 4a37 3a3e ba85 dbbe
00000010: 9ef2 933d 74f6 bd3e 798b 05bf e86f bdbe
00000020: c264 6ebf c407 053f e47d 41bf 1f94 643f
00000030: 2eb5 efbe d40e 6dbe 19f5 42bf 918d b3be
00000040: a801 7cbe 6ddc 17bf c201 a6be 85a0 77be
00000050: 1346 08bf dc92 7d3d 9399 5dbf 61eb 5ebf
00000060: f592 02bf e044 f0be d875 0bbf 796c e83d
00000070: 38bd 673f eef4 d3bc 507d 5ebf 9087 8abe
00000080: 51c1 33bf 33bc a9bb 0740 b13f fd8e 4ebd
00000090: ccda d13c e960 15bd 729c 2f3c d482 42be
000000a0: 7abf 573e 8d89 833e 052e 8a3d b410 943b
000000b0: 8c09 2d3d ad60 e33e 6591 bf3f 7079 f63e
000000c0: 24bf 61bf cc6a ddbe 815c 4a3f c48d 3bbf
000000d0: 41af 79be 0707 09bf d51b 3ebf 6b60 b8be
000000e0: ef4c 2c3f 6526 10bf dd0c 9abe 87ae 0cbf
000000f0: 5597 f1bc 6e39 10bf 68bc 073f 2c16 b9be
00000100: 25ef a6be 5b3c 00bf a95f 0ebc dafc 863f
00000110: cb3e 73bc 284e b3bd 54f0 c6be 8ac2 31bf
00000120: d257 8f3f faae 22bf 82e0 003f 0bac 0fbf
00000130: 3f6e bb3e 2830 df3e 0a5f 80bf f120 d6be
00000140: 65f5 953f f30b 4dbf 018b 1dbe dd73 e6be
00000150: 08f6 21bf 01b4 4cbf 7d62 30bf 9644 71bf
00000160: 66d5 8dbe 2210 523f e6d5 5abf 52e2 7cbe
00000170: 9060 79bf da0e 803d 9ac1 aa3f 02aa 573e
0.67618483 0.67057467 0.18185154 -0.42875463 0.0722401 0.3710209 -0.52165943 -0.3699944
-0.93122494 0.51964974 -0.7558272 0.89288515 -0.46817917 -0.23150188 -0.7615524 -0.35068944
-0.24610007 -0.5932072 -0.32423216 -0.24182327 -0.53231925 0.061907634 -0.8656246 -0.8707791
-0.5100549 -0.46927547 -0.5447669 0.113488145 0.905231 -0.025873628 -0.8690996 -0.2705655
-0.7021685 -0.005179906 1.3847665 -0.050429333 0.025617026 -0.036469374 0.010718452 -0.1899522
0.21069136 0.2569088 0.06747059 0.0045185927 0.042245433 0.44409695 1.4966246 0.48139524
-0.8818228 -0.43245542 0.790474 -0.7326319 -0.2438326 -0.5352635 -0.7426122 -0.3601106
0.6730489 -0.56308585 -0.3008794 -0.5495381 -0.029491106 -0.5633763 0.5302186 -0.36149728
-0.32604328 -0.50092095 -0.008689799 1.0545914 -0.014846514 -0.087551415 -0.3885523 -0.6943747
1.1198676 -0.63548243 0.5034257 -0.5612189 0.3660755 0.43591428 -1.0029004 -0.41822007
1.1715513 -0.8009636 -0.15385057 -0.45010272 -0.6326604 -0.79962164 -0.6890028 -0.9424528
-0.27701873 0.82055867 -0.85482633 -0.2469571 -0.9741297 0.06252833 1.3340333 0.21060947

embed_v_in.f.0.bias f4 [32]
00000000: c457 be3e aabd 3bbd 7c03 6a3e 83ef 553f
00000010: 5777 4f3e a817 d6be 8f19 b6be c279 8a3f
00000020: 0735 883e fb2f 003f 56d1 823e d734 313f
00000030: 64c7 79bf cd22 00be 9aca 86bf b830 b53f
00000040: c1ba 973e d2de 423e 70d8 90be dbb0 063e
00000050: 342c b3be 87ff 53bd 42d3 203f 7dde 82bd
00000060: 9bb5 7e3e 2148 813e 6aaf 5b3f 5714 e53e
00000070: 795b 0f3d 3705 4a3f 87f3 083f e3f3 723f
0.37176335 -0.045835175 0.22852892 0.8356859 0.20260368 -0.41814923 -0.35566375 1.0818408
0.26602957 0.5007321 0.25550336 0.6922125 -0.9756987 -0.12513275 -1.0530579 1.4155493
0.2963467 0.19030312 -0.2829013 0.13153403 -0.34994662 -0.05175736 0.62822354 -0.063900925
0.24873964 0.25250342 0.85814536 0.4474208 0.034999344 0.7891421 0.53496593 0.9490339

F2E.mlp.f.0.weight f4 [32, 64]
00000000: cdff 933e ada0 423f 635e 903e 0d27 f53d
00000010: f5d8 873d de47 e83e ba25 a3bc ca1d 7dbe
00000020: 0f71 e9bd 23dd 373e 5b18 3d3c 5f64 ae3e
00000030: 6fc3 c5bd eecc 15bb 0f79 8b3e 5b52 17be
00000040: c232 26be 1f48 dc3d b651 163e d1c3 8f3d
00000050: dfc6 4f3e 1f64 ba3e 22d1 d03e 04aa b13c
00000060: 39a3 ce3e 7e2c e63d 311d 8e3e a591 7f3e
00000070: d2d3 07be 59a6 f53c 9b36 85bd ad85 cb3e
00000080: 27de f83e 1e09 37bf 916e d63e 42af a03d
00000090: a07b 063e 4373 ea3e 545e ac3e 300d 4dbe
000000a0: 350e a23d c1ae 663e 045b a83e c334 2dbf
000000b0: 847f 843d db83 253e 5eef 243f 19b8 d63d
000000c0: 8300 79bd a08c d0bd 75ff bb3e 13e2 03bf
000000d0: 8521 543e bdb2 1a3f ca34 763e 21a3 9d3e
000000e0: 2bdb d53e 8b28 f73e 641e f53e 19e9 0cbf
000000f0: 457a 533e 564e 9f3e 7333 21bd 4a69 fe3e
00000100: 8851 92be c5b7 463e 7e54 83bd 64ff 1f3c
00000110: 7523 803e 9e92 8bbd e01c 963e 9679 433f
00000120: fb32 b13e 7d7a 883e 399f 263e bf56 74bd
00000130: f4f7 973e d01a e2bb 95e7 f03d e81f 0b3f
00000140: 61ff c93e 6ca2 213e 936f 97be b5ea ae3e
00000150: cd6c 293e 215e b03d 3005 5abd cef4 653e
00000160: f905 2b3e dd64 8c3e 4a5d 69be 5c0f f73e
00000170: fe65 273e 8ee1 a03e 5cb7 a83e 4474 143e
00000180: 4a04 47bf 5e9a ec3c 06a2 37bd 50b9 fdbe
00000190: 50da 303e 141d b3be dd9d 44bd af73 c3bc
000001a0: 630e 1a3d 4cc7 063d c4b5 c7bd 2873 81be
000001b0: bb4c 11bf 4564 7fbe 4bc0 36be 3b53 4f3e
000001c0: 560a fcbd b7ea fbbe bfaf e6be 5caf 933e
000001d0: 45be 9c3d fe52 5b3c 4dbf b4be f988 663e
000001e0: 40ec d9be 95c3 a7be 5bf3 9ebe 63fa d53d
000001f0: d0a9 3e3e 465f 8dbc 3ba9 da3e 8f9a 2abd
00000200: d9c2 76be 374f 923e 46b6 88be f582 0abf
00000210: 196b dfbe f150 26bf fc38 7dbe 672b 1cbe
00000220: 17b4 1dbe cf72 dd3e 93b8 dabe 9a1a 17bf
00000230: 1f68 06be 808d 203e d6a2 17bf 4508 9a3e
00000240: b66c 77be 29f3 a7be c1e3 943e e4ff a1be
00000250: b644 ac3e b2a1 3cbf b7ab cd3e 6e16 133e
00000260: 7049 df3e 0ec9 093f f041 b23e 6617 d03d
00000270: df80 99bd cb6f 8bbc e58d 9bbd f375 37bf
00000280: 404e abbe 2991 d7bd 8a9d 4bbe cbb5 9dbe
00000290: b736 abbe 8ff2 47bf 801f 4cbe 8c42 a53d
000002a0: 2ee6 14be a501 c13e 0d58 4fbe b792 6ebd
000002b0: bda3 df3d 747d 1d3c e8a0 1bbf ae53 8f3e
000002c0: 09b9 a23d b87c f0be f010 b33e 9dab 1fbe
000002d0: 28e9 193f 6bbc 4abf 6599 373f f5a8 fb3d
000002e0: a4eb ff3e fa4b 1c3f 2d41 1e3f 5a5d b43d
000002f0: 5c8f 593c 579f 9dbd c946 843e 6812 4bbf
00000300: 45d6 a63d 457a e43c 8a47 9bbd 9ed8 12be
00000310: 38e9 a0be a685 cebe 99f0 07be e393 d3be
00000320: f638 88be 0cf2 16be fbd8 84ba 81f4 233e
00000330: 7c1d 37bd c270 34ba 98ff a7be 5572 22be
00000340: f0cf afbd 31b0 41be 15d6 9dbc 0249 8d3e
00000350: bc85 30be 2dc7 aebe dd7e 91be 69b6 afbe
00000360: fbeb 8fbe 969d d83b 2176 ffbd cd91 013e
00000370: aac1 893c 3b83 2abb 38f5 ddbe 176c 35bd
00000380: 79c5 9d3e 33b4 d63e d3d6 98be 3ac9 423d
00000390: 1f70 9abe 862e 4cbe 6730 c4be 61c1 9cbe
000003a0: 767e 8fbe 5865 68be 4b05 73bc 1e40 103f
000003b0: 3340 013e d95b adbd fb97 2cbe ab60 42be
000003c0: e4fc 82be 5095 be3e 5567 10be 9c2a ec3e
000003d0: db0f 12bf e7fe 6abe c598 2c3e 9235 efbe
000003e0: 7d1f 97bd 032b 8abd 365c 2abe 829e ba3e
000003f0: 7637 1dbe ecc9 a33c cf23 a7be cfe5 f0bd
0.28906098 0.7602642 0.2819701 0.11970339 0.06633178 0.4536733 -0.01991545 -0.24718395
-0.11398517 0.1795545 0.011541451 0.34060952 -0.096564166 -0.0022857743 0.27240798 -0.1477751
-0.162303 0.107559435 0.14679608 0.07019771 0.20290707 0.3640451 0.40784556 0.021687515
0.40358904 0.11238955 0.27756646 0.24957903 -0.13264397 0.029986547 -0.06504556 0.39750424
0.4860699 -0.71498287 0.4188123 0.07845928 0.13133097 0.45791063 0.33665717 -0.20024562
0.07912866 0.22527601 0.3288194 -0.67658633 0.06469634 0.1616358 0.64427745 0.104843326
-0.060791504 -0.10183072 0.36718336 -0.51516837 0.20715912 0.6042898 0.24043575 0.3078852
0.41768774 0.4827312 0.4787475 -0.5504318 0.20652111 0.31114453 -0.039355706 0.49689704
-0.28577828 0.1940604 -0.064126 0.00976548 0.25027052 -0.068150744 0.29318905 0.763574
0.34609208 0.2665595 0.16271676 -0.05965304 0.2968136 -0.006900169 0.11762921 0.5434556
0.3945265 0.15784615 -0.29577312 0.34163442 0.1654541 0.08611704 -0.053227603 0.22456667
0.16701497 0.27420703 -0.22789493 0.48253906 0.163475 0.31422085 0.32952392 0.14497477
-0.7774092 0.028882202 -0.044832252 -0.49555445 0.1727078 -0.34983122 -0.048002113 -0.023858873
0.037611376 0.032904908 -0.09751466 -0.2528317 -0.56757706 -0.24940594 -0.17846791 0.20246594
-0.12306659 -0.4920251 -0.4505596 0.28844726 0.076534785 0.013386486 -0.353022 0.22513188
-0.42563057 -0.32766405 -0.3104504 0.10448148 0.18619466 -0.017257344 0.42707238 -0.041651305
-0.24097766 0.2857606 -0.26701564 -0.54106075 -0.43636397 -0.64967257 -0.24728769 -0.15250932
-0.1540073 0.43251655 -0.42718944 -0.59024966 -0.13125657 0.15678978 -0.5923284 0.30084434
-0.24162564 -0.32802704 0.29080012 -0.31640542 0.33646172 -0.7368423 0.4017007 0.14364025
0.43610716 0.5382241 0.3481593 0.10160713 -0.07495283 -0.01702108 -0.075954236 -0.7166435
-0.33458138 -0.10525734 -0.19884315 -0.3080276 -0.33440182 -0.7810449 -0.19933891 0.080693334
-0.14540932 0.37696567 -0.20248432 -0.058245387 0.109199025 0.00961243 -0.607924 0.2799353
0.07945449 -0.46970153 0.3497386 -0.15592809 0.60121393 -0.79193753 0.71718436 0.12288085
0.49984467 0.6105343 0.618182 0.08806868 0.013278808 -0.07696407 0.25835255 -0.7932496
0.081463374 0.027890334 -0.07582004 -0.14340445 -0.31427932 -0.4033634 -0.13275374 -0.41323766
-0.26605958 -0.14740771 -0.0010135466 0.1601124 -0.044705853 -0.00068832573 -0.3281219 -0.15863927
-0.08584583 -0.18914868 -0.019267121 0.27594763 -0.17238516 -0.34136334 -0.28417102 -0.34318855
-0.28109726 0.0066105826 -0.12473703 0.12653275 0.016815979 -0.002601816 -0.4335115 -0.044292536
0.30814722 0.41934356 -0.29851398 0.047555186 -0.30163667 -0.19939622 -0.38318178 -0.30616286
-0.2802617 -0.2269491 -0.014832805 0.56347835 0.12622146 -0.08464784 -0.16854851 -0.18982188
-0.25583565 0.3722329 -0.14101918 0.46126258 -0.57055444 -0.229488 0.16855152 -0.46720558
-0.07379053 -0.06746485 -0.16636738 0.36449057 -0.15353188 0.019993745 -0.32644507 -0.117625825

F2E.mlp.f.0.bias f4 [32]
00000000: c1d8 f73e 654c 613e 731b a43d 496d ebbe
00000010: a78c 1b3f 927a 7e3e 8c91 7b3c df99 b93c
00000020: 0c47 88be 797d ce3d 55a4 ac3d 4d91 8ebe
00000030: 60b4 383f a62a 8c3e c0ab 333f dbae 16bf
00000040: fd58 4b3f 3c28 86be 4415 713e 0725 b3be
00000050: c026 003d 763f 92be f7ab 173f 7e33 c73d
00000060: 639f 5a3e bd5f 2a3f 75c2 1c3c fa2e 12be
00000070: 624e 6f3f 9c8d 0a3e 8995 febe f3da 94be
0.48407558 0.22001798 0.08013048 -0.45981815 0.60761493 0.24851444 0.015354525 0.02265638
-0.26616704 0.10082526 0.08429781 -0.2784523 0.7215023 0.27376288 0.70183945 -0.5886056
0.7943266 -0.2620257 0.23543268 -0.34989187 0.031286955 -0.28564042 0.5924677 0.09726618
0.21349864 0.66552335 0.009567847 -0.14275733 0.9347898 0.13530582 -0.4972346 -0.29073295

E2V.mlp.f.0.weight f4 [32, 64]
00000000: d201 81be 4a65 cdbe 455c 8c3d 47eb b3be
00000010: bc9e 073e 642f e43e 64ee b13e 9f4f eebe
00000020: 4bab 973e 8580 bc3e 8da0 113e fc0a a23e
00000030: 3b9b aa3d 2ead ba3e 1060 6ebc e4bb 953e
00000040: 22ad 3fbd de27 973e 61cc e5be 2288 273e
00000050: c0e8 53bf 2171 813e 5988 c83e 2e75 13bf
00000060: b522 bfbe 60a2 9f3d bbbc 6ebe 1aab 823e
00000070: 5d90 89bd 79fe 5abe 3794 923d db20 013f
00000080: 6dad dfbe cb82 1a3e f2f5 08be 09d1 47be
00000090: 803e 9a3e ff4a 9f3e fff7 e63e 57e1 a1be
000000a0: 9ce9 c23d 7289 ee3d 4e95 15bd 18ac c43e
000000b0: 71d7 e5bd ab27 f1be 8bd0 543e c02f 48be
000000c0: 713b 4cbe 1218 c83e 789c debe 0a81 f43e
000000d0: a1c5 c3be c9e8 9a3e 77b7 133b 5ce1 793c
000000e0: edaa b3be 0dfd 2fbf a9ad 20be b3cc d33e
000000f0: 4866 e8be a6b8 02be f3f9 5f3e 6f74 503f
00000100: 1eee 05bf ba1e 253e 0438 dabe 8af8 5c3e
00000110: 7bcd efbe 44a6 e0be 33e4 d2be 99e4 413c
00000120: 9c5b 47bd 0eac 2dbf b615 ddbd 3aeb 49bf
00000130: 86c9 b6be e27b 30bf 203f 0f3d c1cc 06bf
00000140: dd0f 7a3e fc9c abbe 9253 153e 119f f1be
00000150: a940 ae3e 5141 dcbe 22ea 1ebf 02e4 15be
00000160: d879 c43e 8817 7bbc 03c1 cb3d a031 8dbe
00000170: 4a85 a0bd 0b51 243e 051d cebe b162 40bf
00000180: 9396 723e 72e6 2fbd af24 3fbf fb6f 9a3e
00000190: b71f d6be 7437 d63d 9474 2bbf 0018 99bd
000001a0: 3b7b eebe 2fa8 a63d 1051 33bc 225d 73bf
000001b0: d8bb e63e e8f1 ba3e f823 debe c21e bbbe
000001c0: 4222 393f 7c09 11be 9c04 1d3f 1fd9 cebe
000001d0: 2f42 193f 0750 0f3e 54fc 553e f3dd afbe
000001e0: 64ac 253f 75cb 403f 2b17 243e 63d0 eabe
000001f0: 0d8b 543d a34e 653e 0f71 44bf c996 8abe
00000200: 5a79 9abe 2b1d 063e a17e b1be 5f58 3cbf
00000210: 097c aebe 1097 e4bd 955c 5cbe dac9 e6be
00000220: 19a9 b5be 461a 2dbe 62ee b3be f7be 32be
00000230: 4c79 d7bd 953a eebe a8d6 52bc c274 61be
00000240: 7c75 2cbe dd7e 30be b94d 5d3c b040 8cbe
00000250: c651 bebd d912 89be 8c2e 77be 31ca 47be
00000260: 3fca 43bf 6c15 2f3d b5ab 9bbe 65f7 b6be
00000270: c9ba 83be 703d f4bd 8dd6 bdbe c0e4 babe
00000280: 6326 133e ca4c a83e b5d4 58be 2270 b8be
00000290: 3c48 2abd fcb4 84bd 754a 433e 7c42 91be
000002a0: 6ea3 42bd 1b13 733d bee8 6bbd 20bc 4cbe
000002b0: 3a1a 953e 6ea8 bb3e f4e1 013f 40a4 6b3e
000002c0: 8aff 333e 0224 4b3d de71 e33e eba4 e4bd
000002d0: 3c52 4f3e efd5 0f3e 00f0 1e3e 957c 473e
000002e0: 27f5 aa3d 67c2 213d da9e 41be f45c eabd
000002f0: 3e62 b83d 088e 10bd d253 1bbc 6277 a83d
00000300: 96b7 973f f66f 7d3e 24a1 a63e 0438 0c3f
00000310: dc1f f33d 23b5 673d 041d a73e f5ac 413f
00000320: 7b3b 003f 663f 9b3f 39b0 ae3e 3c54 843f
00000330: b118 a93e 0b7a 093f b648 033f 1c31 a63f
00000340: ec73 b63e 17cb 273c 864f 873e ecc8 5f3e
00000350: 8dcf b33e 7056 e93e bedf a83f 284b f93e
00000360: 2c5a 4d3f 909f 963e 231a 8c3e f83f dc3d
00000370: ebd8 d13e 6571 823e 05bd 433e 5f81 a13f
00000380: 05ea 1b3e 4d03 4a3e eea8 fabd 7878 023f
00000390: 808e a0be fd96 8abf 999d 1bbf fabf 323f
000003a0: 859d 17bf 5e96 b63d 8320 48bf 1b1e 653f
000003b0: eda0 7abf dac5 34bf 6c11 67bf 62b2 8c3f
000003c0: d64a 9fbe f3d0 84bf ceb7 37be 61b6 27bf
000003d0: 739a 523e d20e 80bf da10 f73e 9652 dd3d
000003e0: 2895 313f 0d17 66be 6118 bb3e ce01 d5bd
000003f0: 6fa1 f3be 487b d93e a9dd e4be 5ec0 c0be
-0.251967 -0.4011634 0.068535365 -0.3514044 0.13244146 0.44567406 0.3475219 -0.4654512
0.29622874 0.36816803 0.14221402 0.31649005 0.08330389 0.3646025 -0.01454927 0.29244912
-0.04679597 0.29522604 -0.4488249 0.16360524 -0.82777023 0.25281623 0.39166525 -0.57600677
-0.37331167 0.077946424 -0.23314182 0.25521165 -0.06716988 -0.21386136 0.07157176 0.5044076
-0.43687 0.15088956 -0.1337507 -0.19513334 0.3012581 0.31111905 0.4511108 -0.31617233
0.09517214 0.11647309 -0.03651934 0.38412547 -0.11222733 -0.47100577 0.20782678 -0.19549465
-0.1994455 0.39080864 -0.4347875 0.477547 -0.38236716 0.30255726 0.0022539773 0.015251484
-0.35091344 -0.687455 -0.15691246 0.4136711 -0.45390534 -0.1276575 0.21872692 0.81427664
-0.52316463 0.16125003 -0.42620862 0.21579185 -0.46836457 -0.4387685 -0.41189727 0.011834287
-0.04867135 -0.6784066 -0.10795157 -0.7887455 -0.35700625 -0.6893903 0.03497231 -0.5265618
0.24420114 -0.33518207 0.14582661 -0.4719167 0.34033707 -0.43018582 -0.6207601 -0.1463776
0.3837421 -0.0153254345 0.099489234 -0.27576923 -0.07837923 0.1604654 -0.40256515 -0.7515059
0.23690252 -0.04294438 -0.7466535 0.3016356 -0.41821072 0.104597956 -0.6697476 -0.07475281
-0.46578392 0.08137547 -0.01094462 -0.95063984 0.45065188 0.36512685 -0.43386817 -0.36546904
0.723179 -0.14163774 0.6133516 -0.40400025 0.59866613 0.13995372 0.20897037 -0.3434902
0.6471617 0.7531045 0.16024463 -0.4586211 0.05189042 0.22393279 -0.76735014 -0.27068165
-0.3017071 0.13097064 -0.34666923 -0.73572344 -0.34079006 -0.111616254 -0.21519692 -0.45075876
-0.35480574 -0.16904554 -0.3514281 -0.1745566 -0.105211824 -0.4652907 -0.012868561 -0.22017196
-0.16841692 -0.17235895 0.0135073 -0.27393103 -0.09292941 -0.26772192 -0.2413885 -0.19510724
-0.7648048 0.04274504 -0.3040444 -0.35735622 -0.25728443 -0.11925781 -0.37077752 -0.36502647
0.14370112 0.32871085 -0.21174891 -0.3602305 -0.041572794 -0.064798325 0.19071372 -0.28371036
-0.04751914 0.059344392 -0.057595007 -0.19993639 0.29121572 0.3665194 0.507354 0.23011875
0.17577949 0.049594887 0.4442281 -0.11164268 0.20246214 0.14046453 0.1552124 0.19481118
0.0834754 0.039492037 -0.18908253 -0.11443511 0.09003113 -0.0352917 -0.009480434 0.082258955
1.1852901 0.24749741 0.32544816 0.54772973 0.11871311 0.05656923 0.32639325 0.75654536
0.5009076 1.2128723 0.34118822 1.0338206 0.3302665 0.5370185 0.51282823 1.2983737
0.35635316 0.0102412915 0.2642786 0.2185399 0.35119286 0.4557376 1.3193281 0.48690152
0.80215716 0.29418612 0.2736369 0.107543886 0.40985808 0.25477138 0.19115074 1.2617606
0.1522599 0.19727822 -0.12239252 0.5096507 -0.3135872 -1.0827328 -0.6078735 0.69824183
-0.5922473 0.08915399 -0.7817461 0.8949906 -0.97901803 -0.706144 -0.9026096 1.0991938
-0.31111783 -1.0376266 -0.1794121 -0.65512663 0.2056673 -1.0004523 0.48255044 0.10806768
0.6936822 -0.2246973 0.36542037 -0.10400735 -0.47584102 0.4247687 -0.44700363 -0.37646765

E2V.mlp.f.0.bias f4 [32]
00000000: 43f9 d5bd 36b1 82bd b0e7 28bf 29ee 1b3f
00000010: 4c9d ba3e 60f8 dbbe 82b3 86be ea45 053f
00000020: 85a6 28bf df07 003f 8acd 363f 5e4d 193f
00000030: 282a a3be aa52 b6bc 39b2 54bf 2022 80bd
00000040: 5c1d 25bf 0c31 da3e 9a96 ba3e 6269 1fbb
00000050: 608b 96bd b378 f5bd 6193 913d 1385 50be
00000060: 19f4 9ebe 6b3c 33bf 7057 41be 2d1d ccbe
00000070: 3d18 c7be aef2 b5bd 5123 e4be 34b9 fc3e
-0.104479335 -0.063814566 -0.6597853 0.6091028 0.36448133 -0.42962933 -0.2630883 0.52059805
-0.6587909 0.5001201 0.7140738 0.5988368 -0.318681 -0.022256214 -0.83084446 -0.06256509
-0.64497924 0.42615545 0.36443025 -0.0024324288 -0.073508024 -0.11985912 0.071081884 -0.20363264
-0.31045607 -0.70014066 -0.18881011 -0.3986601 -0.3888568 -0.08884178 -0.44558194 0.4936005

ffLayers.0.mlp.f.0.weight f4 [32, 64]
00000000: ce14 013f e86e bcbe 1a64 393e b256 183f
00000010: 1616 1f3f c3b7 6dbe 5e45 ecbd cede e03e
00000020: f8cf 143f 0caf 34be 8b15 5cbd 77e4 313e
00000030: d173 213f be51 80be 7f46 ca3e 8f1d 60be
00000040: 3f8e ab3e e2d5 bf3e 4077 91be 6d23 9dbe
00000050: ae0b 28bf 381c 77be 91bf ad3e 68fb bbbe
00000060: 410f 343e 7bda 083f 1877 fcbd 7a22 d5be
00000070: 7d7a abbc aa29 85bd 9dfa 11bf 9d06 17bd
00000080: e0e1 42be 82e8 0ebd ada0 31be 64da 3dbe
00000090: 0450 bf3d 3f1d 56be edd1 ad3d 7e9d 37bd
000000a0: 2830 b4bc 0a5c 85be 5bda 833e 2623 bc3d
000000b0: 8be7 9dbd d049 e6bd eeaf 133d 5ffd bd3c
000000c0: 51d3 c0bb 082e 0dbe a102 493e 6506 edbc
000000d0: b3c8 00bf 7c22 503d f554 84bd 21b7 16bd
000000e0: 3ba1 6ebe 5a8d b4bd 0b82 bebc 117c 433d
000000f0: f850 f53d c1c4 f6be ce63 b03c e8a6 533e
00000100: 3d02 b9be 91eb 473f 12bc 4fbf 1f62 b9be
00000110: 3842 dfbe 39d5 aebe 790a fcbe e03e f9bd
00000120: 905e acbe 41d4 03bf deca 14be 10e4 203f
00000130: 2a36 46be c6bf 203c 30a8 9fbe 5df8 adbe
00000140: 7264 3ebe 450c cc3e af36 50bc a794 2b3f
00000150: 1c71 063e b235 1fbe 2a00 073f 6606 a2be
00000160: b07c 29be d8da 25be b139 663e 41ca 1b3f
00000170: 97e0 1abf 4884 efbe 882c b13e c649 1abf
00000180: 95aa b9be 67e5 c23c b1e0 8e3e 5673 27bf
00000190: ba53 04bf 9d07 853c 4de3 013f a916 17bf
000001a0: e51d ebbe 4af7 533e 5da7 813e f4c8 4fbf
000001b0: 9cdc 1abf fa00 da3e 50c2 31bf b40d b43e
000001c0: 3c45 efbe 867f 44bf bbdd 5a3e fb29 91bd
000001d0: b57a 9d3e 4e6f 033f fec9 78bf d37d c43e
000001e0: 0162 b3be 3502 18bf 93fc e4bd cda7 723d
000001f0: b309 f53e 06d6 f2bd 2f0b dbbd f29a 3d3f
00000200: 5c57 c63e 012f 01bf a5e9 5a3e e911 cd3e
00000210: 05be e73e d8d8 4db8 9ece 3a3e e274 043f
00000220: 5fb2 053f 17ac 2b3e 4dcb e9bd 0d94 20be
00000230: 8948 1a3f 95b9 a83d ebc4 e93e f678 17be
00000240: 6bea e23e 5e98 9a3d 7076 07be 9b14 edbe
00000250: 1f4b 00bf d512 ac3c f84c fb3d 7c6b 3fbe
00000260: 91be 5d3e 99bb da3e dde2 883e 7771 1abf
00000270: 3b5b be3d 2e3a 2bbd 2c0b 3fbe f350 e13d
00000280: 7d27 5f3e 4440 f53d 3ad7 cbbe ba5e 163e
00000290: f8c4 823e 1f4a c0be 83c8 78bc cc5c d73d
000002a0: 4a68 1c3e 2028 ffbe 6c47 36be a6fb 383e
000002b0: c4f2 813e a6e2 f73c 3a68 de3b 4a9e fb3d
000002c0: 9c80 65bc 6392 f53d 4cb9 853d c516 183e
000002d0: 5130 6cbe 9ede f03c 0f38 a83e 44fb 8e3d
000002e0: 5db1 053d 1a8e 1a3e 402f 7fbe 66ad 8c3e
000002f0: a1a4 e0be ac19 a0be 5dfe aebc 8034 e7be
00000300: 305f c9be 2d74 36bf faec af3e 4190 c8be
00000310: 85d9 39be 5fb1 c63c 6a67 593e c586 a9be
00000320: e5ae c0be 51de 403e 4e47 9f3e 2928 febe
00000330: 3f44 02bf 5923 c33d 9505 bebe 057b f93e
00000340: e91c a3be cb3a 2fbf 1cf1 963d 9440 0abf
00000350: c599 0bbf 2be1 8c3e 4546 26bf f7b8 013f
00000360: fab9 89be 76b1 00bf e6eb 99be bb69 34bf
00000370: 1774 053f a202 bbbe 2c95 293e 99e0 0b3f
00000380: dcf9 8fbd 1715 983d 00d9 86bc c20e 583e
00000390: 478b 573e e9e4 273e f802 91be 2561 29bd
000003a0: 73a0 85bc 8c3d 84be 09a2 2c3e 6c1d a5bb
000003b0: 0eca 9bbb 989c 8cbd 4841 9e3e 3227 293e
000003c0: 50f7 1cbe 8d56 e23d 9713 07be d76a f63c
000003d0: 218b e3be 6ba5 b73c 4e98 f43d a0f9 5a3e
000003e0: 0c28 0c3e e85e 333d 2686 9a3d a1e9 2ebc
000003f0: 35d3 debd 7576 58be 2200 c83e 6eaa 51be
0.5042237 -0.36803365 0.18104592 0.59507287 0.62143075 -0.23214631 -0.11536668 0.43919986
0.58129835 -0.176449 -0.053731482 0.17372309 0.63067347 -0.25062364 0.3950691 -0.21886276
0.33506963 0.37467867 -0.28411293 -0.3069109 -0.6564282 -0.24131858 0.33935216 -0.36715245
0.17583944 0.53458375 -0.12327403 -0.41627866 -0.02093243 -0.065020874 -0.5702303 -0.03687154
-0.19031477 -0.034889705 -0.17346449 -0.1854034 0.09341434 -0.20909594 0.08487306 -0.04482793
-0.021995619 -0.26046783 0.2575253 0.091863915 -0.07710179 -0.11244547 0.03605645 0.023192106
-0.005884566 -0.13787091 0.19629909 -0.028933713 -0.5030624 0.050814137 -0.06461517 -0.03679574
-0.23303692 -0.08816023 -0.023255369 0.04772574 0.11978334 -0.48196986 0.021531966 0.20669138
-0.3613452 0.7809382 -0.8114635 -0.36207673 -0.43605208 -0.3414705 -0.4922674 -0.121701956
-0.33665895 -0.5149575 -0.14530513 0.62847996 -0.193566 0.009811347 -0.31183004 -0.3397855
-0.18593004 0.3985311 -0.01270835 0.670237 0.13129085 -0.15547827 0.52734625 -0.31645507
-0.16551471 -0.16196764 0.22482945 0.6085549 -0.60498947 -0.4678061 0.34604287 -0.6026882
-0.36262956 0.023791028 0.279058 -0.65410364 -0.51690257 0.016238982 0.5073746 -0.5901895
-0.45921245 0.20699802 0.25323 -0.81166005 -0.60492873 0.4257887 -0.6943712 0.35166705
-0.4673251 -0.76757085 0.21373646 -0.07088085 0.3075768 0.5134171 -0.97183216 0.38377246
-0.3503571 -0.5937837 -0.11180987 0.05924206 0.47858962 -0.11857228 -0.106954925 0.7406455
0.38738525 -0.5046235 0.21378191 0.40052727 0.4526216 -4.907776e-05 0.1824288 0.5174085
0.522253 0.16764866 -0.1141573 -0.15681477 0.6026693 0.08238522 0.4565805 -0.14792237
0.44319472 0.07548593 -0.13228774 -0.46304783 -0.50114626 0.021005074 0.1227054 -0.18693346
0.21654727 0.4272125 0.26735583 -0.60329384 0.092947446 -0.04180353 -0.18656605 0.11001768
0.21792407 0.11975148 -0.39812642 0.14684573 0.255409 -0.3755655 -0.0151845245 0.105157465
0.15274158 -0.498353 -0.17800683 0.18064746 0.25380528 0.030259442 0.006787327 0.122860506
-0.014007714 0.11990812 0.06529483 0.14852436 -0.23065306 0.029403027 0.3285527 0.06981519
0.03263985 0.1509327 -0.24920368 0.27476043 -0.43875602 -0.31269586 -0.021361524 -0.45157242
-0.39330435 -0.7127102 0.34360486 -0.39172557 -0.18149383 0.024254499 0.21230856 -0.33110633
-0.37633434 0.18834807 0.3110909 -0.49640015 -0.50885385 0.095282264 -0.37113634 0.4872667
-0.31857994 -0.68449086 0.07370207 -0.5400479 -0.5453151 0.2751554 -0.6495097 0.5067286
-0.268997 -0.50270784 -0.3006279 -0.7047383 0.52130264 -0.36525446 0.16560811 0.54639584
-0.07030079 0.074258976 -0.016460896 0.2109938 0.21049224 0.16395916 -0.28322577 -0.04135241
-0.01631186 -0.25828207 0.16858687 -0.0050389078 -0.0047543114 -0.068658054 0.3090918 0.16518858
-0.15328717 0.110516645 -0.13191067 0.030080242 -0.44442084 0.022417745 0.11943112 0.21384287
0.13687152 0.04379168 0.07545118 -0.010675819 -0.10880128 -0.21138938 0.390626 -0.2047517

ffLayers.0.mlp.f.0.bias f4 [32]
00000000: 8f62 e13d 4b39 223f 95aa d6bd cd0f 24bf
00000010: e694 3cbf f965 cbbe 129a adbd f98c ee3d
00000020: fc31 9c3e 060d 1c3f da01 08bf dcc4 523e
00000030: 50cc 56bc 9bf6 e9be 2af6 703d 1379 823e
00000040: 74ea 20be 320a ccbe 128a 02be b110 463f
00000050: 2899 5e3e bb6d 2c3f 0ad3 843c 6808 043f
00000060: 0e88 f13d 4ae5 b9bc 6886 803e e330 bfbd
00000070: c557 24bf 5cef 3e3e 0d50 843e b8d5 f3bd
0.11005127 0.6336867 -0.10481755 -0.6408661 -0.736647 -0.39726236 -0.08476652 0.11647982
0.30506885 0.6095737 -0.53127825 0.20582908 -0.013110235 -0.45695958 0.05882851 0.25482997
-0.15714437 -0.39851528 -0.12747982 0.7736922 0.21738112 0.67354935 0.016213913 0.51575327
0.117935285 -0.022692341 0.25102544 -0.09335496 -0.64196426 0.18645996 0.25842324 -0.11905998

F2F.mlp.f.0.weight f4 [32, 64]
00000000: 74d9 cbbd f8eb 5c3d 787a 8bbc a008 76bc
00000010: 0066 9a3c a081 ddbc 70cf d6bc 3e78 87bd
00000020: 3ac4 dc3d c89b dc3c 305c 893d b2f6 80bd
00000030: bafd c0bd 08fa 3d3d c0c4 aabb 0ec0 b43d
00000040: 90c5 b13d 580c cf3c 7414 773d 8c3e 60bd
00000050: 0e62 95bd 8a76 fdbd 4e1c e23d 1054 f2bc
00000060: 8ed5 db3d f430 f33d 78b6 61bd e4bc 45bd
00000070: 8cca aabd 48ac a03d 6afa c4bd 54f5 d3bd
00000080: a08e c53c 1a91 acbd 8e71 de3d 440b f63d
00000090: 9a6b abbd f003 683d 98b5 9cbd 14c3 dbbd
000000a0: d85c a8bd caf9 afbd ece7 683d 9c24 bf3d
000000b0: b0fd 3e3c a853 eabc c81c 7d3d 96e5 9fbd
000000c0: 8883 33bd 2cde f43d e8ae 8b3c 1a2d a13d
000000d0: f8cb 9dbd 300b 663d c040 933c a4ad 80bd
000000e0: 601b d1bd 8c25 a3bd 8cca 7b3d 94c1 9b3d
000000f0: 283c c73d 34a7 5b3d f6a8 a9bd 02b1 ec3d
00000100: ae27 f43d dc17 fcbd 68fb a6bc 4e9b ffbd
00000110: 38b1 c73d 8ebf b43d 2841 203d 4045 bc3b
00000120: 1a08 d7bd a0e9 ebbb 58c5 dcbc 44be 1bbd
00000130: 3424 cfbd 6270 f3bd 624d d93d 0077 b33b
00000140: a607 95bd d8dd f83d 7679 fb3d 2c73 68bd
00000150: 0c7c d03d d888 64bd 2079 bbbd e845 86bd
00000160: 444c 013d 40b3 51bb d058 dbbc 0016 d8bb
00000170: 3ad7 dabd 98bf a03c 94bd fb3d 6635 a4bd
00000180: 381b ffbc 147a ac3d 0a1d af3d b00f 563c
00000190: 3861 25bd 2c0a 7d3d 9a5a ee3d 4c9c 683d
000001a0: 702e bc3d 2cf5 3ebd 7e3b 81bd d24a fc3d
000001b0: 0028 323b 1809 ef3c 9676 ca3d f4b1 d63d
000001c0: 2416 55bd 98d1 9cbd 9043 483d 8429 ecbd
000001d0: 48dd 85bd 9059 7e3c 201b f1bb 30f0 563c
000001e0: 58ed 883d b0d8 b23c 96fd c2bd ded4 cdbd
000001f0: 2470 7c3d 96d2 b6bd acea 6dbd ac32 813d
00000200: f866 82bd 80d2 f33d 9c6b 3dbd 6224 b4bd
00000210: aea8 9ebd 5ef6 c43d 7498 70bd bc7b b63d
00000220: fe6a b3bd 503a 3c3d d021 6b3c e4b0 b23d
00000230: 30f7 1a3d 1862 b63c 1ee5 95bd 40dc dbbb
00000240: 46d6 bcbd 10ee de3d 30b8 30bd 6027 c8bb
00000250: d01a 90bc 4a22 a93d 801b 32bb 22f5 e83d
00000260: 805c e0bd 4411 4d3d 8075 da3c d0f4 ecbc
00000270: 0c9c 93bd aaac 8f3d 68c6 a83d 3067 2e3d
00000280: 86a9 c03d ce4b ecbd f802 193d 3e8b fdbd
00000290: 00df 043a c0a0 38bd 7015 f13d 0c0d 5a3d
000002a0: 22a2 b7bd 4218 ebbd b0d4 70bd 6839 cebd
000002b0: 461d 803d 0893 c03c 8c1f 013d d69a c83d
000002c0: 2a6c e0bd aed2 c93d ce1d b1bd 342e 67bd
000002d0: 40ef 343b 80b2 33bc dacb e63d 9039 5b3c
000002e0: 501d ab3d 6a38 f83d 325f b3bd 70cb 8fbd
000002f0: 54fa 5b3d f03c 843c a87a aa3c f05f 783c
00000300: 80e4 0ebb 340c 19bd f80f 4ebd 48b2 cb3d
00000310: 0089 303c e05c c1bd fc3e 91bd b40a 933d
00000320: dcc2 19bd 4c9d 98bd 1426 b2bd 0ade eb3d
00000330: 4081 a2bb d22a 913d ba74 a23d 7899 d8bd
00000340: 9cec 0f3d 804c 523d e8df 983d 349b 7abd
00000350: a8d2 e6bc 78bc b63d 98dc bcbc 44b0 89bd
00000360: 1095 e0bd 1c7d e33d ae3b ab3d 80de dbba
00000370: a4dc 503d 00a5 cabd 007b a63c e093 c13c
00000380: 1449 4a3d a078 3b3c 540e 25bd fc0e 55bd
00000390: c021 d33b 1ad5 a4bd 6824 2cbd 02b0 c53d
000003a0: 6c56 70bd 34ef 123d fe36 e6bd dc3a 5c3d
000003b0: 9c6d 623d 068a d6bd 16b6 e0bd 2001 a0bb
000003c0: f283 a93d 78b2 5b3d d462 4f3d 20a7 263c
000003d0: a40b 4dbd f65f cd3d 7cc0 cbbd c82a f73d
000003e0: de09 d33d f24d b6bd f83d 1cbd a4fd 053d
000003f0: 0e2b 96bd 0899 40bd 006c 983b 8254 be3d
-0.09953585 0.053935975 -0.017026171 -0.015016705 0.018847466 -0.02703935 -0.02622196 -0.06614731
0.10779615 0.026929751 0.067070365 -0.062970534 -0.094233945 0.046381027 -0.0052114427 0.08825694
0.0868026 0.02527444 0.06032224 -0.05474715 -0.07294093 -0.12376125 0.11040555 -0.0295811
0.10734092 0.118745714 -0.055105656 -0.048275843 -0.08339414 0.0784536 -0.09618075 -0.10349527
0.02411586 -0.084261134 0.108615026 0.120138675 -0.08370133 0.05664438 -0.07651824 -0.107305676
-0.082208335 -0.08592565 0.056861803 0.093331546 0.0116571635 -0.028604344 0.061795026 -0.07807462
-0.04382661 0.119564384 0.017051175 0.078699306 -0.077049196 0.056163013 0.017975211 -0.06283119
-0.102102995 -0.07966146 0.06147246 0.076052815 0.09728271 0.053626254 -0.0828418 0.11557199
0.11921631 -0.12309238 -0.020383552 -0.12480794 0.09750599 0.08825599 0.039124638 0.00574556
-0.10499592 -0.007199481 -0.02694957 -0.03802325 -0.10114327 -0.1188667 0.10610463 0.0054768324
-0.072768494 0.12151688 0.12279026 -0.05675046 0.1017991 -0.055794567 -0.09153962 -0.06556302
0.031566873 -0.003199771 -0.026775748 -0.0065944195 -0.106855825 0.019622609 0.122920185 -0.080179974
-0.031140909 0.08421722 0.08550461 0.013065264 -0.04037592 0.06177728 0.116383746 0.05678968
0.09188545 -0.046620533 -0.06310175 0.12318958 0.0027184486 0.02917914 0.098859 0.104831606
-0.052023068 -0.07657164 0.048892558 -0.11531356 -0.06536347 0.015524283 -0.00735797 0.013118789
0.06685895 0.02183184 -0.09521024 -0.10050367 0.061630383 -0.08926885 -0.05808513 0.06308493
-0.06367296 0.11905384 -0.046245202 -0.08796002 -0.07747017 0.09617303 -0.05873914 0.08910319
-0.087606415 0.04595405 0.014351323 0.087251455 0.037833393 0.022263572 -0.07319091 -0.0067096055
-0.09220557 0.108852506 -0.043144405 -0.0061082095 -0.01759091 0.08258493 -0.0027177036 0.113748804
-0.10955143 0.050065294 0.026667356 -0.02892533 -0.07207498 0.07015355 0.08240968 0.042578876
0.09407334 -0.11537896 0.037356347 -0.12380074 0.000506863 -0.04507518 0.11771667 0.0532351
-0.08966471 -0.11479236 -0.058796585 -0.10069543 0.062555835 0.02350761 0.031524226 0.097951576
-0.10958131 0.09854637 -0.08648263 -0.056440547 0.0027608424 -0.010967851 0.1126935 0.013380423
0.083552 0.12120135 -0.087583914 -0.070212245 0.05370553 0.016142339 0.02081044 0.015159592
-0.0021803677 -0.037365153 -0.050308198 0.09946114 0.010774851 -0.094415426 -0.070920914 0.07179776
-0.037539348 -0.07451877 -0.08698669 0.1151696 -0.0049592555 0.070882455 0.0793242 -0.10576147
0.035137758 0.051342487 0.07464582 -0.06118317 -0.02817662 0.08922666 -0.023054406 -0.06723073
-0.109659314 0.11107847 0.08360992 -0.0016774684 0.05099167 -0.098947525 0.020322323 0.023630083
0.0493861 0.011442333 -0.040296867 -0.052016243 0.0064432323 -0.080484584 -0.042026907 0.096527115
-0.05867617 0.035872653 -0.11240958 0.05376707 0.055280313 -0.10475545 -0.1097223 -0.0048829466
0.0827712 0.053636998 0.05063136 0.010171682 -0.05005993 0.10028069 -0.09948823 0.12068707
0.103046164 -0.08901586 -0.038145036 0.032712594 -0.07332431 -0.047020942 0.0046515465 0.09293462

F2F.mlp.f.0.bias f4 [32]
00000000: c04e 413b d6bb f23d 1c26 dd3d 2c0f ea3d
00000010: d8dd bf3d 4433 ebbd 0023 5bbd b4f8 fa3d
00000020: 6040 4cbc 6053 72bd 8c22 24bd 7066 123d
00000030: 6a44 ddbd a0af 17bd b645 893d 6844 3e3d
00000040: e0ba b7bd 5c7d 113d 8603 dbbd 3c76 fe3d
00000050: 30d4 19bc cc30 e0bd 8eb0 993d 00c5 0c3a
00000060: 541f 003d a408 9b3d 7a95 cdbd 64af 0fbd
00000070: f01a 993d b8fb 3a3d fa8a c83d 60e8 d83d
0.0029496402 0.11852233 0.107982844 0.11428675 0.09368485 -0.114843875 -0.053500175 0.122544676
-0.01246652 -0.059161544 -0.04007201 0.035742223 -0.108040646 -0.037032723 0.067027494 0.046451956
-0.089711905 0.035519943 -0.106940314 0.12424895 -0.009388968 -0.10946807 0.07504378 0.00053699315
0.031279877 0.075700074 -0.10038276 -0.035079375 0.07475841 0.045650214 0.09792133 0.10591197

E2F.mlp.f.0.weight f4 [32, 64]
00000000: 6a57 b03e e912 00bd e703 e63b 9660 4e3e
00000010: 1faf 9d3e 8a2a b7be 27c5 1fbf af9f 47bd
00000020: 8da0 ec3e 6c7e 6fbf 921c 36bf 8981 c23d
00000030: 8171 c9bb 7a33 2ebf d377 cfbc 7f0a f3be
00000040: 78bb 943e 9580 8f3e 41c1 aebd b137 81be
00000050: 128f 1c3f ccc1 49bf 6dfa 1cbe b64b 40bf
00000060: 2623 59be 0370 333e a061 6a3d 0cc6 90be
00000070: 73cc b6be aaac babe af36 48bf df2d 003e
00000080: 8cc3 503f 3d1e 1bbf 4d8b c73d dd81 4c3d
00000090: 802f 22be aff6 453e 04a3 27bd 3976 6a3e
000000a0: ea90 9f3e ce2c c3be 9e12 2abb 7a11 623e
000000b0: df3a 12bd 4e2b ee3d 7b8e 60be b45b 2cbc
000000c0: 9f43 dbbc 94f9 363e 1d36 6abe 272d 6cbf
000000d0: f8c7 823e 460d 4bbf b0e2 f83e 0ad8 34bf
000000e0: dc71 a13e 197c d63e e247 a1bd 22b2 1fbf
000000f0: 0996 bc3c a4f3 1abd ecbb 2bbf 1eb9 7bbe
00000100: 8ed6 063e 8974 82bd 45ad b53c fab0 98bc
00000110: d41f 7fbd 947e 1bbe f432 a6be 5258 f9bd
00000120: 1ab3 e23d 33f6 3fbc c9dd 80be 968b a4be
00000130: 1df8 e1be 407c 323e 4892 c3be 296c 81be
00000140: 3d5f 94be 2998 913d e7e6 3cbe b2ff 34bd
00000150: 2c36 923e dabe 1ebe dca4 b6be 9948 1f3d
00000160: b9c0 9cbe e027 afbd b889 92be 60a6 f3bd
00000170: f716 4ebd 4bba 12be 4973 4cbe 9ce4 b7bc
00000180: ec54 cabc 136e 03be 8715 12be 53cc bebb
00000190: e9ce a83e cac6 d63e 1453 b83c 0c38 29be
000001a0: 3a9b 1e3e 83cf 5f3e 05d9 96bd 3c35 61bd
000001b0: 020c a73d 244c bc3d 318d 603e 3448 cabe
000001c0: 398f 5f3e ffaa 803e 8e85 a03d 55ae a7bd
000001d0: d473 ee3e 2623 383e 5249 34bd 0331 053e
000001e0: 24c1 93be 95f7 173e 68b0 07be 31df 12be
000001f0: cb80 963e 59ee 06bf f7de 873d 7091 bd3e
00000200: 1e7f 1ebd ed53 83be 177f 5c3b 2558 4fbe
00000210: d9a4 89be 2da7 09be 8c71 99bd 3edf b2bd
00000220: bd81 5d3e d264 8fbe f280 09be 1385 9a3b
00000230: b345 25be 5cb1 9cbe 5e5e 95bd 3138 29be
00000240: 909a 04bd f835 edbb 201f 1bbe f6f6 dfbe
00000250: da6c 6e3e ef2d dbbe 18c6 08bd b59a 95be
00000260: 7694 00be 78cf 163c ef67 4abe bf24 91bd
00000270: ab74 ee3d f502 61be 0289 e8be 76a5 9a3d
00000280: 11d0 6abe 6c9d 363e 8587 e03b e4e0 b2bd
00000290: 42e6 573e ed59 413d 7da9 483e fdac 063e
000002a0: 0899 82bc 7498 b03e d2de b83d 30bf bf3d
000002b0: 2884 a03c f269 f2bd ab05 c13e 2e85 d9bd
000002c0: 0f07 d63e fc73 0abe f4ca de3e 8026 86be
000002d0: 7b4a 103e 9070 5dbe 966c 57be 8700 673e
000002e0: 4127 abbe 9e7d 35be 9a0f d13e a4ef 013f
000002f0: 8ce9 723d 5963 353e 6959 1bbe 0bfb 303d
00000300: 3da5 5f3d 1fb6 06bf b37f 3dbe 1f22 12bd
00000310: e2dd 8cbe 2495 bfbe d242 5cbe bcd6 3cbd
00000320: f1d3 36bc 878f 16bf b9d6 31be cc0f 4fbd
00000330: ecf1 27bd a2f9 1cbe 79af 463c 7b81 31bf
00000340: a9f2 81bd 3ace cebd 65da 1bbe 34f9 bfbe
00000350: f0ae 71be 8f3b 82be bb0a b0bd 814a a1be
00000360: 0059 8cbe 6306 18be 7e55 62be f834 bfbe
00000370: 8c77 38be 37a9 f1bd 2f8c cdbe cf6d 633d
00000380: d5c0 54bd 3bee 66bd 4f34 38be 7823 63bd
00000390: c3fa 6e3e b180 4ebe 0bf9 c83d 3ea8 6dbd
000003a0: 94eb 183e 2f9e 003e c2c3 4dbc 3a25 413e
000003b0: 5333 d53d 16ba dc3d fcc5 603e e623 35bf
000003c0: d62a 9e3d 6600 cbbe 0e81 c2be 3189 91be
000003d0: 403b 9ebd 21e7 c9be 8e5d 4b3e 847b c8bd
000003e0: 870f 953e a350 aa3d e34b ddbe e10b b3bd
000003f0: 35ee 323e b7a7 0cbc 5d97 b1be 1813 21bd
0.34441692 -0.031268034 0.007019508 0.20154032 0.3079767 -0.35774642 -0.62410206 -0.04873627
0.4621624 -0.9355228 -0.71137345 0.09497363 -0.006147564 -0.68047297 -0.025325691 -0.47468945
0.29049277 0.28027788 -0.08532954 -0.25237802 0.6115581 -0.78811336 -0.15329905 -0.75115526
-0.21204814 0.17523198 0.05722201 -0.28276098 -0.35702857 -0.36459857 -0.7820844 0.12517498
0.8154838 -0.60593015 0.097433664 0.049928535 -0.15838432 0.19332384 -0.04092695 0.22896661
0.31165248 -0.3812012 -0.0025951038 0.2207698 -0.035700675 0.116293535 -0.21929352 -0.010519911
-0.026765643 0.17868644 -0.22872205 -0.92256397 0.2554319 -0.7931713 0.4861045 -0.7064215
0.3153218 0.41891554 -0.07875039 -0.62381184 0.023020761 -0.03783001 -0.6708362 -0.24582335
0.13167784 -0.063698836 0.022177348 -0.018639077 -0.062286213 -0.15185004 -0.3246075 -0.12175049
0.11069317 -0.011716413 -0.2516921 -0.32137746 -0.44134608 0.1743021 -0.3819754 -0.25277832
-0.2897891 0.071091 -0.18447457 -0.044189163 0.28556955 -0.15502492 -0.35672653 0.038887594
-0.30615786 -0.085525274 -0.28620696 -0.11896968 -0.05031487 -0.14328878 -0.19965853 -0.022447877
-0.024698697 -0.12834959 -0.14266025 -0.005822697 0.3297036 0.4194854 0.022500552 -0.16525286
0.15488902 0.21856503 -0.07365612 -0.05498241 0.08156587 0.0919421 0.2192886 -0.39508212
0.21831979 0.2513046 0.078379735 -0.08187548 0.46572745 0.17982158 -0.044015236 0.13006978
-0.28858292 0.14840539 -0.13250887 -0.14342953 0.29395136 -0.5270744 0.06634324 0.37025023
-0.038695447 -0.25649968 0.0033645087 -0.20248468 -0.2688358 -0.13442679 -0.074923605 -0.08733986
0.21631522 -0.28006607 -0.13428095 0.0047155707 -0.1613987 -0.30604064 -0.0729339 -0.16525342
-0.032373965 -0.0072390996 -0.15148592 -0.43743104 0.23283711 -0.42808482 -0.033392042 -0.29219595
-0.12556633 0.009204738 -0.1976621 -0.07087087 0.116433464 -0.21973784 -0.4541703 0.075510904
-0.22930934 0.17833489 0.0068520927 -0.08734301 0.2108393 0.0472049 0.19595905 0.13151927
-0.015942112 0.34491313 0.090268746 0.09362638 0.019594267 -0.11836614 0.37699637 -0.10621105
0.4180226 -0.13520807 0.43514216 -0.26201248 0.14090912 -0.2162497 -0.21037516 0.22558795
-0.33428386 -0.177237 0.40832216 0.5075629 0.05930476 0.1771368 -0.15170826 0.043208163
0.054600943 -0.52621645 -0.18505745 -0.03567707 -0.27513033 -0.37418473 -0.21509865 -0.046103224
-0.011158929 -0.58812755 -0.17367066 -0.050552174 -0.0410022 -0.15329602 0.012126797 -0.69338197
-0.06345112 -0.10097928 -0.1522003 -0.37494814 -0.2360189 -0.25436065 -0.08595797 -0.31502154
-0.27411652 -0.14846186 -0.22102925 -0.373451 -0.18014354 -0.11799853 -0.40146014 0.055524644
-0.05194171 -0.056379538 -0.17988704 -0.055453748 0.23337846 -0.2016628 0.09813126 -0.058021776
0.14933616 0.12560342 -0.012558879 0.18861857 0.1041018 0.107776806 0.21950525 -0.707579
0.07723014 -0.3964874 -0.37989086 -0.2842498 -0.07726145 -0.3943415 0.19859907 -0.09789184
0.2911341 0.083161615 -0.4322196 -0.087425 0.17473681 -0.008584908 -0.34685794 -0.03932485

E2F.mlp.f.0.bias f4 [32]
00000000: a858 e43e f25d 90be ce33 a6bd a10c 77bd
00000010: a672 98be 9d4c 97be e289 acbe 0780 1fbe
00000020: 3231 1ebe 7a6e 53be 5a36 223e f70a bfbe
00000030: eebb 583e ca74 abbd cabe b8bd 9f1a 06bf
00000040: 003c a0be 0603 aebe 1315 71bd 17df f23e
00000050: f9b9 d5be a458 663f 5bb5 303e 42b7 9ebe
00000060: c27c acbe 8a9e c1bd 46f6 04bd 928c 1bbf
00000070: a1a0 3bbf 2e12 853e 25c6 07bf 80d0 553e
0.4459889 -0.28196675 -0.0811535 -0.06031478 -0.2977497 -0.2955064 -0.33698946 -0.15576182
-0.15448454 -0.20647612 0.15841046 -0.37313053 0.2116544 -0.08371885 -0.09020765 -0.5238437
-0.31295776 -0.33986682 -0.05885799 0.4743583 -0.41743448 0.89979005 0.17256682 -0.3099919
-0.33688933 -0.09454067 -0.032461427 -0.6076137 -0.73291975 0.25990433 -0.5303672 0.20880318
