checkpoints/operation_prediction/SBGCN_model.pth (torch, 58936 bytes, 18 tensors)

embed_f_in.f.0.weight f4 [32, 4]
-0.07234395 -0.18045613 -0.27916184 0.27726734 0.14709148 -0.38005558 0.38569754 0.053112827
-0.30023408 -0.5057884 0.111624524 -0.34746417 -0.22425723 -0.07477035 -0.30740517 0.37279722
-0.24156612 -0.42380446 0.53623533 0.04159818 0.45119828 -0.30448544 0.07659351 0.00097165105
-0.55063844 0.16565795 0.32985386 0.0478058 0.12170329 -0.37828037 0.4951849 -0.20680758
-0.1910464 0.11879214 0.29182643 -0.4544187 0.4286142 -0.02626384 -0.08763345 -0.026533484
0.4201607 0.4887752 -0.46808517 -0.18118316 0.2745099 0.028209915 0.16153315 0.3239368
0.23257603 0.41817054 0.22124025 0.12980281 0.42121023 0.35275835 -0.43610325 0.507554
-0.46011052 0.18564126 0.17434752 0.6187459 -0.07037416 -0.5381699 -0.3050153 -0.33258736
0.30139214 0.10451693 -0.12586164 0.2363956 -0.05836423 -0.53822964 0.22688548 0.22525668
-0.2219766 -0.3268869 0.3965851 -0.29341093 0.08398661 -0.18563639 0.043724466 -0.29913858
-0.08174858 -0.31164083 0.3672234 -0.40736783 0.47014666 -0.4241063 -0.45455468 -0.1518528
-0.09567371 0.14799054 -0.002224359 -0.45117635 0.22160554 0.09646623 -0.23262924 0.2696148
0.5204933 -0.17431618 -0.15752876 -0.2221676 -0.22355433 -0.42137593 -0.15651026 0.2700781
0.23949276 0.061043333 0.4264095 0.07189321 -0.42565832 -0.2283676 -0.22674973 -0.43940598
-0.05285352 -0.44097838 0.41473815 0.004560872 0.4288662 0.11231364 0.08901451 0.20260179
-0.3222247 -0.036561813 0.15789726 0.025990035 -0.02080538 -0.26796702 0.19198191 0.4535114
00000000: 1129 94bd 7ec9 38be 4dee 8ebe fcf5 8d3e
00000010: 269f 163e a596 c2be 267a c53e d68c 593d
00000020: 48b8 99be 597b 01bf 669b e43d d3e6 b1be
00000030: b0a3 65be 3221 99bd 3664 9dbe 47df be3e
00000040: 1c5d 77be e6fc d8be b846 093f da62 2a3d
00000050: 7603 e73e 84e5 9bbe 0fdd 9c3d 66b6 7e3a
00000060: a4f6 0cbf 3da2 293e 9be2 a83e 04d0 433d
00000070: 933f f93d f7ad c1be e088 fd3e 5ec5 53be
00000080: aba1 43be 4b49 f33d 466a 953e 91a9 e8be
00000090: 5273 db3e 4427 d7bc 2b79 b3bd c05c d9bc
000000a0: 4e1f d73e be40 fa3e dca8 efbe 1488 39be
000000b0: 908c 8c3e 7b18 e73c f268 253e 0bdb a53e
000000c0: 6928 6e3e 731a d63e ce8c 623e 07eb 043e
000000d0: dea8 d73e be9c b43e ed48 dfbe 0fef 013f
000000e0: 9b93 ebbe be18 3e3e 2888 323e 2266 1e3f
000000f0: 5420 90bd 81c5 09bf f72a 9cbe e448 aabe
00000100: 1250 9a3e f90c d63d e0e1 00be b011 723e
00000110: 550f 6fbd 6bc9 09bf ab54 683e b0a9 663e
00000120: d54d 63be b85d a7be 340d cb3e f539 96be
00000130: 2c01 ac3d 7717 3ebe 6d18 333d b128 99be
00000140: cd6b a7bd 638f 9fbe b504 bc3e 8492 d0be
00000150: 10b7 f03e 7624 d9be 64bb e8be 4d7f 1bbe
00000160: 94f0 c3bd d58a 173e 8dc6 11bb 9600 e7be
00000170: 90ec 623e 1690 c53d 5c36 6ebe f30a 8a3e
00000180: 0d3f 053f f17f 32be 384f 21be e77f 63be
00000190: 6deb 64be 96be d7be 3a44 20be ad47 8a3e
000001a0: 973d 753e 9308 7a3d 5952 da3e bf3c 933d
000001b0: e3ef d9be 32d9 69be 1531 68be d2f9 e0be
000001c0: ef7c 58bd ebc7 e1be 8f58 d43e 5e73 953b
000001d0: 5a94 db3e b204 e63d 3d4d b63d d876 4f3e
000001e0: a3fa a4be d7c1 15bd d2af 213e 0ee9 d43c
000001f0: 0b70 aabc f932 89be e896 443e a532 e83e

embed_f_in.f.0.bias f4 [32]
-0.20612282 -0.17338665 -0.07006675 0.014265978 -0.06363223 -0.33025843 0.020754047 -0.17878988
0.33767894 0.04226525 0.3669098 -0.2983773 -0.25945768 0.433967 -0.3363888 -0.3511469
0.32351363 0.08391744 0.43098727 0.33588877 0.11264327 -0.024671908 -0.2966947 -0.09781489
0.3833659 -0.21064854 0.34790733 -0.14583744 0.20420341 -0.46665084 0.36956638 0.33599013
00000000: dc11 53be 458c 31be 287f 8fbd d9bb 693c
00000010: 9d51 82bd a217 a9be 6404 aa3c b214 37be
00000020: 41e4 ac3e 541e 2d3d 9adb bb3e e9c4 98be
00000030: a3d7 84be ec30 de3e 273b acbe 87c9 b3be
00000040: 94a3 a53e e8dc ab3d 5daa dc3e 9df9 ab3e
00000050: 84b1 e63d be1c cabc 5ee8 97be 2c53 c8bd
00000060: 8948 c43e 40b4 57be e920 b23e 6956 15be
00000070: b31a 513e dcec eebe ce37 bd3e e606 ac3e

embed_e_in.f.0.weight f4 [32, 6]
-0.22607097 0.30447567 -0.22960624 -0.13943109 -0.032889813 -0.007015958 -0.33388945 0.15002555
0.07452434 0.07338402 0.22681667 0.34757146 -0.39252245 0.33243662 0.30417204 0.22349088
0.09437906 -0.19665635 0.30115238 0.055158656 -0.32633692 -0.16476424 0.2642504 0.20395781
0.18757446 -0.13838579 0.12193354 0.058973752 -0.2983667 0.21541543 0.020452747 -0.24648201
0.36243105 0.06675202 -0.010839841 -0.17135057 0.37090373 0.26626465 0.25776723 0.088119544
0.35869297 -0.22813459 0.17979404 0.113376856 0.06435572 0.26847064 0.2256322 -0.1592004
0.20427932 -0.2935284 -0.09247924 0.33176103 0.2017133 0.06651061 -0.12463464 -0.36086088
-0.02980321 0.15697308 0.16548868 0.31010416 0.11310339 0.2952682 0.29876384 0.20550725
-0.21214177 0.09532305 -0.3419929 -0.095499545 -0.06779867 -0.038206425 0.06839327 -0.22517967
0.0051159514 0.0068210596 -0.020668497 0.11960863 -0.10121717 -0.03388503 0.11370199 -0.036569107
-0.15944292 0.26899126 -0.009184966 0.11369413 -0.025984988 0.010492848 0.13164265 0.3967127
-0.3815839 -0.0210666 0.35218832 -0.21261446 -0.2907296 0.3368307 0.004577595 0.0005759233
-0.17647247 0.18400148 0.17942971 0.33721292 0.18337587 0.2637868 0.29194263 -0.04721602
-0.23771891 -0.10882341 -0.3868707 -0.352805 -0.1397406 0.05489612 0.26786724 0.3926955
0.38967183 0.25808227 0.08592777 -0.119267635 -0.36276886 -0.32039958 0.1590144 -0.17805462
0.27792686 -0.3199283 -0.3065555 0.092610985 0.2672 0.09903681 0.14860883 0.1578097
-0.03976371 0.29910132 -0.2550222 -0.37641218 -0.27433053 -0.030515816 -0.19785316 -0.038248908
0.016656514 -0.04767987 -0.004774519 0.08705956 0.3974792 -0.08917525 -0.09807749 0.41676584
-0.17695554 0.22955829 0.08693391 -0.21228425 -0.37865752 -0.21394461 -0.042601466 -0.31608966
-0.1935755 0.07434979 -0.09046279 0.271664 0.31967196 0.012750223 0.35788092 0.2957013
0.37199855 -0.23031849 -0.18846703 -0.13552412 -0.111497745 -0.14003193 0.019101914 -0.19866395
0.23352596 0.35112283 0.12058168 -0.14438958 -0.3483034 -0.23945633 -0.39919826 -0.3868905
0.16501436 0.23450275 0.23158273 -0.13500684 0.030326188 0.19391507 -0.37378454 -0.38610741
0.3949003 -0.38890398 -0.19742112 -0.3761409 0.2040226 -0.31879577 0.0011430962 0.40559343
00000000: 267f 67be 3ce4 9b3e e61d 6bbe 06c7 0ebe
00000010: 78b7 06bd 1fe6 e5bb 8ff3 aabe 4ca0 193e
00000020: 38a0 983d 5c4a 963d a142 683e e3f4 b13e
00000030: b4f8 c8be 2235 aa3e 70bc 9b3e cbda 643e
00000040: cf49 c13d 4860 49be a530 9a3e 0bee 613d
00000050: a215 a7be f5b7 28be d44b 873e 51da 503e
00000060: 8513 403e 01b5 0dbe 4bb8 f93d 768e 713d
00000070: 85c3 98be dd95 5c3e 858c a73c c865 7cbe
00000080: 9090 b93e 48b5 883d 9799 31bc 8676 2fbe
00000090: 18e7 bd3e d753 883e 11fa 833e 0578 b43d
000000a0: 9ba6 b73e 1d9c 69be ee1b 383e 2032 e83d
000000b0: efcc 833d fc74 893e 210c 673e 6e05 23be
000000c0: 992e 513e 5b49 96be c165 bdbd 95dc a93e
000000d0: ee8d 4e3e b736 883d 7240 ffbd c2c2 b8be
000000e0: dd25 f4bc 8dbd 203e dd75 293e f9c5 9e3e
000000f0: c0a2 e73d 652d 973e 93f7 983e 7e70 523e
00000100: b13b 59be bb38 c33d b219 afbe 4495 c3bd
00000110: 07da 8abd 577e 1cbd c511 8c3d 8095 66be
00000120: b6a3 a73b 3283 df3b fb50 a9bc 5ff5 f43d
00000130: f34a cfbd 07cb 0abd 97dc e83d 7dc9 15bd
00000140: 0145 23be 39b9 893e 8a7c 16bc 78d8 e83d
00000150: 78de d4bc 32ea 2b3c 55cd 063e ed1d cb3e
00000160: f75e c3be dd93 acbc 0752 b43e 9bb7 59be
00000170: 83da 94be 1375 ac3e a6ff 953b 8ff9 163a
00000180: 33b5 34be e26a 3c3e 6cbc 373e 2ca7 ac3e
00000190: e2c6 3b3e 100f 873e 8179 953e 9665 41bd
000001a0: 966c 73be cfde debd eb13 c6be dba2 b4be
000001b0: 2918 0fbe c1da 603d e525 893e 620f c93e
000001c0: 1183 c73e 5c23 843e e6fa af3d 9742 f4bd
000001d0: d7bc b9be 6a0b a4be acd4 223e f353 36be
000001e0: 6e4c 8e3e a4cd a3be d8f4 9cbe d4aa bd3d
000001f0: 70ce 883e d0d3 ca3d ea2c 183e de98 213e
00000200: 46df 22bd cf23 993e 4592 82be 19b9 c0be
00000210: 0d75 8cbe 4efc f9bc 059a 4abe e3aa 1cbd
00000220: 3e73 883c f84b 43bd 9173 9cbb 484c b23d
00000230: 6582 cb3e 83a1 b6bd dadc c8bd 5562 d53e
00000240: d533 35be 5411 6b3e 680a b23d 0b61 59be
00000250: 66df c1be 4c14 5bbe e07e 2ebd 81d6 a1be
00000260: a838 46be b444 983d 8e44 b9bd 8b17 8b3e
00000270: 0bac a33e 50e6 503c 2b3c b73e 2966 973e
00000280: 9876 be3e 9cd8 6bbe 80fd 40be d6c6 0abe
00000290: ee58 e4bd 8864 0fbe 9e7b 9c3c 906e 4bbe
000002a0: 6e21 6f3e 5fc6 b33e 87f3 f63d ddda 13be
000002b0: d354 b2be 0a34 75be b763 ccbe 8316 c6be
000002c0: 86f9 283e 7d21 703e 0624 6d3e 3c3f 0abe
000002d0: a06e f83c ac91 463e b060 bfbe dfaf c5be
000002e0: 5f30 ca3e 6c1e c7be c328 4abe 8a95 c0be
000002f0: 4deb 503e 3339 a3be f2d3 953a f1a9 cf3e

embed_e_in.f.0.bias f4 [32]
0.2290973 0.3265957 0.30384654 0.066293225 0.05981578 -0.11873517 0.0060650255 0.16103573
-0.30466235 0.24892278 -0.06294587 0.3042669 0.3017644 0.30872273 0.06861206 -0.29725122
0.15939005 0.18189493 0.40411425 -0.3610824 0.13930453 0.35022882 0.14785063 -0.21031927
0.12742317 -0.060510874 0.101844944 -0.3239404 -0.12345962 0.22207054 -0.19117258 -0.22676909
00000000: 7c98 6a3e 8d37 a73e c691 9b3e bec4 873d
00000010: 6401 753d 6d2b f3bd 1fbd c63b 8de6 243e
00000020: b4fc 9bbe 9de5 7e3e c4e9 80bd dfc8 9b3e
00000030: dd80 9a3e e810 9e3e 7b84 8c3d 5031 98be
00000040: 2537 233e aa42 3a3e 10e8 ce3e cbdf b8be
00000050: d9a5 0e3e 3151 b33e 2866 173e ef5d 57be
00000060: 387b 023e 40da 77bd 1594 d03d 84db a5be
00000070: 66d8 fcbd 7666 633e bfc2 43be 2836 68be

embed_v_in.f.0.weight f4 [32, 3]
0.08975447 -0.3707629 0.40781683 0.05966758 0.5419197 0.52703315 0.14157012 -0.16047691
-0.5245123 -0.4034426 0.31831065 -0.31016153 -0.37449765 -0.43686032 0.3861679 0.30757636
0.35152614 -0.19181125 0.4549302 -0.48203933 0.15528268 0.39197642 0.40729925 0.5360237
0.41270044 0.40372112 0.069216184 0.41245642 0.5368927 -0.48889565 -0.32460552 0.11277921
-0.45772138 0.4771238 -0.5185558 0.41515568 0.2933543 -0.4942376 0.008524291 0.4309083
0.19374238 -0.34933442 -0.26925614 0.5830348 -0.5247252 0.045408994 -0.006996523 -0.2664032
-0.3080625 -0.5615995 -0.51087904 0.15816042 -0.18122897 0.43698588 -0.1287714 0.32329503
-0.21993488 -0.13547806 0.2978682 0.07696299 -0.067837365 0.14866787 -0.1138534 0.07426857
-0.10499121 0.49984962 -0.43871695 0.128171 -0.16823164 -0.45580626 0.16444495 0.049677864
0.54624546 0.4007341 0.43212593 -0.1991898 0.06087182 -0.40820205 0.12013078 -0.33856368
-0.34521037 0.32400477 -0.049383875 -0.3103114 -0.46908307 0.060358964 0.29169846 -0.36271372
-0.039537042 -0.20815025 0.2541284 0.13793975 -0.28371438 0.33857632 -0.098697245 -0.20269695
00000000: 31d1 b73d a3d4 bdbe 5ecd d03e fe65 743d
00000010: 40bb 0a3f a5eb 063f c2f7 103e 0f54 24be
00000020: 7046 06bf 0790 cebe 9df9 a23e 7ecd 9ebe
00000030: 28be bfbe 28ac dfbe cdb7 c53e a67a 9d3e
00000040: 3cfb b33e 2b6a 44be 9cec e83e dccd f6be
00000050: 6c02 1f3e 22b1 c83e 8789 d03e d938 093f
00000060: 794d d33e 89b4 ce3e 37c1 8d3d 7d2d d33e
00000070: cd71 093f 8850 fabe b232 a6be c9f8 e63d
00000080: 755a eabe 9249 f43e 13c0 04bf 498f d43e
00000090: 8932 963e b60c fdbe 78a9 0b3c 03a0 dc3e
000000a0: 6764 463e f6db b2be f1db 89be c541 153f
000000b0: 6454 06bf c8fe 393d 1743 e5bb 0066 88be
000000c0: 5eba 9dbe fcc4 0fbf f8c8 02bf cef4 213e
000000d0: 1694 39be 9dbc df3e a6dc 03be ed86 a53e
000000e0: 9c36 61be c3ba 0abe 2e82 983e c69e 9d3d
000000f0: 51ee 8abd 643c 183e f92b e9bd 1f1a 983d
00000100: a205 d7bd 4aec ff3e 829f e0be 423f 033e
00000110: ea44 2cbe 705f e9be 4264 283e 047b 4b3d
00000120: bed6 0b3f 052d cd3e 9c3f dd3e 69f8 4bbe
00000130: bb54 793d dcff d0be 2007 f63d 3858 adbe
00000140: 6abf b0be f4e3 a53e bf46 4abd 23e1 9ebe
00000150: a82b f0be f63a 773d 8059 953e 9db5 b9be
00000160: 98f1 21bd 5725 55be 1e1d 823e 1440 0d3e
00000170: 0343 91be e059 ad3e c821 cabd ca8f 4fbe

embed_v_in.f.0.bias f4 [32]
-0.5833907 -0.1977842 0.5708407 -0.14096443 0.046142206 -0.58280796 -0.18698569 0.106821746
0.119532235 -0.24846603 0.10862348 -0.5740406 0.23129466 -0.31487283 0.06045138 0.005529822
0.13054684 -0.2559474 0.15546815 -0.4492698 -0.0867646 0.29751834 0.13124363 -0.5491912
0.41923344 -0.43740714 0.54683137 0.23976149 -0.45310026 -0.34890997 -0.23681068 0.12318021
00000000: 1859 15bf f187 4abe 9e22 123f fb58 10be
00000010: 9cff 3c3d e732 15bf 2d79 3fbe 5cc5 da3d
00000020: 51cd f43d e16d 7ebe fd75 de3d 53f4 12bf
00000030: 82d8 6c3e 0337 a1be de9b 773d 8233 b53b
00000040: 12ae 053e 8a0b 83be 0b33 1f3e b106 e6be
00000050: a3b1 b1bd 5354 983e bb64 063e cb97 0cbf
00000060: c4a5 d63e d4f3 dfbe 24fd 0b3f 0984 753e
00000070: c2fc e7be 54a4 b2be 807e 72be e845 fc3d

F2E.mlp.f.0.weight f4 [32, 64]
0.007265126 -0.056754116 -0.0951973 -0.10659741 -0.08704552 -0.0504484 -0.037274618 0.019927826
0.020847576 -0.025030779 -0.037219547 0.016145684 0.09493648 -0.14897145 0.0749672 -0.023909735
-0.12456094 -0.13793886 0.06551912 0.07304327 0.06007035 -0.114123404 -0.012802071 0.06320453
-0.06481987 0.0022627446 0.07906945 0.002025698 0.1069351 -0.10493933 0.0061555286 -0.14609054
0.011926054 0.03815203 -0.035262533 0.05700474 -0.043951787 0.0574033 0.044586666 -0.030481638
-0.028357247 -0.00432786 0.05027527 -0.07100418 0.14066342 -0.07401561 0.021254573 0.09724063
-0.106730945 -0.03678659 0.065066114 0.050018284 -0.08185624 -0.044802595 -0.015661368 -0.111867204
0.07819552 -0.092434764 -0.09590081 -0.090134375 -0.1039601 0.106867164 -0.12074774 -0.057069264
-0.0063271564 -0.10912511 -0.018235521 0.10721366 -0.10695149 -0.038028456 -0.084802866 0.07751221
0.08318024 0.067326136 -0.05907685 0.0038534903 -0.03435234 0.054920606 -0.09503486 -0.09550024
0.04972986 0.079883695 0.058700863 0.08695772 -0.07541425 -0.0139097655 -0.0672563 0.042280953
-0.0810655 -0.055357166 -0.102253996 0.059458964 0.020551175 0.041136798 -0.021768162 -0.0052972315
-0.13242361 -0.082739115 0.011141063 0.13278823 -0.077295884 0.05434001 0.14814477 0.063130654
0.09927583 -0.030705381 -0.03151647 -0.12335011 0.11329202 0.0066607124 0.016652804 -0.09431741
0.037786536 0.050152227 0.10612716 -0.0077284575 -0.034307696 -0.025795454 0.062149607 -0.10786964
0.063006684 0.082835294 0.041537065 0.014823101 -0.031457927 0.083117895 0.04665175 0.015909497
0.016915929 0.0032669024 -0.003240642 -0.14299722 0.07566455 -0.0019280774 0.007037847 0.020294502
-0.017586965 -0.022511937 0.058283474 0.045558333 0.05827434 -0.115565166 0.0925684 -0.11748353
-0.10992998 -0.0992213 0.06369297 -0.059964553 -0.07972552 -0.13852423 -0.09414592 -0.039058294
0.08289071 -0.026505392 0.06996992 0.060479514 -0.04067227 -0.05454648 -0.04268517 -0.08579518
0.028168937 -0.04508458 0.114811175 -0.0778132 0.004485967 -0.041162543 -0.0655312 -0.11841481
0.042074822 0.03306725 0.058008756 0.034462903 0.056271724 0.07179998 0.0071280305 -0.033039782
-0.07067267 -0.040230434 0.09615142 0.06349507 0.03698959 0.087034754 0.06878784 0.12867579
-0.05998149 -0.07056216 0.0948504 0.08002151 -0.01442668 -0.07900406 0.036989193 -0.07927369
0.052662753 -0.097535275 -0.12058856 -0.048430324 0.05717499 -0.10044487 0.108817086 -0.08548864
0.11687279 0.0830322 0.008006836 -0.11881729 -0.03128788 0.111908 0.08197994 -0.086292826
-0.09706973 0.06758367 -0.02992001 0.036725525 0.062167637 -0.09210992 -0.09383167 0.08622205
0.045821227 -0.032876953 -0.12040507 0.0073274216 0.06477622 -0.020614438 0.057932734 0.07623387
0.09305323 0.11442893 -0.055218074 -0.119247 -0.002710963 0.08808959 0.038141407 -0.065849885
0.038637705 -0.1211696 -0.0026247606 -0.041605778 0.098094985 0.023162846 0.06483445 -0.08906382
0.090417214 0.09502603 0.067738205 -0.0055371337 -0.12232631 0.020498248 -0.11309191 0.11916806
-0.06887202 0.08242445 -0.077393666 0.07231337 0.09702181 -0.020133575 0.07783987 -0.073943704
00000000: 4b10 ee3b 0177 68bd cdf6 c2bd be4f dabd
00000010: ec44 b2bd fba2 4ebd 45ad 18bd ae3f a33c
00000020: 89c8 aa3c 590d cdbc 8673 18bd f443 843c
00000030: 0f6e c23d f98b 18be 6788 993d 59de c3bc
00000040: ce19 ffbd d83f 0dbe e32e 863d b697 953d
00000050: 540c 763d 88b9 e9bd c7bf 51bc 6071 813d
00000060: 48c0 84bd 8e4a 143b 2aef a13d 93c1 043b
00000070: ca00 db3d 6eea d6bd 51b4 c93b c298 15be
00000080: 7f65 433c 4e45 1c3d 726f 10bd cd7d 693d
00000090: ca06 34bd b91f 6b3d 82a0 363d a1b4 f9bc
000000a0: 754d e8bc b9d0 8dbb 71ed 4d3d a46a 91bd
000000b0: 120a 103e 7f95 97bd 121e ae3c 1826 c73d
000000c0: c195 dabd 89ad 16bd 6241 853d f9df 4c3d
000000d0: 3fa4 a7bd ed82 37bd 454c 80bc a21a e5bd
000000e0: f924 a03d 704e bdbd a567 c4bd 5f98 b8bd
000000f0: 08e9 d4bd 2cdd da3d 974a f7bd 76c1 69bd
00000100: 0954 cfbb fc7c dfbd a962 95bc d692 db3d
00000110: 6209 dbbd bac3 1bbd 20ad adbd b9be 9e3d
00000120: 675a aa3d 49e2 893d 91fa 71bd d78a 7c3b
00000130: 0ab5 0cbd 6ef4 603d a3a1 c2bd a195 c3bd
00000140: 8ab1 4b3d 109a a33d 5170 703d e416 b23d
00000150: c972 9abd c9e5 63bc acbd 89bd cb2e 2d3d
00000160: ab05 a6bd 32be 62bd 8b6a d1bd 3e8b 733d
00000170: f05a a83c 0f7f 283d 2553 b2bc 6694 adbb
00000180: 0e9a 07be 2073 a9bd 0189 363c a3f9 073e
00000190: 4e4d 9ebd a193 5e3d 43b3 173e a54a 813d
000001a0: 2051 cb3d da89 fbbc 6a17 01bd fc9e fcbd
000001b0: a605 e83d 1b42 da3b 766b 883c 7c29 c1bd
000001c0: 0ec6 1a3d 6c6c 4d3d 3259 d93d 003f fdbb
000001d0: 3a86 0cbd fd50 d3bc 9690 7e3d c2ea dcbd
000001e0: a609 813d 8da5 a93d c522 2a3d 98dc 723c
000001f0: 07da 00bd b739 aa3d e815 3f3d a254 823c
00000200: 4693 8a3c 8719 563b f360 54bb dd6d 12be
00000210: 04f6 9a3d 8bb7 fcba bd9d e63b a840 a63c
00000220: 8a12 90bc f46a b8bc a7ba 6e3d 609b 3a3d
00000230: 13b1 6e3d 6ead ecbd 8094 bd3d 349b f0bd
00000240: f822 e1bd 8934 cbbd 7671 823d 649d 75bd
00000250: 2247 a3bd 4cd9 0dbe 93cf c0bd 97fb 1fbd
00000260: 9bc2 a93d d621 d9bc 644c 8f3d 5eb9 773d
00000270: f797 26bd 216c 5fbd a5d6 2ebd 62b5 afbd
00000280: 8bc2 e63c 9caa 38bd 1f22 eb3d 875c 9fbd
00000290: 05ff 923b 0e9a 28bd 3935 86bd 7783 f2bd
000002a0: a656 2c3d 8671 073d 979a 6d3d f928 0d3d
000002b0: 2e7d 663d de0b 933d 4192 e93b b954 07bd
000002c0: d5bc 90bd abc8 24bd 09eb c43d b409 823d
000002d0: 6582 173d 473f b23d a4e0 8c3d 96c3 033e
000002e0: 27af 75bd e582 90bd ed40 c23d 51e2 a33d
000002f0: e25d 6cbc e1cc a1bd fb81 173d 3f5a a2bd
00000300: e6b4 573d 93c0 c7bd 23f7 f6bd e05e 46bd
00000310: 5330 6a3d 0ab6 cdbd 7edb de3d ab14 afbd
00000320: 005b ef3d c90c aa3d 1b2f 033c 7b56 f3bd
00000330: b827 00bd 0630 e53d 19e5 a73d 4bba b0bd
00000340: 7fcc c6bd 4f69 8a3d cf1a f5bc 816d 163d
00000350: 7ea3 7e3d 20a4 bcbd d22a c0bd 3095 b03d
00000360: 0aaf 3b3d fca9 06bd ef96 f6bd de1a f03b
00000370: 65a9 843d 9cdf a8bc e04a 6d3d 8120 9c3d
00000380: b192 be3d b759 ea3d 592c 62bd c537 f4bd
00000390: 69aa 31bb 5168 b43d 2a3a 1c3d 4edc 86bd
000003a0: 9242 1e3d c427 f8bd 2d04 2cbb d26a 2abd
000003b0: 06e6 c83d 02c0 bd3c edc7 843d 1867 b6bd
000003c0: a92c b93d 029d c23d 54ba 8a3d d870 b5bb
000003d0: 3786 fabd f1eb a73c bb9c e7bd 620e f43d
000003e0: c60c 8dbd 26ce a83d 9280 9ebd 0819 943d
000003f0: 5fb3 c63d 2bef a4bc 826a 9f3d cc6f 97bd

F2E.mlp.f.0.bias f4 [32]
0.037193123 -0.07067756 0.05864068 -0.0013612257 0.094326206 0.1297143 0.091283135 -0.016600115
-0.05837903 0.002166267 -0.07341877 0.009751984 -0.09998548 0.027873095 0.049669545 0.045489546
0.0056745606 -0.022718541 -0.106659055 -0.13443467 -0.07561904 0.1347485 0.0044764667 -0.060700394
0.11906065 0.013073811 -0.031378344 0.04607273 -0.026965903 0.111385375 0.11369194 0.028010419
00000000: d157 183d 66bf 90bd 3631 703d 286b b2ba
00000010: 192e c13d d3d3 043e a7f2 ba3d f7fc 87bc
00000020: da1e 6fbd eef7 0d3b 955c 96bd c9c6 1f3c
00000030: 30c5 ccbd 1e56 e43c 4b72 4b3d 3f53 3a3d
00000040: aaf1 b93b 3c1c babc 1070 dabd 3ea9 09be
00000050: 28de 9abd 83fb 093e 53af 923b faa0 78bd
00000060: 12d6 f33d 8a33 563c 9486 00bd c2b6 3c3d
00000070: 99e7 dcbc 041e e43d 52d7 e83d 1b76 e53c

E2V.mlp.f.0.weight f4 [32, 64]
0.020735588 0.045866083 0.014087635 -0.12764873 0.13033521 -0.1281099 -0.0610589 -0.041593798
0.08911614 0.0009429893 -0.03990616 -0.047950733 -0.07583722 -0.0205004 0.07522001 0.022193097
0.061203882 -0.09715123 -0.06254624 -0.08983619 -0.0972503 -0.023338681 0.09441523 -0.039435223
-0.02493656 0.11562003 0.07694368 -0.055660553 -0.124668896 -0.006985042 0.017943177 -0.07472957
-0.051446818 -0.0128541915 -0.074669346 0.019587975 0.055014357 -0.07082488 -0.07444018 -0.11339877
-0.056398615 0.080253184 0.055946577 -0.0923772 -0.05096309 -0.056718517 -0.12051043 0.10022957
-0.00716792 0.068960615 0.050109938 -0.10534695 -0.08625596 -0.053153314 0.022421155 0.14359298
0.0852506 -0.04214118 -0.079268366 0.034328792 -0.10486633 0.08551883 0.04699947 0.001439484
-0.12590767 0.053910226 0.07589612 -0.10471815 -0.032976646 0.109846435 -0.06606461 -0.12272399
0.08102252 -0.07754146 -0.08008008 -0.0046800533 0.1052058 0.0995263 0.093576275 -0.10470096
-0.060700133 0.065440975 0.0348779 0.019171407 -0.045207053 -0.076988526 -0.052601226 0.13885635
-0.06497494 0.064699546 -0.051294167 -0.04414074 0.09404037 0.062280804 -0.05112809 -0.08870162
0.0906006 -0.05226509 -0.06390945 0.09143043 -0.063006 -0.020443765 -0.088520326 0.10261923
-0.122873835 -0.021391517 -0.011126419 -0.12756342 -0.08928178 -0.0006445348 0.1418627 0.12887883
0.032954976 -0.06507633 0.0599453 -0.11500553 -0.0026910356 -0.066429235 -0.011707701 0.0004816511
0.014786168 0.105022445 -0.08422258 -0.031130157 -0.04154855 0.025068171 -0.027581234 0.09989865
-0.10857184 -0.09608053 0.060685955 -0.12519969 -0.11558835 0.015627384 0.029936131 0.1101574
-0.053024292 -0.121612675 0.042428102 -0.04001504 0.025826657 0.018331785 0.048656918 0.043255206
0.0033370503 -0.013031403 0.106156364 -0.013423707 0.03354479 -0.080694385 0.061764654 -0.0035735564
0.019983448 -0.14717188 0.040112134 -0.08810282 0.0023851083 -0.1243807 -0.038770646 0.010842885
0.0016617358 0.05751518 -0.09427786 0.0075979233 0.08476379 0.0010708487 0.13055326 -0.042997237
0.091027796 0.09919929 -0.12666577 0.01701391 -0.014242467 -0.06771718 -0.103865385 0.07246066
-0.0006742387 0.0009393098 -0.03905894 0.064252116 0.013098395 0.10885761 0.07217133 0.007955471
-0.08378758 -0.05831456 0.033443656 0.117311 0.0726304 0.040861122 -0.08242492 -0.10436503
0.04131131 -0.048615605 -0.088659555 0.102473035 0.08937497 0.08123444 -0.117277846 0.07087631
0.11545372 -0.06020451 -0.11101214 -0.02884887 0.05435689 -0.11907923 0.09131554 0.020704769
0.011941546 -0.053205974 0.07816235 0.09916791 -0.09395533 0.071409285 -0.10874479 -0.070094556
-0.10807335 -0.0801364 -0.0077975304 0.04098759 0.043031298 0.02634917 -0.029328078 -0.084037036
-0.12146208 -0.110664375 0.09590906 -0.040819634 0.054979503 0.0043715504 -0.096569575 0.13752024
-0.044932023 -0.05574139 -0.033573944 -0.0010566001 -0.12587209 0.035856504 -0.08494522 0.046405956
-0.10410726 -0.013212255 -0.09011378 -0.089575 0.0636599 -0.026611896 -0.039666086 0.07153582
0.10562827 -0.06322301 -0.00047492993 -0.10134362 0.048943326 0.13990943 -0.084209606 0.071585685
00000000: aedd a93c 13de 3b3d d3cf 663c 59b6 02be
00000010: 9876 053e 3e2f 03be e618 7abd 425e 2abd
00000020: 8682 b63d f132 773a a474 23bd fd67 44bd
00000030: 8b50 9bbd 74f0 a7bc f30c 9a3d 4cce b53c
00000040: ecb0 7a3d 39f7 c6bd 3e18 80bd 09fc b7bd
00000050: 2a2b c7bd c330 bfbc c65c c13d d486 21bd
00000060: c247 ccbc 32ca ec3d a694 9d3d 52fc 63bd
00000070: 6852 ffbd c7e2 e4bb 92fd 923c d10b 99bd
00000080: e6b9 52bd 639a 52bc 3eec 98bd f676 a03c
00000090: bc56 613d a20c 91bd 1874 98bd 9d3d e8bd
000000a0: 3c02 67bd c85b a43d 3d28 653d 4230 bdbd
000000b0: acbe 50bd ad51 68bd 2cce f6bd 2945 cd3d
000000c0: dfe0 eabb 393b 8d3d 1440 4d3d 24c0 d7bd
000000d0: f7a6 b0bd 4ab7 59bd 92ac b73c 0a0a 133e
000000e0: de97 ae3d 3b9c 2cbd 7457 a2bd 599c 0c3d
000000f0: 29c4 d6bd 7f24 af3d 8482 403d 11ad bc3a
00000100: f1ed 00be f8d0 5c3d 6d6f 9b3d 7876 d6bd
00000110: 8512 07bd 2bf7 e03d e24c 87bd b756 fbbd
00000120: 23ef a53d 0fce 9ebd 0601 a4bd 225b 99bb
00000130: 2376 d73d 72d4 cb3d eba4 bf3d 756d d6bd
00000140: b4a0 78bd eb05 863d 21dc 0e3d 5b0d 9d3c
00000150: 082b 39bd 29ac 9dbd 6274 57bd 5c30 0e3e
00000160: 9511 85bd 3281 843d d519 52bd eccc 34bd
00000170: 3d98 c03d 281a 7f3d b06b 51bd 32a9 b5bd
00000180: cf8c b93d eb13 56bd f5e2 82bd e13f bb3d
00000190: 4a09 81bd af79 a7bc 254a b5bd 082a d23d
000001a0: 47a5 fbbd 433d afbc 954b 36bc fc9f 02be
000001b0: 5ed9 b6bd 00f6 28ba 7544 113e d0f8 033e
000001c0: ccfb 063d bd46 85bd 3489 753d 0588 ebbd
000001d0: 165c 30bb 0d0c 88bd a8d1 3fbc 1e86 fc39
000001e0: af41 723c 0216 d73d e37c acbd ac04 ffbc
000001f0: d02e 2abd c45b cd3c 0af2 e1bc aa97 cc3d
00000200: ea5a debd dec5 c4bd d691 783d 5934 00be
00000210: 96b9 ecbd 0005 803c 9e3c f53c 349a e13d
00000220: 0030 59bd 1110 f9bd 17c9 2d3d d0e6 23bd
00000230: 6d92 d33c 8a2c 963c 7a4c 473d 5f2c 313d
00000240: 6ab2 5a3b aa81 55bc 8268 d93d 1cef 5bbc
00000250: 4366 093d 1943 a5bd effc 7c3d 5432 6abb
00000260: 54b4 a33c 3ab4 16be 9f4c 243d 406f b4bd
00000270: 7a4f 1c3b 4fbb febd f8cd 1ebd 5ba6 313c
00000280: 9ace d93a 0a95 6b3d c014 c1bd 00f8 f83b
00000290: a398 ad3d b85b 8c3a c1af 053e df1d 30bd
000002a0: c86c ba3d ff28 cb3d acb4 01be c160 8b3c
000002b0: 3c59 69bc 4eaf 8abd 60b7 d4bd 4166 943d
000002c0: 65bf 30ba 033c 763a 44fc 1fbd 9d96 833d
000002d0: a79a 563c bdf0 de3d 90ce 933d aa57 023c
000002e0: d398 abbd 40db 6ebd 37fc 083d c040 f03d
000002f0: 3fbf 943d fe5d 273d 65ce a8bd 55bd d5bd
00000300: 0c36 293d 2821 47bd 2493 b5bd 62dd d13d
00000310: 390a b73d 3e5e a63d 5e2f f0bd 9927 913d
00000320: 0073 ec3d 0199 76bd 555a e3bd 7754 ecbc
00000330: 55a5 5e3d d0df f3bd a403 bb3d 0c9d a93c
00000340: 79a6 433c 82ee 59bd 9513 a03d 8c18 cb3d
00000350: a76b c0bd 083f 923d 97b5 debd bc8d 8fbd
00000360: 8f55 ddbd 8e1e a4bd 6d82 ffbb 9ae2 273d
00000370: 9641 303d 37da d73c 7041 f0bc 9c1b acbd
00000380: 1cc1 f8bd 01a4 e2bd f86b c43d 7d32 27bd
00000390: 3032 613d 393f 8f3b 45c6 c5bd 1bd2 0c3e
000003a0: a40a 38bd 1551 64bd d584 09bd 9e7d 8aba
000003b0: 9de4 00be 45de 123d c2f7 adbd 2c14 3e3d
000003c0: 3036 d5bd 3778 58bc 938d b8bd 1973 b7bd
000003d0: 1f60 823d 3101 dabc e878 22bd 5f81 923d
000003e0: a253 d83d 117b 81bd 0400 f9b9 3e8d cfbd
000003f0: cc78 483d 6b44 0f3e 1676 acbd 849b 923d

E2V.mlp.f.0.bias f4 [32]
0.09938618 -0.0024609277 0.054861456 -0.057174068 -0.026206492 -0.13901645 -0.023466203 0.093935646
-0.017799987 0.040218957 0.0526945 0.10284701 0.11558937 -0.054030024 -0.07276411 0.1110308
-0.07977545 -0.031001516 0.055415735 0.134045 0.036606826 -0.03620974 0.059712026 -0.04201091
-0.12947205 0.09739012 0.043268774 0.08971731 0.037090953 -0.091155514 -0.05917419 -0.012811596
00000000: fb8a cb3d 8447 21bb 68b6 603d 5b2f 6abd
00000010: ffae d6bc 545a 0ebe 323c c0bc 5561 c03d
00000020: 47d1 91bc a2bc 243d 30d6 573d 74a1 d23d
00000030: 1fba ec3d 964e 5dbd 5a05 95bd 1e64 e33d
00000040: 5061 a3bd e4f6 fdbc 9cfb 623d 1843 093e
00000050: 0af1 153d aa50 14bd 9994 743d a213 2cbd
00000060: 5294 04be 7974 c73d 993a 313d b6bd b73d
00000070: afec 173d beaf babd a360 72bd bae7 51bc

ffLayers.0.mlp.f.0.weight f4 [32, 64]
-0.038500775 -0.028962603 -0.051113617 -0.05484594 -0.062266845 0.11982294 0.110589385 0.0753226
-0.11261194 0.06068185 0.064142466 0.051105928 0.009764333 -0.051890813 0.06817569 -0.024492946
-0.14787446 0.010505913 -0.029457161 0.14392975 -0.050067034 0.098191544 -0.021516556 0.04813595
-0.059779987 -0.08263216 -0.07120909 0.071136884 0.06110902 0.051857244 -0.008880078 -0.10571147
-0.033011127 0.15052988 0.071615145 0.08407751 0.13613568 0.010050222 0.0033407612 0.058334824
0.014525489 -0.11960057 0.09299243 -0.052014977 -0.12339382 -0.088457055 -0.14227602 -0.10176832
-0.14070554 0.05661216 0.035187595 -0.11297299 0.09575085 -0.10058592 0.07376365 -0.088263504
-0.08277006 -0.005210603 0.006766493 -0.0076186094 -0.034455374 -0.042656787 -0.004231775 0.0047394806
-0.03474626 -0.00044144018 0.13293542 0.0073277885 -0.0011466731 -0.07401622 -0.020706449 0.0036879212
-0.09568295 0.0073124166 -0.059699386 -0.037633236 -0.039784804 -0.13305016 0.085847735 0.059993897
-0.04885349 -0.057452984 -0.03754547 -0.083446234 0.016333496 -0.031286567 -0.12537873 -0.14073831
0.040947583 -0.03654846 -0.1357455 0.011238562 -0.05655838 -0.1220639 -0.013648143 0.027669916
-0.042040605 0.13154419 -0.056791075 0.06954747 -0.04376117 0.017121663 -0.044017255 0.13847598
0.044753794 0.071219616 0.0010668997 -0.096871376 0.086510584 0.048940245 -0.0248688 0.1317224
0.043634843 0.056055814 -0.04320227 0.08899138 -0.0016888259 -0.08031312 0.0730142 -0.058109887
0.12989025 0.09302587 -0.004230183 0.04408109 0.11388928 -0.061663937 0.12248265 -0.02597323
0.060174458 0.035426274 0.117938675 0.063390926 0.013348191 -0.036975186 0.03293163 0.0430253
-0.0011072403 -0.15344058 -0.1122678 -0.04316442 0.025634365 0.01473676 -0.0018101574 0.07615608
0.059732255 0.0587737 0.06585413 0.03682554 -0.06640265 0.0028599747 -0.11028473 -0.0585805
-0.032288965 0.008357009 -0.106506296 -0.012269236 0.045635603 -0.008654657 -0.11454586 0.1318857
0.037660174 -0.051718116 -0.11510247 0.09093072 0.1242492 0.11186648 -0.015454696 0.13313371
-0.05941692 0.07405234 -0.12621595 -0.036713995 -0.0779155 -0.0074507114 0.09027018 0.0077456706
0.026897881 0.0053611216 0.15424731 0.042426407 0.0419574 -0.09979492 0.0073226276 0.07908391
-0.08422834 0.09392534 -0.063754395 -0.07925226 0.04639996 0.03919736 0.027618967 0.09517709
0.06694686 -0.035730306 -0.04350656 0.027119419 0.04493579 0.104356684 0.06519719 -0.06335036
-0.107904986 0.052872725 -0.0072217127 -0.0041553555 0.044012863 0.0034606496 0.08680569 0.118381254
0.047462147 0.033074483 0.14784497 -0.12241345 -0.084450275 -0.04684196 -0.12244792 -0.13871674
-0.10365859 0.08054654 0.07152889 0.08814926 -0.008130085 0.10658969 0.018939922 -0.053950995
0.118717596 0.12573604 -0.0075231413 -0.10439506 0.0045836475 -0.11005666 0.044741903 0.11734518
-0.11680715 -0.12522338 -0.11603452 -0.03492337 0.09564698 0.069374666 0.028103651 -0.021070683
-0.049463604 -0.067949265 -0.02933225 0.07860228 -0.04573326 0.08769275 -0.118004285 0.056496203
-0.08585191 0.004383893 -0.04698959 0.1438512 0.097207256 -0.11909821 0.076772615 -0.07862199
00000000: fdb2 1dbd fb42 edbc 835c 51bd 23a6 60bd
00000010: 850b 7fbd bb65 f53d b07c e23d bc42 9a3d
00000020: 17a1 e6bd 888d 783d 205d 833d 7354 513d
00000030: 95fa 1f3c 768b 54bd b29f 8b3d 6ea5 c8bc
00000040: 676c 17be fe20 2c3c 2550 f1bc 5262 133e
00000050: 1713 4dbd a618 c93d 7d43 b0bc 342a 453d
00000060: dcdb 74bd 0d3b a9bd 12d6 91bd 37b0 913d
00000070: 744d 7a3d 4368 543d bf7d 11bc 417f d8bd
00000080: ad36 07bd 8124 1a3e f6aa 923d d430 ac3d
00000090: 2767 0b3e b0a9 243c acf0 5a3b 7ff0 6e3d
000000a0: 51fc 6d3c 25f1 f4bd d172 be3d a80d 55bd
000000b0: e6b5 fcbd f928 b5bd ceb0 11be e96b d0bd
000000c0: 1d15 10be 27e2 673d de20 103d 625e e7bd
000000d0: 0619 c43d feff cdbd 6611 973d 7fc3 b4bd
000000e0: 5983 a9bd b5bd aabb 75b9 dd3b 87a5 f9bb
000000f0: 1421 0dbd e2b8 2ebd b4aa 8abb a54d 9b3b
00000100: 1852 0ebd 1971 e7b9 3920 083e f21d f03b
00000110: f74b 96ba d195 97bd 92a0 a9bc 0db1 713b
00000120: 6cf5 c3bd ff9c ef3b 5887 74bd 4f25 1abd
00000130: 64f5 22bd 4d3e 08be f0d0 af3d 29bc 753d
00000140: 991a 48bd d253 6bbd 47c9 19bd dce5 aabd
00000150: d3cd 853c 5826 00bd 4863 00be b41d 10be
00000160: a7b8 273d d7b3 15bd de00 0bbe f221 383c
00000170: c3a9 67bd a3fc f9bd 769c 5fbc 05ac e23c
00000180: c532 2cbd 85b3 063e c29d 68bd e76e 8e3d
00000190: ea3e 33bd bb42 8c3c 704b 34bd a6cc 0d3e
000001a0: c14f 373d 97db 913d 37d7 8b3a 8064 c6bd
000001b0: 762c b13d 9175 483d a7b9 cbbc 3de2 063e
000001c0: 73ba 323d c89a 653d ddf4 30bd 1d41 b63d
000001d0: 985b ddba 347b a4bd 7888 953d a204 6ebd
000001e0: f301 053e 5984 be3d 599d 8abb 5f8e 343d
000001f0: c83e e93d 5393 7cbd 2fd8 fa3d d0c5 d4bc
00000200: 7e79 763d 241b 113d d589 f13d 1ad3 813d
00000210: 5fb2 5a3c 4b73 17bd 51e3 063d 4c3b 303d
00000220: d220 91ba 871f 1dbe a9ec e5bd 2dcd 30bd
00000230: 29ff d13c 7472 713c ce42 edba b8f7 9b3d
00000240: cfa9 743d b1bc 703d 88de 863d 61d6 163d
00000250: 1dfe 87bd 6a6e 3b3b f6dc e1bd 1bf2 6fbd
00000260: 6f41 04bd d6eb 083c f91f dabd e804 49bc
00000270: 66ec 3a3d 43cc 0dbc 0597 eabd 0c0d 073e
00000280: 8e41 1a3d 60d6 53bd d8ba ebbd e339 ba3d
00000290: 5d76 fe3d 411a e53d b135 7dbc 3454 083e
000002a0: 285f 73bd c1a8 973d c13e 01be 6a61 16bd
000002b0: 2992 9fbd 1925 f4bb 92df b83d 65cf fd3b
000002c0: f258 dc3c 59ac af3b 02f3 1d3e 50c7 2d3d
000002d0: 86db 2b3d 4761 ccbd a7f2 ef3b bff6 a13d
000002e0: e87f acbd ee5b c03d aa91 82bd 024f a2bd
000002f0: e20d 3e3d 698d 203d 2c41 e23c 35ec c23d
00000300: 6f1b 893d f159 12bd ef33 32bd 8b29 de3c
00000310: 970e 383d f5b8 d53d 1b86 853d d5bd 81bd
00000320: 4afd dcbd 1291 583d 1ea4 ecbb a629 88bb
00000330: d546 343d 11cc 623b 2ec7 b13d df71 f23d
00000340: ab67 423d 1c79 073d ac64 173e e7b3 fabd
00000350: 44f4 acbd 5bdd 3fbd fac5 fabd c30b 0ebe
00000360: f44a d4bd 96f5 a43d bd7d 923d 9987 b43d
00000370: 0c34 05bc b24b da3d e527 9b3c b8fb 5cbd
00000380: 3622 f33d f3c0 003e af84 f6bb 14cd d5bd
00000390: 6c32 963b 6365 e1bd 4943 373d ab52 f03d
000003a0: 9638 efbd 8f3a 00be 82a3 edbd cf0b 0fbd
000003b0: 90e2 c33d 4e14 8e3d a139 e63c 6d9c acbc
000003c0: 599a 4abd fc28 8bbd 304a f0bc 3bfa a03d
000003d0: cd52 3bbd 4298 b33d 3bac f1bd 9068 673d
000003e0: 20d3 afbd c3a6 8f3b 2878 40bd bb4d 133e
000003f0: 9914 c73d c3e9 f3bd f63a 9d3d 9104 a1bd

ffLayers.0.mlp.f.0.bias f4 [32]
-0.030497922 0.0032529782 0.038529746 0.029466078 0.0027644422 -0.025201892 -0.10717284 0.041738324
-0.039846595 -0.049544197 0.118797906 -0.11295567 0.15496199 -0.07748566 0.07061094 0.011611385
0.014193414 0.04243592 0.0155918375 -0.042620547 -0.122709125 0.074379265 -0.027060177 0.0057795243
0.06541435 0.032278184 -0.1091222 0.04344201 0.017877545 -0.023606932 0.010490906 0.033677693
00000000: c7d6 f9bc eb2f 553b 5ed1 1d3d d862 f13c
00000010: a52b 353b 3374 cebc 6f7d dbbd cef5 2a3d
00000020: 2f36 23bd dbee 4abd 514c f33d 4d55 e7bd
00000030: 5bae 1e3e cdb0 9ebd 789c 903d ae3d 3e3c
00000040: 7e8b 683c 4ad1 2d3d e874 7f3c e292 2ebd
00000050: ec4e fbbd 2854 983d 4ead ddbc 2a62 bd3b
00000060: f5f7 853d 2136 043d 767b dfbd 40f0 313d
00000070: ee73 923c 5363 c1bc 0de2 2b3c 9ff1 093d

F2F.mlp.f.0.weight f4 [32, 64]
-0.084805325 -0.10169786 -0.12121336 -0.043194875 -0.11791527 -0.116464585 -0.057779282 0.07892376
0.020705923 -0.118751064 0.02292651 -0.10959089 -0.031491563 -0.009214625 -0.058591247 -0.102877945
-0.09596518 -0.0016075075 -0.09299441 0.0033851415 0.014482498 0.10482457 -0.024544522 0.051442146
-0.03053303 -0.11917633 0.10107154 -0.0809169 0.09604308 0.044351608 -0.050598413 -0.07191183
-0.010306254 0.11216578 0.086847976 0.046265498 -0.09819047 0.08637357 0.045971647 -0.09218764
-0.041393876 0.06720936 0.0201696 0.114981234 -0.10246484 0.10562444 -0.013151184 -0.024989203
-0.105740756 0.04717727 -0.029769763 0.00742206 -0.103571236 -0.0013987571 0.058231607 -0.11103578
-0.015967667 -0.055886984 -0.004303336 0.08748539 -0.01232627 -0.0856355 0.120411456 0.0677475
-0.029955745 -0.093877584 -0.03353654 -0.07423605 0.11083412 0.04584855 -0.01268968 0.052501604
-0.10622983 0.04939361 0.05928257 -0.00862509 0.10684255 0.07016465 -0.055680558 -0.009915635
-0.012059122 0.12302832 0.07643166 0.007167712 -0.092790276 0.015998319 0.07213895 -0.1214198
-0.07727468 0.11581081 0.058838934 -0.0973959 -0.03962703 0.05723448 0.0382998 0.0069227964
0.011996999 0.05358264 0.052068755 -0.013043255 0.0032951385 -0.058874816 0.10003056 0.05748734
-0.003987059 0.08594011 -0.06691618 0.030332312 0.10804793 -0.09897536 -0.00998278 0.10946697
-0.030296579 0.015574306 0.043285236 0.060487494 0.07801999 -0.036173165 -0.09656957 0.056980416
0.107052654 0.035228476 -0.11576106 -0.11744778 0.0616899 -0.0064984113 0.0052491575 -0.05512339
0.027561605 -0.030239403 -0.047570944 -0.062197194 -0.025996253 -0.07593696 0.0020591617 -0.06610142
0.11111252 -0.047353223 -0.11118157 -0.008915871 0.0014399439 -0.10505383 0.0017770976 -0.042085037
-0.091877714 -0.0547539 -0.085870475 -0.019436449 -0.07509741 -0.11365673 0.02758409 0.101068795
0.03708826 0.09481333 0.078872696 -0.055657938 0.08611083 -0.052151322 0.07261087 0.009457812
-0.055172414 0.09450063 0.024546742 0.10121639 0.08826718 -0.038650855 0.06222789 0.022911355
0.11349237 -0.012304604 -0.0020551234 0.002120465 0.06649688 -0.020264298 -0.09458491 -0.0015624911
-0.0873442 0.037006766 0.02953428 -0.077027276 0.0016679913 0.10613765 0.124693245 0.04196033
0.06155546 0.10635148 -0.09020737 -0.060238406 0.10558124 -0.06978153 0.0091893375 0.10205822
-0.09180321 0.118838295 0.05427748 -0.07220584 -0.018174306 -0.017711997 -0.117760554 0.051862866
-0.04345703 -0.014611006 -0.062560126 0.0092704445 0.035359427 0.061698973 -0.09048809 -0.10861014
0.08467008 -0.064618975 -0.12287898 0.026883677 -0.04182884 -0.015242964 0.037627816 0.062135726
0.025200471 0.032812074 0.063951045 -0.024424866 0.018764287 0.052859187 0.064859614 0.0010058135
0.055463508 0.038711622 -0.03540632 -0.084930226 0.036369458 0.0031122863 0.015639067 -0.06571762
-0.056279227 0.12460926 -0.019480482 -0.121204644 -0.058618724 0.036268502 0.10809444 -0.097252145
0.09751439 -0.11983402 0.08647524 -0.040064022 -0.010635525 0.046046272 -0.09596814 0.08304173
0.08464947 -0.10405494 0.024800286 -0.049770594 0.06339416 -0.091299176 -0.014944255 0.018493608
00000000: 6aae adbd f846 d0bd b63e f8bd 1ced 30bd
00000010: 907d f1bd fc84 eebd f8a9 6cbd c8a2 a13d
00000020: 789f a93c c233 f3bd 60d0 bb3c 3071 e0bd
00000030: 4cfd 00bd f0f8 16bc 60fd 6fbd acb1 d2bd
00000040: 6489 c4bd 00b3 d2ba da73 bebd 40d9 5d3b
00000050: 0048 6d3c 44ae d63d 9811 c9bc 00b5 523d
00000060: 6820 fabc b812 f4bd 98fe ce3d c2b7 a5bd
00000070: 3cb2 c43d 08aa 353d 4840 4fbd 8246 93bd
00000080: 90db 28bc 2cb7 e53d 5add b13d e480 3d3d
00000090: 1618 c9bd a0e4 b03d c44c 3c3d e0cc bcbd
000000a0: a08c 29bd 10a5 893d b83a a53c 487b eb3d
000000b0: 16d9 d1bd a051 d83d 1078 57bc 28b6 ccbc
000000c0: 9c8e d8bd f43c 413d b8df f3bc c034 f33b
000000d0: 281d d4bd 8056 b7ba 4484 6e3d ba66 e3bd
000000e0: a0ce 82bc c0e9 64bd 0003 8dbb 8a2b b33d
000000f0: 20f4 49bc aa61 afbd 489a f63d 34bf 8a3d
00000100: c065 f5bc e442 c0bd 9c5d 09bd 1209 98bd
00000110: 00fd e23d b0cb 3b3d 60e8 4fbc ec0b 573d
00000120: 068f d9bd f450 4a3d 48d2 723d 4050 0dbc
00000130: 44d0 da3d 7cb2 8f3d 4c11 64bd 3075 22bc
00000140: a093 45bc 46f6 fb3d 3488 9c3d 20df ea3b
00000150: d408 bebd e80e 833c 96bd 933d f2aa f8bd
00000160: 3042 9ebd 382e ed3d 1801 713d 8077 c7bd
00000170: f44f 22bd b46e 6a3d 40e0 1c3d a0d8 e23b
00000180: 108f 443c 7879 5b3d 0c46 553d 60b3 55bc
00000190: 40f3 573b b826 71bd d2dc cc3d d877 6b3d
000001a0: e0a5 82bb 5e01 b03d 5a0b 89bd 787b f83c
000001b0: 3c48 dd3d 98b3 cabd d08e 23bc 3830 e03d
000001c0: 8830 f8bc 602b 7f3c dc4b 313d bcc1 773d
000001d0: f2c8 9f3d 502a 14bd 44c6 c5bd 4c64 693d
000001e0: 6c3e db3d bc4b 103d 2214 edbd 7688 f0bd
000001f0: 8cae 7c3d a0f0 d4bb 2001 ac3b 10c9 61bd
00000200: e0c8 e13c a0b8 f7bc c0d9 42bd 7cc2 7ebd
00000210: 18f6 d4bc d684 9bbd 00f3 063b 2e60 87bd
00000220: f68e e33d 74f5 41bd 2ab3 e3bd e013 12bc
00000230: 80bc bc3a 7626 d7bd 80ed e83a 5c61 2cbd
00000240: 622a bcbd a045 60bd dcdc afbd 3039 9fbc
00000250: accc 99bd dcc4 e8bd 08f8 e13c 28fd ce3d
00000260: dce9 173d 7e2d c23d 0288 a13d 94f9 63bd
00000270: e05a b03d a09c 55bd 02b5 943d f0f4 1a3c
00000280: 78fc 61bd 8c89 c13d 4016 c93c 8a4a cf3d
00000290: 6cc5 b43d 5c50 1ebd ace2 7e3d 98b0 bb3c
000002a0: b06e e83d 4099 49bc 40af 06bb 80f7 0a3b
000002b0: 842f 883d 5001 a6bc bcb5 c1bd 80cc ccba
000002c0: 84e1 b2bd 6894 173d e0f1 f13c 7ac0 9dbd
000002d0: 80a0 da3a b25e d93d 2c5f ff3d 98de 2b3d
000002e0: 9421 7c3d cece d93d a4be b8bd 8cbc 76bd
000002f0: fa3a d83d 9ee9 8ebd e08e 163c e603 d13d
00000300: 5203 bcbd 7e61 f33d 1052 5e3d a8e0 93bd
00000310: 48e2 94bc c018 91bc 722c f1bd 286e 543d
00000320: 0000 32bd 0063 6fbc 861f 80bd 10e3 173c
00000330: 0cd5 103d 10b8 7c3d d251 b9bd fe6e debd
00000340: 8267 ad3d f456 84bd faa7 fbbd 283b dc3c
00000350: b854 2bbd a0bd 79bc a01f 1a3d 0882 7e3d
00000360: 3871 ce3c f465 063d c4f8 823d a816 c8bc
00000370: 90b7 993c e082 583d 1ed5 843d 80d5 833a
00000380: b42d 633d 1490 1e3d 3806 11bd e6ef adbd
00000390: 24f8 143d 80f7 4b3b 801d 803c f696 86bd
000003a0: 0c85 66bd 2433 ff3d 8895 9fbc 243a f8bd
000003b0: 301a 70bd 488e 143d 9e60 dd3d 222c c7bd
000003c0: a0b5 c73d 8a6b f5bd ee19 b13d 2c1a 24bd
000003d0: a040 2ebc 049b 3c3d f28a c4bd c811 aa3d
000003e0: b45c ad3d c21a d5bd f829 cb3c 40dc 4bbd
000003f0: ccd4 813d 10fb babd c0d8 74bc e87f 973c

F2F.mlp.f.0.bias f4 [32]
-0.04939373 0.046905354 -0.09489858 -0.046886444 0.038823396 0.05716932 0.10929443 0.08876489
0.030032635 0.06573698 0.017429173 0.009546801 0.12485582 -0.06261641 0.03404963 0.03537403
0.089395404 0.036940277 0.0042098314 -0.006366685 -0.10509911 -0.08284995 -0.019502774 -0.08407384
-0.11522479 0.02932033 -0.11955929 -0.10045397 -0.09900896 0.04345976 0.0964521 -0.07625385
00000000: 1451 4abd d41f 403d 305a c2bd 000c 40bd
00000010: 4805 1f3d 602a 6a3d c2d5 df3d 5eca b53d
00000020: 0007 f63c 1ca1 863d a0c7 8e3c 306a 1c3c
00000030: 68b4 ff3d 083d 80bd a077 0b3d 5ce4 103d
00000040: f014 b73d b04e 173d a0f2 893b a09f d0bb
00000050: 343e d7bd 3cad a9bd 48c4 9fbc e82e acbd
00000060: fafa ebbd 3031 f03c 80db f4bd d0ba cdbd
00000070: 36c5 cabd dc02 323d ae88 c53d fa2a 9cbd

E2F.mlp.f.0.weight f4 [32, 64]
-0.08943924 -0.012017135 -0.047951143 0.108656995 -0.13368338 -0.005174619 0.07842056 -0.08538022
0.038531553 -0.07664337 0.054384016 0.06146744 0.060633007 0.04179093 -0.09201689 0.09582908
0.025329703 -0.059140977 -0.05971592 -0.09615287 0.041915495 0.010463126 -0.030989226 0.069712006
-0.039005663 0.10675006 -0.04107787 -0.06657155 -0.115186214 -0.076435454 0.056725327 -0.011959143
-0.08125312 -0.046260927 0.07990566 0.1763556 0.09994371 -0.10062317 0.048066538 0.05166974
-0.054499816 0.054767787 -0.11571121 -0.047618642 -0.08974423 0.1081493 -0.068323374 0.057960626
0.038116507 0.011211959 -0.110263154 0.034300808 -0.10471965 -0.07406311 0.022911543 0.12037969
0.027655339 0.082449205 -0.0067720045 0.11445731 0.075426176 0.01809607 0.058360722 0.12086849
0.019269668 0.00017908012 -0.041471273 0.11973235 0.0875564 0.034054127 -0.062482998 -0.042561434
0.030580504 -0.0924857 0.023478922 0.10075773 -0.105199516 -0.046606626 -0.101567045 -0.046060152
-0.00041542563 0.10025365 -0.089772806 -0.0822444 0.076638944 -0.09731451 -0.10612033 -0.120704345
-0.10282343 -0.092232205 -0.010844439 -0.027420469 0.026344547 -0.07877233 -0.021559114 -0.10238254
0.008972847 0.034105014 -0.006725693 0.047794785 -0.004901427 0.07112037 0.067358404 -0.066352874
0.06323185 0.05015134 -0.06597026 -0.0764906 0.031386152 0.0058407 -0.099538475 0.079708055
0.06030759 0.11255156 -9.283057e-05 0.06712415 0.06354796 0.017175488 0.086551055 -0.07891864
0.056753136 0.11785197 0.0059738173 -0.020771792 0.08048669 0.0043908306 -0.054282226 0.011288268
0.16256727 0.0249565 -0.004898013 0.13753954 0.05127525 -0.095629044 0.098288245 0.08194774
-0.14842898 0.09521028 -0.059563126 0.081588276 0.05678303 0.101067476 0.09797776 0.08208759
0.11056531 0.048233844 0.033385884 0.043009482 0.014911889 0.1677249 0.10482689 -0.10541731
-0.032562964 -0.027549159 0.058817144 0.10202613 -0.0060040825 0.016820889 -0.03951747 0.032613117
-0.10623285 -0.08931334 -0.11132762 0.10132809 -0.13781339 0.08206129 0.05070648 -0.09722849
-0.11018259 0.057092074 -0.033387028 -0.12087816 0.026934091 -0.0803664 0.025000773 -0.08019389
0.10895834 -0.04398138 0.02490799 -0.049521953 -0.13022073 0.033074196 -0.0020924348 -0.11804296
-0.10323098 -0.114367306 -0.04760658 -0.13700792 0.02416997 -0.13584286 -0.0777966 -0.08246757
-0.013399491 0.043314602 0.052500647 0.0075262114 -0.040618613 -0.019794973 -0.016290886 -0.0040200492
0.048866868 0.117843464 -0.028680509 0.14304051 -0.011119585 -0.050366726 0.06410746 -0.048619736
0.0012622391 0.15313417 0.11413373 0.053465392 0.08676752 -0.05689183 0.095293075 0.025638197
0.14921509 -0.119434334 0.016202683 0.00060642953 0.12804696 0.08078916 0.10717347 -0.061489776
-0.08989697 -0.043768156 -0.037336584 0.012023426 -0.0353638 0.061873496 -0.03715583 0.037931714
-0.06200632 0.10349871 0.057541214 0.04652622 0.17819488 0.0136362845 -0.082097255 0.022207277
0.10198841 0.02115171 -0.03130823 -0.015798658 -0.0040129074 0.13126941 -0.064460374 -0.054568257
0.053672675 0.07891406 -0.10705327 0.013391618 0.042962454 0.017331628 0.070513844 -0.06041992
00000000: ec2b b7bd 84e3 44bc 6b68 44bd 8f87 de3d
00000010: 4ce4 08be da8f a9bb f59a a03d d3db aebd
00000020: 43d3 1d3d 33f7 9cbd c6c1 5e3d 48c5 7b3d
00000030: 515a 783d f72c 2b3d 5a73 bcbd 0942 c43d
00000040: 3d80 cf3c cf3d 72bd ae98 74bd cceb c4bd
00000050: 95af 2b3d 886d 2b3c 1edd fdbc 2bc5 8e3d
00000060: 67c4 1fbd c79f da3d 4541 28bd aa56 88bd
00000070: c0e6 ebbd 318a 9cbd d158 683d 48f0 43bc
00000080: 0968 a6bd 197c 3dbd 94a5 a33d 9096 343e
00000090: 4aaf cc3d 8513 cebd 6be1 443d a6a3 533d
000000a0: 333b 5fbd 3054 603d 00fa ecbd c40b 43bd
000000b0: d3cb b7bd 617d dd3d 20ed 8bbd 1f68 6d3d
000000c0: 0e20 1c3d 5db2 373c a6d1 e1bd 017f 0c3d
000000d0: 4177 d6bd 66ae 97bd fdb0 bb3c a089 f63d
000000e0: 738d e23c 21db a83d b1e7 ddbb 9868 ea3d
000000f0: 0a79 9a3d 363e 943c a70b 6f3d e689 f73d
00000100: 6cdb 9d3c 74c7 3b39 c8dd 29bd 3c36 f53d
00000110: c550 b33d 577c 0b3d 2cee 7fbd e654 2ebd
00000120: f783 fa3c 2569 bdbd de56 c03c 125a ce3d
00000130: d872 d7bd 97e6 3ebd 6202 d0bd 92a9 3cbd
00000140: 7ccd d9b9 c951 cd3d ceda b7bd c16f a8bd
00000150: e1f4 9c3d d44c c7bd 9e55 d9bd d733 f7bd
00000160: 1795 d2bd 3de4 bcbd e0ac 31bc e4a0 e0bc
00000170: 85d0 d73c 6353 a1bd bd9c b0bc f0ad d1bd
00000180: d902 133c b3b1 0b3d 3463 dcbb 77c4 433d
00000190: 269c a0bb 8ea7 913d 34f3 893d 04e4 87bd
000001a0: b37f 813d 7e6b 4d3d 6a1b 87bd 1ba7 9cbd
000001b0: c48e 003d 5863 bf3b d4da cbbd fa3d a33d
000001c0: 1705 773d 6f81 e63d 08ae c2b8 6378 893d
000001d0: 6f25 823d 9cb3 8c3c ae41 b13d 19a0 a1bd
000001e0: fa75 683d 605c f13d 03c0 c33b 9b29 aabc
000001f0: 35d6 a43d f5e0 8f3b 0a57 5ebd 6df2 383c
00000200: 0978 263e 9371 cc3c 837f a0bb 2ad7 0c3e
00000210: ff05 523d 29d9 c3bd 594b c93d 37d4 a73d
00000220: c4fd 17be 9bfd c23d 77f8 73bd c117 a73d
00000230: 5395 683d 77fc ce3d 90a8 c83d 8a1d a83d
00000240: 1170 e23d da90 453d a3bf 083d b62a 303d
00000250: ff50 743c 14c0 2b3e 7baf d63d 08e5 d7bd
00000260: be60 05bd c6ae e1bc 3fea 703d 13f3 d03d
00000270: e5bd c4bb f6cb 893c 12dd 21bd 5595 053d
00000280: 9c90 d9bd eae9 b6bd bcff e3bd 1a85 cf3d
00000290: f41e 0dbe c00f a83d 99b1 4f3d bb1f c7bd
000002a0: 69a7 e1bd 61d9 693d d6c0 08bd f88e f7bd
000002b0: e2a4 dc3c 2497 a4bd 6cce cc3c b23c a4bd
000002c0: 8d25 df3d d225 34bd d70b cc3c 88d7 4abd
000002d0: 9558 05be cf78 073d 3b21 09bb 82c0 f1bd
000002e0: c46a d3bd 6839 eabd 1eff 42bd ce4b 0cbe
000002f0: 1a00 c63c 641a 0bbe d353 9fbd c2e4 a8bd
00000300: 8a89 5bbc a76a 313d eb0a 573d 709e f63b
00000310: b45f 26bd 1129 a2bc 7774 85bc 9eba 83bb
00000320: a028 483d ea57 f13d 63f3 eabc 3679 123e
00000330: eb2e 36bc 574d 4ebd c64a 833d 7d25 47bd
00000340: b771 a53a 34cf 1c3e f2be e93d 87fe 5a3d
00000350: 2bb3 b13d 6807 69bd 0429 c33d 3207 d23c
00000360: d7cb 183e fd99 f4bd 7dbb 843c ccf8 1e3a
00000370: be1e 033e ca74 a53d c47d db3d b4dc 7bbd
00000380: e71b b8bd 3d46 33bd 3fee 18bd e7fd 443c
00000390: a2d9 10bd 106f 7d3d b630 18bd 495e 1b3d
000003a0: 57fa 7dbd 22f7 d33d 56b0 6b3d 4792 3e3d
000003b0: b878 363e b96a 5f3c 9b22 a8bd 09ec b53c
000003c0: 4ddf d03d 5a46 ad3c 0f3d 00bd 306c 81bc
000003d0: b57e 83bb 7d6b 063e cd03 84bd f782 5fbd
000003e0: e1d7 5b3d b29d a13d bf3e dbbd 8468 5b3c
000003f0: 66f9 2f3d 0ffb 8d3c 9069 903d e17a 77bd

E2F.mlp.f.0.bias f4 [32]
-0.032671038 -0.1266173 0.0047003976 -0.0476668 -0.08690506 -0.033179093 0.030458212 0.06474119
0.106414944 -0.15176535 0.05948188 -0.12600338 0.009658785 0.095817246 -0.10849039 0.046145175
-0.087666236 -0.10159809 0.048214473 0.028603911 0.06386017 0.09628154 -0.074596554 0.052748784
-0.09069877 0.057846636 -0.07152341 0.05045046 0.05686016 0.06638223 0.065804526 -0.04888224
00000000: 11d2 05bd f7a7 01be cb05 9a3b 433e 43bd
00000010: 48fb b1bd cde6 07bd 8083 f93c 0797 843d
00000020: 14f0 d93d 6068 1bbe 46a3 733d 0807 01be
00000030: e13f 1e3c d53b c43d 3630 debd b902 3d3d
00000040: 5b8a b3bd a912 d0bd 8a7c 453d c052 ea3c
00000050: 1fc9 823d 422f c53d 14c6 98bd 1c0f 583d
00000060: 47c0 b9bd 98f0 6c3d de7a 92bd 24a5 4e3d
00000070: 33e6 683d 68f3 873d 86c4 863d be38 48bd
