checkpoints/empty_brep_sketch/graph_encoder.pth (torch, 205188 bytes, 50 tensors)

local_head.gconv.convs.<stroke___temp_previous___stroke>.nn.0.weight f4 [32, 12]
000000 bb ae 08 3e cc 2b 86 be ea 2b 3f 3e 22 b4 fb 3d
       0.13347904 -0.2620529 0.18669096 0.12290217
000010 30 48 af bd 2b 55 9e be 4b 89 a9 bd 80 50 90 3e
       -0.085586905 -0.30924353 -0.0827814 0.28186417
000020 a6 a1 95 3e d2 c4 ac 3e b2 bd 1f 3d 9a 32 96 be
       0.2922489 0.33743912 0.038999267 -0.2933548
000030 93 99 d5 3d 1d 50 9a 3d 9c 41 9f bd 13 3d f9 3d
       0.104296826 0.07534812 -0.07776186 0.12169852
000040 e1 c4 83 3e 01 e8 93 3e 01 ff 2b be 9e e7 42 be
       0.25736144 0.28887942 -0.16796495 -0.19033667
000050 b2 3f 98 3c 18 a2 98 3e a6 c8 31 3e 61 5e 58 be
       0.01858506 0.29811168 0.17361698 -0.21129753
000060 41 ca 69 3e eb 5f 56 3c 55 37 85 be cc b9 b4 bd
       0.2283106 0.013084392 -0.26018777 -0.088245004
000070 66 e2 9b 3d cd 46 8b 3d e4 fd a0 3e 63 aa 2c 3e
       0.076115415 0.068006136 0.31443703 0.16861872
000080 a2 af fc 3d 34 09 a4 3e 2e 1f 7e bd 5c ba 9b be
       0.12338187 0.3203827 -0.062041454 -0.30415618
000090 50 f8 b6 3d e3 4b 79 be fd 4c eb 3d c2 2f 81 be
       0.089340806 -0.24345355 0.11489294 -0.2523175
0000a0 50 22 57 3e b9 bd 35 3e f5 bd 76 be 75 6e a6 bd
       0.21009183 0.17748155 -0.240959 -0.08126537
0000b0 be 1f d5 bd c7 44 5b 3e dd 0e c2 3d 50 6d ce 3b
       -0.10406445 0.21412955 0.09475491 0.006299652
0000c0 bd 6a 62 3e 83 51 f6 3d 23 55 7d be 26 6d 07 3e
       0.2211103 0.12027266 -0.24739508 0.1322523
0000d0 5e a0 5c be 48 cf 9c 3d 23 1f e9 bd a1 c2 4e 3e
       -0.2154555 0.07656723 -0.11382892 0.20191433
0000e0 89 84 f6 bc 5e 31 9a be a4 ef 9a bd 57 6e 6b 3d
       -0.030092495 -0.3011579 -0.07565239 0.057478275
0000f0 d3 7f ab 3c 90 26 61 bd 25 3f c5 bd b5 14 d5 bc
       0.020934975 -0.054968417 -0.096311845 -0.02601085
000100 e8 e8 9b 3d 1a 7a 84 3d 0c b0 32 3e 13 5f 3b 3e
       0.07612783 0.064686015 0.17449969 0.18297987
000110 a5 a1 1e be 73 3c 80 be cc ef a0 be 6b 4d 9a be
       -0.1549135 -0.2504612 -0.3143295 -0.3013719
000120 3d ca 6c 3d 56 8e 64 3e 5a 04 4a 3d 22 41 ae bd
       0.057810057 0.22319922 0.049320556 -0.08508517
000130 66 33 4f 3e 8c 51 c1 3d fc fc 5c be c1 b1 42 3e
       0.2023445 0.09439382 -0.21580881 0.1901312
000140 ad 42 8b 3c 75 c1 17 be 62 29 31 be 50 94 89 be
       0.016999567 -0.14819892 -0.17300943 -0.26870966
000150 25 01 01 3e b8 6b 7f 3e 77 fe 77 3b f2 8b c3 bd
       0.12598093 0.24943435 0.0037840882 -0.09548177
000160 59 1f 65 be b4 8a 47 bc 5e 69 2d 3e 22 8f 3d be
       -0.2237524 -0.0121790655 0.16934726 -0.18511632
000170 dd 66 aa 3e 61 6b e7 3d 06 8c c2 3d a3 5c a4 be
       0.33281603 0.11299778 0.094993636 -0.32101926
000180 89 3d 5a bd 66 70 94 bd 58 47 16 3e 3e 8f 73 3e
       -0.05328134 -0.07248001 0.14675653 0.23785111
000190 b3 e7 36 3e 00 c4 47 3e ed 73 8a bd f1 a4 9b be
       0.17861824 0.19508362 -0.06760392 -0.30399278
0001a0 89 5e 48 bd e6 0b 26 3e 5f 32 56 3e 3e 47 7d 3e
       -0.04891828 0.16215476 0.20917653 0.24734208
0001b0 76 ba dd bd 68 02 df bd 0d 1f 21 be f8 1b 4f 3e
       -0.1082658 -0.10889131 -0.15734501 0.20225513
0001c0 bf de 83 3e 51 34 b6 bc c6 c2 49 3e c3 17 c1 bd
       0.2575588 -0.022241743 0.19703206 -0.0942836
0001d0 7f 71 80 3c 55 73 09 be 80 9f f7 3d 90 f0 f5 3b
       0.01567912 -0.13422902 0.12090969 0.007505484
0001e0 0d 4c b6 bd 3b 5a 16 3d 90 d9 69 be a7 8c 59 3e
       -0.08901224 0.036707144 -0.228369 0.21245061
0001f0 38 2a 9e 3e 2a 4f 15 be 9b 7a f3 3d fd fa 26 3d
       0.30891585 -0.1458098 0.118886195 0.040766705
000200 6f 35 98 bd d9 3b 27 3e 91 c1 1a 3e 38 9b 86 3e
       -0.07432067 0.16331424 0.15112902 0.26290298
000210 0e f2 a4 3d 5f 9d d1 3d de e4 7b 3d c0 8f ff 3d
       0.08053981 0.10235094 0.06149756 0.1247859
000220 c7 82 66 3e a4 a0 88 be c2 f2 97 3e 2d b1 a5 bd
       0.22510825 -0.2668506 0.29677397 -0.08090434
000230 c6 cc 49 be 76 45 16 be d4 b7 97 be 61 f4 80 3d
       -0.19707021 -0.14674935 -0.29632437 0.062966116
000240 2b dc 69 3e 43 14 13 bd 53 39 46 bd fd 22 31 3d
       0.22837894 -0.035907995 -0.048394512 0.043246258
000250 e6 b3 7b 3d 3d 3a 03 3e 4d c5 22 3e 82 e1 95 3e
       0.06145086 0.12815185 0.15895577 0.2927361
000260 98 44 9b bd d3 c8 f0 3d 56 a4 12 be 66 cf 98 be
       -0.075814426 0.11757054 -0.14320502 -0.29845732
000270 d8 f8 c0 bd 18 77 d9 bd 2f 79 45 be 16 f9 c5 3d
       -0.09422463 -0.106184185 -0.19284509 0.0966665
000280 59 54 52 bd f6 33 62 be cb 9c 32 3e cf 5c 5e be
       -0.05134997 -0.22090134 0.17442624 -0.21715091
000290 e3 4a 0e be c7 ed 70 be 72 c3 80 be 90 06 67 bd
       -0.13895755 -0.23528205 -0.25149113 -0.056402743
0002a0 de 66 4f be 72 ac 24 3e 8e eb 30 be 0c a1 78 bd
       -0.20254084 0.16081408 -0.17277357 -0.06070046
0002b0 9d 9b b5 3d c7 a4 03 3e 9d 50 69 3d fd f9 24 3d
       0.088675715 0.12855826 0.056961644 0.04027747
0002c0 63 59 50 3d 69 cf 4f be d7 27 8b 3c 88 be 2b 3e
       0.050866496 -0.20293964 0.01698677 0.167719
0002d0 9d 47 2a 3e a1 dc ad bc 24 0a 05 be 9e de 8e 3e
       0.16628881 -0.021223368 -0.1299215 0.27904218
0002e0 76 49 20 3e 64 37 04 bd 0a f4 9b be 12 92 9a be
       0.15653023 -0.032279387 -0.30459625 -0.30189568
0002f0 29 01 08 3e f8 af cb 3d 1d 84 2c 3e 44 05 f9 3d
       0.13281693 0.09945673 0.16847272 0.121592075
000300 25 25 ca bd 51 97 1f be 64 4e 10 3e 9d c8 3a 3d
       -0.09870366 -0.15585066 0.14092404 0.045601476
000310 90 b5 96 be 72 b2 08 3d 43 50 b7 3c 0d 50 65 bd
       -0.29435396 0.033373304 0.022377139 -0.055984545
000320 fe 13 8d be 3d b8 68 be 5b ac 49 3e d0 51 04 be
       -0.27554315 -0.22726531 0.19694655 -0.12921834
000330 43 5e dc bc f8 3f 80 be 4b 53 90 be 1b 22 35 3e
       -0.026900416 -0.25048804 -0.28188547 0.17688791
000340 31 ce 49 3d 93 a0 12 be 38 df 85 3e 1c aa a2 3e
       0.049268905 -0.14319067 0.26146865 0.31770408
000350 49 96 74 3e 52 e7 46 3e b6 91 49 3c 41 14 29 be
       0.23885454 0.19424179 0.012302807 -0.16511633
000360 ab 4a 60 3e 17 72 08 bd 3b 11 85 3e b7 fe ca bd
       0.21903484 -0.03331193 0.25989708 -0.09911864
000370 9f 4b 02 3e 01 90 7f bd f3 79 f7 3d a9 3e 2a 3e
       0.1272416 -0.062393192 0.12083807 0.16625465
000380 c9 d4 2c 3d 19 ca aa bd 71 1a 0e be 33 5e bd bd
       0.042195115 -0.08339328 -0.13877274 -0.09246483
000390 ed 33 5a be ea ea 1e be 70 d6 8c be 38 79 be bc
       -0.2130887 -0.155193 -0.27507353 -0.023251161
0003a0 3b 95 cb bd 27 c5 3b 3d 58 74 9d 3e 47 dc 1f 3e
       -0.09940573 0.045842316 0.30752826 0.15611373
0003b0 46 95 85 be 2c 77 85 bd b8 d9 16 be 39 79 90 3c
       -0.2609045 -0.06516871 -0.1473149 0.017635928
0003c0 12 3d d3 3d 95 78 59 bd 03 39 0c be 5b 2e 0d 3e
       0.103143826 -0.05309351 -0.13693623 0.13787214
0003d0 42 62 a3 3d a4 1e 45 3e ca 65 8d 3e 54 56 83 be
       0.079777256 0.1924997 0.2761672 -0.256518
0003e0 2a 7a 2f 3e c7 fd 75 be 97 20 49 3e 9a 3a 8c 3d
       0.17136446 -0.2402259 0.19641338 0.06847115
0003f0 dc 76 cb bd bc a3 46 be 6a f0 94 3e 29 d0 83 be
       -0.0993478 -0.19398397 0.2908967 -0.2574475

local_head.gconv.convs.<stroke___temp_previous___stroke>.nn.0.bias f4 [32]
000000 1e 73 8e bc 9d 40 25 be 75 32 36 3e d6 f9 df 3d
       -0.017388877 -0.1613793 0.17792685 0.10936324
000010 e9 d0 94 3e f0 70 24 bc e5 87 e7 3d 9f cf 8f 3d
       0.29065636 -0.010036692 0.11305217 0.070220225
000020 7c 7c 78 be 96 bd 90 be dd 69 0a be 8e 61 82 3d
       -0.24266237 -0.28269643 -0.13516946 0.06366263
000030 52 90 63 be 9c e4 29 be 83 35 36 3e 4e 23 9f 3d
       -0.22223023 -0.16591114 0.1779385 0.07770406
000040 74 24 3f 3e 95 96 6b 3d 48 5b 7b 3e 1b 61 ef 3d
       0.1866625 0.057516653 0.2454654 0.11688443
000050 ef 7e 05 bd d8 aa 82 bd 61 8e 0f be 45 67 dc bd
       -0.032591756 -0.06380242 -0.14019157 -0.107618846
000060 2f 2d 5c 3e 70 27 57 be 0f 64 3d be ea 88 74 be
       0.21501611 -0.21011138 -0.184952 -0.23880354
000070 4f 8f ce bd 75 47 3d be 35 78 4f 3e 6a 59 cf 3d
       -0.10085928 -0.1848429 0.20260699 0.10124476

local_head.gconv.convs.<stroke___intersects___stroke>.nn.0.weight f4 [32, 12]
000000 e1 3b ab 3d de c3 7f 3e 16 54 bc 3c 2b f4 27 3d
       0.0836103 0.24977061 0.022989314 0.04100434
000010 2a cc 0f be 29 3a f9 bd 0c 36 83 be 51 94 a5 3d
       -0.14042726 -0.12169296 -0.25627172 0.0808493
000020 a7 b3 c5 bd ba 29 7f 3e fc 14 20 be 74 ca f7 3d
       -0.096534066 0.24918261 -0.15633005 0.12099162
000030 23 e1 7a 3e 35 16 71 3e 62 2e 81 be ab 62 11 3e
       0.24499945 0.23543628 -0.252307 0.14197795
000040 7e a5 19 be 23 57 b5 bc 5f 97 6a be ca da f9 bd
       -0.15004537 -0.022136277 -0.22909306 -0.12199934
000050 c9 f3 3f be 63 5f 3a be 38 8c 01 3d 6d ab 94 3d
       -0.1874534 -0.1820045 0.031627864 0.072592594
000060 58 5c 66 be c2 a8 64 3e 28 de 27 3e 09 5d 92 3d
       -0.22496164 0.22330001 0.1639334 0.07146651
000070 4c 1a 8e 3b 32 53 4e 3e 71 3a 46 be 96 67 3b bd
       0.004336631 0.20148924 -0.19358231 -0.045753084
000080 bb 6f 17 be dd 44 09 3d 73 7c 43 be fe 94 62 3e
       -0.14788716 0.03351294 -0.19090442 0.22127149
000090 36 68 fb bd a5 1f 21 bc 15 6c 0b 3e e7 ee 22 be
       -0.12275736 -0.009834205 0.13615449 -0.15911447
0000a0 f2 59 3d 3e 84 df 84 be e1 a7 3f 3e 07 cc db 3d
       0.18491343 -0.2595178 0.18716384 0.107322745
0000b0 6c cc 4e 3e 13 3f 2a be 1b 86 8d 3e 02 66 e6 3d
       0.20195168 -0.16625623 0.27641377 0.11249925
0000c0 47 1e c9 bd 03 96 44 be b8 14 c1 bd 58 16 09 3d
       -0.09820228 -0.1919785 -0.0942778 0.033468574
0000d0 c2 96 fd bd d2 11 db 3c 89 f3 21 3c 7b 37 78 3e
       -0.123822704 0.026741896 0.009884723 0.24239914
0000e0 7f fe 80 3e 11 78 dd bd cf 43 a7 3d 98 70 c0 bd
       0.25194165 -0.108139165 0.0816723 -0.093964756
0000f0 97 94 06 3e d9 2c 38 3e 54 b1 40 3d b6 7c 15 3e
       0.1314262 0.17985858 0.047044113 0.14598355
000100 30 7a f3 3d 57 a0 1c 3e 29 0a 5e 3e 09 d6 4f 3e
       0.1188854 0.1529554 0.21683563 0.20296492
000110 77 ff 1f be b8 fd 25 be 3a 43 09 bc 41 be 59 be
       -0.15624796 -0.16210067 -0.0083778445 -0.21263982
000120 0d f3 70 3e 0a 30 24 be 42 ae aa 3d fb 41 e2 3d
       0.23530217 -0.1603395 0.08334018 0.11047741
000130 f9 f4 20 be 88 3e c1 3d 9d 2c cd 3c c8 bd f8 3d
       -0.1571845 0.09435755 0.025045687 0.12145573
000140 db 2c c6 3d c2 d0 98 bc b7 23 da 3d f4 3d 91 3d
       0.09676524 -0.018654231 0.10651343 0.07091895
000150 7a 4a 85 3e 06 f3 92 bd c6 14 18 3e ac c5 33 be
       0.26033384 -0.07175259 0.14851674 -0.17555875
000160 be c4 fd bc 6c 11 30 3d 38 f4 1f be a8 10 95 3d
       -0.030977603 0.042985365 -0.15620506 0.072785676
000170 de 23 6c be 57 b1 06 be e5 a3 8e 3e 71 14 5c be
       -0.23060557 -0.13153587 0.27859417 -0.21492173
000180 01 af 2e 3c dc ae 5b be 32 58 a8 bd 73 44 ae 3d
       0.010661841 -0.21453422 -0.08219947 0.085091494
000190 67 9f 34 3e 15 5c f9 bd 61 0d 97 3e 66 97 9f 3b
       0.17638932 -0.121757664 0.29502395 0.004870343
0001a0 b2 ea b2 bd aa 56 5d 3e 53 81 81 3e 6b 38 1c 3e
       -0.08736171 0.21615091 0.2529398 0.15255897
0001b0 1b 59 9c 3d b2 52 49 3d 8e cc 91 be 67 d8 2f bd
       0.07634183 0.04915113 -0.28476375 -0.042930987
0001c0 c0 bf 83 be fb 2c ce bc f1 6b 13 3e 9f f1 8a 3e
       -0.2573223 -0.025167933 0.14396645 0.27137467
0001d0 ed 4f da 3d 30 fe 4a bd ee 86 76 3e 39 75 4d bd
       0.10659776 -0.04955882 0.24074909 -0.05016062
0001e0 fb 20 28 3c 86 df 5f be 85 f1 92 3d 56 03 32 be
       0.010261769 -0.21862611 0.071749724 -0.17384085
0001f0 a2 f6 39 3e 11 6c f9 3a ee c3 97 be 3b e1 f6 3d
       0.18160489 0.0019029399 -0.2964167 0.12054678
000200 cc 95 54 3e 0d ec d2 3c 37 10 79 3e 64 56 3e be
       0.20760268 0.025747323 0.24322592 -0.18587643
000210 25 4d a5 bb b0 b7 70 3e a2 2a 21 be 52 f7 4a 3e
       -0.0050445967 0.23507571 -0.1573892 0.19820908
000220 8e 06 97 be 69 ab 07 3d af 72 dc bd 94 4e de 3d
       -0.29497188 0.033122454 -0.10764062 0.10854831
000230 5e 3c 8d 3d 71 2c 85 3e b2 22 ea bd 56 21 56 be
       0.0689628 0.2601047 -0.11432399 -0.20911154
000240 35 cb 95 3e 11 44 04 3e 08 83 2e be 87 78 27 bd
       0.29256597 0.1291659 -0.17042172 -0.04088643
000250 17 d4 60 be 7d db 43 be cf 45 48 3e 39 e2 56 3d
       -0.21955906 -0.19126697 0.1955788 0.052461836
000260 f3 05 97 3e 3d 81 78 3e 1b 95 ba 3c 98 02 8d 3e
       0.29496726 0.2426805 0.022776177 0.2754104
000270 59 f8 46 be e2 eb 78 3e 10 03 29 bc 47 8b 34 bc
       -0.19430675 0.24308732 -0.010315672 -0.011019534
000280 f6 94 e2 bd 77 82 45 3d d0 90 77 be b7 9a 11 be
       -0.11063568 0.048220124 -0.24176335 -0.14219175
000290 f0 eb a6 3c 62 7c 0b 3e 22 04 00 be 41 a3 61 be
       0.020376176 0.13621667 -0.12501577 -0.22034933
0002a0 93 92 94 3d b8 1a 3f 3e b9 22 06 bd 39 83 15 3e
       0.07254519 0.18662536 -0.032747958 0.14600839
0002b0 3c 26 46 be ef 63 3f be 1a d2 70 be ab 52 51 3e
       -0.19350523 -0.18690465 -0.23517647 0.20441692
0002c0 47 f1 9d 3e 88 47 8d 3d a3 8c 79 be 3e bb 7c be
       0.30848143 0.06898409 -0.24370055 -0.24680802
0002d0 f5 43 32 bd ab f8 a7 3d d7 52 6c bd 7b b5 c6 3d
       -0.04352184 0.082017265 -0.05769619 0.097025834
0002e0 a7 6d 8c 3e 5b 50 5b 3e ba 04 79 be f7 6d 2b bd
       0.27427408 0.21417372 -0.2431821 -0.041852918
0002f0 0b f4 45 be 82 cb 83 3d 4e 17 77 be 23 4f 82 bd
       -0.19331376 0.064353004 -0.24129984 -0.063627504
000300 12 bf 61 3d b5 d4 92 bd a7 bc 55 3d c8 93 80 3d
       0.05511386 -0.07169477 0.052181866 0.06278187
000310 83 81 ce 3d 50 e6 d4 3d 04 9d 5b 3d e0 ce a8 bd
       0.10083296 0.10395491 0.05361654 -0.08242583
000320 70 09 ea bd 8a d4 70 3e 55 9b 49 be ed 13 f8 bd
       -0.11427581 0.23518577 -0.1968816 -0.121131755
000330 98 99 8b 3d 74 6a 55 3e 5f ed 42 be f3 b1 54 3c
       0.06816405 0.2084139 -0.19035862 0.0129818795
000340 a4 53 70 3d 7b bc ee 3d 69 98 19 be 53 c4 4c 3e
       0.058673516 0.116570435 -0.14999546 0.19996767
000350 bc 06 8c 3e 2a c1 84 3e 02 69 fc bd c3 31 a3 bc
       0.27348888 0.25928622 -0.12324716 -0.01992119
000360 62 87 52 3e b9 2e 35 be 3d 77 79 be 37 e0 54 bc
       0.20559457 -0.17693605 -0.24361892 -0.01299291
000370 b3 25 8b 3e cb 06 6d be 39 65 8a 3e 65 2b 83 be
       0.271772 -0.23147123 0.27030352 -0.25619045
000380 12 4b 2a be df 0b b4 3d b8 82 88 3d 9a ca 79 3d
       -0.166302 0.08791327 0.066655576 0.06098423
000390 c1 bd 16 be 57 3c 09 3e eb 26 53 3e ea 47 fa 3d
       -0.14720823 0.13401924 0.20620315 0.12220748
0003a0 92 99 11 3e ab 1a 82 3e e7 08 37 3e 26 9d 49 3d
       0.14218739 0.2541097 0.1787449 0.049222134
0003b0 8c 6d c7 3d cc d8 5d be 16 0f 00 3e b5 b1 27 be
       0.09737691 -0.21664733 0.12505755 -0.16376384
0003c0 37 58 16 be 3b ea 0a bd e1 74 91 be 78 9f ff bd
       -0.14682089 -0.033914786 -0.28409484 -0.12481588
0003d0 bd 99 07 3e 98 92 4f 3e cc a8 e4 3d 43 e6 1f 3e
       0.1324224 0.20270765 0.11165008 0.15615182
0003e0 49 7e 17 3d e8 27 1a 3e e6 0e a3 3d af 3e 0e be
       0.03698567 0.15054286 0.07961826 -0.138911
0003f0 e9 46 80 be 38 a6 30 be ae 76 63 be ee cc 7e be
       -0.250541 -0.17250907 -0.22213241 -0.24882862

local_head.gconv.convs.<stroke___intersects___stroke>.nn.0.bias f4 [32]
000000 63 ee 42 3e 26 6c 92 bd e9 5e ee bd 7a d8 33 be
       0.1903625 -0.07149534 -0.116391964 -0.17563048
000010 2a 71 fc 3d f8 18 c0 3d e4 ce 42 bd 84 88 8f 3e
       0.12326272 0.093797624 -0.047560588 0.2803384
000020 3b 08 64 3e a2 ef 37 bd 77 c9 95 3c f2 24 d9 bd
       0.22268765 -0.044906266 0.018284542 -0.1060275
000030 71 f7 4d 3e c6 1f 1e be 28 0f ee bc f8 c8 8b 3e
       0.20113923 -0.15441808 -0.029059961 0.27301764
000040 a4 ff aa 3d 01 f1 8f be 38 8d 20 3e c4 70 05 3e
       0.08349541 -0.2811356 0.1567887 0.13031298
000050 1b c7 08 3e 95 e8 8a 3e 99 2e 7c 3e e5 d5 93 ba
       0.13357203 0.2713057 0.2462715 -0.0011278955
000060 b6 d4 ba 3c 50 77 89 be 67 bd 4c be 94 b7 a2 bd
       0.022806507 -0.2684884 -0.19994126 -0.07945171
000070 43 72 27 be 3d 13 e9 bd 92 a2 3e be e0 4d 3b be
       -0.16352181 -0.113806225 -0.18616703 -0.18291426

local_head.gconv.convs.<stroke___strokecoplanar___stroke>.nn.0.weight f4 [32, 12]
000000 33 cc 31 3e 95 0a 31 3e b2 54 6f 3e 68 fe 6a 3e
       0.17363052 0.17289193 0.23372152 0.22948611
000010 b6 7b 69 be da f2 ff 3a 76 5a 7a be 1b 83 02 bd
       -0.22801098 0.0019527331 -0.2444857 -0.031863313
000020 86 ad 2a 3e bc dd 84 be ea dd 91 3d a3 cd 30 be
       0.16667756 -0.2595042 0.07122405 -0.17265944
000030 9d e6 85 bb e2 f5 74 3e ed a4 10 3e eb 2b ff bd
       -0.004086329 0.23921922 0.14125414 -0.124595486
000040 df 66 54 be 34 16 3f 3e 79 9e 1d 3e 7d 81 2b bd
       -0.20742367 0.18660814 0.15392484 -0.041871537
000050 50 e8 4a 3e 78 32 cf bd 15 d4 a4 3e cd 3d 00 3d
       0.19815183 -0.10117048 0.32193056 0.031308938
000060 6b 3c 02 be c7 3c 80 3d d6 f8 03 be fa 8c 00 be
       -0.1271836 0.06261592 -0.12887892 -0.12553778
000070 80 85 53 be 77 3c 4e be f4 4c 2f be e8 22 f5 3d
       -0.20656395 -0.20140253 -0.17119199 0.119695485
000080 e0 6b 93 3d 41 f7 fb 3d 58 4f 45 3e a4 74 a5 3d
       0.0719831 0.12303019 0.19268548 0.08078888
000090 cd 31 c9 3d 7b 7d 85 be c3 e5 20 be 1f e6 8a 3e
       0.09823952 -0.26072297 -0.15712647 0.27128693
0000a0 4c 6d 80 3e 19 68 40 3e c1 c6 b8 bd a7 d6 7d be
       0.25083387 0.1878971 -0.09022284 -0.24788915
0000b0 45 06 09 be ee e1 25 be 02 37 7e 3e b2 d3 f1 bc
       -0.13381298 -0.16199467 0.24825671 -0.02951989
0000c0 c9 1e c6 3b 59 50 6c bc a2 c7 ae bd 4a 64 a1 3d
       0.0060461503 -0.014423453 -0.08534171 0.07880457
0000d0 6d aa 60 3e 11 fe 32 bd 51 eb 37 be 7c 79 52 be
       0.21940012 -0.043699328 -0.1796086 -0.20554155
0000e0 83 e7 a3 3e 2c 22 5f be c8 d6 3a be 82 56 aa bd
       0.32012567 -0.2179038 -0.18245995 -0.08317281
0000f0 d9 d3 74 3e c4 10 57 be da 0e 4e be e4 cf 03 3e
       0.23908938 -0.2100249 -0.20122853 0.12872273
000100 56 d1 12 be 58 4d 80 3e 91 41 4e 3e 08 ec 82 be
       -0.14337668 0.2505901 0.20142199 -0.25570703
000110 77 af d0 bd 6a 06 6d be d4 c0 83 be e2 8c 87 3e
       -0.10189717 -0.23146978 -0.25733054 0.26474673
000120 4b fb bf 3d be f4 42 3d 62 b2 fd bd 7a 7a 9c bd
       0.09374102 0.047596686 -0.123875394 -0.07640548
000130 a0 fe 08 3e d5 02 df 3d 12 ea 41 be 5d e9 23 3d
       0.13378382 0.10889212 -0.18936947 0.040017474
000140 1a 8e 1a 3e d4 0d 2a 3e 89 7a 28 3e b6 64 9b 3d
       0.1509327 0.16606838 0.16452993 0.075875685
000150 27 0f 20 bd 18 c4 75 be 8b 69 4d 3e 2d 5a 74 3e
       -0.03907695 -0.24000585 0.20059793 0.23862524
000160 40 f3 b1 bd db 48 57 3d 67 63 ee bd a2 5c 57 3e
       -0.086889744 0.052559715 -0.11640053 0.2103143
000170 dd 80 c1 bd 73 bc 4b be 4b 58 95 bc 5b 76 21 be
       -0.09448407 -0.19896106 -0.018230578 -0.15767805
000180 d5 15 3a be a4 98 8e bd 45 0b ba bd ee 60 3c be
       -0.18172391 -0.06962708 -0.09084181 -0.1839635
000190 20 ec 5c 3e 86 b8 7a 3e 95 68 43 3e 81 2e a0 3d
       0.2157445 0.24484453 0.19082864 0.0782137
0001a0 2f 72 67 be 55 b2 31 be 80 80 77 be 31 e2 42 be
       -0.22602151 -0.17353185 -0.24170113 -0.19031598
0001b0 88 e2 59 3e a2 9d 24 3e 6f 5d 6d be 5d a4 63 3e
       0.21277821 0.16075757 -0.23180173 0.22230668
0001c0 1f 35 d2 3d 72 66 91 3e 39 eb a2 bd 1e 77 41 be
       0.10264038 0.28398472 -0.079550214 -0.18893096
0001d0 e2 88 9f bd 29 76 4e 3c 74 13 d9 bd 73 5e 80 be
       -0.0778978 0.012601414 -0.105994135 -0.2507206
0001e0 e1 61 2a 3e 93 b1 c7 3d db 74 62 3e 0a 6b a4 bd
       0.166389 0.097506665 0.2211489 -0.080282286
0001f0 43 d7 fe bd 17 31 91 be 21 54 44 bd 69 04 6a 3d
       -0.12443402 -0.28357765 -0.047931794 0.057133112
000200 fe ac 72 be 82 e8 91 3e 07 9f df bd 64 1b b9 3d
       -0.23698804 0.28497702 -0.10919004 0.090384275
000210 35 83 89 be aa 69 b9 3d be 0b 7f 3e b7 66 5f be
       -0.26857916 0.09053357 0.24906823 -0.21816526
000220 30 bf 84 be c1 92 93 3d 5b 7b 8c 3d e7 cf 95 3d
       -0.25927114 0.072057255 0.06859466 0.07315045
000230 b8 7a 04 be e9 f5 8a 3e d4 42 25 3d 11 bd 59 be
       -0.12937438 0.2714074 0.040346935 -0.2126353
000240 ec 33 90 3e 64 e2 96 bd fb e6 85 3e 2f 9e 52 3e
       0.28164613 -0.07367399 0.26152787 0.20568155
000250 f9 b5 fa bc 4d 5c 27 3e 0d 29 ee 3d c4 d6 82 be
       -0.03060435 0.16343804 0.116289236 -0.25554478
000260 ba a8 03 be 1c 47 97 3e e1 c0 1f be be 36 8c 3e
       -0.12857333 0.2954644 -0.15600921 0.27385515
000270 41 a4 fa bd 39 f5 e1 bd 6a 13 42 bd 31 34 1f be
       -0.1223836 -0.11033101 -0.047381796 -0.15547253
000280 bf 9e 20 be 6c d2 81 3e 1f ec 07 be fe 3d 4b 3e
       -0.15685557 0.25355852 -0.13273667 0.19847867
000290 86 2f 66 3e 36 2f 90 3e f9 88 30 be 66 4a aa be
       0.22479066 0.2816102 -0.17239751 -0.33259887
0002a0 d4 60 90 be 5d 9c 99 3e 62 6f db bd 88 98 75 be
       -0.28198874 0.30002108 -0.10714604 -0.23983967
0002b0 fa 45 70 be 44 36 ac 3c c4 53 82 3e 56 93 b5 3c
       -0.23464194 0.02102197 0.25454533 0.022164982
0002c0 71 80 c3 3d 1a 58 d2 bd 27 eb c1 3d 34 ed 58 be
       0.09545983 -0.1027071 0.0946868 -0.21184236
0002d0 52 fb 8e bd 15 78 6c be 16 63 7d 3d a4 7e 73 3e
       -0.06981529 -0.23092683 0.061862074 0.23778778
0002e0 83 e9 09 bd 00 68 80 3e 7b 38 e5 bd 7d 95 fe bd
       -0.03366996 0.25079346 -0.111924134 -0.124308564
0002f0 fd ef 44 3e 99 f9 46 3e a7 90 3a 3e 0e 5e 07 be
       0.19232173 0.19431151 0.18219243 -0.13219473
000300 0c 00 8e be 27 d9 6b 3e 9f 15 fc bd e1 aa 54 3e
       -0.2773441 0.23032056 -0.123088114 0.2076831
000310 e7 0b 56 3e 80 c2 31 3e 3b 75 a2 be 91 82 68 be
       0.20902978 0.17359352 -0.31730065 -0.22706057
000320 33 f6 90 be 8e 7f 8a 3e 75 50 d0 3d 08 7c 13 3e
       -0.28312835 0.27050442 0.10171596 0.14402783
000330 27 93 29 be b7 23 03 3d d6 cf 51 3e 84 ef 11 be
       -0.1656004 0.032016482 0.2048944 -0.14251524
000340 b2 51 77 be d6 dc 91 be 39 96 c8 3b 61 0d ab 3d
       -0.24152258 -0.28488797 0.0061214236 0.08352161
000350 76 0d 9e 3e 4f b6 2b bd 79 61 b9 3d fe 09 ee bd
       0.30869645 -0.04192191 0.090517946 -0.116229996
000360 44 14 be bd e5 8f 8b be d0 28 8a 3d 59 ea 19 be
       -0.09281209 -0.2725822 0.067460656 -0.15030803
000370 3d b4 5f be 72 05 4c 3e 67 e0 ac 3e 4f 25 8a 3e
       -0.21846099 0.19923952 0.33764955 0.2698159
000380 f9 d3 0a bd 88 bd 24 be a2 7b 4f 3d ad 86 78 be
       -0.03389356 -0.16087925 0.050655015 -0.24270125
000390 0e cd 63 be 22 0a af bd 25 f5 97 be 25 3a 2d be
       -0.22246191 -0.085468546 -0.29679218 -0.16916712
0003a0 70 6e d7 3d 9f c0 b6 bc 02 81 33 3e fc 76 62 3e
       0.10519111 -0.022308646 0.17529681 0.22115701
0003b0 b3 0b f1 bd 55 6d 9a 3e a4 16 15 3e 3d ad 82 3d
       -0.117698096 0.3016154 0.14559418 0.06380699
0003c0 ff 9c 81 be 8e b1 97 be 5e 71 12 3e f0 aa 1c 3e
       -0.2531509 -0.2962765 0.14301059 0.15299582
0003d0 66 24 67 be e8 9f 0b 3e 0a 89 bd 3e ac a4 37 3d
       -0.22572479 0.13635218 0.37018615 0.044834778
0003e0 06 ad 38 3e 44 fe 81 3e f3 49 62 be e3 52 0c be
       0.18034753 0.25389302 -0.22098522 -0.13703494
0003f0 77 eb 90 3e 2c f6 a5 bd e3 5a c4 bd 21 32 43 3e
       0.28304645 -0.08103594 -0.09587648 0.19062091

local_head.gconv.convs.<stroke___strokecoplanar___stroke>.nn.0.bias f4 [32]
000000 b8 4b f0 bd f9 d0 f7 bd bb ea 20 3e 67 7a df 3d
       -0.11733192 -0.12100405 0.15714543 0.10912018
000010 44 e6 63 3e d9 b7 9a 3e e9 6e 33 3d 43 78 1e be
       0.22255808 0.3021839 0.043806944 -0.15475564
000020 c6 9c ee 3d ca 67 bb ba 0f bb 18 3e f8 1f 4c 3e
       0.11650996 -0.0014297899 0.14915107 0.1993407
000030 ba 9c 49 be d8 11 8f 3e 8c bb 07 3e 61 6c 18 3e
       -0.19688693 0.279433 0.13255137 0.14885093
000040 71 8e 81 be 03 8c 7e 3e d1 e0 1d 3d fd 5c 90 3e
       -0.25303987 0.24858098 0.03854448 0.28195944
000050 82 d2 d7 bd b7 41 d6 3d 07 d7 61 ba c3 4f a5 3d
       -0.10538198 0.10461753 -0.00086151104 0.08071854
000060 c7 69 cc bc bc 4c 1d 3e 67 11 8a 3d 16 14 47 3e
       -0.024952782 0.15361303 0.067416005 0.19441256
000070 9f fa 36 be f3 96 11 3e 67 ec 5a bc 57 a1 85 be
       -0.17869042 0.14217739 -0.013362027 -0.26099655

local_head.gconv.convs.<stroke___represented_by___brep>.nn.0.weight f4 [32, 12]
000000 a0 e9 a8 bd 50 92 bd bd d8 48 1f 3d 8c db f9 3d
       -0.082476854 -0.092564225 0.03888783 0.12200078
000010 fd 00 8a be a6 6e 2f be 10 a2 4b 3d 28 6f 79 3d
       -0.2695388 -0.17132053 0.0497151 0.060897022
000020 04 43 92 3e 89 ae 10 be 00 e6 ed ba 3e b8 87 be
       0.28566754 -0.1412908 -0.001815021 -0.26507753
000030 22 fb 85 3e 5c 04 26 be 90 6a c2 bc 98 67 bf bd
       0.26168162 -0.162126 -0.023732454 -0.09345931
000040 58 2f 56 bd 90 20 36 3e d8 fe 04 3d 2a be 8b 3e
       -0.052291244 0.17785859 0.0324696 0.2729352
000050 28 26 47 3e 40 f6 5f 3c c0 cf 8c 3c d0 8f 38 3d
       0.19448149 0.01366955 0.017188907 0.045059025
000060 62 d5 04 3e 24 c9 18 3e 20 0e 89 3c b8 42 ff bd
       0.12972024 0.14920479 0.016730368 -0.124638975
000070 06 a1 16 3e d0 0a b8 bc f0 68 64 3e d4 c5 c9 3d
       0.14709863 -0.022466093 0.22305655 0.09852186
000080 84 bb 39 be e4 8a a1 3d 1c 42 68 be 80 ad 1f 3c
       -0.18137938 0.078878194 -0.22681469 0.0097459555
000090 00 6d 16 3c fa 3e 87 be 30 ec c7 3d bc 98 60 be
       0.009181261 -0.26415235 0.09761846 -0.21933264
0000a0 88 8e b3 3d 80 19 38 bb c6 d2 1d be f0 37 91 3e
       0.0876742 -0.002809137 -0.15412435 0.2836299
0000b0 8c b8 43 bd 5c ce 8c 3e 20 90 89 bd 30 07 6f 3e
       -0.04778342 0.2750119 -0.06716943 0.23342586
0000c0 2c c8 8f be be c7 8c be c0 66 97 3c 00 d0 bc 3a
       -0.28082407 -0.2749614 0.018481612 0.001440525
0000d0 6e aa 52 be 72 b4 12 be 0c 06 d7 3d 28 f3 5e 3e
       -0.20572826 -0.14326647 0.104992 0.21772444
0000e0 fe 5f 1b 3e 30 fa bb bc f2 3c 3b 3e 60 99 6f 3d
       0.15173337 -0.022946447 0.18284968 0.05849588
0000f0 6e fd 6e be ea 35 4f 3e 80 ea 42 3d 8a 3c 91 3e
       -0.23338863 0.2023541 0.047586918 0.283665
000100 24 87 3d bd 90 40 bc 3c d8 18 64 3d ce 40 8a 3e
       -0.04627146 0.022980005 0.055687755 0.27002567
000110 cc 3c 80 be b4 b0 8c 3d f4 d3 6d 3e c0 a6 42 3e
       -0.25046384 0.06869641 0.23225385 0.19008923
000120 19 99 93 be ea fa 90 3e 00 2d cd 3c aa e5 6a be
       -0.28827742 0.28316432 0.025045872 -0.22939172
000130 e0 58 2f 3e 72 5a 86 3e ce fd 10 be df 12 7d be
       0.17123747 0.2624088 -0.14159319 -0.2471423
000140 ec 5a bf bd 5a 8c 12 3e 82 18 22 3e 10 d9 7e 3e
       -0.09343514 0.14311352 0.15829661 0.2488749
000150 a4 78 35 3e 71 71 72 be 6a 09 f8 bd 11 05 81 be
       0.17721802 -0.23676087 -0.121111706 -0.25199178
000160 56 7a 8e be cf 1f 17 be 54 95 52 3e ba cb 73 be
       -0.2782771 -0.14758228 0.20564777 -0.23808184
000170 98 ae 10 bd d5 7c 0a be 78 52 99 3d cc 80 8f 3e
       -0.035322756 -0.13524182 0.07486433 0.28027952
000180 a2 9d 95 bd e8 fc 65 be 0d 5e 16 be 30 b5 74 3d
       -0.07305457 -0.22459757 -0.14684315 0.059743106
000190 72 da 88 be a4 01 7c 3e 20 a7 56 3d 5c b4 fa 3d
       -0.2672916 0.24610001 0.052405477 0.12241432
0001a0 57 39 4e be 70 31 8f 3e c6 9b 50 3e e2 95 ed bd
       -0.20139061 0.27967405 0.20371923 -0.116008535
0001b0 bc c0 2e be 92 2d 12 be 70 34 f7 3c f2 83 76 be
       -0.1706571 -0.14275196 0.030176371 -0.2407377
0001c0 a8 48 4a 3e 48 3a e5 3d 00 90 6f 3e 10 7a c1 bc
       0.19754279 0.11192757 0.23394775 -0.023617774
0001d0 00 e5 c6 3a 5e c2 81 3e b8 d6 04 bd 2c f9 89 bd
       0.0015174448 0.25343603 -0.032431334 -0.06736979
0001e0 ec f8 eb 3d 84 94 22 3e 60 9d d9 bc 14 77 e5 3d
       0.115220875 0.15876967 -0.0265643 0.11204353
0001f0 32 fd d3 bd d2 1d 36 be 88 ce 38 be 44 75 d9 bd
       -0.103510275 -0.17784813 -0.18047535 -0.1061807
000200 8c 3d d1 bd c0 60 e2 3b cc 3c d5 3d a8 e4 11 3e
       -0.10216817 0.006908506 0.10411987 0.14247382
000210 98 ca 66 bd 1a 69 14 3e 9a 38 ed bd 38 24 04 bd
       -0.056345552 0.14493218 -0.115830615 -0.032261103
000220 90 69 55 be 6e d5 09 3e 04 9b 6d 3e b8 f8 13 be
       -0.2084105 0.13460323 0.23203665 -0.14450347
000230 55 36 3c be 10 a2 c4 3d 40 63 f5 bb c0 8a e8 bc
       -0.18380101 0.096012235 -0.007488638 -0.028386474
000240 c0 58 53 3c 3a 43 38 3e 70 97 02 3d 68 8e 64 bd
       0.012899578 0.17994395 0.031882703 -0.05579987
000250 10 0f f2 3c ab 05 41 be 60 f7 b3 3c 90 60 7e bd
       0.029548198 -0.18849818 0.021968544 -0.062103808
000260 8a 01 04 be 16 1a 77 be 48 0b 3b be 3a 4b 00 be
       -0.12891212 -0.24131045 -0.18266022 -0.12528697
000270 32 0d 18 3e e0 14 f8 bd 5e 4e 8f 3e 24 e9 27 bd
       0.14848784 -0.121133566 0.27989477 -0.040993825
000280 a0 17 1c bc f0 db 15 3d cc f5 f3 bd 90 d0 25 bd
       -0.009527117 0.036586702 -0.119121164 -0.040482104
000290 97 7c 3d be f4 66 6d bd 32 ac 33 3e b4 04 7e 3e
       -0.18504559 -0.057959512 0.17546156 0.24806482
0002a0 03 b1 15 be ec ef 2f bd 80 bd 5f 3c 4e d7 56 be
       -0.14618306 -0.042953417 0.01365602 -0.2098057
0002b0 e0 65 21 bc 40 b4 01 bd 9a 6f 0d 3e 66 90 1f be
       -0.009850949 -0.03166604 0.13812104 -0.15582427
0002c0 d4 7c 4b 3e 58 08 a4 bd 50 d3 f1 3c a3 c9 06 be
       0.19871837 -0.08009404 0.029519707 -0.13162856
0002d0 60 88 72 be 27 ce 73 be 84 86 7a 3e 6e 71 34 3e
       -0.23684835 -0.2380911 0.24465376 0.17621395
0002e0 c8 cd 64 be 1c 0d 2a bd e1 c5 33 be 1b 1c 86 be
       -0.22344124 -0.04151641 -0.17555954 -0.26193318
0002f0 b8 59 c4 bd f0 20 9d bc 00 6e 7b 3e 10 cc 8a be
       -0.09587425 -0.019180745 0.2455368 -0.27108812
000300 40 b6 69 be f0 a4 34 be e6 4e 9a bd 80 ea c0 bb
       -0.22823429 -0.17641044 -0.0753458 -0.0058873296
000310 14 35 6b bd 0c 62 ea 3d f8 fc 5d 3e 28 a9 64 3d
       -0.057423666 0.11444482 0.21678531 0.055825382
000320 1e 45 08 3e 08 30 ff 3d 7c d3 53 3e ea ec 2f 3e
       0.13307616 0.12460333 0.20686144 0.1718022
000330 cc 65 79 3e d5 9b 26 be 00 54 92 3c 50 5f 96 bc
       0.24355239 -0.16270383 0.01786232 -0.018355995
000340 4c a6 86 be b2 8e 97 bd 70 6d 9c 3c 0c 45 3a be
       -0.2629875 -0.07400264 0.019095153 -0.18190402
000350 c6 17 8f 3e 30 ef c3 bc 6c e9 96 3d fa 92 88 bd
       0.27947825 -0.023917764 0.073687404 -0.066686586
000360 38 2d 96 3d 82 de 37 be 7e 8f 81 bd 9e ac 23 be
       0.073328435 -0.17955974 -0.06326197 -0.15983817
000370 90 58 6f bd 14 6d 10 3e f8 66 e3 3d c8 54 05 3d
       -0.05843407 0.1410411 0.11103624 0.032551557
000380 67 61 32 be 14 22 13 3e c0 48 ee 3b e4 23 82 be
       -0.17419969 0.14368469 0.007271856 -0.25418007
000390 d4 89 84 3d ec 10 52 bd 20 15 21 3c 5e bb 86 3e
       0.06471601 -0.05128567 0.009831697 0.26314825
0003a0 80 34 7d bc c8 37 85 be 50 99 94 3d 18 c3 9e bd
       -0.0154544115 -0.2601912 0.072558045 -0.07752055
0003b0 58 9e 02 3d 74 6f 86 3d c0 06 f0 3b be 33 dd bd
       0.03188929 0.06564227 0.0073250234 -0.10800885
0003c0 6a 4b 26 3e d8 ed 0c be 58 c7 75 3e 26 0c 7c be
       0.16239706 -0.13762605 0.24001825 -0.2461401
0003d0 00 9d 85 bb 78 c7 5b bd 78 a1 eb 3d fa c0 3d be
       -0.0040775537 -0.053657025 0.11505407 -0.18530646
0003e0 f0 9a b5 bc c4 75 29 3e 9c 90 0f 3e 50 3e b7 bc
       -0.022168607 0.1654883 0.14020008 -0.02236858
0003f0 3b 88 83 be 6a 17 73 be a8 d7 0a 3e a0 be 6a bd
       -0.25689873 -0.237394 0.13558829 -0.0573107

local_head.gconv.convs.<stroke___represented_by___brep>.nn.0.bias f4 [32]
000000 04 d1 60 be e6 e6 0f 3e c2 f7 2a be 23 93 88 be
       -0.21954733 0.14052925 -0.16696075 -0.26674756
000010 6c eb 8e 3d 22 be 8a 3e 29 12 40 be d8 0d 2e 3d
       0.06978497 0.27098185 -0.18756928 0.04249367
000020 91 c9 83 be a8 3a 0b bd d0 a1 9a 3c 5a 1f 88 3e
       -0.2573972 -0.033991486 0.018875986 0.2658642
000030 28 d1 f7 3d 51 5c 0f be c6 54 ee bd 2c 08 7b bd
       0.1210044 -0.1400006 -0.11637263 -0.06128709
000040 88 a4 7e 3e c1 f6 19 be 1c e6 ba 3d 54 35 75 be
       0.24867451 -0.15035535 0.09125921 -0.23946124
000050 68 04 67 bd b8 6b 01 bd 18 fb e9 3d d0 f4 7d 3d
       -0.056400687 -0.03159687 0.114248455 0.06200105
000060 14 84 6c 3e 96 01 08 be c0 d3 4c 3e a4 fc 5e 3e
       0.23097259 -0.13281855 0.20002651 0.21776062
000070 38 04 63 bd 42 37 a9 bd 8b cd 2d be 60 6e 2b be
       -0.055423945 -0.08262493 -0.1697294 -0.16741323

local_head.gconv.convs.<brep___brepcoplanar___brep>.nn.0.weight f4 [32, 12]
000000 a8 61 b0 3d b8 f9 11 be 9c 33 a2 3d 44 1c 80 be
       0.086123765 -0.14255416 0.0792 -0.25021565
000010 18 7a 87 3e b0 36 16 3e 10 85 0a 3d f4 81 6b be
       0.26460338 0.14669299 0.033818305 -0.22998792
000020 e0 2b 42 bc a1 ba 8c be e4 8f a8 3d 98 8e 37 be
       -0.011851281 -0.27486137 0.0823057 -0.17925489
000030 d8 17 89 3e e3 a0 04 be de c1 79 be 00 81 36 3d
       0.26776004 -0.12951998 -0.2439036 0.044556618
000040 80 68 81 bc e0 2e 8c 3e 4e 28 aa bd bc 5f 8c be
       -0.0157969 0.27379513 -0.08308469 -0.2741679
000050 a0 22 82 3c 48 b3 45 be e8 45 dd bd 04 61 01 be
       0.015885651 -0.19306672 -0.10804349 -0.12634665
000060 40 48 bf 3d 77 23 42 be 50 1e ed 3d 98 f9 11 3e
       0.093399525 -0.18958841 0.11578047 0.14255369
000070 3a b7 8c be 40 35 0e 3e 90 41 07 bd a4 b8 21 be
       -0.2748354 0.13887501 -0.03302151 -0.15793091
000080 ea 67 dc bd 74 34 5b be 94 cb 81 3d c4 c7 2b be
       -0.107620075 -0.21406728 0.063376576 -0.16775423
000090 60 21 e4 3c 66 d4 e8 bd 98 a9 3b be 48 14 0a 3e
       0.027847946 -0.11368637 -0.18326414 0.13484299
0000a0 82 68 9e bd 90 c1 c4 3c 35 f8 4a be 10 a9 8c 3e
       -0.07734777 0.024018079 -0.19821246 0.27472734
0000b0 24 91 79 3e 14 a2 7b 3e 80 92 3d 3c e2 71 19 be
       0.24371773 0.24573547 0.011570573 -0.14984849
0000c0 28 9d 3b be c0 6a dd 3b 7f f6 36 be 04 b4 4d be
       -0.18321669 0.0067571104 -0.17867468 -0.20088202
0000d0 a4 eb cd 3d 28 34 74 3e 88 85 58 be b4 c9 40 be
       0.100547105 0.23848021 -0.21144688 -0.18826944
0000e0 3e 31 13 be 80 31 79 3e e2 c9 3d be e0 98 41 bc
       -0.14374253 0.24335289 -0.18534043 -0.011816233
0000f0 f0 ed b5 3d 3b 37 84 be 32 37 5f be c0 e4 3b 3d
       0.088832736 -0.25823388 -0.21798399 0.04587245
000100 ec ce 97 3d b8 bd 55 be 80 ca 41 3b 00 b7 92 3e
       0.07412514 -0.20873153 0.0029570162 0.28655243
000110 26 8c 98 bd 58 84 19 3d 6e 30 78 be 3c 58 3d bd
       -0.07448606 0.03747973 -0.24237224 -0.046226725
000120 cc 7f 8b 3d f0 41 5e 3e 80 0a 82 3d 9b de 1a be
       0.06811485 0.2170484 0.06349659 -0.1512398
000130 b4 a8 61 3e 80 aa 4c 3b 20 a2 5d 3c de 6d 16 3e
       0.22037011 0.0031229556 0.013527423 0.14690349
000140 f8 db 5f bd e8 79 59 3e 00 9e c7 bc 04 aa f0 3d
       -0.054653138 0.2123791 -0.024367332 0.11751178
000150 6f a7 74 be 80 03 d0 3b 6e 61 cc bd 38 dc 75 3e
       -0.23891996 0.0063480735 -0.09979521 0.24009788
000160 c0 64 33 bd ef 83 63 be f0 a9 67 3d c0 56 bb 3c
       -0.043797255 -0.22218297 0.05655855 0.022868514
000170 8a f1 f1 bd 06 79 8a 3e 28 b4 fd 3d 8c 1c b8 3d
       -0.11813648 0.2704546 0.12387878 0.0898982
000180 84 3d 5c 3e 18 cd 20 3e a8 56 41 3e 2c 3d 8c 3d
       0.21507841 0.15703237 0.18880713 0.06847605
000190 ea 5c 55 be 4c 1e 25 bd 8b 96 91 be 08 23 1e 3e
       -0.20836225 -0.040312096 -0.28435168 0.15443051
0001a0 80 40 67 3d b4 44 57 be 08 c7 7f 3e bc ba ac 3d
       0.056457996 -0.21022302 0.24978268 0.08434054
0001b0 c8 1a cf bd d4 84 0d 3e 9c 42 90 3d e0 e1 e6 3d
       -0.1011253 0.13820201 0.07043955 0.11273551
0001c0 6c e6 7a be c4 f3 7a 3e b0 5a 79 be 10 51 a2 bc
       -0.24501961 0.24507052 -0.24351001 -0.019814044
0001d0 4e 93 89 bd 40 64 0b 3d 14 8d 92 3e 40 86 83 3d
       -0.06717549 0.034031153 0.2862326 0.064220905
0001e0 44 36 a5 bd d0 70 44 be 80 d6 34 3d 60 d4 01 3c
       -0.08066991 -0.1918366 0.044149876 0.007924169
0001f0 27 33 75 be 3c 88 00 3e 54 b5 8e 3e ec b0 e0 bd
       -0.23945294 0.1255197 0.27872717 -0.10971245
000200 05 5e 1c be 32 a3 36 3e 80 d5 b9 bd c0 7d 8e 3e
       -0.1527024 0.17835692 -0.09073925 0.27830315
000210 00 61 e3 3b 10 cc 9b 3d a2 72 19 3e b2 5b a4 bd
       0.0069390535 0.07607281 0.14985135 -0.08025302
000220 40 54 27 3d 74 6a 87 be fb 1e 87 be 10 15 3c 3e
       0.04085183 -0.26448405 -0.26390824 0.1836741
000230 25 04 8a be b0 83 c6 bd 65 e1 11 be 0c fd 9a 3d
       -0.26956287 -0.09693086 -0.14246137 0.07567796
000240 04 38 58 3e f8 0a 37 3e 9f 62 4d be b2 61 f6 bd
       0.21115118 0.17875278 -0.20057152 -0.12030353
000250 40 77 3e bd d6 9a 44 3e 24 13 3d be 30 49 2c 3e
       -0.046500444 0.1919969 -0.18464333 0.16824794
000260 2e f7 4f be ac b1 df 3d b7 75 3b be dc 24 5c bd
       -0.20309135 0.1092256 -0.18306623 -0.05374609
000270 58 84 5d 3e 4a 3e 45 3e 18 27 d7 3d 70 6d 13 3e
       0.21632516 0.19262043 0.105055034 0.14397216
000280 24 c0 6a 3e 76 95 18 3e 62 43 52 3e 17 47 5c be
       0.22924858 0.14900765 0.20533517 -0.21511494
000290 ba d7 8d 3e cc a2 67 be 5a b6 21 3e e0 df d0 bd
       0.2770365 -0.22620696 0.15792218 -0.10198951
0002a0 bc b9 8b 3d f2 7c 65 be 14 6d 6c bd 90 40 f6 3d
       0.068225354 -0.22410944 -0.057721213 0.12024033
0002b0 22 c6 4e be a8 a7 85 3e 33 cd 20 be c0 6e 60 3d
       -0.20192769 0.26104474 -0.15703277 0.05479312
0002c0 04 f0 19 3e fa 12 41 be d8 2b ae bd f6 e0 4d be
       0.15032965 -0.18854895 -0.08504456 -0.20105347
0002d0 80 a4 7f 3b 48 90 f9 3d ba 27 8b 3e f2 99 21 3e
       0.0039007962 0.121857226 0.27178746 0.15781382
0002e0 48 3c 7d 3e f4 7a 6e 3e 58 8d 4a 3d f6 07 8f 3e
       0.24730027 0.2328909 0.049451202 0.2793576
0002f0 78 6d a8 3d c0 24 62 3d 98 e5 84 3e 5e 85 32 3e
       0.082240045 0.05521083 0.25956416 0.17433688
000300 08 54 ee bd 88 29 70 3e 20 ee ba 3d a0 b5 23 bc
       -0.116371214 0.23453343 0.0912745 -0.009992033
000310 4c aa fa bd 1c 2b 67 3e 20 40 85 3e 40 8d 20 3c
       -0.12239513 0.22575039 0.26025486 0.009799302
000320 72 84 e3 bd 68 86 26 3e 2f 2f 27 be d0 a5 7b 3d
       -0.11109246 0.1626221 -0.16326593 0.061437428
000330 12 f7 1b be 6c 7a 70 3e a8 a8 fb bd 00 6c a2 39
       -0.15230969 0.234842 -0.12288028 0.00030979514
000340 24 c4 06 be 5c 39 e3 bd 80 15 23 3d 25 00 7d be
       -0.13160759 -0.11094925 0.039815426 -0.24707086
000350 7a 6c 15 3e 32 e2 b3 bd 3c b0 b9 3d a8 29 f4 bd
       0.14592162 -0.08783378 0.09066817 -0.11922008
000360 67 c4 29 be f9 c3 3c be 98 1a 61 3e 5f ae 67 be
       -0.16578828 -0.18434133 0.21982801 -0.22625111
000370 7a 1b 2e be 80 19 76 3e 8a 80 56 3e 6a d5 25 be
       -0.17002669 0.24033165 0.20947471 -0.16194692
000380 08 b7 c4 3d b2 da f0 bd 40 ab 4e 3e 40 bd 98 3d
       0.09605223 -0.11760463 0.20182514 0.074579716
000390 34 05 8d bd 32 58 0b 3e e6 be f5 bd b8 90 6f 3d
       -0.06885758 0.13607863 -0.119993016 0.058487624
0003a0 c4 28 bc bd 90 65 e3 bd 20 f1 6d 3e ec 85 dd 3d
       -0.09187463 -0.11103356 0.23236513 0.10816559
0003b0 01 4d 93 be f0 8f 10 3d 40 d8 1b 3c c4 9d 4d 3e
       -0.28769687 0.03529352 0.009512007 0.20079714
0003c0 30 75 53 be 96 9c 36 3e d4 e0 b5 bd 20 eb 2e be
       -0.20650172 0.1783317 -0.08880773 -0.1708188
0003d0 e4 9e 89 3e ee 85 b4 bd f8 6d 92 3d 42 5e 8a be
       0.26879036 -0.088146076 0.07149881 -0.27025038
0003e0 7a c4 22 3e 14 1f 57 be 50 29 85 be 44 61 5a be
       0.15895262 -0.21007949 -0.2600808 -0.21326166
0003f0 80 65 6e 3e 7a 27 01 3e e8 68 07 bd 02 60 38 3e
       0.23280907 0.12612715 -0.03305903 0.18005374

local_head.gconv.convs.<brep___brepcoplanar___brep>.nn.0.bias f4 [32]
000000 c4 34 c4 bd e8 23 b9 3d 80 b8 d9 3c e8 0e 37 3d
       -0.09580377 0.09040052 0.026577234 0.04469195
000010 e6 41 91 be 1e 44 7d be 00 81 85 3a 00 b2 ca 3a
       -0.2837059 -0.24733016 0.001018554 0.0015464425
000020 6e 5d 4f 3e 30 2e 0b 3e 6f f5 77 be de e1 c1 bd
       0.20250484 0.13591838 -0.24214719 -0.09466909
000030 40 b9 f5 bc 9c fc d5 3d 73 b0 93 be b2 f1 0a 3e
       -0.02999556 0.10448572 -0.28845558 0.13568762
000040 20 9c 7e bc 44 ca 80 be c0 f5 95 bb a2 5c 88 3e
       -0.015540153 -0.25154316 -0.004576415 0.26633173
000050 fa ca ca bd a6 03 83 3e 2c a4 16 be 34 3f 16 3e
       -0.09901996 0.2558872 -0.14711064 0.14672548
000060 84 2f 34 be 68 d6 08 bd d4 c8 3b 3e 18 3e f5 bd
       -0.17596251 -0.0334076 0.18338329 -0.11974734
000070 00 f6 00 3d 48 ee 20 3e a8 94 49 bd ea cf dd bd
       0.031484604 0.15715897 -0.049214035 -0.10830672

layers.0.mlp_edge_conv.gconv.convs.<stroke___temp_previous___stroke>.nn.0.weight f4 [32, 64]
000000 89 42 b3 3d 49 2a 6e bc 15 72 4c 3d bd 39 a8 bd
       0.08752925 -0.014536449 0.049913485 -0.08214138
000010 31 56 04 3e db 78 9b bc 3d 66 86 3d de 4f f5 3d
       0.12923504 -0.018978527 0.06562469 0.11978124
000020 e5 69 ec 3d ca 79 3c bd 2b 17 bc 3d 57 b0 c0 bd
       0.11543635 -0.046014585 0.091841064 -0.09408634
000030 65 5c d3 3d 3a 5b b0 bc dd 3b d1 3c f0 06 d6 3d
       0.10320357 -0.021527875 0.02554124 0.10450542
000040 ef 9f a2 bc 6d e0 3e 3c 6a 9e fa bc 44 15 ab bd
       -0.019851653 0.011650187 -0.030593116 -0.083536655
000050 53 36 54 3d eb ce 2d bd 1f 76 e3 bd e0 ee c8 3d
       0.05180962 -0.04243366 -0.11106514 0.09811187
000060 1c 65 60 bd 27 f6 9b 3b 5c 52 88 3d 00 9b cd 3c
       -0.054783925 0.0047595683 0.06656334 0.025098324
000070 1a 3a b3 3d 85 a5 a7 3d 0d e6 25 bd 68 dd cb bd
       0.08751316 0.08185867 -0.040502597 -0.09954339
000080 42 0a 78 3d 4a 07 70 bd 68 48 17 bc 47 78 ca 3d
       0.060556658 -0.0586007 -0.009233572 0.09886222
000090 b5 ae 0a 3e ae 00 ca bd bd b8 94 3c f3 9d c3 3d
       0.13543208 -0.09863411 0.018154496 0.09551611
0000a0 16 62 68 3b 01 5f 44 bd ba 87 41 3c 46 4f 92 3d
       0.0035458854 -0.047942165 0.011812145 0.071440265
0000b0 75 ab 28 bd cf e5 26 bd 4c 8e 8f bd 65 4c 24 bd
       -0.04117914 -0.040746506 -0.07009563 -0.040111918
0000c0 41 dc 9f 3d 25 94 af 3d 25 3f cd 3d 2c 6d 5c 3d
       0.07805682 0.08573178 0.100218095 0.053815052
0000d0 27 be af 3d 15 b3 f3 3d 59 d0 08 3e 59 11 74 bd
       0.085811906 0.118993916 0.13360728 -0.059586857
0000e0 98 24 96 3d 3c 28 d6 3d a7 6c 5f bd b7 b3 ce 3d
       0.073311985 0.10456893 -0.05454698 0.10092872
0000f0 cb af bb 3c 27 b7 12 3e 0b c1 c7 bd f7 23 05 3e
       0.022910973 0.1432768 -0.09753617 0.13002001
000100 62 e6 5e bd ce 6e 89 bd a6 6f 92 3d d5 78 19 3d
       -0.05441893 -0.067105874 0.071502015 0.03746875
000110 36 d8 47 bd 60 e8 97 3d be 6b 1c 3c 44 75 01 bd
       -0.04879018 0.07417369 0.009547172 -0.031605974
000120 aa c0 3a bc dd ae 11 bd 1c df 54 ba 92 a6 f2 3c
       -0.011398474 -0.035567153 -0.0008120404 0.029620443
000130 54 11 fe bc 31 81 de 3d 42 45 0c 3e c2 88 15 bd
       -0.031014122 0.10864485 0.13698295 -0.036507376
000140 fd ea 0e 3e 7a 9c 3b 3c 25 23 c1 3c 09 67 47 bd
       0.13956828 0.011450881 0.023576329 -0.048682246
000150 2d 3f 4a bd 8c 4d 03 3b 5a f9 5c bd 90 47 99 3d
       -0.049376655 0.0020035235 -0.053948738 0.074843526
000160 92 03 9d 3d 28 32 ed bd cd 8e 8f 3d 69 57 ee 3d
       0.076666966 -0.11581832 0.07009659 0.11637766
000170 05 a5 b5 bd 72 c7 e0 3d d8 d3 35 bd fc 63 74 3d
       -0.088693656 0.10975541 -0.044391483 0.059665665
000180 93 f2 16 3e c4 ef 15 3d d4 e1 b6 bd fd ab 87 bd
       0.14740972 0.03660561 -0.08929792 -0.06624601
000190 95 cb a2 bc 31 33 37 bd c8 ab d5 3c ac 5c 63 3d
       -0.019872466 -0.044726554 0.026082888 0.0555083
0001a0 4b 32 c6 bb 2f 25 ef 3d 6d 58 0f bd 84 a5 07 be
       -0.006048476 0.11677014 -0.03499644 -0.13246733
0001b0 32 ea bb 3d 24 a8 f5 3c 6f 9d 70 3d 29 43 57 bd
       0.091755286 0.029987402 0.05874389 -0.052554283
0001c0 78 e3 ce bd 2b 69 49 3c 8d 44 a9 bd 58 ee c9 bd
       -0.1010198 0.01229314 -0.08265028 -0.098599136
0001d0 6b 0b 9b bc 5d 3a 2d bd 8b f0 8e 3d 73 fe 64 3d
       -0.018926343 -0.042291988 0.06979474 0.055906724
0001e0 c8 0a ce bd 7d 76 70 3d d9 57 2c 3d ad 1f 17 3e
       -0.1006065 0.05870675 0.042075966 0.14758177
0001f0 38 6e 9f 3d 68 c0 28 3c c1 d8 f5 3d 19 ef f3 bd
       0.077846944 0.0102997795 0.12004233 -0.11910839
000200 42 86 0e 3e a8 28 81 bd 18 9e 25 3d c6 23 be bd
       0.13918403 -0.06306583 0.040433973 -0.09284167
000210 ce 12 e6 3c ba 94 90 bd e3 d4 55 3d 59 a4 ba bd
       0.028085139 -0.07059617 0.052204978 -0.09113378
000220 3a 3f ea 3d 02 ca fe 3c 59 62 22 bd 17 ee ea 3d
       0.11437841 0.031102184 -0.039644573 0.11471193
000230 b4 1e 8d bd 24 10 cd bd b9 38 17 bd 7a d7 00 be
       -0.06890622 -0.10012844 -0.03691933 -0.12582198
000240 c1 6f 4d 3d 8c fb 9c 3d aa da 50 3b 41 54 53 3d
       0.050155405 0.07665166 0.0031868615 0.051594023
000250 d4 96 d1 bd e5 23 e1 bd f2 03 fa bc 34 a5 9c 3d
       -0.10233846 -0.109931745 -0.03051946 0.076486975
000260 be cf d5 3d 1e 81 bd bd 3c 2f aa 3c 2a a6 ce bd
       0.10440014 -0.09253143 0.020774476 -0.10090287
000270 5b d3 7e 3d ed c6 c2 3d 61 b5 ca 3d ff dc 86 3d
       0.062213283 0.09510598 0.098978765 0.065851204
000280 95 fc f9 3d b1 27 0b 3e 15 9f dc 3a 3e ef b7 bd
       0.12206379 0.1358936 0.0016832078 -0.08981179
000290 b2 87 15 3c e9 7c 87 bd 1c 7e d8 3c c4 4d ce 3c
       0.009126591 -0.066156216 0.026427321 0.025183566
0002a0 be f0 95 bd 0f 21 20 3d 85 9c a9 3d a1 4e c5 bd
       -0.073213086 0.039094027 0.08281807 -0.09634138
0002b0 02 74 b1 bd e6 14 b0 3d 3f 44 7f bd d5 05 24 3d
       -0.08664705 0.08597736 -0.062320944 0.040044624
0002c0 63 2d e2 3d dc 86 31 bc e5 88 ee bd 39 08 58 3d
       0.11043813 -0.010835376 -0.11647204 0.052742217
0002d0 33 54 81 3d e4 6a b6 3a 27 d6 bf bc 7e 63 c6 bd
       0.06314888 0.0013917354 -0.023417545 -0.096869454
0002e0 51 c4 b6 bc f7 a3 e9 3c ba f5 fc bd a4 32 1e bd
       -0.022310408 0.028520567 -0.12351556 -0.038622513
0002f0 d7 d6 d2 bc 64 21 d9 3c 9f d5 9c bc f4 80 7e 3d
       -0.02573721 0.02650518 -0.019144831 0.062134698
000300 ae c4 3c bd a7 f8 44 3d d2 6b b7 3d e5 2e 74 3c
       -0.046086006 0.048088696 0.08956112 0.014903759
000310 a2 d5 92 bd 97 9b 4a 3d 8c 38 26 3e 15 23 81 bb
       -0.071696535 0.04946479 0.16232508 -0.0039409497
000320 88 c2 b6 3d e9 fe 86 3d 14 1f 16 3e 07 3b 9b bc
       0.08923823 0.06591589 0.14660293 -0.018949045
000330 c5 6c 29 3d 4e 87 92 3d 50 51 60 3d 1c 9f e5 3d
       0.041363496 0.071547136 0.054765046 0.11211988
000340 5b 64 ea 3d 88 af 6b bd a4 bc 62 3d 46 e1 e5 3d
       0.114449225 -0.057540447 0.055355683 0.11224608
000350 31 a9 22 bd d6 d7 6d bd d8 d2 ac bd e4 dd 61 3d
       -0.039712135 -0.058067165 -0.08438653 0.055143252
000360 c9 27 19 3d fa 5c 9d bd 29 d7 02 3e 83 a8 ca 3d
       0.037391458 -0.076837495 0.1277739 0.09895422
000370 45 6a af bc 27 4c 13 3d b1 ed dd bd a4 46 0c 3e
       -0.021412978 0.035961296 -0.10836352 0.13698822
000380 96 18 39 3e 5b 06 55 3c 10 2c 8c bc 35 84 b4 3d
       0.18075785 0.013002004 -0.017110854 0.08814279
000390 63 5d a2 3c 17 5a 0a 3e 44 59 9b 3d 4c 42 18 bb
       0.01981992 0.13510929 0.075853854 -0.0023232875
0003a0 f4 7d 19 3d 84 99 e5 bd 32 28 a7 bd 8b 9b 87 3c
       0.037473634 -0.112109214 -0.081619635 0.01655366
0003b0 2f 32 b9 bd 78 cc 78 bd 65 42 dc bd 29 a5 19 3e
       -0.09042775 -0.06074187 -0.10754851 0.1500441
0003c0 25 61 31 3e 13 17 ac bd f9 17 bc bd fe e8 8c 3d
       0.17322214 -0.084028386 -0.0918426 0.06880377
0003d0 c1 f3 84 bd 26 87 09 bc d9 41 61 bd 70 22 45 3e
       -0.06491805 -0.008394038 -0.054994438 0.19251418
0003e0 6c 01 39 3b f4 31 08 bc 25 12 90 3d 04 56 10 be
       0.0028229607 -0.008312691 0.07034711 -0.14095312
0003f0 c6 a0 b7 bd a3 28 3f 3e f7 59 45 3d 29 33 99 3d
       -0.08966212 0.18667845 0.0481815 0.07480461

layers.0.mlp_edge_conv.gconv.convs.<stroke___temp_previous___stroke>.nn.0.bias f4 [32]
000000 aa a1 45 bd b9 3f 21 3e 5f 10 34 3d 38 a0 0c 3d
       -0.048249878 0.15746965 0.043960925 0.034332484
000010 6c 25 e1 3d 28 3b e2 3d bd 03 a4 3d d2 fa 11 bd
       0.10993466 0.110464394 0.080085255 -0.03563959
000020 b2 4e e8 3d 6f 62 c4 bb a0 ca 4f 3e ca cd 77 3d
       0.11343135 -0.0059931795 0.20292139 0.06049899
000030 83 51 b2 3d ea 5c bb bd 70 5a 4d bd 5d 65 6d bd
       0.087069534 -0.09148581 -0.050135076 -0.057957996
000040 0d 6e eb 3d 42 f3 6a bd a9 75 f2 3d 53 48 ad bd
       0.114956 -0.057360895 0.11838848 -0.084610604
000050 f1 3b 1f 3e 47 47 a7 bd b9 46 5a 3e 99 db c0 3d
       0.1555021 -0.08167892 0.21316041 0.09416885
000060 e5 bd e7 bd af 4d 39 3e ad b0 10 be 93 ef 68 3c
       -0.113155164 0.1809604 -0.14129896 0.014217275
000070 95 8d fd bd 84 82 ee 3d 87 07 de 3c 09 d9 75 3d
       -0.1238052 0.11645988 0.027103199 0.060021434
